rl/ppo_model_0.pth (torch, 8560 bytes, 6 tensors)

fc1.weight f4 [32, 6]
000000 36 3f a5 3e 52 b8 d8 bc 74 88 db be a2 f1 a3 be
       0.3227479 -0.026455078 -0.42877543 -0.3202029
000010 e1 db ca be b3 49 f9 bc 51 10 72 3d f5 17 a1 be
       -0.3962088 -0.03043065 0.05909759 -0.3146359
000020 3b ff 92 bd a5 35 a0 3d 5a f1 6d 3e ab 2b 60 3d
       -0.071775876 0.07822732 0.232366 0.054729145
000030 25 02 4f 3d 25 ad 57 3e 07 5d ae be a4 8b 2e be
       0.050539155 0.21062143 -0.3405535 -0.17045456
000040 d6 25 ad 3d 09 bc 0b 3c 5f 79 94 3e 92 95 69 3d
       0.08454482 0.008528718 0.2899885 0.057027407
000050 73 be c6 be 0d cd b1 bc f3 5a 9c 3e 91 38 bb 3e
       -0.38817176 -0.021704221 0.3053814 0.36566594
000060 a7 db f3 bd 26 0b 4c 3d e8 37 c5 3e a5 52 3d 3e
       -0.1190713 0.04981532 0.38519216 0.18488558
000070 3b 87 53 bc 1a d3 a2 3e 43 71 ac 3e dd 10 ca 3d
       -0.012910659 0.31801683 0.33680162 0.09866498
000080 0c e7 56 be 8e 4e fb bd 61 a9 a2 be 99 ad ab bc
       -0.20986575 -0.122708425 -0.3176985 -0.020956801
000090 de 82 5d 3d 24 78 7a 3e ae 35 8c 3e a3 03 ba 3e
       0.054079883 0.24459893 0.27384704 0.363309
0000a0 61 b3 c1 3e 92 29 70 3e d6 14 3f 3e c5 27 ac bc
       0.37832168 0.23453358 0.18660292 -0.021015057
0000b0 71 44 dc 3e 8c 41 58 be 58 a7 8d be 1e e3 90 3e
       0.43020967 -0.21118754 -0.27666736 0.28298277
0000c0 17 7d d5 3e 7c cf de 3e 9d 7e ad be 84 12 99 be
       0.41696998 0.43517673 -0.3388566 -0.2989694
0000d0 5f 49 31 3e 50 20 30 be 6a 40 13 3d d2 dd a2 bc
       0.17313145 -0.17199826 0.035950102 -0.019881163
0000e0 90 6c 1e bc 41 5f d1 3e 59 13 ba 3e 50 28 a6 be
       -0.009669438 0.40892985 0.36342886 -0.3245263
0000f0 68 ac 29 bd 35 7b ad 3e 9a a0 4d 3e 6c 44 b3 bc
       -0.041424185 0.33883062 0.20080796 -0.021883212
000100 b6 ef 25 be a2 25 ca bd d6 5a 06 3e 83 10 67 bd
       -0.16204724 -0.09870459 0.13120589 -0.05641223
000110 a6 41 99 3d 8f d8 b2 3d 4f 35 95 3e bd 01 92 3e
       0.074832246 0.087327115 0.29142234 0.2851695
000120 4e 58 7c be 2d 4a 8b be fa 19 c8 3d 5c 84 ae 3e
       -0.2464306 -0.2720503 0.0977058 0.34085357
000130 36 b5 a4 3e cb 59 ac 3d e3 5c 76 3e da e0 d8 3e
       0.32169503 0.08415564 0.24058871 0.42359048
000140 7a f5 d5 be 3b 5e 7a 3e 8a 09 e8 bb 90 df bd 3c
       -0.41788846 0.24450009 -0.0070812153 0.023177892
000150 2b 18 02 3e 55 e4 18 3b c2 f5 c3 3e 49 73 27 3e
       0.12704532 0.0023329456 0.38273436 0.16352572
000160 b6 b5 04 be a0 c4 be be 90 6f b4 3c c5 5d b2 be
       -0.12959942 -0.37259388 0.022025853 -0.34837165
000170 81 8f d9 bd 52 73 b7 be f0 e8 7d 3e 83 a2 c8 bd
       -0.10623074 -0.3583017 0.2479589 -0.09796622
000180 40 7a 5b 3e 48 cb 9d 3e 97 36 0f bd 4d 24 bf 3d
       0.21433353 0.30819154 -0.03496417 0.09333096
000190 98 d2 a5 be 8b 0c 3d be 6f 58 53 bd 4b 2d 9e be
       -0.32387233 -0.18461816 -0.05159801 -0.3089393
0001a0 17 bd b2 be 16 a7 97 3c 82 b0 93 3e 3c bb 24 be
       -0.3490989 0.01851229 0.28845602 -0.16087049
0001b0 62 d2 3e 3d 02 5f b8 3e 45 1c 01 bf 08 82 ec be
       0.046587355 0.36009985 -0.5043376 -0.46192956
0001c0 58 db 20 3c 0d 95 c0 be 26 4f 12 bd 71 c5 83 3e
       0.009817921 -0.37613717 -0.035720013 0.25736573
0001d0 78 d0 99 bc a3 19 6f 3d 02 fb 25 be 43 8a b6 be
       -0.018776163 0.05837406 -0.16209033 -0.3565236
0001e0 33 eb 7c 3e db 96 88 3e 0b dc 63 be 27 12 2e 3e
       0.24699096 0.26677594 -0.22251908 0.16999112
0001f0 64 82 56 3e a4 e4 84 3e 69 54 cd 3e f2 35 ad 3e
       0.20948178 0.2595569 0.40103462 0.3383022
000200 d9 32 14 bf 23 5c 9e be 6a 86 e2 3d 68 fd d1 bd
       -0.5789009 -0.3092967 0.11060794 -0.102534115
000210 a9 05 80 3d 2a 5b 8f be 2d cc 59 bc dc 36 62 3e
       0.062510796 -0.2799924 -0.013293308 0.2209124
000220 29 bf 79 3e 9c 80 a4 3e 22 12 b9 3e 84 f6 af be
       0.24389328 0.3212937 0.36146647 -0.34367764
000230 94 bd 06 bf b3 c8 bf be f6 cd 05 be b2 85 33 3d
       -0.52633023 -0.3745781 -0.13066849 0.043828674
000240 6a 1f 19 be 7a b4 a3 3d 36 7f 3a bc c7 01 59 3e
       -0.1495339 0.079934075 -0.0113828685 0.21192084
000250 4d 9b 1f 3e 8a 3a 8f be 18 f2 a4 3d d9 c0 71 be
       0.15586586 -0.2797435 0.08053988 -0.23608722
000260 1e 9e 93 bd 4e 7d a5 3d c9 95 57 be 18 48 a0 3e
       -0.07207893 0.080805406 -0.21053232 0.31305003
000270 3e 6b 98 be ac 7f f8 3d af 80 4b be 79 2a 04 be
       -0.2976932 0.121337265 -0.19873308 -0.12906827
000280 19 5f 36 3e 60 7c 93 3e 23 0e 42 3e 79 e2 62 3e
       0.17809714 0.28805828 0.18950705 0.22156705
000290 b2 cd ce 3e 10 74 b8 be ea 32 83 3e bd 48 73 3d
       0.40391308 -0.3602605 0.25624782 0.05939554
0002a0 e4 43 e1 3e b1 77 3e 3d 77 dc 23 be b9 83 d7 be
       0.4399711 0.046500865 -0.1600207 -0.42092684
0002b0 0d 10 c7 be 69 fb d7 3d 27 16 0b be 8b 0a b0 be
       -0.38879433 0.105459996 -0.13582669 -0.34383044
0002c0 1f be 15 be f9 62 99 be 08 fb 17 3e 66 8e 57 3e
       -0.14623307 -0.29958323 0.14841855 0.21050414
0002d0 c4 dc 65 3d 02 08 28 3e e3 a8 8e bd ae f6 93 3e
       0.05611874 0.16409305 -0.06965806 0.2889914
0002e0 dd 9b 5b be 34 dd a8 be 4b ee 88 3e 05 42 8d 3b
       -0.21446176 -0.32981265 0.26744303 0.0043108487
0002f0 43 4e 0b be a1 7f ba be 9b a4 a7 3e d1 08 a7 be
       -0.13604073 -0.36425498 0.32742772 -0.32623914

fc1.bias f4 [32]
000000 5f 96 7d be 05 9d 7c be 5e 54 0e 3e 3f a3 09 3e
       -0.24764393 -0.24669273 0.13899371 0.1344118
000010 46 38 26 be 17 f3 b2 be 03 d8 be 3e 21 e2 2d bc
       -0.16232404 -0.34951088 0.3727418 -0.010612995
000020 16 5b 27 3d a9 39 c9 3e 2e 85 b4 3c c3 31 6d 3e
       0.04085835 0.39301804 0.022036161 0.23163514
000030 42 f8 aa be 2f 47 8d be 0f 0f ba 3c 34 05 ae bd
       -0.3339253 -0.2759337 0.022712259 -0.08497086
000040 96 31 42 3e c7 a0 b7 be 5e 7f 4a bd 50 4d c0 be
       0.18964228 -0.3586485 -0.049437873 -0.37558985
000050 56 d1 65 3e 5e 9a 4d bc b0 d2 86 3d 14 6c 4d 3d
       0.22443137 -0.012549011 0.06583154 0.0501519
000060 d1 8b 83 be 72 25 2d be b9 de 60 bc 98 97 5d 3e
       -0.2569261 -0.16908816 -0.013724976 0.2163986
000070 4e 43 b2 3d b8 90 8f be 04 b8 b8 3d 9c c4 1b be
       0.087042436 -0.280401 0.09019473 -0.1521172

fc2.weight f4 [32, 32]
000000 c7 cb 85 3d 5b d5 ea 3d e4 3c 2b bd da 08 3c be
       0.06533008 0.114664756 -0.041806117 -0.18362752
000010 3f 7f 00 be f1 59 91 bc bc 22 f3 bd 1f 19 e0 3d
       -0.1254854 -0.017743083 -0.118718594 0.109422915
000020 c4 f8 6e 3c 9a 88 a5 3d c2 76 a4 3d fc e2 fa bd
       0.014585678 0.08082695 0.08030464 -0.12250325
000030 cf 36 98 bd 5a 20 5e be 49 3e 0f 3d 3b 51 a8 3c
       -0.07432329 -0.21692029 0.03497151 0.020546546
000040 48 e2 1d be 01 76 34 3e 2f 20 a8 bd af 50 ba bd
       -0.1541835 0.1762314 -0.082092635 -0.090974204
000050 a2 f5 10 be d4 44 e9 3d 1b ec bb bc 3e ba 2b be
       -0.14156201 0.11390081 -0.022939732 -0.16770265
000060 80 27 0d bd 3e 6d 75 3d 84 33 61 3d ee 3a d0 3d
       -0.0344615 0.059918635 0.05498077 0.1016749
000070 1d 71 32 3d 9c 77 85 bd 3d c6 ac 3d 8b 28 82 bc
       0.043564904 -0.06516954 0.084362485 -0.015888473
000080 bf 50 eb bd 08 08 5d bd 93 a5 8b 3d bd 1c 7a bd
       -0.114900105 -0.053962737 0.0681869 -0.061062563
000090 2b b8 b1 bd 48 a7 d1 bd e2 ab e1 3d 57 13 5e 3d
       -0.086777054 -0.102369845 0.11019112 0.054217663
0000a0 76 18 b3 bd 5f 34 e9 3d 13 b1 05 3e e4 e2 ec 3a
       -0.087449 0.11386942 0.1305583 0.001807299
0000b0 f8 ee a0 bd 7d d0 da bd b4 95 25 bd 41 c9 b2 3d
       -0.0785808 -0.10684297 -0.04042597 0.087297924
0000c0 51 2d 11 be 73 90 1f be c8 53 29 be 3c a0 51 3d
       -0.14177443 -0.15582447 -0.16535866 0.051178202
0000d0 cc b9 a5 bd 43 ff ea 3d 82 a7 16 3e 9d ac e9 3d
       -0.080920786 0.114744686 0.14712337 0.114098765
0000e0 3a 16 c2 bc 2c 4e f3 bd 66 20 32 3e fa 59 1b 3e
       -0.02369224 -0.118801445 0.17395172 0.15171042
0000f0 dc 3c b0 bd bc 42 bd bd 78 de 90 3d 6f 39 dc 3d
       -0.08605358 -0.09241244 0.070736825 0.10753142
000100 a3 83 6e bd 44 89 42 3c b7 53 81 bd cf 23 00 bd
       -0.058231007 0.011873547 -0.063147955 -0.03128415
000110 49 92 51 3c ee df ac 3c bc 1c f0 3d 47 f5 14 3e
       0.012791225 0.021102872 0.11724231 0.14546691
000120 10 29 e2 bc 70 0d f9 3d aa d9 40 bd f6 ce e9 bd
       -0.02760747 0.12160766 -0.04708258 -0.11416428
000130 8c 61 b7 bd 4f 6f 0b 3e 57 de ff bd f6 3c 29 3e
       -0.089541525 0.1361668 -0.1249358 0.16527161
000140 51 40 13 bd f0 33 c8 bc a4 f7 f2 bd 51 79 ef 3c
       -0.03595001 -0.024438828 -0.1186364 0.029232653
000150 6a 5c 8b bd 4d 0d 45 bd 1e ae 23 bd 8c eb 8f 3d
       -0.06804736 -0.048108388 -0.039960973 0.07027349
000160 5a 77 0e 3d 90 bc 40 bd 95 77 39 3d 31 d9 eb bd
       0.03478179 -0.047054827 0.045280058 -0.11516035
000170 b8 8e 41 3d d8 a9 92 bd fa 4a 97 3d 5e 71 0e be
       0.047255248 -0.071613014 0.073873475 -0.13910434
000180 17 0c dd bd 76 94 fa 3d c6 e5 2c be 61 4c 1a bd
       -0.107933216 0.12235348 -0.16884527 -0.037670497
000190 20 46 ca bc a1 a9 36 3d bc 10 62 3e c5 94 25 3e
       -0.024691641 0.044595364 0.22076696 0.16170032
0001a0 9a c2 f9 bc 9b 80 e9 bd 66 8f c6 bd f3 c8 cc bd
       -0.030488301 -0.11401483 -0.0969532 -0.099992655
0001b0 76 2d be 3d d5 bb c8 3b 67 b6 5e 3e 09 5e 13 be
       0.09286015 0.006125907 0.21749268 -0.1439134
0001c0 0c 4a d4 bd 58 da d8 bd a6 38 31 be 7a f6 10 3e
       -0.10365686 -0.10588521 -0.17306766 0.14156523
0001d0 fe e4 96 3d 1f 1e ac 3d fc 18 f2 3d 6b 0d b4 3d
       0.073678955 0.08404183 0.11821172 0.08791622
0001e0 ea 63 1b be e1 e1 41 bd 25 df 9c bd 8c 64 1f 3c
       -0.15174833 -0.047334556 -0.07659749 0.009728562
0001f0 c1 cd 32 3e ea a1 51 bd 1d dd dd 3d 5e bb 48 bd
       0.17461301 -0.051179804 0.1083319 -0.049006812
000200 7c 76 63 3d 2c ce 24 3e b4 e5 ac bd 8e 4a f2 3d
       0.055532917 0.16094273 -0.0844225 0.118306264
000210 89 6c dc bd 03 a6 03 be 2c 72 0b 3d c9 0c cf 3d
       -0.10762889 -0.12856297 0.03404443 0.101098605
000220 58 10 1c be 21 ab 70 3d 7e de 34 bc 88 6e 19 bc
       -0.1524061 0.05875695 -0.011039374 -0.009364732
000230 1a f7 1f be 34 00 0b be 03 f8 d3 3d 82 78 76 3d
       -0.15621606 -0.13574296 0.10350039 0.06017352
000240 51 d4 1e bd 7c 1e f6 bd be 93 3d 3c ef 45 ba 3d
       -0.0387767 -0.12017533 0.011570869 0.0909537
000250 2d 8c 06 3d 53 45 bc bc 47 87 14 3d 47 0d 53 3d
       0.032848526 -0.022982275 0.036261823 0.051526334
000260 36 b5 1d be 87 fe fa bc e9 82 b6 3d 95 1b e7 bd
       -0.15401158 -0.030638946 0.08911688 -0.11284558
000270 2a 98 96 bd b6 c7 0a 3e ea c1 30 3e ff 07 ab bd
       -0.07353242 0.13552746 0.17261472 -0.083511345
000280 59 33 27 be b0 2b 2b be 7d 2e 3b be c9 b9 d9 bc
       -0.16328181 -0.16715884 -0.18279453 -0.026577847
000290 15 02 f1 3d 54 2d 3d bd 82 dc 24 3e 68 dc 09 be
       0.11767975 -0.046185806 0.16099742 -0.13462985
0002a0 76 5a 9b 3d 74 b5 75 3d 0b 66 f8 3d 0d 9f af bc
       0.075856134 0.0599875 0.12128838 -0.021438146
0002b0 e8 f4 e2 bd 46 7c 2f 3b c9 2a 01 be 02 f0 32 be
       -0.110818684 0.0026776954 -0.12613977 -0.17474368
0002c0 af c3 87 3d e0 83 a8 bc 06 7a 17 3e 25 bb d8 3d
       0.066291206 -0.020570695 0.14792642 0.1058257
0002d0 72 3e 90 3d 69 43 2d be 25 a0 e6 bd 7a 10 ea bd
       0.070431605 -0.16920246 -0.11261014 -0.11428924
0002e0 62 21 e0 3d dc bb 8d bc b8 13 9c bd 7f 82 cd bd
       0.10943867 -0.017301492 -0.076209486 -0.10034656
0002f0 fd 0b 11 3e 01 9c 46 bd 9f 59 13 be 70 ab 66 3d
       0.1416473 -0.04848862 -0.14389656 0.05631584
000300 f7 2c db 3c 8d c9 b4 bb 49 72 b5 bd 0a 97 21 be
       0.02675484 -0.005517191 -0.08859689 -0.15780273
000310 99 db 07 3e 30 0f 66 3d 3a 1e dd bd c8 ab 23 be
       0.13267364 0.056166828 -0.10796781 -0.15983498
000320 5f ea 9e 3c 70 d3 f4 bd 1a e6 e2 bd 93 10 00 3e
       0.019398866 -0.11954391 -0.11079045 0.12506323
000330 fa 04 25 be 62 20 13 3e 69 cc 48 bd 26 81 84 bd
       -0.1611518 0.14367822 -0.049023066 -0.064699456
000340 9c eb 33 3c 00 77 7b ba 7d 05 51 3d a1 dd 92 bd
       0.010981467 -0.00095926225 0.051030625 -0.071711786
000350 84 85 24 3e cf 03 96 3d d7 e4 86 bc 37 5a 21 bd
       0.16066557 0.07324945 -0.016466541 -0.039392676
000360 36 6e ed bd 3d 28 13 be 74 bc 02 3e 2d f5 83 3d
       -0.11593287 -0.14370818 0.12767202 0.06443248
000370 d5 ac 27 be c5 d2 59 3d de 4a c1 bd 75 b4 16 be
       -0.16374524 0.05317952 -0.09438108 -0.14717276
000380 3b 67 86 3e 15 24 db 3b 55 c7 8d bd 87 87 76 3e
       0.26250634 0.006687651 -0.06922785 0.24075137
000390 cc 0d 09 3e b3 8e de 3c 66 b3 22 be bd 9a 01 bd
       0.1338417 0.027167654 -0.15888748 -0.03164171
0003a0 1d 5d a3 3d 1d 41 05 be dc 0d 52 3d bb cd 93 bd
       0.07976744 -0.1301312 0.05128275 -0.07216974
0003b0 58 93 3d bd 54 c3 8d 3c 17 2b 23 be 4c 0d 11 be
       -0.046283096 0.017305054 -0.15934406 -0.14165229
0003c0 8c e6 d1 3d 09 69 27 3e c7 f0 80 3e 37 c7 8d 3d
       0.102490515 0.16348661 0.251837 0.06922763
0003d0 02 f6 21 3d 77 a4 bc bd 86 60 43 bd 3f cc 28 3e
       0.039541252 -0.09211057 -0.047699474 0.16484164
0003e0 f5 37 e4 bd 7a 5f 29 3d f6 32 01 be 34 b7 9c 3d
       -0.111434855 0.04135082 -0.12617096 0.07652131
0003f0 20 5d 5a 3e 9d 41 a5 bd 83 ff 3e 3e da 23 a8 bd
       0.21324587 -0.08069155 0.18652157 -0.08209963

fc2.bias f4 [32]
000000 c7 07 26 3e 8a f8 1c be de c0 9e bc ee 7c 38 3c
       0.16213904 -0.15329185 -0.019379076 0.011260254
000010 42 3b e6 bd 22 d1 f4 bd e4 e8 06 be 38 20 97 3d
       -0.11241771 -0.119539514 -0.13174778 0.07379192
000020 d5 37 54 3e 8b c8 c5 3c b4 b8 58 bd 9f a3 e7 3d
       0.20724423 0.024143478 -0.05291052 0.11310505
000030 a3 be 0b be b3 c1 a9 bd 4a ab 93 bd 62 58 96 3d
       -0.13646941 -0.08288898 -0.07210405 0.073410764
000040 43 9d 35 3e 5c e2 9a 3d b8 0c b6 3d 2f f2 cb bd
       0.17735772 0.07562706 0.08889145 -0.09958302
000050 a4 3b 43 3e 69 a7 a7 bb 5d 2a b9 3d c2 b9 9a 3d
       0.1906572 -0.0051163924 0.09041283 0.07554962
000060 c1 f4 19 3d c1 5d 2e bd 3e 3d 60 3b b3 09 eb bd
       0.03758693 -0.04256988 0.003421619 -0.11476459
000070 7f 2b d5 bd 15 1a 25 be 2e 0c a3 bd 5f 12 32 3e
       -0.10408687 -0.16123231 -0.079613075 0.1738982

actor.weight f4 [1, 32]
000000 06 5d c8 3d 31 84 c9 3d 59 eb 18 be 60 18 ce bc
       0.09783368 0.09839667 -0.14933528 -0.025158107
000010 0a f3 36 be 1b f8 34 be 42 d6 41 bd f7 9c 08 be
       -0.1786615 -0.1767277 -0.047323473 -0.13341127
000020 d8 76 f4 3d 63 c3 0e 3d 51 22 25 3e 8e 73 19 3e
       0.1193673 0.034854304 0.16126372 0.14985487
000030 47 d6 fe 3d 7b 02 1d be 8e 19 0c be e7 0a 06 be
       0.12443214 -0.15332977 -0.13681623 -0.13090096
000040 03 48 db 3d e4 8a 00 bd f6 89 05 3c 66 4e d7 3d
       0.107070945 -0.031382456 0.008150568 0.10513
000050 0c 8f 55 3d d5 de 02 3e fa 71 6f bd 20 d7 d6 3d
       0.052138373 0.12780316 -0.058458306 0.104902506
000060 36 4d b4 bd 15 a9 9c bd 86 f3 a4 bd bd 54 63 bd
       -0.08803789 -0.07649437 -0.08054261 -0.055500735
000070 ed c3 04 3d 6d 6a c6 3c d9 51 a8 3c 36 40 1b 3d
       0.032413412 0.02422067 0.02054684 0.037903033

critic.weight f4 [1, 32]
000000 e3 49 4c 3c be 4f 8a bd 1c 35 51 bc 45 01 d9 3d
       0.012468788 -0.06753491 -0.01276901 0.10595945
000010 74 21 fa 3d a7 a1 17 3e 42 9d 2a bd b0 37 33 be
       0.12213412 0.14807759 -0.04165388 -0.17501712
000020 3c 38 5b 3e 26 13 1a be dd 5b 55 be 9d 66 3b 3d
       0.2140817 -0.15046367 -0.20835824 0.045752157
000030 12 54 ae bd 1a a7 95 3d c6 66 58 be 30 c7 74 be
       -0.08512129 0.07307263 -0.21132955 -0.23904109
000040 f5 db 72 be 80 8d 42 3e 20 8e 8c bd f4 d6 4e bd
       -0.2371672 0.1899929 -0.06863046 -0.050497964
000050 29 01 19 3e 66 09 e4 3c 43 6d d3 bd 1a 61 0b be
       0.14941849 0.027836513 -0.103235744 -0.1361126
000060 7f fb bc 3d e2 c4 5d 3d e6 66 34 3e 50 76 29 be
       0.092276566 0.05414284 0.17617378 -0.16549039
000070 4c 33 e1 bc 20 33 eb 3c ba eb 09 be 6e 4e 94 bd
       -0.02749028 0.028710902 -0.13468829 -0.07241522
