models1/ppo_1200.pth (torch, 275660 bytes, 6 tensors)

net.0.weight f4 [256, 6]
-0.356152 -0.37619475 0.18470283 0.40494314 -0.09491105 -0.34103855 -0.059457287 -0.02030102
0.4468358 -0.37514317 -0.08829412 0.4438804 -0.17218415 0.39117047 0.004744741 -0.45353812
-0.11559409 -0.15763624 -0.32271883 0.23863971 0.15519732 -0.047990095 0.005057857 0.32134154
0.24603315 -0.12786946 -0.48692563 0.2709385 0.18817803 -0.1986427 0.11796544 -0.06324967
0.37445244 0.011923176 -0.28845754 0.22280878 -0.015384059 0.10878931 0.44202763 0.24299672
0.08206509 -0.32380915 -0.36477873 -0.38285697 0.008229503 0.17131513 -0.046097662 0.26596093
-0.2427153 -0.28623867 0.29039553 -0.09097487 0.22692448 -0.28879318 0.17732054 0.20211208
0.44445476 -0.5389332 -0.18534453 0.16979213 0.09226511 -0.18434839 -0.047246028 -0.07866822
-0.19863306 -0.14310065 0.039898075 -0.25291723 -0.21307318 0.2729287 -0.10520436 -0.12455343
-0.123917095 0.12016554 -0.19487017 0.15064712 -0.35702178 -0.30596477 -0.05412783 0.06525335
0.1778748 0.25664487 -0.12805232 -0.4722778 0.32527882 0.14969817 -0.24670355 0.0053714234
-0.29507294 0.32422397 0.09968834 -0.31828067 -0.15077288 -0.44523075 -0.27916715 -0.021270053
0.13591114 0.22294094 0.37942398 -0.13483007 -0.019439198 -0.35141447 -0.51936173 -0.1883154
-0.06602565 -0.37779453 0.039219514 0.017677076 -0.42153934 0.2618812 -0.5122098 -0.38325223
-0.12532976 0.18706991 0.1508591 0.21429211 -0.18516722 0.39182407 -0.10726861 -0.24638912
-0.059360474 0.14140587 -0.04431792 0.30024573 0.25720066 0.38921043 0.3409095 0.21374562
-0.0012768754 0.07928735 0.12231781 -0.37868065 -0.33935118 0.06296048 0.31962267 -0.49555683
-0.07502863 0.40295503 0.15739894 -0.12201623 -0.13159083 -0.04828253 0.18605882 0.013415597
-0.11103579 0.24908827 -0.011526046 0.012603091 0.2798513 -0.45988443 -0.21794777 0.32679793
-0.41161203 0.60255176 0.061597627 -0.2313188 0.17837457 0.06864408 -0.22503784 0.16297884
0.09313301 -0.21071929 0.08805786 -0.089936085 0.5859511 -0.5368976 0.039090876 -0.32993588
0.3103145 -0.38941658 0.1518166 0.30732217 -0.089331605 -0.16578805 -0.2023995 0.12693058
0.19556767 -0.313959 -0.26735765 0.047916513 -0.118842565 -0.24285465 -0.37764096 0.36177084
0.35652274 0.26725093 0.048470188 -0.18512438 -0.503779 0.29414675 0.07113718 -0.1178741
-0.1822794 -0.0483138 -0.20470732 0.35104784 -0.13057834 0.057370212 -0.0729451 0.2565969
-0.08795201 -0.02170314 0.1572413 0.1048139 -0.424924 0.12976111 -0.25319228 0.35414615
-0.30982623 0.07688783 -0.34207702 0.075832926 0.29651818 0.18694836 -0.01650405 -0.10373812
0.18081592 0.22459067 0.19872814 -0.40499237 -0.181951 -0.30980656 -0.23989257 -0.19137911
0.43010366 -0.22462766 -0.1707582 -0.2023743 -0.07493061 0.16438942 -0.37605703 0.29483214
-0.18524449 -0.053438265 -0.10445755 0.0015080132 -0.06969003 0.065531515 -0.18541291 0.42112502
0.23071969 -0.38478065 -0.05280208 -0.23633192 0.14480585 -0.39345124 -0.53025115 -0.56688267
-0.003601577 0.15361738 0.13905391 -0.081098616 0.26833636 -0.33514258 0.20609145 -0.5483654
00000000: 8e59 b6be 999c c0be bd22 3d3e b554 cf3e
00000010: b960 c2bd 9b9c aebe 7c89 73bd 534e a6bc
00000020: a9c7 e43e c412 c0be 8cd3 b4bd 4b44 e33e
00000030: 0b51 30be 7f47 c83e c679 9b3b 2636 e8be
00000040: 98bc ecbd 656b 21be 673b a5be f85d 743e
00000050: 0cec 1e3e 4391 44bd 61bc a53b e186 a43e
00000060: 1df0 7b3e 36f0 02be 514e f9be 73b8 8a3e
00000070: beb1 403e fe68 4bbe dd97 f13d 0b89 81bd
00000080: 3bb8 bf3e 6d59 433c b5b0 93be fc27 643e
00000090: 6c0d 7cbc eecc de3d 7251 e23e 22d4 783e
000000a0: be11 a83d 50ca a5be 47c4 babe d405 c4be
000000b0: 0ad5 063c 3c6d 2f3e e7d0 3cbd 082c 883e
000000c0: 5c8a 78be e08d 92be b9ae 943e 0851 babd
000000d0: e45e 683e b3dc 93be 8493 353e 78f6 4e3e
000000e0: 938f e33e 87f7 09bf f5ca 3dbe fddd 2d3e
000000f0: 7df5 bc3d d3c5 3cbe 0d85 41bd ce1c a1bd
00000100: 7766 4bbe fa88 12be 2a6c 233d 5e7e 81be
00000110: db2f 5abe 50bd 8b3e 6275 d7bd de15 ffbd
00000120: 3fc8 fdbd 5a19 f63d 0c8c 47be 3d43 1a3e
00000130: 8fcb b6be 6aa7 9cbe 25b5 5dbd 8ca3 853d
00000140: d024 363e f566 833e 2620 03be 65ce f1be
00000150: f28a a63e 7a4a 193e db9f 7cbe c402 b03b
00000160: cd13 97be af00 a63e 6729 cc3d aff5 a2be
00000170: 3564 1abe 49f5 e3be ffee 8ebe 893e aebc
00000180: 4a2c 0b3e a14a 643e dc43 c23e e510 0abe
00000190: f43e 9fbc 99ec b3be e4f4 04bf c1d5 40be
000001a0: 7538 87bd 496e c1be a4a4 203d 84cf 903c
000001b0: 01d4 d7be 4b15 863e 2e20 03bf a339 c4be
000001c0: 7256 00be 418f 3f3e cf7a 1a3e 646f 5b3e
000001d0: 7a9c 3dbe 2a9d c83e a5af dbbd 6e4d 7cbe
000001e0: f823 73bd b3cc 103e b586 35bd cfb9 993e
000001f0: ceaf 833e 9746 c73e b18b ae3e 22e0 5a3e
00000200: d45c a7ba 6861 a23d c381 fa3d 6ee2 c1be
00000210: 70bf adbe 6df1 803d 95a5 a33e a0b9 fdbe
00000220: 9ca8 99bd 1f50 ce3e 302d 213e a5e3 f9bd
00000230: bfbf 06be e7c3 45bd 3486 3e3e 18cd 5b3c
00000240: bb66 e3bd ff10 7f3e bed7 3cbc 327d 4e3c
00000250: ab48 8f3e f975 ebbe b32d 5fbe 0f52 a73e
00000260: d0be d2be d540 1a3f cb4d 7c3d d6de 6cbe
00000270: d3a7 363e 4495 8c3d 5270 66be ede3 263e
00000280: 85bc be3d ccc6 57be ae57 b43d 6930 b8bd
00000290: e400 163f 1f72 09bf c11d 203d 5bed a8be
000002a0: 8be1 9e3e 9c61 c7be d075 1b3e 5559 9d3e
000002b0: 7df3 b6bd 58c4 29be d141 4fbe 17fa 013e
000002c0: e442 483e 3cbf a0be 1ae3 88be 1b44 443d
000002d0: bb63 f3bd e4ae 78be 285a c1be 073a b93e
000002e0: 268a b63e 1dd5 883e ad88 463d 3f91 3dbe
000002f0: a9f7 00bf 679a 963e 5fb0 913d fa67 f1bd
00000300: 73a7 3abe b1e4 45bd cc9e 51be 8bbc b33e
00000310: 54b6 05be 07fd 6a3d 3e64 95bd ab60 833e
00000320: 2f20 b4bd c9ca b1bc dd03 213e aca8 d63d
00000330: a38f d9be 19e0 043e 6ba2 81be a552 b53e
00000340: 8ba1 9ebe 5e77 9d3d b824 afbe 4b4e 9b3d
00000350: 3bd1 973e 646f 3f3e 8033 87bc a774 d4bd
00000360: cf27 393e 19fb 653e 647f 4b3e 295b cfbe
00000370: 5d51 3abe f79e 9ebe 66a6 75be e3f8 43be
00000380: 8c36 dc3e cb04 66be 3ddb 2ebe 353b 4fbe
00000390: 3875 99bd b355 283e 8c8a c0be 3df4 963e
000003a0: bbb0 3dbe 15e2 5abd d7ed d5bd 87a8 c53a
000003b0: a5b9 8ebd 6335 863d e2dc 3dbe b39d d73e
000003c0: c841 6c3e f801 c5be fe46 58bd ff00 72be
000003d0: fc47 143e 7172 c9be 8abe 07bf 391f 11bf
000003e0: 6f08 6cbb e04d 1d3e 2664 0e3e 0817 a6bd
000003f0: 6263 893e cf97 abbe a309 533e ad61 0cbf

net.0.bias f4 [256]
-0.25110263 0.01622793 -0.38752878 -0.4200773 0.4133235 -0.4060876 -0.3626444 -0.35995793
0.08094946 0.0051087113 0.1515748 -0.22446705 -0.06251436 -0.20334415 -0.4199663 0.17716232
0.35491243 0.042635344 -0.08969304 0.3384141 -0.2527294 -0.2687411 0.052222215 0.32458165
0.35063776 0.16988298 0.22045319 0.23064277 0.06754763 -0.009900585 0.3199447 0.21498069
0.13260385 -0.32661083 -0.21067294 -0.0003409524 -0.43121248 0.4092919 0.17943406 -0.3673287
-0.21352394 -0.13171135 0.19836506 -0.2996377 -0.114878714 0.24029599 0.1616394 -0.49800295
0.08668395 0.24146137 -0.34169298 0.18056506 -0.119728394 -0.15564735 -0.27840737 0.21918483
-0.28147218 0.16695985 0.05594784 -0.13161525 -0.08164219 0.14888167 -0.05755291 0.029318554
0.28792533 0.12699206 -0.11139109 0.22397323 0.19845408 0.26628426 0.15389629 0.066265024
0.26711163 -0.3854689 -0.36187154 0.018286346 0.24677049 -0.390158 0.22236332 -0.067413114
-0.15105565 -0.0670401 -0.09669241 -0.02127507 -0.26819098 0.07157568 0.25748733 0.35196707
0.002416432 0.2762111 -0.03531259 0.128692 0.21981248 -0.045351427 0.1765631 0.28305393
-0.36414972 -0.2804983 -0.31729874 0.061275844 -0.16873913 -0.21769957 0.1743728 0.22881766
0.12241281 -0.25425962 -1.2631901e-05 0.16901194 -0.32305798 0.16671596 0.04819965 0.35487813
0.3172506 -0.17629378 -0.18058112 -0.33813933 -0.15070277 -0.3303781 0.37084222 -0.40914786
-0.3180125 -0.07860394 0.0027747 0.14843296 0.33674282 -0.23431657 0.31643742 -0.55220735
0.33762667 -0.23735522 -0.17643978 -0.020747634 0.19372913 -0.2983368 -0.07128004 0.15951386
0.046606723 0.09757624 -0.10300687 0.20296723 0.37260956 0.3433738 0.13576229 0.030297711
0.3670684 0.32860607 -0.34122452 -0.09940239 0.2992813 0.2442504 -0.12542596 -0.31207654
-0.18294723 0.2821094 0.21442674 -0.25626868 -0.22632118 0.03301721 -0.27375293 0.14872576
-0.35746542 -0.16367382 -0.1323757 0.2420965 0.012399821 -0.41812512 0.35910684 0.33967885
0.38517532 -0.36680892 -0.43006784 -0.3598155 -0.24549593 -0.3111281 -0.055273272 0.36887795
0.19736275 -0.21782465 0.3129697 0.044183675 -0.32900622 -0.20614184 -0.40346873 -0.17242685
-0.4550847 0.20620279 0.3295463 -0.112111524 -0.0872496 -0.31501654 0.35857347 -0.0014533988
-0.0024466312 0.39327416 -0.20623109 -0.21385041 -0.1450341 -0.018922633 -0.09723582 -0.31415808
0.049180318 0.16200536 0.34514073 -0.03851448 0.22955963 -0.061490443 0.21627644 0.11160179
0.34878942 0.21003546 0.051804267 0.11561902 0.34909192 -0.445909 -0.032875534 -0.15090933
-0.15568168 -0.057155993 -0.43607292 0.34305587 0.078375086 -0.3411269 0.17940636 -0.2003571
-0.33242062 0.19227777 -0.047989484 0.22058067 0.20849307 -0.20048317 -0.08912842 0.09377078
-0.08779684 -0.07866341 -0.46374846 -0.10719601 0.3198864 -0.25856712 0.40317225 0.260518
-0.06687812 0.17415553 0.09592532 -0.1840507 0.2600376 -0.17878948 -0.18739748 0.25085846
-0.15440863 0.31761357 -0.4057066 -0.010472173 0.05287698 -0.03543333 0.087252446 -0.06950941
00000000: 8690 80be 70f0 843c 2c6a c6be 5f14 d7be
00000010: 239f d33e b7ea cfbe 87ac b9be 684c b8be
00000020: d5c8 a53d fa66 a73b 6d36 1b3e b1da 65be
00000030: 8707 80bd 7339 50be d305 d7be 0a6a 353e
00000040: 15b7 b53e 66a2 2e3d fcb0 b7bd 9d44 ad3e
00000050: bf65 81be 6f98 89be f6e6 553d 912f a63e
00000060: cb86 b33e cef5 2d3e 7bbe 613e 9e2d 6c3e
00000070: 6956 8a3d 1036 22bc cbcf a33e e623 5c3e
00000080: 4ec9 073e 8939 a7be a6ba 57be dbc1 b2b9
00000090: e2c7 dcbe b58e d13e 90bd 373e 8212 bcbe
000000a0: 05a6 5abe 57df 06be 3620 4b3e 1d6a 99be
000000b0: 8845 ebbd 2710 763e cd84 253e 3efa febe
000000c0: 5b87 b13d a641 773e 62f2 aebe 0ce6 383e
000000d0: 2934 f5bd 0562 1fbe 698b 8ebe fd71 603e
000000e0: 1f1d 90be 86f7 2a3e 9029 653d 26c6 06be
000000f0: 0534 a7bd 7074 183e 9abc 6bbd 772d f03c
00000100: f36a 933e 350a 023e 0321 e4bd 3d59 653e
00000110: 8c37 4b3e 6956 883e fd96 1d3e f5b5 873d
00000120: dbc2 883e 2e5c c5be 3a47 b9be 3fcd 953c
00000130: 67b1 7c3e cac2 c7be 36b3 633e e30f 8abd
00000140: 55ae 1abe 524c 89bd ac06 c6bd 0e49 aebc
00000150: 5450 89be 4596 923d 61d5 833e 0735 b43e
00000160: 005d 1e3b 8b6b 8d3e efa3 10bd d6c7 033e
00000170: 8616 613e 6bc2 39bd f5cc 343e 72ec 903e
00000180: d571 babe 799d 8fbe fb74 a2be 61fc 7a3d
00000190: f3c9 2cbe a3ec 5ebe c98e 323e 2d4f 6a3e
000001a0: 91b3 fa3d 512e 82be 9aed 53b7 7711 2d3e
000001b0: db67 a5be 97b7 2a3e ff6c 453d 96b2 b53e
000001c0: ac6e a23e 5b86 34be 42ea 38be 9920 adbe
000001d0: d451 1abe 5127 a9be 08df bd3e d47b d1be
000001e0: 89d2 a2be 1afb a0bd bed7 353b cffe 173e
000001f0: 8e69 ac3e aff0 6fbe 1604 a23e 765d 0dbf
00000200: 67dd ac3e 3f0d 73be a1ac 34be f1f6 a9bc
00000210: ee60 463e 9abf 98be 45fb 91bd 9a57 233e
00000220: b1e6 3e3d 0dd6 c73d 44f5 d2bd a4d6 4f3e
00000230: aec6 be3e b1ce af3e 4505 0b3e e832 f83c
00000240: 64f0 bb3e 0e3f a83e fbb4 aebe 7b93 cbbd
00000250: 663b 993e c71c 7a3e aa6f 00be 7fc8 9fbe
00000260: 8556 3bbe a570 903e af92 5b3e a635 83be
00000270: bdc0 67be 0e3d 073d 5829 8cbe 914b 183e
00000280: b505 b7be 1c9a 27be 7f8d 07be 25e8 773e
00000290: 9e28 4b3c 7f14 d6be dadc b73e 63ea ad3e
000002a0: b335 c53e 61ce bbbe da31 dcbe bd39 b8be
000002b0: 4963 7bbe 2f4c 9fbe 3a66 62bd 92dd bc3e
000002c0: 7619 4a3e 6d0d 5fbe 913d a03e f1f9 343d
000002d0: 8173 a8be d916 53be 7493 cebe aa90 30be
000002e0: dd00 e9be d326 533e 4bba a83e ba9a e5bd
000002f0: ebaf b2bd d949 a1be f196 b73e f97f beba
00000300: a957 20bb 3b5b c93e 3e2e 53be 9afb 5abe
00000310: d283 14be a303 9bbc 9323 c7bd 54d9 a0be
00000320: 4d71 493d bce4 253e 49b6 b03e 5cc1 1dbd
00000330: ae11 6b3e 67dd 7bbd 9277 5d3e 7b8f e43d
00000340: 8794 b23e 8913 573e b630 543d aac9 ec3d
00000350: 2dbc b23e 2f4e e4be 7fa8 06bd fa87 1abe
00000360: 056b 1fbe 671c 6abd f344 dfbe 05a5 af3e
00000370: 1e83 a03d 2fa8 aebe 4db6 373e 692a 4dbe
00000380: 0933 aabe 77e4 443e 9f90 44bd e6df 613e
00000390: 357f 553e 764b 4dbe f688 b6bd e50a c03d
000003a0: d4ce b3bd 481a a1bd 7070 edbe 9589 dbbd
000003b0: 26c8 a33e e962 84be 986c ce3e 9e62 853e
000003c0: 65f7 88bd d455 323e 7f74 c43d c977 3cbe
000003d0: a623 853e 9714 37be 20e5 3fbe 8570 803e
000003e0: 4c1d 1ebe 3f9e a23e c7b8 cfbe 7a93 2bbc
000003f0: 8895 583d 8a22 11bd 69b1 b23d f35a 8ebd

net.2.weight f4 [256, 256]
-0.054424964 -0.00012021703 -0.058927245 -0.031184427 0.03189987 -0.015315297 0.00842105 -0.007412952
-0.0008756854 0.017437564 -0.043156706 0.024053797 -0.0036621382 -0.05260013 0.051483274 0.03278175
0.048193775 -0.033413976 0.023961276 -0.04020561 -0.039744392 -0.025477022 0.024251161 -0.023931714
-0.020927828 -0.01249486 -0.050093282 0.034710187 -0.047866125 0.036976706 -0.032725655 -0.010328347
-0.04476503 -0.0010584369 0.04011433 -0.055766407 -0.051189173 0.04762725 -0.050051037 0.0011211135
-0.023808926 0.02603046 0.0037272177 0.0019015928 -0.040766183 0.04612163 0.04986443 0.014696136
-0.029588059 0.019944772 0.05469589 0.0332767 -0.028278427 0.05804164 0.049172647 0.015881982
0.005064975 0.009452446 0.002367705 0.021326467 0.059244797 0.0007333145 0.016944256 0.048942197
0.033629224 0.012116457 -0.023171037 -0.045251366 -0.034287117 -0.032198112 0.014514587 -0.015199922
-0.054323632 0.046267174 -0.004230976 0.044733897 -0.054978065 0.0004990183 0.01810757 0.04322976
0.018836508 0.015240046 -0.017789934 0.025605757 -0.011503243 -0.019788524 0.04400553 0.027106473
-0.011748777 -0.0474152 -0.042214803 0.044022515 -0.029805249 -0.054066695 -0.06588626 -0.023678517
-0.01465614 -0.050814793 -0.042616703 -0.046989005 -0.06894497 0.05545 0.055634085 -0.0028045967
0.048685413 0.024253383 -0.015216056 0.033020683 -0.023147456 -0.06394368 0.022991698 0.038317688
-0.011112204 -0.056590587 0.016015043 0.003483939 0.031284038 0.0035212636 0.04498108 0.031295314
-0.05238083 -0.01103957 0.04433683 0.042229317 0.03090351 -0.013757743 -0.020328198 -0.02778121
-0.00348425 -0.011983281 -0.04873818 -0.005194232 0.00655372 0.04192473 -0.032488227 0.029448468
0.04627963 -0.009182245 -0.0510998 -0.047078937 -0.026077468 -0.06147616 -0.0059727426 0.040044792
-0.032173768 -0.018622192 0.056769922 0.023797587 0.046814658 0.030941665 -0.0061600106 0.042143993
-0.017815623 -0.04705217 -0.06508362 -0.04900141 -0.041505247 0.04897669 -0.0395462 -0.066111505
0.02669169 -0.019728892 -0.021771288 -0.044095263 0.01659247 0.01692291 -0.045125656 0.053776033
-0.045134757 0.037930455 -0.058746792 0.043728054 -0.048682112 0.015990324 -0.03929711 -0.04927254
0.03858982 0.033241563 0.053999595 0.033882603 -0.023889966 -0.019637883 -0.02285494 -0.060613986
-0.009038918 0.028932147 0.05263379 -0.055393428 0.02125355 -0.06725238 0.013414696 0.0032155588
0.030237854 -0.0071835215 0.043244466 -0.033310752 0.011440804 0.02577276 0.026833937 0.024103351
-0.020516349 0.05120369 -0.054120537 -0.011339323 0.0202432 0.018234352 -0.026825001 -0.012264669
0.049209937 0.0050688996 -0.0008967858 0.036202356 -0.04636982 -0.023828737 -0.018477492 -0.007865615
-0.027003728 -0.0397755 0.04147401 -0.04474229 0.049490083 -0.01724202 0.015451026 0.041424476
0.031055704 0.04357485 -0.06731012 -0.059495293 -0.0685035 -0.043128114 0.006690145 0.0038558068
-0.021936705 -0.040677063 -0.030415857 0.06068993 -0.057848614 0.045444712 -0.054773975 -0.045061376
-0.053384162 0.055447325 -0.056735765 -0.043623343 -0.044632845 0.032288894 -0.04041883 -0.04991225
0.027431909 0.01874075 -0.020358376 0.0023637773 -0.009391624 0.021697052 -0.055293463 -0.059202626
00000000: b6ec 5ebd 071d fcb8 b25d 71bd 7c76 ffbc
00000010: 70a9 023d 03ed 7abc 72f8 093c 59e8 f2bb
00000020: 418e 65ba 39d9 8e3c 16c5 30bd 780c c53c
00000030: 7c00 70bb 3c73 57bd 20e0 523d 2846 063d
00000040: d666 453d 18dd 08bd 704a c43c a3ae 24bd
00000050: 04cb 22bd 30b5 d0bc 5faa c63c 710c c4bc
00000060: d670 abbc 3eb7 4cbc 9d2e 4dbd 452c 0e3d
00000070: 450f 44bd e374 173d 560b 06bd 3a38 29bc
00000080: 895b 37bd 40bb 8aba ec4e 243d 516b 64bd
00000090: bdab 51bd cb14 433d 5102 4dbd 54f2 923a
000000a0: f00a c3bc d53d d53c 5644 743b de3e f93a
000000b0: 71fa 26bd 09ea 3c3d a53e 4c3d 10c8 703c
000000c0: a862 f2bc 3863 a33c cc08 603d 264d 083d
000000d0: 29a8 e7bc 12bd 6d3d 4269 493d ee1a 823c
000000e0: 17f8 a53b 6fde 1a3c 802b 1b3b d8b4 ae3c
000000f0: acaa 723d e73b 403a aece 8a3c 9d77 483d
00000100: ccbe 093d 1b84 463c 30d1 bdbc 7f59 39bd
00000110: a670 0cbd 2be2 03bd 97ce 6d3c 1809 79bc
00000120: 7582 5ebd a682 3d3d 00a4 8abb e43a 373d
00000130: ae30 61bd 8dd0 023a 5456 943c b011 313d
00000140: 054f 9a3c 63b1 793c 32bc 91bc 2ac3 d13c
00000150: 1978 3cbc 8b1b a2bc 253f 343d 650e de3c
00000160: f17d 40bc 7136 42bd 6ee9 2cbd f450 343d
00000170: 232a f4bc 0a75 5dbd 60ef 86bd 73f9 c1bc
00000180: 4e20 70bc 2c23 50bd da8e 2ebd 8b77 40bd
00000190: 0533 8dbd 8a1f 633d 91e0 633d 53cd 37bb
000001a0: 5b6a 473d 08af c63c c44c 79bc b240 073d
000001b0: bc9f bdbc e7f4 82bd 1659 bc3c 02f3 1c3d
000001c0: f60f 36bc 88cb 67bd fb31 833c cc52 643b
000001d0: b123 003d 00c5 663b 153e 383d 842f 003d
000001e0: 488d 56bd 50df 34bc 899a 353d a6f8 2c3d
000001f0: 5c29 fd3c 2868 61bc 5287 a6bc 6c95 e3bc
00000200: 0458 64bb 8655 44bc b0a1 47bd 6034 aabb
00000210: 97c0 d63b 44b9 2b3d 6012 05bd ea3d f13c
00000220: b68f 3d3d 2071 16bc 064e 51bd d8d5 40bd
00000230: 6aa0 d5bc 6dce 7bbd ffb6 c3bb 0206 243d
00000240: a4c8 03bd 918d 98bc 9487 683d 28f3 c23c
00000250: bac0 3f3d 6079 fd3c ead9 c9bb 2e9f 2c3d
00000260: 12f2 91bc c7b9 40bd 904a 85bd b4b5 48bd
00000270: 6801 2abd c89b 483d 32fb 21bd 7865 87bd
00000280: 88a8 da3c 7c9e a1bc b359 b2bc 3c9d 34bd
00000290: efec 873c eaa1 8a3c aed5 38bd 4244 5c3d
000002a0: 39df 38bd f75c 1b3d 7aa0 70bd 301c 333d
000002b0: e566 47bd 24fe 823c 02f6 20bd 01d2 49bd
000002c0: 5c10 1e3d 4e28 083d ae2e 5d3d 7cc8 0a3d
000002d0: e4b4 c3bc a0df a0bc 483a bbbc 5f46 78bd
000002e0: f817 14bc 1c03 ed3c 8796 573d 38e4 62bd
000002f0: ed1b ae3c 9ebb 89bd 50c9 5b3c 20bc 523b
00000300: 60b5 f73c bf63 ebbb 1c21 313d db70 08bd
00000310: 3672 3b3c 6521 d33c d8d2 db3c 6474 c53c
00000320: e711 a8bc f6ba 513d 7fad 5dbd 91c8 39bc
00000330: 11d5 a53c 3560 953c 1bc0 dbbc c0f1 48bc
00000340: 5c90 493d 0319 a63b 4716 6bba ec48 143d
00000350: 48ee 3dbd 7c34 c3bc 1c5e 97bc c8de 00bc
00000360: ec36 ddbc a2eb 22bd a7e0 293d b143 37bd
00000370: 1db6 4a3d 233f 8dbc 4d26 7d3c b6ac 293d
00000380: 8868 fe3c 8b7b 323d e3d9 89bd 56b1 73bd
00000390: 904b 8cbd 1ba7 30bd 0139 db3b b4b1 7c3b
000003a0: 9bb4 b3bc fe9c 26bd ad2a f9bc 0196 783d
000003b0: abf2 6cbd 3c24 3a3d ad5a 60bd 4792 38bd
000003c0: 5aa9 5abd bc1c 633d c363 68bd 64ae 32bd
000003d0: eed0 36bd 5c41 043d 378e 25bd ca70 4cbd
000003e0: e2b8 e03c 3486 993c 9cc6 a6bc 9ae9 1a3b
000003f0: 53df 19bc 04be b13c 667b 62bd 747e 72bd

net.2.bias f4 [256]
0.011397199 -0.058795877 -0.08405346 0.038021386 0.025322724 -0.0012373977 0.031597033 -0.071174294
-0.024518998 0.17001979 0.03367482 -0.059953026 0.07635505 -0.034093153 0.086499736 -0.05464143
0.029768884 0.050332896 0.11941332 -0.012805963 0.042748895 0.038063135 0.06668141 -0.038963635
-0.042965647 -0.060006253 -0.019815248 0.015871923 -0.16159636 -0.033853136 0.031953342 0.12212169
-0.013384812 0.14987274 0.037915505 0.027046826 0.08377694 -0.122692995 0.0697534 -0.03994236
0.023883741 0.03883314 -0.061274 0.06770297 -0.025479503 0.075548336 0.022880513 0.03216457
0.14064147 -0.06055424 0.03942781 0.14984015 0.043452635 0.02037674 0.055767488 -0.0002933574
-0.056072004 -0.010311035 0.0624249 0.026574157 0.09111562 -0.04836717 -0.01569557 0.07022549
0.0255553 0.04673845 0.022307329 -0.060953375 -0.07226231 0.021741446 0.0478573 0.028978823
0.03504031 -0.026253195 -0.052784216 0.031090863 -0.076022595 -0.07898742 -0.055381 -0.026794892
-0.008742106 0.14875188 0.07889787 -0.0038732984 -0.047208343 -0.015356372 -0.048372693 0.044326328
0.04180721 0.06046469 0.04521911 0.19757712 0.02947581 -0.028388599 -0.058405332 -0.0078519005
0.055647306 0.09026611 0.016014181 0.051786806 -0.019487683 0.016024232 -0.027010301 0.0153937815
0.025216835 0.1441094 -0.087599024 -0.05407747 -0.018451078 -0.038005337 0.038307656 -0.05367081
-0.07406083 0.0053654485 -0.006259605 0.021041358 0.0072298073 -0.027639022 0.15805387 0.002936557
-0.053766854 0.0015004505 0.035937905 0.080846965 0.10235412 0.15807469 0.016923718 0.09238732
0.023078412 0.01960507 0.031351782 0.03161826 0.032513477 -0.059928037 -0.05397373 0.13225761
0.11291329 -0.06873654 -0.013122641 -0.06511112 0.030381044 -0.056061458 0.13843544 -0.060619317
-0.024360077 -0.038231242 -0.05013843 -0.05685327 -0.026844794 -0.0031355692 0.04499237 -0.054194838
-0.032772765 -0.038177982 0.09143341 0.12553991 -0.06519643 0.027285263 -0.0003305837 -0.019278325
0.05021996 0.19091776 0.15009995 0.06956621 0.1007732 -0.058999978 0.008848228 0.02675884
-0.052161373 -0.0035305624 0.024706734 0.026783932 0.114293054 0.057326056 0.014789827 0.04189782
-0.068338566 0.04788143 0.017114734 0.042378716 -0.056999654 0.012598481 -0.021276394 0.022283526
-0.0047712238 0.026156636 0.16309202 -0.022731854 -0.04006157 0.018062266 0.007584164 -0.04153504
-0.050876427 -0.036134094 0.0315193 0.070709236 0.1812002 -0.040719606 -0.0139208315 -0.015168332
0.1894167 0.12921546 0.008050517 0.028042212 -0.0037611143 -0.022643901 0.013988543 0.059263762
-0.06594032 0.10310194 -0.061058953 -0.1275713 0.074463554 0.010062181 0.01267491 -0.05935443
-0.030575812 -0.032262642 -0.028127434 -0.060224768 0.16362341 -0.0034464689 0.101067655 0.08851789
-0.042755302 -0.047724072 0.07139904 0.010596866 -0.012965148 -0.0111000445 0.033148274 -0.003235723
-0.085897624 0.02824113 -0.023646953 0.16468213 0.026861466 0.048255414 0.046062965 -0.014880044
0.087587886 0.04339616 0.06573608 0.045165222 -0.0661908 -0.0185654 0.14708538 0.1681674
0.02337196 -0.019538675 0.011330505 0.021823281 -0.032334525 0.027664449 -0.024395961 0.09182433
00000000: 51bb 3a3c f2d3 70bd 3824 acbd 50bc 1b3d
00000010: 9a71 cf3c 2d30 a2ba e46b 013d d4c3 91bd
00000020: 11dc c8bc ab19 2e3e 9cee 093d 4e91 75bd
00000030: 0960 9c3d 43a5 0bbd c626 b13d b1cf 5fbd
00000040: e0dd f33c de29 4e3d f98e f43d 1ad0 51bc
00000050: 7719 2f3d 17e8 1b3d 4390 883d 5598 1fbd
00000060: bffc 2fbd 1ec9 75bd 9653 a2bc d605 823c
00000070: 8479 25be 96a9 0abd 82e1 023d f01a fa3d
00000080: f84b 5bbc 3d78 193e 4a4d 1b3d 4e91 dd3c
00000090: 3f93 ab3d 7746 fbbd dfda 8e3d 9a9a 23bd
000000a0: d6a7 c33c 800f 1f3d 72fa 7abd dba7 8a3d
000000b0: 64ba d0bc 16b9 9a3d ea6f bb3c ffbe 033d
000000c0: 5104 103e b907 78bd 0e7f 213d b26f 193e
000000d0: 64fb 313d 1fed a63c 736c 643d c4cd 99b9
000000e0: c2ab 65bd 9eef 28bc 40b1 7f3d 0cb2 d93c
000000f0: d49a ba3d a71c 46bd ff93 80bc 62d2 8f3d
00000100: 5959 d13c d170 3f3d dcbd b63c 3faa 79bd
00000110: 43fe 93bd 1e1b b23c 0406 443d ff64 ed3c
00000120: 6e86 0f3d f110 d7bc 4334 58bd 44b2 fe3c
00000130: bcb1 9bbd 28c4 a1bd 30d7 62bd f680 dbbc
00000140: 0d3b 0fbc 6a52 183e 3595 a13d 2ad7 7dbb
00000150: 895d 41bd 4b99 7bbc 7222 46bd 868f 353d
00000160: 093e 2b3d d3a9 773d ac37 393d a851 4a3e
00000170: 4177 f13c 358f e8bc 6e3a 6fbd 42a5 00bc
00000180: 6eee 633d 70dd b83d 2c30 833c 671e 543d
00000190: a2a4 9fbc 4045 833c b544 ddbc 3336 7c3c
000001a0: 8993 ce3c 6a91 133e 1e67 b3bd 5680 5dbd
000001b0: b726 97bc 7cab 1bbd 7de8 1c3d ecd5 5bbd
000001c0: 34ad 97bd a5d0 af3b 5f1d cdbb ed5e ac3c
000001d0: 05e8 ec3b 3b6b e2bc e0d8 213e 4073 403b
000001e0: a23a 5cbd c4aa c43a a033 133d 1893 a53d
000001f0: 099f d13d 55de 213e 9ca3 8a3c 9035 bd3d
00000200: f00e bd3c d09a a03c ba6a 003d 2682 013d
00000210: da2c 053d 1a77 75bd 8f13 5dbd 8a6e 073e
00000220: 153f e73d bec5 8cbd 5800 57bc fb58 85bd
00000230: abe1 f83c b3a0 65bd 05c2 0d3e f64b 78bd
00000240: c98e c7bc 5d98 1cbd f45d 4dbd f9de 68bd
00000250: 9de9 dbbc 1f7e 4dbb eb49 383d 68fb 5dbd
00000260: bc3c 06bd 8460 1cbd 7141 bb3d 898d 003e
00000270: b585 85bd 5885 df3c 3152 adb9 94ed 9dbc
00000280: 72b3 4d3d f27f 433e cdb3 193e bb78 8e3d
00000290: 2e62 ce3d f6a9 71bd 28f8 103c 5b35 db3c
000002a0: 2aa7 55bd 0261 67bb c765 ca3c fa69 db3c
000002b0: 7a12 ea3d bace 6a3d 0851 723c 0c9d 2b3d
000002c0: 17f5 8bbd 511f 443d 3334 8c3c 4e95 2d3d
000002d0: 7878 69bd dc69 4e3c d54b aebc f18b b63c
000002e0: ed57 9cbb 7146 d63c 9801 273e 2738 babc
000002f0: 9a17 24bd 51f7 933c 9484 f83b a520 2abd
00000300: cd63 50bd 5801 14bd 621a 013d 01d0 903d
00000310: 8c8c 393e 9ac9 26bd 3314 64bc 9884 78bc
00000320: 74f6 413e 0f51 043e 51e6 033c c8b8 e53c
00000330: 077d 76bb b47f b9bc 3430 653c 8fbe 723d
00000340: b80b 87bd 1c27 d33d f418 7abd 0da2 02be
00000350: 5980 983d d9db 243c 6daa 4f3c a11d 73bd
00000360: 207a fabc d525 04bd 816b e6bc 3fae 76bd
00000370: e58c 273e 27de 61bb 8ffc ce3d de48 b53d
00000380: 2f20 2fbd 517a 43bd a939 923d 7a9e 2d3c
00000390: c66b 54bc f6dc 35bc 7cc6 073d 6c0e 54bb
000003a0: 18eb afbd f159 e73c 41b7 c1bc 6fa2 283e
000003b0: 940c dc3c 78a7 453d 85ac 3c3d 6ecb 73bc
000003c0: 4761 b33d 2cc0 313d a3a0 863d 2bff 383d
000003d0: 0b8f 87bd 7716 98bc 8d9d 163e 1334 2c3e
000003e0: 8d76 bf3c 920f a0bc 95a3 393c bdc6 b23c
000003f0: 3571 04bd 8ea0 e23c 0ada c7bc 650e bc3d

actor.weight f4 [1, 256]
0.010974159 0.025580186 0.058628622 -0.043660313 0.5209392 0.012913487 0.046569493 -0.014622924
0.0042220694 0.097490996 -0.022874273 -0.013445794 0.50371075 -0.004221883 0.3617505 0.024229102
0.4727897 -0.006882593 -0.106142774 0.05010144 0.06133453 -0.31342217 0.3568153 -0.03504742
-0.42090333 -0.0036520795 0.052363925 -0.019665202 -0.34271133 -0.2589253 0.019554863 0.27163282
0.044684112 -0.025992543 -0.3141898 -0.25116122 0.4848801 0.22797036 -0.19914389 0.008015297
0.105751395 -0.32672435 0.053346403 0.004213629 -0.045536064 0.6081996 -0.0075861793 -0.2593599
0.16037314 0.07288104 -0.027615199 0.18199235 0.43189785 -0.30575567 0.4064828 -0.040921837
-0.37029928 -0.019342111 -0.008374825 -0.02999235 0.11727506 0.024079593 0.29816154 -0.22961864
-1.2655861 0.02747548 -0.2621295 -0.051633164 0.008269344 -0.37143067 0.09183211 0.1583244
0.051215064 -0.0069363476 0.025263244 0.033855196 0.0070853783 0.013527915 -0.075963065 -0.25264415
0.5412076 -0.12156685 -0.3477867 -0.37645936 0.0041673463 -0.012676197 -0.04485239 0.04111539
-0.24516173 0.36569107 0.028487109 0.010117731 0.045729414 0.038201723 -0.0522423 0.49225444
0.058977123 0.21578999 -0.21519484 -0.04225002 0.06327938 0.006996753 -0.008455219 0.0057436414
0.004478155 -0.16623159 0.06809572 0.15130572 0.06003982 0.006998703 0.028555835 0.009826774
0.004741174 0.004775356 -0.0018006001 0.4930552 0.0016632981 -0.0037346943 0.07004742 -0.00082430115
0.04487724 0.038395304 0.05940354 -0.18913493 0.036302686 0.029594237 0.05299781 -0.096008465
0.032216918 -0.009268492 -0.008033492 -0.033622097 0.047019333 -0.3079861 -0.008183334 0.12932803
-0.14956494 -0.032829523 -0.04132229 0.046194024 -0.0011977346 -0.37920386 0.18726055 -0.020720959
0.0072712433 -0.01642676 0.00026030093 0.059836138 -0.038407404 -0.21512154 0.023039214 0.10729173
-0.004773695 -0.041263048 0.44091484 -0.012425746 0.022663176 0.07985554 0.57171994 0.039636254
0.030951167 0.050645534 -0.07105922 0.30715787 0.20661603 0.026515372 -0.28347507 0.48046112
0.040476028 0.45455402 0.021900805 0.3661595 0.048144378 0.49588615 0.050649457 0.0005053666
-0.046787854 -0.32156035 -0.32577145 0.115294255 0.047869258 0.043441422 -0.2329584 0.07917236
0.10489351 0.012254947 0.15870379 0.45815295 0.009072594 0.5002459 -0.039490316 -0.25224906
-0.034349 -0.31415048 -0.020320738 -0.025274055 0.14569648 -0.026666373 0.020242136 0.008826621
0.09995613 -0.14205141 -0.0646403 0.009308668 -0.19196601 -0.0030545148 -0.0663468 -0.22765467
-0.04502408 0.016904335 -0.4645374 0.103077285 0.095184825 0.29791397 -0.28704196 0.010359507
0.005672764 0.04206727 0.013747301 -0.013715971 0.014597286 0.16391347 0.14872104 -0.01808208
-0.04353003 -0.012065455 0.17176537 -0.038899876 0.018400641 -0.32973015 -0.02951331 -0.046850167
-0.07140899 0.4758312 0.04842298 0.20479634 -0.057431556 0.44328722 0.008803338 0.48534542
0.37966904 -0.40170372 0.20317528 0.0353608 0.05344515 -0.048684824 -0.008543913 -0.11648574
-0.04524522 -0.286215 -0.052791692 -0.15503111 -0.0067529446 -0.020554228 0.23139365 0.09515759
00000000: f6cc 333c 8a8d d13c 9124 703d 28d5 32bd
00000010: 455c 053f 1793 533c a7bf 3e3d fd94 6fbc
00000020: 4959 8a3b 5ca9 c73d d462 bbbc bf4b 5cbc
00000030: 30f3 003f b957 8abb 5d37 b93e 1c7c c63c
00000040: 7e11 f23e 6087 e1bb 6261 d9bd 2b37 4d3d
00000050: eb39 7b3d df78 a0be 7fb0 b63e e28d 0fbd
00000060: a480 d7be ba57 6fbb 8e7b 563d eb18 a1bc
00000070: dc77 afbe db91 84be 8531 a03c 7513 8b3e
00000080: b006 373d 50ee d4bc 7cdd a0be 3498 80be
00000090: 3442 f83e 1071 693e 60ec 4bbe 9852 033c
000000a0: 3094 d83d 6a48 a7be c281 5a3d 7b12 8a3b
000000b0: 0684 3abd f8b2 1b3f 7c95 f8bb d2ca 84be
000000c0: db38 243e a842 953d 4539 e2bc 345c 3a3e
000000d0: b721 dd3e 028c 9cbe 831e d03e a89d 27bd
000000e0: de97 bdbe 5973 9ebc 9036 09bc 84b2 f5bc
000000f0: e82d f03d 9142 c53c a1a8 983e 2621 6bbe
00000100: bafe a1bf 4214 e13c d635 86be 4c7d 53bd
00000110: 257c 073c 292c bebe 7912 bc3d cb1f 223e
00000120: e3c6 513d 4d4a e3bb ddf4 ce3c bfab 0a3d
00000130: 762c e83b 30a4 5d3c 8692 9bbd 935a 81be
00000140: 958c 0a3f 0af8 f8bd 1911 b2be 48bf c0be
00000150: 3c8e 883b d3af 4fbc 24b7 37bd 9c68 283d
00000160: ad0b 7bbe dc3b bb3e cc5d e93c d7c4 253c
00000170: c44e 3b3d 6979 1c3d 06fc 55bd c608 fc3e
00000180: ff91 713d 0df8 5c3e 095c 5cbe 5b0e 2dbd
00000190: 9f98 813d 0545 e53b c287 0abc 2835 bc3b
000001a0: 7dbd 923b 9d38 2abe c575 8b3d e3ef 1a3e
000001b0: 50ec 753d 6055 e53b eded e93c 7a00 213c
000001c0: da5b 9b3b 977a 9c3b 1d02 ecba bb71 fc3e
000001d0: 0603 da3a c6c1 74bb 0675 8f3d ea15 58ba
000001e0: 32d1 373d 6544 1d3d 2051 733d 96ac 41be
000001f0: 20b2 143d 9d6f f23c 3b14 593d 16a0 c4bd
00000200: e3f5 033d e0da 17bc e89e 03bc 53b7 09bd
00000210: 5897 403d 5bb0 9dbe 6413 06bc 916e 043e
00000220: 8d27 19be 4078 06bd 9041 29bd f235 3d3d
00000230: 4efd 9cba 0227 c2be 3bc1 3f3e 00bf a9bc
00000240: 9c43 ee3b 6a91 86bc 0079 8839 bd16 753d
00000250: 1551 1dbd d248 5cbe bcbc bc3c c4bb db3d
00000260: a86c 9cbb 7103 29bd 97bf e13e 5b95 4bbc
00000270: 20a8 b93c 4d8b a33d 3d5c 123f a059 223d
00000280: 4d8d fd3c b171 4f3d 7f87 91bd cc43 9d3e
00000290: 2793 533e c436 d93c a523 91be 00ff f53e
000002a0: 31ca 253d 4ebb e83e 5169 b33c 4279 bb3e
000002b0: 0a33 453d cae4 fd3e ce75 4f3d 947a 043a
000002c0: 9fa4 3fbd 8fa3 a4be 84cb a6be 651f ec3d
000002d0: 8e12 443d a2ef 313d a68c 6ebe 1e25 a23d
000002e0: 69d2 d63d f9c8 483c 3f83 223e 0693 ea3e
000002f0: 38a5 143c 1e10 003f 99c0 21bd ca26 81be
00000300: 89b1 0cbd 55d8 a0be ad77 a6bc 890b cfbc
00000310: 7531 153e 7073 dabc d6d2 a53c 889d 103c
00000320: cdb5 cc3d ed75 11be 2262 84bd 6283 183c
00000330: bd92 44be 412e 48bb d5e0 87bd 4e1e 69be
00000340: 2b6b 38bd f67a 8a3c d9d7 edbe 2f1a d33d
00000350: 43f0 c23d 2e88 983e 2af7 92be ecba 293c
00000360: 98e2 b93b bb4e 2c3d 5c3c 613c f4b8 60bc
00000370: 7429 6f3c efd8 273e 544a 183e df20 94bc
00000380: 8b4c 32bd 30ae 45bc 43e3 2f3e 7a55 1fbd
00000390: f1bc 963c 64d2 a8be e6c5 f1bc f6e5 3fbd
000003a0: e03e 92bd 26a0 f33e 2d57 463d 22b6 513e
000003b0: 5a3d 6bbd 8bf6 e23e e03b 103c 327f f83e
000003c0: fb63 c23e 1cac cdbe 2e0d 503e 7cd6 103d
000003d0: 4de9 5a3d bd69 47bd c5fb 0bbc 1390 eebd
000003e0: 0d53 39bd c68a 92be 1a3c 58bd 7ac0 1ebe
000003f0: ce47 ddbb 5761 a8bc 75f2 6c3e fce1 c23d

critic.weight f4 [1, 256]
-0.031594902 -0.07294846 -0.22819172 0.043308552 0.011472558 0.011301598 -0.020529492 0.03345937
-0.011686863 0.0701901 -0.01583064 -0.024152245 0.010310548 -0.016671209 0.006674403 0.003997397
0.005492409 -0.048946004 0.07676055 -0.002184089 -0.0528129 0.021181999 0.0032520546 -0.0348304
-0.006119347 -0.010666944 0.041031726 -0.027645154 -0.08459125 0.03369026 -0.015526671 0.013474803
0.01072754 0.09975228 -0.010739612 -0.005504826 0.015469254 -0.19351575 0.04224218 0.061740316
0.0031614883 -0.009472514 0.006634891 0.009884775 0.015704837 0.012358691 0.056755222 -0.01637178
0.027006654 -0.12021078 0.023098938 0.043180384 0.016770614 -0.0156888 0.005869365 -0.012678637
0.0015280747 0.009450128 0.002906475 -0.020955648 0.0019301166 0.046136566 0.024802228 0.027344031
0.16039255 0.020656269 0.015586044 0.0075845565 -0.032290556 0.00649583 0.0022255962 0.0046403147
0.008725022 -0.024083948 0.054056898 0.020577896 -0.027296307 -0.11120749 -0.024918534 0.006170489
0.010881383 0.05260901 0.11297068 -0.015630124 0.05383956 -0.052754495 -0.006788281 0.05047401
0.027524948 -0.01764485 0.0032240564 0.09563959 0.0424253 -0.121739686 -0.005122178 0.0063856575
0.034087557 0.015642487 -0.008440959 0.04846956 -0.0135256415 -0.021236386 -0.028706573 -0.03799587
0.06816426 0.054373477 -0.11848229 -0.0459963 0.045211088 -0.054935828 0.04302946 -9.0349684e-05
-0.019880401 -0.03866955 -0.021445364 0.0057502827 0.020307336 -0.03719523 0.077055514 -0.031814486
-0.028768424 0.043537866 0.06259407 0.025668247 0.034609415 0.04145687 -0.014612804 0.051217075
0.007954809 0.041759692 0.017526673 0.0027596399 0.052998476 -0.015852032 0.03206719 0.07643418
0.033870004 -0.14899814 -0.017410703 -0.023954287 -0.0019615255 0.0077584707 0.061605643 0.047502946
-0.023831535 0.006024772 -0.037672363 0.052677486 -0.002871555 -0.007653952 0.0012424786 -0.17710029
0.004420833 0.005916165 0.007582299 0.08792152 0.05083458 0.010504103 0.006132075 0.049556915
-0.023647048 0.058335293 0.10943876 0.016497336 0.0056274915 0.047881335 -0.009188885 0.010091474
-0.22107595 0.005410413 -0.033514638 0.0007921935 0.06293793 0.011814271 0.012276769 0.012948078
-0.00788824 -0.0111991465 -0.005627949 -0.020035934 0.024084583 -0.006152163 -0.043506917 -0.0101092
-0.06591787 0.054180436 0.034516446 0.015592055 0.029563561 0.009498407 -0.0163806 -0.011359025
-0.016669858 -0.0026138895 -0.0654263 0.05562433 0.071027555 0.05864104 -0.033192504 -0.039355353
0.08128573 0.079351194 0.0036190827 -0.014627943 0.26863083 -0.004332597 -0.17835101 0.013763582
-0.045932885 0.085072346 0.017216206 -0.25885874 0.018960439 -0.048749775 0.001348199 -0.001952905
0.018764671 0.03959083 -0.044550106 -0.053803436 0.049503755 0.027448665 0.06638246 0.05126554
-0.016904257 0.049226448 0.043905627 -0.0062582972 -0.0090887165 -0.013506428 -0.00353095 0.00030237008
-0.020097325 0.010941154 0.015272862 0.042053502 -0.020226587 0.03209071 -0.06604683 0.012047447
0.016595865 -0.006649214 0.041220512 -0.011122033 -0.05060012 -0.0139216455 0.025731826 0.08454969
-0.029206404 -0.008230789 -0.03434609 -0.010712912 -0.010030836 0.03573642 0.008224162 0.0025381702
00000000: a869 01bd 0166 95bd 17ab 69be 4f64 313d
00000010: 65f7 3b3c 562a 393c 772d a8bc b10c 093d
00000020: 427a 3fbc d4bf 8f3d 42af 81bc eeda c5bc
00000030: 93ed 283c 0f92 88bc f3b4 da3b 99fc 823b
00000040: abf9 b33b 9b7b 48bd a334 9d3d ef22 0fbb
00000050: 5752 58bd df85 ad3c 6c20 553b 52aa 0ebd
00000060: ce84 c8bb 68c4 2ebc e210 283d 1778 e2bc
00000070: 2d3e adbd ccfe 093d 9463 7ebc 6cc5 5c3c
00000080: 90c2 2f3c ec4a cc3d 33f5 2fbc d461 b4bb
00000090: c172 7d3c fe28 46be 2306 2d3d 6ae3 7c3d
000000a0: f930 4f3b 9a32 1bbc 8069 d93b c0f3 213c
000000b0: 6ea7 803c 1b7c 4a3c 2a78 683d 1c1e 86bc
000000c0: 0f3d dd3c 1231 f6bd fc39 bd3c eadd 303d
000000d0: 8762 893c cc85 80bc cd53 c03b 0fba 4fbc
000000e0: ae49 c83a b6d4 1a3c 8f7a 3e3b 2eab abbc
000000f0: f7fb fc3a b2f9 3c3d 0b2e cb3c 9700 e03c
00000100: f23d 243e 5637 a93c 9b5c 7f3c df87 f83b
00000110: 1a43 04bd f9da d43b 4fdb 113b c80d 983b
00000120: 65f3 0e3c b34b c5bc c46a 5d3d fa92 a83c
00000130: 819c dfbc c1c0 e3bd f421 ccbc d031 ca3b
00000140: d447 323c 8c7c 573d 2c5d e73d bf0a 80bc
00000150: df86 5c3d 1915 58bd 3a70 debb d6bd 4e3d
00000160: 007c e13c ef8b 90bc b14a 533b b0de c33d
00000170: 27c6 2d3d a852 f9bd f1d7 a7bb c73e d13b
00000180: 659f 0b3d ac24 803c f34b 0abc 0488 463d
00000190: a79a 5dbc eef7 adbc 0c2a ebbc 8fa1 1bbd
000001a0: b499 8b3d b9b6 5e3d d8a6 f2bd 9e66 3cbd
000001b0: 432f 393d 6404 61bd a93f 303d 1e7a bdb8
000001c0: 39dc a2bc f663 1ebd 30ae afbc de6c bc3b
000001d0: 925b a63c 075a 18bd 48cf 9d3d e84f 02bd
000001e0: c2ab ebbc c354 323d 5231 803d 3746 d23c
000001f0: 9ac2 0d3d aece 293d 8b6a 6fbc ffc8 513d
00000200: e354 023c 360c 2b3d 1994 8f3c 13db 343b
00000210: ee14 593d 1fdc 81bc e358 033d 8689 9c3d
00000220: 46bb 0a3d f892 18be e4a0 8ebc c83b c4bc
00000230: f08c 00bb c53a fe3b 3356 7c3d 7392 423d
00000240: 5a3a c3bc 736b c53b 564e 1abd 59c4 573d
00000250: b330 3cbb 01ce fabb aada a23a c759 35be
00000260: a3dc 903b 64dc c13b ef74 f83b 3310 b43d
00000270: ec37 503d 6719 2c3c 93ef c83b 31fc 4a3d
00000280: 74b7 c1bc fdf0 6e3d 6e21 e03d 6c25 873c
00000290: d266 b83b 381f 443d fa8c 16bc b656 253c
000002a0: bc61 62be d549 b13b a546 09bd 35ab 4f3a
000002b0: 9ae5 803d a590 413c 8024 493c 2d24 543c
000002c0: ad3d 01bc a07c 37bc a86a b8bb 6622 a4bc
000002d0: 084d c53c 1598 c9bb 4f34 32bd 0fa1 25bc
000002e0: f3ff 86bd 4eec 5d3d 1e61 0d3d d275 7f3c
000002f0: 482f f23c 359f 1b3c 9c30 86bc 341b 3abc
00000300: 3a8f 88bc ca4d 2bbb 39fe 85bd 56d6 633d
00000310: e576 913d 9631 703d ddf4 07bd 1433 21bd
00000320: 2279 a63d e182 a23d 222e 6d3b 0aaa 6fbc
00000330: fb89 893e 75f8 8dbb a6a1 36be a680 613c
00000340: 1f24 3cbd 693a ae3d 0009 8d3c 2289 84be
00000350: ec52 9b3c d8ad 47bd 0db6 b03a 9ef8 ffba
00000360: 5eb8 993c ff29 223d 2c7a 36bd fe60 5cbd
00000370: 73c4 4a3d 06dc e03c 87f3 873d d1fb 513d
00000380: cc7a 8abc aca1 493d 63d6 333d 6712 cdbb
00000390: d7e8 14bc 114a 5dbc 8367 67bb 6d87 9e39
000003a0: 25a3 a4bc 8742 333c 073b 7a3c 4b40 2c3d
000003b0: 3ab2 a5bc 8c71 033d 8f43 87bd a862 453c
000003c0: 0df4 873c a6e1 d9bb d7d6 283d 3039 36bc
000003d0: 1242 4fbd 9d17 64bc 8dcb d23c 6328 ad3d
000003e0: 4542 efbc 6eda 06bc 7cae 0cbd 3685 2fbc
000003f0: 6058 24bc 5a60 123d a3be 063c 6e57 263b
