models1/ppo_1950.pth (torch, 275660 bytes, 6 tensors)

net.0.weight f4 [256, 6]
0	0xbed1fab5	-0.41011587
1	0xbed44693	-0.41460094
2	0x3e03091a	0.1279644
3	0x3eb0b197	0.3451049
4	0xbbe40db0	-0.0069596395
5	0xbecc0760	-0.39849377
6	0xbd75e7e6	-0.06003561
7	0xbbdfa2ff	-0.0068248506
8	0x3eefa09d	0.46802226
9	0xbecac5f3	-0.39604148
10	0xbdbae8de	-0.09126447
11	0x3ee248cc	0.44196165
12	0xbcddf7af	-0.027095644
13	0x3f0aa159	0.54152447
14	0x3e158624	0.14601952
15	0xbe8f035d	-0.27932253
16	0xbe6be5b3	-0.23036842
17	0xbd6f79cf	-0.058465775
18	0xbea2bb6e	-0.31783623
19	0x3e7a5a5a	0.24448529
20	0x3e1c0cfa	0.15239325
21	0xbd5f7ea3	-0.05456413
22	0x3c8c1ffe	0.017105099
23	0x3ea38d13	0.3194357
24	0x3e830594	0.25590193
25	0xbe051628	-0.12996733
26	0xbef04e4e	-0.46934742
27	0x3ea19ebd	0.3156642
28	0x3e3eeb8b	0.1864454
29	0xbe39e04d	-0.1815197
30	0x3dd6dcf4	0.10491362
31	0xbdb14b4e	-0.08656941
32	0x3ebd7960	0.37006664
33	0x3bad19dd	0.005282624
34	0xbe9c186e	-0.30487388
35	0x3e624e6c	0.22100228
36	0xbdc2be23	-0.09508922
37	0x3d787f83	0.06066848
38	0x3ef56934	0.47931826
39	0x3e5a4871	0.21316697
40	0x3defb879	0.11705107
41	0xbe9e4184	-0.3090936
42	0xbebb3125	-0.36560932
43	0xbec43afc	-0.38326252
44	0xbc6895c6	-0.014195865
45	0x3e186583	0.14882474
46	0xbd245278	-0.04011771
47	0x3e75acb9	0.2399167
48	0xbe900f37	-0.28136608
49	0xbea6dfaa	-0.32592517
50	0x3e8766a3	0.26445493
51	0xbdfbd75d	-0.12296937
52	0x3e8dc952	0.27692658
53	0xbeaa2120	-0.33228397
54	0x3e14a373	0.14515476
55	0x3e3ca9df	0.18424176
56	0x3eec5bc2	0.46163756
57	0xbf0f958c	-0.56087565
58	0xbe2af829	-0.16696228
59	0x3e1b7bdd	0.15183969
60	0x3e082656	0.13295874
61	0xbe24b691	-0.16085269
62	0x3c5aa9c5	0.01334614
63	0xbbe2a91e	-0.006917133
64	0xbe6f14fa	-0.23347846
65	0xbdae08c3	-0.08497765
66	0x3d236c2a	0.039898075
67	0xbe817e5e	-0.25291723
68	0xbe5a2fdb	-0.21307318
69	0x3e8bbd50	0.2729287
70	0xbdd77562	-0.10520436
71	0xbdff15de	-0.12455343
72	0xbe066c9b	-0.13127367
73	0x3df76fed	0.12081895
74	0xbdf1bde0	-0.11803794
75	0x3e3ef492	0.18647984
76	0xbea5c66d	-0.3237795
77	0xbeab0731	-0.33403924
78	0xbc848527	-0.016176773
79	0x3d947b4f	0.07250082
80	0x3e5354fd	0.20637889
81	0x3e917a4f	0.28413627
82	0xbe165812	-0.14682034
83	0xbee62f5c	-0.44958007
84	0x3e9260f9	0.2858961
85	0x3dec21e6	0.11529903
86	0xbe8abb2c	-0.27095926
87	0xba91b619	-0.0011116891
88	0xbe9d0bf6	-0.30673188
89	0x3ea4ab3d	0.32161894
90	0x3dacc96f	0.08436858
91	0xbea897e4	-0.32928383
92	0xbddb0dec	-0.10696015
93	0xbecdf2c6	-0.40224284
94	0xbe44988a	-0.19198814
95	0xbde56149	-0.11200196
96	0x3e009b25	0.12559183
97	0x3e603815	0.21896394
98	0x3ec60f87	0.3868372
99	0xbe14c5ef	-0.1452863
100	0xbc9cc753	-0.019138014
101	0xbeb2b0ac	-0.34900415
102	0xbf005371	-0.5012732
103	0xbe1da817	-0.15396152
104	0x3cc2d533	0.023783302
105	0xbeae4fad	-0.34045163
106	0x3cde08a3	0.027103728
107	0x3db198da	0.08671732
108	0xbef4a598	-0.47782588
109	0x3e6561cc	0.22400588
110	0xbefa66b2	-0.48906475
111	0xbea891bd	-0.3292369
112	0xbda326fe	-0.079664215
113	0x3e0d6ebf	0.13811778
114	0x3e135c98	0.1439079
115	0x3e4fbac0	0.20286083
116	0xbe49b9a7	-0.19699727
117	0x3eccc5a4	0.39994538
118	0xbdcab968	-0.09898645
119	0xbe7a57ae	-0.2444751
120	0xbe102100	-0.14075089
121	0x3d8a6179	0.06756873
122	0xbe11511e	-0.141911
123	0x3e668d9c	0.22514957
124	0x3e6ae439	0.22938623
125	0x3e93ead7	0.28890106
126	0x3eb41efd	0.35179892
127	0x3e619d5f	0.22032689
128	0x3c7c989f	0.015417247
129	0x3e041562	0.12898782
130	0x3d9ce954	0.07661691
131	0xbec65ae9	-0.38741234
132	0xbe9de699	-0.30839995
133	0x3de85c79	0.11345763
134	0x3eb68ccf	0.35654303
135	0xbf00ea79	-0.50357777
136	0xbd97b193	-0.074069165
137	0x3ec4c4b5	0.38431326
138	0x3deeff57	0.11669796
139	0xbe2d9149	-0.16949953
140	0xbdd68d3b	-0.10476156
141	0xbc093eb5	-0.008376767
142	0x3e7407a1	0.23831035
143	0xbcb9f8b9	-0.022701608
144	0xbe10bdfd	-0.14134975
145	0x3e6887e2	0.22708085
146	0x3ca909c2	0.020634536
147	0x3d55b876	0.05217787
148	0x3e4f1ea8	0.20226538
149	0xbedca126	-0.43091697
150	0xbe57d44d	-0.2107708
151	0x3ea54d91	0.3228574
152	0xbedb125e	-0.4278745
153	0x3f2147a4	0.6299994
154	0x3da172e7	0.07883244
155	0xbe6d9dd6	-0.23204741
156	0x3e18e419	0.14930762
157	0x3cd5f976	0.026119929
158	0xbe5ab062	-0.21356347
159	0x3e4e2835	0.20132525
160	0x3dd4186d	0.10356221
161	0xbe503804	-0.20333868
162	0x3daac36c	0.08338055
163	0xbda7ea77	-0.081990175
164	0x3f1a360b	0.60238713
165	0xbf10e5d2	-0.5660068
166	0x3cec3a7b	0.02883648
167	0xbeaa0a7c	-0.33211124
168	0x3e9d68c4	0.30743992
169	0xbec92f65	-0.39293972
170	0x3dbb8d1f	0.09157776
171	0x3e831c9d	0.25607768
172	0xbcf6d8b6	-0.030132633
173	0xbe2f1fa5	-0.17101915
174	0xbe4b8fa9	-0.19879021
175	0x3e0e2273	0.13880329
176	0x3e76a0bb	0.24084751
177	0xbe9dc9e2	-0.30818087
178	0xbea248bd	-0.3169612
179	0x3d7da720	0.06192696
180	0xbe0dbede	-0.13842341
181	0xbe8b5cc7	-0.2721922
182	0xbec1b4b7	-0.37833187
183	0x3ecacb3d	0.39608184
184	0x3ec22b50	0.3792367
185	0x3e841837	0.25799724
186	0xbdfe4f3d	-0.12417457
187	0xbeb6e75e	-0.35723394
188	0xbf0b9f8a	-0.5454031
189	0x3ea07df1	0.31346086
190	0x3d862838	0.0655064
191	0xbe031c20	-0.12803698
192	0xbe65e183	-0.22449307
193	0xbdbfe3cf	-0.09369623
194	0xbe7a8f1e	-0.24468657
195	0x3eb22cd2	0.3479982
196	0xbd97f747	-0.07420211
197	0x3cc5d344	0.02414859
198	0xbd95643e	-0.0729451
199	0x3e8360ab	0.2565969
200	0xbdb4202f	-0.08795201
201	0xbcb1cac9	-0.02170314
202	0x3e2103dd	0.1572413
203	0x3dd6a8ac	0.1048139
204	0xbed9ff32	-0.4257751
205	0x3e192f0f	0.14959358
206	0xbe86d7c2	-0.26336485
207	0x3eb54d58	0.3541057
208	0xbeaa8271	-0.33302644
209	0x3d9ad0dd	0.07559369
210	0xbebd1d19	-0.36936262
211	0x3dafd882	0.085862175
212	0x3e2165c4	0.15761477
213	0x3d5b8caf	0.053600963
214	0x3dc496f9	0.09599108
215	0xbe908010	-0.28222704
216	0x3e3159f5	0.17319472
217	0x3e6015fd	0.21883388
218	0x3e8272bc	0.2547816
219	0xbef86773	-0.48516425
220	0xbe59b1c0	-0.21259212
221	0xbe8dc2cd	-0.27687684
222	0xbe789fb0	-0.24279666
223	0xbe3af6a4	-0.18258148
224	0x3ee145c8	0.4399855
225	0xbe727d8d	-0.23680706
226	0xbe3c3815	-0.18380769
227	0xbe46875d	-0.19387574
228	0xbd98a64c	-0.074535936
229	0x3e1dfbbd	0.15428062
230	0xbebfcc27	-0.37460443
231	0x3ea528a4	0.3225757
232	0xbe31cd18	-0.17363393
233	0xbd4f43db	-0.05060182
234	0xbd50f374	-0.051013425
235	0x3d3b315f	0.04570138
236	0xbd386420	-0.04501736
237	0x3db77216	0.08957307
238	0xbe7c039a	-0.24610749
239	0x3f011c3d	0.50433713
240	0x3e6c41c8	0.23071969
241	0xbec501f8	-0.38478065
242	0xbd5846fe	-0.05280208
243	0xbe7200ff	-0.23633192
244	0x3e1447fc	0.14480585
245	0xbec97271	-0.39345124
246	0xbf07be8a	-0.53025115
247	0xbf111f39	-0.56688267
248	0xbb6c086f	-0.003601577
249	0x3e1d4de0	0.15361738
250	0x3e0e6426	0.13905391
251	0xbda61708	-0.081098616
252	0x3e93c272	0.28859288
253	0xbe9d8afb	-0.30770096
254	0x3e634e6d	0.22197886
255	0xbf1479dc	-0.5799844

net.0.bias f4 [256]
0	0xbea32aa2	-0.31868464
1	0x3ca8ef18	0.020621821
2	0xbe8bbb1a	-0.27291185
3	0xbed83bfa	-0.42233258
4	0x3edb5a7c	0.42842472
5	0xbee3c2a6	-0.44484442
6	0xbecc9965	-0.3996078
7	0xbec35c43	-0.38156328
8	0x3c8d9391	0.01728228
9	0xbc1ce921	-0.009577067
10	0x3e3b963c	0.18319029
11	0xbe65dab1	-0.22446705
12	0xbde51093	-0.11184802
13	0xbe386032	-0.18005446
14	0xbee4d551	-0.44693998
15	0x3dc18ad6	0.09450309
16	0x3eb6d40f	0.35708663
17	0x3d8e1e26	0.06939344
18	0xbe063e1a	-0.13109627
19	0x3eacfb4d	0.33785477
20	0xbeb9d1bf	-0.36292836
21	0xbe892f32	-0.2679382
22	0x3d68a8ea	0.056801714
23	0x3e940ecb	0.28917536
24	0x3ec3345c	0.38125885
25	0x3e28e973	0.16495304
26	0x3e5f4996	0.21805415
27	0x3e6bbe31	0.23021771
28	0x3d4c1967	0.049828913
29	0x3be074d7	0.006849866
30	0x3e9cf2dd	0.3065404
31	0x3e27c2fe	0.16382977
32	0x3dc43f23	0.09582355
33	0xbea73989	-0.32661083
34	0xbe6bbfb3	-0.23022346
35	0xbe0f6503	-0.14003377
36	0xbeda9819	-0.42694166
37	0x3ed67f9e	0.4189424
38	0x3e394b09	0.1809503
39	0xbea2183f	-0.31659123
40	0xbe5aa605	-0.21352394
41	0xbe06df57	-0.13171135
42	0x3e30bda9	0.1725985
43	0xbe9a48a1	-0.30133536
44	0xbe39ef31	-0.1815765
45	0x3e65dcd3	0.22447519
46	0x3e1dcdae	0.15410492
47	0xbf0cedc6	-0.55050313
48	0x3dd14b8f	0.1021949
49	0x3e7b73cf	0.24555896
50	0xbeaef262	-0.34169298
51	0x3e2f478f	0.17117141
52	0xbde5a850	-0.11213744
53	0xbe336c48	-0.17521775
54	0xbe8e8b69	-0.27840737
55	0x3e552092	0.20813206
56	0xbe964240	-0.2934742
57	0x3dc21dcc	0.094783396
58	0x3d3d26c9	0.046179567
59	0xbdb0a0cd	-0.0862442
60	0xbda73405	-0.08164219
61	0x3e400169	0.18750538
62	0xbde70421	-0.112800844
63	0x3d9e0873	0.07716455
64	0x3e8d6823	0.27618513
65	0x3df86af2	0.12129773
66	0xbdbecf37	-0.09316867
67	0x3e6bc77c	0.23025316
68	0x3e5ab154	0.21356708
69	0x3e93194c	0.28730237
70	0x3e3dad30	0.18523097
71	0x3e30fea2	0.17284635
72	0x3e85655e	0.260539
73	0xbec7fc33	-0.390596
74	0xbeb9473a	-0.36187154
75	0xbd9738ae	-0.07383858
76	0x3e76d381	0.2410412
77	0xbedf84e8	-0.43656087
78	0x3e685215	0.22687562
79	0xbd3ea3f5	-0.04654308
80	0xbe113ae0	-0.14182615
81	0xbdcdb980	-0.10045147
82	0xbd90c234	-0.07068291
83	0x3bbb4f79	0.005716261
84	0xbe6fbdfa	-0.23412314
85	0x3d85f79c	0.06541368
86	0x3e892537	0.26786205
87	0x3eb3240c	0.3498844
88	0x3c668c0a	0.014071474
89	0x3e85e7df	0.26153466
90	0xbdbe74da	-0.092996314
91	0x3d5fcd07	0.05463889
92	0x3e504028	0.20336974
93	0x3d6e3387	0.05815461
94	0x3e1fb148	0.15594971
95	0x3e97a85b	0.29620633
96	0xbeebe033	-0.46069488
97	0xbe976c33	-0.29574737
98	0xbea274fb	-0.31729874
99	0x3c7e08e9	0.015505054
100	0xbdebe8af	-0.1151899
101	0xbe5eeca3	-0.21769957
102	0x3e5120f0	0.20422721
103	0x3e5a43bf	0.21314906
104	0x3d2b68fb	0.041848164
105	0xbe822e51	-0.25425962
106	0x3d8d5b51	0.06902183
107	0x3e2155d7	0.15755402
108	0xbec25c71	-0.37961152
109	0x3e0fedc9	0.14055552
110	0x3e307914	0.17233688
111	0x3e9d2850	0.30694818
112	0x3ea466b5	0.3210961
113	0xbdd657c4	-0.10465959
114	0xbe35e23d	-0.17762084
115	0xbeaf6575	-0.34257093
116	0xbe2e9040	-0.17047215
117	0xbedc09ea	-0.42976314
118	0x3ebd95f7	0.37028477
119	0xbee49035	-0.4464127
120	0xbea2d289	-0.3180125
121	0xbdb6de36	-0.08929102
122	0x3d05c232	0.032655902
123	0x3e174595	0.14772637
124	0x3eb3e9aa	0.3513921
125	0xbe6ff0af	-0.23431657
126	0x3e9e7f54	0.3095652
127	0xbeff08fe	-0.49811548
128	0x3ea29442	0.31753737
129	0xbe4fb112	-0.2028239
130	0xbe7e4933	-0.24832611
131	0x3d4518e4	0.04811944
132	0x3e9de4ff	0.30838773
133	0xbe9cb62f	-0.30607745
134	0xbdc43e81	-0.09582234
135	0x3e395ace	0.18101045
136	0x3d3367f8	0.043800324
137	0x3d72a682	0.059240825
138	0xbdc1487f	-0.09437656
139	0x3e6b7b42	0.22996238
140	0x3ec86bce	0.39144748
141	0x3eb43a30	0.35200644
142	0x3e411b9f	0.18858193
143	0xbcb75b5b	-0.022382429
144	0x3ebc3c7c	0.36764896
145	0x3eaad5a4	0.3336612
146	0xbeaeb4fb	-0.34122452
147	0xbe10272c	-0.14077443
148	0x3e4d31d0	0.20038533
149	0x3e907175	0.2821156
150	0xbe0445eb	-0.12917297
151	0xbe9fc87f	-0.31207654
152	0xbe306ab8	-0.1722821
153	0x3e9206de	0.28520864
154	0x3e6652aa	0.22492471
155	0xbe8335a6	-0.25626868
156	0xbe7d8d51	-0.24760939
157	0x3cccd47a	0.02500366
158	0xbe8c2958	-0.27375293
159	0x3e1b23cb	0.15150373
160	0xbeb705b5	-0.35746542
161	0xbe6f0be6	-0.23344383
162	0xbe078d7f	-0.1323757
163	0x3e39a657	0.1812986
164	0x3b38ff6f	0.0028228422
165	0xbef05c88	-0.46945596
166	0x3ebc65a0	0.36796284
167	0x3eb4fec1	0.35350612
168	0x3ec7fe6c	0.39061296
169	0xbeb15b2b	-0.34639868
170	0xbeb0c824	-0.34527695
171	0xbeb839bd	-0.3598155
172	0xbe9dd414	-0.30825865
173	0xbe9f4c2f	-0.3111281
174	0xbd19da4f	-0.03756171
175	0x3eca3545	0.39493766
176	0x3e4e7f57	0.20165764
177	0xbdee3eef	-0.116330974
178	0x3ea29b0d	0.3175892
179	0x3d2c988f	0.04213768
180	0xbea87381	-0.32900622
181	0xbe5316d9	-0.20614184
182	0xbece9374	-0.40346873
183	0xbe59ef74	-0.2128275
184	0xbeef4d9a	-0.46738893
185	0x3e21b77a	0.15792647
186	0x3ea8d721	0.3297663
187	0xbdfbb155	-0.12289683
188	0xbd2fbc5f	-0.042904254
189	0xbea62725	-0.3245174
190	0x3e9651d7	0.29359314
191	0x3dea0416	0.114265606
192	0x3d138f7a	0.0360255
193	0x3ec6938a	0.38784438
194	0xbe532e3e	-0.20623109
195	0xbe89c8fd	-0.26911154
196	0xbe1e47f2	-0.15457132
197	0x3b9f9c75	0.004870946
198	0xbdc72393	-0.09723582
199	0xbea0d954	-0.31415808
200	0x3d1fc6c0	0.039007902
201	0x3e1dd1b7	0.15412031
202	0x3eb5e1b0	0.35523748
203	0xbcffeeeb	-0.031241855
204	0x3e80e6a1	0.25175956
205	0x3b1bb9ef	0.0023761948
206	0x3e5869e2	0.21134141
207	0x3d86fb90	0.065909505
208	0x3eb4fdbc	0.35349834
209	0x3e6a2e11	0.22869135
210	0x3d15600a	0.036468543
211	0x3e00abeb	0.12565582
212	0x3eacee8e	0.33775753
213	0xbef02ba1	-0.46908286
214	0x3d866304	0.065618545
215	0xbe1a87fa	-0.15090933
216	0xbe3f0cfd	-0.18657298
217	0x3c531260	0.012882799
218	0xbedf44f3	-0.43607292
219	0x3eb4a19c	0.35279548
220	0x3d8b9ea3	0.06817367
221	0xbed1cd9f	-0.4097719
222	0x3e16c880	0.14724922
223	0xbe69110f	-0.22760414
224	0xbe99876a	-0.29986125
225	0x3e3e5a11	0.18589045
226	0xbdb0181e	-0.0859835
227	0x3e224981	0.15848352
228	0x3e5df2e6	0.2167469
229	0xbe32e34f	-0.17469524
230	0xbd9cab95	-0.07649914
231	0x3bb28126	0.0054475246
232	0xbdf49d50	-0.119440675
233	0xbd5f4484	-0.0545087
234	0xbef07a7b	-0.46968445
235	0xbd872b2b	-0.066000305
236	0x3ea55bf9	0.32296732
237	0xbe8462e9	-0.25856712
238	0x3ed4dfbe	0.41576952
239	0x3e390439	0.18068017
240	0xbd7a63c4	-0.0611303
241	0x3ea66c63	0.32504568
242	0x3da97801	0.08274842
243	0xbe2665b8	-0.1624974
244	0x3e341d49	0.17589296
245	0xbe371497	-0.17878948
246	0xbddecbd0	-0.10878718
247	0x3e881611	0.26579335
248	0xbe1b6c1a	-0.15177956
249	0x3ea5fe25	0.3242046
250	0xbecfb8c7	-0.4057066
251	0xbcfd11f0	-0.030892342
252	0xbc4a67de	-0.012353865
253	0xbcfb228f	-0.030656127
254	0xbe0a94f1	-0.13533379
255	0xbd867cd5	-0.065667786

net.2.weight f4 [256, 256]
0	0xbd5eecb6	-0.054424964
1	0xb8fc1d07	-0.00012021703
2	0xbd715db2	-0.058927245
3	0xbcff767c	-0.031184427
4	0x3d02a970	0.03189987
5	0xbc7aed03	-0.015315297
6	0x3c09f872	0.00842105
7	0xbbf2e859	-0.007412952
8	0xba658e41	-0.0008756854
9	0x3c8ed939	0.017437564
10	0xbd30c516	-0.043156706
11	0x3cc50c78	0.024053797
12	0xbb70007c	-0.0036621382
13	0xbd57733c	-0.05260013
14	0x3d52e020	0.051483274
15	0x3d064628	0.03278175
16	0x3d4566d6	0.048193775
17	0xbd08dd18	-0.033413976
18	0x3cc44a70	0.023961276
19	0xbd24aea3	-0.04020561
20	0xbd22cb04	-0.039744392
21	0xbcd0b530	-0.025477022
22	0x3cc6aa5f	0.024251161
23	0xbcc40c71	-0.023931714
24	0xbcab70d6	-0.020927828
25	0xbc4cb73e	-0.01249486
26	0xbd4d2e9d	-0.050093282
27	0x3d0e2c45	0.034710187
28	0xbd440f45	-0.047866125
29	0x3d1774e3	0.036976706
30	0xbd060b56	-0.032725655
31	0xbc29383a	-0.010328347
32	0xbd375b89	-0.04476503
33	0xba8abb40	-0.0010584369
34	0x3d244eec	0.04011433
35	0xbd646b51	-0.055766407
36	0xbd51abbd	-0.051189173
37	0x3d4314cb	0.04762725
38	0xbd4d0251	-0.050051037
39	0x3a92f254	0.0011211135
40	0xbcc30af0	-0.023808926
41	0x3cd53dd5	0.02603046
42	0x3b744456	0.0037272177
43	0x3af93ede	0.0019015928
44	0xbd26fa71	-0.040766183
45	0x3d3cea09	0.04612163
46	0x3d4c3ea5	0.04986443
47	0x3c70c810	0.014696136
48	0xbcf262a8	-0.029588059
49	0x3ca36338	0.019944772
50	0x3d6008cc	0.05469589
51	0x3d084d26	0.0332767
52	0xbce7a829	-0.028278427
53	0x3d6dbd12	0.05804164
54	0x3d496942	0.049172647
55	0x3c821aee	0.015881982
56	0x3ba5f817	0.005064975
57	0x3c1ade6f	0.009452446
58	0x3b1b2b80	0.002367705
59	0x3caeb4d8	0.021326467
60	0x3d72aaac	0.059244797
61	0x3a403be7	0.0007333145
62	0x3c8aceae	0.016944256
63	0x3d48779d	0.048942197
64	0x3d09becc	0.033629224
65	0x3c46841b	0.012116457
66	0xbcbdd130	-0.023171037
67	0xbd39597f	-0.045251366
68	0xbd0c70a6	-0.034287117
69	0xbd03e22b	-0.032198112
70	0x3c6dce97	0.014514587
71	0xbc790918	-0.015199922
72	0xbd5e8275	-0.054323632
73	0x3d3d82a6	0.046267174
74	0xbb8aa400	-0.004230976
75	0x3d373ae4	0.044733897
76	0xbd6130ae	-0.054978065
77	0x3a02d08d	0.0004990183
78	0x3c945654	0.01810757
79	0x3d3111b0	0.04322976
80	0x3c9a4f05	0.018836508
81	0x3c79b163	0.015240046
82	0xbc91bc32	-0.017789934
83	0x3cd1c32a	0.025605757
84	0xbc3c7819	-0.011503243
85	0xbca21b8b	-0.019788524
86	0x3d343f25	0.04400553
87	0x3cde0e65	0.027106473
88	0xbc407df1	-0.011748777
89	0xbd423671	-0.0474152
90	0xbd2ce96e	-0.042214803
91	0x3d3450f4	0.044022515
92	0xbcf42a23	-0.029805249
93	0xbd5d750a	-0.054066695
94	0xbd86ef60	-0.06588626
95	0xbcc1f973	-0.023678517
96	0xbc70204e	-0.01465614
97	0xbd50232c	-0.050814793
98	0xbd2e8eda	-0.042616703
99	0xbd40778b	-0.046989005
100	0xbd8d3305	-0.06894497
101	0x3d631f8a	0.05545
102	0x3d63e091	0.055634085
103	0xbb37cd53	-0.0028045967
104	0x3d476a5b	0.048685413
105	0x3cc6af08	0.024253383
106	0xbc794cc4	-0.015216056
107	0x3d0740b2	0.033020683
108	0xbcbd9fbc	-0.023147456
109	0xbd82f4e7	-0.06394368
110	0x3cbc5916	0.022991698
111	0x3d1cf302	0.038317688
112	0xbc360ff6	-0.011112204
113	0xbd67cb88	-0.056590587
114	0x3c8331fb	0.016015043
115	0x3b6452cc	0.003483939
116	0x3d0023b1	0.031284038
117	0x3b66c500	0.0035212636
118	0x3d383e15	0.04498108
119	0x3d002f84	0.031295314
120	0xbd568d48	-0.05238083
121	0xbc34df50	-0.01103957
122	0x3d359a89	0.04433683
123	0x3d2cf8a6	0.042229317
124	0x3cfd295c	0.03090351
125	0xbc616828	-0.013757743
126	0xbca68752	-0.020328198
127	0xbce3956c	-0.02778121
128	0xbb645804	-0.00348425
129	0xbc445586	-0.011983281
130	0xbd47a1b0	-0.04873818
131	0xbbaa3460	-0.005194232
132	0x3bd6c097	0.00655372
133	0x3d2bb944	0.04192473
134	0xbd051260	-0.032488227
135	0x3cf13dea	0.029448468
136	0x3d3d8fb6	0.04627963
137	0xbc167120	-0.009182245
138	0xbd514e06	-0.0510998
139	0xbd40d5d8	-0.047078937
140	0xbcd5a06a	-0.026077468
141	0xbd7bce6d	-0.06147616
142	0xbbc3b6ff	-0.0059727426
143	0x3d240602	0.040044792
144	0xbd03c8a4	-0.032173768
145	0xbc988d91	-0.018622192
146	0x3d688794	0.056769922
147	0x3cc2f328	0.023797587
148	0x3d3fc0ba	0.046814658
149	0x3cfd7960	0.030941665
150	0xbbc9d9ea	-0.0061600106
151	0x3d2c9f2e	0.042143993
152	0xbc91f212	-0.017815623
153	0xbd40b9c7	-0.04705217
154	0xbd854a90	-0.06508362
155	0xbd48b5b4	-0.04900141
156	0xbd2a0168	-0.041505247
157	0x3d489bc8	0.04897669
158	0xbd21fb32	-0.0395462
159	0xbd876578	-0.066111505
160	0x3cdaa888	0.02669169
161	0xbca19e7c	-0.019728892
162	0xbcb259b3	-0.021771288
163	0xbd349d3c	-0.044095263
164	0x3c87ecef	0.01659247
165	0x3c8aa1ea	0.01692291
166	0xbd38d5ae	-0.045125656
167	0x3d5c4442	0.053776033
168	0xbd38df39	-0.045134757
169	0x3d1b5cf7	0.037930455
170	0xbd70a07a	-0.058746792
171	0x3d331c30	0.043728054
172	0xbd4766e5	-0.048682112
173	0x3c82fe24	0.015990324
174	0xbd20f602	-0.03929711
175	0xbd49d201	-0.04927254
176	0x3d1e105c	0.03858982
177	0x3d08284e	0.033241563
178	0x3d5d2eae	0.053999595
179	0x3d0ac87c	0.033882603
180	0xbcc3b4e4	-0.023889966
181	0xbca0dfa0	-0.019637883
182	0xbcbb3a48	-0.02285494
183	0xbd78465f	-0.060613986
184	0xbc1417f8	-0.009038918
185	0x3ced031c	0.028932147
186	0x3d579687	0.05263379
187	0xbd62e438	-0.055393428
188	0x3cae1bed	0.02125355
189	0xbd89bb9e	-0.06725238
190	0x3c5bc950	0.013414696
191	0x3b52bc20	0.0032155588
192	0x3cf7b560	0.030237854
193	0xbbeb63bf	-0.0071835215
194	0x3d31211c	0.043244466
195	0xbd0870db	-0.033310752
196	0x3c3b7236	0.011440804
197	0x3cd32165	0.02577276
198	0x3cdbd2d8	0.026833937
199	0x3cc57464	0.024103351
200	0xbca811e7	-0.020516349
201	0x3d51baf6	0.05120369
202	0xbd5dad7f	-0.054120537
203	0xbc39c891	-0.011339323
204	0x3ca5d511	0.0202432
205	0x3c956035	0.018234352
206	0xbcdbc01b	-0.026825001
207	0xbc48f1c0	-0.012264669
208	0x3d49905c	0.049209937
209	0x3ba61903	0.0050688996
210	0xba6b1647	-0.0008967858
211	0x3d1448ec	0.036202356
212	0xbd3dee48	-0.04636982
213	0xbcc3347c	-0.023828737
214	0xbc975e1c	-0.018477492
215	0xbc00dec8	-0.007865615
216	0xbcdd36ec	-0.027003728
217	0xbd22eba2	-0.0397755
218	0x3d29e0a7	0.04147401
219	0xbd3743b1	-0.04474229
220	0x3d4ab61d	0.049490083
221	0xbc8d3f23	-0.01724202
222	0x3c7d264d	0.015451026
223	0x3d29acb6	0.041424476
224	0x3cfe6888	0.031055704
225	0x3d327b8b	0.04357485
226	0xbd89d9e3	-0.06731012
227	0xbd73b156	-0.059495293
228	0xbd8c4b90	-0.0685035
229	0xbd30a71b	-0.043128114
230	0x3bdb3901	0.006690145
231	0x3b7cb1b4	0.0038558068
232	0xbcb3b49b	-0.021936705
233	0xbd269cfe	-0.040677063
234	0xbcf92aad	-0.030415857
235	0x3d789601	0.06068993
236	0xbd6cf2ab	-0.057848614
237	0x3d3a243c	0.045444712
238	0xbd605aad	-0.054773975
239	0xbd389247	-0.045061376
240	0xbd5aa95a	-0.053384162
241	0x3d631cbc	0.055447325
242	0xbd6863c3	-0.056735765
243	0xbd32ae64	-0.043623343
244	0xbd36d0ee	-0.044632845
245	0x3d04415c	0.032288894
246	0xbd258e37	-0.04041883
247	0xbd4c70ca	-0.04991225
248	0x3ce0b8e2	0.027431909
249	0x3c998634	0.01874075
250	0xbca6c69c	-0.020358376
251	0x3b1ae99a	0.0023637773
252	0xbc19df53	-0.009391624
253	0x3cb1be04	0.021697052
254	0xbd627b66	-0.055293463
255	0xbd727e74	-0.059202626

net.2.bias f4 [256]
0	0x3c3abb51	0.011397199
1	0xbd5e4d47	-0.054272916
2	0xbdc25741	-0.094892986
3	0x3d1bbc50	0.038021386
4	0x3d39bd16	0.045346342
5	0xbc2d60a0	-0.010582119
6	0x3d016be4	0.031597033
7	0xbd91c3d4	-0.071174294
8	0xbcd4fa6c	-0.025998317
9	0x3e6a7e5b	0.22899763
10	0x3d09ee9c	0.03367482
11	0xbd75914e	-0.059953026
12	0x3dc361eb	0.09540161
13	0xbd0ba543	-0.034093153
14	0x3d8cb359	0.06870145
15	0xbd83176a	-0.0640095
16	0x3d2e99f6	0.042627297
17	0x3d829a38	0.06377071
18	0x3e370011	0.17871119
19	0xbc51d01a	-0.012805963
20	0x3c6637c4	0.0140513815
21	0x3d065597	0.03279647
22	0xbb3da4ef	-0.002893742
23	0xbd1f9855	-0.038963635
24	0xbd70e562	-0.058812506
25	0xbd75c91e	-0.060006253
26	0xbca25396	-0.019815248
27	0x3c8205d6	0.015871923
28	0xbe257984	-0.16159636
29	0xbd63df58	-0.05563292
30	0x3d02e182	0.031953342
31	0x3deb1609	0.11478812
32	0xbc5b4bf8	-0.013384812
33	0x3e62b7f7	0.2214049
34	0x3ce32cd8	0.027731344
35	0x3cf18c7c	0.029485933
36	0x3dc0e13b	0.09417959
37	0xbe16c675	-0.14724143
38	0x3d4ac7b8	0.049506873
39	0xbd239a9a	-0.03994236
40	0xbd2b01ed	-0.041749883
41	0x3ccd4664	0.025057979
42	0xbd7afa72	-0.061274
43	0x3d844297	0.064580135
44	0xbcd0ba64	-0.025479503
45	0x3db14b75	0.086569704
46	0x3cbb6fea	0.022880513
47	0x3d1d3e66	0.038389586
48	0x3dcd4731	0.10023344
49	0xbd2b2213	-0.041780543
50	0x3d0d067b	0.03443001
51	0x3e35aa94	0.17740852
52	0x3cd5d7d5	0.026103893
53	0xbdb2d6ca	-0.08732374
54	0x3d8bfb4d	0.06835041
55	0xb999cdc4	-0.0002933574
56	0xbd10f4a0	-0.035389543
57	0xbc28ef9e	-0.010311035
58	0x3d5c9551	0.053853337
59	0x3cd9b20c	0.026574157
60	0x3d2a708a	0.041611232
61	0xbd461ca7	-0.04836717
62	0x3c931515	0.017954389
63	0x3d0adc3c	0.033901438
64	0x3cb423e3	0.021989768
65	0x3d9c127f	0.07620715
66	0x3cd121fc	0.0255289
67	0xbd79aa3f	-0.060953375
68	0xbda774da	-0.081765845
69	0x3cce0947	0.025150908
70	0xbc20dc5a	-0.009818161
71	0xbd30e579	-0.043187592
72	0x3d0f866e	0.03504031
73	0xbcd710f1	-0.026253195
74	0xbd583443	-0.052784216
75	0x3cbd0a8a	0.023076314
76	0xbd9bb1bc	-0.076022595
77	0xbda1c428	-0.07898742
78	0xbd62d730	-0.055381
79	0xbddb7d36	-0.107172415
80	0x3c99fd7e	0.018797632
81	0x3e2da565	0.16957624
82	0x3dce6d9a	0.100794986
83	0xbc59a6b5	-0.013284375
84	0xbd415d89	-0.047208343
85	0x3ca66d78	0.02031587
86	0xbd462272	-0.048372693
87	0x3d358f86	0.044326328
88	0x3c2a8aa1	0.010409028
89	0x3d513667	0.051077273
90	0x3d1b4396	0.03790625
91	0x3e892fc2	0.2679425
92	0x3cf17741	0.02947581
93	0xbcf1a8c1	-0.029499413
94	0xbd83d3f9	-0.06436915
95	0xbb704ea2	-0.0036667963
96	0x3b75bcef	0.0037496646
97	0x3dcb0f64	0.09915045
98	0xbdc217e6	-0.094772145
99	0x3d541e67	0.051786806
100	0x3c212af8	0.009836905
101	0x3c834540	0.016024232
102	0xbcdd44b5	-0.027010301
103	0x3c7c3633	0.0153937815
104	0x3cce9389	0.025216835
105	0x3e2edc2a	0.17076173
106	0xbdd195eb	-0.10233673
107	0xbd5d8056	-0.05407747
108	0xbc9726b7	-0.018451078
109	0xbd1bab7c	-0.038005337
110	0x3d1ce87d	0.038307656
111	0xbd5bd5ec	-0.05367081
112	0xbd97ad34	-0.07406083
113	0x3bafd0a5	0.0053654485
114	0xbbcd1d5f	-0.006259605
115	0x3cefd598	0.029276654
116	0x3bece805	0.0072298073
117	0xbce26b3b	-0.027639022
118	0x3e634416	0.22193941
119	0x3b407340	0.002936557
120	0xbd5c3aa2	-0.053766854
121	0x3ac4aac4	0.0015004505
122	0x3d7cc3b7	0.061710086
123	0xbbb6d009	-0.005578999
124	0x3d3c0d2c	0.045911
125	0x3dcc7114	0.099825054
126	0x3c8aa39c	0.016923718
127	0x3dd657c4	0.10465959
128	0x3cbd0ef0	0.023078412
129	0x3ca09ad0	0.01960507
130	0x3d006aba	0.031351782
131	0x3d018226	0.03161826
132	0x3d052cda	0.032513477
133	0xbd6e87ff	-0.058235165
134	0xbd5d138f	-0.05397373
135	0x3e477a03	0.19480138
136	0x3d6d1618	0.0578824
137	0xbd8cc5be	-0.06873654
138	0xbc570058	-0.013122641
139	0xbd8558fb	-0.06511112
140	0x3cb4650a	0.022020835
141	0xbd53fcc5	-0.05175473
142	0x3e40ec8b	0.18840234
143	0xbd784bf6	-0.060619317
144	0xbcc78ec9	-0.024360077
145	0xbd1c985d	-0.038231242
146	0xbd4d5df4	-0.05013843
147	0xbd87db99	-0.06633682
148	0xbd291a83	-0.04128505
149	0xbdfd0251	-0.123539574
150	0x3d3849eb	0.04499237
151	0xbc877187	-0.016533626
152	0xbd063cbc	-0.032772765
153	0xbd1c6084	-0.038177982
154	0x3dbc9e5d	0.09209893
155	0x3e457578	0.19283092
156	0xbd974c2a	-0.07387574
157	0x3cdf8558	0.027285263
158	0x3bc21b7e	0.0059236875
159	0xbc9ded94	-0.019278325
160	0x3d4db372	0.05021996
161	0x3e6ec0a3	0.23315673
162	0x3e64b543	0.22334771
163	0x3cf7295a	0.030171085
164	0x3dd3ba57	0.10338276
165	0xbd71a9f6	-0.058999978
166	0xbc7a5052	-0.015277939
167	0x3d1c25b7	0.038121905
168	0xbd55a72a	-0.052161373
169	0xbd5db153	-0.054124188
170	0x3cca65c7	0.024706734
171	0xbd609089	-0.05482534
172	0x3e28d16d	0.1648614
173	0x3ccd5685	0.02506567
174	0x3c725108	0.014789827
175	0x3d2b9d0c	0.04189782
176	0xbd8bf517	-0.068338566
177	0xbd309f43	-0.043120634
178	0xb84d8a5a	-4.900466e-05
179	0x3d37b167	0.04484692
180	0xbd697878	-0.056999654
181	0x3c4e69dc	0.012598481
182	0xbd9346e9	-0.071912594
183	0x3cb68bf1	0.022283526
184	0xbd6d4d00	-0.05793476
185	0x3c888a04	0.016667373
186	0x3dacbee7	0.08434849
187	0x3cdeba0f	0.027188329
188	0xbd24179a	-0.04006157
189	0x3cb58f39	0.02216302
190	0x3bf88494	0.007584164
191	0xbd2a2a14	-0.041544035
192	0xbd5063cd	-0.050876427
193	0xbd406d35	-0.046979148
194	0x3cb43fcb	0.022003075
195	0x3dd34fde	0.10317968
196	0x3e779e95	0.24181588
197	0xbd26c99a	-0.040719606
198	0xbc825590	-0.01590994
199	0xbc788498	-0.015168332
200	0x3e827f96	0.25487965
201	0x3e41c16e	0.18921444
202	0x3c03e651	0.008050517
203	0x3ce5b8c8	0.028042212
204	0xbc825ad9	-0.01591246
205	0xbcb97fb4	-0.022643901
206	0xbd3b26fb	-0.04569147
207	0xbc1048f7	-0.008806459
208	0xbd870bb8	-0.06594032
209	0x3e2e5fa5	0.17028673
210	0xbd1a5825	-0.037681717
211	0xbe02a20d	-0.1275713
212	0x3df80a8a	0.12111385
213	0xbce50827	-0.027957989
214	0xbddd8b02	-0.10817529
215	0xbd731da1	-0.05935443
216	0xbcfa7a20	-0.030575812
217	0xbd0425d5	-0.032262642
218	0xbce66b81	-0.028127434
219	0xbd76ae3f	-0.060224768
220	0x3e382a96	0.17984995
221	0xbb61de27	-0.0034464689
222	0x3e1fa600	0.15590668
223	0x3dd602a0	0.104497194
224	0xbd55f478	-0.052235097
225	0xbd437a51	-0.047724072
226	0x3db257ef	0.08708178
227	0x3c2d9e7a	0.010596866
228	0xbc546bc6	-0.012965148
229	0xbcc7de69	-0.024398046
230	0x3d07c67c	0.033148274
231	0xbb540e6c	-0.003235723
232	0xbdafeb18	-0.085897624
233	0x3d29a250	0.04141456
234	0xbcc1b741	-0.023646953
235	0x3e42aba9	0.19010796
236	0x3cdc0c94	0.026861466
237	0x3de93bd2	0.11388363
238	0x3d74501e	0.05964672
239	0x3b0ea43b	0.002176537
240	0x3dcc8f7a	0.099883035
241	0x3ce395c6	0.027781378
242	0x3db196d0	0.08671343
243	0x3d38ff2b	0.045165222
244	0xbd878f0b	-0.0661908
245	0xbc981677	-0.0185654
246	0x3df2cadf	0.11855101
247	0x3e6ce93c	0.23135847
248	0x3cbf768d	0.02337196
249	0xbd32401d	-0.043518174
250	0x3c39a395	0.011330505
251	0xbceb2325	-0.028703282
252	0xbd047135	-0.032334525
253	0x3ce2a08e	0.027664449
254	0xbd6b57d1	-0.057456795
255	0x3dad3ae0	0.08458495

actor.weight f4 [1, 256]
0	0x3c33ccf6	0.010974159
1	0x3dc75ebe	0.097348675
2	0x3d702491	0.058628622
3	0xbd32d528	-0.043660313
4	0x3f2603f2	0.6484977
5	0x3c539317	0.012913487
6	0x3d3ebfa7	0.046569493
7	0xbc6f94fd	-0.014622924
8	0x3b8a57db	0.004221899
9	0x3dd46d43	0.103724025
10	0xbcbb62d4	-0.022874273
11	0xbc5c4bbf	-0.013445794
12	0x3f32b2ac	0.6980388
13	0xbb8a57b9	-0.004221883
14	0x3e951b45	0.29122368
15	0x3cc67c1c	0.024229102
16	0x3f0c71cf	0.5486116
17	0x3d0bae8f	0.03410202
18	0xbddff59a	-0.10935517
19	0x3d4d372b	0.05010144
20	0x3d1f9bd3	0.038966965
21	0xbead084a	-0.33795387
22	0x3e98439d	0.29739085
23	0xbd0f8de2	-0.03504742
24	0xbf0c27fa	-0.547485
25	0xbb6f57ba	-0.0036520795
26	0x3d567b8e	0.052363925
27	0xbca118eb	-0.019665202
28	0xbeaf77dc	-0.34271133
29	0xbebb414e	-0.3657326
30	0x3ca03185	0.019554863
31	0x3eb853d1	0.36001447
32	0x3d3706b0	0.044684112
33	0xbcd70795	-0.026248733
34	0xbebc55a4	-0.3678409
35	0xbe9c1515	-0.30484834
36	0x3f175d0b	0.5912635
37	0x3e697173	0.22797184
38	0xbe4dc659	-0.20095195
39	0x3c035298	0.008015297
40	0x3d64a0dc	0.05581747
41	0xbec7885f	-0.3897123
42	0x3d5a81c2	0.053346403
43	0x3b8ae987	0.0042392644
44	0xbd3a8406	-0.045536064
45	0x3f50b4a6	0.8152565
46	0xbbf8957c	-0.0075861793
47	0xbe885c19	-0.26632765
48	0x3e561f0e	0.20910284
49	0x3dd7c41c	0.10535452
50	0xbcf705a9	-0.030154066
51	0x3e42af33	0.19012146
52	0x3ef79392	0.48354775
53	0xbea4fa10	-0.32222033
54	0x3ef76ac8	0.48323655
55	0xbd279da8	-0.040921837
56	0xbef797dd	-0.4835805
57	0xbc9e7359	-0.019342111
58	0xbc043108	-0.008068331
59	0xbcf5b284	-0.02999235
60	0x3e0076be	0.12545297
61	0x3cc54291	0.024079593
62	0x3ea75cf7	0.32688114
63	0xbe67ab5a	-0.22623959
64	0xbfbc8fe5	-1.4731413
65	0xbcff71b7	-0.031182153
66	0xbe9555c3	-0.29166993
67	0xbd537d4c	-0.051633164
68	0x3c0774a5	0.008267556
69	0xbee53e70	-0.447742
70	0x3e1bdae8	0.15220225
71	0x3e1fb1f1	0.15595223
72	0x3d51c6e3	0.051215064
73	0xbbe34a4d	-0.0069363476
74	0x3ccef4dd	0.025263244
75	0x3cbf4205	0.02334691
76	0x3be82c76	0.0070853783
77	0x3c5da430	0.013527915
78	0xbd9b9286	-0.075963065
79	0xbe816509	-0.25272396
80	0x3f28f02a	0.6599146
81	0xbdffede7	-0.12496548
82	0xbeba8209	-0.36427334
83	0xbedd1f41	-0.43187907
84	0x3b888e3c	0.0041673463
85	0xbbe52ac2	-0.0069936225
86	0xbd37b724	-0.04485239
87	0x3d28689c	0.04111539
88	0xbe82a443	-0.25515947
89	0x3c93c560	0.018038452
90	0x3ce95dcc	0.028487109
91	0x3c301d19	0.010749125
92	0x3d3b4ec4	0.045729414
93	0xbcd34c92	-0.025793348
94	0xbd5640d7	-0.05230793
95	0x3f340191	0.7031489
96	0x3cacb5b3	0.021082735
97	0x3e75f314	0.24018508
98	0xbe5d5f3e	-0.21618363
99	0xbd2d0e5b	-0.04225002
100	0x3e06babc	0.13157171
101	0x3be54505	0.006996753
102	0xbc0a87c2	-0.008455219
103	0x3bbc3528	0.0057436414
104	0x3b92bd7d	0.004478155
105	0xbe30c601	-0.17263032
106	0x3d0d9270	0.03456348
107	0x3e1aefe3	0.15130572
108	0x3d75ec50	0.06003982
109	0x3be55560	0.006998703
110	0x3ce9eded	0.028555835
111	0x3c21007a	0.009826774
112	0x3b9b5bda	0.004741174
113	0x3b9c7a97	0.004775356
114	0xbaec021d	-0.0018006001
115	0x3f14dbdf	0.58147997
116	0x3ada0306	0.0016632981
117	0xbb74c1c6	-0.0037346943
118	0x3d984e92	0.07436861
119	0xba5815ea	-0.00082430115
120	0x3d37d132	0.04487724
121	0x3d1d4465	0.038395304
122	0x3d303762	0.043021567
123	0xbe270c39	-0.16313256
124	0x3c4bed03	0.012446645
125	0xbb9ac2ec	-0.0047229435
126	0x3d59143b	0.05299781
127	0xbdcd8098	-0.10034293
128	0x3d03f5e3	0.032216918
129	0xbc17dae0	-0.009268492
130	0xbc039ee8	-0.008033492
131	0xbd09b753	-0.033622097
132	0x3d409758	0.047019333
133	0xbeb8357c	-0.35978305
134	0xbc061364	-0.008183334
135	0x3e0a8eba	0.13531008
136	0xbe086c86	-0.13322648
137	0xbd067840	-0.032829523
138	0xbd294190	-0.04132229
139	0x3d3d35f2	0.046194024
140	0xba37fb30	-0.0007018326
141	0xbedea376	-0.43484086
142	0x3e48b1c8	0.19599068
143	0xbca9bf00	-0.020720959
144	0x3bee439c	0.0072712433
145	0xbc86916a	-0.01642676
146	0x39887900	0.00026030093
147	0x3d7516bd	0.059836138
148	0xbd039d74	-0.03213258
149	0xbe726a6b	-0.23673408
150	0x3cbcbcbc	0.023039214
151	0x3d8d8e13	0.06911864
152	0xbb9c6ca8	-0.004773695
153	0xbd290371	-0.041263048
154	0x3f17e5a3	0.5933477
155	0xbc566dc1	-0.013087691
156	0x3c506fa4	0.01272193
157	0x3da38b4d	0.07985554
158	0x3f354572	0.7080909
159	0x3d2259a0	0.039636254
160	0x3cfd8d4d	0.030951167
161	0x3d4cdf04	0.05001737
162	0xbd95941a	-0.07303639
163	0x3ea217df	0.31658837
164	0x3e809ead	0.2512106
165	0x3cd936c4	0.026515372
166	0xbea75178	-0.32679343
167	0x3f10dd73	0.56587905
168	0x3d25ca31	0.040476028
169	0x3ee8e954	0.45490515
170	0x3cb36951	0.021900805
171	0x3eb8d370	0.36098814
172	0x3d4fdb5f	0.050746318
173	0x3f13e2a4	0.577677
174	0x3d4f75ce	0.050649457
175	0x3a047a94	0.0005053666
176	0xbd3fa49f	-0.046787854
177	0xbeb4c811	-0.3530889
178	0xbee0a870	-0.43878508
179	0x3e08f3c9	0.13374247
180	0x3d44128e	0.047869258
181	0x3d31efa2	0.043441422
182	0xbe66ac55	-0.22526677
183	0x3da2251e	0.07917236
184	0x3d73290e	0.059365325
185	0x3c4cc08b	0.012497078
186	0x3e14e627	0.14540921
187	0x3f030506	0.5117954
188	0x3c14a538	0.009072594
189	0x3f168288	0.58792925
190	0xbd21c099	-0.039490316
191	0xbea47789	-0.32122448
192	0xbd0cb189	-0.034349
193	0xbecabb31	-0.3959594
194	0xbca677ad	-0.020320738
195	0xbcde5eec	-0.027144872
196	0x3e1ca66a	0.15297857
197	0xbcda7370	-0.026666373
198	0x3ca2c346	0.019868504
199	0x3c109d88	0.008826621
200	0x3dd67c0c	0.10472879
201	0xbe15dad6	-0.1463426
202	0xbd846222	-0.0646403
203	0x3c188362	0.009308668
204	0xbe465552	-0.19368485
205	0xbb482e41	-0.0030545148
206	0xbdbfbec1	-0.09362555
207	0xbe7065ca	-0.2347633
208	0xbd386b2b	-0.04502408
209	0x3c8e9ba9	0.017408209
210	0xbf0db604	-0.5535586
211	0x3dd31a2f	0.103077285
212	0x3d9a9e45	0.07549719
213	0x3e88f8a8	0.2675221
214	0xbe94a93f	-0.29035375
215	0x3c29baec	0.010359507
216	0x3bb9e298	0.005672764
217	0x3d2c4ebb	0.04206727
218	0x3c613c5c	0.013747301
219	0xbc60b8f4	-0.013715971
220	0x3c470850	0.012147978
221	0x3e27d8ef	0.16391347
222	0x3e1f14d7	0.15535294
223	0xbcaaee85	-0.020865688
224	0xbd324d58	-0.043530792
225	0xbc45ae30	-0.012065455
226	0x3e3228f0	0.17398429
227	0xbd1f557a	-0.038899876
228	0x3c96bcf1	0.018400641
229	0xbec3423a	-0.38136464
230	0xbcf1c5e6	-0.02951331
231	0xbd3fe5f6	-0.046850167
232	0xbd923ee0	-0.07140899
233	0x3f12e5b0	0.57381725
234	0x3d46572d	0.04842298
235	0x3e58a6b2	0.21157339
236	0xbd6b3d5a	-0.057431556
237	0x3f082012	0.53173935
238	0x3c700c7e	0.014651416
239	0x3f16f744	0.5897105
240	0x3ef3200e	0.47485393
241	0xbedabe78	-0.4272344
242	0x3e5459c7	0.20737372
243	0x3d10d67c	0.0353608
244	0x3d5ae94d	0.05344515
245	0xbd4769bd	-0.048684824
246	0xbd1fdf71	-0.03903145
247	0xbdf797f4	-0.1208953
248	0xbd39530d	-0.04524522
249	0xbe8edc57	-0.2790248
250	0xbd583c1a	-0.052791692
251	0xbe432281	-0.19056131
252	0xbbdd47ce	-0.0067529446
253	0xbca86157	-0.020554228
254	0x3e759306	0.23981866
255	0x3dc48bcd	0.095969774

critic.weight f4 [1, 256]
0	0xbd0169a8	-0.031594902
1	0x3ca70778	0.020389304
2	0xbea1ebc7	-0.31625196
3	0x3d31644f	0.043308552
4	0x3c3c6997	0.011499784
5	0x3b41481f	0.002949245
6	0xbca82d77	-0.020529492
7	0x3d090cb1	0.03345937
8	0xbc3eb06b	-0.011638741
9	0x3d9520ad	0.07281623
10	0xbc81af42	-0.01583064
11	0xbcc5daee	-0.024152245
12	0x3c5717ff	0.01312828
13	0xbc88920f	-0.016671209
14	0x3db89ec8	0.0901466
15	0xbb9ad529	-0.0047251177
16	0x3be3f01b	0.006956113
17	0x3cb2de83	0.021834617
18	0x3da28f81	0.079375274
19	0xbb0f22ef	-0.002184089
20	0x3dae0884	0.08497718
21	0xbb58174b	-0.0032972868
22	0xbd6e01da	-0.058107235
23	0xbd0eaa52	-0.0348304
24	0x3ad57f9a	0.0016288639
25	0xbc2ec468	-0.010666944
26	0x3d2810e2	0.041031726
27	0xbce27817	-0.027645154
28	0xbdad3e2d	-0.08459125
29	0x3d6d46de	0.057928912
30	0xbc7e6394	-0.015526671
31	0x3b8d7059	0.0043163714
32	0x3c2fc290	0.01072754
33	0x3de57349	0.112036295
34	0xbb0bab30	-0.0021311752
35	0xbb808de6	-0.0039231656
36	0x3bee0c7b	0.0072646714
37	0xbe6483df	-0.2231593
38	0x3bc8acb6	0.0061241044
39	0x3d7ce36a	0.061740316
40	0xbd95837b	-0.073004685
41	0xbb2f7154	-0.002677043
42	0x3bd96980	0.006634891
43	0x3c1d7fee	0.00961302
44	0x3c80a76e	0.015704837
45	0xba01f0c7	-0.0004956838
46	0x3d68782a	0.056755222
47	0xbc4110b0	-0.011783764
48	0xbd3885da	-0.045049526
49	0xbdd42589	-0.10358722
50	0x3c57956c	0.013158184
51	0x3cf84ba4	0.030309506
52	0x3c2a2a94	0.010386128
53	0xbdd69969	-0.104784794
54	0x3c2f9ac6	0.010718053
55	0xbc4fba0f	-0.012678637
56	0x3b942ed9	0.0045221862
57	0x3c1ad4b6	0.009450128
58	0xbbb1e731	-0.0054291715
59	0xbcabab2e	-0.020955648
60	0xbc831311	-0.016000303
61	0x3d3cf9b2	0.046136566
62	0x3beab477	0.0071626264
63	0xbbed59b6	-0.0072433604
64	0x3dfcf844	0.123520404
65	0x3e417caf	0.1889522
66	0xbc20f898	-0.009824894
67	0x3bf887df	0.0075845565
68	0xbcbb09a2	-0.022831742
69	0x3bcec820	0.006310478
70	0x3e016339	0.12635507
71	0xbc809dcd	-0.015700245
72	0x3c0ef365	0.008725022
73	0xbcc54bb3	-0.024083948
74	0x3d5d6ac4	0.054056898
75	0x3c0dac9c	0.00864711
76	0xbcdf9c81	-0.027296307
77	0xbde3c0c1	-0.11120749
78	0xbccc21f4	-0.024918534
79	0x3daaf911	0.08348287
80	0x3c287f43	0.010284248
81	0x3ce14330	0.027497858
82	0x3dac6541	0.0841775
83	0xbc32c2fe	-0.010910748
84	0x3d5c86df	0.05383956
85	0xbd546991	-0.05185849
86	0xbbde703a	-0.006788281
87	0x3d4ebdd6	0.05047401
88	0xbc6a6210	-0.0143056065
89	0xbd92a858	-0.07161015
90	0x38686290	5.5404904e-05
91	0x3dd8ac04	0.105796844
92	0x3d2dc627	0.0424253
93	0xbd8559bd	-0.06511257
94	0xbaa2b5a5	-0.0012413753
95	0xbb0f1641	-0.0021833333
96	0xbbbc2490	-0.0057416633
97	0x3ce31247	0.027718676
98	0x3cf25022	0.029579226
99	0x3d468804	0.04846956
100	0xbdbbf9ae	-0.09178482
101	0xbcadf7ee	-0.021236386
102	0xbceb2a0c	-0.028706573
103	0xbd1ba18f	-0.03799587
104	0x3d8b99b4	0.06816426
105	0x3d151d2a	0.036404766
106	0xbe8f2786	-0.2795984
107	0xbd3c669e	-0.0459963
108	0x3d392f43	0.045211088
109	0xbd610464	-0.054935828
110	0x3d303fa9	0.04302946
111	0xb8bd7a1e	-9.0349684e-05
112	0xbca2dc39	-0.019880401
113	0xbd1e63f6	-0.03866955
114	0xbcafae30	-0.021445364
115	0x3bc4b652	0.0060031796
116	0x3ca65b92	0.020307336
117	0xbd185a07	-0.03719523
118	0x3dad2924	0.084551126
119	0xbd024fe8	-0.031814486
120	0xbcebabc2	-0.028768424
121	0x3d3254c3	0.043537866
122	0x3c672b13	0.014109391
123	0xbce26e41	-0.027640464
124	0x3c8934b6	0.016748767
125	0xbcd40731	-0.025882335
126	0xbc6f6a8b	-0.014612804
127	0x3c9f0d15	0.019415418
128	0x3c0254e3	0.007954809
129	0x3d2b0c36	0.041759692
130	0x3c8f9419	0.017526673
131	0x3b34db13	0.0027596399
132	0x3d5914ee	0.052998476
133	0xbc82a326	-0.015946936
134	0x3d0358e3	0.03206719
135	0x3da4c475	0.08045284
136	0xbc136947	-0.008997268
137	0xbe1892f8	-0.14899814
138	0xbc8ea0e4	-0.017410703
139	0xbcc43bc8	-0.023954287
140	0x3be5dbef	0.0070147435
141	0xba94aa92	-0.0011342338
142	0x3d6c8197	0.057740774
143	0x3d429273	0.047502946
144	0xbcc33a5a	-0.023831535
145	0x3bc56b73	0.006024772
146	0xbd1a4e56	-0.037672363
147	0x3d354d34	0.04426308
148	0xba8dfeb1	-0.001083335
149	0x3cfc10ce	0.030769732
150	0x3aa2daaa	0.0012424786
151	0xbd897d25	-0.067133226
152	0x3b90dca3	0.004420833
153	0x3bc1dc64	0.005916165
154	0xbaf3988d	-0.0018584892
155	0x3dc5f01b	0.09664937
156	0x3d1d184c	0.03835325
157	0x3c2c1967	0.010504103
158	0x3b48332c	0.003054808
159	0x3d4afc31	0.049556915
160	0xbcc1b774	-0.023647048
161	0x3d34d965	0.044152636
162	0x3dfcda54	0.1234633
163	0x3c20a715	0.00980546
164	0x3d1d9774	0.038474515
165	0x3d441f38	0.047881335
166	0x3ae48e7b	0.0017437482
167	0x3c05f6c3	0.008176508
168	0xbe6261bc	-0.22107595
169	0x3e1f49ae	0.1555545
170	0xbd0946a5	-0.033514638
171	0x3d8984a0	0.06714749
172	0x3d63a0a1	0.05557311
173	0x3d05914b	0.032609265
174	0x3c492480	0.012276769
175	0x3c54242d	0.012948078
176	0xbc013dad	-0.00788824
177	0x3d0bad4e	0.034100823
178	0x3c1dc3be	0.009629188
179	0xbdf52aaa	-0.11971028
180	0x3cc54d08	0.024084583
181	0xbbc99815	-0.006152163
182	0xbd20d6a6	-0.039267205
183	0xbc25a10f	-0.0101092
184	0xbdb7587d	-0.08952425
185	0x3d408449	0.047001157
186	0xbc7288aa	-0.014803091
187	0x3b27b834	0.0025591971
188	0x3cf22f48	0.029563561
189	0x3c0a729f	0.008450179
190	0xbc86309c	-0.0163806
191	0x39eaf3b0	0.0004481352
192	0xbc888f3a	-0.016669858
193	0x3ab6310e	0.0013900117
194	0xbd6528b5	-0.055947024
195	0x3d0d4329	0.034487877
196	0x3d9ec2e8	0.07752019
197	0x3d703196	0.05864104
198	0xbce30636	-0.027712923
199	0xbd213314	-0.039355353
200	0x3db588dc	0.088639945
201	0x3dacb5e0	0.084331274
202	0x3b6d2e22	0.0036190827
203	0xbc6faa0a	-0.014627943
204	0x3ec9ab70	0.3938861
205	0xbb8df875	-0.004332597
206	0xbe742bd7	-0.23844849
207	0xbe099ee2	-0.13439515
208	0xbd3c241f	-0.045932885
209	0x3dc07459	0.093971916
210	0x3bb1c57c	0.0054251533
211	0xbe848922	-0.25885874
212	0xbd51b7f6	-0.05120083
213	0xbe8f0729	-0.2793515
214	0xbe00afb5	-0.12567027
215	0xbafff89e	-0.001952905
216	0x3c99b85e	0.018764671
217	0x3d2229ff	0.03959083
218	0xbd367a2c	-0.044550106
219	0xbd5c60fe	-0.053803436
220	0x3cad3e9f	0.021148024
221	0x3ce0dc06	0.027448665
222	0x3d83e002	0.064392105
223	0x3ca55c97	0.020185752
224	0xbbf6f4e4	-0.0075365175
225	0x3d49a1ac	0.049226448
226	0x3c9a0c02	0.018804554
227	0xbbcd1267	-0.0062582972
228	0xbc14e8d7	-0.0090887165
229	0xbc0c12e0	-0.008549422
230	0xbb676783	-0.00353095
231	0x399e876d	0.00030237008
232	0xbca4a325	-0.020097325
233	0x3bf52f59	0.007482451
234	0x3c7a3b07	0.015272862
235	0x3cdb5e0d	0.026778245
236	0xbca5b23a	-0.020226587
237	0x3d1e9e0c	0.038724944
238	0xbdb291bb	-0.08719202
239	0x3c47aec0	0.01218766
240	0x3bcdd8e0	0.006281957
241	0xbbd23c83	-0.006415905
242	0x3cb20f12	0.021735702
243	0xbc363930	-0.011122033
244	0xbd4f4212	-0.05060012
245	0xbc64179d	-0.0139216455
246	0xbcf95582	-0.030436281
247	0x3db86fed	0.09005723
248	0xbcef4245	-0.029206404
249	0xbd33680c	-0.0438004
250	0xbd0cae7c	-0.03434609
251	0x3b4964bb	0.0030730206
252	0xbc245860	-0.010030836
253	0x3d12605a	0.03573642
254	0xbc86eb11	-0.01646951
255	0x3d526136	0.05136224
