models1/ppo_1900.pth (torch, 275660 bytes, 6 tensors)

net.0.weight f4 [256, 6]
0	0xbed1dbe9	-0.4098809
1	0xbed15be3	-0.40890417
2	0x3e04eee3	0.12981753
3	0x3eb2185e	0.34784216
4	0xbc472e79	-0.012157076
5	0xbecc40f4	-0.39893305
6	0xbd71c080	-0.059021473
7	0xbc04ee3d	-0.008113441
8	0x3eecef4f	0.46276328
9	0xbecbcbb4	-0.3980385
10	0xbdb6ad8b	-0.089198194
11	0x3ee2a372	0.44265324
12	0xbcbb42ec	-0.02285906
13	0x3f0ba01e	0.54541194
14	0x3e0951bf	0.1341009
15	0xbe952969	-0.29133156
16	0xbe69326f	-0.22773145
17	0xbd61a4a6	-0.05508866
18	0xbea2bb6e	-0.31783623
19	0x3e7a5a5a	0.24448529
20	0x3e1c0cfa	0.15239325
21	0xbd5f7ea3	-0.05456413
22	0x3c8c1ffe	0.017105099
23	0x3ea38d13	0.3194357
24	0x3e8450e9	0.2584298
25	0xbe048468	-0.12941134
26	0xbef05c67	-0.46945497
27	0x3ea0127c	0.31264102
28	0x3e419ef7	0.18908297
29	0xbe3b924e	-0.1831753
30	0x3de12d71	0.109949954
31	0xbd9ac70a	-0.07557495
32	0x3ec1e06d	0.37866536
33	0x3c7c54c1	0.015401066
34	0xbe9cd933	-0.3063446
35	0x3e6f482c	0.23367375
36	0xbda6f465	-0.08152083
37	0x3d8f2ad9	0.069905944
38	0x3ef32128	0.47486234
39	0x3e5e783c	0.21725553
40	0x3dbb3259	0.091404624
41	0xbe9e7fe6	-0.30956954
42	0xbebb3125	-0.36560932
43	0xbec43afc	-0.38326252
44	0xbc6895c6	-0.014195865
45	0x3e186583	0.14882474
46	0xbd245278	-0.04011771
47	0x3e75acb9	0.2399167
48	0xbe8f7c80	-0.28024673
49	0xbea7f025	-0.32800403
50	0x3e8bb530	0.27286673
51	0xbdeddef9	-0.11614794
52	0x3e8df792	0.27727944
53	0xbea08124	-0.31348526
54	0x3e16dc5b	0.14732496
55	0x3e3c75d0	0.18404317
56	0x3ee9d2b1	0.45668557
57	0xbf101310	-0.5627909
58	0xbe288d46	-0.16460142
59	0x3e1e4640	0.15456486
60	0x3de33e5d	0.11095879
61	0xbe3ab1c6	-0.18231878
62	0xb991c98c	-0.0002780672
63	0xbca347e7	-0.019931747
64	0xbe4dc06e	-0.20092937
65	0xbddc1500	-0.10746193
66	0x3d236c2a	0.039898075
67	0xbe817e5e	-0.25291723
68	0xbe5a2fdb	-0.21307318
69	0x3e8bbd50	0.2729287
70	0xbdd77562	-0.10520436
71	0xbdff15de	-0.12455343
72	0xbe276f76	-0.16351113
73	0x3da50de8	0.08059293
74	0xbdfadde7	-0.12249356
75	0x3e35afee	0.17742893
76	0xbe909b11	-0.28243306
77	0xbe96dff5	-0.2946774
78	0xbcfa3139	-0.03054105
79	0x3d89fa0a	0.06737144
80	0x3e57d6eb	0.21078078
81	0x3e93f6ed	0.28899327
82	0xbe0088df	-0.12552212
83	0xbedf3b73	-0.43600044
84	0x3e974d78	0.2955129
85	0x3e01ce10	0.12676263
86	0xbe8d9c96	-0.27658528
87	0xbc074d06	-0.00825811
88	0xbea93b85	-0.33053222
89	0x3eaccb12	0.3374868
90	0x3cdfe0a6	0.0273288
91	0xbec43251	-0.38319638
92	0xbd88198b	-0.06645497
93	0xbeb83dd9	-0.35984686
94	0xbe46abd1	-0.1940148
95	0xbe022a19	-0.12711371
96	0x3e04ddba	0.12975207
97	0x3e5ffdba	0.21874133
98	0x3ec3c044	0.38232625
99	0xbe1766b3	-0.1478527
100	0xbc6257ca	-0.013814876
101	0xbeb280db	-0.34863934
102	0xbef901c8	-0.4863417
103	0xbe167e53	-0.14696626
104	0xbcfcc346	-0.030854832
105	0xbebdaaea	-0.3704446
106	0x3d59e914	0.053200796
107	0x3d6b78ab	0.057488125
108	0xbf00916a	-0.50221884
109	0x3e48bb07	0.19602595
110	0xbeef2e31	-0.4671493
111	0xbe9dd85a	-0.30829126
112	0xbd6f75c7	-0.05846193
113	0x3dee5f14	0.116392285
114	0x3e177009	0.14788832
115	0x3e501931	0.2032211
116	0xbe4a77cc	-0.19772261
117	0x3ecb9594	0.39762557
118	0xbdc342e9	-0.095342465
119	0xbe7b9e6f	-0.24572156
120	0xbe102100	-0.14075089
121	0x3d8a6179	0.06756873
122	0xbe11511e	-0.141911
123	0x3e668d9c	0.22514957
124	0x3e6ae439	0.22938623
125	0x3e93ead7	0.28890106
126	0x3eb3d2ba	0.3512171
127	0x3e62594c	0.22104377
128	0x3b8303bd	0.0039982484
129	0x3dedbecc	0.11608657
130	0x3da53610	0.08066952
131	0xbec48b21	-0.38387397
132	0xbe9e125e	-0.30873388
133	0x3de5d269	0.11221773
134	0x3eb4bdbe	0.35301012
135	0xbf00d29e	-0.50321376
136	0xbd98ffee	-0.0747069
137	0x3ec5cf6e	0.3863482
138	0x3df3f821	0.11912561
139	0xbe2dae42	-0.16961005
140	0xbde17705	-0.11009029
141	0xbc5f830f	-0.013642087
142	0x3e776a04	0.24161536
143	0xbcb2dc5f	-0.021833597
144	0xbe0d909e	-0.13824698
145	0x3e67687a	0.22598448
146	0x3c8368e5	0.016041229
147	0x3d4a0375	0.049319703
148	0x3e56fa8a	0.2099401
149	0xbeddeb95	-0.43343797
150	0xbe57c302	-0.21070483
151	0x3ea4b2e8	0.32167745
152	0xbeda0f3c	-0.42589748
153	0x3f20f587	0.62874645
154	0x3da217b6	0.07914679
155	0xbe6dcc88	-0.23222554
156	0x3e1a1467	0.15046845
157	0x3cd4c8a7	0.025974585
158	0xbe5c393b	-0.21506207
159	0x3e4abc56	0.19798407
160	0x3ddce503	0.10785868
161	0xbe53429b	-0.20630877
162	0x3daa1cde	0.08306287
163	0xbdaa4789	-0.083144255
164	0x3f191315	0.5979474
165	0xbf111a0a	-0.5668036
166	0x3d01670a	0.031592406
167	0xbeaa8667	-0.33305666
168	0x3ea1329b	0.3148392
169	0xbec7769a	-0.38957673
170	0x3dcbf236	0.099583074
171	0x3e871018	0.26379466
172	0xbd0f4d62	-0.034985907
173	0xbe2ebe3b	-0.17064755
174	0xbe4ebded	-0.20189638
175	0x3e093ece	0.13402864
176	0x3e6f1d94	0.23351127
177	0xbe9fdaa8	-0.3122151
178	0xbea0981b	-0.31366047
179	0x3d706834	0.058693126
180	0xbdffbb57	-0.12486904
181	0xbe8595b0	-0.26090765
182	0xbebf5631	-0.37370446
183	0x3ecb5a09	0.3971713
184	0x3ec178fd	0.3778762
185	0x3e879e23	0.26487836
186	0xbd9a1313	-0.07523169
187	0xbe9e2643	-0.30888566
188	0xbf17a94f	-0.5924272
189	0x3e831f96	0.25610036
190	0x3db50dcc	0.08840522
191	0xbe16b2c1	-0.14716627
192	0xbe654214	-0.22388488
193	0xbdc5dc98	-0.096612155
194	0xbe80db52	-0.25167328
195	0x3ead1c41	0.3381062
196	0xbd90a4ac	-0.07062659
197	0x3cb21bd9	0.021741794
198	0xbd95643e	-0.0729451
199	0x3e8360ab	0.2565969
200	0xbdb4202f	-0.08795201
201	0xbcb1cac9	-0.02170314
202	0x3e2103dd	0.1572413
203	0x3dd6a8ac	0.1048139
204	0xbed72f5b	-0.42028317
205	0x3e205881	0.15658762
206	0xbe8a75c6	-0.2704298
207	0x3eb15c89	0.3464091
208	0xbea97307	-0.3309557
209	0x3da416b2	0.08012141
210	0xbebd1d19	-0.36936262
211	0x3dafd882	0.085862175
212	0x3e275bc5	0.16343601
213	0x3d74736b	0.059680384
214	0x3db6dff2	0.08929433
215	0xbe8f7b14	-0.2802359
216	0x3e4db94e	0.2009022
217	0x3e7c5009	0.24639906
218	0x3e8e0a5d	0.27742282
219	0xbef0608a	-0.46948653
220	0xbe6e9e54	-0.23302585
221	0xbe8668da	-0.2625187
222	0xbe763bea	-0.24046293
223	0xbe3d073f	-0.18459795
224	0x3edf5174	0.4361683
225	0xbe74e5cf	-0.2391579
226	0xbe3851b6	-0.1799992
227	0xbe478e06	-0.19487771
228	0xbd974e4b	-0.0738798
229	0x3e1cd5f9	0.15315999
230	0xbebfd66d	-0.3746828
231	0x3ea3ec7c	0.3201636
232	0xbe2d465c	-0.16921371
233	0xbd5cdbf6	-0.05392071
234	0xbd3a91c7	-0.04554918
235	0x3d5973d5	0.05308898
236	0xbcac3a74	-0.021023966
237	0x3dec3b2a	0.11534722
238	0xbe89748a	-0.26846725
239	0x3f032af5	0.5123742
240	0x3e6c41c8	0.23071969
241	0xbec501f8	-0.38478065
242	0xbd5846fe	-0.05280208
243	0xbe7200ff	-0.23633192
244	0x3e1447fc	0.14480585
245	0xbec97271	-0.39345124
246	0xbf07be8a	-0.53025115
247	0xbf111f39	-0.56688267
248	0xbb6c086f	-0.003601577
249	0x3e1d4de0	0.15361738
250	0x3e0e6426	0.13905391
251	0xbda61708	-0.081098616
252	0x3e9982d5	0.2998263
253	0xbe99040e	-0.29885906
254	0x3e6a1ad2	0.22861794
255	0xbf11c307	-0.56938213

net.0.bias f4 [256]
0	0xbea11519	-0.3146141
1	0x3cb61981	0.022228958
2	0xbe890058	-0.26758075
3	0xbed83bfa	-0.42233258
4	0x3edabc08	0.4272158
5	0xbeda7a9c	-0.4267167
6	0xbecc7d46	-0.39939326
7	0xbec35c43	-0.38156328
8	0x3cfa2a6a	0.030537803
9	0xbbf972c6	-0.007612559
10	0x3e24eb9c	0.16105503
11	0xbe65dab1	-0.22446705
12	0xbe19451b	-0.14967768
13	0xbe340d25	-0.17583139
14	0xbedb9ec0	-0.42894554
15	0x3d97abe2	0.07405831
16	0x3eb79ad0	0.358603
17	0x3d770c17	0.060314264
18	0xbe1d9663	-0.15389399
19	0x3eaca24d	0.33717576
20	0xbeb9d1bf	-0.36292836
21	0xbe87dde3	-0.26536474
22	0x3d729ce8	0.05923167
23	0x3e942fef	0.2894282
24	0x3ec32585	0.38114563
25	0x3e289040	0.16461277
26	0x3e5cfcbf	0.2158079
27	0x3e6bfb2d	0.23045035
28	0x3d53e3f0	0.05173105
29	0x3b6a0336	0.003570748
30	0x3e9f3dcd	0.31101838
31	0x3e210a97	0.15726696
32	0x3dc63d65	0.09679679
33	0xbea73989	-0.32661083
34	0xbe679b0b	-0.22617738
35	0xbe093f3c	-0.13403028
36	0xbeccb864	-0.3998443
37	0x3ed673bd	0.41885176
38	0x3e35f690	0.17769837
39	0xbe9628ff	-0.29328153
40	0xbe5aa605	-0.21352394
41	0xbe06df57	-0.13171135
42	0x3e3b15d8	0.18270051
43	0xbe9a48a1	-0.30133536
44	0xbe44a875	-0.19204886
45	0x3e7312f9	0.23737706
46	0x3e2a54cd	0.16633911
47	0xbf06b84c	-0.52624965
48	0x3dc7ba2b	0.097523056
49	0x3e79494d	0.24344368
50	0xbeaef262	-0.34169298
51	0x3e2e1ae9	0.17002453
52	0xbde5f55e	-0.11228441
53	0xbe336c48	-0.17521775
54	0xbe8e8b69	-0.27840737
55	0x3e51abb1	0.20475651
56	0xbe9dfd79	-0.30857447
57	0x3dcc2d84	0.09969619
58	0x3d440d44	0.047864214
59	0xbd9926f8	-0.07478136
60	0xbda73405	-0.08164219
61	0x3e44792c	0.19186848
62	0xbdce7acf	-0.10082018
63	0x3daf88eb	0.08571037
64	0x3e81a1bf	0.25318715
65	0x3dfa4a28	0.122211754
66	0xbdcde46e	-0.10053335
67	0x3e6ec40d	0.23316975
68	0x3e5cd040	0.21563816
69	0x3e93e8b0	0.28888464
70	0x3e394c9f	0.18095635
71	0x3e39fb11	0.1816218
72	0x3e870a45	0.26375023
73	0xbeda4cb0	-0.42636633
74	0xbeb9473a	-0.36187154
75	0xbd96d0ba	-0.0736403
76	0x3e78471f	0.2424588
77	0xbee07977	-0.4384267
78	0x3e65f27c	0.22455782
79	0xbd032709	-0.03201965
80	0xbe04ddcc	-0.12975234
81	0xbdba6a29	-0.0910228
82	0xbd767017	-0.06016549
83	0x3c1b0d71	0.009463654
84	0xbe79900e	-0.24371359
85	0x3d8d91a3	0.069125436
86	0x3e85827d	0.26076117
87	0x3eb37468	0.35049748
88	0x3c527bf9	0.01284694
89	0x3e8683d1	0.26272443
90	0xbda3611c	-0.079775065
91	0x3d2b157b	0.041768532
92	0x3e50e623	0.2040029
93	0x3d36f378	0.044665784
94	0x3e217de2	0.15770677
95	0x3e994162	0.29932696
96	0xbeebe033	-0.46069488
97	0xbe976c33	-0.29574737
98	0xbea274fb	-0.31729874
99	0x3aca4a14	0.0015433454
100	0xbdd21a06	-0.1025887
101	0xbe5eeca3	-0.21769957
102	0x3e63eaba	0.2225751
103	0x3e5a0fc0	0.2129507
104	0x3d54ffdb	0.052001815
105	0xbe822e51	-0.25425962
106	0x3d51f70e	0.051261
107	0x3e074152	0.13208511
108	0xbeb96a39	-0.36213854
109	0x3e0065fb	0.12538902
110	0x3e274221	0.1633382
111	0x3e9d7218	0.3075111
112	0x3ea532c2	0.32265288
113	0xbdb3f3f2	-0.08786763
114	0xbe39f119	-0.18158378
115	0xbeac3662	-0.3363524
116	0xbe218b64	-0.1577583
117	0xbedc2676	-0.42998093
118	0x3ebdd155	0.3707377
119	0xbede1ddd	-0.4338216
120	0xbea2d289	-0.3180125
121	0xbe008c03	-0.1255341
122	0x3ba15b65	0.004924225
123	0x3e15bacb	0.14622037
124	0x3eb2ecfd	0.34946433
125	0xbe6ff0af	-0.23431657
126	0x3e9fb3c5	0.3119184
127	0xbef60b68	-0.48055577
128	0x3ea39f85	0.3195764
129	0xbe652cff	-0.22380446
130	0xbe7e4933	-0.24832611
131	0x3d06dfeb	0.03292839
132	0x3e9015f1	0.2814174
133	0xbe9cd3c5	-0.30630317
134	0xbdc8ec8d	-0.098107435
135	0x3e3a0359	0.1816534
136	0x3ccbcfb3	0.024879312
137	0x3d3bdad4	0.045862988
138	0xbd81bb23	-0.063345216
139	0x3e690328	0.2275511
140	0x3ec70183	0.3886834
141	0x3eb55d81	0.354229
142	0x3e2883e1	0.16456558
143	0xbdaa3334	-0.083105475
144	0x3ebc44e0	0.36771297
145	0x3e9de87e	0.3084144
146	0xbeaeb4fb	-0.34122452
147	0xbe10272c	-0.14077443
148	0x3e783d72	0.2424219
149	0x3e90c0a6	0.2827198
150	0xbe0445eb	-0.12917297
151	0xbe9fc87f	-0.31207654
152	0xbe20e6ce	-0.15713045
153	0x3e922b53	0.2854868
154	0x3e658b17	0.2241634
155	0xbe8335a6	-0.25626868
156	0xbe89a1cf	-0.26881263
157	0x3d05183f	0.032493826
158	0xbe8c2958	-0.27375293
159	0x3e18b5fd	0.14913173
160	0xbeb705b5	-0.35746542
161	0xbe730a65	-0.23734434
162	0xbe078d7f	-0.1323757
163	0x3e5ec121	0.2175336
164	0x3af4e82c	0.0018684915
165	0xbee4dff4	-0.44702113
166	0x3ebd064f	0.36918876
167	0x3eb3e443	0.35135087
168	0x3ec80653	0.39067325
169	0xbec0a5d0	-0.37626505
170	0xbeafdfe4	-0.34350502
171	0xbeb839bd	-0.3598155
172	0xbe9c41c1	-0.30518916
173	0xbe9f4c2f	-0.3111281
174	0xbd380378	-0.044925183
175	0x3ec7c3bc	0.3901652
176	0x3e45af2b	0.19305103
177	0xbde8b242	-0.11362125
178	0x3ea35bb8	0.31905913
179	0x3d23f1c3	0.040025484
180	0xbea87381	-0.32900622
181	0xbe5316d9	-0.20614184
182	0xbece9374	-0.40346873
183	0xbe414b87	-0.18876468
184	0xbeeeeb9b	-0.46664128
185	0x3e3b0db1	0.18266942
186	0x3ea9f9f5	0.33198515
187	0xbdea99ad	-0.114550926
188	0xbd636b52	-0.05552227
189	0xbea62725	-0.3245174
190	0x3eaf2377	0.34206745
191	0x3dec05cd	0.11524544
192	0x3d39b810	0.04534155
193	0x3ec67a39	0.38765123
194	0xbe532e3e	-0.20623109
195	0xbe8341fe	-0.25636286
196	0xbe1e47f2	-0.15457132
197	0x39571e39	0.00020515257
198	0xbdc72393	-0.09723582
199	0xbea0d954	-0.31415808
200	0x3d277ce1	0.04089058
201	0x3e1bfb49	0.15232576
202	0x3eb65f3e	0.3561954
203	0xbd05534a	-0.032550134
204	0x3e7ba5ff	0.24575041
205	0xbd0b219d	-0.033967603
206	0x3e595d90	0.21227098
207	0x3d811316	0.063024685
208	0x3eb6e886	0.35724276
209	0x3e62a30c	0.2213251
210	0x3d7b53a0	0.061359048
211	0x3dfd036d	0.12354169
212	0x3eac358e	0.3363461
213	0xbef02ba1	-0.46908286
214	0x3d61cc23	0.05512632
215	0xbe1a87fa	-0.15090933
216	0xbe5abfd1	-0.21362235
217	0x3ca44da7	0.020056559
218	0xbedf44f3	-0.43607292
219	0x3eb5080a	0.35357696
220	0x3d8983c4	0.067145854
221	0xbed2f522	-0.41202646
222	0x3e05776e	0.1303384
223	0xbe714d2c	-0.23564595
224	0xbe9e5023	-0.30920514
225	0x3e37950e	0.17927954
226	0xbd71b6fb	-0.059012394
227	0x3e355ab6	0.17710385
228	0x3e5e1523	0.2168775
229	0xbe41af9e	-0.18914649
230	0xbd93c8b0	-0.072160125
231	0x3d2ceb60	0.04221666
232	0xbdd7be2e	-0.10534321
233	0xbd711094	-0.0588537
234	0xbeed1a38	-0.46309066
235	0xbd4b320d	-0.04960828
236	0x3ea6d382	0.32583243
237	0xbe8462e9	-0.25856712
238	0x3ed45a00	0.41474915
239	0x3e6098ba	0.2193326
240	0xbd8468e6	-0.0646532
241	0x3ea0b72c	0.3138975
242	0x3da4aafa	0.08040424
243	0xbe321198	-0.17389524
244	0x3e28d4be	0.16487405
245	0xbe371497	-0.17878948
246	0xbd9fca75	-0.078022875
247	0x3e860f61	0.26183608
248	0xbe2d7e95	-0.16942818
249	0x3ea5ebad	0.3240637
250	0xbecfb8c7	-0.4057066
251	0xbd399a60	-0.04531324
252	0x3c403856	0.0117321815
253	0xbcf52dc4	-0.02992905
254	0xbdfcf564	-0.12351492
255	0xbdd7c94d	-0.10536442

net.2.weight f4 [256, 256]
0	0xbd5eecb6	-0.054424964
1	0xb8fc1d07	-0.00012021703
2	0xbd715db2	-0.058927245
3	0xbcff767c	-0.031184427
4	0x3d02a970	0.03189987
5	0xbc7aed03	-0.015315297
6	0x3c09f872	0.00842105
7	0xbbf2e859	-0.007412952
8	0xba658e41	-0.0008756854
9	0x3c8ed939	0.017437564
10	0xbd30c516	-0.043156706
11	0x3cc50c78	0.024053797
12	0xbb70007c	-0.0036621382
13	0xbd57733c	-0.05260013
14	0x3d52e020	0.051483274
15	0x3d064628	0.03278175
16	0x3d4566d6	0.048193775
17	0xbd08dd18	-0.033413976
18	0x3cc44a70	0.023961276
19	0xbd24aea3	-0.04020561
20	0xbd22cb04	-0.039744392
21	0xbcd0b530	-0.025477022
22	0x3cc6aa5f	0.024251161
23	0xbcc40c71	-0.023931714
24	0xbcab70d6	-0.020927828
25	0xbc4cb73e	-0.01249486
26	0xbd4d2e9d	-0.050093282
27	0x3d0e2c45	0.034710187
28	0xbd440f45	-0.047866125
29	0x3d1774e3	0.036976706
30	0xbd060b56	-0.032725655
31	0xbc29383a	-0.010328347
32	0xbd375b89	-0.04476503
33	0xba8abb40	-0.0010584369
34	0x3d244eec	0.04011433
35	0xbd646b51	-0.055766407
36	0xbd51abbd	-0.051189173
37	0x3d4314cb	0.04762725
38	0xbd4d0251	-0.050051037
39	0x3a92f254	0.0011211135
40	0xbcc30af0	-0.023808926
41	0x3cd53dd5	0.02603046
42	0x3b744456	0.0037272177
43	0x3af93ede	0.0019015928
44	0xbd26fa71	-0.040766183
45	0x3d3cea09	0.04612163
46	0x3d4c3ea5	0.04986443
47	0x3c70c810	0.014696136
48	0xbcf262a8	-0.029588059
49	0x3ca36338	0.019944772
50	0x3d6008cc	0.05469589
51	0x3d084d26	0.0332767
52	0xbce7a829	-0.028278427
53	0x3d6dbd12	0.05804164
54	0x3d496942	0.049172647
55	0x3c821aee	0.015881982
56	0x3ba5f817	0.005064975
57	0x3c1ade6f	0.009452446
58	0x3b1b2b80	0.002367705
59	0x3caeb4d8	0.021326467
60	0x3d72aaac	0.059244797
61	0x3a403be7	0.0007333145
62	0x3c8aceae	0.016944256
63	0x3d48779d	0.048942197
64	0x3d09becc	0.033629224
65	0x3c46841b	0.012116457
66	0xbcbdd130	-0.023171037
67	0xbd39597f	-0.045251366
68	0xbd0c70a6	-0.034287117
69	0xbd03e22b	-0.032198112
70	0x3c6dce97	0.014514587
71	0xbc790918	-0.015199922
72	0xbd5e8275	-0.054323632
73	0x3d3d82a6	0.046267174
74	0xbb8aa400	-0.004230976
75	0x3d373ae4	0.044733897
76	0xbd6130ae	-0.054978065
77	0x3a02d08d	0.0004990183
78	0x3c945654	0.01810757
79	0x3d3111b0	0.04322976
80	0x3c9a4f05	0.018836508
81	0x3c79b163	0.015240046
82	0xbc91bc32	-0.017789934
83	0x3cd1c32a	0.025605757
84	0xbc3c7819	-0.011503243
85	0xbca21b8b	-0.019788524
86	0x3d343f25	0.04400553
87	0x3cde0e65	0.027106473
88	0xbc407df1	-0.011748777
89	0xbd423671	-0.0474152
90	0xbd2ce96e	-0.042214803
91	0x3d3450f4	0.044022515
92	0xbcf42a23	-0.029805249
93	0xbd5d750a	-0.054066695
94	0xbd86ef60	-0.06588626
95	0xbcc1f973	-0.023678517
96	0xbc70204e	-0.01465614
97	0xbd50232c	-0.050814793
98	0xbd2e8eda	-0.042616703
99	0xbd40778b	-0.046989005
100	0xbd8d3305	-0.06894497
101	0x3d631f8a	0.05545
102	0x3d63e091	0.055634085
103	0xbb37cd53	-0.0028045967
104	0x3d476a5b	0.048685413
105	0x3cc6af08	0.024253383
106	0xbc794cc4	-0.015216056
107	0x3d0740b2	0.033020683
108	0xbcbd9fbc	-0.023147456
109	0xbd82f4e7	-0.06394368
110	0x3cbc5916	0.022991698
111	0x3d1cf302	0.038317688
112	0xbc360ff6	-0.011112204
113	0xbd67cb88	-0.056590587
114	0x3c8331fb	0.016015043
115	0x3b6452cc	0.003483939
116	0x3d0023b1	0.031284038
117	0x3b66c500	0.0035212636
118	0x3d383e15	0.04498108
119	0x3d002f84	0.031295314
120	0xbd568d48	-0.05238083
121	0xbc34df50	-0.01103957
122	0x3d359a89	0.04433683
123	0x3d2cf8a6	0.042229317
124	0x3cfd295c	0.03090351
125	0xbc616828	-0.013757743
126	0xbca68752	-0.020328198
127	0xbce3956c	-0.02778121
128	0xbb645804	-0.00348425
129	0xbc445586	-0.011983281
130	0xbd47a1b0	-0.04873818
131	0xbbaa3460	-0.005194232
132	0x3bd6c097	0.00655372
133	0x3d2bb944	0.04192473
134	0xbd051260	-0.032488227
135	0x3cf13dea	0.029448468
136	0x3d3d8fb6	0.04627963
137	0xbc167120	-0.009182245
138	0xbd514e06	-0.0510998
139	0xbd40d5d8	-0.047078937
140	0xbcd5a06a	-0.026077468
141	0xbd7bce6d	-0.06147616
142	0xbbc3b6ff	-0.0059727426
143	0x3d240602	0.040044792
144	0xbd03c8a4	-0.032173768
145	0xbc988d91	-0.018622192
146	0x3d688794	0.056769922
147	0x3cc2f328	0.023797587
148	0x3d3fc0ba	0.046814658
149	0x3cfd7960	0.030941665
150	0xbbc9d9ea	-0.0061600106
151	0x3d2c9f2e	0.042143993
152	0xbc91f212	-0.017815623
153	0xbd40b9c7	-0.04705217
154	0xbd854a90	-0.06508362
155	0xbd48b5b4	-0.04900141
156	0xbd2a0168	-0.041505247
157	0x3d489bc8	0.04897669
158	0xbd21fb32	-0.0395462
159	0xbd876578	-0.066111505
160	0x3cdaa888	0.02669169
161	0xbca19e7c	-0.019728892
162	0xbcb259b3	-0.021771288
163	0xbd349d3c	-0.044095263
164	0x3c87ecef	0.01659247
165	0x3c8aa1ea	0.01692291
166	0xbd38d5ae	-0.045125656
167	0x3d5c4442	0.053776033
168	0xbd38df39	-0.045134757
169	0x3d1b5cf7	0.037930455
170	0xbd70a07a	-0.058746792
171	0x3d331c30	0.043728054
172	0xbd4766e5	-0.048682112
173	0x3c82fe24	0.015990324
174	0xbd20f602	-0.03929711
175	0xbd49d201	-0.04927254
176	0x3d1e105c	0.03858982
177	0x3d08284e	0.033241563
178	0x3d5d2eae	0.053999595
179	0x3d0ac87c	0.033882603
180	0xbcc3b4e4	-0.023889966
181	0xbca0dfa0	-0.019637883
182	0xbcbb3a48	-0.02285494
183	0xbd78465f	-0.060613986
184	0xbc1417f8	-0.009038918
185	0x3ced031c	0.028932147
186	0x3d579687	0.05263379
187	0xbd62e438	-0.055393428
188	0x3cae1bed	0.02125355
189	0xbd89bb9e	-0.06725238
190	0x3c5bc950	0.013414696
191	0x3b52bc20	0.0032155588
192	0x3cf7b560	0.030237854
193	0xbbeb63bf	-0.0071835215
194	0x3d31211c	0.043244466
195	0xbd0870db	-0.033310752
196	0x3c3b7236	0.011440804
197	0x3cd32165	0.02577276
198	0x3cdbd2d8	0.026833937
199	0x3cc57464	0.024103351
200	0xbca811e7	-0.020516349
201	0x3d51baf6	0.05120369
202	0xbd5dad7f	-0.054120537
203	0xbc39c891	-0.011339323
204	0x3ca5d511	0.0202432
205	0x3c956035	0.018234352
206	0xbcdbc01b	-0.026825001
207	0xbc48f1c0	-0.012264669
208	0x3d49905c	0.049209937
209	0x3ba61903	0.0050688996
210	0xba6b1647	-0.0008967858
211	0x3d1448ec	0.036202356
212	0xbd3dee48	-0.04636982
213	0xbcc3347c	-0.023828737
214	0xbc975e1c	-0.018477492
215	0xbc00dec8	-0.007865615
216	0xbcdd36ec	-0.027003728
217	0xbd22eba2	-0.0397755
218	0x3d29e0a7	0.04147401
219	0xbd3743b1	-0.04474229
220	0x3d4ab61d	0.049490083
221	0xbc8d3f23	-0.01724202
222	0x3c7d264d	0.015451026
223	0x3d29acb6	0.041424476
224	0x3cfe6888	0.031055704
225	0x3d327b8b	0.04357485
226	0xbd89d9e3	-0.06731012
227	0xbd73b156	-0.059495293
228	0xbd8c4b90	-0.0685035
229	0xbd30a71b	-0.043128114
230	0x3bdb3901	0.006690145
231	0x3b7cb1b4	0.0038558068
232	0xbcb3b49b	-0.021936705
233	0xbd269cfe	-0.040677063
234	0xbcf92aad	-0.030415857
235	0x3d789601	0.06068993
236	0xbd6cf2ab	-0.057848614
237	0x3d3a243c	0.045444712
238	0xbd605aad	-0.054773975
239	0xbd389247	-0.045061376
240	0xbd5aa95a	-0.053384162
241	0x3d631cbc	0.055447325
242	0xbd6863c3	-0.056735765
243	0xbd32ae64	-0.043623343
244	0xbd36d0ee	-0.044632845
245	0x3d04415c	0.032288894
246	0xbd258e37	-0.04041883
247	0xbd4c70ca	-0.04991225
248	0x3ce0b8e2	0.027431909
249	0x3c998634	0.01874075
250	0xbca6c69c	-0.020358376
251	0x3b1ae99a	0.0023637773
252	0xbc19df53	-0.009391624
253	0x3cb1be04	0.021697052
254	0xbd627b66	-0.055293463
255	0xbd727e74	-0.059202626

net.2.bias f4 [256]
0	0x3c3abb51	0.011397199
1	0xbd2f92e5	-0.0428647
2	0xbdb7c5c2	-0.08973266
3	0x3d1bbc50	0.038021386
4	0x3d2c81d2	0.042115994
5	0xbc2d60a0	-0.010582119
6	0x3d016be4	0.031597033
7	0xbd91c3d4	-0.071174294
8	0xbcd4fa6c	-0.025998317
9	0x3e66b995	0.22531731
10	0x3d09ee9c	0.03367482
11	0xbd75914e	-0.059953026
12	0x3dbeccf2	0.09316434
13	0xbd0ba543	-0.034093153
14	0x3da091dc	0.078403205
15	0xbd83176a	-0.0640095
16	0x3d20bfea	0.039245524
17	0x3da4745b	0.080300055
18	0x3e3229e5	0.17398794
19	0xbc51d01a	-0.012805963
20	0x3ce3a617	0.027789159
21	0x3d1676e7	0.036734488
22	0x3c810eed	0.015754187
23	0xbd1f9855	-0.038963635
24	0xbd8288b4	-0.0637373
25	0xbd75c91e	-0.060006253
26	0xbca25396	-0.019815248
27	0x3c8205d6	0.015871923
28	0xbe257984	-0.16159636
29	0xbd229ecb	-0.039702218
30	0x3d02e182	0.031953342
31	0x3df08773	0.11744585
32	0xbc5b4bf8	-0.013384812
33	0x3e5d713a	0.21625224
34	0x3cc81155	0.024422327
35	0x3d065d3c	0.03280376
36	0x3db6632c	0.08905634
37	0xbe16c675	-0.14724143
38	0x3d4fdc53	0.050747227
39	0xbd239a9a	-0.03994236
40	0xbd2b01ed	-0.041749883
41	0x3caf2fe1	0.021385135
42	0xbd7afa72	-0.061274
43	0x3d844297	0.064580135
44	0xbcd0ba64	-0.025479503
45	0x3da83116	0.082124874
46	0x3cbb6fea	0.022880513
47	0x3d13b03c	0.036056742
48	0x3da9ba36	0.0828747
49	0xbd3f1eaa	-0.046660103
50	0x3d0d067b	0.03443001
51	0x3e3705c0	0.17873287
52	0x3d0e52d3	0.034746956
53	0xbd910848	-0.07081658
54	0x3d886e08	0.06661612
55	0xb999cdc4	-0.0002933574
56	0xbd19fa0a	-0.03759197
57	0xbc28ef9e	-0.010311035
58	0x3d5c9551	0.053853337
59	0x3cd9b20c	0.026574157
60	0x3d2a708a	0.041611232
61	0xbd461ca7	-0.04836717
62	0x3cc0d3fd	0.023538584
63	0x3d2800da	0.041016437
64	0x3d00288c	0.03128867
65	0x3dc8c9ee	0.0980414
66	0x3ce0b754	0.027431168
67	0xbd79aa3f	-0.060953375
68	0xbda774da	-0.081765845
69	0x3cde692a	0.027149756
70	0xbc20dc5a	-0.009818161
71	0xbd30e579	-0.043187592
72	0x3d0f866e	0.03504031
73	0xbcd710f1	-0.026253195
74	0xbd583443	-0.052784216
75	0x3cbd0a8a	0.023076314
76	0xbd9bb1bc	-0.076022595
77	0xbda1c428	-0.07898742
78	0xbd62d730	-0.055381
79	0xbddb7d36	-0.107172415
80	0x3c545b06	0.012961155
81	0x3e2cba2e	0.16867897
82	0x3dd0339e	0.10166095
83	0xbc85c6f3	-0.016330218
84	0xbd415d89	-0.047208343
85	0xbc89e5d0	-0.016833216
86	0xbd462272	-0.048372693
87	0x3d358f86	0.044326328
88	0x3ca970e7	0.020683719
89	0x3d2a3c38	0.041561335
90	0x3d1b4396	0.03790625
91	0x3e86a605	0.26298538
92	0x3cf17741	0.02947581
93	0xbcb35f4b	-0.021896025
94	0xbd83d3f9	-0.06436915
95	0xbcd4cb5b	-0.025975874
96	0x3c7cda38	0.015432887
97	0x3dbd9037	0.092560224
98	0xbdc217e6	-0.094772145
99	0x3d541e67	0.051786806
100	0xbcd1c0d3	-0.025604641
101	0x3c834540	0.016024232
102	0xbcdd44b5	-0.027010301
103	0x3c7c3633	0.0153937815
104	0x3cce9389	0.025216835
105	0x3e2cb7a7	0.16866933
106	0xbdbe0c17	-0.0927965
107	0xbd5d8056	-0.05407747
108	0xbc9726b7	-0.018451078
109	0xbd1bab7c	-0.038005337
110	0x3d1ce87d	0.038307656
111	0xbd5bd5ec	-0.05367081
112	0xbd97ad34	-0.07406083
113	0x3bafd0a5	0.0053654485
114	0xbbcd1d5f	-0.006259605
115	0x3ce20f50	0.027595192
116	0x3bece805	0.0072298073
117	0xbce26b3b	-0.027639022
118	0x3e5ee1dd	0.21765848
119	0x3b407340	0.002936557
120	0xbd5c3aa2	-0.053766854
121	0x3ac4aac4	0.0015004505
122	0x3d8850ae	0.066560134
123	0x3b90d1bd	0.004419534
124	0x3d3c0d2c	0.045911
125	0x3dcc7114	0.099825054
126	0x3c8aa39c	0.016923718
127	0x3dd825df	0.10554098
128	0x3cbd0ef0	0.023078412
129	0x3ca09ad0	0.01960507
130	0x3d006aba	0.031351782
131	0x3d018226	0.03161826
132	0x3d052cda	0.032513477
133	0xbd79f2b1	-0.061022464
134	0xbd5d138f	-0.05397373
135	0x3e438766	0.19094619
136	0x3d9b4914	0.07582298
137	0xbd8cc5be	-0.06873654
138	0xbc570058	-0.013122641
139	0xbd8558fb	-0.06511112
140	0x3cb4650a	0.022020835
141	0xbd58c381	-0.052920822
142	0x3e3e8e22	0.18608907
143	0xbd784bf6	-0.060619317
144	0xbcc78ec9	-0.024360077
145	0xbd1c985d	-0.038231242
146	0xbd4d5df4	-0.05013843
147	0xbd87db99	-0.06633682
148	0xbd291a83	-0.04128505
149	0xbdfd0251	-0.123539574
150	0x3d3849eb	0.04499237
151	0xbba9d956	-0.005183379
152	0xbd063cbc	-0.032772765
153	0xbd1c6084	-0.038177982
154	0x3db67c4e	0.08910428
155	0x3e407915	0.18796189
156	0xbd974c2a	-0.07387574
157	0x3cdf8558	0.027285263
158	0xba2a2449	-0.0006490392
159	0xbc9ded94	-0.019278325
160	0x3d4db372	0.05021996
161	0x3e6c90dc	0.23102134
162	0x3e5f2f4a	0.21795383
163	0x3d113bf9	0.035457585
164	0x3de267ce	0.110549554
165	0xbd71a9f6	-0.058999978
166	0xbc2067ae	-0.009790344
167	0x3d26a326	0.040682934
168	0xbd55a72a	-0.052161373
169	0xbdd42be8	-0.10359937
170	0x3cca65c7	0.024706734
171	0xbd402028	-0.046905667
172	0x3e25a7b5	0.16177256
173	0x3d22f79d	0.039786924
174	0x3c725108	0.014789827
175	0x3d2b9d0c	0.04189782
176	0xbd8bf517	-0.068338566
177	0xbcd33554	-0.025782265
178	0x3c4196a3	0.0118157
179	0x3d2f1b26	0.0427505
180	0xbd697878	-0.056999654
181	0x3c4e69dc	0.012598481
182	0xbd9346e9	-0.071912594
183	0x3cb68bf1	0.022283526
184	0xbd04ddfd	-0.032438267
185	0x3c888a04	0.016667373
186	0x3dd2eac3	0.102986835
187	0x3ce39ab5	0.027783731
188	0xbd24179a	-0.04006157
189	0x3ccdf63d	0.02514183
190	0x3bf88494	0.007584164
191	0xbd24badd	-0.04021727
192	0xbd5063cd	-0.050876427
193	0xbd289d61	-0.041165713
194	0x3cb43fcb	0.022003075
195	0x3dd026f7	0.10163682
196	0x3e73e3f9	0.23817433
197	0xbd26c99a	-0.040719606
198	0xbc825590	-0.01590994
199	0xbc788498	-0.015168332
200	0x3e805203	0.2506257
201	0x3e3cb7ae	0.18429443
202	0x3c03e651	0.008050517
203	0x3ce5b8c8	0.028042212
204	0xbb6ed527	-0.0036442967
205	0xbcb97fb4	-0.022643901
206	0xbd1b9a14	-0.037988737
207	0x3bd0f31d	0.0063766376
208	0xbd870bb8	-0.06594032
209	0x3e298ac9	0.16556849
210	0xbd20613a	-0.039155222
211	0xbe02a20d	-0.1275713
212	0x3de797b6	0.113082334
213	0xbd07e84d	-0.033180524
214	0xbdd9493f	-0.10609674
215	0xbd731da1	-0.05935443
216	0xbcfa7a20	-0.030575812
217	0xbd0425d5	-0.032262642
218	0xbce66b81	-0.028127434
219	0xbd76ae3f	-0.060224768
220	0x3e3a0316	0.1816524
221	0xbb61de27	-0.0034464689
222	0x3e1c95bb	0.15291493
223	0x3dd9719a	0.10617371
224	0xbd55f478	-0.052235097
225	0xbd437a51	-0.047724072
226	0x3db7e0ed	0.08978448
227	0x3c2d9e7a	0.010596866
228	0xbc546bc6	-0.012965148
229	0xbce7c9df	-0.028294502
230	0x3d07c67c	0.033148274
231	0xbb540e6c	-0.003235723
232	0xbdafeb18	-0.085897624
233	0x3d25fb18	0.040522665
234	0xbcc1b741	-0.023646953
235	0x3e4480b5	0.19189723
236	0x3cdc0c94	0.026861466
237	0x3dd3e3bb	0.103461705
238	0x3d7f0fb5	0.06227084
239	0x3b4ae029	0.0030956364
240	0x3dc616c3	0.0967231
241	0x3cdb7034	0.026786901
242	0x3db68dc8	0.089137614
243	0x3d38ff2b	0.045165222
244	0xbd878f0b	-0.0661908
245	0xbc981677	-0.0185654
246	0x3e06f568	0.13179553
247	0x3e67cc5d	0.22636552
248	0x3cbf768d	0.02337196
249	0xbd40ea14	-0.047098234
250	0x3c39a395	0.011330505
251	0xbceb2325	-0.028703282
252	0xbd047135	-0.032334525
253	0x3ce2a08e	0.027664449
254	0xbd3b5073	-0.04573102
255	0x3defc286	0.11707024

actor.weight f4 [1, 256]
0	0x3c33ccf6	0.010974159
1	0x3de5b6e3	0.112165235
2	0x3d702491	0.058628622
3	0xbd32d528	-0.043660313
4	0x3f230dc5	0.63692886
5	0x3c539317	0.012913487
6	0x3d3ebfa7	0.046569493
7	0xbc6f94fd	-0.014622924
8	0x3b8a57db	0.004221899
9	0x3dd935fb	0.10605999
10	0xbcbb62d4	-0.022874273
11	0xbc5c4bbf	-0.013445794
12	0x3f2e6491	0.681222
13	0xbb8a57b9	-0.004221883
14	0x3e939622	0.2882548
15	0x3cc67c1c	0.024229102
16	0x3f0b6cfb	0.54463166
17	0x3d24148b	0.040058654
18	0xbdd9e2d0	-0.10638964
19	0x3d4d372b	0.05010144
20	0x3d4c4b78	0.04987666
21	0xbeae2377	-0.34011433
22	0x3e98439f	0.2973909
23	0xbd0f8de2	-0.03504742
24	0xbf0a529e	-0.54032314
25	0xbb6f57ba	-0.0036520795
26	0x3d567b8e	0.052363925
27	0xbca118eb	-0.019665202
28	0xbeaf77dc	-0.34271133
29	0xbea57c18	-0.3232124
30	0x3ca03185	0.019554863
31	0x3eab71c2	0.33485228
32	0x3d3706b0	0.044684112
33	0xbcc00e41	-0.023444297
34	0xbeba078e	-0.3633389
35	0xbe9d8221	-0.30763343
36	0x3f135a53	0.575597
37	0x3e697173	0.22797184
38	0xbe4df6ad	-0.2011363
39	0x3c035298	0.008015297
40	0x3d64a0dc	0.05581747
41	0xbec4b0cf	-0.38416144
42	0x3d5a81c2	0.053346403
43	0x3b8ae987	0.0042392644
44	0xbd3a8406	-0.045536064
45	0x3f4a916b	0.7912814
46	0xbbf8957c	-0.0075861793
47	0xbe898e1e	-0.2686624
48	0x3e2ce057	0.16882454
49	0x3dd9105e	0.10598825
50	0xbcf705a9	-0.030154066
51	0x3e44e45a	0.19227734
52	0x3ef79392	0.48354775
53	0xbea5354d	-0.32267228
54	0x3ef32720	0.47490788
55	0xbd279da8	-0.040921837
56	0xbef63413	-0.48086604
57	0xbc9e7359	-0.019342111
58	0xbc043108	-0.008068331
59	0xbcf5b284	-0.02999235
60	0x3e0076be	0.12545297
61	0x3cc54291	0.024079593
62	0x3ea66ad4	0.32503378
63	0xbe6ad6dd	-0.22933526
64	0xbfbba748	-1.4660425
65	0xbd1cac12	-0.038250037
66	0xbe96568e	-0.2936291
67	0xbd537d4c	-0.051633164
68	0x3c0774a5	0.008267556
69	0xbee658d6	-0.4498965
70	0x3e1bdae8	0.15220225
71	0x3e1fb1f1	0.15595223
72	0x3d51c6e3	0.051215064
73	0xbbe34a4d	-0.0069363476
74	0x3ccef4dd	0.025263244
75	0x3cbf4205	0.02334691
76	0x3be82c76	0.0070853783
77	0x3c5da430	0.013527915
78	0xbd9b9286	-0.075963065
79	0xbe816509	-0.25272396
80	0x3f264d01	0.6496125
81	0xbdfae3bd	-0.12250469
82	0xbeb96cbf	-0.3621578
83	0xbedac54f	-0.4272866
84	0x3b888e3c	0.0041673463
85	0x3c83cfcf	0.016090302
86	0xbd37b724	-0.04485239
87	0x3d28689c	0.04111539
88	0xbe832db7	-0.25620815
89	0x3dc674f5	0.096902765
90	0x3ce95dcc	0.028487109
91	0x3c5bb77f	0.013410448
92	0x3d3b4ec4	0.045729414
93	0xbccae433	-0.024767017
94	0xbd5640d7	-0.05230793
95	0x3f225bd0	0.63421345
96	0x3cba6696	0.022753995
97	0x3e79f295	0.24408944
98	0xbe5d5f3e	-0.21618363
99	0xbd2d0e5b	-0.04225002
100	0x3e08ad5a	0.13347378
101	0x3be54505	0.006996753
102	0xbc0a87c2	-0.008455219
103	0x3bbc3528	0.0057436414
104	0x3b92bd7d	0.004478155
105	0xbe2de9d0	-0.16983724
106	0x3d0d64c2	0.03451992
107	0x3e1aefe3	0.15130572
108	0x3d75ec50	0.06003982
109	0x3be55560	0.006998703
110	0x3ce9eded	0.028555835
111	0x3c21007a	0.009826774
112	0x3b9b5bda	0.004741174
113	0x3b9c7a97	0.004775356
114	0xbaec021d	-0.0018006001
115	0x3f118bae	0.5685376
116	0x3ada0306	0.0016632981
117	0xbb74c1c6	-0.0037346943
118	0x3d9d519d	0.07681582
119	0xba5815ea	-0.00082430115
120	0x3d37d132	0.04487724
121	0x3d1d4465	0.038395304
122	0x3d4dfa0e	0.0502873
123	0xbe27fbdf	-0.16404675
124	0x3c4bed03	0.012446645
125	0xbb9ac2ec	-0.0047229435
126	0x3d59143b	0.05299781
127	0xbdca138d	-0.0986701
128	0x3d03f5e3	0.032216918
129	0xbc17dae0	-0.009268492
130	0xbc039ee8	-0.008033492
131	0xbd09b753	-0.033622097
132	0x3d409758	0.047019333
133	0xbeb7e35e	-0.35915655
134	0xbc061364	-0.008183334
135	0x3e0ce0db	0.1375765
136	0xbe0bdc87	-0.13658343
137	0xbd067840	-0.032829523
138	0xbd294190	-0.04132229
139	0x3d3d35f2	0.046194024
140	0xba37fb30	-0.0007018326
141	0xbedd1de0	-0.43186855
142	0x3e4a9a23	0.19785361
143	0xbca9bf00	-0.020720959
144	0x3bee439c	0.0072712433
145	0xbc86916a	-0.01642676
146	0x39887900	0.00026030093
147	0x3d7516bd	0.059836138
148	0xbd039d74	-0.03213258
149	0xbe726a6b	-0.23673408
150	0x3cbcbcbc	0.023039214
151	0x3d95ea97	0.07320135
152	0xbb9c6ca8	-0.004773695
153	0xbd290371	-0.041263048
154	0x3f11b22f	0.5691251
155	0xbc2609cf	-0.0101341745
156	0x3c506fa4	0.01272193
157	0x3da38b4d	0.07985554
158	0x3f2df5a4	0.6795294
159	0x3d2259a0	0.039636254
160	0x3cfd8d4d	0.030951167
161	0x3d56fef1	0.052489225
162	0xbd8f93d2	-0.07010616
163	0x3e974b22	0.2954951
164	0x3e7ee285	0.24891098
165	0x3cd936c4	0.026515372
166	0xbea52176	-0.3225209
167	0x3f0f2277	0.55911964
168	0x3d25ca31	0.040476028
169	0x3ee8df75	0.45482984
170	0x3cb36951	0.021900805
171	0x3eb8d370	0.36098814
172	0x3d5a702a	0.053329624
173	0x3f038d5e	0.51387584
174	0x3d4f75ce	0.050649457
175	0x3a047a94	0.0005053666
176	0xbd3fa49f	-0.046787854
177	0xbeb4dee3	-0.353263
178	0xbedee0a1	-0.43530753
179	0x3e03aa95	0.1285804
180	0x3d44128e	0.047869258
181	0x3d31efa2	0.043441422
182	0xbe66ac55	-0.22526677
183	0x3da2251e	0.07917236
184	0x3d7beaa7	0.06150308
185	0x3c4cc08b	0.012497078
186	0x3e14e627	0.14540921
187	0x3f006753	0.5015766
188	0x3c14a538	0.009072594
189	0x3f1452ca	0.57938826
190	0xbd21c099	-0.039490316
191	0xbea55ffe	-0.322998
192	0xbd0cb189	-0.034349
193	0xbec80c7d	-0.39072028
194	0xbca677ad	-0.020320738
195	0xbcc712a1	-0.024300875
196	0x3e1ef3db	0.15522711
197	0xbcda7370	-0.026666373
198	0x3ca2c346	0.019868504
199	0x3c109d88	0.008826621
200	0x3ddb3c7d	0.107048966
201	0xbe128e3c	-0.1431207
202	0xbd846222	-0.0646403
203	0x3c188362	0.009308668
204	0xbe45fea4	-0.19335419
205	0xbb482e41	-0.0030545148
206	0xbdbfbec1	-0.09362555
207	0xbe706847	-0.23477279
208	0xbd386b2b	-0.04502408
209	0x3ca5ee10	0.020255119
210	0xbf0d111b	-0.55104226
211	0x3dd31a2f	0.103077285
212	0x3d8778f6	0.06614868
213	0x3e88f8a8	0.2675221
214	0xbe94a93f	-0.29035375
215	0x3c29baec	0.010359507
216	0x3bb9e298	0.005672764
217	0x3d2c4ebb	0.04206727
218	0x3c613c5c	0.013747301
219	0xbc60b8f4	-0.013715971
220	0x3c70ddb0	0.014701292
221	0x3e27d8ef	0.16391347
222	0x3e215472	0.1575487
223	0xbc958453	-0.018251574
224	0xbd324d58	-0.043530792
225	0xbc45ae30	-0.012065455
226	0x3e34edc0	0.1766882
227	0xbd1f557a	-0.038899876
228	0x3c96bcf1	0.018400641
229	0xbec137e1	-0.37737945
230	0xbcf1c5e6	-0.02951331
231	0xbd3fe5f6	-0.046850167
232	0xbd923ee0	-0.07140899
233	0x3f11401e	0.5673846
234	0x3d46572d	0.04842298
235	0x3e5b5eb0	0.21422839
236	0xbd6b3d5a	-0.057431556
237	0x3f0b837c	0.54497504
238	0x3c7dd524	0.015492711
239	0x3f151e2d	0.5824917
240	0x3ef00bb9	0.46883944
241	0xbed90d41	-0.42392924
242	0x3e5766cc	0.21035308
243	0x3d10d67c	0.0353608
244	0x3d5ae94d	0.05344515
245	0xbd4769bd	-0.048684824
246	0xbd24f07c	-0.040268406
247	0xbdf1407c	-0.117798775
248	0xbd39530d	-0.04524522
249	0xbe8fd937	-0.2809541
250	0xbd583c1a	-0.052791692
251	0xbe432281	-0.19056131
252	0xbbdd47ce	-0.0067529446
253	0xbca86157	-0.020554228
254	0x3e759306	0.23981866
255	0x3dbfae50	0.09359419

critic.weight f4 [1, 256]
0	0xbd0169a8	-0.031594902
1	0x3b687a12	0.003547315
2	0xbea250e6	-0.31702346
3	0x3d31644f	0.043308552
4	0x3c4dd0b1	0.012561963
5	0x3b41481f	0.002949245
6	0xbca82d77	-0.020529492
7	0x3d090cb1	0.03345937
8	0xbc3eb06b	-0.011638741
9	0x3d8fbd94	0.07018581
10	0xbc81af42	-0.01583064
11	0xbcc5daee	-0.024152245
12	0x3c4d244b	0.01252086
13	0xbc88920f	-0.016671209
14	0x3dbbe9ba	0.09175439
15	0xbb9ad529	-0.0047251177
16	0x3c1f17f1	0.009710298
17	0xbbd14276	-0.0063860966
18	0x3d9c9b46	0.076468036
19	0xbb0f22ef	-0.002184089
20	0x3ddff652	0.10935654
21	0xbbae8c31	-0.0053267707
22	0xbd84f735	-0.064924635
23	0xbd0eaa52	-0.0348304
24	0x3b93616b	0.004497697
25	0xbc2ec468	-0.010666944
26	0x3d2810e2	0.041031726
27	0xbce27817	-0.027645154
28	0xbdad3e2d	-0.08459125
29	0x3d6768b9	0.056496356
30	0xbc7e6394	-0.015526671
31	0x3aa4d0b2	0.0012574403
32	0x3c2fc290	0.01072754
33	0x3ddea775	0.10871784
34	0xbb8a7858	-0.004225772
35	0xbbef480d	-0.0073022903
36	0x3bf708e2	0.0075389007
37	0xbe6483df	-0.2231593
38	0x3bbb70dd	0.0057202415
39	0x3d7ce36a	0.061740316
40	0xbd95837b	-0.073004685
41	0xbbb13147	-0.0054074856
42	0x3bd96980	0.006634891
43	0x3c1d7fee	0.00961302
44	0x3c80a76e	0.015704837
45	0xbbb100f2	-0.005401724
46	0x3d68782a	0.056755222
47	0xbc29c9a4	-0.010363016
48	0xbca4be4d	-0.020110274
49	0xbdc5033c	-0.096197575
50	0x3c57956c	0.013158184
51	0x3ce558d3	0.027996456
52	0xbbfc434c	-0.007698452
53	0xbdd87b79	-0.105704255
54	0x3c14b313	0.009075898
55	0xbc4fba0f	-0.012678637
56	0x39552837	0.00020328244
57	0x3c1ad4b6	0.009450128
58	0xbbb1e731	-0.0054291715
59	0xbcabab2e	-0.020955648
60	0xbc831311	-0.016000303
61	0x3d3cf9b2	0.046136566
62	0x3c0a5dc9	0.008445212
63	0xbc4b6381	-0.01241386
64	0x3dff432d	0.12463985
65	0x3e4ac80d	0.19802876
66	0xbc6b84c4	-0.0143749155
67	0x3bf887df	0.0075845565
68	0xbcbb09a2	-0.022831742
69	0x3a32eb1b	0.00068251946
70	0x3e016339	0.12635507
71	0xbc809dcd	-0.015700245
72	0x3c0ef365	0.008725022
73	0xbcc54bb3	-0.024083948
74	0x3d5d6ac4	0.054056898
75	0x3c0dac9c	0.00864711
76	0xbcdf9c81	-0.027296307
77	0xbde3c0c1	-0.11120749
78	0xbccc21f4	-0.024918534
79	0x3daaf911	0.08348287
80	0x3c3988e8	0.011324145
81	0x3cd4e7a7	0.025989367
82	0x3da976ed	0.082746364
83	0xbc501817	-0.012701056
84	0x3d5c86df	0.05383956
85	0xbd3babca	-0.045818128
86	0xbbde703a	-0.006788281
87	0x3d4ebdd6	0.05047401
88	0xbc935310	-0.017983943
89	0xbda875e4	-0.08225611
90	0x38686290	5.5404904e-05
91	0x3dd243c5	0.10266832
92	0x3d2dc627	0.0424253
93	0xbd8c9220	-0.06863809
94	0xbaa2b5a5	-0.0012413753
95	0x3a6e298c	0.00090851705
96	0xbb9fe71a	-0.0048798444
97	0x3ce6cb16	0.02817301
98	0x3cf25022	0.029579226
99	0x3d468804	0.04846956
100	0xbcef75f1	-0.029231044
101	0xbcadf7ee	-0.021236386
102	0xbceb2a0c	-0.028706573
103	0xbd1ba18f	-0.03799587
104	0x3d8b99b4	0.06816426
105	0x3d0c5b3f	0.034266707
106	0xbe95bb30	-0.29244375
107	0xbd3c669e	-0.0459963
108	0x3d392f43	0.045211088
109	0xbd610464	-0.054935828
110	0x3d303fa9	0.04302946
111	0xb8bd7a1e	-9.0349684e-05
112	0xbca2dc39	-0.019880401
113	0xbd1e63f6	-0.03866955
114	0xbcafae30	-0.021445364
115	0x3bf9c588	0.0076224245
116	0x3ca65b92	0.020307336
117	0xbd185a07	-0.03719523
118	0x3da72be3	0.081626676
119	0xbd024fe8	-0.031814486
120	0xbcebabc2	-0.028768424
121	0x3d3254c3	0.043537866
122	0x3c860602	0.016360287
123	0xbd0a89ad	-0.033822704
124	0x3c8934b6	0.016748767
125	0xbcd40731	-0.025882335
126	0xbc6f6a8b	-0.014612804
127	0x3c981c2f	0.018568126
128	0x3c0254e3	0.007954809
129	0x3d2b0c36	0.041759692
130	0x3c8f9419	0.017526673
131	0x3b34db13	0.0027596399
132	0x3d5914ee	0.052998476
133	0xbc8d7813	-0.01726917
134	0x3d0358e3	0.03206719
135	0x3d9ebec5	0.0775123
136	0xbc549964	-0.012976024
137	0xbe1892f8	-0.14899814
138	0xbc8ea0e4	-0.017410703
139	0xbcc43bc8	-0.023954287
140	0x3be5dbef	0.0070147435
141	0xb9d0c629	-0.00039820492
142	0x3d618596	0.055059038
143	0x3d429273	0.047502946
144	0xbcc33a5a	-0.023831535
145	0x3bc56b73	0.006024772
146	0xbd1a4e56	-0.037672363
147	0x3d354d34	0.04426308
148	0xba8dfeb1	-0.001083335
149	0x3cfc10ce	0.030769732
150	0x3aa2daaa	0.0012424786
151	0xbda9c070	-0.08288658
152	0x3b90dca3	0.004420833
153	0x3bc1dc64	0.005916165
154	0x3ab251db	0.0013604717
155	0x3dbfcbf5	0.093650736
156	0x3d1d184c	0.03835325
157	0x3c2c1967	0.010504103
158	0x3ba62637	0.0050704735
159	0x3d4afc31	0.049556915
160	0xbcc1b774	-0.023647048
161	0x3d2c2844	0.042030588
162	0x3df5e99e	0.120074496
163	0x3ba382d4	0.004989961
164	0x3d205390	0.03914219
165	0x3d441f38	0.047881335
166	0xba87e073	-0.0010366574
167	0x3c22633b	0.009911354
168	0xbe6261bc	-0.22107595
169	0x3db7e1ba	0.08978601
170	0xbd0946a5	-0.033514638
171	0x3d923e05	0.071407355
172	0x3d5a983f	0.05336785
173	0x3d1f2898	0.038857073
174	0x3c492480	0.012276769
175	0x3c54242d	0.012948078
176	0xbc013dad	-0.00788824
177	0x3d146fff	0.03623962
178	0x3c2805d6	0.010255298
179	0xbdf2b427	-0.118507676
180	0x3cc54d08	0.024084583
181	0xbbc99815	-0.006152163
182	0xbd20d6a6	-0.039267205
183	0xbc25a10f	-0.0101092
184	0xbdce7f69	-0.10082895
185	0x3d408449	0.047001157
186	0xbc74e751	-0.014947728
187	0x3b3cc726	0.0028805225
188	0x3cf22f48	0.029563561
189	0x3c174f22	0.009235175
190	0xbc86309c	-0.0163806
191	0xbac25077	-0.0014825006
192	0xbc888f3a	-0.016669858
193	0xb6b35ce2	-5.3454287e-06
194	0xbd6528b5	-0.055947024
195	0x3d077958	0.033074707
196	0x3d98c7de	0.07459997
197	0x3d703196	0.05864104
198	0xbce30636	-0.027712923
199	0xbd213314	-0.039355353
200	0x3dafb646	0.08579688
201	0x3da643af	0.08118378
202	0x3b6d2e22	0.0036190827
203	0xbc6faa0a	-0.014627943
204	0x3ed03f21	0.40673164
205	0xbb8df875	-0.004332597
206	0xbe796206	-0.24353799
207	0xbe0803da	-0.13282719
208	0xbd3c241f	-0.045932885
209	0x3dba587c	0.09098908
210	0x3bac1511	0.0052515347
211	0xbe848922	-0.25885874
212	0xbd28dabc	-0.041224226
213	0xbe872a6d	-0.26399556
214	0xbe00f531	-0.12593533
215	0xbafff89e	-0.001952905
216	0x3c99b85e	0.018764671
217	0x3d2229ff	0.03959083
218	0xbd367a2c	-0.044550106
219	0xbd5c60fe	-0.053803436
220	0x3ca7d3e5	0.020486781
221	0x3ce0dc06	0.027448665
222	0x3d7cbff2	0.06170649
223	0x3ca67c47	0.020322932
224	0xbbf6f4e4	-0.0075365175
225	0x3d49a1ac	0.049226448
226	0x3c8e9b49	0.01740803
227	0xbbcd1267	-0.0062582972
228	0xbc14e8d7	-0.0090887165
229	0xbc26a0f0	-0.010170206
230	0xbb676783	-0.00353095
231	0x399e876d	0.00030237008
232	0xbca4a325	-0.020097325
233	0x3c279077	0.010227314
234	0x3c7a3b07	0.015272862
235	0x3ccaef5d	0.02477234
236	0xbca5b23a	-0.020226587
237	0x3d1323a0	0.035922647
238	0xbdda7fb6	-0.1066889
239	0x3c611f08	0.013740309
240	0x3ad69910	0.001637252
241	0xbbef7ba7	-0.0073084417
242	0x3ca72140	0.020401597
243	0xbc363930	-0.011122033
244	0xbd4f4212	-0.05060012
245	0xbc64179d	-0.0139216455
246	0xbd13c238	-0.036073893
247	0x3db26608	0.08710867
248	0xbcef4245	-0.029206404
249	0xbd5b4071	-0.053528253
250	0xbd0cae7c	-0.03434609
251	0x3b4964bb	0.0030730206
252	0xbc245860	-0.010030836
253	0x3d12605a	0.03573642
254	0xbcbcd890	-0.023052484
255	0x3d04b4a0	0.03239882
