models1/ppo_450.pth (torch, 275264 bytes, 6 tensors)

net.0.weight f4 [256, 6]
000000 d3 ee cc be d0 94 dd be df 25 ff 3d 5b 69 b4 3e
       -0.40025958 -0.43277597 0.12458395 0.3523663
000010 ec 9a 13 bd 62 26 c5 be 3e 12 54 bd 98 30 0e bd
       -0.036036417 -0.38505846 -0.05177521 -0.03471431
000020 dd 49 d8 3e 48 74 b3 be 5b 29 d8 bd 03 3e e9 3e
       0.42243853 -0.35049653 -0.10554763 0.45555124
000030 ba 57 13 be 09 40 d5 3e fe be c0 3c 69 82 ed be
       -0.14388934 0.41650417 0.023528572 -0.46388558
000040 cb b8 db bd be 43 b2 bd a2 28 8d be dd 13 92 3e
       -0.10728606 -0.08704327 -0.27570063 0.2853078
000050 dd 88 4f 3e b9 f3 58 3c 5d e0 bb bd 6f d3 d0 3e
       0.20267053 0.013241702 -0.09173653 0.4078631
000060 8c 2f 8d 3e 4a ac bc bd 1d e4 f9 be 91 96 6c 3e
       0.27575338 -0.09212549 -0.4880685 0.23104312
000070 ec 95 58 3e 42 50 4f be 1e c5 12 3e 1b de cb bb
       0.2115094 -0.2024546 0.14333007 -0.0062215454
000080 dd f9 ab 3e f5 ee 9d bc 0f d0 8b be 16 f2 41 3e
       0.33589068 -0.019278983 -0.27307174 0.18940005
000090 24 3a 61 3d f7 0d 45 3e 7d 34 c8 3e 07 4c 7f 3e
       0.054987088 0.19243608 0.39102545 0.24931346
0000a0 5d 38 eb 3d 38 38 b3 be 2c 52 ad be f4 09 a5 be
       0.1148536 -0.3500383 -0.33851755 -0.32234156
0000b0 8f 18 9e 3d ec 52 5e 3e 6f ab d1 bd 8c 06 94 3e
       0.07719528 0.2171132 -0.102377765 0.28911245
0000c0 e2 28 f8 bd 5d 3b 42 be 3c 4b b0 3e 3c e9 27 3b
       -0.12117173 -0.18967958 0.344324 0.0025621196
0000d0 e7 a2 64 3e 8d 00 64 be 9d 9e 69 3e 2f b8 69 3e
       0.22327767 -0.22265835 0.22814412 0.22824167
0000e0 c6 8a e5 3e 15 66 f8 be 70 ca 73 be 88 b9 5b 3e
       0.44832438 -0.48515382 -0.23807693 0.21457493
0000f0 0c ae 89 3d aa e7 4a be cb 0b b5 be 06 65 a0 be
       0.0672265 -0.19814935 -0.3536056 -0.31327075
000100 f0 cf 29 be 91 18 39 be 2a 6c 23 3d 5e 7e 81 be
       -0.16583228 -0.18075778 0.039898075 -0.25291723
000110 db 2f 5a be 50 bd 8b 3e 62 75 d7 bd de 15 ff bd
       -0.21307318 0.2729287 -0.10520436 -0.12455343
000120 08 e2 c9 bd fc ad 07 3e 53 93 b9 bd 61 50 8a 3e
       -0.09857565 0.13249964 -0.09061303 0.2701445
000130 4a 0c 9b be 5e 55 59 bd 44 49 6f bd 91 b5 d6 3d
       -0.30282813 -0.053059928 -0.05841948 0.1048385
000140 ca fe de 3d 50 e1 3a 3e 7c 58 6d bd 76 83 ff be
       0.10888441 0.18250012 -0.057945713 -0.49904984
000150 44 d2 b8 3e 10 2d 41 3e 0f 0c 89 be c0 01 2d bb
       0.3609792 0.18864846 -0.26767012 -0.0026398748
000160 62 cd a1 be 23 b0 b1 3e 13 99 64 3e 41 f9 4f be
       -0.31602007 0.34704694 0.22324018 -0.20309927
000170 22 dd 4e bd 1d 03 b2 be e9 48 ce be 7a c4 0a 3e
       -0.050503857 -0.34768 -0.4029 0.13551512
000180 d3 87 31 3e 0b 68 6e 3e 0f 3e c3 3e 92 52 e8 bd
       0.17336969 0.23281877 0.38133284 -0.11343874
000190 e0 f6 81 bd 2a 64 a5 be ad f1 c3 be 94 1e e9 bd
       -0.06345916 -0.32302982 -0.3827032 -0.113827854
0001a0 57 79 ae bc 9b da 90 be 26 f3 55 3c 39 09 3d 3e
       -0.021298094 -0.28291783 0.013058459 0.1846055
0001b0 e1 99 cc be 65 d1 89 3e cd b9 fb be 30 36 a9 be
       -0.3996115 0.26917568 -0.49165192 -0.33049154
0001c0 5e 92 91 bd 9c 82 64 3e d4 ce 38 3e 95 c2 6c 3e
       -0.071079955 0.22315449 0.18047649 0.23121102
0001d0 6c 00 25 be a3 9b ca 3e 89 8b 18 be 56 ef 5b be
       -0.16113442 0.39571866 -0.14896978 -0.21478018
0001e0 f1 38 17 be 7a ea c5 3d 9b 2d 52 bd a3 b2 8b 3e
       -0.14767815 0.096638635 -0.051313024 0.27284727
0001f0 01 8b 48 3e 66 4d af 3e 0a 3d 9a 3e 4a dc 36 3e
       0.19584276 0.34238738 0.30124694 0.17857471
000200 42 86 bf bd 40 59 f2 b9 ca e5 51 3d d3 26 b4 be
       -0.093517795 -0.00046224333 0.051244535 -0.3518587
000210 ba f1 9d be ea 3d 97 3d 37 bf a5 3e ac 41 df be
       -0.30848485 0.07384856 0.32372448 -0.4360479
000220 d2 12 fa bd a6 b0 e1 3e a7 4a 5b 3e 83 bf ab bd
       -0.12210621 0.44080085 0.21415196 -0.08386137
000230 0d ac eb bd d8 53 2e bd 9c a4 f3 3d f2 63 8e 3d
       -0.115074255 -0.04256043 0.11896631 0.06952657
000240 e5 c1 5f bd 56 8e 90 3e e7 f2 6d bc b2 c1 fe 3b
       -0.05462827 0.28233594 -0.014523244 0.007774555
000250 fb 3d 89 3e 31 bf d2 be 50 52 6a be 86 40 a4 3e
       0.268051 -0.41161492 -0.22882962 0.32080477
000260 1b 3c c6 be aa 67 14 3f 57 5a 56 3d d5 8e 69 be
       -0.38717732 0.5797068 0.05233225 -0.22808392
000270 19 f0 6c 3e 7e 30 e9 3d 58 0c 65 be e1 2b 0c 3e
       0.23138465 0.11386202 -0.2236799 0.13688613
000280 9f 29 7d 3d 92 c4 3e be bd 59 d7 3d 58 24 bb bd
       0.06180727 -0.18629673 0.10515163 -0.091377914
000290 12 ec 10 3f 3c 53 00 bf f5 aa 2b 3d 7e 72 af be
       0.56610215 -0.50127006 0.041911084 -0.34267038
0002a0 0e 81 b4 3e b1 ed b9 be 48 77 5f 3e 9f 2a b9 3e
       0.3525471 -0.36314157 0.21822846 0.3616533
0002b0 a5 af 19 be 1c 45 f4 bd 93 b8 43 be db 3e fc 3d
       -0.1500841 -0.11927244 -0.19113378 0.12316676
0002c0 0c 47 23 3e 20 78 96 be 1c 33 98 be 68 82 3e 3d
       0.15945071 -0.29388523 -0.29726493 0.046511084
0002d0 32 1c e3 bd 50 fd 6e be 29 4a b6 be 35 6c af 3e
       -0.11089362 -0.23338819 -0.35603455 0.34262243
0002e0 d2 71 b2 3e e2 4e 94 3e 3b 63 9b 3d 10 ce e2 bd
       0.34852463 0.28966433 0.07587286 -0.110744596
0002f0 ec 54 08 bf 9e bb 4a 3e 20 c6 aa 3d d8 89 f9 bd
       -0.5325458 0.19798133 0.083385706 -0.12184495
000300 5d af 47 be 9b a2 6d bd f9 c3 28 be bf 0d b4 3e
       -0.1950049 -0.0580164 -0.16481008 0.35166737
000310 64 07 21 be dd fc aa 3d 3e 64 95 bd ab 60 83 3e
       -0.15725476 0.08349011 -0.0729451 0.2565969
000320 2f 20 b4 bd c9 ca b1 bc dd 03 21 3e ac a8 d6 3d
       -0.08795201 -0.02170314 0.1572413 0.1048139
000330 6d 7a 9c be fc d1 87 3e 17 ca 3f be 44 d7 cf 3e
       -0.30562153 0.26527393 -0.18729435 0.40593922
000340 2b ec a5 be 1c 13 c5 3d c2 84 8b be 26 c5 e8 3d
       -0.32406744 0.096227854 -0.27249724 0.11365728
000350 46 43 b7 3e e9 78 86 3e 30 73 e5 bd 9f 0c ea bc
       0.35793513 0.26264122 -0.11203611 -0.028570471
000360 b4 ca 82 3e 0b 08 9b 3e 25 57 86 3e d2 64 9e be
       0.25545275 0.30279574 0.2623836 -0.30936295
000370 6a 8c 81 be 79 f0 78 be 57 08 65 be 39 4f 50 be
       -0.2530244 -0.24310483 -0.22366463 -0.20342721
000380 a3 ce d4 3e b1 29 59 be 25 0d 53 be 8a 00 44 be
       0.415639 -0.2120731 -0.20610483 -0.1914083
000390 40 3a 46 bd e5 91 3e 3e 6f 60 b4 be 10 bf 94 3e
       -0.048395395 0.18610342 -0.35229823 0.2905202
0003a0 8e cb 6e be a2 a7 7c bc 2e 9a 28 be 74 65 13 bd
       -0.23319837 -0.015420826 -0.16465065 -0.035985425
0003b0 78 58 a4 3c 29 4a 28 3e 5e e3 34 be 93 9d ec 3e
       0.020061716 0.1643454 -0.17664859 0.4621397
0003c0 c8 41 6c 3e f8 01 c5 be fe 46 58 bd ff 00 72 be
       0.23071969 -0.38478065 -0.05280208 -0.23633192
0003d0 fc 47 14 3e 71 72 c9 be 52 75 e1 be d5 f4 f5 be
       0.14480585 -0.39345124 -0.4403482 -0.48038355
0003e0 dd 96 df 3d eb bc 85 3e dd 4d 3c 3d 46 56 17 3c
       0.10917447 0.26120695 0.045972694 0.009236878
0003f0 be e0 94 3e b2 aa a9 be d8 e4 5f 3e 13 a4 f5 be
       0.29077715 -0.33138043 0.2186464 -0.4797674

net.0.bias f4 [256]
000000 d4 dd 92 be 2a d3 52 3c e5 ed b7 be ed 81 ae be
       -0.28684866 0.012867728 -0.35923687 -0.340835
000010 a7 c6 c9 3e 33 cf c7 be 36 20 ae be cf ac 99 be
       0.39409372 -0.39025268 -0.3400895 -0.30014655
000020 64 1b 2a 3e ed 5a 26 3d 88 35 e3 3d b1 da 65 be
       0.16612011 0.040614057 0.11094195 -0.22446705
000030 a3 05 6c bd 3b e7 78 be 25 1e ba be b9 2a 9f 3e
       -0.057622563 -0.24306957 -0.36351123 0.31087282
000040 60 fe b9 3e 00 0c 0b 3e ff 92 e2 bd 21 e8 b3 3e
       0.36326885 0.13578796 -0.110631935 0.35138038
000050 e3 97 8d be a3 24 ab be 86 c3 aa 3d 48 45 ba 3e
       -0.27654943 -0.3342639 0.083380744 0.36380982
000060 3e c2 b3 3e 86 7a 2a 3e e2 e1 6b 3e 84 7c 5f 3e
       0.35109133 0.16648301 0.23035386 0.21824843
000070 6d 2b c1 3d 55 cc 49 bc 60 d5 a6 3e cc d7 61 3e
       0.09432111 -0.012316783 0.32584667 0.22054976
000080 4e 6b 14 3e 89 39 a7 be 9b a2 16 be ff 24 5e 3d
       0.14494058 -0.32661083 -0.14710467 0.0542345
000090 e8 5e b2 be 4f 84 d0 3e e8 dd 50 3e 4c 02 76 be
       -0.34838033 0.40725943 0.2039715 -0.24024314
0000a0 05 a6 5a be ce 1a d6 ba 05 00 74 3e 84 e2 58 be
       -0.21352394 -0.0016334893 0.23828132 -0.21180159
0000b0 9c b6 f8 bd 58 9d 81 3e 4f b9 4e 3e f8 dc ed be
       -0.12144205 0.25315356 0.20187877 -0.46457648
0000c0 40 63 0d 3e 3a fb 7b 3e 62 f2 ae be c9 5a 83 3e
       0.13807392 0.24607554 -0.34169298 0.256552
0000d0 9d 3e 98 bd 3d d2 d5 bd 69 8b 8e be b8 9f 4d 3e
       -0.074338175 -0.104404904 -0.27840737 0.20080459
0000e0 fe 7f 86 be b7 fc 62 3e 88 89 4a 3d ee 74 0f be
       -0.26269525 0.22166716 0.049447566 -0.14009449
0000f0 05 34 a7 bd e2 6a 42 3e d2 d7 17 bd ea 46 fb 3d
       -0.08164219 0.18986085 -0.037071057 0.12269385
000100 a5 78 37 3e 1c 49 1a 3e 01 10 ed bd f4 74 61 3e
       0.17917116 0.15066952 -0.11575318 0.2201727
000110 4d c6 44 3e cd 35 89 3e f6 61 16 3e 6b 34 09 be
       0.1921627 0.2679886 0.14685807 -0.13398902
000120 8b 29 81 3e db 3b da be 3a 47 b9 be 59 22 17 be
       0.25227007 -0.4262379 -0.36187154 -0.14759196
000130 d5 09 87 3e c5 7f b0 be 7a e0 5f 3e a3 5e b7 bd
       0.2637469 -0.3447248 0.21862975 -0.089535974
000140 37 b4 a6 bd 61 c7 ea bc cc 93 4c bd 1b d8 05 bc
       -0.08139842 -0.028659524 -0.049945638 -0.008169199
000150 28 0d 18 be ab 5b 65 3d 5a 8b 93 3e 95 87 b7 3e
       -0.14848769 0.055995625 0.28817254 0.35845628
000160 c3 d9 cf 3c ad de 9a 3e c6 6b 44 bd 38 45 25 3e
       0.025372392 0.30248013 -0.047954343 0.16139686
000170 87 f5 7c 3e 6a 1f 0e 3c fe 36 69 3e d0 ce 95 3e
       0.24703036 0.008674482 0.22774884 0.29259348
000180 0a d5 d3 be 7f cd 70 be fb 74 a2 be 26 ee 2e 3d
       -0.41373473 -0.2351589 -0.31729874 0.042707585
000190 ff de 02 be a3 ec 5e be 99 dd 10 3e 24 0a 85 3e
       -0.12780379 -0.21769957 0.14147033 0.259843
0001a0 07 49 2e 3e 51 2e 82 be f3 34 7b 3d 90 36 25 3e
       0.17020045 -0.25425962 0.061329793 0.16134095
0001b0 af 4d c8 be 1e 47 89 3e b5 ce dd 3d e9 a6 c6 3e
       -0.39121768 0.2681207 0.10830442 0.38799217
0001c0 02 ae a7 3e 02 26 b6 bd 0c 72 06 be 6d 41 9c be
       0.32749945 -0.08893968 -0.13129443 -0.30518666
0001d0 fe 41 ff bd a9 29 9b be c9 97 c2 3e ed 02 9d be
       -0.12463759 -0.30305222 0.38006428 -0.30666295
0001e0 89 d2 a2 be 9b e1 83 bd 2a 8f a2 3d 61 b2 1f 3e
       -0.3180125 -0.06439515 0.07937463 0.1559539
0001f0 32 71 a7 3e af f0 6f be bf 38 b3 3e c9 4a e3 be
       0.3270355 -0.23431657 0.3500423 -0.44392994
000200 a9 8e bb 3e 51 08 13 be 81 5e a5 bd 42 ef 18 3e
       0.3663228 -0.14358641 -0.08074666 0.1493502
000210 4a b8 83 3e d3 db 87 be 5b 0d e8 bd 0a 4f 2f 3e
       0.2572654 -0.265349 -0.11330672 0.17119995
000220 f8 72 7b 3d e3 b3 81 3d e3 9b 8f bd f9 2c 3d 3e
       0.06138894 0.06333139 -0.07012155 0.18474187
000230 5d 91 a9 3e b5 7b a7 3e ba 45 39 3e 7e ff c0 bc
       0.33118716 0.32711568 0.18093005 -0.023559328
000240 80 98 c6 3e 0d e0 90 3e fb b4 ae be 6a 8d ca bc
       0.38788223 0.28295937 -0.34122452 -0.024725635
000250 cf 91 9e 3e 8f ac 30 3e 12 c2 07 bc 7f c8 9f be
       0.30970618 0.17253326 -0.008286016 -0.31207654
000260 64 d1 3b bd b0 e7 96 3e 1e e6 5f 3e a6 35 83 be
       -0.045853987 0.2947364 0.21865126 -0.25626868
000270 65 77 89 be 3d 8f af 3c 58 29 8c be c0 5f 22 3e
       -0.26848903 0.021430606 -0.27375293 0.15856838
000280 b5 05 b7 be de da 0f be 7c fc 03 be 0b c8 06 3e
       -0.35746542 -0.14048335 -0.12889284 0.13162248
000290 ec 7b 23 3d 84 e2 ce be 5e 49 aa 3e 12 94 a6 3e
       0.039913103 -0.40407193 0.332591 0.32534844
0002a0 05 2c c7 3e f3 e6 ad be e5 2f 9e be bd 39 b8 be
       0.38900772 -0.33965263 -0.30895916 -0.3598155
0002b0 78 9e 69 be 2f 4c 9f be 09 89 88 bd 8c b5 be 3e
       -0.22814357 -0.3111281 -0.066667624 0.37247884
0002c0 03 4d 57 3e d0 85 f1 bd cb b4 9e 3e 99 15 3d bd
       0.21025471 -0.11793101 0.3099731 -0.046163175
0002d0 81 73 a8 be d9 16 53 be 74 93 ce be 83 14 1e be
       -0.32900622 -0.20614184 -0.40346873 -0.15437512
0002e0 25 e2 d5 be 9a ba b7 3d ef 23 ad 3e e0 c8 d3 bd
       -0.41774097 0.08971138 0.33816478 -0.10341048
0002f0 82 1e 8f bd d9 49 a1 be 61 78 28 3e 78 13 9c 39
       -0.06988241 -0.31501654 0.16452171 0.00029769144
000300 45 8f 01 3c 84 b9 c8 3e 3e 2e 53 be a7 e0 35 be
       0.007907693 0.39204037 -0.20623109 -0.1776148
000310 9e d5 08 be 4b d0 0b bd 93 23 c7 bd 54 d9 a0 be
       -0.13362738 -0.03413419 -0.09723582 -0.31415808
000320 44 e8 3e 3d 55 f5 45 3e a2 d3 a6 3e b2 f5 68 3c
       0.046608225 0.19331868 0.32583338 0.014218735
000330 0b b2 5b 3e ef 66 f3 bd 9e ae 69 3e b3 9c a7 bc
       0.21454637 -0.118848674 0.22820517 -0.020460462
000340 26 e3 b0 3e bf 61 42 3e 09 48 5c bd 87 88 c9 3d
       0.345483 0.189826 -0.053779636 0.09840494
000350 d6 64 be 3e 26 0e cd be 2c 85 46 bd fa 87 1a be
       0.37186307 -0.40049857 -0.048466846 -0.15090933
000360 b8 b2 4e be c0 cc 40 be 66 78 da be 4e 7f aa 3e
       -0.20185363 -0.18828106 -0.42669982 0.3330025
000370 d6 85 d6 3d 2e 54 a9 be eb b7 70 3e 56 9a 71 be
       0.10474746 -0.33072037 0.23507659 -0.2359403
000380 b4 e6 6a be 16 46 4f 3e a9 6e 7b bc 45 2d 82 3e
       -0.22939569 0.2024158 -0.015346208 0.25425163
000390 f6 16 51 3e 0c 2d 4a be ee b7 9e bd 3c 18 ac 3d
       0.20418915 -0.19743747 -0.077499256 0.0840306
0003a0 11 52 9c bd 3d 1e ab bc 41 69 e8 be 96 85 da 3b
       -0.076328404 -0.020888442 -0.45392802 0.0066687567
0003b0 93 57 a0 3e 67 20 7c be ce 55 cd 3e 3e 3e b9 3e
       0.31316814 -0.24621736 0.40104526 0.361803
0003c0 d6 cd ed bc b2 0d 14 3e e0 3c ec 3d 95 f3 fc bd
       -0.029028814 0.1445835 0.115350485 -0.12351147
0003d0 4d ed a3 3e 97 14 37 be 64 b9 a9 bd 55 f1 4e 3e
       0.32016984 -0.17878948 -0.082873136 0.20209248
0003e0 a8 fd 0b be 4e 66 a8 3e c7 b8 cf be c5 98 c7 bc
       -0.13670981 0.32890552 -0.4057066 -0.024364838
0003f0 b6 02 e9 3d f4 1b 71 bc 0b 72 8b 3e af e8 82 bd
       0.1137747 -0.014716137 0.27235445 -0.06392037

net.2.weight f4 [256, 256]
000000 b6 ec 5e bd 07 1d fc b8 b2 5d 71 bd 7c 76 ff bc
       -0.054424964 -0.00012021703 -0.058927245 -0.031184427
000010 70 a9 02 3d 03 ed 7a bc 72 f8 09 3c 59 e8 f2 bb
       0.03189987 -0.015315297 0.00842105 -0.007412952
000020 41 8e 65 ba 39 d9 8e 3c 16 c5 30 bd 78 0c c5 3c
       -0.0008756854 0.017437564 -0.043156706 0.024053797
000030 7c 00 70 bb 3c 73 57 bd 20 e0 52 3d 28 46 06 3d
       -0.0036621382 -0.05260013 0.051483274 0.03278175
000040 d6 66 45 3d 18 dd 08 bd 70 4a c4 3c a3 ae 24 bd
       0.048193775 -0.033413976 0.023961276 -0.04020561
000050 04 cb 22 bd 30 b5 d0 bc 5f aa c6 3c 71 0c c4 bc
       -0.039744392 -0.025477022 0.024251161 -0.023931714
000060 d6 70 ab bc 3e b7 4c bc 9d 2e 4d bd 45 2c 0e 3d
       -0.020927828 -0.01249486 -0.050093282 0.034710187
000070 45 0f 44 bd e3 74 17 3d 56 0b 06 bd 3a 38 29 bc
       -0.047866125 0.036976706 -0.032725655 -0.010328347
000080 89 5b 37 bd 40 bb 8a ba ec 4e 24 3d 51 6b 64 bd
       -0.04476503 -0.0010584369 0.04011433 -0.055766407
000090 bd ab 51 bd cb 14 43 3d 51 02 4d bd 54 f2 92 3a
       -0.051189173 0.04762725 -0.050051037 0.0011211135
0000a0 f0 0a c3 bc d5 3d d5 3c 56 44 74 3b de 3e f9 3a
       -0.023808926 0.02603046 0.0037272177 0.0019015928
0000b0 71 fa 26 bd 09 ea 3c 3d a5 3e 4c 3d 10 c8 70 3c
       -0.040766183 0.04612163 0.04986443 0.014696136
0000c0 a8 62 f2 bc 38 63 a3 3c cc 08 60 3d 26 4d 08 3d
       -0.029588059 0.019944772 0.05469589 0.0332767
0000d0 29 a8 e7 bc 12 bd 6d 3d 42 69 49 3d ee 1a 82 3c
       -0.028278427 0.05804164 0.049172647 0.015881982
0000e0 17 f8 a5 3b 6f de 1a 3c 80 2b 1b 3b d8 b4 ae 3c
       0.005064975 0.009452446 0.002367705 0.021326467
0000f0 ac aa 72 3d e7 3b 40 3a ae ce 8a 3c 9d 77 48 3d
       0.059244797 0.0007333145 0.016944256 0.048942197
000100 cc be 09 3d 1b 84 46 3c 30 d1 bd bc 7f 59 39 bd
       0.033629224 0.012116457 -0.023171037 -0.045251366
000110 a6 70 0c bd 2b e2 03 bd 97 ce 6d 3c 18 09 79 bc
       -0.034287117 -0.032198112 0.014514587 -0.015199922
000120 75 82 5e bd a6 82 3d 3d 00 a4 8a bb e4 3a 37 3d
       -0.054323632 0.046267174 -0.004230976 0.044733897
000130 ae 30 61 bd 8d d0 02 3a 54 56 94 3c b0 11 31 3d
       -0.054978065 0.0004990183 0.01810757 0.04322976
000140 05 4f 9a 3c 63 b1 79 3c 32 bc 91 bc 2a c3 d1 3c
       0.018836508 0.015240046 -0.017789934 0.025605757
000150 19 78 3c bc 8b 1b a2 bc 25 3f 34 3d 65 0e de 3c
       -0.011503243 -0.019788524 0.04400553 0.027106473
000160 f1 7d 40 bc 71 36 42 bd 6e e9 2c bd f4 50 34 3d
       -0.011748777 -0.0474152 -0.042214803 0.044022515
000170 23 2a f4 bc 0a 75 5d bd 60 ef 86 bd 73 f9 c1 bc
       -0.029805249 -0.054066695 -0.06588626 -0.023678517
000180 4e 20 70 bc 2c 23 50 bd da 8e 2e bd 8b 77 40 bd
       -0.01465614 -0.050814793 -0.042616703 -0.046989005
000190 05 33 8d bd 8a 1f 63 3d 91 e0 63 3d 53 cd 37 bb
       -0.06894497 0.05545 0.055634085 -0.0028045967
0001a0 5b 6a 47 3d 08 af c6 3c c4 4c 79 bc b2 40 07 3d
       0.048685413 0.024253383 -0.015216056 0.033020683
0001b0 bc 9f bd bc e7 f4 82 bd 16 59 bc 3c 02 f3 1c 3d
       -0.023147456 -0.06394368 0.022991698 0.038317688
0001c0 f6 0f 36 bc 88 cb 67 bd fb 31 83 3c cc 52 64 3b
       -0.011112204 -0.056590587 0.016015043 0.003483939
0001d0 b1 23 00 3d 00 c5 66 3b 15 3e 38 3d 84 2f 00 3d
       0.031284038 0.0035212636 0.04498108 0.031295314
0001e0 48 8d 56 bd 50 df 34 bc 89 9a 35 3d a6 f8 2c 3d
       -0.05238083 -0.01103957 0.04433683 0.042229317
0001f0 5c 29 fd 3c 28 68 61 bc 52 87 a6 bc 6c 95 e3 bc
       0.03090351 -0.013757743 -0.020328198 -0.02778121
000200 04 58 64 bb 86 55 44 bc b0 a1 47 bd 60 34 aa bb
       -0.00348425 -0.011983281 -0.04873818 -0.005194232
000210 97 c0 d6 3b 44 b9 2b 3d 60 12 05 bd ea 3d f1 3c
       0.00655372 0.04192473 -0.032488227 0.029448468
000220 b6 8f 3d 3d 20 71 16 bc 06 4e 51 bd d8 d5 40 bd
       0.04627963 -0.009182245 -0.0510998 -0.047078937
000230 6a a0 d5 bc 6d ce 7b bd ff b6 c3 bb 02 06 24 3d
       -0.026077468 -0.06147616 -0.0059727426 0.040044792
000240 a4 c8 03 bd 91 8d 98 bc 94 87 68 3d 28 f3 c2 3c
       -0.032173768 -0.018622192 0.056769922 0.023797587
000250 ba c0 3f 3d 60 79 fd 3c ea d9 c9 bb 2e 9f 2c 3d
       0.046814658 0.030941665 -0.0061600106 0.042143993
000260 12 f2 91 bc c7 b9 40 bd 90 4a 85 bd b4 b5 48 bd
       -0.017815623 -0.04705217 -0.06508362 -0.04900141
000270 68 01 2a bd c8 9b 48 3d 32 fb 21 bd 78 65 87 bd
       -0.041505247 0.04897669 -0.0395462 -0.066111505
000280 88 a8 da 3c 7c 9e a1 bc b3 59 b2 bc 3c 9d 34 bd
       0.02669169 -0.019728892 -0.021771288 -0.044095263
000290 ef ec 87 3c ea a1 8a 3c ae d5 38 bd 42 44 5c 3d
       0.01659247 0.01692291 -0.045125656 0.053776033
0002a0 39 df 38 bd f7 5c 1b 3d 7a a0 70 bd 30 1c 33 3d
       -0.045134757 0.037930455 -0.058746792 0.043728054
0002b0 e5 66 47 bd 24 fe 82 3c 02 f6 20 bd 01 d2 49 bd
       -0.048682112 0.015990324 -0.03929711 -0.04927254
0002c0 5c 10 1e 3d 4e 28 08 3d ae 2e 5d 3d 7c c8 0a 3d
       0.03858982 0.033241563 0.053999595 0.033882603
0002d0 e4 b4 c3 bc a0 df a0 bc 48 3a bb bc 5f 46 78 bd
       -0.023889966 -0.019637883 -0.02285494 -0.060613986
0002e0 f8 17 14 bc 1c 03 ed 3c 87 96 57 3d 38 e4 62 bd
       -0.009038918 0.028932147 0.05263379 -0.055393428
0002f0 ed 1b ae 3c 9e bb 89 bd 50 c9 5b 3c 20 bc 52 3b
       0.02125355 -0.06725238 0.013414696 0.0032155588
000300 60 b5 f7 3c bf 63 eb bb 1c 21 31 3d db 70 08 bd
       0.030237854 -0.0071835215 0.043244466 -0.033310752
000310 36 72 3b 3c 65 21 d3 3c d8 d2 db 3c 64 74 c5 3c
       0.011440804 0.02577276 0.026833937 0.024103351
000320 e7 11 a8 bc f6 ba 51 3d 7f ad 5d bd 91 c8 39 bc
       -0.020516349 0.05120369 -0.054120537 -0.011339323
000330 11 d5 a5 3c 35 60 95 3c 1b c0 db bc c0 f1 48 bc
       0.0202432 0.018234352 -0.026825001 -0.012264669
000340 5c 90 49 3d 03 19 a6 3b 47 16 6b ba ec 48 14 3d
       0.049209937 0.0050688996 -0.0008967858 0.036202356
000350 48 ee 3d bd 7c 34 c3 bc 1c 5e 97 bc c8 de 00 bc
       -0.04636982 -0.023828737 -0.018477492 -0.007865615
000360 ec 36 dd bc a2 eb 22 bd a7 e0 29 3d b1 43 37 bd
       -0.027003728 -0.0397755 0.04147401 -0.04474229
000370 1d b6 4a 3d 23 3f 8d bc 4d 26 7d 3c b6 ac 29 3d
       0.049490083 -0.01724202 0.015451026 0.041424476
000380 88 68 fe 3c 8b 7b 32 3d e3 d9 89 bd 56 b1 73 bd
       0.031055704 0.04357485 -0.06731012 -0.059495293
000390 90 4b 8c bd 1b a7 30 bd 01 39 db 3b b4 b1 7c 3b
       -0.0685035 -0.043128114 0.006690145 0.0038558068
0003a0 9b b4 b3 bc fe 9c 26 bd ad 2a f9 bc 01 96 78 3d
       -0.021936705 -0.040677063 -0.030415857 0.06068993
0003b0 ab f2 6c bd 3c 24 3a 3d ad 5a 60 bd 47 92 38 bd
       -0.057848614 0.045444712 -0.054773975 -0.045061376
0003c0 5a a9 5a bd bc 1c 63 3d c3 63 68 bd 64 ae 32 bd
       -0.053384162 0.055447325 -0.056735765 -0.043623343
0003d0 ee d0 36 bd 5c 41 04 3d 37 8e 25 bd ca 70 4c bd
       -0.044632845 0.032288894 -0.04041883 -0.04991225
0003e0 e2 b8 e0 3c 34 86 99 3c 9c c6 a6 bc 9a e9 1a 3b
       0.027431909 0.01874075 -0.020358376 0.0023637773
0003f0 53 df 19 bc 04 be b1 3c 66 7b 62 bd 74 7e 72 bd
       -0.009391624 0.021697052 -0.055293463 -0.059202626

net.2.bias f4 [256]
000000 51 bb 3a 3c 81 9d 95 bd 62 e0 ca bc 50 bc 1b 3d
       0.011397199 -0.07305432 -0.024765197 0.038021386
000010 2d 37 d5 3b 2d 30 a2 ba e4 6b 01 3d d4 c3 91 bd
       0.0065068216 -0.0012373977 0.031597033 -0.071174294
000020 d8 72 a8 bc af 9c e0 3d 89 80 2a 3d 4e 91 75 bd
       -0.020562574 0.10967385 0.041626487 -0.059953026
000030 1f 46 7f 3d 43 a5 0b bd b5 37 96 3d 1c e2 54 bd
       0.062322732 -0.034093153 0.07334844 -0.051973447
000040 09 7e a0 3b de 29 4e 3d c9 db 79 3d 0b 13 ce bb
       0.004897837 0.050332896 0.06100062 -0.006288891
000050 9b 00 18 3c d5 3c f3 3c c3 57 ac 3d 24 53 f1 bc
       0.009277488 0.029692093 0.08415177 -0.02945859
000060 31 a1 22 bd 1e c9 75 bd 96 53 a2 bc 98 9c cf 3c
       -0.039704505 -0.060006253 -0.019815248 0.025343224
000070 65 76 64 bd 1e 61 d4 3b 82 e1 02 3d fb de e7 3d
       -0.055776972 0.006481304 0.031953342 0.11321827
000080 f8 4b 5b bc 06 9b a3 3d 80 b3 49 3d 75 cf 4b 3d
       -0.013384812 0.07988553 0.04924345 0.049758393
000090 12 46 8a 3d dd e1 a8 bd 64 07 1a 3d 9a 9a 23 bd
       0.06751646 -0.08246205 0.037604704 -0.03994236
0000a0 a4 a4 42 3d 80 6c 22 3d 72 fa 7a bd 0d 35 cd 3d
       0.047520295 0.039654255 -0.061274 0.10019884
0000b0 64 ba d0 bc 15 1c ab 3d ea 6f bb 3c c6 c0 4e 3d
       -0.025479503 0.083549656 0.022880513 0.05047681
0000c0 69 7c eb 3d 4c 01 59 bc 0e 7f 21 3d a3 1d dd 3d
       0.11498339 -0.013244938 0.03942781 0.107966684
0000d0 77 76 82 3d 9a 4e 05 3c 4c a3 17 3d c4 cd 99 b9
       0.063702516 0.008136416 0.037020966 -0.0002933574
0000e0 a3 31 28 bd 24 4f 9d ba 65 23 c0 3d 0c b2 d9 3c
       -0.041062962 -0.0012001735 0.09381751 0.026574157
0000f0 29 3b c3 3d a7 1c 46 bd 69 5c 7c 3c d8 c3 76 3d
       0.09532768 -0.04836717 0.015402892 0.060245365
000100 88 a0 62 3c 5d 57 61 3d b3 bd 2a 3d 5d 24 60 bd
       0.013832219 0.055014957 0.041684818 -0.05472218
000110 43 fe 93 bd d4 d0 bc 3c 15 a9 93 3d 54 b7 0b 3d
       -0.07226231 0.023048796 0.07209984 0.034110382
000120 6e 86 0f 3d f1 10 d7 bc 43 34 58 bd 44 b2 fe 3c
       0.03504031 -0.026253195 -0.052784216 0.031090863
000130 c2 2d 8d bd 28 c4 a1 bd a6 04 43 bd 45 b3 24 bc
       -0.06893493 -0.07898742 -0.047611855 -0.010052507
000140 ff 39 8e bc f2 d5 d7 3d cb a0 33 3d 0e 17 3b 39
       -0.017361639 0.10538854 0.043854516 0.00017842298
000150 89 5d 41 bd 4b 99 7b bc e2 5e 22 bd 86 8f 35 3d
       -0.047208343 -0.015356372 -0.03964127 0.044326328
000160 a7 c9 09 3d 1d a9 a6 3d 1c 0c 43 3d ea c6 02 3e
       0.033639576 0.081377245 0.04761897 0.12771192
000170 41 77 f1 3c f7 a1 39 bd 6e 3a 6f bd c9 21 dc bc
       0.02947581 -0.045320477 -0.058405332 -0.026871579
000180 d9 b8 95 3c 18 ca 9c 3d e2 7a 22 3c 67 1e 54 3d
       0.018276619 0.07655734 0.009916993 0.051786806
000190 a2 a4 9f bc 97 3e d1 3c b5 44 dd bc 33 36 7c 3c
       -0.019487683 0.02554254 -0.027010301 0.0153937815
0001a0 d5 3e 84 3d 71 a4 cf 3d 04 a5 b2 bd f1 87 57 bc
       0.06457297 0.101387866 -0.087228805 -0.01315497
0001b0 b7 26 97 bc 7c ab 1b bd 38 00 48 3d ec d5 5b bd
       -0.018451078 -0.038005337 0.048828334 -0.05367081
0001c0 34 ad 97 bd a5 d0 af 3b 5f 1d cd bb 7e 14 be 3a
       -0.07406083 0.0053654485 -0.006259605 0.0014501957
0001d0 05 e8 ec 3b 3b 6b e2 bc aa 99 c1 3d 40 73 40 3b
       0.0072298073 -0.027639022 0.09453137 0.002936557
0001e0 a2 3a 5c bd c4 aa c4 3a 8c 41 2e bd a0 25 8d 3d
       -0.053766854 0.0015004505 -0.04254298 0.06891942
0001f0 20 6d 78 3d e8 03 ea 3d 9c a3 8a 3c 7d 4e 3f 3d
       0.060650945 0.11426526 0.016923718 0.04670571
000200 ba 02 05 3d d0 9a a0 3c ba 6a 00 3d b2 2e 1f 3d
       0.032473303 0.01960507 0.031351782 0.03886289
000210 da 2c 05 3d 7b eb 2c bd 8f 13 5d bd 1f b7 8a 3d
       0.032513477 -0.04221676 -0.05397373 0.06773209
000220 be 08 aa 3d 87 b5 55 bd 58 00 57 bc fb 58 85 bd
       0.08302449 -0.05217507 -0.013122641 -0.06511112
000230 ab e1 f8 3c c7 be 32 bd 2e a2 a7 3d f6 4b 78 bd
       0.030381044 -0.04363897 0.0818523 -0.060619317
000240 c9 8e c7 bc 5d 98 1c bd f4 5d 4d bd f9 de 68 bd
       -0.024360077 -0.038231242 -0.05013843 -0.05685327
000250 18 01 e0 bc d5 55 c4 3c eb 49 38 3d 80 93 5a bd
       -0.027344272 0.02396671 0.04499237 -0.053363323
000260 bc 3c 06 bd 84 60 1c bd bc 60 8f 3d 85 87 71 3d
       -0.032772765 -0.038177982 0.070008725 0.058967132
000270 b5 85 85 bd e8 84 91 3d 51 ec 99 bc 94 ed 9d bc
       -0.06519643 0.07105428 -0.018789442 -0.019278325
000280 72 b3 4d 3d 60 be 0a 3e cb e4 a0 3d 70 97 3a bc
       0.05021996 0.13549185 0.07856139 -0.011388645
000290 11 86 e2 3d f6 a9 71 bd 89 9b 78 3c 4e 07 0c 3c
       0.110607274 -0.058999978 0.015173801 0.008546663
0002a0 1d 5f 0f 3c 0e 12 b0 bc a7 c9 01 3d 00 40 40 3c
       0.008750704 -0.021492984 0.03168645 0.011734009
0002b0 9e 13 6c 3d 4d ab 26 3d 08 51 72 3c 0c 9d 2b 3d
       0.057635896 0.04069071 0.014789827 0.04189782
0002c0 17 f5 8b bd c4 0d 3a 3d 78 43 ab 3c 29 d7 d7 3d
       -0.068338566 0.045423284 0.020906195 0.105390854
0002d0 78 78 69 bd dc 69 4e 3c 6c 13 96 3c ec 74 6b 3d
       -0.056999654 0.012598481 0.018319808 0.057484552
0002e0 b0 21 ef 3c 71 46 d6 3c 6c 38 01 3e d0 07 93 3c
       0.029190868 0.026156636 0.1261918 0.017948061
0002f0 9a 17 24 bd ff 30 51 bb c9 dc 87 3c 9b bd 03 bd
       -0.04006157 -0.0031920073 0.01658477 -0.032163244
000300 13 b2 fb bb f4 57 20 bd c0 b9 b4 3d 56 69 9e 3c
       -0.00768114 -0.03914638 0.088244915 0.019337337
000310 db 79 f6 3d 9a c9 26 bd 33 14 64 bc 98 84 78 bc
       0.12034961 -0.040719606 -0.0139208315 -0.015168332
000320 47 e3 fc 3d 96 34 92 3d 5a 18 88 3d c8 b8 e5 3c
       0.12348037 0.07138936 0.0664527 0.028042212
000330 2c a5 26 3d b4 7f b9 bc 5c eb 6f 3c 06 4a 97 3d
       0.040684864 -0.022643901 0.014643516 0.07387166
000340 9a 8e ef b8 1a 6e 17 3d 3c 6e 30 bd 73 86 dd bd
       -0.0001142297 0.036970235 -0.043073878 -0.1081666
000350 48 f7 db 3d 27 65 72 3d 02 b4 4f bb a1 1d 73 bd
       0.107405245 0.059178498 -0.0031692986 -0.05935443
000360 20 7a fa bc d5 25 04 bd 67 7a 98 bc 3f ae 76 bd
       -0.030575812 -0.032262642 -0.018613053 -0.060224768
000370 8e 83 f1 3d db d1 97 3c 9b 6e 2b 3d ef ab 27 3d
       0.1179267 0.018532684 0.04185353 0.040935453
000380 2f 20 2f bd d4 34 1b bd 3f 4f d8 3c c4 16 a1 3c
       -0.042755302 -0.037892178 0.026404975 0.019664176
000390 c6 6b 54 bc f9 ff 1a bc 7c c6 07 3d 6c 0e 54 bb
       -0.012965148 -0.009460443 0.033148274 -0.003235723
0003a0 cf 54 34 bd 08 3b c7 3b 41 b7 c1 bc e7 e1 f9 3d
       -0.044026192 0.006080035 -0.023646953 0.122012906
0003b0 b9 73 02 3d c1 04 ba 3d 28 fe 6f 3d 17 a4 e6 bc
       0.031848643 0.09082938 0.05859199 -0.028154416
0003c0 d7 0e 8c 3d 93 35 f4 3c 41 ba b0 3c 2b ff 38 3d
       0.06838768 0.029810702 0.021573188 0.045165222
0003d0 0b 8f 87 bd 77 16 98 bc 53 e3 fb 3d b2 62 da 3d
       -0.0661908 -0.0185654 0.12299218 0.10663356
0003e0 8d 76 bf 3c 9a c3 85 b9 95 a3 39 3c 5b 31 92 3d
       0.02337196 -0.0002551347 0.011330505 0.0713832
0003f0 35 71 04 bd 8e a0 e2 3c b9 55 b9 3a 1d 4c d2 3d
       -0.032334525 0.027664449 0.0014139927 0.10268424

actor.weight f4 [1, 256]
000000 f6 cc 33 3c b8 0d 8a 3d b2 fc ac 3d 28 d5 32 bd
       0.010974159 0.06740898 0.08446635 -0.043660313
000010 18 cb d2 3e 17 93 53 3c a7 bf 3e 3d fd 94 6f bc
       0.41170573 0.012913487 0.046569493 -0.014622924
000020 00 76 b6 ba c5 b1 a6 3d c0 7c 6b bc bf 4b 5c bc
       -0.0013920665 0.081393756 -0.014373004 -0.013445794
000030 33 46 be 3e b9 57 8a bb 66 a5 86 3e 1c 7c c6 3c
       0.37162933 -0.004221883 0.26298064 0.024229102
000040 7b 95 b1 3e 60 87 e1 bb 0f 9c e5 bd 07 ed 4c 3d
       0.34684357 -0.006882593 -0.112114064 0.050030734
000050 72 df 37 bd f1 9c 98 be f4 54 89 3e e2 8d 0f bd
       -0.04489083 -0.29807237 0.26822627 -0.03504742
000060 4c aa 83 be ba 57 6f bb 8e 7b 56 3d 8a 2a a3 bc
       -0.25715864 -0.0036520795 0.052363925 -0.019917745
000070 ad 5e 97 be be 38 84 be 85 31 a0 3c e1 b6 75 3e
       -0.2956442 -0.2582454 0.019554863 0.23995544
000080 b0 06 37 3d 04 24 0b bd b9 1a 92 be ca b5 63 be
       0.044684112 -0.033969894 -0.28536013 -0.22237316
000090 93 21 bb 3e c4 2c 65 3e 23 4c 4b be 98 52 03 3c
       0.36549053 0.22380358 -0.19853263 0.008015297
0000a0 7f 3d 04 3e b7 2f 86 be c2 81 5a 3d 3f 6b e1 3c
       0.12914084 -0.2620828 0.053346403 0.02751696
0000b0 06 84 3a bd 6c 69 ac 3e 7c 95 f8 bb 3b 1b 80 be
       -0.045536064 0.3367418 -0.0075861793 -0.25020775
0000c0 0f bc 12 3e 6a 6d 6f 3d 45 39 e2 bc 09 4c 23 3e
       0.14329551 0.058453955 -0.027615199 0.15946974
0000d0 7f 5a ae 3e d3 9a 53 be 67 73 95 3e a8 9d 27 bd
       0.34053418 -0.2066453 0.29189608 -0.040921837
0000e0 f2 3b 91 be b5 fc a3 bc 38 5e 5e ba 84 b2 f5 bc
       -0.28366047 -0.020017961 -0.00084826676 -0.02999235
0000f0 cf 4f ff 3d 91 42 c5 3c fc af 80 3e b5 1f 6f be
       0.12466394 0.024079593 0.25134265 -0.23351939
000100 bc 49 58 bf 19 e3 50 3c 21 7a 81 be ac ad 53 bd
       -0.8448751 0.012749457 -0.2528849 -0.0516793
000110 25 7c 07 3c d1 f6 9a be d2 ee d6 3d 6f 7f 1e 3e
       0.008269344 -0.3026643 0.1049477 0.154783
000120 e3 c6 51 3d 4d 4a e3 bb dd f4 ce 3c bf ab 0a 3d
       0.051215064 -0.0069363476 0.025263244 0.033855196
000130 4d 92 e1 3b 30 a4 5d 3c 8e 90 7c bd 10 69 5a be
       0.0068838955 0.013527915 -0.061661296 -0.2132914
000140 f6 8f d2 3e 62 6a 01 be 03 c3 ad be e4 90 a5 be
       0.41125458 -0.12638238 -0.33937845 -0.32337105
000150 3c 8e 88 3b d3 af 4f bc 24 b7 37 bd 9c 68 28 3d
       0.0041673463 -0.012676197 -0.04485239 0.04111539
000160 cc 23 79 be b0 39 ab 3e 6a 9f 9a 3b 42 84 b4 39
       -0.24330062 0.3344245 0.0047187107 0.00034430815
000170 c4 4e 3b 3d 50 21 8d bc 06 fc 55 bd e0 0f c4 3e
       0.045729414 -0.017227799 -0.0522423 0.38293362
000180 90 31 4e 3d 56 f1 49 3e 13 c0 67 be 5b 0e 2d bd
       0.050340235 0.19720969 -0.22631864 -0.04225002
000190 9f 98 81 3d 8c 02 87 3c c2 87 0a bc 28 35 bc 3b
       0.06327938 0.016480707 -0.008455219 0.0057436414
0001a0 e2 a2 18 3c 69 b5 2c be a4 7b 8b 3d 28 91 23 3e
       0.009316178 -0.16866077 0.06810692 0.15973341
0001b0 50 ec 75 3d 60 55 e5 3b 28 e3 a4 3c 7a 00 21 3c
       0.06003982 0.006998703 0.020127848 0.009826774
0001c0 da 5b 9b 3b 97 7a 9c 3b 1d 02 ec ba 25 59 b2 3e
       0.004741174 0.004775356 -0.0018006001 0.34833637
0001d0 06 03 da 3a c6 c1 74 bb 52 26 6a 3d ea 15 58 ba
       0.0016632981 -0.0037346943 0.05716545 -0.00082430115
0001e0 32 d1 37 3d 65 44 1d 3d 55 ac 93 3d 04 21 42 be
       0.04487724 0.038395304 0.07210604 -0.18957907
0001f0 cc 1d 7d bc f1 eb 72 3c 3b 14 59 3d 31 19 ca bd
       -0.015448999 0.014826761 0.05299781 -0.09868086
000200 86 55 02 3d e0 da 17 bc e8 9e 03 bc 42 d2 12 bd
       0.031819843 -0.009268492 -0.008033492 -0.03584505
000210 58 97 40 3d 7c 4d 84 be 64 13 06 bc 08 79 ea 3d
       0.047019333 -0.25840366 -0.008183334 0.11448866
000220 31 be 1c be 11 95 c6 bc 90 41 29 bd f2 35 3d 3d
       -0.15306927 -0.024241002 -0.04132229 0.046194024
000230 4e fd 9c ba e2 a8 b2 be 9e b2 2c 3e 00 bf a9 bc
       -0.0011977346 -0.34894472 0.16865012 -0.020720959
000240 9c 43 ee 3b 6a 91 86 bc 00 79 88 39 bd 16 75 3d
       0.0072712433 -0.01642676 0.00026030093 0.059836138
000250 e1 60 0c bd f6 db 67 be bc bc bc 3c 03 18 cd 3d
       -0.03427208 -0.22642502 0.023039214 0.100143455
000260 a8 6c 9c bb 71 03 29 bd d3 bf b1 3e d6 be a1 bc
       -0.004773695 -0.041263048 0.34716663 -0.019744318
000270 20 a8 b9 3c 3f 1b 57 3d 58 cc c8 3e a0 59 22 3d
       0.022663176 0.05251622 0.39218402 0.039636254
000280 4d 8d fd 3c 91 57 2b 3d 05 14 9e bd 69 4a 7b 3e
       0.030951167 0.041831557 -0.07718662 0.24540104
000290 ca cf 4a 3e c4 36 d9 3c d8 a2 85 be eb e9 b8 3e
       0.19805828 0.026515372 -0.26100802 0.36115965
0002a0 ab 6c 3f bd da 28 b1 3e 51 69 b3 3c fc 7b 92 3e
       -0.046734493 0.3460148 0.021900805 0.28610218
0002b0 36 85 15 3d db 21 b0 3e ce 75 4f 3d 94 7a 04 3a
       0.036503993 0.3440083 0.050649457 0.0005053666
0002c0 9f a4 3f bd 1c 90 85 be a6 38 8a be d8 88 04 3e
       -0.046787854 -0.2608651 -0.26996344 0.12942827
0002d0 8e 12 44 3d a2 ef 31 3d f3 62 39 be 09 ba bb 3d
       0.047869258 0.043441422 -0.18104152 0.09166343
0002e0 07 a6 6d 3e f9 c8 48 3c f6 29 11 3e 29 4d ad 3e
       0.23207866 0.012254947 0.14176163 0.3384793
0002f0 38 a5 14 3c 9b cb c8 3e 99 c0 21 bd 51 9a 79 be
       0.009072594 0.3921784 -0.039490316 -0.24375273
000300 4f e2 65 bd 35 56 67 be be d7 8c bd 61 40 0d bd
       -0.056124028 -0.22591479 -0.06877087 -0.034485225
000310 7f 51 03 3e 70 73 da bc d6 d2 a5 3c 88 9d 10 3c
       0.12824057 -0.026666373 0.020242136 0.008826621
000320 f8 bc af 3d 8b 5a 15 be 68 d1 8b bd 62 83 18 3c
       0.08580965 -0.1458532 -0.068270504 0.009308668
000330 11 e6 35 be 41 2e 48 bb 3b db ba bd 7a 21 63 be
       -0.17763545 -0.0030545148 -0.09123846 -0.22180739
000340 94 1c 01 bd 66 ef 0b 3c 69 3f c5 be 9a fc f1 3d
       -0.031521395 0.008540964 -0.3852494 0.11815758
000350 9c 57 eb 3d 40 99 94 3e f2 09 52 be ec ba 29 3c
       0.114913195 0.2902317 -0.20511606 0.010359507
000360 98 e2 b9 3b bb 4e 2c 3d 90 59 60 3c f4 b8 60 bc
       0.005672764 0.04206727 0.013693228 -0.013715971
000370 bd 00 da 3b 6d 65 69 3e 2b a3 07 3e 4f 09 ce bc
       0.00665292 0.22792597 0.13245837 -0.025150923
000380 8b 4c 32 bd 30 ae 45 bc 07 d5 1e 3e 7a 55 1f bd
       -0.04353003 -0.012065455 0.15510951 -0.038899876
000390 f1 bc 96 3c 54 b3 86 be e6 c5 f1 bc f6 e5 3f bd
       0.018400641 -0.26308692 -0.02951331 -0.046850167
0003a0 96 dd a4 bd 87 3f c0 3e 2d 57 46 3d c8 99 3c 3e
       -0.08050077 0.37548468 0.04842298 0.18418038
0003b0 1e 5c 78 bd 0f bb b7 3e ed 86 8a 3c 7e 4a c3 3e
       -0.060634725 0.35884902 0.01691004 0.3814277
0003c0 3c 8f a3 3e 1e 90 a9 be 08 18 3d 3e 7c d6 10 3d
       0.31945217 -0.33117765 0.18466198 0.0353608
0003d0 4d e9 5a 3d bd 69 47 bd 9e 36 7e bc 80 3c f6 bd
       0.05344515 -0.048684824 -0.015515951 -0.12023258
0003e0 0d 53 39 bd 93 b1 50 be 1a 3c 58 bd f0 f9 38 be
       -0.04524522 -0.20380239 -0.052791692 -0.18064094
0003f0 ce 47 dd bb 57 61 a8 bc 86 88 51 3e ca d8 bd 3d
       -0.0067529446 -0.020554228 0.20462236 0.09269865

critic.weight f4 [1, 256]
000000 a8 69 01 bd 29 7b 0d bd 4f 96 1d be 4f 64 31 3d
       -0.031594902 -0.034541283 -0.1538937 0.043308552
000010 33 82 e1 3b 56 2a 39 3c 77 2d a8 bc b1 0c 09 3d
       0.006881976 0.011301598 -0.020529492 0.03345937
000020 20 ae c9 bc 59 49 7c 3d 4b 37 d3 bc ee da c5 bc
       -0.024619162 0.061593387 -0.025783202 -0.024152245
000030 60 f3 d2 3b 0f 92 88 bc 4e 54 cb 3b 40 70 f8 ba
       0.006437704 -0.016671209 0.0062051183 -0.0018954352
000040 5d 7d c9 3b 9b 7b 48 bd a0 5d 92 3d b0 b0 86 bb
       0.0061489777 -0.048946004 0.07146764 -0.0041104183
000050 82 51 6b be cc 01 fb 3c b7 de b8 3b 70 06 23 bd
       -0.22980312 0.030640505 0.005641784 -0.03980106
000060 39 c7 55 3b 68 c4 2e bc e2 10 28 3d 79 51 0a bd
       0.0032619967 -0.010666944 0.041031726 -0.033769105
000070 54 44 12 3b 27 a9 06 3c 94 63 7e bc 74 d2 de 3c
       0.0022318559 0.00821904 -0.015526671 0.027199961
000080 90 c2 2f 3c e0 6b ae 3d 32 04 ec bb 02 5e 0b 3c
       0.01072754 0.08516669 -0.0072026486 0.0085063
000090 1b b1 d5 3b 01 24 67 bd b2 02 59 3d 6a e3 7c 3d
       0.0065213568 -0.05643082 0.052981086 0.061740316
0000a0 10 a2 f6 3c 1e 58 87 bb 80 69 d9 3b 93 71 33 3d
       0.030106574 -0.0041303774 0.006634891 0.043809485
0000b0 6e a7 80 3c 3c 8a 02 3c 2a 78 68 3d c8 5d 2a ba
       0.015704837 0.007967528 0.056755222 -0.000649896
0000c0 98 cf 16 3d 17 7c 4c bd fc 39 bd 3c f9 02 2a 3d
       0.03681907 -0.04992303 0.023098938 0.04150674
0000d0 2e e3 a9 3b ea 15 83 3b 84 1f b2 3b 0f ba 4f bc
       0.0051845526 0.004000415 0.005435886 -0.012678637
0000e0 d9 3d c9 bb 31 2a de ba d4 6d 16 3d 2e ab ab bc
       -0.006141406 -0.001694983 0.036725834 -0.020955648
0000f0 21 69 07 3d b2 f9 3c 3d 1b 54 04 3c 95 c9 40 3d
       0.033059243 0.046136566 0.008076693 0.047067244
000100 15 46 4f 3e 84 19 0e 3a 59 11 0f 3d 3f 00 80 3c
       0.20241578 0.0005420672 0.034928653 0.015625117
000110 1a 43 04 bd 97 06 be 3b 74 84 01 3d 96 9b e4 3c
       -0.032290556 0.0057991254 0.031620458 0.02790622
000120 65 f3 0e 3c b3 4b c5 bc c4 6a 5d 3d fa 92 a8 3c
       0.008725022 -0.024083948 0.054056898 0.020577896
000130 15 22 16 bd c1 c0 e3 bd 32 f9 2e bd 54 9c 0b 3d
       -0.036653597 -0.11120749 -0.04271812 0.034084633
000140 13 09 04 3c 60 2f 75 3d 18 fb dd 3d 09 a0 6c 39
       0.008058804 0.059859633 0.10838908 0.00022566332
000150 df 86 5c 3d 19 15 58 bd c0 6a c8 3a d6 bd 4e 3d
       0.05383956 -0.052754495 0.0015290603 0.05047401
000160 3f 80 2c 3d 6f ec d9 3b 1c 2d 22 3d a4 30 ab 3d
       0.042114493 0.0066504995 0.0395938 0.08358887
000170 27 c6 2d 3d d4 74 8b bd f1 d7 a7 bb 08 7e 03 3c
       0.0424253 -0.068093926 -0.005122178 0.008025654
000180 66 73 52 3d 58 40 e4 3c 3b 7b 80 3c 04 88 46 3d
       0.051379584 0.027862713 0.01568376 0.04846956
000190 a7 9a 5d bc c6 a8 fb bc 0c 2a eb bc 8f a1 1b bd
       -0.0135256415 -0.030720126 -0.028706573 -0.03799587
0001a0 dd 82 c7 3b 2a 4b 7c 3d 3f 32 e3 bd 1f 25 3a bd
       0.006088598 0.06159512 -0.11093568 -0.045445558
0001b0 43 2f 39 3d 64 04 61 bd a0 d0 4c 3d 1e 7a bd b8
       0.045211088 -0.054935828 0.050003648 -9.0349684e-05
0001c0 39 dc a2 bc f6 63 1e bd 30 ae af bc c3 4a 9d 3b
       -0.019880401 -0.03866955 -0.021445364 0.004800172
0001d0 92 5b a6 3c 07 5a 18 bd bc 52 88 3d e8 4f 02 bd
       0.020307336 -0.03719523 0.06656405 -0.031814486
0001e0 c2 ab eb bc c3 54 32 3d 50 b0 8a bc fb 3d 34 3d
       -0.028768424 0.043537866 -0.016929775 0.04400442
0001f0 fd ac 11 bb 7e 8c d0 3d 8b 6a 6f bc f9 88 74 3d
       -0.0022228353 0.10183047 -0.014612804 0.05970094
000200 90 3b 87 3c 36 0c 2b 3d 19 94 8f 3c e0 87 1b 3c
       0.016507894 0.041759692 0.017526673 0.009492844
000210 ee 14 59 3d c1 4c 92 3b e3 58 03 3d c0 81 8d 3d
       0.052998476 0.004464716 0.03206719 0.069095135
000220 21 5e 5a 3d 4c cf 53 bd e4 a0 8e bc c8 3b c4 bc
       0.053312425 -0.051711366 -0.017410703 -0.023954287
000230 f0 8c 00 bb 00 ec 0f 3c d1 75 69 3d 73 92 42 3d
       -0.0019615255 0.008784294 0.056997124 0.047502946
000240 5a 3a c3 bc 73 6b c5 3b 56 4e 1a bd 59 c4 57 3d
       -0.023831535 0.006024772 -0.037672363 0.052677486
000250 59 f6 f4 bb 42 42 d9 3c aa da a2 3a 86 e1 88 bd
       -0.007475656 0.026520852 0.0012424786 -0.0668364
000260 a3 dc 90 3b 64 dc c1 3b ab 54 e5 3b 5b 61 9f 3d
       0.004420833 0.005916165 0.0069986186 0.07782241
000270 ec 37 50 3d 4f da a2 3c d1 ad ec 3b 31 fc 4a 3d
       0.05083458 0.019879488 0.007222869 0.049556915
000280 74 b7 c1 bc b2 d9 7b 3d c5 a8 be 3d a4 51 03 3c
       -0.023647048 0.061486907 0.09309534 0.00801507
000290 c6 0f e1 3c 38 1f 44 3d 12 8f c9 bb 19 b3 d6 3b
       0.027473342 0.047881335 -0.0061510885 0.006552112
0002a0 70 b0 14 bd e7 c2 22 3c 9f 54 bd bc e9 77 fc 3b
       -0.036301076 0.009934164 -0.02311164 0.007704724
0002b0 cd a2 7a 3d 5a 9e ca 3b 80 24 49 3c 2d 24 54 3c
       0.061190415 0.0061834278 0.012276769 0.012948078
0002c0 ad 3d 01 bc 9c aa 18 3c 28 ee 38 bb e2 a9 b1 3c
       -0.00788824 0.00931802 -0.0028218124 0.021687452
0002d0 08 4d c5 3c 15 98 c9 bb 7f 18 6f 3a ae 9a a1 bd
       0.024084583 -0.006152163 0.00091207767 -0.07890831
0002e0 bd 5c ae bd 4e ec 5d 3d da 1e 32 3d 49 38 df 3b
       -0.08513782 0.054180436 0.043486454 0.0068121296
0002f0 48 2f f2 3c 31 3d 20 3c c4 f1 ba bc aa c1 34 ba
       0.029563561 0.009780214 -0.022820361 -0.0006895313
000300 b6 9e fa 3a fb e0 c8 3a 4f d8 42 3c 43 b3 80 3d
       0.0019120786 0.0015325838 0.011892392 0.062841915
000310 91 a2 7a 3d 96 31 70 3d dd f4 07 bd 14 33 21 bd
       0.06119019 0.05864104 -0.033192504 -0.039355353
000320 16 ab 8f 3d b5 75 95 3d 24 af 71 3c 0a aa 6f bc
       0.07015054 0.072978415 0.014751229 -0.014627943
000330 29 4b 62 3c 75 f8 8d bb cf 95 17 be 94 23 fe 3c
       0.013811865 -0.004332597 -0.14803241 0.031022824
000340 93 d7 02 bd 0e 11 97 3d 15 af 11 3c b0 d0 4a be
       -0.03194387 0.073763 0.00889184 -0.1980617
000350 91 49 05 3d 13 93 23 3c 87 b9 2e 3c 9e f8 ff ba
       0.03254086 0.009983796 0.01066435 -0.001952905
000360 5e b8 99 3c ff 29 22 3d 89 bc 5c bd fe 60 5c bd
       0.018764671 0.03959083 -0.05389074 -0.053803436
000370 31 14 56 3d 5d d0 55 3c 21 32 7a 3d 88 4f 69 3d
       0.05226535 0.013050166 0.061082963 0.056960613
000380 cc 7a 8a bc 78 51 73 3d f0 03 4d 3d b8 57 69 bc
       -0.016904257 0.059403867 0.050052583 -0.014242105
000390 d7 e8 14 bc 8d 31 4d 3a 83 67 67 bb 6d 87 9e 39
       -0.0090887165 0.0007827513 -0.00353095 0.00030237008
0003a0 01 5a 81 bd a3 77 ba 3b 07 3b 7a 3c fa 23 29 3d
       -0.06315995 0.0056905313 0.015272862 0.041294076
0003b0 eb b0 e8 bc 28 41 27 3c d4 1d 1c 3d 54 da 04 3c
       -0.028404674 0.010208406 0.038114384 0.008108694
0003c0 91 aa f2 3b 53 43 e5 b9 97 bc 2e 3d 30 39 36 bc
       0.007405587 -0.00043728444 0.042660322 -0.011122033
0003d0 12 42 4f bd 9d 17 64 bc 0c d9 36 3d d6 fa 9b 3d
       -0.05060012 -0.0139216455 0.044640586 0.076162025
0003e0 45 42 ef bc 37 a2 38 3c 7c ae 0c bd fd 98 b4 3c
       -0.029206404 0.011269144 -0.03434609 0.022045607
0003f0 60 58 24 bc 5a 60 12 3d 0f f9 c0 3c 55 ef 18 3d
       -0.010030836 0.03573642 0.02355626 0.03733762
