models1/ppo_150.pth (torch, 275264 bytes, 6 tensors)

net.0.weight f4 [256, 6]
0	0xbeab058c	-0.3340267
1	0xbebdd9b1	-0.37080148
2	0x3e5218a1	0.20517208
3	0x3ed7cdca	0.42149192
4	0xbdcbb3ac	-0.09946379
5	0xbeab6e36	-0.33482522
6	0xbd322e55	-0.043501217
7	0xbd0a0c9a	-0.033703424
8	0x3ecf9de7	0.40550157
9	0xbea62d48	-0.32456422
10	0xbdd6be74	-0.10485545
11	0x3eee1b48	0.4650519
12	0xbe1520bc	-0.14563268
13	0x3ed7cac3	0.42146882
14	0x3d01f234	0.031725124
15	0xbee17dac	-0.44041193
16	0xbe247eb7	-0.16063963
17	0xbd84f088	-0.0649119
18	0xbe99b6d8	-0.3002231
19	0x3e87b16a	0.26502544
20	0x3e255c69	0.16148533
21	0xbc9d0b66	-0.019170474
22	0xbdd9b28d	-0.10629759
23	0x3ec74474	0.38919413
24	0x3e9b13c3	0.30288514
25	0xbd779d78	-0.06045291
26	0xbeeacca6	-0.4585926
27	0x3e69d461	0.22834922
28	0x3e54bfe8	0.20776331
29	0xbe2d477b	-0.16921799
30	0x3e356cae	0.1771724
31	0x3ce39ffa	0.027786244
32	0x3ebc44cf	0.36771247
33	0x3d008ea8	0.031386048
34	0xbe9ac024	-0.30224717
35	0x3e41aadf	0.18912838
36	0x3d9fa4e3	0.077951215
37	0x3e488f05	0.19585808
38	0x3eac16bc	0.33611095
39	0x3e811629	0.2521222
40	0x3dc35f15	0.0953962
41	0xbebdc4c8	-0.37064195
42	0xbe9e1455	-0.30874887
43	0xbe95df82	-0.29272085
44	0x3e034643	0.12819771
45	0x3e79f49c	0.24409717
46	0xbe093e26	-0.13402614
47	0x3ea6bf72	0.32567936
48	0xbdc4dc53	-0.09612336
49	0xbe3817f0	-0.17977881
50	0x3eb40761	0.3516188
51	0x3d38a07e	0.045074932
52	0x3e6e8cd2	0.23295906
53	0xbe7120d5	-0.2354768
54	0x3e8566b2	0.26054913
55	0x3e81ae37	0.25328228
56	0x3ee7fa18	0.45307994
57	0xbedddfd3	-0.43334827
58	0xbe85570d	-0.26042977
59	0x3e7b16c4	0.24520403
60	0x3ac62c8c	0.0015119477
61	0xbe8be853	-0.27325687
62	0xbec56097	-0.38550255
63	0xbea75d90	-0.3268857
64	0xbe335e9c	-0.1751656
65	0xbe0e6683	-0.13906293
66	0x3d236c2a	0.039898075
67	0xbe817e5e	-0.25291723
68	0xbe5a2fdb	-0.21307318
69	0x3e8bbd50	0.2729287
70	0xbdd77562	-0.10520436
71	0xbdff15de	-0.12455343
72	0xbda1bc6d	-0.078972675
73	0x3e1fe497	0.15614544
74	0xbd155d48	-0.036465913
75	0x3e960c09	0.29306057
76	0xbeadd130	-0.3394866
77	0xbc866f8e	-0.016410615
78	0x3d70097c	0.058602795
79	0x3e60c105	0.21948631
80	0x3e032cfd	0.1281013
81	0x3e54e3a5	0.20789964
82	0xbd96733f	-0.073462
83	0xbed3c407	-0.41360494
84	0x3ec2591f	0.3795862
85	0x3e5425fb	0.20717613
86	0xbe9093ba	-0.28237706
87	0xbbc3e56e	-0.005978278
88	0xbeab620d	-0.33473244
89	0x3ea760a4	0.32690918
90	0x3e4fc8ad	0.20291395
91	0xbe6a8622	-0.2290273
92	0xbdd89097	-0.10574453
93	0xbed31c40	-0.4123249
94	0xbebd2238	-0.3694017
95	0x3e12a029	0.14318909
96	0x3e53b295	0.20673592
97	0x3e853c3b	0.26022515
98	0x3ec8ec71	0.3924289
99	0xbda62dd8	-0.08114213
100	0xbd9b8675	-0.07594005
101	0xbe91d744	-0.28484547
102	0xbeaa2523	-0.33231458
103	0xbd928ad7	-0.07155388
104	0xbd956cda	-0.072961524
105	0xbe98bf9c	-0.29833686
106	0xbd3eadfa	-0.046552636
107	0x3e814d18	0.2525413
108	0xbeccbae0	-0.39986324
109	0x3e846fc9	0.25866535
110	0xbef54272	-0.47902256
111	0xbeaaa506	-0.33329028
112	0xbde35fd1	-0.1110226
113	0x3e8cb33d	0.27480498
114	0x3e5173bf	0.2045431
115	0x3e82ce09	0.25547817
116	0xbe0d9c7c	-0.13829225
117	0x3ecf28ce	0.4046082
118	0xbe228719	-0.15871848
119	0xbe38bfcf	-0.18041919
120	0xbe10ee4f	-0.14153408
121	0x3dd596ba	0.104291394
122	0xbbcc8ca7	-0.006242353
123	0x3e97dedc	0.29662216
124	0x3e4e3c19	0.20140113
125	0x3eb8e7d4	0.3611437
126	0x3ea26fab	0.3172582
127	0x3e46aa19	0.19400825
128	0xbe0a72ce	-0.13520357
129	0xbd1ba4f3	-0.037999105
130	0x3bd0bbdb	0.0063700504
131	0xbe7b547d	-0.24543948
132	0xbe9a48a1	-0.30133536
133	0x3d9828df	0.074296705
134	0x3e9eecd9	0.31040075
135	0xbecd875c	-0.40142334
136	0xbe078d4e	-0.13237497
137	0x3ee8c072	0.45459324
138	0x3e7704d2	0.24122933
139	0xbd736bb3	-0.05942888
140	0xbdcf8805	-0.101333655
141	0xbcfe9ce1	-0.031080665
142	0x3dd79352	0.10526146
143	0x3de4d000	0.11172485
144	0xbc9a5deb	-0.018843612
145	0x3ea082ab	0.31349692
146	0xbc1dc47e	-0.009629367
147	0x3c34ba8b	0.011030803
148	0x3e8dce82	0.27696615
149	0xbec1ccfe	-0.3785171
150	0xbe6d6dae	-0.2318637
151	0x3ea56c3b	0.32309136
152	0xbec16ba9	-0.3777745
153	0x3f0d9eca	0.5532042
154	0x3d808bca	0.06276663
155	0xbe68479a	-0.22683564
156	0x3e86b3cb	0.26309046
157	0x3e16221b	0.14661448
158	0xbe571ad0	-0.21006322
159	0x3e055596	0.1302093
160	0x3d621a49	0.05520085
161	0xbe207da6	-0.15672931
162	0x3df4957b	0.11942574
163	0xbdac71ba	-0.08420129
164	0x3f0c4130	0.5478697
165	0xbef36e73	-0.47545204
166	0x3d56486a	0.052315153
167	0xbeae3e05	-0.34031692
168	0x3ebbfa9d	0.3671464
169	0xbeb2da32	-0.34932095
170	0x3e8385b0	0.25687933
171	0x3ec725b4	0.38895953
172	0xbe1e666e	-0.15468761
173	0xbdb8f5b4	-0.09031239
174	0xbe3aff5a	-0.18261471
175	0x3e0549e5	0.1301647
176	0x3dfb3e28	0.12267715
177	0xbe91f63e	-0.2850818
178	0xbe991fb6	-0.29907006
179	0x3d64677b	0.05576275
180	0xbe1174cc	-0.1420471
181	0xbe83d372	-0.25747257
182	0xbeafe118	-0.3435142
183	0x3ea40c66	0.3204071
184	0x3eb6f9c2	0.35737425
185	0x3e93fd18	0.28904033
186	0x3d69c553	0.05707295
187	0xbde950e1	-0.113923796
188	0xbf0e8c05	-0.556824
189	0x3e035e00	0.12828827
190	0x3db82e40	0.089931965
191	0xbdefbb8e	-0.11705695
192	0xbe5ca6f3	-0.21548061
193	0xbd94f3f2	-0.072730914
194	0xbe0d97b0	-0.13827395
195	0x3eb08a15	0.34480348
196	0xbe26c8fd	-0.16287608
197	0x3dc264b3	0.09491863
198	0xbd95643e	-0.0729451
199	0x3e8360ab	0.2565969
200	0xbdb4202f	-0.08795201
201	0xbcb1cac9	-0.02170314
202	0x3e2103dd	0.1572413
203	0x3dd6a8ac	0.1048139
204	0xbe9b8d28	-0.3038113
205	0x3e8d4979	0.27595118
206	0xbe1426da	-0.14467946
207	0x3ed083fb	0.40725693
208	0xbeab958a	-0.33512527
209	0x3df0995b	0.11748
210	0xbe8287ac	-0.25494134
211	0x3e01e7b4	0.12686044
212	0x3ec39006	0.3819582
213	0x3e9a0565	0.3008224
214	0xbdeeeba0	-0.11666036
215	0x3bee410b	0.0072709373
216	0x3e754a74	0.23954183
217	0x3e945b3b	0.28975853
218	0x3e90c22f	0.2827315
219	0xbe942d96	-0.2894103
220	0xbe9291f5	-0.2862698
221	0xbe85c5dc	-0.26127517
222	0xbe7806ab	-0.24221294
223	0xbe6bb6e8	-0.23018992
224	0x3ecf4c49	0.40487888
225	0xbe4e5ef5	-0.2015341
226	0xbe47a6c7	-0.19497214
227	0xbe3d2fbd	-0.18475242
228	0xbc95ee33	-0.018302059
229	0x3e5fffd7	0.21874939
230	0xbea43a3b	-0.32075676
231	0x3e978fea	0.29601985
232	0xbe83e9ca	-0.25764304
233	0x3cc5db6c	0.02415248
234	0xbe5f52eb	-0.21808974
235	0xbdacce68	-0.08437806
236	0x3d43d122	0.047806866
237	0x3e3f26f6	0.18667206
238	0xbe18b9c7	-0.14914618
239	0x3ee95d54	0.45579016
240	0x3e6c41c8	0.23071969
241	0xbec501f8	-0.38478065
242	0xbd5846fe	-0.05280208
243	0xbe7200ff	-0.23633192
244	0x3e1447fc	0.14480585
245	0xbec97271	-0.39345124
246	0xbeae0270	-0.33986235
247	0xbec25a49	-0.37959507
248	0x3e650428	0.22364867
249	0x3ebd3b6b	0.36959395
250	0xbd831df4	-0.064021975
251	0x3de13ad8	0.10997552
252	0x3e95eca2	0.292821
253	0xbeac33e2	-0.33633333
254	0x3e445548	0.19173157
255	0xbeeea966	-0.46613616

net.0.bias f4 [256]
0	0xbe55f656	-0.20894751
1	0x3c291b64	0.010321472
2	0xbea9a93a	-0.33136922
3	0xbeb55fce	-0.35424656
4	0x3ecee9c8	0.40412736
5	0xbeae794a	-0.3407691
6	0xbeb950dc	-0.36194503
7	0xbe6c18ad	-0.23056288
8	0x3e1bfba4	0.15232712
9	0x3d84210e	0.06451617
10	0x3dfab829	0.12242157
11	0xbe65dab1	-0.22446705
12	0xbcba81d4	-0.022766985
13	0xbe5cba60	-0.21555471
14	0xbeb36d28	-0.35044217
15	0x3e94d793	0.2907072
16	0x3ec0a5c4	0.3762647
17	0x3e38b8fa	0.18039313
18	0xbd840267	-0.06445771
19	0x3eb9bfdc	0.3627919
20	0xbe66e5c2	-0.22548583
21	0xbeaddd9d	-0.3395814
22	0x3dbcddf1	0.092220195
23	0x3ec12e51	0.3773065
24	0x3eb0d0a0	0.34534168
25	0x3e225995	0.15854485
26	0x3e7339b6	0.23752484
27	0x3e5b434e	0.21412393
28	0x3dceaa91	0.10091127
29	0xbc74689c	-0.014917519
30	0x3ea3d454	0.3199793
31	0x3e67b467	0.22627412
32	0x3e178a92	0.14798954
33	0xbea73989	-0.32661083
34	0xbdf99191	-0.12185968
35	0x3d8978cd	0.06712494
36	0xbeb09bf7	-0.34493992
37	0x3ec941cc	0.39308012
38	0x3e696bef	0.2279508
39	0xbe4e9e09	-0.20177473
40	0xbe5aa605	-0.21352394
41	0x3dce2863	0.10066297
42	0x3e795fdc	0.24352974
43	0xbe2b82f2	-0.1674917
44	0xbd90bc93	-0.07067218
45	0x3e6f5bc4	0.2337485
46	0x3e537a63	0.20652156
47	0xbed5f163	-0.41785726
48	0x3cbffec8	0.023436919
49	0x3e7a45b3	0.2444065
50	0xbeaef262	-0.34169298
51	0x3e8617a3	0.26189908
52	0xbd47e52f	-0.04880255
53	0xbe0830ad	-0.13299818
54	0xbe8e8b69	-0.27840737
55	0x3e59f2ec	0.21284074
56	0xbe7c1809	-0.24618544
57	0x3e80481f	0.25055024
58	0x3d6d26fa	0.0578985
59	0xbdcc2cfb	-0.09969517
60	0xbda73405	-0.08164219
61	0x3e3d7ed1	0.18505408
62	0x3db4a6a9	0.088208504
63	0x3e209bd4	0.15684444
64	0x3df4586d	0.119309284
65	0x3e2d8530	0.16945338
66	0xbe1bd2bd	-0.15217109
67	0x3e59c84b	0.21267812
68	0x3e36adaf	0.17839693
69	0x3e77fddd	0.24217935
70	0x3e231a1d	0.1592793
71	0xbe5b65cd	-0.21425553
72	0x3e85cd4d	0.26133195
73	0xbec4c615	-0.38432375
74	0xbeb9473a	-0.36187154
75	0xbda1e192	-0.07904352
76	0x3e8b12f9	0.27162912
77	0xbe916c21	-0.28402808
78	0x3e568df3	0.20952587
79	0xbe29b7a8	-0.16573966
80	0xbd7a205c	-0.061066017
81	0xbb81ee90	-0.0039652064
82	0x3b8838c2	0.0041571567
83	0xbc4a9723	-0.012365135
84	0xbdf3ac13	-0.11898055
85	0x3d41bcbb	0.047299128
86	0x3e99c5aa	0.30033618
87	0x3ebc5b45	0.36788383
88	0x3d4e4a2c	0.050363705
89	0x3ea3fb70	0.3202777
90	0xbd2c5c8b	-0.042080443
91	0x3e39745f	0.18110798
92	0x3e850d44	0.25986683
93	0x3d0947ab	0.033515614
94	0x3e857364	0.260646
95	0x3eb50a0d	0.3535923
96	0xbea9f0d9	-0.33191565
97	0xbe3599e7	-0.1773449
98	0xbea274fb	-0.31729874
99	0x3d5bcd20	0.05366242
100	0x3d38465a	0.044988967
101	0xbe5eeca3	-0.21769957
102	0x3e3c304f	0.18377803
103	0x3e902185	0.28150573
104	0x3e33f1a4	0.17572647
105	0xbe822e51	-0.25425962
106	0x3d12ff57	0.035888042
107	0x3e456e5f	0.19280384
108	0xbed1aeb0	-0.40953588
109	0x3e8a872b	0.2705625
110	0x3d850a43	0.06496098
111	0x3ecf1a88	0.4044993
112	0x3eab5394	0.33462203
113	0xbd662ef1	-0.05619711
114	0xbdba08f0	-0.09083736
115	0xbe907f12	-0.28221947
116	0xbdbfeb8d	-0.093710996
117	0xbe9c6d8b	-0.30552325
118	0x3ec4b9ec	0.38423097
119	0xbe7c9060	-0.2466445
120	0xbea2d289	-0.3180125
121	0xbc77f81c	-0.0151348375
122	0x3ddf27bd	0.10896251
123	0x3e12f3f2	0.1435087
124	0x3e9ed945	0.31025138
125	0xbe6ff0af	-0.23431657
126	0x3ebea3f7	0.3723447
127	0xbeb85897	-0.3600509
128	0x3ec44c3a	0.38339406
129	0xbded5883	-0.11589148
130	0x3cd27ebd	0.0256952
131	0x3e581001	0.21099855
132	0x3e7d5017	0.24737583
133	0xbe65897a	-0.22415724
134	0xbddcbbd1	-0.10778011
135	0x3e1abf36	0.15112004
136	0x3da84482	0.08216192
137	0xbd8d4e66	-0.06899719
138	0xbd28ec91	-0.041241232
139	0x3e376e10	0.1791308
140	0x3e9e4aa9	0.30916336
141	0x3e9cb266	0.30604857
142	0x3e436bb4	0.19084054
143	0xbda7ccf6	-0.0819339
144	0x3eccdafd	0.40010825
145	0x3e91f630	0.2850814
146	0xbeaeb4fb	-0.34122452
147	0xbd30293f	-0.043008085
148	0x3ea19420	0.31558323
149	0x3e4ecccc	0.20195311
150	0x3d4e6a29	0.05039421
151	0xbe9fc87f	-0.31207654
152	0xbceb6102	-0.02873278
153	0x3e9ba124	0.30396378
154	0x3e621acb	0.22080533
155	0xbe8335a6	-0.25626868
156	0xbe786c59	-0.24260081
157	0x3b88cefb	0.0041750646
158	0xbe6bda35	-0.23032458
159	0x3e200c00	0.15629578
160	0xbeb705b5	-0.35746542
161	0xbe1e2d17	-0.15446888
162	0xbdba17f1	-0.09086598
163	0xbcbefb50	-0.023313195
164	0x3d76d0e0	0.060257792
165	0xbe9e5668	-0.30925298
166	0x3e97f37c	0.2967795
167	0x3ea1adf8	0.3157804
168	0x3ec94640	0.3931141
169	0xbea80316	-0.32814854
170	0xbe87031a	-0.26369554
171	0xbeb839bd	-0.3598155
172	0xbe3107e5	-0.17288168
173	0xbe9f4c2f	-0.3111281
174	0xbcc688c0	-0.02423513
175	0x3ebf0724	0.37310135
176	0x3e663ad1	0.22483374
177	0xbe062517	-0.13100086
178	0x3e96d67f	0.29460523
179	0xbd8e9838	-0.06962627
180	0xbea87381	-0.32900622
181	0xbe5316d9	-0.20614184
182	0xbece9374	-0.40346873
183	0xbdc448f5	-0.09584228
184	0xbecb42d2	-0.39699417
185	0x3d8b9507	0.06815534
186	0x3eaf5026	0.34240836
187	0xbdc6b5e5	-0.097026624
188	0xbda9f104	-0.08297923
189	0xbe87cce0	-0.26523495
190	0x3d8d79db	0.06908008
191	0x3d1eca2a	0.038767017
192	0xbd8db9a1	-0.069201715
193	0x3ec7c661	0.3901854
194	0xbe532e3e	-0.20623109
195	0xbe172c46	-0.14762983
196	0xbe0e0481	-0.13868906
197	0xbcae07c9	-0.021243947
198	0xbdc72393	-0.09723582
199	0xbea0d954	-0.31415808
200	0x3d46050b	0.048344653
201	0x3e5bc636	0.2146233
202	0x3e9e15da	0.30876046
203	0x3c9ad28e	0.018899228
204	0x3e65cf7e	0.22442433
205	0xbdb5d788	-0.08879
206	0x3e6d918d	0.23200054
207	0x3c60b4fc	0.013715025
208	0x3eada19d	0.33912364
209	0x3e5fa03a	0.21838465
210	0x3d090ea5	0.03346123
211	0x3dae33a3	0.08505943
212	0x3ec342f8	0.3813703
213	0xbeaf1aca	-0.34200126
214	0xbc69cfdd	-0.01427075
215	0xbe1a87fa	-0.15090933
216	0xbe40f2e2	-0.18842652
217	0xbe7aa0c1	-0.24475385
218	0xbed27670	-0.41105986
219	0x3ea869dd	0.32893267
220	0x3df85000	0.12124634
221	0xbe98eb8e	-0.29867214
222	0x3e875ede	0.26439565
223	0xbea62492	-0.32449776
224	0xbe3f0f50	-0.18658185
225	0x3e522fa7	0.2052599
226	0xbc817c1f	-0.015806256
227	0x3e885285	0.26625457
228	0x3e4bc506	0.19899377
229	0xbe5bdb99	-0.21470489
230	0x3bd7cd6b	0.006585767
231	0x3dedfc84	0.11620429
232	0xbd697de4	-0.057004824
233	0x3ba946d4	0.005165914
234	0xbeb32c16	-0.34994572
235	0xbbc5f274	-0.0060408656
236	0x3e9aa2a3	0.30202207
237	0xbe61e40d	-0.2205965
238	0x3ece8af0	0.40340376
239	0x3ea0ae51	0.31382993
240	0xbca633ec	-0.02028843
241	0x3e0c4ab0	0.13700366
242	0x3de7af42	0.11312725
243	0xbe1e6aa4	-0.15470368
244	0x3ea1bf8b	0.31591448
245	0xbe371497	-0.17878948
246	0xbc8ddeb0	-0.0173181
247	0x3e4f8a22	0.20267537
248	0xbdeff49b	-0.11716577
249	0x3eae4551	0.3403726
250	0xbecfb8c7	-0.4057066
251	0xbd6cbab9	-0.05779526
252	0x3e07c0c9	0.13257135
253	0xbb814def	-0.003946058
254	0x3e7ee228	0.2489096
255	0xbd628856	-0.0553058

net.2.weight f4 [256, 256]
0	0xbd5eecb6	-0.054424964
1	0xb8fc1d07	-0.00012021703
2	0xbd715db2	-0.058927245
3	0xbcff767c	-0.031184427
4	0x3d02a970	0.03189987
5	0xbc7aed03	-0.015315297
6	0x3c09f872	0.00842105
7	0xbbf2e859	-0.007412952
8	0xba658e41	-0.0008756854
9	0x3c8ed939	0.017437564
10	0xbd30c516	-0.043156706
11	0x3cc50c78	0.024053797
12	0xbb70007c	-0.0036621382
13	0xbd57733c	-0.05260013
14	0x3d52e020	0.051483274
15	0x3d064628	0.03278175
16	0x3d4566d6	0.048193775
17	0xbd08dd18	-0.033413976
18	0x3cc44a70	0.023961276
19	0xbd24aea3	-0.04020561
20	0xbd22cb04	-0.039744392
21	0xbcd0b530	-0.025477022
22	0x3cc6aa5f	0.024251161
23	0xbcc40c71	-0.023931714
24	0xbcab70d6	-0.020927828
25	0xbc4cb73e	-0.01249486
26	0xbd4d2e9d	-0.050093282
27	0x3d0e2c45	0.034710187
28	0xbd440f45	-0.047866125
29	0x3d1774e3	0.036976706
30	0xbd060b56	-0.032725655
31	0xbc29383a	-0.010328347
32	0xbd375b89	-0.04476503
33	0xba8abb40	-0.0010584369
34	0x3d244eec	0.04011433
35	0xbd646b51	-0.055766407
36	0xbd51abbd	-0.051189173
37	0x3d4314cb	0.04762725
38	0xbd4d0251	-0.050051037
39	0x3a92f254	0.0011211135
40	0xbcc30af0	-0.023808926
41	0x3cd53dd5	0.02603046
42	0x3b744456	0.0037272177
43	0x3af93ede	0.0019015928
44	0xbd26fa71	-0.040766183
45	0x3d3cea09	0.04612163
46	0x3d4c3ea5	0.04986443
47	0x3c70c810	0.014696136
48	0xbcf262a8	-0.029588059
49	0x3ca36338	0.019944772
50	0x3d6008cc	0.05469589
51	0x3d084d26	0.0332767
52	0xbce7a829	-0.028278427
53	0x3d6dbd12	0.05804164
54	0x3d496942	0.049172647
55	0x3c821aee	0.015881982
56	0x3ba5f817	0.005064975
57	0x3c1ade6f	0.009452446
58	0x3b1b2b80	0.002367705
59	0x3caeb4d8	0.021326467
60	0x3d72aaac	0.059244797
61	0x3a403be7	0.0007333145
62	0x3c8aceae	0.016944256
63	0x3d48779d	0.048942197
64	0x3d09becc	0.033629224
65	0x3c46841b	0.012116457
66	0xbcbdd130	-0.023171037
67	0xbd39597f	-0.045251366
68	0xbd0c70a6	-0.034287117
69	0xbd03e22b	-0.032198112
70	0x3c6dce97	0.014514587
71	0xbc790918	-0.015199922
72	0xbd5e8275	-0.054323632
73	0x3d3d82a6	0.046267174
74	0xbb8aa400	-0.004230976
75	0x3d373ae4	0.044733897
76	0xbd6130ae	-0.054978065
77	0x3a02d08d	0.0004990183
78	0x3c945654	0.01810757
79	0x3d3111b0	0.04322976
80	0x3c9a4f05	0.018836508
81	0x3c79b163	0.015240046
82	0xbc91bc32	-0.017789934
83	0x3cd1c32a	0.025605757
84	0xbc3c7819	-0.011503243
85	0xbca21b8b	-0.019788524
86	0x3d343f25	0.04400553
87	0x3cde0e65	0.027106473
88	0xbc407df1	-0.011748777
89	0xbd423671	-0.0474152
90	0xbd2ce96e	-0.042214803
91	0x3d3450f4	0.044022515
92	0xbcf42a23	-0.029805249
93	0xbd5d750a	-0.054066695
94	0xbd86ef60	-0.06588626
95	0xbcc1f973	-0.023678517
96	0xbc70204e	-0.01465614
97	0xbd50232c	-0.050814793
98	0xbd2e8eda	-0.042616703
99	0xbd40778b	-0.046989005
100	0xbd8d3305	-0.06894497
101	0x3d631f8a	0.05545
102	0x3d63e091	0.055634085
103	0xbb37cd53	-0.0028045967
104	0x3d476a5b	0.048685413
105	0x3cc6af08	0.024253383
106	0xbc794cc4	-0.015216056
107	0x3d0740b2	0.033020683
108	0xbcbd9fbc	-0.023147456
109	0xbd82f4e7	-0.06394368
110	0x3cbc5916	0.022991698
111	0x3d1cf302	0.038317688
112	0xbc360ff6	-0.011112204
113	0xbd67cb88	-0.056590587
114	0x3c8331fb	0.016015043
115	0x3b6452cc	0.003483939
116	0x3d0023b1	0.031284038
117	0x3b66c500	0.0035212636
118	0x3d383e15	0.04498108
119	0x3d002f84	0.031295314
120	0xbd568d48	-0.05238083
121	0xbc34df50	-0.01103957
122	0x3d359a89	0.04433683
123	0x3d2cf8a6	0.042229317
124	0x3cfd295c	0.03090351
125	0xbc616828	-0.013757743
126	0xbca68752	-0.020328198
127	0xbce3956c	-0.02778121
128	0xbb645804	-0.00348425
129	0xbc445586	-0.011983281
130	0xbd47a1b0	-0.04873818
131	0xbbaa3460	-0.005194232
132	0x3bd6c097	0.00655372
133	0x3d2bb944	0.04192473
134	0xbd051260	-0.032488227
135	0x3cf13dea	0.029448468
136	0x3d3d8fb6	0.04627963
137	0xbc167120	-0.009182245
138	0xbd514e06	-0.0510998
139	0xbd40d5d8	-0.047078937
140	0xbcd5a06a	-0.026077468
141	0xbd7bce6d	-0.06147616
142	0xbbc3b6ff	-0.0059727426
143	0x3d240602	0.040044792
144	0xbd03c8a4	-0.032173768
145	0xbc988d91	-0.018622192
146	0x3d688794	0.056769922
147	0x3cc2f328	0.023797587
148	0x3d3fc0ba	0.046814658
149	0x3cfd7960	0.030941665
150	0xbbc9d9ea	-0.0061600106
151	0x3d2c9f2e	0.042143993
152	0xbc91f212	-0.017815623
153	0xbd40b9c7	-0.04705217
154	0xbd854a90	-0.06508362
155	0xbd48b5b4	-0.04900141
156	0xbd2a0168	-0.041505247
157	0x3d489bc8	0.04897669
158	0xbd21fb32	-0.0395462
159	0xbd876578	-0.066111505
160	0x3cdaa888	0.02669169
161	0xbca19e7c	-0.019728892
162	0xbcb259b3	-0.021771288
163	0xbd349d3c	-0.044095263
164	0x3c87ecef	0.01659247
165	0x3c8aa1ea	0.01692291
166	0xbd38d5ae	-0.045125656
167	0x3d5c4442	0.053776033
168	0xbd38df39	-0.045134757
169	0x3d1b5cf7	0.037930455
170	0xbd70a07a	-0.058746792
171	0x3d331c30	0.043728054
172	0xbd4766e5	-0.048682112
173	0x3c82fe24	0.015990324
174	0xbd20f602	-0.03929711
175	0xbd49d201	-0.04927254
176	0x3d1e105c	0.03858982
177	0x3d08284e	0.033241563
178	0x3d5d2eae	0.053999595
179	0x3d0ac87c	0.033882603
180	0xbcc3b4e4	-0.023889966
181	0xbca0dfa0	-0.019637883
182	0xbcbb3a48	-0.02285494
183	0xbd78465f	-0.060613986
184	0xbc1417f8	-0.009038918
185	0x3ced031c	0.028932147
186	0x3d579687	0.05263379
187	0xbd62e438	-0.055393428
188	0x3cae1bed	0.02125355
189	0xbd89bb9e	-0.06725238
190	0x3c5bc950	0.013414696
191	0x3b52bc20	0.0032155588
192	0x3cf7b560	0.030237854
193	0xbbeb63bf	-0.0071835215
194	0x3d31211c	0.043244466
195	0xbd0870db	-0.033310752
196	0x3c3b7236	0.011440804
197	0x3cd32165	0.02577276
198	0x3cdbd2d8	0.026833937
199	0x3cc57464	0.024103351
200	0xbca811e7	-0.020516349
201	0x3d51baf6	0.05120369
202	0xbd5dad7f	-0.054120537
203	0xbc39c891	-0.011339323
204	0x3ca5d511	0.0202432
205	0x3c956035	0.018234352
206	0xbcdbc01b	-0.026825001
207	0xbc48f1c0	-0.012264669
208	0x3d49905c	0.049209937
209	0x3ba61903	0.0050688996
210	0xba6b1647	-0.0008967858
211	0x3d1448ec	0.036202356
212	0xbd3dee48	-0.04636982
213	0xbcc3347c	-0.023828737
214	0xbc975e1c	-0.018477492
215	0xbc00dec8	-0.007865615
216	0xbcdd36ec	-0.027003728
217	0xbd22eba2	-0.0397755
218	0x3d29e0a7	0.04147401
219	0xbd3743b1	-0.04474229
220	0x3d4ab61d	0.049490083
221	0xbc8d3f23	-0.01724202
222	0x3c7d264d	0.015451026
223	0x3d29acb6	0.041424476
224	0x3cfe6888	0.031055704
225	0x3d327b8b	0.04357485
226	0xbd89d9e3	-0.06731012
227	0xbd73b156	-0.059495293
228	0xbd8c4b90	-0.0685035
229	0xbd30a71b	-0.043128114
230	0x3bdb3901	0.006690145
231	0x3b7cb1b4	0.0038558068
232	0xbcb3b49b	-0.021936705
233	0xbd269cfe	-0.040677063
234	0xbcf92aad	-0.030415857
235	0x3d789601	0.06068993
236	0xbd6cf2ab	-0.057848614
237	0x3d3a243c	0.045444712
238	0xbd605aad	-0.054773975
239	0xbd389247	-0.045061376
240	0xbd5aa95a	-0.053384162
241	0x3d631cbc	0.055447325
242	0xbd6863c3	-0.056735765
243	0xbd32ae64	-0.043623343
244	0xbd36d0ee	-0.044632845
245	0x3d04415c	0.032288894
246	0xbd258e37	-0.04041883
247	0xbd4c70ca	-0.04991225
248	0x3ce0b8e2	0.027431909
249	0x3c998634	0.01874075
250	0xbca6c69c	-0.020358376
251	0x3b1ae99a	0.0023637773
252	0xbc19df53	-0.009391624
253	0x3cb1be04	0.021697052
254	0xbd627b66	-0.055293463
255	0xbd727e74	-0.059202626

net.2.bias f4 [256]
0	0x3c3abb51	0.011397199
1	0xbd84e083	-0.06488135
2	0xbb80b17b	-0.0039274073
3	0x3d1bbc50	0.038021386
4	0xbbdf64b4	-0.0068174247
5	0xbaa2302d	-0.0012373977
6	0x3d163175	0.03666826
7	0xbd91c3d4	-0.071174294
8	0xbca872d8	-0.020562574
9	0x3da56525	0.080759324
10	0x3d2a8089	0.041626487
11	0xbd47044a	-0.048588075
12	0x3d670fa1	0.05641139
13	0xbd0ba543	-0.034093153
14	0x3d88979b	0.066695414
15	0xbd54e21c	-0.051973447
16	0xbb44e230	-0.0030042045
17	0x3d4e29de	0.050332896
18	0x3d01caa6	0.0316874
19	0xbbce130b	-0.006288891
20	0x3cf7e75b	0.030261686
21	0x3cd3a47a	0.025835264
22	0x3da36298	0.0797779
23	0xbcf15324	-0.02945859
24	0xbcd610d9	-0.02613108
25	0xbd75c91e	-0.060006253
26	0xbc2901d0	-0.010315374
27	0x3ccf9c98	0.025343224
28	0xbd589ed8	-0.05288586
29	0xbc3e5518	-0.011616968
30	0x3d287c46	0.04113414
31	0x3dcf4cda	0.1012208
32	0xbc5b4bf8	-0.013384812
33	0x3d3f3883	0.046684753
34	0x3d497f6e	0.049193792
35	0x3d68188d	0.05666404
36	0x3d8f4aa6	0.0699666
37	0xbd6935b6	-0.05693599
38	0x3c58d7f6	0.013235083
39	0xbd239a9a	-0.03994236
40	0x3cf84f52	0.03031126
41	0x3d2bbd56	0.04192861
42	0xbd7afa72	-0.061274
43	0x3d9b3dc0	0.07580137
44	0xbcd0ba64	-0.025479503
45	0x3d9b1267	0.07571869
46	0x3cbb6fea	0.022880513
47	0x3d47fa3c	0.048822626
48	0x3dc3d989	0.09562976
49	0xbcb83273	-0.022484994
50	0x3d217f0e	0.03942781
51	0x3db20dfc	0.086940736
52	0x3d6f068c	0.058355853
53	0x3c78aa36	0.0151773
54	0x3cf6350b	0.03005459
55	0xb999cdc4	-0.0002933574
56	0xbd151be1	-0.03640354
57	0xba9d4f24	-0.0012001735
58	0x3d96067a	0.07325454
59	0x3d16f16a	0.036851324
60	0x3d9cdc79	0.07659239
61	0xbd461ca7	-0.04836717
62	0x3be0de80	0.0068624616
63	0x3d152162	0.03640879
64	0x3c46c669	0.012132266
65	0x3d8b3699	0.06797523
66	0x3cc34a33	0.023839092
67	0xbd60245d	-0.05472218
68	0xbd8b8017	-0.068115406
69	0x3cc14af8	0.023595318
70	0x3d62a0ff	0.05532932
71	0x3c8a52fa	0.01688527
72	0x3d0f866e	0.03504031
73	0xbcd710f1	-0.026253195
74	0xbd45bde5	-0.0482768
75	0x3cfeb244	0.031090863
76	0xbd888a74	-0.06667033
77	0xbd81efe5	-0.063445844
78	0xbd4304a6	-0.047611855
79	0xbccc20c2	-0.024917964
80	0xbceb1636	-0.028697114
81	0x3da1c033	0.07897987
82	0x3c3c4a2f	0.011492296
83	0x39e09a6d	0.00042839666
84	0xbd415d89	-0.047208343
85	0xbc7b994b	-0.015356372
86	0xbd225ee2	-0.03964127
87	0x3d358f86	0.044326328
88	0x3c42b189	0.011883148
89	0x3d9acc5f	0.07558512
90	0x3d430c1c	0.04761897
91	0x3dc1493d	0.09437797
92	0x3cf17741	0.02947581
93	0xbc4e0894	-0.012575287
94	0xbd6f3a6e	-0.058405332
95	0xbd0de3e9	-0.03464118
96	0xbc07d452	-0.008290367
97	0x3d78cbea	0.060741343
98	0x3c3c88a5	0.011507188
99	0x3d541e67	0.051786806
100	0xbc839d2e	-0.01606616
101	0x3cd13e97	0.02554254
102	0xbcdd44b5	-0.027010301
103	0x3ccbfac4	0.024899848
104	0x3d8cd49b	0.06876489
105	0x3d9b57dc	0.07585117
106	0xbd8b448d	-0.068001844
107	0x3c61c594	0.013780016
108	0xbc128cb0	-0.008944675
109	0xbd1bab7c	-0.038005337
110	0x3d480038	0.048828334
111	0xbd42cd90	-0.04755932
112	0xbd97ad34	-0.07406083
113	0x3bafd0a5	0.0053654485
114	0x3b539135	0.0032282595
115	0xbbdcf546	-0.006743106
116	0x3bece805	0.0072298073
117	0xbce26b3b	-0.027639022
118	0x3d8334d7	0.06406563
119	0x3c4bcd38	0.012439065
120	0xbd5c3aa2	-0.053766854
121	0x3ac4aac4	0.0015004505
122	0xbc155bc4	-0.009116117
123	0x3d3a5583	0.045491707
124	0x3d09585c	0.03353153
125	0x3dbecaf5	0.09316055
126	0x3ccae42a	0.024767
127	0x3c9fec58	0.019521877
128	0x3d0502ba	0.032473303
129	0x3ca09ad0	0.01960507
130	0x3d127ab3	0.035761546
131	0x3d1f2eb2	0.03886289
132	0x3d052cda	0.032513477
133	0xbd09725d	-0.03355633
134	0xbd5d138f	-0.05397373
135	0x3d15f129	0.03660694
136	0x3d723ad5	0.059138138
137	0xbd016a1e	-0.03159534
138	0xbc570058	-0.013122641
139	0xbd8558fb	-0.06511112
140	0x3cf8e1ab	0.030381044
141	0xbd341a74	-0.04397054
142	0x3d5deb22	0.05417932
143	0xbd784bf6	-0.060619317
144	0xbcc78ec9	-0.024360077
145	0xbcf29649	-0.029612677
146	0xbd4d5df4	-0.05013843
147	0xbd68def9	-0.05685327
148	0xbce00118	-0.027344272
149	0x3c53ff18	0.012939237
150	0x3d5e9b3a	0.054347254
151	0xbd5de073	-0.05416913
152	0xbd063cbc	-0.032772765
153	0xbd1c6084	-0.038177982
154	0x3d747342	0.05968023
155	0x3cdbf7c0	0.026851535
156	0xbd8585b5	-0.06519643
157	0x3d7ceb24	0.061747685
158	0xbcd63870	-0.026149958
159	0xbc217967	-0.009855605
160	0x3d4db372	0.05021996
161	0x3dd8d4cd	0.105874635
162	0x3d37dbed	0.044887472
163	0x3cb97b17	0.022641702
164	0x3dc02421	0.09381891
165	0xbd71a9f6	-0.058999978
166	0x3c8e73ad	0.017389143
167	0xb988e0c9	-0.0002610742
168	0x3cc0ba55	0.02352635
169	0xbce34641	-0.02774346
170	0x3d075b91	0.03304631
171	0x3c19721b	0.009365584
172	0x3ce92ecc	0.028464697
173	0x3d1b578f	0.0379253
174	0x3c725108	0.014789827
175	0x3d2b9d0c	0.04189782
176	0xbd8bf517	-0.068338566
177	0x3d3e2ce4	0.04642953
178	0x3cd399bb	0.02583014
179	0x3dc18e65	0.09450988
180	0xbd697878	-0.056999654
181	0x3cb300cc	0.021850966
182	0x3c899420	0.016794264
183	0x3ce5b5b9	0.028040754
184	0x3d5cd81d	0.05391704
185	0x3cd64671	0.026156636
186	0x3dd4e66b	0.10395511
187	0x3c4ebc53	0.012618142
188	0xbd24179a	-0.04006157
189	0xbc3c5e65	-0.011497115
190	0x3d023d06	0.031796478
191	0xbd0c79a0	-0.03429568
192	0x3b7f4407	0.003895046
193	0xbcb8cf4c	-0.022559784
194	0x3da96463	0.082711
195	0xbc1babed	-0.0095014395
196	0x3dbaf544	0.09128812
197	0xbd26c99a	-0.040719606
198	0xbc641433	-0.0139208315
199	0xbc788498	-0.015168332
200	0x3dbcdec1	0.092221744
201	0x3d2d9876	0.042381726
202	0x3d722e20	0.05912602
203	0x3ce5b8c8	0.028042212
204	0x3d39712b	0.04527394
205	0xbcb97fb4	-0.022643901
206	0x3d2d1159	0.042252872
207	0x3d8763d7	0.0661084
208	0xb7f3ae4a	-2.9049017e-05
209	0x3ba58eeb	0.0050524375
210	0xbd33774f	-0.043814953
211	0xbd94cda1	-0.07265783
212	0x3db8d21a	0.09024449
213	0x3d5c5c70	0.053799093
214	0x39e1f2b8	0.00043096184
215	0xbd731da1	-0.05935443
216	0xbcfa7a20	-0.030575812
217	0xbd0425d5	-0.032262642
218	0xbc987a67	-0.018613053
219	0xbd76ae3f	-0.060224768
220	0x3dbd1a9f	0.09233593
221	0x3d5db7bc	0.0541303
222	0x3c55b937	0.013044647
223	0x3c5e78d8	0.013578616
224	0xbd2f202f	-0.042755302
225	0xbd1b34d4	-0.037892178
226	0x3a765b73	0.0009397782
227	0x3ca116c4	0.019664176
228	0x3c4d8116	0.0125429835
229	0xb9fe48a0	-0.00048500765
230	0x3d07c67c	0.033148274
231	0xbb540e6c	-0.003235723
232	0xbd9a5d6e	-0.075373515
233	0x3a8f6712	0.0010940752
234	0xbcc1b741	-0.023646953
235	0x3dccd3da	0.10001345
236	0x3d0273b9	0.031848643
237	0x3da1da41	0.07902957
238	0x3d1ad0f4	0.03779693
239	0xbd27d147	-0.040971067
240	0x3d761abd	0.060084093
241	0x3d0ab549	0.033864293
242	0xbac7cfbd	-0.0015244406
243	0x3d4c4a92	0.049875803
244	0xbd878f0b	-0.0661908
245	0xbc981677	-0.0185654
246	0x3dcd02a0	0.10010266
247	0x3d9c8bdb	0.07643863
248	0x3d03a1df	0.032136794
249	0x3bafe940	0.0053683817
250	0x3c908907	0.017643465
251	0x3d71f948	0.059075624
252	0xbcc5d200	-0.024147987
253	0x3ce2a08e	0.027664449
254	0xbc2b9cfa	-0.010474438
255	0x3da9428a	0.082646444

actor.weight f4 [1, 256]
0	0x3c33ccf6	0.010974159
1	0x3d3e69dd	0.046487678
2	0x3da2b1bf	0.079440586
3	0xbd32d528	-0.043660313
4	0x3e9b2c5b	0.30307278
5	0x3c539317	0.012913487
6	0x3d3ebf49	0.046569142
7	0xbc6f94fd	-0.014622924
8	0xbab67600	-0.0013920665
9	0x3d930b0b	0.07179841
10	0xbc6b7cc0	-0.014373004
11	0xbc3f3837	-0.0116711175
12	0x3e8d905d	0.27649203
13	0xbb8a57b9	-0.004221883
14	0x3e618678	0.22023952
15	0x3cc67c1c	0.024229102
16	0x3e7ec704	0.24880606
17	0xbbe18760	-0.006882593
18	0xbddc5a18	-0.107593715
19	0x3d4ced07	0.050030734
20	0xbd92e0d5	-0.071717896
21	0xbe89c940	-0.26911354
22	0x3e5e1d67	0.21690904
23	0xbd0f8de2	-0.03504742
24	0xbe5cd3fb	-0.21565239
25	0xbb6f57ba	-0.0036520795
26	0x3d567b8e	0.052363925
27	0xbca32a8a	-0.019917745
28	0xbe6dd7f3	-0.2322691
29	0xbe789453	-0.24275331
30	0xbb055d45	-0.0020349782
31	0x3e5cc16d	0.21558161
32	0x3d3706b0	0.044684112
33	0xbd0a9888	-0.03383687
34	0xbe6e3644	-0.23262888
35	0xbe4fbfb0	-0.20287967
36	0x3e919941	0.28437236
37	0x3e5e9783	0.21737485
38	0xbe3e4409	-0.18580641
39	0x3c035298	0.008015297
40	0x3de9932e	0.114050254
41	0xbe558977	-0.2085322
42	0x3d5a81c2	0.053346403
43	0x3ccc6146	0.024948727
44	0xbd3a8406	-0.045536064
45	0x3e800b2c	0.25008523
46	0xbbf8957c	-0.0075861793
47	0xbe60060b	-0.21877305
48	0x3e010ca5	0.1260248
49	0x3d084ace	0.033274464
50	0xbce23945	-0.027615199
51	0x3e10038a	0.1406385
52	0x3e7ab804	0.24484259
53	0xbe475ce1	-0.19469024
54	0x3e56ba43	0.2096949
55	0xbd279da8	-0.040921837
56	0xbe6f7263	-0.23383479
57	0xbca3fcb5	-0.020017961
58	0xbb1f97a1	-0.0024351852
59	0xbc96fc80	-0.018430948
60	0x3de24ff8	0.11050409
61	0x3cc54291	0.024079593
62	0x3e582af1	0.21110131
63	0xbe60cc46	-0.21952924
64	0xbf0ef017	-0.558351
65	0x3c50a927	0.012735642
66	0xbe7525c3	-0.23940186
67	0xbd53adac	-0.0516793
68	0xbca565ed	-0.020190204
69	0xbe8095db	-0.2511433
70	0x3dbcc7e7	0.09217816
71	0x3e0cbb23	0.13743262
72	0x3d51c6e3	0.051215064
73	0xbbe34a4d	-0.0069363476
74	0x3cc611af	0.024178354
75	0x3d0aabbf	0.033855196
76	0xbcbba326	-0.022904944
77	0x3cb8fae8	0.022580579
78	0xbd7c908e	-0.061661296
79	0xbe4ce90e	-0.20010778
80	0x3e9a0b40	0.30086708
81	0xbdf91a34	-0.12163201
82	0xbea2f5d0	-0.31828165
83	0xbe7dab61	-0.24772407
84	0x3b888e3c	0.0041673463
85	0xbc4fafd3	-0.012676197
86	0xbd37b724	-0.04485239
87	0x3d28689c	0.04111539
88	0xbe676894	-0.22598487
89	0x3e857422	0.26065165
90	0x3b9a9f6a	0.0047187107
91	0xbada23bf	-0.0016642733
92	0x3d3b4ec4	0.045729414
93	0xbc0ad61b	-0.008473898
94	0xbd55fc06	-0.0522423
95	0x3e8efecc	0.2792877
96	0x3d3d1f40	0.04617238
97	0x3e353917	0.1769756
98	0xbe262c7a	-0.16227904
99	0xbd2d0e5b	-0.04225002
100	0x3d83058d	0.06397543
101	0x3c87028c	0.016480707
102	0xbc0a87c2	-0.008455219
103	0x3bbc3528	0.0057436414
104	0x3bdac33c	0.006676106
105	0xbe2228f5	-0.15835936
106	0x3d92524e	0.071446046
107	0x3e326706	0.17422113
108	0x3d75ec50	0.06003982
109	0x3be55560	0.006998703
110	0x3ca4e328	0.020127848
111	0x3c1dec4d	0.009638858
112	0x3b9b5bda	0.004741174
113	0x3b9c7a97	0.004775356
114	0xbbe8ed1d	-0.007108344
115	0x3e806e54	0.25084174
116	0x3ada0306	0.0016632981
117	0xbb74c1c6	-0.0037346943
118	0x3d51720a	0.051134147
119	0xb9d66200	-0.00040890276
120	0x3d37d132	0.04487724
121	0x3d1d4465	0.038395304
122	0x3d6ce1d9	0.057832573
123	0xbe3411cd	-0.17584915
124	0xbd5e4667	-0.05426636
125	0x3d02d805	0.031944294
126	0x3d391c5c	0.04519306
127	0xbdbf6ee1	-0.0934732
128	0x3d025586	0.031819843
129	0xbc17dae0	-0.009268492
130	0xbc0333a6	-0.008007919
131	0xbd12d242	-0.03584505
132	0x3d409758	0.047019333
133	0xbe61140c	-0.21980304
134	0xbc061364	-0.008183334
135	0x3dd4a3bb	0.103827916
136	0xbe15a7a7	-0.14614736
137	0x3c481e43	0.012214246
138	0xbd294190	-0.04132229
139	0x3d3d35f2	0.046194024
140	0xba9cfd4e	-0.0011977346
141	0xbe8ffd93	-0.2812315
142	0x3e1df4a5	0.15425356
143	0xbca9bf00	-0.020720959
144	0x3bee439c	0.0072712433
145	0xbc86913f	-0.01642668
146	0x39887900	0.00026030093
147	0x3d7516bd	0.059836138
148	0xbd0c60e1	-0.03427208
149	0xbe5513ec	-0.20808381
150	0x3cbcbbdc	0.023038797
151	0x3dd9343c	0.10605666
152	0xbb9c6ca8	-0.004773695
153	0xbd290371	-0.041263048
154	0x3e8b4b4a	0.27205878
155	0xbc9adc68	-0.018903926
156	0x3cb9a820	0.022663176
157	0x3d3d190f	0.046166476
158	0x3e99b317	0.30019447
159	0x3d1a929b	0.03773747
160	0x3cfd8d4d	0.030951167
161	0x3d2173af	0.039416965
162	0xbd97dc45	-0.0741506
163	0x3e573806	0.21017465
164	0x3e393a27	0.1808859
165	0x3cd936c4	0.026515372
166	0xbe5d4637	-0.21608816
167	0x3e8410b2	0.25793988
168	0xbd44c39e	-0.048038118
169	0x3e7dc590	0.24782395
170	0x3cb5a0a3	0.022171324
171	0x3e72f122	0.23724797
172	0x3cf6ebbe	0.030141708
173	0x3e6a1793	0.22860555
174	0x3d4f75ce	0.050649457
175	0x3a047a94	0.0005053666
176	0xbd3fa49f	-0.046787854
177	0xbe56d0f9	-0.20978154
178	0xbe65aabc	-0.22428411
179	0x3dec663d	0.11542938
180	0x3d44128e	0.047869258
181	0x3d31efa2	0.043441422
182	0xbe390476	-0.18068108
183	0x3c84c6de	0.016208109
184	0x3e62c9a7	0.22147237
185	0x3c48c8f9	0.012254947
186	0x3e018bdf	0.12651013
187	0x3e7716aa	0.2412974
188	0x3c14a538	0.009072594
189	0x3e8ff6c4	0.28117955
190	0xbd9d616a	-0.07684596
191	0xbe559b39	-0.20859994
192	0xbd63d832	-0.0556261
193	0xbe42f434	-0.19038469
194	0xbd87ecf0	-0.06636989
195	0xbd0fe4f6	-0.035130464
196	0x3def111d	0.11673186
197	0xbcda7370	-0.026666373
198	0x3ca5d2d6	0.020242136
199	0x3c109d88	0.008826621
200	0x3d9fdbe6	0.07805614
201	0xbe0d7171	-0.13812806
202	0xbd7e8d2b	-0.062146347
203	0x3c188362	0.009308668
204	0xbe2ba044	-0.16760355
205	0xbb482e41	-0.0030545148
206	0xbdb16d85	-0.08663467
207	0xbe4df02d	-0.20111151
208	0xbd34f40c	-0.044178054
209	0x3bf6e83c	0.0075350087
210	0xbe9b7e18	-0.3036964
211	0x3dc278c6	0.09495692
212	0x3dcaacee	0.09896265
213	0x3e655cb2	0.22398642
214	0xbe40cc77	-0.18827997
215	0x3c29baec	0.010359507
216	0x3bb9e298	0.005672764
217	0x3d2c4ebb	0.04206727
218	0x3c605990	0.013693228
219	0xbc60b8f4	-0.013715971
220	0x3b8b81c4	0.0042574126
221	0x3e40d688	0.18831837
222	0x3dfa286f	0.12214743
223	0xbccc3f28	-0.024932459
224	0xbd324c8b	-0.04353003
225	0xbc45ae30	-0.012065455
226	0x3e10cde5	0.14141043
227	0xbd1f557a	-0.038899876
228	0x3d406be2	0.046977885
229	0xbe51f811	-0.20504786
230	0xbcf1c5e6	-0.02951331
231	0xbd3fe5f6	-0.046850167
232	0xbdc286c9	-0.094983645
233	0x3e920829	0.2852185
234	0x3d46572d	0.04842298
235	0x3e2a3ce7	0.16624795
236	0xbd785c1e	-0.060634725
237	0x3e920ba3	0.28524503
238	0x3c55e81a	0.013055826
239	0x3e93afd0	0.28845072
240	0x3e8a4e53	0.27012882
241	0xbe8ffc5e	-0.28122228
242	0x3e2b362c	0.16719884
243	0x3d140047	0.036133077
244	0x3d5ae94d	0.05344515
245	0xbd4769bd	-0.048684824
246	0xbc858834	-0.016300298
247	0xbdebbb7e	-0.11510371
248	0xbd39569d	-0.045248616
249	0xbe3ccab4	-0.184367
250	0xbd583c1f	-0.05279171
251	0xbe2e20fd	-0.17004772
252	0x3b47d760	0.0030493364
253	0xbca86157	-0.020554228
254	0x3e4065cc	0.18788832
255	0x3da3b129	0.07992775

critic.weight f4 [1, 256]
0	0xbd0169a8	-0.031594902
1	0xbd4ac570	-0.049504697
2	0xbb5ab434	-0.003337157
3	0x3d31644f	0.043308552
4	0x3c31b3a9	0.010846057
5	0x3c392a56	0.011301598
6	0xbce2b71d	-0.027675206
7	0x3d090cb1	0.03345937
8	0xbcc9ae20	-0.024619162
9	0x3d717c12	0.058956213
10	0xbcd3374b	-0.025783202
11	0xbd0aaffa	-0.03385923
12	0x3bc14cea	0.0058990614
13	0xbc88920f	-0.016671209
14	0xbb429e15	-0.0029696275
15	0xbaf87040	-0.0018954352
16	0x3b765307	0.003758611
17	0xbd487b9b	-0.048946004
18	0x3d91aacb	0.07112654
19	0xbb86b0b0	-0.0041104183
20	0xbd99fbdd	-0.07518742
21	0x3d21c8c9	0.039498124
22	0x3c0e1ca4	0.008673821
23	0xbd230670	-0.03980106
24	0x3c5c52d3	0.013447481
25	0xbc2ec468	-0.010666944
26	0x3d4cd4dc	0.050007686
27	0xbd0a5179	-0.033769105
28	0xbbfeac9f	-0.007772043
29	0x3d67461b	0.056463342
30	0xbc8842d8	-0.016633436
31	0x3cc5e438	0.024156675
32	0x3c2fc290	0.01072754
33	0x3da8606c	0.08221516
34	0xbc3b9835	-0.011449863
35	0x3c9e126f	0.0192959
36	0x3c7e0e87	0.015506393
37	0xbbd36130	-0.0064507946
38	0x3d6dc9d9	0.058053825
39	0x3d7ce36a	0.061740316
40	0x3d1dae51	0.03849632
41	0xbc222bbb	-0.0098981215
42	0x3bd96980	0.006634891
43	0x3d5769c3	0.052591097
44	0x3c80a76e	0.015704837
45	0x3c14f281	0.009091021
46	0x3d68782a	0.056755222
47	0xbc12ffdd	-0.008972135
48	0x3d1b018c	0.037843272
49	0xbc5dbbe8	-0.01353357
50	0x3cbd39fc	0.023098938
51	0x3d282638	0.041052073
52	0x3c1d137c	0.009587165
53	0xbbb3c283	-0.005485834
54	0x3c0970e0	0.008388728
55	0xbc4fba0f	-0.012678637
56	0xbc97631f	-0.018479882
57	0xbade2a31	-0.001694983
58	0x3d44e4a0	0.048069596
59	0xbd03de4b	-0.032194417
60	0x3d265e56	0.04061731
61	0x3d3cf9b2	0.046136566
62	0xba8daf15	-0.0010809625
63	0x3d4e5369	0.050372515
64	0x3e31084d	0.17288323
65	0x3cedc7dc	0.029025964
66	0x3d37b3b8	0.044849128
67	0x3c80003f	0.015625117
68	0xbd09513c	-0.033524737
69	0xbc10a352	-0.008828001
70	0x3d21c657	0.039495792
71	0x3d030c12	0.031993933
72	0x3c0ef365	0.008725022
73	0xbcc54bb3	-0.024083948
74	0x3d7c1b19	0.06154928
75	0x3ca892fa	0.020577896
76	0xbd59fb61	-0.05321825
77	0xbdd3f725	-0.103498735
78	0xbd2ef932	-0.04271812
79	0x3d5422e6	0.051791094
80	0x3c272a24	0.010202918
81	0x3d8439a5	0.06456307
82	0x3de5df56	0.112242386
83	0xb9fc66ce	-0.0004814178
84	0x3d5c86df	0.05383956
85	0xbd581519	-0.052754495
86	0x3ac86ac0	0.0015290603
87	0x3d4ebdd6	0.05047401
88	0x3d402827	0.046913292
89	0x384d375e	4.8927373e-05
90	0x3d222d1c	0.0395938
91	0x3da563ef	0.080757014
92	0x3d2dc627	0.0424253
93	0x3c054fb8	0.008136682
94	0xbba7d7f1	-0.005122178
95	0x3bef8f9c	0.0073108207
96	0x3d6aa31b	0.057284456
97	0x3cda0ea9	0.026618319
98	0x3a9b9298	0.001186925
99	0x3d468804	0.04846956
100	0xbc50947e	-0.012730716
101	0xbcfba8c6	-0.030720126
102	0xbceb2a0c	-0.028706573
103	0xbd41c766	-0.0473093
104	0x3d043726	0.032279156
105	0x3d85db56	0.06535976
106	0xbd2cd803	-0.042198192
107	0xbb710723	-0.0036777935
108	0x3d5fcbae	0.054637603
109	0xbd610464	-0.054935828
110	0x3d4cd0a0	0.050003648
111	0xbba407fe	-0.0050058356
112	0xbca2dc39	-0.019880401
113	0xbd1e63f6	-0.03866955
114	0xbcf3bd6e	-0.029753413
115	0x3bd8cd4a	0.0066162692
116	0x3ca65b92	0.020307336
117	0xbd185a07	-0.03719523
118	0x3d86251f	0.06550049
119	0xbd1d5ee8	-0.038420588
120	0xbcebabc2	-0.028768424
121	0x3d3254c3	0.043537866
122	0xbc328596	-0.010896107
123	0x3d48cb63	0.04902209
124	0xbcffecb0	-0.031240791
125	0x3d33ff02	0.043944366
126	0xbcc65c10	-0.02421382
127	0x3d837748	0.064192355
128	0x3c873b90	0.016507894
129	0x3d2b0c36	0.041759692
130	0x3c1e3e27	0.009658373
131	0x3c1b87e0	0.009492844
132	0x3d5914ee	0.052998476
133	0x3c38911e	0.011265067
134	0x3d0358e3	0.03206719
135	0x3d8a8464	0.06763533
136	0x3d76dbd8	0.060268253
137	0xbc3417b8	-0.010991983
138	0xbc8ea0e4	-0.017410703
139	0xbcc43bc8	-0.023954287
140	0xbb008cf0	-0.0019615255
141	0x3b7b08d4	0.0038304823
142	0x3d6c04e6	0.05762186
143	0x3d429273	0.047502946
144	0xbcc33a5a	-0.023831535
145	0xbb5691db	-0.0032740745
146	0xbd1a4e56	-0.037672363
147	0x3d57c459	0.052677486
148	0xbbf4f659	-0.007475656
149	0x3d12e8f2	0.035866685
150	0x3c1ffb68	0.00976453
151	0xbd2ee18c	-0.042695567
152	0x3b90dca3	0.004420833
153	0x3bc1dc64	0.005916165
154	0xba193ed9	-0.0005845852
155	0x3d9b37e8	0.07579023
156	0x3d5037ec	0.05083458
157	0x3d11efad	0.035628963
158	0x3b10c4ce	0.002208996
159	0x3d6c407f	0.057678696
160	0xbcc1b774	-0.023647048
161	0x3d8181ba	0.063235715
162	0x3db67cf1	0.089105494
163	0x3be2b5d7	0.0069186497
164	0x3ce193b2	0.027536247
165	0x3d441f38	0.047881335
166	0xbbd12e5d	-0.0063837008
167	0x3c0a8aa4	0.008455906
168	0xbd1c85d1	-0.038213555
169	0x3c1e91b6	0.009678295
170	0xbcc31d33	-0.023817634
171	0xbb22e07c	-0.0024853041
172	0x3d804e23	0.062649034
173	0x3c215924	0.009847913
174	0x3c492480	0.012276769
175	0x3c54242d	0.012948078
176	0xbc013dad	-0.00788824
177	0xbbe0e0db	-0.0068627424
178	0xbc4d95b3	-0.012547898
179	0x3d01bede	0.031676166
180	0x3cc54d08	0.024084583
181	0xbc57ca48	-0.013170786
182	0x3b7715ad	0.0037702129
183	0xbd962e91	-0.073331006
184	0xbbb24f6d	-0.005441597
185	0x3d5dec4e	0.054180436
186	0x3d3181a5	0.04333653
187	0x3c2d6d09	0.010585078
188	0x3cf22f48	0.029563561
189	0x3c7ac002	0.015304567
190	0xbbce5299	-0.0062964675
191	0xbb7da0fb	-0.0038700688
192	0x3cf05feb	0.029342612
193	0x3c72b66c	0.014814001
194	0x3d2410ba	0.040055014
195	0x3d8838ee	0.066514835
196	0x3d762d78	0.060101956
197	0x3d703196	0.05864104
198	0xbd07f4dd	-0.033192504
199	0xbd213314	-0.039355353
200	0x3d892dd6	0.06698196
201	0x3d96beaf	0.07360589
202	0x3d11bae7	0.035578635
203	0xbc6faa0a	-0.014627943
204	0x3a505f21	0.00079487456
205	0xbb8df875	-0.004332597
206	0xbcd00c45	-0.025396476
207	0x3d2f4dd7	0.042798843
208	0xbd3147ca	-0.043281354
209	0x3d925c05	0.071464576
210	0xbb0f2462	-0.0021841754
211	0xbd663aee	-0.056208543
212	0x3d1fc9e7	0.03901091
213	0xbbae2d77	-0.0053154784
214	0x3a035306	0.0005009625
215	0xbafff89e	-0.001952905
216	0x3c99b85e	0.018764671
217	0x3d2229ff	0.03959083
218	0xbd5cbc89	-0.05389074
219	0xbd5c60fe	-0.053803436
220	0x3d5a0cd9	0.05323491
221	0x3bfa54e0	0.0076395124
222	0x3d7523dd	0.059848655
223	0x3d78180a	0.0605698
224	0xbc8a7acc	-0.016904257
225	0x3d735178	0.059403867
226	0x3d55eb5d	0.052226413
227	0xbc6957b8	-0.014242105
228	0x3c3b22d7	0.011421881
229	0x3ab596eb	0.0013854181
230	0xbb676783	-0.00353095
231	0x399e876d	0.00030237008
232	0xbd0ba63b	-0.034094077
233	0x3b6d6e42	0.003622905
234	0x3c7a3b07	0.015272862
235	0x3d2742e4	0.040835276
236	0xbce8b0eb	-0.028404674
237	0x3c66c75a	0.014085615
238	0x3d3ef42b	0.046619575
239	0x3bd61531	0.006533288
240	0xbb987b54	-0.0046533737
241	0xbc35ba7b	-0.011091824
242	0x3d2fda67	0.042932894
243	0xbc4fa1d5	-0.012672861
244	0xbd4f4212	-0.05060012
245	0xbc64179d	-0.0139216455
246	0x3d47f29b	0.04881535
247	0x3d9be5a0	0.07612157
248	0xbd0d5abc	-0.03451036
249	0xbbf5ec82	-0.0075050006
250	0xbd0d56bd	-0.03450655
251	0x3d215f53	0.03939755
252	0xbca63864	-0.020290561
253	0x3d12605a	0.03573642
254	0x3cdb5fe7	0.026779128
255	0x3d28ae63	0.041181933
