models1/ppo_1000.pth (torch, 275660 bytes, 6 tensors)

net.0.weight f4 [256, 6]
-0.39603803 -0.40240085 0.15440156 0.37563804 -0.09276366 -0.35139847 -0.05502928 -0.020517882
0.44176355 -0.3666179 -0.08585684 0.44554612 -0.13728496 0.4224349 -0.007949319 -0.47347102
-0.14866073 -0.10132774 -0.3198398 0.24111067 0.164609 -0.038131103 -0.0043369653 0.33071715
0.23332219 -0.13609481 -0.5151378 0.23399216 0.22498545 -0.22255118 0.10195451 -0.07179931
0.36952317 0.0081309695 -0.30004993 0.21997906 0.0074305576 0.13397136 0.4277212 0.2450204
0.086752646 -0.34801456 -0.32677218 -0.36437103 0.032769743 0.19154398 -0.081820965 0.28182873
-0.21487245 -0.26483515 0.30894437 -0.066232525 0.22478868 -0.28256023 0.1900736 0.21031706
0.44548914 -0.5241866 -0.19150898 0.17851324 0.1264971 -0.15216525 -0.053328685 -0.09652233
-0.235945 -0.10156469 0.039898075 -0.25291723 -0.21307318 0.2729287 -0.10520436 -0.12455343
-0.15049651 0.10229166 -0.15444623 0.19477458 -0.32942516 -0.23517643 -0.0876207 0.05446755
0.13802257 0.21850674 -0.07354381 -0.4526015 0.32131815 0.14336096 -0.264557 -0.017833572
-0.3156598 0.32278997 0.15541346 -0.26001337 -0.11457316 -0.4061273 -0.32639116 0.04076219
0.14591016 0.22888063 0.37917843 -0.12950413 -0.020851513 -0.3454319 -0.42196745 -0.14112371
-0.0038477029 -0.25877786 0.005680307 0.10463931 -0.39652792 0.2840464 -0.50623375 -0.37482145
-0.09529524 0.18411316 0.15806445 0.22050683 -0.17950073 0.39261028 -0.11201803 -0.23716058
-0.11750521 0.10558964 -0.09428603 0.2563634 0.24805774 0.3104302 0.3426274 0.21677294
-0.013698799 0.06706624 0.09171919 -0.3721868 -0.32164195 0.07524178 0.3333614 -0.4645978
-0.09338325 0.4167855 0.17131262 -0.1094729 -0.12576358 -0.044771373 0.17253387 0.03093989
-0.09598819 0.26133937 -0.041211 -0.016479755 0.32620165 -0.4605726 -0.22356874 0.32344767
-0.4060279 0.59581345 0.053693194 -0.22866583 0.19208194 0.08265634 -0.24119873 0.13847658
0.10399811 -0.21244006 0.09962842 -0.08274394 0.58144796 -0.52642655 0.040340178 -0.3277836
0.31003264 -0.39213243 0.16997686 0.32386923 -0.08292684 -0.1615854 -0.19193968 0.13222468
0.20865186 -0.28691244 -0.27619535 0.05723482 -0.13181175 -0.25418678 -0.3609375 0.36848134
0.3619914 0.2708329 0.043771513 -0.1723213 -0.53635126 0.23961675 0.0898788 -0.14968513
-0.19273895 -0.057320043 -0.19318818 0.35210556 -0.13150166 0.063010626 -0.0729451 0.2565969
-0.08795201 -0.02170314 0.1572413 0.1048139 -0.41139248 0.14896776 -0.26073897 0.34522974
-0.2723727 0.05630175 -0.3253205 0.083252855 0.31325158 0.2060139 -0.025496103 -0.09558447
0.19575556 0.241924 0.198099 -0.39128458 -0.17998357 -0.3033801 -0.22306995 -0.17932713
0.4287847 -0.21531086 -0.17806734 -0.1974612 -0.06839381 0.17150983 -0.36834916 0.29366422
-0.19387877 -0.041479003 -0.07877099 0.030938335 -0.0030156516 0.13339967 -0.24859604 0.45995742
0.23071969 -0.38478065 -0.05280208 -0.23633192 0.14480585 -0.39345124 -0.53778607 -0.573331
0.0025665504 0.15918247 0.12012128 -0.07329873 0.26822463 -0.34161916 0.21028936 -0.5256993
00000000: 7fc5 cabe 7c07 cebe 711b 1e3e a153 c03e
00000010: e0fa bdbd 80ea b3be 6266 61bd 1e15 a8bc
00000020: d52e e23e 57b5 bbbe b6d5 afbd 9f1e e43e
00000030: 6e94 0cbe 6349 d83e dc3d 02bc cb6a f2be
00000040: 853a 18be eb84 cfbd 0bc2 a3be b7e5 763e
00000050: 438f 283e 5c2f 1cbd 1a1d 8ebb c253 a93e
00000060: 03ec 6e3e 705c 0bbe 12e0 03bf a49b 6f3e
00000070: 9662 663e 75e4 63be 87cd d03d 840b 93bd
00000080: 2432 bd3e c237 053c 25a0 99be 3142 613e
00000090: 097c f33b ca2f 093e 46fe da3e a1e6 7a3e
000000a0: 5fab b13d f72e b2be af4e a7be d78e babe
000000b0: 9139 063d 1b24 443e c091 a7bd db4b 903e
000000c0: 8607 5cbe 7998 87be f52d 9e3e eba4 87bd
000000d0: 012f 663e bcab 90be a7a2 423e 5b5d 573e
000000e0: 2717 e43e 1831 06bf ee1a 44be 2dcc 363e
000000f0: 7588 013e 35d1 1bbe 2e6f 5abd 80ad c5bd
00000100: 919b 71be 2601 d0bd 2a6c 233d 5e7e 81be
00000110: db2f 5abe 50bd 8b3e 6275 d7bd de15 ffbd
00000120: c21b 1abe 4a7e d13d 2727 1ebe fd72 473e
00000130: 6aaa a8be 17d2 70be 7b72 b3bd 5e19 5f3d
00000140: ca55 0d3e 3bc0 5f3e 239e 96bd 62bb e7be
00000150: d083 a43e 37cd 123e 0474 87be b617 92bc
00000160: 299e a1be ba44 a53e b524 1f3e 7920 85be
00000170: 55a5 eabd ebef cfbe be1c a7be 41f6 263d
00000180: 7969 153e af5f 6a3e ad23 c23e bb9c 04be
00000190: cbd0 aabc 73dc b0be 1e0c d8be bc82 10be
000001a0: be29 7cbb 887e 84be de21 ba3b 224d d63d
000001b0: b505 cbbe 886e 913e 8998 01bf 99e8 bfbe
000001c0: 272a c3bd 2988 3c3e a6db 213e 8bcc 613e
000001d0: 0acf 37be 3704 c93e b569 e5bd 39da 72be
000001e0: 92a6 f0bd 623f d83d 0919 c1bd 1042 833e
000001f0: d902 7e3e b5f0 9e3e dc6c af3e baf9 5d3e
00000200: ed70 60bc 065a 893d 45d7 bb3d 458f bebe
00000210: 41ae a4be 5d18 9a3d 58ae aa3e c3df edbe
00000220: b83f bfbd e964 d53e 936c 2f3e 5433 e0bd
00000230: 2bc8 00be 3062 37bd b8ac 303e a775 fd3c
00000240: 7595 c4bd 46ce 853e decc 28bd 8d00 87bc
00000250: e703 a73e 2cd0 ebbe 34ef 64be ef9a a53e
00000260: e4e2 cfbe 3b87 183f 65ed 5b3d 6027 6abe
00000270: 21b1 443e ba47 a93d cdfc 76be cecc 0d3e
00000280: f6fc d43d e389 59be fc09 cc3d a875 a9bd
00000290: c6d9 143f e4c3 06bf be3b 253d 41d3 a7be
000002a0: 99bc 9e3e 95c5 c8be 6a0e 2e3e 30d2 a53e
000002b0: 8cd5 a9bd a576 25be d68b 44be e865 073e
000002c0: d5a8 553e 30e6 92be 7a69 8dbe 0f6f 6a3d
000002d0: a9f9 06be c524 82be cdcc b8be 96a9 bc3e
000002e0: f056 b93e 9caa 8a3e c249 333d ff74 30be
000002f0: 514e 09bf 185e 753e 6012 b83d 0f47 19be
00000300: 5c5d 45be 6cc8 6abd 1fd3 45be 2e47 b43e
00000310: 5fa8 06be b70b 813d 3e64 95bd ab60 833e
00000320: 2f20 b4bd c9ca b1bc dd03 213e aca8 d63d
00000330: 09a2 d2be 018b 183e 947f 85be f4c1 b03e
00000340: 6f74 8bbe aa9c 663d 6990 a6be 7980 aa3d
00000350: 8362 a03e 4ff5 523e 34dd d0bc cac1 c3bd
00000360: 2574 483e edba 773e 77da 4a3e 7456 c8be
00000370: 9d4d 38be a354 9bbe 736c 64be 88a1 37be
00000380: ab89 db3e 737a 5cbe 4957 36be 4533 4abe
00000390: 0e12 8cbd 46a0 2f3e 4398 bcbe 285b 963e
000003a0: 2888 46be e3e5 29bd af52 a1bd 6472 fd3c
000003b0: 3da2 45bb ec99 083e f68f 7ebe 8a7f eb3e
000003c0: c841 6c3e f801 c5be fe46 58bd ff00 72be
000003d0: fc47 143e 7172 c9be 59ac 09bf d2c5 12bf
000003e0: 9233 283b bb00 233e 2502 f63d a51d 96bd
000003f0: bd54 893e b5e8 aebe 1856 573e 3b94 06bf

net.0.bias f4 [256]
-0.27579737 0.015330289 -0.35879582 -0.41063747 0.39042392 -0.3971789 -0.35472116 -0.33720237
0.10813212 0.011905572 0.19904515 -0.22446705 -0.09612473 -0.24325669 -0.41281658 0.22917978
0.35536018 0.089326225 -0.10952123 0.34167677 -0.32617468 -0.2658478 0.06603035 0.33626592
0.33148462 0.16992022 0.21422932 0.23319648 0.06324589 -0.0068624592 0.31503898 0.20184429
0.13339442 -0.32661083 -0.22432838 0.0074415817 -0.4161984 0.4124746 0.18572292 -0.29700333
-0.21352394 -0.12542115 0.20665777 -0.25050232 -0.09847046 0.26089928 0.18602344 -0.49754727
0.1251396 0.24373405 -0.34169298 0.1874692 -0.104333565 -0.08762345 -0.27840737 0.21150254
-0.27461693 0.17941418 0.052942283 -0.13483153 -0.08164219 0.19203912 -0.09688806 0.038606234
0.27700835 0.13003407 -0.1753612 0.22068162 0.19422899 0.2612066 0.14555512 -0.0943737
0.26272142 -0.42634574 -0.36187154 0.010108952 0.24871586 -0.39821166 0.2230299 -0.07329717
-0.13160889 -0.022290155 -0.09237845 -0.01494457 -0.21704009 0.065429024 0.25837755 0.3602061
0.008450674 0.28009218 -0.036894497 0.13528109 0.22562273 -0.024093207 0.18503298 0.27663088
-0.3574825 -0.23108563 -0.31729874 0.06503668 -0.1437475 -0.21769957 0.14389549 0.23523806
0.102782056 -0.25425962 0.010006671 0.15971808 -0.3259228 0.24380939 0.03666642 0.36065832
0.3150211 -0.17629378 -0.18182494 -0.3303153 -0.13999614 -0.3551348 0.37245473 -0.38951445
-0.3180125 -0.06903073 0.045519058 0.14650072 0.3357432 -0.23431657 0.3224162 -0.51597065
0.34211943 -0.22025633 -0.12356291 -0.0012749631 0.20692359 -0.28029808 -0.07781353 0.16883771
0.031067623 0.039662432 -0.04738024 0.20060769 0.35399285 0.34188372 0.15326262 0.0059051053
0.37008405 0.33741432 -0.34122452 -0.063360356 0.31206244 0.2216589 -0.094767034 -0.31207654
-0.1146529 0.2837376 0.21631648 -0.25626868 -0.2569485 0.033161424 -0.27375293 0.13933079
-0.35746542 -0.13117671 -0.1323757 0.22311586 0.01792538 -0.40733603 0.3596395 0.3433427
0.38708207 -0.3480465 -0.37698063 -0.3598155 -0.2588999 -0.3111281 -0.03500997 0.37388515
0.19663009 -0.14236593 0.31626177 0.037092626 -0.32900622 -0.20614184 -0.40346873 -0.097538404
-0.46393442 0.17062593 0.33107924 -0.1102607 -0.06221205 -0.31501654 0.2780132 0.0013995836
0.001570028 0.39447597 -0.20623109 -0.22730957 -0.1450341 -0.0163004 -0.09723582 -0.31415808
0.05042133 0.16812427 0.3453233 0.008734271 0.19458027 -0.06284667 0.2202398 0.10702907
0.34364703 0.16416977 0.0644716 0.11216825 0.35391766 -0.4156667 -0.05897384 -0.15090933
-0.12868562 -0.0746043 -0.43607292 0.34080747 0.08257516 -0.31438124 0.18951344 -0.15332767
-0.27091596 0.19277918 -0.040460493 0.22448935 0.20360425 -0.19875059 -0.08859728 0.0951058
-0.08972106 -0.10706013 -0.4548723 -0.09802132 0.32301167 -0.24915436 0.40326717 0.29650268
-0.07925976 0.19164386 0.10081809 -0.11441871 0.27822977 -0.17878948 -0.18374927 0.2427629
-0.15252878 0.31852207 -0.4057066 -0.02800049 0.06310096 -0.028114261 0.15647942 -0.088461846
00000000: 5035 8dbe e42b 7b3c 16b4 b7be 133f d2be
00000010: a5e5 c73e 085b cbbe 039e b5be caa5 acbe
00000020: 5f74 dd3d 970f 433c 7ed2 4b3e b1da 65be
00000030: 0bdd c4bd 4818 79be b25c d3be 1bae 6a3e
00000040: c5f1 b53e abf0 b63d ab4c e0bd 42f0 ae3e
00000050: 5e00 a7be 341d 88be ec3a 873d 0c2b ac3e
00000060: 5ab8 a93e 91ff 2d3e ee5e 5b3e 0fcb 6e3e
00000070: 1087 813d 7bde e0bb ca4c a13e 45b0 4e3e
00000080: 8c98 083e 8939 a7be 57b6 65be 83d8 f33b
00000090: f517 d5be df2f d33e 262e 3e3e d210 98be
000000a0: 05a6 5abe 676e 00be 189e 533e d741 80be
000000b0: e1aa c9bd 9794 853e ee7c 3e3e 84be febe
000000c0: 9824 003e 6b95 793e 62f2 aebe edf7 3f3e
000000d0: d6ac d5bd ec73 b3bd 698b 8ebe 1f94 583e
000000e0: 979a 8cbe 5ab8 373e 02da 583d 4711 0abe
000000f0: 0534 a7bd e7a5 443e 3f6d c6bd 9221 1e3d
00000100: 0ad4 8d3e a727 053e e391 33be 5dfa 613e
00000110: f7e3 463e dfbc 853e 670c 153e 0047 c1bd
00000120: 6c83 863e fd49 dabe 3a47 b9be 05a0 253c
00000130: 5faf 7e3e 66e2 cbbe f361 643e d41c 96bd
00000140: 7bc4 06be d899 b6bc ea30 bdbd 12da 74bc
00000150: c23f 5ebe a7ff 853d 104a 843e ef6c b83e
00000160: b274 0a3c 3e68 8f3e af1e 17bd 2087 0a3e
00000170: a509 673e 1e5f c5bc 4979 3d3e 90a2 8d3e
00000180: f207 b7be b6a1 6cbe fb74 a2be f331 853d
00000190: 8b32 13be a3ec 5ebe 5759 133e 3fe2 703e
000001a0: 667f d23d 512e 82be 05f3 233c 238d 233e
000001b0: 5adf a6be 2ba9 793e 872f 163d 35a8 b83e
000001c0: 724a a13e 5b86 34be 5130 3abe 161f a9be
000001d0: 265b 0fbe 3ad4 b5be 63b2 be3e 706e c7be
000001e0: 89d2 a2be fc5f 8dbd 3172 3a3d 4904 163e
000001f0: 88e6 ab3e aff0 6fbe bc13 a53e a716 04bf
00000200: 472a af3e e08a 61be 8d0e fdbd aa1c a7ba
00000210: c7e3 533e 3b83 8fbe b35c 9fbd cbe3 2c3e
00000220: 8781 fe3c 1375 223d c811 42bd 1a6c 4d3e
00000230: 8d3e b53e 620b af3e e0f0 1c3e 9d7f c13b
00000240: a87b bd3e 92c1 ac3e fbb4 aebe 13c3 81bd
00000250: a6c6 9f3e 8dfa 623e 3815 c2bd 7fc8 9fbe
00000260: 24cf eabd 0e46 913e 1182 5d3e a635 83be
00000270: c18e 83be 46d4 073d 5829 8cbe bbac 0e3e
00000280: b505 b7be 3053 06be 7f8d 07be 7c78 643e
00000290: 3fd8 923c 598e d0be ab22 b83e 9dca af3e
000002a0: 9f2f c63e 2733 b2be 9b03 c1be bd39 b8be
000002b0: 878e 84be 2f4c 9fbe 9d66 0fbd e06d bf3e
000002c0: 6659 493e 60c8 11be 10ed a13e 70ee 173d
000002d0: 8173 a8be d916 53be 7493 cebe 37c2 c7bd
000002e0: d088 edbe 90b8 2e3e 3883 a93e 5dd0 e1bd
000002f0: 10d2 7ebd d949 a1be bf57 8e3e 3c72 b73a
00000300: 66c9 cd3a c1f8 c93e 3e2e 53be d7c3 68be
00000310: d283 14be 6b88 85bc 9323 c7bd 54d9 a0be
00000320: 9986 4e3d c528 2c3e 37ce b03e 301a 0f3c
00000330: 0d40 473e c1b5 80bd 8b86 613e 0f32 db3d
00000340: 81f2 af3e 1f1c 283e b009 843d 78b8 e53d
00000350: b234 b53e 44d2 d4be 8e8e 71bd fa87 1abe
00000360: 2ac6 03be 24ca 98bd f344 dfbe 517e ae3e
00000370: 2a1d a93d 94f6 a0be d00f 423e ee01 1dbe
00000380: 7fb5 8abe e867 453e e7b9 25bd 89e0 653e
00000390: a27d 503e 4685 4bbe 7e72 b5bd d4c6 c23d
000003a0: adbf b7bd 5742 dbbd 06e5 e8be 67bf c8bd
000003b0: c961 a53e 5222 7fbe 0979 ce3e 33cf 973e
000003c0: f152 a2bd 4a3e 443e b779 ce3d 5b54 eabd
000003d0: 2274 8e3e 9714 37be c528 3cbe d696 783e
000003e0: 8130 1cbe 5315 a33e c7b8 cfbe 4961 e5bc
000003f0: 133b 813d e14f e6bc 243c 203e 7c2b b5bd

net.2.weight f4 [256, 256]
-0.054424964 -0.00012021703 -0.058927245 -0.031184427 0.03189987 -0.015315297 0.00842105 -0.007412952
-0.0008756854 0.017437564 -0.043156706 0.024053797 -0.0036621382 -0.05260013 0.051483274 0.03278175
0.048193775 -0.033413976 0.023961276 -0.04020561 -0.039744392 -0.025477022 0.024251161 -0.023931714
-0.020927828 -0.01249486 -0.050093282 0.034710187 -0.047866125 0.036976706 -0.032725655 -0.010328347
-0.04476503 -0.0010584369 0.04011433 -0.055766407 -0.051189173 0.04762725 -0.050051037 0.0011211135
-0.023808926 0.02603046 0.0037272177 0.0019015928 -0.040766183 0.04612163 0.04986443 0.014696136
-0.029588059 0.019944772 0.05469589 0.0332767 -0.028278427 0.05804164 0.049172647 0.015881982
0.005064975 0.009452446 0.002367705 0.021326467 0.059244797 0.0007333145 0.016944256 0.048942197
0.033629224 0.012116457 -0.023171037 -0.045251366 -0.034287117 -0.032198112 0.014514587 -0.015199922
-0.054323632 0.046267174 -0.004230976 0.044733897 -0.054978065 0.0004990183 0.01810757 0.04322976
0.018836508 0.015240046 -0.017789934 0.025605757 -0.011503243 -0.019788524 0.04400553 0.027106473
-0.011748777 -0.0474152 -0.042214803 0.044022515 -0.029805249 -0.054066695 -0.06588626 -0.023678517
-0.01465614 -0.050814793 -0.042616703 -0.046989005 -0.06894497 0.05545 0.055634085 -0.0028045967
0.048685413 0.024253383 -0.015216056 0.033020683 -0.023147456 -0.06394368 0.022991698 0.038317688
-0.011112204 -0.056590587 0.016015043 0.003483939 0.031284038 0.0035212636 0.04498108 0.031295314
-0.05238083 -0.01103957 0.04433683 0.042229317 0.03090351 -0.013757743 -0.020328198 -0.02778121
-0.00348425 -0.011983281 -0.04873818 -0.005194232 0.00655372 0.04192473 -0.032488227 0.029448468
0.04627963 -0.009182245 -0.0510998 -0.047078937 -0.026077468 -0.06147616 -0.0059727426 0.040044792
-0.032173768 -0.018622192 0.056769922 0.023797587 0.046814658 0.030941665 -0.0061600106 0.042143993
-0.017815623 -0.04705217 -0.06508362 -0.04900141 -0.041505247 0.04897669 -0.0395462 -0.066111505
0.02669169 -0.019728892 -0.021771288 -0.044095263 0.01659247 0.01692291 -0.045125656 0.053776033
-0.045134757 0.037930455 -0.058746792 0.043728054 -0.048682112 0.015990324 -0.03929711 -0.04927254
0.03858982 0.033241563 0.053999595 0.033882603 -0.023889966 -0.019637883 -0.02285494 -0.060613986
-0.009038918 0.028932147 0.05263379 -0.055393428 0.02125355 -0.06725238 0.013414696 0.0032155588
0.030237854 -0.0071835215 0.043244466 -0.033310752 0.011440804 0.02577276 0.026833937 0.024103351
-0.020516349 0.05120369 -0.054120537 -0.011339323 0.0202432 0.018234352 -0.026825001 -0.012264669
0.049209937 0.0050688996 -0.0008967858 0.036202356 -0.04636982 -0.023828737 -0.018477492 -0.007865615
-0.027003728 -0.0397755 0.04147401 -0.04474229 0.049490083 -0.01724202 0.015451026 0.041424476
0.031055704 0.04357485 -0.06731012 -0.059495293 -0.0685035 -0.043128114 0.006690145 0.0038558068
-0.021936705 -0.040677063 -0.030415857 0.06068993 -0.057848614 0.045444712 -0.054773975 -0.045061376
-0.053384162 0.055447325 -0.056735765 -0.043623343 -0.044632845 0.032288894 -0.04041883 -0.04991225
0.027431909 0.01874075 -0.020358376 0.0023637773 -0.009391624 0.021697052 -0.055293463 -0.059202626
00000000: b6ec 5ebd 071d fcb8 b25d 71bd 7c76 ffbc
00000010: 70a9 023d 03ed 7abc 72f8 093c 59e8 f2bb
00000020: 418e 65ba 39d9 8e3c 16c5 30bd 780c c53c
00000030: 7c00 70bb 3c73 57bd 20e0 523d 2846 063d
00000040: d666 453d 18dd 08bd 704a c43c a3ae 24bd
00000050: 04cb 22bd 30b5 d0bc 5faa c63c 710c c4bc
00000060: d670 abbc 3eb7 4cbc 9d2e 4dbd 452c 0e3d
00000070: 450f 44bd e374 173d 560b 06bd 3a38 29bc
00000080: 895b 37bd 40bb 8aba ec4e 243d 516b 64bd
00000090: bdab 51bd cb14 433d 5102 4dbd 54f2 923a
000000a0: f00a c3bc d53d d53c 5644 743b de3e f93a
000000b0: 71fa 26bd 09ea 3c3d a53e 4c3d 10c8 703c
000000c0: a862 f2bc 3863 a33c cc08 603d 264d 083d
000000d0: 29a8 e7bc 12bd 6d3d 4269 493d ee1a 823c
000000e0: 17f8 a53b 6fde 1a3c 802b 1b3b d8b4 ae3c
000000f0: acaa 723d e73b 403a aece 8a3c 9d77 483d
00000100: ccbe 093d 1b84 463c 30d1 bdbc 7f59 39bd
00000110: a670 0cbd 2be2 03bd 97ce 6d3c 1809 79bc
00000120: 7582 5ebd a682 3d3d 00a4 8abb e43a 373d
00000130: ae30 61bd 8dd0 023a 5456 943c b011 313d
00000140: 054f 9a3c 63b1 793c 32bc 91bc 2ac3 d13c
00000150: 1978 3cbc 8b1b a2bc 253f 343d 650e de3c
00000160: f17d 40bc 7136 42bd 6ee9 2cbd f450 343d
00000170: 232a f4bc 0a75 5dbd 60ef 86bd 73f9 c1bc
00000180: 4e20 70bc 2c23 50bd da8e 2ebd 8b77 40bd
00000190: 0533 8dbd 8a1f 633d 91e0 633d 53cd 37bb
000001a0: 5b6a 473d 08af c63c c44c 79bc b240 073d
000001b0: bc9f bdbc e7f4 82bd 1659 bc3c 02f3 1c3d
000001c0: f60f 36bc 88cb 67bd fb31 833c cc52 643b
000001d0: b123 003d 00c5 663b 153e 383d 842f 003d
000001e0: 488d 56bd 50df 34bc 899a 353d a6f8 2c3d
000001f0: 5c29 fd3c 2868 61bc 5287 a6bc 6c95 e3bc
00000200: 0458 64bb 8655 44bc b0a1 47bd 6034 aabb
00000210: 97c0 d63b 44b9 2b3d 6012 05bd ea3d f13c
00000220: b68f 3d3d 2071 16bc 064e 51bd d8d5 40bd
00000230: 6aa0 d5bc 6dce 7bbd ffb6 c3bb 0206 243d
00000240: a4c8 03bd 918d 98bc 9487 683d 28f3 c23c
00000250: bac0 3f3d 6079 fd3c ead9 c9bb 2e9f 2c3d
00000260: 12f2 91bc c7b9 40bd 904a 85bd b4b5 48bd
00000270: 6801 2abd c89b 483d 32fb 21bd 7865 87bd
00000280: 88a8 da3c 7c9e a1bc b359 b2bc 3c9d 34bd
00000290: efec 873c eaa1 8a3c aed5 38bd 4244 5c3d
000002a0: 39df 38bd f75c 1b3d 7aa0 70bd 301c 333d
000002b0: e566 47bd 24fe 823c 02f6 20bd 01d2 49bd
000002c0: 5c10 1e3d 4e28 083d ae2e 5d3d 7cc8 0a3d
000002d0: e4b4 c3bc a0df a0bc 483a bbbc 5f46 78bd
000002e0: f817 14bc 1c03 ed3c 8796 573d 38e4 62bd
000002f0: ed1b ae3c 9ebb 89bd 50c9 5b3c 20bc 523b
00000300: 60b5 f73c bf63 ebbb 1c21 313d db70 08bd
00000310: 3672 3b3c 6521 d33c d8d2 db3c 6474 c53c
00000320: e711 a8bc f6ba 513d 7fad 5dbd 91c8 39bc
00000330: 11d5 a53c 3560 953c 1bc0 dbbc c0f1 48bc
00000340: 5c90 493d 0319 a63b 4716 6bba ec48 143d
00000350: 48ee 3dbd 7c34 c3bc 1c5e 97bc c8de 00bc
00000360: ec36 ddbc a2eb 22bd a7e0 293d b143 37bd
00000370: 1db6 4a3d 233f 8dbc 4d26 7d3c b6ac 293d
00000380: 8868 fe3c 8b7b 323d e3d9 89bd 56b1 73bd
00000390: 904b 8cbd 1ba7 30bd 0139 db3b b4b1 7c3b
000003a0: 9bb4 b3bc fe9c 26bd ad2a f9bc 0196 783d
000003b0: abf2 6cbd 3c24 3a3d ad5a 60bd 4792 38bd
000003c0: 5aa9 5abd bc1c 633d c363 68bd 64ae 32bd
000003d0: eed0 36bd 5c41 043d 378e 25bd ca70 4cbd
000003e0: e2b8 e03c 3486 993c 9cc6 a6bc 9ae9 1a3b
000003f0: 53df 19bc 04be b13c 667b 62bd 747e 72bd

net.2.bias f4 [256]
0.011397199 -0.06916648 -0.08405346 0.038021386 0.02452589 -0.0012373977 0.031597033 -0.071174294
-0.024518998 0.15452614 0.03367482 -0.059953026 0.073053524 -0.034093153 0.07196637 -0.05464143
0.010252985 0.050332896 0.103525005 -0.012805963 0.059651162 0.03422027 0.0923898 -0.038963635
-0.03937946 -0.060006253 -0.019815248 0.015871923 -0.15434971 -0.035538178 0.031953342 0.12723142
-0.013384812 0.13109437 0.037927892 0.038629856 0.08024532 -0.118527114 0.061297756 -0.03994236
0.047810856 0.037256297 -0.061274 0.09718552 -0.025479503 0.06837964 0.022880513 0.042312007
0.1396926 -0.06055424 0.03942781 0.14209619 0.06987949 0.0112789795 0.041180417 -0.0002933574
-0.03999058 -0.0012001735 0.0624249 0.026574157 0.10332929 -0.04836717 0.021639025 0.07159649
0.018791547 0.060398266 0.02256808 -0.05472218 -0.07226231 0.02516354 0.047289092 0.040709108
0.03504031 -0.026253195 -0.052784216 0.031090863 -0.076022595 -0.07898742 -0.055381 -0.029436205
-0.0085468665 0.1376765 0.07091139 -0.004341811 -0.047208343 -0.015356372 -0.048372693 0.044326328
0.04111456 0.033368662 0.05370136 0.179042 0.02947581 -0.061100442 -0.058405332 -0.020230623
0.04952233 0.08828569 0.02007172 0.051786806 -0.019487683 0.02554254 -0.027010301 0.0153937815
0.030823676 0.13293004 -0.087599024 -0.05407747 -0.018451078 -0.038005337 0.038307656 -0.05367081
-0.07406083 0.0053654485 -0.006259605 0.0093126595 0.0072298073 -0.027639022 0.14142683 0.002936557
-0.053766854 0.0015004505 0.021757007 0.08129689 0.10144563 0.15292116 0.016923718 0.08101478
0.023078412 0.01960507 0.031351782 0.03161826 0.032513477 -0.0624983 -0.05397373 0.115817726
0.10677087 -0.058679633 -0.013122641 -0.06511112 0.030381044 -0.05040632 0.12474932 -0.060619317
-0.024360077 -0.038231242 -0.05013843 -0.05685327 -0.027344272 0.0003616636 0.04499237 -0.08431417
-0.032772765 -0.038177982 0.07991841 0.10781021 -0.06519643 0.027774448 -0.020581271 -0.019278325
0.05021996 0.1773166 0.13079348 0.07350243 0.11573504 -0.058999978 0.0025934614 0.014934865
-0.035422307 -0.024962513 0.03168645 0.0156975 0.099889204 0.053418465 0.014789827 0.04189782
-0.068338566 0.04366886 0.017730713 0.05748306 -0.056999654 0.012598481 0.010818312 0.022283526
0.0071583414 0.026156636 0.15714431 0.014205266 -0.04006157 0.009651703 0.007584164 -0.034905527
-0.050876427 -0.03848802 0.032613873 0.058025036 0.16570716 -0.040719606 -0.0139208315 -0.015168332
0.17231709 0.11327279 0.008050517 0.028042212 -0.024003692 -0.022643901 -0.002952557 0.061888166
-0.056421187 0.08553305 -0.05397096 -0.1275713 0.098191075 0.02485227 -0.004722329 -0.05935443
-0.030575812 -0.032262642 -0.028127434 -0.060224768 0.15254164 -0.0034464689 0.08628135 0.07695462
-0.042755302 -0.047724072 0.062000763 0.010596866 -0.012965148 -0.014674602 0.033148274 -0.003235723
-0.085897624 0.01514633 -0.023646953 0.15671156 0.026861466 0.089171484 0.04633108 -0.022809792
0.08795574 0.042698253 0.05731729 0.045165222 -0.0661908 -0.0185654 0.1459534 0.15135856
0.02337196 0.0066608996 0.011330505 0.050718475 -0.032334525 0.027664449 -0.029323474 0.11312606
00000000: 51bb 3a3c 28a7 8dbd 3824 acbd 50bc 1b3d
00000010: 85ea c83c 2d30 a2ba e46b 013d d4c3 91bd
00000020: 11dc c8bc 1a3c 1e3e 9cee 093d 4e91 75bd
00000030: 169d 953d 43a5 0bbd 1b63 933d b1cf 5fbd
00000040: 23fc 273c de29 4e3d eb04 d43d 1ad0 51bc
00000050: c754 743d 8e2a 0c3d dd36 bd3d 5598 1fbd
00000060: 5b4c 21bd 1ec9 75bd 9653 a2bc d605 823c
00000070: da0d 1ebe 7b90 11bd 82e1 023d f448 023e
00000080: f84b 5bbc 9a3d 063e 475a 1b3d 573a 1e3d
00000090: a957 a43d 58be f2bd 5b13 7b3d 9a9a 23bd
000000a0: 51d5 433d 0f9a 183d 72fa 7abd 3409 c73d
000000b0: 64ba d0bc a00a 8c3d ea6f bb3c 5b4f 2d3d
000000c0: 940b 0f3e b907 78bd 0e7f 213d aa81 113e
000000d0: fa1c 8f3d 78cb 383c ccac 283d c4cd 99b9
000000e0: 2acd 23bd 244f 9dba 40b1 7f3d 0cb2 d93c
000000f0: 4f9e d33d a71c 46bd 5344 b13c 2ea1 923d
00000100: bbf0 993c 2c64 773d b2e0 b83c 5d24 60bd
00000110: 43fe 93bd c523 ce3c 35b2 413d 98be 263d
00000120: 6e86 0f3d f110 d7bc 4334 58bd 44b2 fe3c
00000130: bcb1 9bbd 28c4 a1bd 30d7 62bd 3224 f1bc
00000140: 2808 0cbc 12fb 0c3e fe39 913d c045 8ebb
00000150: 895d 41bd 4b99 7bbc 7222 46bd 868f 353d
00000160: be67 283d 94ad 083d f5f5 5b3d c956 373e
00000170: 4177 f13c 7544 7abd 6e3a 6fbd b1ba a5bc
00000180: edd7 4a3d 21cf b43d 736d a43c 671e 543d
00000190: a2a4 9fbc 973e d13c b544 ddbc 3336 7c3c
000001a0: ef81 fc3c d01e 083e 1e67 b3bd 5680 5dbd
000001b0: b726 97bc 7cab 1bbd 7de8 1c3d ecd5 5bbd
000001c0: 34ad 97bd a5d0 af3b 5f1d cdbb 2094 183c
000001d0: 05e8 ec3b 3b6b e2bc 32d2 103e 4073 403b
000001e0: a23a 5cbd c4aa c43a c03b b23c fc7e a63d
000001f0: bac2 cf3d 5d97 1c3e 9ca3 8a3c 14eb a53d
00000200: f00e bd3c d09a a03c ba6a 003d 2682 013d
00000210: da2c 053d 38fe 7fbd 8f13 5dbd d831 ed3d
00000220: b0aa da3d 0e5a 70bd 5800 57bc fb58 85bd
00000230: abe1 f83c db76 4ebd 927c ff3d f64b 78bd
00000240: c98e c7bc 5d98 1cbd f45d 4dbd f9de 68bd
00000250: 1801 e0bc ab9d bd39 eb49 383d e8ac acbd
00000260: bc3c 06bd 8460 1cbd 43ac a33d 99cb dc3d
00000270: b585 85bd 3d87 e33c 0e9a a8bc 94ed 9dbc
00000280: 72b3 4d3d 7c92 353e baee 053e 7188 963d
00000290: 7e06 ed3d f6a9 71bd 10f7 293b 5db1 743c
000002a0: fb16 11bd 2f7e ccbc a7c9 013d 0b98 803c
000002b0: b692 cc3d 52cd 5a3d 0851 723c 0c9d 2b3d
000002c0: 17f5 8bbd 1ede 323d 0040 913c 5b73 6b3d
000002d0: 7878 69bd dc69 4e3c 4a3f 313c f18b b63c
000002e0: 8590 ea3b 7146 d63c 70ea 203e 34bd 683c
000002f0: 9a17 24bd 2d22 1e3c 9484 f83b 19f9 0ebd
00000300: cd63 50bd 9da5 1dbd 2096 053d a9ab 6d3d
00000310: 23af 293e 9ac9 26bd 3314 64bc 9884 78bc
00000320: e473 303e 91fb e73d 51e6 033c c8b8 e53c
00000330: 64a3 c4bc b47f b9bc b07f 41bb 727e 7d3d
00000340: e719 67bd f42b af3d a710 5dbd 0da2 02be
00000350: 6718 c93d fd96 cb3c c4bd 9abb a11d 73bd
00000360: 207a fabc d525 04bd 816b e6bc 3fae 76bd
00000370: e033 1c3e 27de 61bb 47b4 b03d 629a 9d3d
00000380: 2f20 2fbd 517a 43bd 83f4 7d3d 7a9e 2d3c
00000390: c66b 54bc be6d 70bc 7cc6 073d 6c0e 54bb
000003a0: 18eb afbd 5028 783c 41b7 c1bc ff78 203e
000003b0: 940c dc3c 8a9f b63d a9c5 3d3d 9adb babc
000003c0: 2422 b43d 5de4 2e3d 89c5 6a3d 2bff 383d
000003d0: 0b8f 87bd 7716 98bc cf74 153e bdfd 1a3e
000003e0: 8d76 bf3c ad43 da3b 95a3 393c 2dbe 4f3d
000003f0: 3571 04bd 8ea0 e23c c837 f0bc a3ae e73d

actor.weight f4 [1, 256]
0.010974159 0.007027136 0.058628622 -0.043660313 0.5076204 0.012913487 0.046569493 -0.014622924
0.0042220694 0.09444051 -0.022874273 -0.013445794 0.47452134 -0.004221883 0.32647997 0.024229102
0.4596543 -0.006882593 -0.1063811 0.05010144 0.03112439 -0.31904483 0.36788687 -0.03504742
-0.3540279 -0.0036520795 0.052363925 -0.019665202 -0.34271133 -0.24755529 0.019554863 0.26973626
0.044684112 -0.026488852 -0.31053984 -0.23502816 0.4726257 0.22797036 -0.19790645 0.008015297
0.12997164 -0.3247742 0.053346403 0.02869009 -0.045536064 0.48913175 -0.0075861793 -0.27703336
0.15897106 0.07288104 -0.027615199 0.17798588 0.43228522 -0.2815278 0.39313054 -0.040921837
-0.35115406 -0.020017961 -0.008374825 -0.02999235 0.12882647 0.024079593 0.30353177 -0.2310468
-1.2022256 0.027434235 -0.24785863 -0.0516793 0.008269344 -0.37106207 0.109661095 0.16094719
0.051215064 -0.0069363476 0.025263244 0.033855196 0.0070853783 0.013527915 -0.075963065 -0.21674696
0.511016 -0.12224621 -0.34748024 -0.37514916 0.0041673463 -0.012676197 -0.04485239 0.04111539
-0.24400106 0.38218972 0.047070682 0.008608202 0.045729414 0.014053541 -0.0522423 0.46947253
0.058144603 0.21570557 -0.24314155 -0.04225002 0.06327938 0.016480707 -0.008455219 0.0057436414
0.0044770897 -0.16556744 0.06809572 0.15130572 0.06003982 0.006998703 0.028555835 0.009826774
0.004741174 0.004775356 -0.0018006001 0.4468593 0.0016632981 -0.0037346943 0.068228655 -0.00082430115
0.04487724 0.038395304 0.04902961 -0.1888057 0.02264438 0.020135058 0.05299781 -0.096415535
0.032216918 -0.009268492 -0.008033492 -0.033622097 0.047019333 -0.29878646 -0.008183334 0.12715828
-0.15130182 -0.034183566 -0.04132229 0.046194024 -0.0011977346 -0.38045338 0.18496609 -0.020720959
0.0072712433 -0.01642676 0.00026030093 0.059836138 -0.03427208 -0.22671185 0.023039214 0.1329019
-0.004773695 -0.041263048 0.43707502 -0.012756106 0.022663176 0.07985554 0.50472254 0.039636254
0.030951167 0.049617734 -0.07100047 0.3047149 0.20824978 0.026515372 -0.28182384 0.4507943
0.040476028 0.44098347 0.021900805 0.349785 0.047170665 0.49201477 0.050649457 0.0005053666
-0.046787854 -0.3273213 -0.3271471 0.115294255 0.047869258 0.043441422 -0.21957605 0.07917236
0.14181906 0.012254947 0.15630923 0.4466097 0.009072594 0.48666304 -0.039490316 -0.26205152
-0.034349 -0.31445727 -0.020320738 -0.026922977 0.14305851 -0.026666373 0.020242136 0.008826621
0.09760015 -0.14170124 -0.0646403 0.009308668 -0.2453437 -0.0030545148 -0.084361956 -0.22855018
-0.04502404 0.015857015 -0.4213884 0.103077285 0.11504112 0.29529896 -0.25798845 0.010359507
0.005672764 0.04206727 0.013747301 -0.013715971 0.013554495 0.16391347 0.14649595 -0.018844811
-0.04353003 -0.012065455 0.16938935 -0.038899876 0.018400641 -0.32328165 -0.02951331 -0.046850167
-0.07140899 0.46158192 0.04842298 0.20148802 -0.057431556 0.4329426 0.017520174 0.47173747
0.37928116 -0.40409338 0.20070013 0.0353608 0.05344515 -0.048684824 -0.009039733 -0.115822665
-0.04524522 -0.2800004 -0.052791692 -0.17206328 -0.0067529446 -0.020554228 0.19738294 0.10241898
00000000: f6cc 333c e443 e63b 9124 703d 28d5 32bd
00000010: 69f3 013f 1793 533c a7bf 3e3d fd94 6fbc
00000020: 4959 8a3b 076a c13d d462 bbbc bf4b 5cbc
00000030: 76f4 f23e b957 8abb 6228 a73e 1c7c c63c
00000040: cf57 eb3e 6087 e1bb 56de d9bd 2b37 4d3d
00000050: 94f8 fe3c d859 a3be ab5b bc3e e28d 0fbd
00000060: 2543 b5be ba57 6fbb 8e7b 563d eb18 a1bc
00000070: dc77 afbe 227f 7dbe 8531 a03c df1a 8a3e
00000080: b006 373d 26ff d8bc 14ff 9ebe 39ab 70be
00000090: fffb f13e 1071 693e fda7 4abe 9852 033c
000000a0: 4917 053e ce48 a6be c281 5a3d 7b07 eb3c
000000b0: 0684 3abd 7a6f fa3e 7c95 f8bb 51d7 8dbe
000000c0: 4fc9 223e a842 953d 4539 e2bc ee41 363e
000000d0: 7d54 dd3e 6924 90be 6848 c93e a89d 27bd
000000e0: 77ca b3be b5fc a3bc 9036 09bc 84b2 f5bc
000000f0: 16eb 033e 9142 c53c 8468 9b3e 8897 6cbe
00000100: 87e2 99bf c3bd e03c a7ce 7dbe acad 53bd
00000110: 257c 073c d9fb bdbe ff95 e03d 57cf 243e
00000120: e3c6 513d 4d4a e3bb ddf4 ce3c bfab 0a3d
00000130: 762c e83b 30a4 5d3c 8692 9bbd eaf2 5dbe
00000140: f2d1 023f 395c fabd eee8 b1be 8d13 c0be
00000150: 3c8e 883b d3af 4fbc 24b7 37bd 9c68 283d
00000160: 6adb 79be 5fae c33e 30cd 403d 6b09 0d3c
00000170: c44e 3b3d d340 663c 06fc 55bd b45e f03e
00000180: 0929 6e3d ece1 5c3e 19fa 78be 5b0e 2dbd
00000190: 9f98 813d 8c02 873c c287 0abc 2835 bc3b
000001a0: 8db4 923b 838a 29be c575 8b3d e3ef 1a3e
000001b0: 50ec 753d 6055 e53b eded e93c 7a00 213c
000001c0: da5b 9b3b 977a 9c3b 1d02 ecba beca e43e
000001d0: 0603 da3a c6c1 74bb 77bb 8b3d ea15 58ba
000001e0: 32d1 373d 6544 1d3d 46d3 483d 4856 41be
000001f0: b580 b93c 47f2 a43c 3b14 593d 8275 c5bd
00000200: e3f5 033d e0da 17bc e89e 03bc 53b7 09bd
00000210: 5897 403d 8afa 98be 6413 06bc c835 023e
00000220: ddee 1abe 1104 0cbd 9041 29bd f235 3d3d
00000230: 4efd 9cba c9ca c2be c067 3d3e 00bf a9bc
00000240: 9c43 ee3b 6a91 86bc 0079 8839 bd16 753d
00000250: e160 0cbd 2727 68be bcbc bc3c 7017 083e
00000260: a86c 9cbb 7103 29bd 4cc8 df3e fdfe 50bc
00000270: 20a8 b93c 4d8b a33d 7f35 013f a059 223d
00000280: 4d8d fd3c f73b 4b3d b268 91bd 9703 9c3e
00000290: 6e3f 553e c436 d93c 374b 90be 83ce e63e
000002a0: 31ca 253d 96c8 e13e 5169 b33c 0517 b33e
000002b0: 0736 413d 5ce9 fb3e ce75 4f3d 947a 043a
000002c0: 9fa4 3fbd a896 a7be d37f a7be 651f ec3d
000002d0: 8e12 443d a2ef 313d 8bd8 60be 1e25 a23d
000002e0: 0439 113e f9c8 483c 870f 203e 07aa e43e
000002f0: 38a5 143c e62b f93e 99c0 21bd 9e2b 86be
00000300: 89b1 0cbd 8b00 a1be ad77 a6bc 938d dcbc
00000310: ee7d 123e 7073 dabc d6d2 a53c 889d 103c
00000320: 96e2 c73d 211a 11be 2262 84bd 6283 183c
00000330: 613b 7bbe 412e 48bb f6c5 acbd 0f09 6abe
00000340: 216b 38bd 92e6 813c 38c0 d7be 2f1a d33d
00000350: ae9a eb3d 6d31 973e 1017 84be ecba 293c
00000360: 98e2 b93b bb4e 2c3d 5c3c 613c f4b8 60bc
00000370: ac13 5e3c efd8 273e 0903 163e 6f60 9abc
00000380: 8b4c 32bd 30ae 45bc 6774 2d3e 7a55 1fbd
00000390: f1bc 963c 2c85 a5be e6c5 f1bc f6e5 3fbd
000003a0: e03e 92bd 7754 ec3e 2d57 463d e052 4e3e
000003b0: 5a3d 6bbd a7aa dd3e 7886 8f3c 9387 f13e
000003c0: 2431 c23e 54e5 cebe 5684 4d3e 7cd6 103d
000003d0: 4de9 5a3d bd69 47bd 631b 14bc 6f34 edbd
000003e0: 0d53 39bd 365c 8fbe 1a3c 58bd 5b31 30be
000003f0: ce47 ddbb 5761 a8bc c11e 4a3e 0bc1 d13d

critic.weight f4 [1, 256]
-0.031594902 -0.16128568 -0.22819172 0.043308552 0.0013016581 0.011301598 -0.020529492 0.03345937
-0.011686863 0.06717569 -0.01583064 -0.024152245 0.0066272113 -0.016671209 0.0043925513 0.003997397
0.0050665196 -0.048946004 0.07417821 -0.002184089 -0.12572847 0.017818147 0.00786783 -0.0348304
0.0035763863 -0.010666944 0.041031726 -0.027645154 -0.0863001 0.031082623 -0.015526671 0.01963421
0.01072754 0.09502828 -0.007790563 -0.0068889945 0.004620896 -0.15880688 0.044960145 0.061740316
0.0043936362 -0.004078172 0.006634891 0.00077900814 0.015704837 0.017440848 0.056755222 -0.014616271
0.031411093 -0.12021078 0.023098938 0.042326618 0.0074533485 -0.013299077 0.00033732355 -0.012678637
0.0038954 -0.001694983 0.002906475 -0.020955648 0.012078651 0.046136566 0.0055454504 0.032303993
0.16446292 0.022679897 0.012411951 0.015625117 -0.032290556 0.01040587 0.0041937586 0.011381552
0.008725022 -0.024083948 0.054056898 0.020577896 -0.027296307 -0.11120749 -0.024918534 0.0034607344
0.0057630055 0.053495724 0.107181475 -0.010922881 0.05383956 -0.052754495 -0.006788281 0.05047401
0.0313668 -0.0036597787 0.020109478 0.091484256 0.0424253 -0.010449248 -0.005122178 0.006221543
0.039780807 0.020386904 -0.011532114 0.04846956 -0.0135256415 -0.030720126 -0.028706573 -0.03799587
0.0681465 0.056105997 -0.11848229 -0.0459963 0.045211088 -0.054935828 0.04302946 -9.0349684e-05
-0.019880401 -0.03866955 -0.021445364 0.00376519 0.020307336 -0.03719523 0.073772706 -0.031814486
-0.028768424 0.043537866 0.06812936 0.031612385 0.0503161 0.04959097 -0.014612804 0.05382679
0.007954809 0.041759692 0.017526673 0.0027596399 0.052998476 -0.014329134 0.03206719 0.07387552
0.039140634 -0.14975046 -0.017410703 -0.023954287 -0.0019615255 0.008825438 0.060540393 0.047502946
-0.023831535 0.006024772 -0.037672363 0.052677486 -0.007475656 0.0022808053 0.0012424786 -0.15979159
0.004420833 0.005916165 0.002299884 0.08451423 0.05083458 0.010511061 0.0074517652 0.049556915
-0.023647048 0.05949855 0.10446729 0.021754103 0.010696794 0.047881335 -0.0012456522 0.0056698998
-0.2314716 0.0034881139 -0.02311164 0.00047996067 0.06206208 0.0051794266 0.012276769 0.012948078
-0.00788824 -0.001089599 -0.0011703984 -0.0105017405 0.024084583 -0.006152163 -0.013619639 -0.0101092
-0.064361885 0.054180436 0.037524797 0.0045862715 0.029563561 0.006951044 -0.0163806 -0.0050810687
-0.016669858 0.0034058946 -0.059637275 0.05683261 0.06785017 0.05864104 -0.033192504 -0.039355353
0.07800911 0.07647813 0.0036190827 -0.014627943 0.16782604 -0.004332597 -0.19846155 0.003429865
-0.05329615 0.08149398 0.007970387 -0.25885874 0.0005529724 -0.04168424 -0.006973433 -0.001952905
0.018764671 0.03959083 -0.044550106 -0.053803436 0.049903117 0.027448665 0.06435182 0.052415594
-0.016904257 0.049226448 0.045859605 -0.0062582972 -0.0090887165 -0.0051313085 -0.00353095 0.00030237008
-0.020097325 0.0050900504 0.015272862 0.04165238 -0.020226587 0.0080706775 -0.010464199 0.005918115
0.027825456 -0.0023608156 0.041710045 -0.011122033 -0.05060012 -0.0139216455 0.033200048 0.08140513
-0.029206404 0.00077834487 -0.03434609 -0.008492672 -0.010030836 0.03573642 0.010084186 0.015663173
00000000: a869 01bd 1328 25be 17ab 69be 4f64 313d
00000010: 669c aa3a 562a 393c 772d a8bc b10c 093d
00000020: 427a 3fbc 6893 893d 42af 81bc eeda c5bc
00000030: 1429 d93b 0f92 88bc 64ef 8f3b 99fc 823b
00000040: 0c05 a63b 9b7b 48bd bfea 973d ef22 0fbb
00000050: f7be 00be 5df7 913c 12e8 003c 52aa 0ebd
00000060: ce61 6a3b 68c4 2ebc e210 283d 1778 e2bc
00000070: 1bbe b0bd fca0 fe3c 9463 7ebc ecd7 a03c
00000080: 90c2 2f3c 309e c23d fb47 ffbb 13bd e1bb
00000090: e36a 973b 459e 22be 2128 383d 6ae3 7c3d
000000a0: 7ef8 8f3b 30a2 85bb 8069 d93b 5a36 4c3a
000000b0: 6ea7 803c 1ce0 8e3c 2a78 683d 1579 6fbc
000000c0: eba8 003d 1231 f6bd fc39 bd3c ad5e 2d3d
000000d0: 383b f43b 5fe4 59bc cdda b039 0fba 4fbc
000000e0: f849 7f3b 312a deba 8f7a 3e3b 2eab abbc
000000f0: 89e5 453c b2f9 3c3d 9cb6 b53b 3151 043d
00000100: f868 283e 31cb b93c 7f5b 4b3c 3f00 803c
00000110: 1a43 04bd 627d 2a3c cc6b 893b b079 3a3c
00000120: 65f3 0e3c b34b c5bc c46a 5d3d fa92 a83c
00000130: 819c dfbc c1c0 e3bd f421 ccbc 7dcd 623b
00000140: 98d7 bc3b 551e 5b3d f681 db3d e2f5 32bc
00000150: df86 5c3d 1915 58bd 3a70 debb d6bd 4e3d
00000160: 797a 003d e6d8 6fbb a2bc a43c 195c bb3d
00000170: 27c6 2d3d 5333 2bbc f1d7 a7bb 16de cb3b
00000180: 33f1 223d 7002 a73c 31f1 3cbc 0488 463d
00000190: a79a 5dbc c6a8 fbbc 0c2a ebbc 8fa1 1bbd
000001a0: 6490 8b3d 67cf 653d d8a6 f2bd 9e66 3cbd
000001b0: 432f 393d 6404 61bd a93f 303d 1e7a bdb8
000001c0: 39dc a2bc f663 1ebd 30ae afbc 68c1 763b
000001d0: 925b a63c 075a 18bd 2516 973d e84f 02bd
000001e0: c2ab ebbc c354 323d 6887 8b3d fd7b 013d
000001f0: 4118 4e3d e71f 4b3d 8b6a 6fbc 7b79 5c3d
00000200: e354 023c 360c 2b3d 1994 8f3c 13db 343b
00000210: ee14 593d bec4 6abc e358 033d 0c4c 973d
00000220: ee51 203d 2f58 19be e4a0 8ebc c83b c4bc
00000230: f08c 00bb 9298 103c 34f9 773d 7392 423d
00000240: 5a3a c3bc 736b c53b 564e 1abd 59c4 573d
00000250: 59f6 f4bb 9079 153b aada a23a 68a0 23be
00000260: a3dc 903b 64dc c13b a7b9 163b cc15 ad3d
00000270: ec37 503d 9636 2c3c f02d f43b 31fc 4a3d
00000280: 74b7 c1bc c0b4 733d f2f2 d53d a935 b23c
00000290: 9b41 2f3c 381f 443d 2745 a3ba 91ca b93b
000002a0: e406 6dbe d798 643b 9f54 bdbc 3ba3 fb39
000002b0: cf34 7e3d 2eb8 a93b 8024 493c 2d24 543c
000002c0: ad3d 01bc e0d0 8eba 0e68 99ba 7e0f 2cbc
000002d0: 084d c53c 1598 c9bb e824 5fbc 0fa1 25bc
000002e0: 2ad0 83bd 4eec 5d3d 9ab3 193d 6f48 963b
000002f0: 482f f23c 95c5 e33b 9c30 86bc 187f a6bb
00000300: 3a8f 88bc 6e35 5f3b 3746 74bd 50c9 683d
00000310: 08f5 8a3d 9631 703d ddf4 07bd 1433 21bd
00000320: 3ec3 9f3d 91a0 9c3d 222e 6d3b 0aaa 6fbc
00000330: 97da 2b3e 75f8 8dbb 8139 4bbe 96c7 603b
00000340: 104d 5abd 51e6 a63d 3a96 023c 2289 84be
00000350: 59f5 103a 18bd 2abd 6581 e4bb 9ef8 ffba
00000360: 5eb8 993c ff29 223d 2c7a 36bd fe60 5cbd
00000370: 3667 4c3d 06dc e03c e3ca 833d bcb1 563d
00000380: cc7a 8abc aca1 493d 48d7 3b3d 6712 cdbb
00000390: d7e8 14bc 8924 a8bb 8367 67bb 6d87 9e39
000003a0: 25a3 a4bc 70ca a63b 073b 7a3c b09b 2a3d
000003b0: 3ab2 a5bc e03a 043c 0872 2bbc bfec c13b
000003c0: 36f2 e33c eab7 1abb 27d8 2a3d 3039 36bc
000003d0: 1242 4fbd 9d17 64bc c6fc 073d bcb7 a63d
000003e0: 4542 efbc d709 4c3a 7cae 0cbd d924 0bbc
000003f0: 6058 24bc 5a60 123d 2438 253c 0e50 803c
