models1/ppo_1250.pth (torch, 275660 bytes, 6 tensors)

net.0.weight f4 [256, 6]
00000000: 6126 babe d867 c1be cdb6 2d3e 7a45 c73e
00000010: b6f9 8fbd 678b b6be c106 76bd 6461 b8bc
00000020: ee8b e33e 421e c3be 1d09 aabd 78db e13e
00000030: 84a8 30be 9611 c83e 2443 cc3b 5baa e7be
00000040: a0ff eabd 1066 22be 673b a5be f85d 743e
00000050: 0cec 1e3e 4391 44bd 61bc a53b e186 a43e
00000060: 2640 7c3e 6ab0 05be d3fc fdbe 0756 873e
00000070: 31d8 443e 422b 52be 4d0e f33d 211d 84bd
00000080: d944 bc3e daad ba3b 0772 9cbe 7d43 663e
00000090: e00b 3bbb 19a1 fd3d 0731 ec3e 5802 863e
000000a0: 740e 9d3d 9141 9cbe 2531 bbbe fc3a c4be
000000b0: 0dc9 32bb 7622 243e c097 2fbd f78e 813e
000000c0: 772f 81be 2122 98be d671 903e 9737 c9bd
000000d0: 4247 763e c6e0 98be 4606 343e 08b7 4b3e
000000e0: da91 e23e 8635 0bbf eacb 37be 8893 283e
000000f0: 3c94 c73d 9a42 39be c7ab 27bd 4a27 94bd
00000100: 040c 47be 2569 18be 2a6c 233d 5e7e 81be
00000110: db2f 5abe 50bd 8b3e 6275 d7bd de15 ffbd
00000120: 9d5f 0dbe f88f d83d 4aad 4cbe 9400 153e
00000130: 5b2a aebe d585 a2be f2ee 95bd 5a8f 283d
00000140: 79fe 243e a934 723e adf8 b3bd 5f62 f2be
00000150: 435a a93e dd26 213e 02a1 6abe b82d b63c
00000160: bbde 9dbe 6b8f a73e 2de4 b73d fe5d a9be
00000170: 493f 11be 5542 e4be 3b5e 8fbe d6cc adbc
00000180: 5b03 0c3e bd68 613e 16b5 bf3e 0671 0fbe
00000190: 507f 5fbc f853 b6be 55fd 0bbf beda 59be
000001a0: f712 47bd 4a59 bfbe 87d1 823d b987 003c
000001b0: 3434 dcbe 0597 833e 17d0 06bf ac74 cfbe
000001c0: 433f 07be 20d9 513e 1441 1b3e 2d64 593e
000001d0: b111 42be c2cf c73e 5d51 d5bd fd02 7fbe
000001e0: 5896 42bd 658b 1d3e 9cbf 11bd 8447 9d3e
000001f0: e906 763e 611b c83e cc30 b03e 262e 5e3e
00000200: 8f5d b939 ee15 ad3d c467 dd3d 17f1 bfbe
00000210: 0212 b1be 0cfa 633d 882d 9f3e 7f06 02bf
00000220: 5e5d 8bbd 1ada ca3e bc18 1e3e 92a1 03be
00000230: 2f50 0bbe 6c1a 51bd c3b8 443e dbfb e73b
00000240: 8add 05be 377a 663e f7c9 2bbd 9593 10bc
00000250: 4d84 853e 7a54 f9be e012 5fbe e5ea a63e
00000260: c757 d3be dffc 1a3f 9c95 763d 76aa 6cbe
00000270: 256c 323e efbc 7b3d 1eb1 70be 2876 203e
00000280: 669d c83d 49c8 5fbe 21af b33d b416 bcbd
00000290: 6812 153f 5e61 0bbf b498 3b3d 63ae abbe
000002a0: 9021 9a3e ade3 ccbe f647 133e 2667 9a3e
000002b0: cbe9 abbd 819e 29be e6a6 63be 89a3 df3d
000002c0: f5f2 3f3e 3c8a a6be 3e77 84be 2b71 2d3d
000002d0: 0d44 debd 7e6e 6fbe 2e7e bfbe 2019 bd3e
000002e0: e037 b43e 5d53 8b3e b636 3f3d a7cd 3ebe
000002f0: 6a05 0dbf ada2 823e 3e94 9e3d 35b5 05be
00000300: 8a7c 3cbe ee48 52bd f2f3 54be d501 b43e
00000310: 5b82 02be 5a5d 603d 3e64 95bd ab60 833e
00000320: 2f20 b4bd c9ca b1bc dd03 213e aca8 d63d
00000330: 3c83 d9be 9bd2 023e d798 82be 4fff b53e
00000340: 7168 abbe 7055 bd3d 2ebc b0be a004 983d
00000350: d759 943e 862a 3a3e 18cc 54bb 799e e5bd
00000360: 5263 313e c52a 5e3e 9f70 613e d08a cbbe
00000370: 5eef 1abe f3b2 abbe 9c90 71be 3536 43be
00000380: eb0c db3e 1428 69be 963b 28be 0a51 51be
00000390: 5fc5 98bd 2fb8 263e 98ad c0be f8eb 973e
000003a0: b442 3bbe af34 61bd b39f d6bd c77a a23a
000003b0: 3d72 95bd a8ee 7d3d 8141 3abe 8f1c d53e
000003c0: c841 6c3e f801 c5be fe46 58bd ff00 72be
000003d0: fc47 143e 7172 c9be 8abe 07bf 391f 11bf
000003e0: 6f08 6cbb e04d 1d3e 2664 0e3e 0817 a6bd
000003f0: 6202 8a3e 2846 abbe 4ad1 463e d524 11bf
-0.36357406 -0.3777454 0.16964264 0.38920194 -0.070300505 -0.3565323 -0.060065035 -0.022507377
0.44442695 -0.38109022 -0.083025195 0.44112754 -0.17251784 0.39075917 0.0062335897 -0.45247158
-0.11474538 -0.15859246 -0.32271883 0.23863971 0.15519732 -0.047990095 0.005057857 0.32134154
0.24633846 -0.13055578 -0.49606952 0.2643282 0.19223095 -0.20524314 0.11867962 -0.064508684
0.36771277 0.0056969943 -0.30555746 0.22486682 -0.0028541014 0.123842426 0.46131155 0.26173663
0.07668772 -0.30518773 -0.36560932 -0.38326252 -0.002728048 0.16028771 -0.04286933 0.25304386
-0.25231525 -0.29713538 0.2821185 -0.09825056 0.2405062 -0.2985899 0.17580518 0.1989404
0.442519 -0.54378545 -0.17948881 0.16462529 0.0974507 -0.18091813 -0.040935304 -0.07234056
-0.19438177 -0.1488386 0.039898075 -0.25291723 -0.21307318 0.2729287 -0.10520436 -0.12455343
-0.13806005 0.10574335 -0.1998798 0.14551002 -0.3401669 -0.3174273 -0.07320966 0.041152336
0.16112699 0.23652901 -0.087876655 -0.47340676 0.33076677 0.15737481 -0.22912982 0.022238597
-0.30833992 0.32726607 0.08979068 -0.33079523 -0.14184298 -0.44581857 -0.2800158 -0.021215837
0.13673155 0.2201261 0.37442845 -0.14007959 -0.0136411935 -0.35610938 -0.5468343 -0.2127485
-0.04860207 -0.3737281 0.063876204 0.007844859 -0.43008578 0.25701156 -0.5266127 -0.405187
-0.13207726 0.20492983 0.15161544 0.2122962 -0.18952061 0.39025694 -0.104159094 -0.24903484
-0.04750666 0.15385206 -0.035583124 0.30718625 0.24026074 0.39083388 0.3441223 0.21697292
0.00035355656 0.084514484 0.10810807 -0.37488624 -0.3458405 0.055658385 0.31089425 -0.5079116
-0.06804918 0.39619523 0.15439123 -0.12854603 -0.13604806 -0.05105059 0.19211106 0.007079584
-0.13072792 0.22507559 -0.041940656 -0.008824249 0.260775 -0.48697263 -0.21784544 0.32601085
-0.41277906 0.605421 0.060201272 -0.231119 0.17424066 0.061459478 -0.23505065 0.15670073
0.09795646 -0.21853746 0.087736376 -0.09184018 0.5823121 -0.54445446 0.045799926 -0.33531484
0.3010373 -0.40017453 0.1438292 0.3015682 -0.08394202 -0.1656437 -0.22231635 0.10919864
0.18745025 -0.3252734 -0.25872225 0.042344254 -0.108528234 -0.23381993 -0.37400955 0.3693323
0.3519888 0.2721204 0.046683036 -0.18633138 -0.55086386 0.25514737 0.07743119 -0.13057406
-0.18406883 -0.051339082 -0.20796183 0.35157648 -0.12745039 0.054776527 -0.0729451 0.2565969
-0.08795201 -0.02170314 0.1572413 0.1048139 -0.42482936 0.12775652 -0.25507233 0.35546347
-0.3347812 0.092448115 -0.3451857 0.07422757 0.28974792 0.18180284 -0.0032470282 -0.11211867
0.17323044 0.21696003 0.22015618 -0.39754343 -0.15130374 -0.33534965 -0.2359032 -0.19063647
0.42783293 -0.22769195 -0.1642898 -0.2044107 -0.074595205 0.16281198 -0.37632442 0.29672217
-0.18287164 -0.054981884 -0.10479679 0.001239621 -0.0729718 0.06199518 -0.1818905 0.4162335
0.23071969 -0.38478065 -0.05280208 -0.23633192 0.14480585 -0.39345124 -0.53025115 -0.56688267
-0.003601577 0.15361738 0.13905391 -0.081098616 0.26954943 -0.33451962 0.19415775 -0.56696826

net.0.bias f4 [256]
00000000: 2dff 88be a1bb 893c 10c2 c6be 5f14 d7be
00000010: 8666 d13e d848 d0be 34fb afbe deb1 bdbe
00000020: 5016 803d d62b a13b bd33 173e b1da 65be
00000030: c916 adbd 64df 68be 46c1 d3be 5cff 363e
00000040: b03f b63e be4e a93c d673 9bbd 7419 ad3e
00000050: 2284 7bbe ac68 8abe e2bf 463d ad26 a53e
00000060: 46c3 ae3e a23c 2d3e 1adf 5b3e 8c77 6a3e
00000070: df63 8b3d 1eff a4bc e764 a53e 57d7 4c3e
00000080: e96d 043e 8939 a7be f1c4 4abe 03cd 9bbb
00000090: 32ed e0be 7161 d33e 44b6 363e e12c bebe
000000a0: 05a6 5abe 57df 06be 4bb4 4b3e 809b 97be
000000b0: 34c7 f7bd 760d 773e 3db8 2b3e ebec 01bf
000000c0: 08bb f63d 9472 743e 62f2 aebe 2c9a 323e
000000d0: 4638 f1bd 0562 1fbe 698b 8ebe 357b 5f3e
000000e0: 797d 97be 7386 293e f373 643d 9e84 22be
000000f0: 0534 a7bd cc28 2f3e 2753 aebd fdad 223d
00000100: c63c 933e 8817 023e 7d7f 18be 595e 683e
00000110: 7a5f 4f3e 17b3 863e 5837 273e 28ac ccb7
00000120: e947 883e 76c0 bebe 3a47 b9be 0058 a63b
00000130: 5a9b 7c3e c710 cfbe c841 613e 25b9 0dbd
00000140: 6630 15be cde4 87bd 57b1 9fbd f3ff abbc
00000150: a86b 8ebe 5ba7 943d 6d77 843e 5b37 b63e
00000160: 667f e9bb fcd9 8c3e 32a9 0fbd b5dc fc3d
00000170: 65e8 603e ebcc 54bd 5b37 363e b3ae 943e
00000180: c4b7 b9be cc79 91be fb74 a2be 6637 753d
00000190: cc62 34be a3ec 5ebe b3c7 483e 399b 673e
000001a0: c494 063e 512e 82be fbf5 a0bc 52b3 5c3e
000001b0: ba86 aabe 5381 453e 4e37 b83d 70de b43e
000001c0: 8eaa a33e d280 a0bd e4dd 32be 5564 adbe
000001d0: 7b6d 18be c92e a0be 9ba6 be3e d13d d2be
000001e0: 89d2 a2be b928 94bd ced2 ce3c 62d1 1d3e
000001f0: f0ae ab3e aff0 6fbe bb84 a23e f286 0fbf
00000200: 4fc6 ac3e a6c5 70be ea81 0dbe e427 ad3c
00000210: c667 813e 5b3c 94be 05a4 94bd 9add 2a3e
00000220: db9d 053d 25ff 9b3d 1f79 f0bd 99ff 553e
00000230: 8b94 bd3e 1912 b13e 3e19 0c3e f184 b13b
00000240: 04d6 bb3e d4d3 9a3e fbb4 aebe bcab d1bd
00000250: 22c8 8f3e 26c4 923e eb45 04be 7fc8 9fbe
00000260: 6168 43be 8668 903e f6df 5e3e a635 83be
00000270: 85fa 61be 7e02 e53c 5829 8cbe 65ed 1b3e
00000280: b505 b7be 30da 42be 7f8d 07be 0990 7f3e
00000290: a846 243c 45ec ddbe 8ef4 b83e c97a ae3e
000002a0: 5ebe c43e 3c0e b9be ca73 e0be bd39 b8be
000002b0: 36fe 60be 2f4c 9fbe 31b7 a5bd a1f3 bc3e
000002c0: 115b 4d3e 1723 2fbe 0c3d a13e 5776 0b3d
000002d0: 8173 a8be d916 53be 7493 cebe 04ae 2ebe
000002e0: 8d5f f0be 7283 5b3e 365f a93e 575a e5bd
000002f0: f7d6 85bd d949 a1be 8e41 bc3e 3710 18ba
00000300: 8b29 b53b 7e55 c93e 3e2e 53be 4825 70be
00000310: d283 14be 9165 85bc 9323 c7bd 54d9 a0be
00000320: e98a 543d c49b 263e e52e b23e e84f 67bd
00000330: a8c6 613e 0d08 6ebd 820b 603e 2f4c ab3d
00000340: f1e2 b43e 5ea2 573e af00 903c bc0b ed3d
00000350: 64ff b23e ecbe e5be 174f ebbc fa87 1abe
00000360: 78b3 3ebe 7e95 41bd f344 dfbe 6c18 b13e
00000370: 05a5 9b3d bf87 a3be 0e06 383e 8da2 60be
00000380: 0ab1 aebe e246 483e e4ff 82bd 8100 593e
00000390: d125 5a3e f3bb 4bbe 2fe3 c8bd 609c c93d
000003a0: f6c1 b0bd 894e 83bd 8053 eebe 1be4 eebd
000003b0: 6b05 a53e e962 84be 2846 cf3e 473d 843e
000003c0: 8be4 84bd 71a2 483e 7c28 c23d cfb5 3cbe
000003d0: bf84 7a3e 9714 37be 20e5 3fbe aac3 6f3e
000003e0: 7738 14be 113b a33e c7b8 cfbe 5c13 07bc
000003f0: fc86 cf3c 5072 0cbd ab61 b03d 02a9 8dbd
-0.26757184 0.016813101 -0.38819933 -0.4200773 0.40898532 -0.40680575 -0.3437134 -0.37049764
0.06254256 0.0049185557 0.1476583 -0.22446705 -0.084516115 -0.22741467 -0.41358393 0.1787085
0.35595465 0.02066743 -0.07590453 0.33808482 -0.24562123 -0.27032983 0.048522837 0.3225607
0.34133357 0.16917661 0.21471825 0.22897166 0.06806158 -0.02014118 0.32303545 0.2000402
0.12932552 -0.32661083 -0.1980169 -0.004754664 -0.43930966 0.4128528 0.17842966 -0.37143615
-0.21352394 -0.13171135 0.19892995 -0.29610825 -0.12098542 0.24126229 0.167695 -0.50752133
0.12047392 0.23871833 -0.34169298 0.17441624 -0.117783114 -0.15564735 -0.27840737 0.21824344
-0.29587916 0.16555195 0.05577464 -0.15870902 -0.08164219 0.17105407 -0.08511954 0.03971671
0.28757304 0.12704289 -0.14892383 0.22692241 0.20251265 0.2630851 0.16329706 -2.4398862e-05
0.26617363 -0.3725621 -0.36187154 0.0050764084 0.24668637 -0.40442488 0.2199775 -0.034600396
-0.14569244 -0.06635437 -0.07797497 -0.02099607 -0.2781651 0.07258483 0.25872365 0.35589108
-0.007125783 0.2751006 -0.035073467 0.12346784 0.21963651 -0.051953238 0.17794554 0.29039535
-0.36273015 -0.28413236 -0.31729874 0.059867285 -0.17615813 -0.21769957 0.19607429 0.22617806
0.13142687 -0.25425962 -0.019648543 0.2155278 -0.33305913 0.19287615 0.089949235 0.35325956
0.3196606 -0.078370705 -0.17467457 -0.3386561 -0.14885513 -0.31285694 0.37236485 -0.41062787
-0.3180125 -0.0723433 0.025247004 0.15411904 0.33531904 -0.23431657 0.3174189 -0.56065285
0.33745047 -0.23512897 -0.1381909 0.021137185 0.25274485 -0.28952298 -0.07257847 0.16686097
0.032621246 0.07617024 -0.11741852 0.20898284 0.37027392 0.3458412 0.13681504 0.005417459
0.36686718 0.30239737 -0.34122452 -0.10237834 0.28082377 0.28665274 -0.12917297 -0.31207654
-0.19082786 0.28204745 0.21765122 -0.25626868 -0.22068222 0.02795529 -0.27375293 0.15227278
-0.35746542 -0.19028544 -0.1323757 0.24957289 0.010026611 -0.43344322 0.3612408 0.34078053
0.3842649 -0.36143672 -0.4383834 -0.3598155 -0.21971974 -0.3111281 -0.080915816 0.36904624
0.2005427 -0.1710323 0.31491888 0.034048405 -0.32900622 -0.20614184 -0.40346873 -0.17058569
-0.469479 0.21436861 0.33080453 -0.111988716 -0.06535142 -0.31501654 0.36768764 -0.0005800756
0.005528634 0.39323038 -0.20623109 -0.23451722 -0.1450341 -0.016283782 -0.09723582 -0.31415808
0.051890288 0.16270357 0.34801403 -0.05647269 0.22048438 -0.058113147 0.2187939 0.0836414
0.35329393 0.21058032 0.017578451 0.11574504 0.34960473 -0.44872224 -0.028724236 -0.15090933
-0.1862315 -0.047261707 -0.43607292 0.34588945 0.07599834 -0.31939504 0.1797106 -0.21937008
-0.34119445 0.1955829 -0.063964635 0.21191598 0.21303488 -0.19895916 -0.09808957 0.09844279
-0.08630745 -0.06411464 -0.4654808 -0.116646014 0.32230696 -0.25856712 0.40483212 0.25828
-0.064889036 0.19593216 0.09480378 -0.1842873 0.24464701 -0.17878948 -0.18739748 0.23414484
-0.14474665 0.31881002 -0.4057066 -0.008244362 0.02533292 -0.034288704 0.08612379 -0.06917001

net.2.weight f4 [256, 256]
00000000: b6ec 5ebd 071d fcb8 b25d 71bd 7c76 ffbc
00000010: 70a9 023d 03ed 7abc 72f8 093c 59e8 f2bb
00000020: 418e 65ba 39d9 8e3c 16c5 30bd 780c c53c
00000030: 7c00 70bb 3c73 57bd 20e0 523d 2846 063d
00000040: d666 453d 18dd 08bd 704a c43c a3ae 24bd
00000050: 04cb 22bd 30b5 d0bc 5faa c63c 710c c4bc
00000060: d670 abbc 3eb7 4cbc 9d2e 4dbd 452c 0e3d
00000070: 450f 44bd e374 173d 560b 06bd 3a38 29bc
00000080: 895b 37bd 40bb 8aba ec4e 243d 516b 64bd
00000090: bdab 51bd cb14 433d 5102 4dbd 54f2 923a
000000a0: f00a c3bc d53d d53c 5644 743b de3e f93a
000000b0: 71fa 26bd 09ea 3c3d a53e 4c3d 10c8 703c
000000c0: a862 f2bc 3863 a33c cc08 603d 264d 083d
000000d0: 29a8 e7bc 12bd 6d3d 4269 493d ee1a 823c
000000e0: 17f8 a53b 6fde 1a3c 802b 1b3b d8b4 ae3c
000000f0: acaa 723d e73b 403a aece 8a3c 9d77 483d
00000100: ccbe 093d 1b84 463c 30d1 bdbc 7f59 39bd
00000110: a670 0cbd 2be2 03bd 97ce 6d3c 1809 79bc
00000120: 7582 5ebd a682 3d3d 00a4 8abb e43a 373d
00000130: ae30 61bd 8dd0 023a 5456 943c b011 313d
00000140: 054f 9a3c 63b1 793c 32bc 91bc 2ac3 d13c
00000150: 1978 3cbc 8b1b a2bc 253f 343d 650e de3c
00000160: f17d 40bc 7136 42bd 6ee9 2cbd f450 343d
00000170: 232a f4bc 0a75 5dbd 60ef 86bd 73f9 c1bc
00000180: 4e20 70bc 2c23 50bd da8e 2ebd 8b77 40bd
00000190: 0533 8dbd 8a1f 633d 91e0 633d 53cd 37bb
000001a0: 5b6a 473d 08af c63c c44c 79bc b240 073d
000001b0: bc9f bdbc e7f4 82bd 1659 bc3c 02f3 1c3d
000001c0: f60f 36bc 88cb 67bd fb31 833c cc52 643b
000001d0: b123 003d 00c5 663b 153e 383d 842f 003d
000001e0: 488d 56bd 50df 34bc 899a 353d a6f8 2c3d
000001f0: 5c29 fd3c 2868 61bc 5287 a6bc 6c95 e3bc
00000200: 0458 64bb 8655 44bc b0a1 47bd 6034 aabb
00000210: 97c0 d63b 44b9 2b3d 6012 05bd ea3d f13c
00000220: b68f 3d3d 2071 16bc 064e 51bd d8d5 40bd
00000230: 6aa0 d5bc 6dce 7bbd ffb6 c3bb 0206 243d
00000240: a4c8 03bd 918d 98bc 9487 683d 28f3 c23c
00000250: bac0 3f3d 6079 fd3c ead9 c9bb 2e9f 2c3d
00000260: 12f2 91bc c7b9 40bd 904a 85bd b4b5 48bd
00000270: 6801 2abd c89b 483d 32fb 21bd 7865 87bd
00000280: 88a8 da3c 7c9e a1bc b359 b2bc 3c9d 34bd
00000290: efec 873c eaa1 8a3c aed5 38bd 4244 5c3d
000002a0: 39df 38bd f75c 1b3d 7aa0 70bd 301c 333d
000002b0: e566 47bd 24fe 823c 02f6 20bd 01d2 49bd
000002c0: 5c10 1e3d 4e28 083d ae2e 5d3d 7cc8 0a3d
000002d0: e4b4 c3bc a0df a0bc 483a bbbc 5f46 78bd
000002e0: f817 14bc 1c03 ed3c 8796 573d 38e4 62bd
000002f0: ed1b ae3c 9ebb 89bd 50c9 5b3c 20bc 523b
00000300: 60b5 f73c bf63 ebbb 1c21 313d db70 08bd
00000310: 3672 3b3c 6521 d33c d8d2 db3c 6474 c53c
00000320: e711 a8bc f6ba 513d 7fad 5dbd 91c8 39bc
00000330: 11d5 a53c 3560 953c 1bc0 dbbc c0f1 48bc
00000340: 5c90 493d 0319 a63b 4716 6bba ec48 143d
00000350: 48ee 3dbd 7c34 c3bc 1c5e 97bc c8de 00bc
00000360: ec36 ddbc a2eb 22bd a7e0 293d b143 37bd
00000370: 1db6 4a3d 233f 8dbc 4d26 7d3c b6ac 293d
00000380: 8868 fe3c 8b7b 323d e3d9 89bd 56b1 73bd
00000390: 904b 8cbd 1ba7 30bd 0139 db3b b4b1 7c3b
000003a0: 9bb4 b3bc fe9c 26bd ad2a f9bc 0196 783d
000003b0: abf2 6cbd 3c24 3a3d ad5a 60bd 4792 38bd
000003c0: 5aa9 5abd bc1c 633d c363 68bd 64ae 32bd
000003d0: eed0 36bd 5c41 043d 378e 25bd ca70 4cbd
000003e0: e2b8 e03c 3486 993c 9cc6 a6bc 9ae9 1a3b
000003f0: 53df 19bc 04be b13c 667b 62bd 747e 72bd
-0.054424964 -0.00012021703 -0.058927245 -0.031184427 0.03189987 -0.015315297 0.00842105 -0.007412952
-0.0008756854 0.017437564 -0.043156706 0.024053797 -0.0036621382 -0.05260013 0.051483274 0.03278175
0.048193775 -0.033413976 0.023961276 -0.04020561 -0.039744392 -0.025477022 0.024251161 -0.023931714
-0.020927828 -0.01249486 -0.050093282 0.034710187 -0.047866125 0.036976706 -0.032725655 -0.010328347
-0.04476503 -0.0010584369 0.04011433 -0.055766407 -0.051189173 0.04762725 -0.050051037 0.0011211135
-0.023808926 0.02603046 0.0037272177 0.0019015928 -0.040766183 0.04612163 0.04986443 0.014696136
-0.029588059 0.019944772 0.05469589 0.0332767 -0.028278427 0.05804164 0.049172647 0.015881982
0.005064975 0.009452446 0.002367705 0.021326467 0.059244797 0.0007333145 0.016944256 0.048942197
0.033629224 0.012116457 -0.023171037 -0.045251366 -0.034287117 -0.032198112 0.014514587 -0.015199922
-0.054323632 0.046267174 -0.004230976 0.044733897 -0.054978065 0.0004990183 0.01810757 0.04322976
0.018836508 0.015240046 -0.017789934 0.025605757 -0.011503243 -0.019788524 0.04400553 0.027106473
-0.011748777 -0.0474152 -0.042214803 0.044022515 -0.029805249 -0.054066695 -0.06588626 -0.023678517
-0.01465614 -0.050814793 -0.042616703 -0.046989005 -0.06894497 0.05545 0.055634085 -0.0028045967
0.048685413 0.024253383 -0.015216056 0.033020683 -0.023147456 -0.06394368 0.022991698 0.038317688
-0.011112204 -0.056590587 0.016015043 0.003483939 0.031284038 0.0035212636 0.04498108 0.031295314
-0.05238083 -0.01103957 0.04433683 0.042229317 0.03090351 -0.013757743 -0.020328198 -0.02778121
-0.00348425 -0.011983281 -0.04873818 -0.005194232 0.00655372 0.04192473 -0.032488227 0.029448468
0.04627963 -0.009182245 -0.0510998 -0.047078937 -0.026077468 -0.06147616 -0.0059727426 0.040044792
-0.032173768 -0.018622192 0.056769922 0.023797587 0.046814658 0.030941665 -0.0061600106 0.042143993
-0.017815623 -0.04705217 -0.06508362 -0.04900141 -0.041505247 0.04897669 -0.0395462 -0.066111505
0.02669169 -0.019728892 -0.021771288 -0.044095263 0.01659247 0.01692291 -0.045125656 0.053776033
-0.045134757 0.037930455 -0.058746792 0.043728054 -0.048682112 0.015990324 -0.03929711 -0.04927254
0.03858982 0.033241563 0.053999595 0.033882603 -0.023889966 -0.019637883 -0.02285494 -0.060613986
-0.009038918 0.028932147 0.05263379 -0.055393428 0.02125355 -0.06725238 0.013414696 0.0032155588
0.030237854 -0.0071835215 0.043244466 -0.033310752 0.011440804 0.02577276 0.026833937 0.024103351
-0.020516349 0.05120369 -0.054120537 -0.011339323 0.0202432 0.018234352 -0.026825001 -0.012264669
0.049209937 0.0050688996 -0.0008967858 0.036202356 -0.04636982 -0.023828737 -0.018477492 -0.007865615
-0.027003728 -0.0397755 0.04147401 -0.04474229 0.049490083 -0.01724202 0.015451026 0.041424476
0.031055704 0.04357485 -0.06731012 -0.059495293 -0.0685035 -0.043128114 0.006690145 0.0038558068
-0.021936705 -0.040677063 -0.030415857 0.06068993 -0.057848614 0.045444712 -0.054773975 -0.045061376
-0.053384162 0.055447325 -0.056735765 -0.043623343 -0.044632845 0.032288894 -0.04041883 -0.04991225
0.027431909 0.01874075 -0.020358376 0.0023637773 -0.009391624 0.021697052 -0.055293463 -0.059202626

net.2.bias f4 [256]
00000000: 51bb 3a3c 793a b0bd 3824 acbd 50bc 1b3d
00000010: b2e7 b43c 2d30 a2ba e46b 013d d4c3 91bd
00000020: 11dc c8bc de49 343e 9cee 093d 4e91 75bd
00000030: 3ac1 9b3d 43a5 0bbd 8243 af3d b1cf 5fbd
00000040: 9cab f13c de29 4e3d 6f7c ff3d 1ad0 51bc
00000050: 57ba 1b3d 7dfb 0a3d e63a 643d 5598 1fbd
00000060: 464f 10bd 1ec9 75bd 9653 a2bc d605 823c
00000070: 8479 25be db9a a4bc 82e1 023d 5bef fe3d
00000080: f84b 5bbc 4cfa 1f3e 1862 1a3d 2575 da3c
00000090: 91aa b23d a81a 07be c9e9 913d 9a9a 23bd
000000a0: 768e 573c f398 1f3d 72fa 7abd dba7 8a3d
000000b0: 64ba d0bc 6de7 c73d ea6f bb3c d249 323d
000000c0: 5c14 133e b907 78bd 0e7f 213d 84a6 1e3e
000000d0: 1d6e 483d 330e 263c 975f 433d c4cd 99b9
000000e0: 75a3 4cbd 9eef 28bc 40b1 7f3d 0cb2 d93c
000000f0: 0c49 a73d a71c 46bd 991e 27bd 9b0b 963d
00000100: 098b 073d d170 3f3d be1a 833c 3faa 79bd
00000110: 43fe 93bd cb85 a83c aab4 1f3d 360c a03c
00000120: 6e86 0f3d f110 d7bc 4334 58bd 44b2 fe3c
00000130: bcb1 9bbd 28c4 a1bd 30d7 62bd ee66 d2bc
00000140: ad99 fdbb a343 1c3e 4459 913d 2967 57bb
00000150: 895d 41bd 4b99 7bbc 7222 46bd 868f 353d
00000160: d5e0 323d c72d 2a3d ac37 393d 34d9 503e
00000170: 4177 f13c c50f 17bd f9d3 83bd 4bf8 e9bb
00000180: 8c3a 713d 81ec bc3d d60a 973c 671e 543d
00000190: a2a4 9fbc 4045 833c b544 ddbc 3336 7c3c
000001a0: 8993 ce3c 9231 173e 1e67 b3bd 5680 5dbd
000001b0: b726 97bc 7cab 1bbd 7de8 1c3d ecd5 5bbd
000001c0: 34ad 97bd a5d0 af3b 5f1d cdbb dd3a 493c
000001d0: 05e8 ec3b 3b6b e2bc ff32 283e 4073 403b
000001e0: a23a 5cbd c4aa c43a 7b9d 253d 8a3c aa3d
000001f0: 9db8 d83d 5597 233e 9ca3 8a3c 447f c53d
00000200: f00e bd3c d09a a03c ba6a 003d 2682 013d
00000210: da2c 053d c232 6dbd 8f13 5dbd aee8 0d3e
00000220: c8d1 e73d bec5 8cbd 5800 57bc fb58 85bd
00000230: abe1 f83c 63ae 5abd e2bf 133e f64b 78bd
00000240: c98e c7bc 5d98 1cbd f45d 4dbd f9de 68bd
00000250: 5485 18bd 0053 6dbb eb49 383d a55d 96bd
00000260: bc3c 06bd 8460 1cbd 0c77 b03d 52d3 063e
00000270: b585 85bd 5885 df3c 99a1 1bbb 94ed 9dbc
00000280: 72b3 4d3d aeff 483e c82a 203e 4cce 8e3d
00000290: 7472 c13d f6a9 71bd b76e 013c 55b6 ae3c
000002a0: 2aa7 55bd 35a9 9fbb c765 ca3c 148b 8a3c
000002b0: 799b f53d 2bce 4d3d 0851 723c 0c9d 2b3d
000002c0: 17f5 8bbd a7c2 463d b8de 133c 4e95 2d3d
000002d0: 7878 69bd dc69 4e3c 4a97 86bc f18b b63c
000002e0: 8d8d 103b 7146 d63c 8934 2b3e 3404 31bd
000002f0: 9a17 24bd 3b5b 843c 9484 f83b 0bc3 32bd
00000300: cd63 50bd aaa6 32bd 621a 013d a3a5 9a3d
00000310: 46e1 3f3e 9ac9 26bd 3314 64bc 9884 78bc
00000320: 6d77 483e 3ea2 093e 51e6 033c c8b8 e53c
00000330: 3e19 6bbb b47f b9bc b0da f93c d90f 603d
00000340: b80b 87bd 6de7 df3d 9026 9dbd 0da2 02be
00000350: 7ab4 e83d febb 9a3b 7fc5 c93b a11d 73bd
00000360: 207a fabc d525 04bd 816b e6bc 3fae 76bd
00000370: 3b44 2c3e 27de 61bb 0e50 db3d dab6 be3d
00000380: 2f20 2fbd 517a 43bd f81d 9c3d 7a9e 2d3c
00000390: c66b 54bc 53a5 3fbc 7cc6 073d 6c0e 54bb
000003a0: 18eb afbd 390f d63c 41b7 c1bc 15d3 2d3e
000003b0: 940c dc3c b9e0 293d 560e 053d fcb4 afbc
000003c0: 5284 a93d 7d59 2e3d ad0b 913d 2bff 383d
000003d0: 0b8f 87bd 7716 98bc f968 173e 4bda 313e
000003e0: 8d76 bf3c d9ee 80bc 95a3 393c d604 093d
000003f0: 3571 04bd 8ea0 e23c 67da e2bc 32fd a33d
0.011397199 -0.08604903 -0.08405346 0.038021386 0.022083137 -0.0012373977 0.031597033 -0.071174294
-0.024518998 0.17606303 0.03367482 -0.059953026 0.076052144 -0.034093153 0.08557798 -0.05464143
0.029500775 0.050332896 0.12474906 -0.012805963 0.038019504 0.033931244 0.055720232 -0.038963635
-0.03523185 -0.060006253 -0.019815248 0.015871923 -0.16159636 -0.020093372 0.031953342 0.12447997
-0.013384812 0.15622824 0.037691206 0.026667187 0.08723939 -0.13193762 0.07124669 -0.03994236
0.013156524 0.038964223 -0.061274 0.06770297 -0.025479503 0.09760938 0.022880513 0.04352743
0.14363235 -0.06055424 0.03942781 0.15493208 0.048933137 0.010135221 0.047698583 -0.0002933574
-0.049960572 -0.010311035 0.0624249 0.026574157 0.081682295 -0.04836717 -0.040800665 0.07326432
0.03309158 0.04673845 0.016003963 -0.060953375 -0.07226231 0.02057161 0.038990654 0.019537073
0.03504031 -0.026253195 -0.052784216 0.031090863 -0.076022595 -0.07898742 -0.055381 -0.025683846
-0.007739267 0.15260176 0.07097104 -0.0032867885 -0.047208343 -0.015356372 -0.048372693 0.044326328
0.043671448 0.041547563 0.04521911 0.20395356 0.02947581 -0.036880273 -0.06436915 -0.0071401945
0.058893725 0.09224797 0.018437784 0.051786806 -0.019487683 0.016024232 -0.027010301 0.0153937815
0.025216835 0.14765003 -0.087599024 -0.05407747 -0.018451078 -0.038005337 0.038307656 -0.05367081
-0.07406083 0.0053654485 -0.006259605 0.0122821005 0.0072298073 -0.027639022 0.16425703 0.002936557
-0.053766854 0.0015004505 0.04043339 0.08312328 0.10582087 0.15975697 0.016923718 0.096434146
0.023078412 0.01960507 0.031351782 0.03161826 0.032513477 -0.057909735 -0.05397373 0.13858292
0.113193095 -0.06873654 -0.013122641 -0.06511112 0.030381044 -0.053388964 0.14428666 -0.060619317
-0.024360077 -0.038231242 -0.05013843 -0.05685327 -0.037236527 -0.0036212802 0.04499237 -0.0734208
-0.032772765 -0.038177982 0.086164564 0.1316655 -0.06519643 0.027285263 -0.0023747443 -0.019278325
0.05021996 0.19628784 0.1564132 0.06972942 0.09445658 -0.058999978 0.007899932 0.021327177
-0.052161373 -0.004872466 0.024706734 0.01691202 0.11992545 0.050245445 0.014789827 0.04189782
-0.068338566 0.04852548 0.009025268 0.042378716 -0.056999654 0.012598481 -0.016429562 0.022283526
0.0022057027 0.026156636 0.1671926 -0.0432169 -0.04006157 0.016156783 0.007584164 -0.04364304
-0.050876427 -0.043615974 0.0315193 0.07551124 0.18738279 -0.040719606 -0.0139208315 -0.015168332
0.19576807 0.13440797 0.008050517 0.028042212 -0.00358732 -0.022643901 0.030499786 0.054702614
-0.06594032 0.10932813 -0.07673371 -0.1275713 0.11362548 0.0047221174 0.0061575766 -0.05935443
-0.030575812 -0.032262642 -0.028127434 -0.060224768 0.16822903 -0.0034464689 0.107086286 0.0931222
-0.042755302 -0.047724072 0.076229036 0.010596866 -0.012965148 -0.011697131 0.033148274 -0.003235723
-0.085897624 0.026130306 -0.023646953 0.16975053 0.026861466 0.041474078 0.032484375 -0.021448605
0.08277191 0.04256581 0.07082305 0.045165222 -0.0661908 -0.0185654 0.14786138 0.17368428
0.02337196 -0.015738891 0.011330505 0.033451878 -0.032334525 0.027664449 -0.027692033 0.080072775

actor.weight f4 [1, 256]
00000000: f6cc 333c 26f9 223d 9124 703d 28d5 32bd
00000010: 5707 073f 1793 533c a7bf 3e3d fd94 6fbc
00000020: 4959 8a3b 4388 cb3d d462 bbbc bf4b 5cbc
00000030: ef0d 033f b957 8abb c7c3 bc3e 1c7c c63c
00000040: 2e36 f43e 6087 e1bb cd9e d6bd 2b37 4d3d
00000050: 5a88 6f3d 983a 9fbe a0ea b43e e28d 0fbd
00000060: 06d0 e4be ba57 6fbb 8e7b 563d eb18 a1bc
00000070: dc77 afbe 8dfa 84be 8531 a03c 306c 8c3e
00000080: b006 373d 20bd c7bc abea a0be 70cf 8cbe
00000090: d2a4 fb3e 1071 693e e76a 4bbe 9852 033c
000000a0: 8987 d83d 09e3 a7be c281 5a3d 7b12 8a3b
000000b0: 0684 3abd 3865 243f 7c95 f8bb 4f2e 80be
000000c0: 6e02 253e a842 953d 4539 e2bc de74 3c3e
000000d0: 4c29 bb3e f71f a3be 6ba3 d33e a89d 27bd
000000e0: e982 cebe 5973 9ebc 9036 09bc 84b2 f5bc
000000f0: 8ae4 e03d 9142 c53c 41a8 983e 702e 6abe
00000100: 1dab a3bf 4214 e13c e3f7 88be 4c7d 53bd
00000110: 257c 073c 54ff c5be 1ece 963d 5464 1e3e
00000120: e3c6 513d 4d4a e3bb ddf4 ce3c bfab 0a3d
00000130: 762c e83b 30a4 5d3c 8692 9bbd 5444 63be
00000140: bcd8 0e3f 1228 f7bd 5bae b0be bc7e c1be
00000150: 3c8e 883b d3af 4fbc 24b7 37bd 9c68 283d
00000160: 5728 7bbe c2cd bb3e cc5d e93c 0759 413c
00000170: c44e 3b3d a05a f43c d740 56bd 0f4d fe3e
00000180: e348 753d 8a60 5e3e b07e 59be 5b0e 2dbd
00000190: 9f98 813d 0545 e53b c287 0abc 2835 bc3b
000001a0: 7dbd 923b 111e 29be c575 8b3d e3ef 1a3e
000001b0: 50ec 753d 6055 e53b eded e93c 7a00 213c
000001c0: da5b 9b3b 977a 9c3b 1d02 ecba dd65 013f
000001d0: 0603 da3a c6c1 74bb fb71 933d ea15 58ba
000001e0: 32d1 373d 6544 1d3d 72b5 733d 8ad9 40be
000001f0: 78c9 183d 3835 003d 3b14 593d 5f73 c3bd
00000200: e3f5 033d e0da 17bc e89e 03bc 53b7 09bd
00000210: 5897 403d 89f0 9cbe 6413 06bc 231c 063e
00000220: b466 18be 4078 06bd 9041 29bd f235 3d3d
00000230: 4efd 9cba 015e bfbe b0c4 413e 00bf a9bc
00000240: 9c43 ee3b 6a91 86bc 0079 8839 bd16 753d
00000250: 18c7 02bd 2cd1 5bbe bcbc bc3c 0bb2 e23d
00000260: a86c 9cbb 7103 29bd e439 e63e 3b07 34bc
00000270: 20a8 b93c 4d8b a33d 6677 143f a059 223d
00000280: 4d8d fd3c 77ff 533d b203 8fbd c700 9c3e
00000290: 9e6a 593e c436 d93c e818 91be ff39 f83e
000002a0: 31ca 253d e7ff eb3e 5169 b33c f411 bd3e
000002b0: 6662 4c3d 6e84 013f ce75 4f3d 947a 043a
000002c0: 9fa4 3fbd faa3 a4be 6404 a9be 651f ec3d
000002d0: 8e12 443d a2ef 313d a3ae 66be 1e25 a23d
000002e0: 195f 083e f9c8 483c b556 233e 4e93 ea3e
000002f0: 38a5 143c 41f9 003f 99c0 21bd ab99 84be
00000300: 89b1 0cbd 5862 a5be ad77 a6bc c2f6 c4bc
00000310: 9840 173e 7073 dabc d6d2 a53c 889d 103c
00000320: 405e d03d 5c0e 10be 2262 84bd 6283 183c
00000330: ca82 2dbe 412e 48bb a396 cebd 3c78 47be
00000340: 2b6b 38bd 1b62 983c e463 e5be 2f1a d33d
00000350: 5f8d d13d e592 983e b041 91be ecba 293c
00000360: 98e2 b93b bb4e 2c3d 5c3c 613c f4b8 60bc
00000370: c55b 813c efd8 273e 0a4a 1a3e 3eec 8abc
00000380: 8b4c 32bd 30ae 45bc b753 313e 7a55 1fbd
00000390: f1bc 963c d3c2 a9be e6c5 f1bc f6e5 3fbd
000003a0: e03e 92bd 54cc f63e 2d57 463d 8fca 533e
000003b0: 5a3d 6bbd f6a7 e63e 1f01 953c 1c51 003f
000003c0: 9769 ca3e 4d71 cdbe 3fd2 513e 7cd6 103d
000003d0: 4de9 5a3d bd69 47bd f501 ffbb c102 ecbd
000003e0: 0d53 39bd 3879 92be 1a3c 58bd 2c36 32be
000003f0: ce47 ddbb 5761 a8bc 625e 6f3e d05c b33d
0.010974159 0.039788388 0.058628622 -0.043660313 0.52745575 0.012913487 0.046569493 -0.014622924
0.0042220694 0.09938099 -0.022874273 -0.013445794 0.51193136 -0.004221883 0.36868116 0.024229102
0.47697586 -0.006882593 -0.104795076 0.05010144 0.058479644 -0.3109939 0.35335255 -0.03504742
-0.4468996 -0.0036520795 0.052363925 -0.019665202 -0.34271133 -0.25972405 0.019554863 0.2742629
0.044684112 -0.024382174 -0.31429037 -0.27502012 0.49149185 0.22797036 -0.19864999 0.008015297
0.10572726 -0.32790402 0.053346403 0.004213629 -0.045536064 0.6421695 -0.0075861793 -0.2503533
0.16114208 0.07288104 -0.027615199 0.18403956 0.36554945 -0.31860325 0.41335616 -0.040921837
-0.40334252 -0.019342111 -0.008374825 -0.02999235 0.1098109 0.024079593 0.29815868 -0.22869277
-1.2786595 0.02747548 -0.26751623 -0.051633164 0.008269344 -0.38671362 0.073635325 0.1546796
0.051215064 -0.0069363476 0.025263244 0.033855196 0.0070853783 0.013527915 -0.075963065 -0.22194034
0.5579946 -0.1206819 -0.34508023 -0.37792003 0.0041673463 -0.012676197 -0.04485239 0.04111539
-0.24527107 0.36680418 0.028487109 0.011801011 0.045729414 0.02982837 -0.05230793 0.49668166
0.059883963 0.21716514 -0.21239734 -0.04225002 0.06327938 0.006996753 -0.008455219 0.0057436414
0.004478155 -0.16515376 0.06809572 0.15130572 0.06003982 0.006998703 0.028555835 0.009826774
0.004741174 0.004775356 -0.0018006001 0.50546056 0.0016632981 -0.0037346943 0.071994744 -0.00082430115
0.04487724 0.038395304 0.05949921 -0.18832985 0.03730151 0.031300753 0.05299781 -0.0954349
0.032216918 -0.009268492 -0.008033492 -0.033622097 0.047019333 -0.30652264 -0.008183334 0.13096671
-0.14882928 -0.032829523 -0.04132229 0.046194024 -0.0011977346 -0.37376407 0.18922687 -0.020720959
0.0072712433 -0.01642676 0.00026030093 0.059836138 -0.03192815 -0.21466511 0.023039214 0.11069115
-0.004773695 -0.041263048 0.44966042 -0.010988052 0.022663176 0.07985554 0.5799469 0.039636254
0.030951167 0.051757302 -0.06983127 0.30469343 0.21232077 0.026515372 -0.28339314 0.48481748
0.040476028 0.46093675 0.021900805 0.3692776 0.049898528 0.50592697 0.050649457 0.0005053666
-0.046787854 -0.32156354 -0.33011162 0.115294255 0.047869258 0.043441422 -0.22527556 0.07917236
0.13317527 0.012254947 0.15951045 0.4581551 0.009072594 0.5038033 -0.039490316 -0.2589849
-0.034349 -0.32301593 -0.020320738 -0.024043445 0.14770734 -0.026666373 0.020242136 0.008826621
0.10174227 -0.14067978 -0.0646403 0.009308668 -0.16944423 -0.0030545148 -0.100873254 -0.1947946
-0.04502408 0.018601468 -0.44802773 0.103077285 0.102320425 0.29799572 -0.28370428 0.010359507
0.005672764 0.04206727 0.013747301 -0.013715971 0.01579083 0.16391347 0.15067306 -0.016958352
-0.04353003 -0.012065455 0.17317091 -0.038899876 0.018400641 -0.33156452 -0.02951331 -0.046850167
-0.07140899 0.48202765 0.04842298 0.20682739 -0.057431556 0.4505002 0.018189011 0.50123763
0.39533684 -0.40125504 0.20490359 0.0353608 0.05344515 -0.048684824 -0.0077822157 -0.11523963
-0.04524522 -0.28608108 -0.052791692 -0.17403477 -0.0067529446 -0.020554228 0.23375848 0.08757937

critic.weight f4 [1, 256]
00000000: a869 01bd b018 7abd 17ab 69be 4f64 313d
00000010: 16cb 2e3c 562a 393c 772d a8bc b10c 093d
00000020: 427a 3fbc 3688 933d 42af 81bc eeda c5bc
00000030: c302 243c 0f92 88bc 1a56 973b 99fc 823b
00000040: b1c6 213b 9b7b 48bd 8e81 a13d ef22 0fbb
00000050: cba7 a4bc 87a6 653c 3b17 eabb 52aa 0ebd
00000060: e5c7 b33b 68c4 2ebc e210 283d 1778 e2bc
00000070: 2d3e adbd ba41 553d 9463 7ebc 3c99 3a3c
00000080: 90c2 2f3c 5bba d13d f010 2ebc 6da3 3fba
00000090: c9e6 163c 357d 44be 98dc 313d 6ae3 7c3d
000000a0: 0414 8bbc ad85 01bc 8069 d93b c0f3 213c
000000b0: 6ea7 803c 1d50 ae3b 2a78 683d 7c7f abbc
000000c0: 70f8 c73c 1231 f6bd fc39 bd3c 4700 333d
000000d0: 95d4 8b3c b474 0dbc a35d 03bb 0fba 4fbc
000000e0: 16de ba3b b6d4 1a3c 8f7a 3e3b 2eab abbc
000000f0: 391b eebb b2f9 3c3d bb07 a13c 49fe cf3c
00000100: aba1 1b3e 5637 a93c 773a 353c df87 f83b
00000110: 1a43 04bd 6243 e23b 98c0 853c 8ad1 4dbb
00000120: 65f3 0e3c b34b c5bc c46a 5d3d fa92 a83c
00000130: 819c dfbc c1c0 e3bd f421 ccbc d9cf 293b
00000140: df2a d23b 648e 5a3d cb75 dc3d 09ec 82bc
00000150: df86 5c3d 1915 58bd 3a70 debb d6bd 4e3d
00000160: a325 d13c d658 ffbc b14a 533b 3b66 c83d
00000170: 27c6 2d3d 7259 9abd a5b5 a2ba 84f2 543b
00000180: be42 053d dc93 6c3c 7564 33bc 0488 463d
00000190: a79a 5dbc eef7 adbc 0c2a ebbc 8fa1 1bbd
000001a0: b499 8b3d 486c 643d d8a6 f2bd 9e66 3cbd
000001b0: 432f 393d 6404 61bd a93f 303d 1e7a bdb8
000001c0: 39dc a2bc f663 1ebd 30ae afbc 9131 103c
000001d0: 925b a63c 075a 18bd b20a a23d e84f 02bd
000001e0: c2ab ebbc c354 323d e419 7e3d 8295 cb3c
000001f0: 3897 013d 3038 fd3c 8b6a 6fbc 3a83 543d
00000200: e354 023c 360c 2b3d 1994 8f3c 13db 343b
00000210: ee14 593d 3402 aabc e358 033d 8b97 a13d
00000220: 7f96 0d3d f892 18be e4a0 8ebc c83b c4bc
00000230: f08c 00bb e27b 9d3a 927a 813d 7392 423d
00000240: 5a3a c3bc 736b c53b 564e 1abd 59c4 573d
00000250: a6a8 73bb 37cd 23bc aada a23a d442 fdbd
00000260: a3dc 903b 64dc c13b 17e3 6b3b 8216 b83d
00000270: ec37 503d 6719 2c3c 2a50 ca3b 31fc 4a3d
00000280: 74b7 c1bc 622d 723d fbd4 e63d dbbc 833c
00000290: 753e eab9 381f 443d bfbc 23bc 8564 eb3b
000002a0: bc61 62be 187e ab3a a546 09bd 9a60 13b9
000002b0: 9be2 833d c7c6 203c 8024 493c 2d24 543c
000002c0: ad3d 01bc 5bd3 27bc 28e8 63bb 6622 a4bc
000002d0: 084d c53c 1598 c9bb ef06 40bd 0fa1 25bc
000002e0: b444 55bd 4eec 5d3d f1f9 0b3d fbe0 b93b
000002f0: 482f f23c 22e3 973b 9c30 86bc 6fef 0abc
00000300: 3a8f 88bc ced9 1aba 39fe 85bd edbd 673d
00000310: 93d0 953d 9631 703d ddf4 07bd 1433 21bd
00000320: 2af4 a93d 58b8 a63d 222e 6d3b 0aaa 6fbc
00000330: 949f 863e 75f8 8dbb 3a67 38be 13fc b9b8
00000340: 1f24 3cbd 60b4 b23d 0aff fc3b 2289 84be
00000350: fcd3 553d 7624 5dbd 2d75 d6b8 9ef8 ffba
00000360: 5eb8 993c ff29 223d 2c7a 36bd fe60 5cbd
00000370: f2c4 4a3d 06dc e03c b57e 8a3d 7044 563d
00000380: cc7a 8abc aca1 493d 0d3c 373d 6712 cdbb
00000390: d7e8 14bc 636a 6fbc 8367 67bb 6d87 9e39
000003a0: 25a3 a4bc d87f bc3b 073b 7a3c 2490 303d
000003b0: 3ab2 a5bc 08ac af3c 2914 7abd de6a 473c
000003c0: 46bf 5c3c ce8e ebbb a767 2e3d 3039 36bc
000003d0: 1242 4fbd 9d17 64bc 42cc b93c 184d b13d
000003e0: 4542 efbc 138f 71bc 7cae 0cbd faf7 48bc
000003f0: 6058 24bc 5a60 123d 7819 033b 780c b73c
-0.031594902 -0.0610587 -0.22819172 0.043308552 0.010668537 0.011301598 -0.020529492 0.03345937
-0.011686863 0.072037145 -0.01583064 -0.024152245 0.010010424 -0.016671209 0.0046184184 0.003997397
0.002468508 -0.048946004 0.07886039 -0.002184089 -0.020099541 0.014016754 -0.0071438826 -0.0348304
0.005486476 -0.010666944 0.041031726 -0.027645154 -0.08459125 0.052064635 -0.015526671 0.011389073
0.01072754 0.102406226 -0.010624155 -0.0007310424 0.009210297 -0.19188388 0.043423265 0.061740316
-0.016977318 -0.007905406 0.006634891 0.009884775 0.015704837 0.005319609 0.056755222 -0.020934813
0.024410456 -0.12021078 0.023098938 0.043701436 0.01706914 -0.008633781 -0.0020044826 -0.012678637
0.0057027442 0.009450128 0.002906475 -0.020955648 -0.007266429 0.046136566 0.019657006 0.025389807
0.1519839 0.020656269 0.011061302 0.0075845565 -0.032290556 0.0069050053 0.016327187 -0.0031405413
0.008725022 -0.024083948 0.054056898 0.020577896 -0.027296307 -0.11120749 -0.024918534 0.002591124
0.006413802 0.05335845 0.10764655 -0.015981691 0.05383956 -0.052754495 -0.006788281 0.05047401
0.025530642 -0.03117029 0.0032240564 0.09785124 0.0424253 -0.075365916 -0.0012413753 0.0032493183
0.032534353 0.014439549 -0.010949244 0.04846956 -0.0135256415 -0.021236386 -0.028706573 -0.03799587
0.06816426 0.055767328 -0.11848229 -0.0459963 0.045211088 -0.054935828 0.04302946 -9.0349684e-05
-0.019880401 -0.03866955 -0.021445364 0.00880088 0.020307336 -0.03719523 0.07912196 -0.031814486
-0.028768424 0.043537866 0.06203641 0.024851564 0.031638354 0.030910581 -0.014612804 0.05188296
0.007954809 0.041759692 0.017526673 0.0027596399 0.052998476 -0.020753004 0.03206719 0.07890233
0.034567352 -0.14899814 -0.017410703 -0.023954287 -0.0019615255 0.0012015069 0.063222066 0.047502946
-0.023831535 0.006024772 -0.037672363 0.052677486 -0.003717938 -0.0099976575 0.0012424786 -0.12366262
0.004420833 0.005916165 0.003599351 0.08988668 0.05083458 0.010504103 0.006174107 0.049556915
-0.023647048 0.05912531 0.112710916 0.016081264 -0.00044678492 0.047881335 -0.009993731 0.0071836137
-0.22107595 0.0013083844 -0.033514638 -0.00014055 0.06439706 0.009813017 0.012276769 0.012948078
-0.00788824 -0.010243262 -0.0034775827 -0.020035934 0.024084583 -0.006152163 -0.046881612 -0.0101092
-0.052067474 0.054180436 0.03417391 0.0056725717 0.029563561 0.0046352306 -0.0163806 -0.008479937
-0.016669858 -0.0005907089 -0.0654263 0.05657761 0.07315173 0.05864104 -0.033192504 -0.039355353
0.08298524 0.081406295 0.0036190827 -0.014627943 0.26293623 -0.004332597 -0.18008128 -8.86844e-05
-0.045932885 0.0872581 0.0077208327 -0.25885874 0.052204117 -0.05398985 -0.00010226141 -0.001952905
0.018764671 0.03959083 -0.044550106 -0.053803436 0.049504228 0.027448665 0.06762449 0.05231136
-0.016904257 0.049226448 0.044735003 -0.0062582972 -0.0090887165 -0.014612767 -0.00353095 0.00030237008
-0.020097325 0.005752545 0.015272862 0.043106213 -0.020226587 0.021444336 -0.061054382 0.012171475
0.0134733375 -0.0071886545 0.04257932 -0.011122033 -0.05060012 -0.0139216455 0.022680406 0.086572826
-0.029206404 -0.014743584 -0.03434609 -0.0122661535 -0.010030836 0.03573642 0.0020004194 0.022344813
