models1/ppo_50.pth (torch, 275252 bytes, 6 tensors)

net.0.weight f4 [256, 6]
00000000: e69f abbe e938 b7be c7f3 763e 4bb7 de3e
00000010: 2139 1bbe 139e 9abe b7f7 2bbd 4efa 32bd
00000020: b601 ca3e f662 9ebe 0f89 c0bd 1a2d ee3e
00000030: fa1e 00be b430 e23e 952d ff3a 8940 debe
00000040: b46b 3abe 3b65 43bd 3c25 95be 28ff 883e
00000050: 4911 223e 89d8 bfbb f817 f8bd ad96 d03e
00000060: 8c4d 9d3e 10d0 5fbd 6704 efbe beb2 423e
00000070: 7659 643e 5d7f 46be 0304 463e 2381 2e3d
00000080: aa63 ba3e 7f8d 553d 5551 9fbe b187 4d3e
00000090: 5fef 013e 90ff 753e 9620 b53e 5e15 913e
000000a0: 0cf9 943d 2eea a5be 5491 a5be e0eb 98be
000000b0: d3b5 233e 9d45 813e 85bf 1fbe 652d ad3e
000000c0: cf9a fcbd fb8d 5dbe d797 ab3e f65b 503d
000000d0: 17e4 6c3e 630a 80be d3b7 8f3e 94fc 853e
000000e0: 8404 e83e 1064 cdbe fc9f 87be 05de 843e
000000f0: c997 27bb 758e 93be cf3f c4be 65d6 a9be
00000100: b6c4 32be 8205 14be 2a6c 233d 5e7e 81be
00000110: db2f 5abe 50bd 8b3e 6275 d7bd de15 ffbd
00000120: 725f 85bd ad0e 2f3e 4d93 11bb ceb3 993e
00000130: d62b b7be 6d54 07bc bdb2 dc3d 0013 873e
00000140: d4c5 553e 79b0 8f3e 2cd0 05be 7f86 b0be
00000150: 7812 c33e af20 5c3e e784 96be 358d 85bc
00000160: db38 a4be 1f02 973e 4315 673e 0d7a 5dbe
00000170: 851d e7bd c475 d5be 85d9 c6be cca8 113e
00000180: 46c8 653e ae0c 883e c081 cd3e e41c 84bd
00000190: c43b 9bbd f776 8fbe 96b6 9dbe 4301 8abd
000001a0: 4eb0 cfbd 9a22 a0be e77f 51bd c676 883e
000001b0: eab5 bcbe 7ad8 913e 2990 dcbe f4a2 84be
000001c0: 39ee fbbd 15cf a03e ea05 5d3e b741 863e
000001d0: bb32 f3bd da0d d13e b507 27be 9d10 38be
000001e0: 0535 1fbe ceac cd3d 6ad2 9d3c a8e6 9d3e
000001f0: 9c7d 3d3e 9b03 c13e 0872 a33e 82ff 473e
00000200: 622e d4bd 1aec a2bc 8b44 7e3c ce07 6abe
00000210: 905f 98be cbab 8a3d 82d8 983e 246e c2be
00000220: 0782 02be a5a9 ec3e c3a2 833e 7529 51bd
00000230: 5f61 afbd 90f9 bdbc b0d2 cf3d cd88 ec3d
00000240: bf6a d6bb 08a6 a23e 2d71 cbbb 248f b83b
00000250: d82d 943e 2014 c6be 74a5 71be 79d9 a43e
00000260: 6f9b babe d3af 093f 557c 863d 0219 77be
00000270: a4a7 8c3e 3c2c 1f3e 9e89 42be b602 053e
00000280: 3dff 4c3d 0fa6 1ebe a172 ea3d d19e ccbd
00000290: a6cb 063f c93f eebe 7a3b 9c3d 420a b7be
000002a0: bdad c13e c607 b0be 88c7 8d3e c3a0 ca3e
000002b0: e235 24be a218 b9bd 6b85 21be e3a0 173e
000002c0: 8318 d93d b3a9 85be 7100 9bbe cfe0 8a3d
000002d0: c616 1cbe 4b66 87be a7cb a3be 6061 a03e
000002e0: bf15 b63e 0d72 8e3e 4a45 aa3d d18f bfbd
000002f0: 3a85 10bf d3aa 013e ac70 c23d 39fe 0abe
00000300: 40f4 5abe f20d 8bbd 837b eabd cf65 ad3e
00000310: 5a35 32be ec7e c13d 3e64 95bd ab60 833e
00000320: 2f20 b4bd c9ca b1bc dd03 213e aca8 d63d
00000330: ba62 a1be b1ba 8b3e 300a f2bd 02e3 cb3e
00000340: 7f7b afbe 6cdd ec3d 44e3 7bbe 6469 013e
00000350: 5ae5 ca3e 9c91 a13e 48e1 f1bd c7f9 163c
00000360: 2443 813e fae8 9a3e 44e7 973e d194 88be
00000370: bdb0 99be 3ce6 81be b121 7fbe 54c2 80be
00000380: fdaf cd3e 01c8 45be 0d92 3bbe cfa1 46be
00000390: fc68 c1bb 2a8d 6c3e c943 96be 5875 983e
000003a0: 489d 8abe 88a4 ed3c a11f 75be a8fc c3bd
000003b0: 7b75 573d 3d49 403e 4240 16be 264b e83e
000003c0: c841 6c3e f801 c5be fe46 58bd ff00 72be
000003d0: fc47 143e 7172 c9be f2f5 a4be 72ec babe
000003e0: 3b3b 833e bac4 c73e 3661 a4bd c126 fd3d
000003f0: fff8 933e 84e3 b2be 7704 223e 05f7 eebe
-0.3352043 -0.35785607 0.24116431 0.43499216 -0.15158512 -0.30198726 -0.041984286 -0.04369574
0.3945443 -0.30934876 -0.09401142 0.46518785 -0.12511817 0.44177783 0.001946854 -0.4340861
-0.18205148 -0.047703963 -0.2912997 0.2675717 0.15826906 -0.0058546704 -0.12113947 0.40739956
0.30723226 -0.054641783 -0.46683046 0.19013497 0.22299752 -0.19384523 0.19337468 0.042603623
0.36404163 0.052136894 -0.3111674 0.20071293 0.12688969 0.2402327 0.35376424 0.28336614
0.072740644 -0.32405227 -0.3233744 -0.29867458 0.15987329 0.25248423 -0.15600403 0.33823696
-0.12334215 -0.21636193 0.33514282 0.05086895 0.23133884 -0.25007924 0.28069934 0.26169264
0.45315945 -0.40115404 -0.26489246 0.25950637 -0.0025572649 -0.28819624 -0.38329932 -0.33171383
-0.17457852 -0.14455226 0.039898075 -0.25291723 -0.21307318 0.2729287 -0.10520436 -0.12455343
-0.065123454 0.17095442 -0.0022213042 0.30019993 -0.35775632 -0.008259875 0.10776279 0.26381683
0.20876247 0.28064325 -0.13067693 -0.34477612 0.38100028 0.21496843 -0.2939827 -0.016302684
-0.32074627 0.29493806 0.22566704 -0.2162859 -0.11284927 -0.4169141 -0.3883783 0.14224547
0.2243968 0.26572174 0.40138054 -0.06450823 -0.07579759 -0.2802045 -0.30803365 -0.06738522
-0.10141049 -0.312764 -0.051147368 0.26653117 -0.3685754 0.2848547 -0.43078735 -0.25905573
-0.12301297 0.3140799 0.21584287 0.2622201 -0.118749104 0.4083088 -0.16311534 -0.17975087
-0.15547569 0.100427255 0.019265372 0.3084004 0.18504947 0.37698063 0.31922936 0.19531062
-0.10360409 -0.019887973 0.015519272 -0.2285454 -0.29760408 0.06771048 0.29852682 -0.37974656
-0.12744914 0.46223179 0.25710115 -0.051064927 -0.08563494 -0.02319029 0.10147607 0.1154953
-0.006543487 0.31767297 -0.00620856 0.005632298 0.28941226 -0.3868723 -0.23598272 0.32197168
-0.3644671 0.5378391 0.06566683 -0.24130633 0.2747165 0.15544218 -0.1899781 0.12989315
0.0500481 -0.15493034 0.11447645 -0.09991229 0.5265449 -0.4653304 0.07628532 -0.35750014
0.37827864 -0.3438093 0.27691293 0.39575776 -0.1603618 -0.090379015 -0.15773551 0.14807467
0.10600378 -0.26106033 -0.30273774 0.0678116 -0.15243062 -0.2644523 -0.31991312 0.3132429
0.35563466 0.2782139 0.08313997 -0.09353603 -0.5645329 0.1266282 0.09494147 -0.13573541
-0.21382236 -0.06789769 -0.11449339 0.33866736 -0.17403165 0.094480366 -0.0729451 0.2565969
-0.08795201 -0.02170314 0.1572413 0.1048139 -0.31520635 0.27290872 -0.11818349 0.3982163
-0.34273908 0.1156567 -0.24598414 0.1263786 0.39628106 0.31556404 -0.11810547 0.009214825
0.25246537 0.30255872 0.2966863 -0.26676038 -0.30017653 -0.25370967 -0.24915196 -0.2514826
0.4017333 -0.19314577 -0.18317433 -0.19397663 -0.0059024077 0.23100725 -0.2934859 0.29777026
-0.2707312 0.029009119 -0.23937847 -0.09569675 0.052602272 0.18777938 -0.1467295 0.45369834
0.23071969 -0.38478065 -0.05280208 -0.23633192 0.14480585 -0.39345124 -0.3221889 -0.36508518
0.25631127 0.39017278 -0.08026354 0.12360907 0.28900906 -0.34939206 0.15822016 -0.46672836

net.0.bias f4 [256]
00000000: 1cd2 33be b270 cb3a e066 9ebe a549 aabe
00000010: 7363 c43e 685c a7be fc4f a9be 2ee6 59be
00000020: 3c64 183e 7399 973d 66ba f03d b1da 65be
00000030: a1dc 58bc 0e1f 1ebe 5c97 b7be c449 933e
00000040: f7bd c03e bfd2 3d3e 843d 1abd 97aa b83e
00000050: a16b 4cbe fb8e adbe 131f bd3d aae5 c03e
00000060: 5cf7 a93e e821 163e 7fc3 713e 8348 4b3e
00000070: 6fcc cb3d b438 2ebc 7235 a03e 709d 5f3e
00000080: 7dc1 173e 8939 a7be cbea fbbd b14e 803d
00000090: 35b0 a9be 8e65 c23e 423d 6e3e ac73 4dbe
000000a0: 05a6 5abe eaf2 e13d 351a 753e fe92 1abe
000000b0: d820 77bd daff 683e d04b 553e c90e ccbe
000000c0: 1a0c 983d b20f 783e 62f2 aebe ad16 863e
000000d0: a337 39bd 60dc fdbd 698b 8ebe 849d 523e
000000e0: 42e7 7bbe e337 833e d07b 5c3d 1ed8 aebd
000000f0: 0534 a7bd 4088 393e 4048 243e 6bf5 193e
00000100: b508 783d c6a4 2e3e c1ff 1fbe 4da7 593e
00000110: e391 333e cb82 653e 394d 283e 6af4 40be
00000120: 7552 823e 9670 c5be 3a47 b9be e0d8 87bd
00000130: 032b 893e b1f0 83be 5ba9 4b3e 27ff 18be
00000140: 899d 2bbd 4f5f bcbb 7ca2 6d3c 460a 19bd
00000150: 770c d2bd 04e9 a63c bbaf 9a3e 2616 bb3e
00000160: ca76 6b3d f359 a43e ae2a 02bd 6d88 3a3e
00000170: 12dd 853e a96d 163d 2923 893e a3a1 b83e
00000180: 63e4 73be 47b9 0cbe fb74 a2be 811a d93c
00000190: a686 9b3d a3ec 5ebe 782d 1f3e c306 913e
000001a0: 967d 313e 512e 82be 5984 083d a565 5b3e
000001b0: abdf c4be 8c1c 963e e18f 983d c87a cd3e
000001c0: f685 ac3e 62c8 a7bc e066 39bd 7010 99be
000001d0: 0126 b1bd 48cf bdbe 51bf c33e 9363 70be
000001e0: 89d2 a2be d7fb 51bb 0fe1 f93d b023 fa3d
000001f0: fa52 983e aff0 6fbe 0542 be3e 27c7 b8be
00000200: b73f c53e 161f eabd d707 5c3d a976 6c3e
00000210: 18c4 8d3e c1dd 6fbe 2f01 cfbd 072e 1c3e
00000220: 82a9 6a3d 5efd 8fbd 2238 bebc 2a0c 303e
00000230: 2a90 a03e 35d4 953e a594 453e 4b49 15be
00000240: af86 cb3e 696a a13e fbb4 aebe 7741 06be
00000250: d65e 9b3e b3bb 5f3e df85 743d 7fc8 9fbe
00000260: 526a fcbc ade6 993e 1a60 623e a635 83be
00000270: 899f 78be 6841 77bc 5ec8 5ebe 4c46 213e
00000280: b505 b7be 8cdb 18be d4da b2bd 8c65 1ebd
00000290: d08d 873d 3c23 94be d34a 8e3e 2700 9a3e
000002a0: 101d c73e df8b aebe 8978 95be bd39 b8be
000002b0: 5655 2fbe 2f4c 9fbe 2e7a 0bbd fa2b ba3e
000002c0: 1d39 6b3e 8d86 cdbd 0109 913e ab45 63bd
000002d0: 8173 a8be d916 53be 7493 cebe 3a0e ecbd
000002e0: b929 d8be 1b2e 0f3d 572f af3e 69a3 c5bd
000002f0: f9f9 aebd a765 6dbe 9612 3e3d e204 653d
00000300: b70d 22bc 9757 c53e 3e2e 53be fb40 23be
00000310: b073 b8bd 6f7f d1bc 9323 c7bd 54d9 a0be
00000320: 73e8 2e3d d68f 643e 9229 9b3e b02f 9f3b
00000330: ba03 5a3e 828e c3bd 693c 6e3e 4f1a 873d
00000340: 050a ab3e 14bd 583e 272f 913d 5b9a 3a3d
00000350: 8c6f c33e 1b30 b9be 7d89 96bb fa87 1abe
00000360: 5d16 5dbe c33c 68be c03f c3be f5b4 a53e
00000370: 9041 fc3d 0b3a 8fbe a242 8b3e 2859 a6be
00000380: d07c 54be 5591 4e3e e712 f3bc 80d2 863e
00000390: e31f 3e3e 4528 74be f363 813c 73d8 eb3d
000003a0: d072 61bd 4b2e 7b3c 025a aebe e5f4 543c
000003b0: 30da 953e 6eca 33be 4c39 cd3e a65b b23e
000003c0: 7446 80bc d69f 1c3e 46a2 ed3d c5e9 23be
000003d0: 9511 9d3e 9714 37be 3429 003d 15d5 4b3e
000003e0: 07dc 02be e5f4 ac3e c7b8 cfbe 10c8 87bd
000003f0: accc 053e a827 93bb 5a0f 763e f6ea 3cbd
-0.17560619 0.0015521257 -0.30937862 -0.3325931 0.38357124 -0.32687688 -0.33068836 -0.21279213
0.14881986 0.07402315 0.11754303 -0.22446705 -0.013236196 -0.15441534 -0.35857666 0.28767216
0.37644932 0.18537425 -0.037656322 0.3606765 -0.19962932 -0.33898148 0.092344426 0.3767522
0.33196533 0.14661372 0.23609732 0.1985188 0.09951102 -0.010633636 0.31290776 0.21837401
0.14819904 -0.32661083 -0.123006426 0.06265009 -0.33142248 0.37968105 0.23265556 -0.20063657
-0.21352394 0.1103266 0.23935778 -0.15095136 -0.060334057 0.2275385 0.20829701 -0.3985503
0.07424183 0.24224737 -0.34169298 0.26189175 -0.045219075 -0.12395549 -0.27840737 0.205679
-0.24599937 0.25628576 0.053829014 -0.08537315 -0.08164219 0.18118382 0.16043186 0.15035026
0.06055518 0.17055044 -0.15624906 0.21255226 0.1753612 0.22413175 0.16435708 -0.18843237
0.25453535 -0.3856246 -0.36187154 -0.066331625 0.26790628 -0.2576957 0.19888823 -0.14941083
-0.041898284 -0.0057486664 0.014504071 -0.037363313 -0.10256284 0.020374782 0.30212197 0.36540335
0.057486333 0.32099876 -0.031778984 0.18216105 0.26145226 0.036725674 0.26784638 0.3606082
-0.23817591 -0.13742553 -0.31729874 0.026501896 0.075940415 -0.21769957 0.15544689 0.2832547
0.17333063 -0.25425962 0.03332934 0.21425493 -0.38451895 0.29318655 0.07449318 0.40132737
0.33695954 -0.020481292 -0.045264125 -0.29895353 -0.08649827 -0.37072206 0.382319 -0.23475485
-0.3180125 -0.0032040977 0.1220113 0.12213838 0.29750806 -0.23431657 0.37159744 -0.3608944
0.38525173 -0.114317104 0.053718414 0.2309214 0.2768867 -0.23424436 -0.10107648 0.15251933
0.05729056 -0.07030748 -0.023220126 0.1719214 0.31359988 0.29263464 0.19294985 -0.1457874
0.39751193 0.31526497 -0.34122452 -0.1311091 0.30345792 0.21848945 0.059697982 -0.31207654
-0.030812416 0.30058804 0.22106972 -0.25626868 -0.24279608 -0.015091278 -0.21756122 0.15749472
-0.35746542 -0.149275 -0.087331444 -0.03867106 0.066188455 -0.28933132 0.2779146 0.3007824
0.3888936 -0.34091088 -0.29193524 -0.3598155 -0.17122397 -0.3111281 -0.034052067 0.36361676
0.22971006 -0.10035429 0.28327182 -0.055486362 -0.32900622 -0.20614184 -0.40346873 -0.11526151
-0.42219332 0.03495608 0.34215805 -0.09650309 -0.08543772 -0.23183309 0.046404444 0.05591286
-0.009890965 0.38543388 -0.20623109 -0.15942757 -0.09006441 -0.02557346 -0.09723582 -0.31415808
0.04270215 0.22320494 0.30305153 0.0048579797 0.21290484 -0.095486656 0.23265232 0.06596815
0.33406082 0.21165878 0.07089072 0.04555736 0.3817104 -0.36169514 -0.0045940266 -0.15090933
-0.21590562 -0.22679429 -0.38134575 0.32364622 0.123171926 -0.2797397 0.27199274 -0.32489896
-0.20750737 0.20172627 -0.0296721 0.26332474 0.18566851 -0.23843487 0.01579473 0.11515894
-0.055041134 0.015330861 -0.34053046 0.0129978405 0.29268026 -0.1755769 0.40082777 0.34835547
-0.015658595 0.15295348 0.11603217 -0.16007145 0.30677477 -0.17878948 0.031289294 0.19905503
-0.12779246 0.3378059 -0.4057066 -0.06629956 0.13066357 -0.0044908114 0.24029294 -0.046122514

net.2.weight f4 [256, 256]
00000000: b6ec 5ebd 071d fcb8 b25d 71bd 7c76 ffbc
00000010: 70a9 023d 03ed 7abc 72f8 093c 59e8 f2bb
00000020: 418e 65ba 39d9 8e3c 16c5 30bd 780c c53c
00000030: 7c00 70bb 3c73 57bd 20e0 523d 2846 063d
00000040: d666 453d 18dd 08bd 704a c43c a3ae 24bd
00000050: 04cb 22bd 30b5 d0bc 5faa c63c 710c c4bc
00000060: d670 abbc 3eb7 4cbc 9d2e 4dbd 452c 0e3d
00000070: 450f 44bd e374 173d 560b 06bd 3a38 29bc
00000080: 895b 37bd 40bb 8aba ec4e 243d 516b 64bd
00000090: bdab 51bd cb14 433d 5102 4dbd 54f2 923a
000000a0: f00a c3bc d53d d53c 5644 743b de3e f93a
000000b0: 71fa 26bd 09ea 3c3d a53e 4c3d 10c8 703c
000000c0: a862 f2bc 3863 a33c cc08 603d 264d 083d
000000d0: 29a8 e7bc 12bd 6d3d 4269 493d ee1a 823c
000000e0: 17f8 a53b 6fde 1a3c 802b 1b3b d8b4 ae3c
000000f0: acaa 723d e73b 403a aece 8a3c 9d77 483d
00000100: ccbe 093d 1b84 463c 30d1 bdbc 7f59 39bd
00000110: a670 0cbd 2be2 03bd 97ce 6d3c 1809 79bc
00000120: 7582 5ebd a682 3d3d 00a4 8abb e43a 373d
00000130: ae30 61bd 8dd0 023a 5456 943c b011 313d
00000140: 054f 9a3c 63b1 793c 32bc 91bc 2ac3 d13c
00000150: 1978 3cbc 8b1b a2bc 253f 343d 650e de3c
00000160: f17d 40bc 7136 42bd 6ee9 2cbd f450 343d
00000170: 232a f4bc 0a75 5dbd 60ef 86bd 73f9 c1bc
00000180: 4e20 70bc 2c23 50bd da8e 2ebd 8b77 40bd
00000190: 0533 8dbd 8a1f 633d 91e0 633d 53cd 37bb
000001a0: 5b6a 473d 08af c63c c44c 79bc b240 073d
000001b0: bc9f bdbc e7f4 82bd 1659 bc3c 02f3 1c3d
000001c0: f60f 36bc 88cb 67bd fb31 833c cc52 643b
000001d0: b123 003d 00c5 663b 153e 383d 842f 003d
000001e0: 488d 56bd 50df 34bc 899a 353d a6f8 2c3d
000001f0: 5c29 fd3c 2868 61bc 5287 a6bc 6c95 e3bc
00000200: 0458 64bb 8655 44bc b0a1 47bd 6034 aabb
00000210: 97c0 d63b 44b9 2b3d 6012 05bd ea3d f13c
00000220: b68f 3d3d 2071 16bc 064e 51bd d8d5 40bd
00000230: 6aa0 d5bc 6dce 7bbd ffb6 c3bb 0206 243d
00000240: a4c8 03bd 918d 98bc 9487 683d 28f3 c23c
00000250: bac0 3f3d 6079 fd3c ead9 c9bb 2e9f 2c3d
00000260: 12f2 91bc c7b9 40bd 904a 85bd b4b5 48bd
00000270: 6801 2abd c89b 483d 32fb 21bd 7865 87bd
00000280: 88a8 da3c 7c9e a1bc b359 b2bc 3c9d 34bd
00000290: efec 873c eaa1 8a3c aed5 38bd 4244 5c3d
000002a0: 39df 38bd f75c 1b3d 7aa0 70bd 301c 333d
000002b0: e566 47bd 24fe 823c 02f6 20bd 01d2 49bd
000002c0: 5c10 1e3d 4e28 083d ae2e 5d3d 7cc8 0a3d
000002d0: e4b4 c3bc a0df a0bc 483a bbbc 5f46 78bd
000002e0: f817 14bc 1c03 ed3c 8796 573d 38e4 62bd
000002f0: ed1b ae3c 9ebb 89bd 50c9 5b3c 20bc 523b
00000300: 60b5 f73c bf63 ebbb 1c21 313d db70 08bd
00000310: 3672 3b3c 6521 d33c d8d2 db3c 6474 c53c
00000320: e711 a8bc f6ba 513d 7fad 5dbd 91c8 39bc
00000330: 11d5 a53c 3560 953c 1bc0 dbbc c0f1 48bc
00000340: 5c90 493d 0319 a63b 4716 6bba ec48 143d
00000350: 48ee 3dbd 7c34 c3bc 1c5e 97bc c8de 00bc
00000360: ec36 ddbc a2eb 22bd a7e0 293d b143 37bd
00000370: 1db6 4a3d 233f 8dbc 4d26 7d3c b6ac 293d
00000380: 8868 fe3c 8b7b 323d e3d9 89bd 56b1 73bd
00000390: 904b 8cbd 1ba7 30bd 0139 db3b b4b1 7c3b
000003a0: 9bb4 b3bc fe9c 26bd ad2a f9bc 0196 783d
000003b0: abf2 6cbd 3c24 3a3d ad5a 60bd 4792 38bd
000003c0: 5aa9 5abd bc1c 633d c363 68bd 64ae 32bd
000003d0: eed0 36bd 5c41 043d 378e 25bd ca70 4cbd
000003e0: e2b8 e03c 3486 993c 9cc6 a6bc 9ae9 1a3b
000003f0: 53df 19bc 04be b13c 667b 62bd 747e 72bd
-0.054424964 -0.00012021703 -0.058927245 -0.031184427 0.03189987 -0.015315297 0.00842105 -0.007412952
-0.0008756854 0.017437564 -0.043156706 0.024053797 -0.0036621382 -0.05260013 0.051483274 0.03278175
0.048193775 -0.033413976 0.023961276 -0.04020561 -0.039744392 -0.025477022 0.024251161 -0.023931714
-0.020927828 -0.01249486 -0.050093282 0.034710187 -0.047866125 0.036976706 -0.032725655 -0.010328347
-0.04476503 -0.0010584369 0.04011433 -0.055766407 -0.051189173 0.04762725 -0.050051037 0.0011211135
-0.023808926 0.02603046 0.0037272177 0.0019015928 -0.040766183 0.04612163 0.04986443 0.014696136
-0.029588059 0.019944772 0.05469589 0.0332767 -0.028278427 0.05804164 0.049172647 0.015881982
0.005064975 0.009452446 0.002367705 0.021326467 0.059244797 0.0007333145 0.016944256 0.048942197
0.033629224 0.012116457 -0.023171037 -0.045251366 -0.034287117 -0.032198112 0.014514587 -0.015199922
-0.054323632 0.046267174 -0.004230976 0.044733897 -0.054978065 0.0004990183 0.01810757 0.04322976
0.018836508 0.015240046 -0.017789934 0.025605757 -0.011503243 -0.019788524 0.04400553 0.027106473
-0.011748777 -0.0474152 -0.042214803 0.044022515 -0.029805249 -0.054066695 -0.06588626 -0.023678517
-0.01465614 -0.050814793 -0.042616703 -0.046989005 -0.06894497 0.05545 0.055634085 -0.0028045967
0.048685413 0.024253383 -0.015216056 0.033020683 -0.023147456 -0.06394368 0.022991698 0.038317688
-0.011112204 -0.056590587 0.016015043 0.003483939 0.031284038 0.0035212636 0.04498108 0.031295314
-0.05238083 -0.01103957 0.04433683 0.042229317 0.03090351 -0.013757743 -0.020328198 -0.02778121
-0.00348425 -0.011983281 -0.04873818 -0.005194232 0.00655372 0.04192473 -0.032488227 0.029448468
0.04627963 -0.009182245 -0.0510998 -0.047078937 -0.026077468 -0.06147616 -0.0059727426 0.040044792
-0.032173768 -0.018622192 0.056769922 0.023797587 0.046814658 0.030941665 -0.0061600106 0.042143993
-0.017815623 -0.04705217 -0.06508362 -0.04900141 -0.041505247 0.04897669 -0.0395462 -0.066111505
0.02669169 -0.019728892 -0.021771288 -0.044095263 0.01659247 0.01692291 -0.045125656 0.053776033
-0.045134757 0.037930455 -0.058746792 0.043728054 -0.048682112 0.015990324 -0.03929711 -0.04927254
0.03858982 0.033241563 0.053999595 0.033882603 -0.023889966 -0.019637883 -0.02285494 -0.060613986
-0.009038918 0.028932147 0.05263379 -0.055393428 0.02125355 -0.06725238 0.013414696 0.0032155588
0.030237854 -0.0071835215 0.043244466 -0.033310752 0.011440804 0.02577276 0.026833937 0.024103351
-0.020516349 0.05120369 -0.054120537 -0.011339323 0.0202432 0.018234352 -0.026825001 -0.012264669
0.049209937 0.0050688996 -0.0008967858 0.036202356 -0.04636982 -0.023828737 -0.018477492 -0.007865615
-0.027003728 -0.0397755 0.04147401 -0.04474229 0.049490083 -0.01724202 0.015451026 0.041424476
0.031055704 0.04357485 -0.06731012 -0.059495293 -0.0685035 -0.043128114 0.006690145 0.0038558068
-0.021936705 -0.040677063 -0.030415857 0.06068993 -0.057848614 0.045444712 -0.054773975 -0.045061376
-0.053384162 0.055447325 -0.056735765 -0.043623343 -0.044632845 0.032288894 -0.04041883 -0.04991225
0.027431909 0.01874075 -0.020358376 0.0023637773 -0.009391624 0.021697052 -0.055293463 -0.059202626

net.2.bias f4 [256]
00000000: 51bb 3a3c 83e0 84bd cf42 e8bb 667a 423d
00000010: 2f71 e3bb 2d30 a2ba 7531 163d d4c3 91bd
00000020: d872 a8bc 4ed4 7f3d 8980 2a3d 4a04 47bd
00000030: 66a9 573d 43a5 0bbd 8b37 863d 1ce2 54bd
00000040: 1ce4 93bb de29 4e3d 2051 7a3c 0b13 cebb
00000050: 2246 1e3d bbbe 9b3c f37f 973d 2453 f1bc
00000060: 2643 efbc 1ec9 75bd d001 29bc 9bb9 cf3c
00000070: 1a00 5bbd 5763 0cbc 626d 333d c07d a73d
00000080: f84b 5bbc 0b6e e33c 3bc8 643d 2fa7 4d3d
00000090: 4577 7b3d 4284 70bd 3287 583a 9a9a 23bd
000000a0: a86b 733c 6ef2 483d 72fa 7abd 7cd1 6c3d
000000b0: 6672 92bc 68ce 8d3d ea6f bb3c 2727 603d
000000c0: c55f a33d f3f5 e93b 0e7f 213d 105e 903d
000000d0: 7bc8 673d 5042 ac3c 12d3 e13c 8a0a ce3b
000000e0: a816 10bd 244f 9dba 511c 6c3d 6af1 163d
000000f0: feba 783d a71c 46bd 0a9d 963b ecdf ca3c
00000100: dc6d bc3b 07c1 673d e989 3a3c 7825 5dbd
00000110: 700e 61bd c4f9 ca3c 0569 233d 812d e93a
00000120: 6e86 0f3d f110 d7bc e5bd 45bd 44b2 fe3c
00000130: 748a 88bd 76d4 2abd a604 43bd 9502 10bd
00000140: 3d1e 08bd 04b6 823d 03e7 3bbb 0c79 c13b
00000150: 9494 1abd 4b99 7bbc e25e 22bd 868f 353d
00000160: fa89 873a 1e24 973d 1c0c 433d 1ad9 993d
00000170: 4177 f13c ace1 bbbc 6e3a 6fbd 4973 1cbd
00000180: a9bd d5bc 5d83 223d 27d1 553c 671e 543d
00000190: fabb 2cbc 973e d13c b544 ddbc c4fa cb3c
000001a0: d1ca 683d 7a50 7c3d 45d1 6fbd 1f73 1f3c
000001b0: b08c 12bc 7cab 1bbd 3800 483d 90cd 42bd
000001c0: 9d8d 82bd a5d0 af3b 3591 533b a630 2cbc
000001d0: 05e8 ec3b 3b6b e2bc 7143 393d 38cd 4b3c
000001e0: f826 36bd c4aa c43a 299c 33bc 2fe0 093d
000001f0: 2b2f 393d 5275 9e3d 2ae4 ca3c d6e3 5f3b
00000200: ba02 053d d09a a03c b37a 123d b22e 1f3d
00000210: da2c 053d 2b44 15bd 8a13 5dbd 886c 8d3c
00000220: 1531 393d 6ba9 7cbc 5800 57bc 08da 63bd
00000230: a8cc fb3c 79dd 44bd 1923 123d f64b 78bd
00000240: d35c bfbc 4996 f2bc f45d 4dbd f9de 68bd
00000250: 1801 e0bc 6e06 2c3a 3a9b 5e3d 83fa 08bd
00000260: bc3c 06bd b7bf ebbc 3518 6e3d 8f8b 063c
00000270: b585 85bd 3b1c 423d a41a e3bc 6779 21bc
00000280: 72b3 4d3d 0bd5 b03d b16d d63c 9e0b 943c
00000290: 7f8a 963d f6a9 71bd 81cf b63c b39d 28bb
000002a0: a4dd e93c 07ea ebbc 915b 073d a510 ba3b
000002b0: 442a 283c fa1d 0a3d 0851 723c 0c9d 2b3d
000002c0: 17f5 8bbd 6229 463d 758a f93c 66b6 a33d
000002d0: 7878 69bd cc00 b33c ab25 9b3c 8815 2b3d
000002e0: 08a2 5b3d 7146 d63c 71c1 b23d 4714 2b3c
000002f0: 9a17 24bd 1002 8ebc df16 263d 8a04 0cbd
00000300: 02fc a3bb 5a89 e0bc aa9f 903d 874e dcbc
00000310: b7a5 943d 9ac9 26bd 3314 64bc 9884 78bc
00000320: 3d98 953d 09a9 d83c ef17 463d aca2 263d
00000330: 13a2 473d b47f b9bc 870d 4b3d 9a08 6e3d
00000340: f75e 473c a11f 62bc 6720 3cbd 193f 7ebd
00000350: 317f 993d b0e0 4f3d fe05 9238 e80b 51bd
00000360: 207a fabc d525 04bd 677a 98bc 3fae 76bd
00000370: 58ec 9a3d b0fc 483d 9038 b5bb 06e1 5cbb
00000380: 4a32 11bd d434 1bbd 8963 8abc c416 a13c
00000390: 2402 97bc 30c4 7a3b 7cc6 073d 6c0e 54bb
000003a0: 3364 77bd e997 2abb e979 88bc 6366 a93d
000003b0: cff2 0e3d 9670 9c3d 85b4 b43c 81b4 25bd
000003c0: 6534 743d b80c 0d3d b1cc 99bc a8fb 643d
000003d0: 0b8f 87bd 7716 98bc 5960 ad3d b23e 743d
000003e0: b502 2c3d c1d5 bd3b 5068 be3c 4f54 4a3d
000003f0: 00d2 c5bc aa47 183d 4ba6 f6bc 18f8 883d
0.011397199 -0.06488135 -0.0070880423 0.04748001 -0.006940983 -0.0012373977 0.03666826 -0.071174294
-0.020562574 0.06245833 0.041626487 -0.048588075 0.052651785 -0.034093153 0.06553563 -0.051973447
-0.0045132767 0.050332896 0.015278131 -0.006288891 0.038641103 0.019011846 0.07397451 -0.02945859
-0.029206824 -0.060006253 -0.010315374 0.025357058 -0.053466894 -0.008568606 0.043805487 0.08178282
-0.013384812 0.027762434 0.055855017 0.050208267 0.06139304 -0.05871988 0.0008259892 -0.03994236
0.01485721 0.049059324 -0.061274 0.057816967 -0.017876815 0.069241345 0.022880513 0.05472484
0.07977251 0.007139915 0.03942781 0.07049191 0.056587677 0.021027714 0.027566466 0.0062878774
-0.035177857 -0.0012001735 0.057644192 0.036851324 0.060725205 -0.04836717 0.0045963572 0.024764977
0.005750401 0.05658057 0.011385419 -0.05399081 -0.05494541 0.0247773 0.039895076 0.001779005
0.03504031 -0.026253195 -0.0482768 0.031090863 -0.06667033 -0.041706525 -0.047611855 -0.035158712
-0.033231962 0.06382373 -0.002867163 0.0059043225 -0.03773935 -0.015356372 -0.03964127 0.044326328
0.0010340803 0.07379936 0.04761897 0.07512112 0.02947581 -0.022934757 -0.058405332 -0.038195882
-0.026091414 0.03967606 0.013050354 0.051786806 -0.010542864 0.02554254 -0.027010301 0.024899848
0.056834046 0.061600186 -0.058549184 0.009732037 -0.008944675 -0.038005337 0.048828334 -0.04755932
-0.06374667 0.0053654485 0.0032282595 -0.010509646 0.0072298073 -0.027639022 0.045230333 0.012439065
-0.044470757 0.0015004505 -0.010962524 0.033661064 0.045211 0.07737221 0.024767 0.00341629
0.032473303 0.01960507 0.035761546 0.03886289 0.032513477 -0.036441963 -0.053973712 0.017263666
0.045212824 -0.015421252 -0.013122641 -0.055627853 0.030737236 -0.048062775 0.035678003 -0.060619317
-0.023359692 -0.029612677 -0.05013843 -0.05685327 -0.027344272 0.00065622374 0.054347254 -0.03344203
-0.032772765 -0.02877794 0.058128554 0.008211984 -0.06519643 0.047390204 -0.027722664 -0.009855605
0.05021996 0.08634385 0.026175352 0.018071946 0.07350635 -0.058999978 0.022315742 -0.0025728762
0.02854807 -0.028798116 0.03304631 0.0056782537 0.010263983 0.033719994 0.014789827 0.04189782
-0.068338566 0.04837931 0.03046153 0.07993774 -0.056999654 0.021850966 0.01893886 0.04176858
0.053621322 0.026156636 0.08728302 0.010441846 -0.04006157 -0.017334968 0.040549155 -0.034184016
-0.005004407 -0.027409244 0.070617035 -0.026892914 0.0725817 -0.040719606 -0.0139208315 -0.015168332
0.07304428 0.02644779 0.04836267 0.04068248 0.04873855 -0.022643901 0.049573448 0.05811367
0.0121686375 -0.013801486 -0.04592934 -0.062071893 0.07494963 0.050751388 6.962939e-05 -0.051036745
-0.030575812 -0.032262642 -0.018613053 -0.060224768 0.0756461 0.049069107 -0.0055304244 -0.003370346
-0.03544835 -0.037892178 -0.016893165 0.019664176 -0.018433638 0.003826391 0.033148274 -0.003235723
-0.06039829 -0.0026030487 -0.016659694 0.08271482 0.03489953 0.076386616 0.022058735 -0.040455345
0.05962028 0.034435958 -0.018774362 0.05590406 -0.0661908 -0.0185654 0.084656425 0.059630103
0.04199477 0.0057933037 0.0232431 0.04939681 -0.024147987 0.03717772 -0.030108592 0.06687945

actor.weight f4 [1, 256]
00000000: f6cc 333c dd69 3e3d f52f 7e3d 2bd5 32bd
00000010: 1005 553e 1793 533c 49bf 3e3d fd94 6fbc
00000020: 0076 b6ba 915d 763d c07c 6bbc 3738 3fbc
00000030: d55b 4e3e b957 8abb bda7 223e 1c7c c63c
00000040: 9072 1f3e 6087 e1bb ef21 cfbd 07ed 4c3d
00000050: a644 96bd 9d5a 5ebe 1a63 043e e28d 0fbd
00000060: faed 32be ba57 6fbb 8e7b 563d ee2d a3bc
00000070: ceec 13be a8bf 3abe 8854 2abb 3ab1 323e
00000080: b006 373d f802 0dbd 0e93 26be c01e 2dbe
00000090: 8312 613e 806f 243e cc58 2ebe 9852 033c
000000a0: 152b c13d bbce 1bbe c281 5a3d 0a73 ab3c
000000b0: ce19 14bd db7a 053e 7c95 f8bb 1368 22be
000000c0: 2561 d43d ba9a db3c 4539 e2bc 5501 f03d
000000d0: fbe3 343e 8fc0 16be f7e5 1a3e 9696 23bd
000000e0: 264b 25be b5fc a3bc 40e1 bfbb 80fc 96bc
000000f0: c8ff ba3d 9142 c53c 3604 1d3e 7033 4abe
00000100: d40c a7be 3df6 c13b 45a1 59be 02ad 53bd
00000110: a89e 4dbc d58f 2abe 272d 9a3d 8ece e63d
00000120: e3c6 513d 4d4a e3bb af11 c63c bfab 0a3d
00000130: 26a3 bbbc 6214 c03c 8e90 7cbd 2975 1dbe
00000140: 4ae5 453e a954 e8bd 677f 8bbe 7d80 41be
00000150: b091 883b d3af 4fbc 24b7 37bd 9c68 283d
00000160: 141e 50be cdb1 433e 6a9f 9a3b 4a7f 94bb
00000170: c44e 3b3d f289 01bc 06fc 55bd e037 4d3e
00000180: c47a 233d 0c8d 0e3e 740c aebd 5b0e 2dbd
00000190: d64f 523d 8c02 873c c287 0abc 2835 bc3b
000001a0: c733 4c3b 0059 15be 260d 553d 507d e73d
000001b0: 50ec 753d 6055 e53b 28e3 a43c 4dec 1d3c
000001c0: 6e53 0c3c 977a 9c3b 1ded e8bb 8dd3 293e
000001d0: 0603 da3a c6c1 74bb 0bfe 2d3d 0062 d6b9
000001e0: 0c5f 373d 6544 1d3d f069 3e3d 8067 21be
000001f0: b0c0 79bd 8aad dd3c 5c1c 393d c3fc b2bd
00000200: 8655 023d e0da 17bc a633 03bc 42d2 12bd
00000210: 5897 403d 8bff 35be 6413 06bc 6568 b93d
00000220: 2403 0bbe 832d febb 9041 29bd 4cac 3f3d
00000230: 61c8 97ba 586c 41be dfe6 093e 00bf a9bc
00000240: ad43 ee3b 3f91 86bc 0079 8839 bd16 753d
00000250: e160 0cbd d734 38be dcbb bc3c 7f7c ae3d
00000260: a86c 9cbb c505 29bd 4f13 443e a324 97bc
00000270: 20a8 b93c 13bb 123d ccd9 653e 9b92 1a3d
00000280: 4d8d fd3c a53c 093d bdf1 90bd 0378 033e
00000290: 6228 163e c436 d93c b065 1dbe 022b 333e
000002a0: d122 32bd a212 3d3e a3a0 b53c cb27 303e
000002b0: aaae ba3c 7280 183e ce75 4f3d 947a 043a
000002c0: 9fa4 3fbd f60b 12be 2450 23be 1e8b bd3d
000002d0: 8e12 443d a2ef 313d 9bb6 ffbd 17de a7bb
000002e0: d763 273e f9c8 483c 1143 d93d f2e9 2b3e
000002f0: 38a5 143c 4e4d 2d3e 9493 96bd 52b7 08be
00000300: e55b 3fbd a532 1fbe bd89 6fbd e898 10bd
00000310: 5729 d03d 7073 dabc d6d2 a53c 889d 103c
00000320: 687c 8a3d 6c0e 04be 3f87 61bd 663a 2dbc
00000330: 9bc3 ccbd 412e 48bb 2f56 95bd e8d3 1cbe
00000340: 08c5 4fbd f578 9c3b a5eb 3cbe cba4 ba3d
00000350: 62b7 a53d 3d6e 223e 0892 03be e8ba 293c
00000360: 98e2 b93b bb4e 2c3d 9059 603c f4b8 60bc
00000370: a28e 443a accb e73d 702a dc3d e7cf d3bc
00000380: b185 31bd 30ae 45bc d45a fc3d 7a55 1fbd
00000390: 4000 483d aee5 23be e6c5 f1bc f6e5 3fbd
000003a0: 0d60 d6bd 030f 5f3e 4f5d 6c3d 15a9 103e
000003b0: 32ed 74bd 97e2 3a3e 67fe 023c d37d 503e
000003c0: aec3 4b3e 5168 4dbe 4e54 123e 6a91 373d
000003d0: 4de9 5a3d bd69 47bd e0e6 96bc f0ba dfbd
000003e0: cf1f b9bd 6495 03be 83d8 5fbd 4751 1abe
000003f0: 60d7 473b 1c28 a6bc f7a0 153e 46e0 823d
0.010974159 0.046487678 0.062057454 -0.043660324 0.20802712 0.012913487 0.046569142 -0.014622924
-0.0013920665 0.060147826 -0.014373004 -0.0116711175 0.20152219 -0.004221883 0.158843 0.024229102
0.15571046 -0.006882593 -0.10113894 0.050030734 -0.073373124 -0.21714254 0.12928429 -0.03504742
-0.17473593 -0.0036520795 0.052363925 -0.019919362 -0.14445803 -0.18237174 -0.0025990326 0.17450419
0.044684112 -0.03442666 -0.16267034 -0.16906261 0.21979718 0.16058159 -0.17026061 0.008015297
0.09432045 -0.1521558 0.053346403 0.020928878 -0.03615742 0.13035147 -0.0075861793 -0.15860014
0.10370091 0.026807178 -0.027615199 0.11719004 0.17665093 -0.14721893 0.15126787 -0.03993853
-0.16141948 -0.020017961 -0.0058557093 -0.018430948 0.09130818 0.024079593 0.15333638 -0.19746184
-0.32626975 0.0059192465 -0.21252926 -0.051678665 -0.012550034 -0.1665643 0.075281434 0.11269866
0.051215064 -0.0069363476 0.024178354 0.033855196 -0.022904944 0.02344722 -0.061661296 -0.15376724
0.19325748 -0.11344273 -0.27245638 -0.1889667 0.004167758 -0.012676197 -0.04485239 0.04111539
-0.20323974 0.19110794 0.0047187107 -0.0045317756 0.045729414 -0.007906424 -0.0522423 0.20040846
0.039912 0.13920993 -0.08498469 -0.04225002 0.05134567 0.016480707 -0.008455219 0.0057436414
0.0031158791 -0.14584732 0.052014492 0.11303198 0.06003982 0.006998703 0.020127848 0.009638858
0.008564813 0.004775356 -0.007108344 0.16584606 0.0016632981 -0.0037346943 0.042478602 -0.00040890276
0.04476838 0.038395304 0.04648775 -0.15762138 -0.060974777 0.027060289 0.04519306 -0.08739617
0.031819843 -0.009268492 -0.008007919 -0.03584505 0.047019333 -0.17773263 -0.008183334 0.09053115
-0.13575417 -0.0077568903 -0.04132229 0.046795174 -0.0011580103 -0.18888986 0.13466977 -0.020720959
0.007271251 -0.01642668 0.00026030093 0.059836138 -0.03427208 -0.17988907 0.023038797 0.085198395
-0.004773695 -0.041265268 0.1914799 -0.018450087 0.022663176 0.03582294 0.22446364 0.03773747
0.030951167 0.0335051 -0.07077358 0.1283875 0.14663842 0.026515372 -0.15370822 0.17496875
-0.043490235 0.18464139 0.022171324 0.1720268 0.022788364 0.14892748 0.050649457 0.0005053666
-0.046787854 -0.14262375 -0.1594854 0.0925505 0.047869258 0.043441422 -0.12486001 -0.0051229107
0.1634668 0.012254947 0.10608495 0.16788462 0.009072594 0.1692402 -0.07352367 -0.13351181
-0.046718497 -0.15546663 -0.058480967 -0.035302073 0.10164135 -0.026666373 0.020242136 0.008826621
0.0676201 -0.12896127 -0.05506062 -0.010573005 -0.09998246 -0.0030545148 -0.07291829 -0.15315211
-0.050725013 0.0047751614 -0.18449266 0.09113463 0.08091618 0.15862365 -0.12848675 0.010359503
0.005672764 0.04206727 0.013693228 -0.013715971 0.00074980606 0.11318144 0.10750282 -0.025855972
-0.04334039 -0.012065455 0.123220116 -0.038899876 0.048828363 -0.16005585 -0.02951331 -0.046850167
-0.10467539 0.2178307 0.057706174 0.14127 -0.05979652 0.182505 0.007995225 0.20360498
0.19898865 -0.20059325 0.14289972 0.044816412 0.05344515 -0.048684824 -0.018420637 -0.109243274
-0.0903927 -0.12849957 -0.05464984 -0.15070067 0.0030493364 -0.020282798 0.14612184 0.06390433

critic.weight f4 [1, 256]
00000000: a869 01bd 70c5 4abd 9f6c 8abb 8bf1 543d
00000010: f8f8 b23c 562a 393c 1db7 e2bc b10c 093d
00000020: 20ae c9bc 3dac 6f3d 4b37 d3bc faaf 0abd
00000030: 81c2 853c 0f92 88bc 9013 6cbb 4070 f8ba
00000040: b56c 843c 9b7b 48bd 340d 953d b0b0 86bb
00000050: eaed 86bd f1f0 7c3d ea51 9f3c 7006 23bd
00000060: 42b5 cd3c 68c4 2ebc dcd4 4c3d cc53 0abd
00000070: c0ee 8a3c b54c d73d 7e91 5fbc 772e da3c
00000080: 90c2 2f3c da32 a93d b5b5 493c d045 e33c
00000090: 92de cd3c 2a3a 89bc 10b7 773d 6ae3 7c3d
000000a0: 6f0c 263d d66b 5c3c 8069 d93b 9cd6 7d3d
000000b0: 25f9 fb3c 7c0f d43c 2a78 683d c30a 303c
000000c0: 2e04 103d 5f26 f3bc fc39 bd3c c590 1f3d
000000d0: 9c5d b93c 0fb3 cebb 57f3 b53c 85fe 1abc
000000e0: 0246 c63b 312a deba 250b 593d 4bde 03bd
000000f0: 8532 303d b2f9 3c3d e507 7cba d18e 5a3d
00000100: fca2 3a3e 2d7c 1f3d 73b1 4e3d b22a 833c
00000110: 9217 91bc a526 333c 60a4 293d e769 053d
00000120: 65f3 0e3c b34b c5bc 191b 7c3d fa92 a83c
00000130: 61fb 59bd 9643 a7bd 32f9 2ebd ded1 b13d
00000140: badb ad3c bf30 8f3d 14e8 093e e253 ae3c
00000150: b2c6 733d 1915 58bd c06a c83a d6bd 4e3d
00000160: 6ade 443d 7528 0a3c 1c2d 223d 4e19 a93d
00000170: 27c6 2d3d 19b2 243d f1d7 a7bb 9497 a03c
00000180: a877 763d 0041 ed3c aa77 7a3c 0488 463d
00000190: 0911 a8bc c6a8 fbbc 0c2a ebbc 66c7 41bd
000001a0: 72dd 1e3d d7bf 8b3d 828a 10bd ba7d 6dbb
000001b0: aecb 5f3d 6404 61bd a0d0 4c3d fe07 a4bb
000001c0: 5860 00bd f663 1ebd 6ebd f3bc 4af3 b33c
000001d0: 925b a63c 075a 18bd 30b9 843d e85e 1dbd
000001e0: 39b2 0bbd c354 323d 3f26 4cbd 8d42 4f3d
000001f0: 4979 e7bc 7136 0f3d 105c c6bc e7e1 8a3d
00000200: 903b 873c 360c 2b3d 273e 1e3c e087 1b3c
00000210: ee14 593d 5fcd b73c e858 033d f5ce 893d
00000220: fca7 833d c73b 47bd e4a0 8ebc 702e 08bd
00000230: 41f5 0bbb 9191 0d3d 4094 6c3d 7392 423d
00000240: cdf1 c3bc db91 56bb 564e 1abd 59c4 573d
00000250: 59f6 f4bb fef4 233d 68fb 1f3c ba6b 9fbc
00000260: a3dc 903b 07e2 7a3c ad78 dd3b a75c 9b3d
00000270: ec37 503d 5cde 343d 11ea 403c 7f40 6c3d
00000280: 74b7 c1bc 9895 8d3d f880 b73d 7071 bb3c
00000290: 8fe8 003d 381f 443d c2f1 623c bf1d ae3c
000002a0: 152d afbc be80 bf3c 331d c3bc f27d d0ba
000002b0: 0127 823d dd34 b73c 8024 493c 2d24 543c
000002c0: ad3d 01bc 986a 883b ac10 9f3b fa8e 0d3d
000002d0: 084d c53c 48ca 57bc 2d12 e2bb 97a7 d6bc
000002e0: ed44 0dbc 4eec 5d3d 8aa6 303d aa09 bc3c
000002f0: 482f f23c 19ac e83c 52b8 14bd fe06 c43b
00000300: 9a0f 1b3d b814 c63c 0c10 4e3d 3faa 923d
00000310: 06ef 723d 9631 703d ddf4 07bd 1433 21bd
00000320: 24c6 883d 3939 9d3d dcd5 203d 0bb8 58bc
00000330: c8b7 503b 75f8 8dbb 6719 93bc 5054 8b3d
00000340: d1af b4bc 43d2 933d b763 d33c 3752 c1bc
00000350: 31d9 203d 1a3d dcbb 96a0 4bb9 08d4 12bc
00000360: 5eb8 993c ff29 223d 89bc 5cbd fe60 5cbd
00000370: 2b58 5c3d 15a2 bb3c dfd8 733d 3809 803d
00000380: 011c 65bc 7851 733d 8cad 553d b857 69bc
00000390: e414 f73c e182 863c 8367 67bb 6d87 9e39
000003a0: 88a6 15bd d3d1 593c 5c85 c53c bb02 243d
000003b0: f8f9 f8bc 1e47 d63c 2f72 4c3d 1689 793c
000003c0: 8cbe 1bbc c437 3f3c af8e 283d 345e 41bd
000003d0: 1242 4fbd 9d17 64bc 9dfd 503d e7e2 9e3d
000003e0: 29ab 00bd f898 35bb 9a78 e8bc 0f39 383d
000003f0: 6438 a6bc bc6a 373d 6ff3 143d 7b00 2b3d
-0.031594902 -0.049504697 -0.0042243744 0.051988166 0.021847233 0.011301598 -0.027675206 0.03345937
-0.024619162 0.05851387 -0.025783202 -0.03385923 0.016328098 -0.016671209 -0.0036022402 -0.0018954352
0.016165117 -0.048946004 0.07277909 -0.0041104183 -0.06588347 0.061753217 0.01944824 -0.03980106
0.025110845 -0.010666944 0.050007686 -0.03377132 0.016959548 0.105126776 -0.013645528 0.026633484
0.01072754 0.08261652 0.012311389 0.02774325 0.025130544 -0.016751368 0.060477316 0.061740316
0.0405392 0.0134534445 0.006634891 0.061972246 0.03075845 0.02588629 0.056755222 0.010744753
0.035160236 -0.029681383 0.023098938 0.038956422 0.022627644 -0.0063079665 0.02221076 -0.009460096
0.006050826 -0.001694983 0.052989144 -0.032194417 0.04301693 0.046136566 -0.00096142135 0.053358857
0.18226236 0.038936783 0.050462198 0.01601157 -0.017711435 0.010934507 0.041416526 0.0325717
0.008725022 -0.024083948 0.06154928 0.020577896 -0.05321825 -0.08167188 -0.04271812 0.08682607
0.021222938 0.069917195 0.13467437 0.021280233 0.059515662 -0.052754495 0.0015290603 0.05047401
0.048063673 0.008432497 0.0395938 0.082567796 0.0424253 0.04020891 -0.005122178 0.019603528
0.060172707 0.028961658 0.015287319 0.04846956 -0.020515935 -0.030720126 -0.028706573 -0.0473093
0.038785405 0.068237 -0.03528834 -0.003623827 0.054637603 -0.054935828 0.050003648 -0.0050058356
-0.03134188 -0.03866955 -0.029753413 0.021966595 0.020307336 -0.03719523 0.06480634 -0.038420588
-0.034105513 0.043537866 -0.04984116 0.050600577 -0.028256075 0.03496403 -0.02421382 0.06781369
0.016507894 0.041759692 0.009658373 0.009492844 0.052998476 0.022436796 0.03206721 0.06728927
0.06428525 -0.048640992 -0.017410703 -0.03324741 -0.00213559 0.03456265 0.05775857 0.047502946
-0.02391901 -0.0032740745 -0.037672363 0.052677486 -0.007475656 0.040028565 0.00976453 -0.019460548
0.004420833 0.015312678 0.0067587704 0.075860314 0.05083458 0.04415737 0.011774556 0.057678696
-0.023647048 0.06913298 0.08960146 0.02288124 0.031471785 0.047881335 0.013851585 0.021254418
-0.021383801 0.023376819 -0.023817634 -0.0015906675 0.06355096 0.022364074 0.012276769 0.012948078
-0.00788824 0.0041630976 0.0048542824 0.03456018 0.024084583 -0.013170786 -0.0068991394 -0.02620296
-0.00862239 0.054180436 0.043127574 0.022953827 0.029563561 0.028402375 -0.036308594 0.005982279
0.037856676 0.024179801 0.050308272 0.07161378 0.05930998 0.05864104 -0.033192504 -0.039355353
0.06678417 0.0767693 0.039266452 -0.013227473 0.0031847823 -0.004332597 -0.017956449 0.06803191
-0.022056492 0.072178386 0.025804384 -0.023598773 0.03926963 -0.006721151 -0.00019419412 -0.008961685
0.018764671 0.03959083 -0.05389074 -0.053803436 0.05379502 0.022904435 0.059532996 0.06251758
-0.013983727 0.059403867 0.05216746 -0.014242105 0.030161329 0.01641983 -0.00353095 0.00030237008
-0.03653577 0.013294655 0.024111442 0.040041666 -0.030392632 0.026156958 0.04991358 0.015230438
-0.009505879 0.01167101 0.0411517 -0.04720898 -0.05060012 -0.0139216455 0.051023114 0.07758122
-0.03141323 -0.0027709585 -0.02837782 0.04497629 -0.020290561 0.044779524 0.03636497 0.041748505
