models1/ppo_700.pth (torch, 275264 bytes, 6 tensors)

net.0.weight f4 [256, 6]
-0.4438873 -0.45345044 0.16702214 0.39221466 -0.08787308 -0.33049598 -0.052189577 -0.02786086
0.42897385 -0.36174408 -0.09765188 0.45042497 -0.1282178 0.42894268 0.027610498 -0.46362457
-0.12460785 -0.09203269 -0.31080598 0.24740255 0.191441 -0.011528545 -0.05300445 0.36844638
0.25908715 -0.11163088 -0.48898613 0.24903324 0.20952745 -0.19932081 0.12192651 -0.035136048
0.35334462 -0.010324231 -0.27010086 0.21402404 0.01915682 0.14724235 0.42545202 0.24890913
0.08059759 -0.34858522 -0.30929264 -0.3056699 0.07045505 0.21713714 -0.10113939 0.30927002
-0.1348147 -0.1990619 0.3400936 -0.021544727 0.22685061 -0.22750549 0.21003789 0.21855368
0.44345865 -0.50790364 -0.21504432 0.19600125 0.05981725 -0.20772703 -0.29386935 -0.3040056
-0.14682475 -0.21537606 0.039898075 -0.25291723 -0.21307318 0.2729287 -0.10520436 -0.12455343
-0.12802745 0.10799528 -0.1290651 0.23310147 -0.30406404 -0.1173868 -0.036350287 0.11582921
0.20324427 0.28734416 -0.10052141 -0.3990884 0.3280228 0.15450057 -0.27094403 -0.019323472
-0.26804242 0.32674998 0.20593798 -0.21282135 -0.052275654 -0.3528753 -0.37919155 0.11575421
0.15978241 0.22799695 0.37344205 -0.12699373 -0.042104002 -0.3401291 -0.39643124 -0.14677264
0.008039819 -0.25261316 0.0068002287 0.14835247 -0.3963259 0.2755478 -0.5097168 -0.35725856
-0.1039414 0.20250668 0.16869378 0.22261786 -0.17564765 0.39049777 -0.12973797 -0.23220903
-0.1463836 0.08952427 -0.09584787 0.23694122 0.15871963 0.31383866 0.37072298 0.24171798
-0.026414756 0.0520022 0.08452971 -0.32565814 -0.3185019 0.06991936 0.3219344 -0.45796403
-0.10321414 0.43020055 0.19303897 -0.09945278 -0.12753692 -0.049051628 0.14478251 0.045424
-0.064069994 0.27844635 -0.0037887476 0.019779462 0.2590923 -0.4081589 -0.22933203 0.31825024
-0.3961315 0.5894375 0.05644052 -0.23082891 0.21367921 0.097787015 -0.22352204 0.1479808
0.071433775 -0.19420917 0.10424658 -0.08735312 0.56603855 -0.5220853 0.037174474 -0.33217666
0.32729986 -0.385952 0.18884006 0.3414936 -0.11479679 -0.14674748 -0.18057528 0.13999088
0.19415505 -0.28034487 -0.29207847 0.064823925 -0.1510362 -0.27536622 -0.3824736 0.3334162
0.37477103 0.26123416 0.095915906 -0.105940096 -0.51178384 0.231268 0.0605509 -0.11530244
-0.19873978 -0.06353037 -0.18075992 0.3507342 -0.14009736 0.071049795 -0.0729451 0.2565969
-0.08795201 -0.02170314 0.1572413 0.1048139 -0.35885662 0.21268068 -0.22523203 0.37877765
-0.27461493 0.05624995 -0.2959019 0.09676057 0.33608437 0.23846358 -0.06862436 -0.06384534
0.21147582 0.25703037 0.23066527 -0.36349016 -0.1834978 -0.2784727 -0.21799707 -0.18923955
0.41497406 -0.21791238 -0.1980148 -0.19663642 -0.06059045 0.17469275 -0.3661944 0.2887449
-0.21192108 -0.034391988 -0.12726499 -0.0009110356 0.007148226 0.14549248 -0.18576956 0.44569618
0.23071969 -0.38478065 -0.05280208 -0.23633192 0.14480585 -0.39345124 -0.5461481 -0.5625927
0.030881556 0.18561621 0.09735401 -0.057803985 0.27939603 -0.33842936 0.20823735 -0.50860894
00000000: 3245 e3be a82a e8be da07 2b3e 5cd0 c83e
00000010: cdf6 b3bd c536 a9be bdc4 55bd 753c e4bc
00000020: 76a2 db3e 8536 b9be b5fd c7bd 1a9e e63e
00000030: 874b 03be 609e db3e 692f e23c 3360 edbe
00000040: 6732 ffbd a37b bcbd f621 9fbe 1857 7d3e
00000050: 1c09 443e 39e2 3cbc 321b 59bd 01a5 bc3e
00000060: 12a7 843e bb9e e4bd 645c fabe 9202 7f3e
00000070: 5d8e 563e c11a 4cbe 9bb4 f93d d1ea 0fbd
00000080: 96e9 b43e f726 29bc a94a 8abe 1e29 5b3e
00000090: c3ee 9c3c b3c6 163e d9d4 d93e 09e2 7e3e
000000a0: 5910 a53d c379 b2be 9b5b 9ebe c480 9cbe
000000b0: bd4a 903d 3359 5e3e 2b22 cfbd a458 9e3e
000000c0: dd0c 0abe e2d6 4bbe c020 ae3e 917e b0bc
000000d0: 874b 683e 33f7 68be 2c14 573e 89cc 5f3e
000000e0: 030d e33e f905 02bf 9434 5cbe 8db4 483e
000000f0: ef02 753d 65b6 54be 0b76 96be 9fa6 9bbe
00000100: 3a59 16be 8b8b 5cbe 2a6c 233d 5e7e 81be
00000110: db2f 5abe 50bd 8b3e 6275 d7bd de15 ffbd
00000120: a119 03be a12c dd3d a429 04be 27b2 6e3e
00000130: 48ae 9bbe 7e68 f0bd 0ae4 14bd dd37 ed3d
00000140: 441f 503e c61e 933e 2bde cdbd 5155 ccbe
00000150: 9bf2 a73e 6635 1e3e 2db9 8abe 424c 9ebc
00000160: db3c 89be c64b a73e 68e1 523e d7ed 59be
00000170: ff1e 56bd 12ac b4be 6525 c2be 8b10 ed3d
00000180: 009e 233e 0878 693e cc33 bf3e a50a 02be
00000190: 3f75 2cbd 6725 aebe 09f9 cabe 914b 16be
000001a0: 72b9 033c 8356 81be 74d4 de3b b6e9 173e
000001b0: 3aeb cabe 9a14 8d3e cd7c 02bf 98ea b6be
000001c0: 3bdf d4bd e95d 4f3e 10be 2c3e f0f5 633e
000001d0: fadc 33be 53ef c73e 08da 04be 34c8 6dbe
000001e0: 95e5 15be 8058 b73d e34b c4bd b8a0 723e
000001f0: 6687 223e 76af a03e 67cf bd3e eb84 773e
00000200: c263 d8bc 4200 553d ea1d ad3d aabc a6be
00000210: ae12 a3be e231 8f3d 96d4 a43e 437a eabe
00000220: ef61 d3bd 3f43 dc3e 02ac 453e e6ad cbbd
00000230: 0a99 02be 5cea 48bd de41 143e 840e 3a3d
00000240: 2137 83bd 8590 8e3e a34c 78bb 8a08 a23c
00000250: bfa7 843e 34fa d0be 04d6 6abe b2f1 a23e
00000260: bfd1 cabe 60e5 163f 2d2e 673d 6a5e 6cbe
00000270: b9ce 5a3e 8f44 c83d f6e2 64be 4788 173e
00000280: df4b 923d c5de 46be 3b7f d53d 31e6 b2bd
00000290: e7e7 103f 62a7 05bf 4344 183d 0f13 aabe
000002a0: d993 a73e 809b c5be 4a5f 413e 40d8 ae3e
000002b0: 941a ebbd f944 16be bae8 38be c559 0f3e
000002c0: 95d0 463e 5d89 8fbe 4f8b 95be 68c2 843d
000002d0: 3ca9 1abe cdfc 8cbe 94d3 c3be 87b5 aa3e
000002e0: fde1 bf3e 7cc0 853e 8f6f c43d 1ff7 d8bd
000002f0: 4404 03bf 85d1 6c3e 3804 783d b023 ecbd
00000300: 7182 4bbe 361c 82bd 2119 39be 6f93 b33e
00000310: af75 0fbe 8e82 913d 3e64 95bd ab60 833e
00000320: 2f20 b4bd c9ca b1bc dd03 213e aca8 d63d
00000330: 0ebc b7be f7c8 593e 3aa3 66be 25ef c13e
00000340: 549a 8cbe 5966 663d 7480 97be 682a c63d
00000350: 4013 ac3e cc2f 743e ee8a 8cbd 58c1 82bd
00000360: 1e8d 583e 7c99 833e 8433 6c3e 621b babe
00000370: d9e6 3bbe f993 8ebe a03a 5fbe 03c8 41be
00000380: 7b77 d43e 6c24 5fbe 64c4 4abe 0f5b 49be
00000390: b12d 78bd a8e2 323e d57d bbbe 5fd6 933e
000003a0: d701 59be 9dde 0cbd c151 02be 90d2 6eba
000003b0: aa3b ea3b fbfb 143e 603a 3ebe 4a32 e43e
000003c0: c841 6c3e f801 c5be fe46 58bd ff00 72be
000003d0: fc47 143e 7172 c9be 5dd0 0bbf 1306 10bf
000003e0: 51fb fc3c 2d12 3e3e 8a61 c73d dfc3 6cbd
000003f0: ff0c 8f3e 9d46 adbe 2c3c 553e 3234 02bf

net.0.bias f4 [256]
-0.25481176 0.01376802 -0.3577409 -0.37245092 0.4014021 -0.39668176 -0.33899522 -0.30760393
0.15430827 0.024045454 0.09960342 -0.22446705 -0.09707476 -0.1716046 -0.41029534 0.2916321
0.35438722 0.10573033 -0.089874454 0.34264368 -0.33399975 -0.25820592 0.072756685 0.347862
0.36754146 0.16613434 0.22920756 0.22924823 0.073324904 -0.0018249796 0.30299 0.23464541
0.1354634 -0.32661083 -0.19398671 0.026905894 -0.40059435 0.40909275 0.19015914 -0.2986756
-0.21352394 -0.085955866 0.2202533 -0.23932225 -0.10458896 0.26470873 0.17825782 -0.4729802
0.15502262 0.24506745 -0.34169298 0.24509361 -0.091590144 -0.076109245 -0.27840737 0.2025719
-0.24915016 0.1964672 0.045444846 -0.12042805 -0.08164219 0.18678102 -0.07450327 0.07355526
0.15065496 0.1355247 -0.18060984 0.22273806 0.19824882 0.27495643 0.11831908 -0.12264521
0.23913173 -0.4318415 -0.36187154 -0.02272438 0.25075886 -0.37425214 0.22074193 -0.09717946
-0.12503523 -0.037627183 -0.016097948 -0.015826369 -0.17489485 0.06997537 0.27289465 0.36117673
0.008736939 0.2841359 -0.03504637 0.14432427 0.2343786 -0.014338896 0.20350665 0.27708346
-0.3538385 -0.20821074 -0.31729874 0.056147452 -0.14721867 -0.21769957 0.17330167 0.24375401
0.1623314 -0.25425962 0.05413212 0.15855275 -0.35598913 0.25423965 0.04144378 0.36897543
0.31853914 -0.13716766 -0.18783061 -0.36690965 -0.134312 -0.33179697 0.37320274 -0.3803204
-0.3180125 -0.049862865 0.08364327 0.14867777 0.33109182 -0.23431657 0.33157438 -0.50095636
0.34987572 -0.17143497 -0.118125886 0.08717377 0.29500008 -0.29558843 -0.09642143 0.15746246
0.062764004 0.017635096 -0.08710955 0.19338907 0.3392635 0.3341607 0.15947883 -0.027164957
0.37555182 0.28018126 -0.34122452 -0.024650926 0.29966116 0.14974616 -0.070054226 -0.31207654
-0.08668722 0.28421405 0.21288882 -0.25626868 -0.24344106 0.011002267 -0.27375293 0.1376784
-0.35746542 -0.15333462 -0.12889284 0.037878074 0.026515247 -0.39751923 0.3432453 0.32766685
0.3841379 -0.36663997 -0.31783786 -0.3598155 -0.23919764 -0.3111281 -0.12532061 0.37129444
0.19567591 -0.15793544 0.31296343 0.041577235 -0.32900622 -0.20614184 -0.40346873 -0.13114555
-0.42673764 0.16435389 0.3327055 -0.10400289 -0.061326165 -0.31501654 0.3099523 0.0037952922
0.010392527 0.38848183 -0.20623109 -0.21360615 -0.1450341 -0.024523381 -0.09723582 -0.31415808
0.051641528 0.17691621 0.33599302 -0.024617944 0.22399452 -0.11491258 0.22264037 0.0034098765
0.3469324 0.20145595 0.02661738 0.10678379 0.36138776 -0.42367285 -0.045761544 -0.15090933
-0.16521123 -0.16851063 -0.43607292 0.33453238 0.08993682 -0.32958874 0.20915988 -0.212995
-0.24363679 0.19356677 -0.01828128 0.23086183 0.20168836 -0.19416825 -0.111184984 0.03643375
-0.095446 -0.038516372 -0.45665112 0.024078218 0.31508684 -0.24915436 0.39873648 0.37932602
-0.04288465 0.20657492 0.10734957 -0.11812588 0.304143 -0.17878948 -0.15759015 0.22359082
-0.17969652 0.31706637 -0.4057066 -0.0794584 0.0783208 -0.022933433 0.24912184 -0.06862832
00000000: b076 82be 4393 613c d129 b7be e3b1 bebe
00000010: 9384 cd3e df19 cbbe c890 adbe 437e 9dbe
00000020: fd02 1e3e f9fa c43c e1fc cb3d b1da 65be
00000030: 22cf c6bd 1eb9 2fbe 3b12 d2be cd50 953e
00000040: 3e72 b53e 2589 d83d 1910 b8bd fe6e af3e
00000050: 0402 abbe 9133 84be 7501 953d f81a b23e
00000060: 652e bc3e 1f1f 2a3e 63b5 6a3e 0cc0 6a3e
00000070: 5e2b 963d 2734 efba 8121 9b3e e346 703e
00000080: ebb6 0a3e 8939 a7be 74a4 46be c069 dc3c
00000090: b41a cdbe 9b74 d13e 14b9 423e 02ec 98be
000000a0: 05a6 5abe a109 b0bd 158a 613e e410 75be
000000b0: bd32 d6bd e787 873e 3889 363e 762a f2be
000000c0: 40be 1e3e f6f2 7a3e 62f2 aebe d2f9 7a3e
000000d0: 9d93 bbbd 2adf 9bbd 698b 8ebe 026f 4f3e
000000e0: 3821 7fbe b32e 493e 6024 3a3d fba2 f6bd
000000f0: 0534 a7bd 8643 3f3e 2c95 98bd 24a4 963d
00000100: 4b45 1a3e fdc6 0a3e c9f1 38be 7215 643e
00000110: bd01 4b3e 17c7 8c3e 4651 f23d 692d fbbd
00000120: f3de 743e 541a ddbe 3a47 b9be 7b28 babc
00000130: 7763 803e fa9d bfbe 2c0a 623e 0606 c7bd
00000140: 3c09 00be f61e 1abd d8df 83bc 4da6 81bc
00000150: a317 33be 3f4f 8f3d d9b8 8b3e 28ec b83e
00000160: 6125 0f3c 437a 913e c88c 0fbd bec9 133e
00000170: f200 703e b0ed 6abc 0c64 503e e2dd 8d3e
00000180: 522a b5be 3235 55be fb74 a2be dffa 653d
00000190: 7ec0 16be a3ec 5ebe fe75 313e a79a 793e
000001a0: 343a 263e 512e 82be a4b9 5d3d a75b 223e
000001b0: 3544 b6be b32b 823e f4c0 293d 59ea bc3e
000001c0: 9017 a33e ae75 0cbe ab56 40be 95db bbbe
000001d0: 1689 09be 4be1 a9be 6e14 bf3e 5bb9 c2be
000001e0: 89d2 a2be 013d 4cbd 2a4d ab3d fc3e 183e
000001f0: de84 a93e aff0 6fbe 1ec4 a93e ad3e 00bf
00000200: e922 b33e a68c 2fbe fceb f1bd 2988 b23d
00000210: 400a 973e 5e57 97be 9978 c5bd d73d 213e
00000220: 6a8a 803d 7a77 903c 7e66 b2bd c907 463e
00000230: f2b3 ad3e 1c17 ab3e 6b4e 233e 0b89 debc
00000240: 5448 c03e eb73 8f3e fbb4 aebe bdf0 c9bc
00000250: 306d 993e 0f57 193e 9778 8fbd 7fc8 9fbe
00000260: 1289 b1bd 8184 913e 87ff 593e a635 83be
00000270: 9d48 79be da42 343c 5829 8cbe 91fb 0c3e
00000280: b505 b7be c003 1dbe 7cfc 03be 0a26 1b3d
00000290: 8136 d93c a487 cbbe d9bd af3e f3c3 a73e
000002a0: b9ad c43e 3cb8 bbbe a5bb a2be bd39 b8be
000002b0: 3af0 74be 2f4c 9fbe 0c54 00be 4e1a be3e
000002c0: 445f 483e d4b9 21be be3c a03e e44c 2a3d
000002d0: 8173 a8be d916 53be 7493 cebe 054b 06be
000002e0: 5b7d dabe 634c 283e 6058 aa3e 78ff d4bd
000002f0: 2531 7bbd d949 a1be 11b2 9e3e 70ba 783b
00000300: 6b45 2a3c 17e7 c63e 3e2e 53be 92bb 5abe
00000310: d283 14be 42e5 c8bc 9323 c7bd 54d9 a0be
00000320: 1186 533d 8629 353e 4707 ac3e 92ab c9bc
00000330: d25e 653e 4957 ebbd d6fb 633e 3c78 5f3b
00000340: 20a1 b13e 784a 4e3e b10c da3c 76b1 da3d
00000350: d107 b93e a6eb d8be 7570 3bbd fa87 1abe
00000360: 222d 29be 0d8e 2cbe f344 dfbe d447 ab3e
00000370: cc30 b83d dbbf a8be 022e 563e 5c1b 5abe
00000380: ec7b 79be 5e36 463e 9fc2 95bc 0b67 6c3e
00000390: 6587 4e3e 0bd4 46be f4b4 e3bd 8e3b 153d
000003a0: 3179 c3bd 58c3 1dbd 2dce e9be af3f c53c
000003b0: 1053 a13e 5222 7fbe 3027 cc3e 0537 c23e
000003c0: d1a7 2fbd 6088 533e 17da db3d fbeb f1bd
000003d0: a2b8 9b3e 9714 37be 505f 21be fef4 643e
000003e0: 5d02 38be 8656 a23e c7b8 cfbe 16bb a2bd
000003f0: a866 a03d e5de bbbc cc19 7f3e 018d 8cbd

net.2.weight f4 [256, 256]
-0.054424964 -0.00012021703 -0.058927245 -0.031184427 0.03189987 -0.015315297 0.00842105 -0.007412952
-0.0008756854 0.017437564 -0.043156706 0.024053797 -0.0036621382 -0.05260013 0.051483274 0.03278175
0.048193775 -0.033413976 0.023961276 -0.04020561 -0.039744392 -0.025477022 0.024251161 -0.023931714
-0.020927828 -0.01249486 -0.050093282 0.034710187 -0.047866125 0.036976706 -0.032725655 -0.010328347
-0.04476503 -0.0010584369 0.04011433 -0.055766407 -0.051189173 0.04762725 -0.050051037 0.0011211135
-0.023808926 0.02603046 0.0037272177 0.0019015928 -0.040766183 0.04612163 0.04986443 0.014696136
-0.029588059 0.019944772 0.05469589 0.0332767 -0.028278427 0.05804164 0.049172647 0.015881982
0.005064975 0.009452446 0.002367705 0.021326467 0.059244797 0.0007333145 0.016944256 0.048942197
0.033629224 0.012116457 -0.023171037 -0.045251366 -0.034287117 -0.032198112 0.014514587 -0.015199922
-0.054323632 0.046267174 -0.004230976 0.044733897 -0.054978065 0.0004990183 0.01810757 0.04322976
0.018836508 0.015240046 -0.017789934 0.025605757 -0.011503243 -0.019788524 0.04400553 0.027106473
-0.011748777 -0.0474152 -0.042214803 0.044022515 -0.029805249 -0.054066695 -0.06588626 -0.023678517
-0.01465614 -0.050814793 -0.042616703 -0.046989005 -0.06894497 0.05545 0.055634085 -0.0028045967
0.048685413 0.024253383 -0.015216056 0.033020683 -0.023147456 -0.06394368 0.022991698 0.038317688
-0.011112204 -0.056590587 0.016015043 0.003483939 0.031284038 0.0035212636 0.04498108 0.031295314
-0.05238083 -0.01103957 0.04433683 0.042229317 0.03090351 -0.013757743 -0.020328198 -0.02778121
-0.00348425 -0.011983281 -0.04873818 -0.005194232 0.00655372 0.04192473 -0.032488227 0.029448468
0.04627963 -0.009182245 -0.0510998 -0.047078937 -0.026077468 -0.06147616 -0.0059727426 0.040044792
-0.032173768 -0.018622192 0.056769922 0.023797587 0.046814658 0.030941665 -0.0061600106 0.042143993
-0.017815623 -0.04705217 -0.06508362 -0.04900141 -0.041505247 0.04897669 -0.0395462 -0.066111505
0.02669169 -0.019728892 -0.021771288 -0.044095263 0.01659247 0.01692291 -0.045125656 0.053776033
-0.045134757 0.037930455 -0.058746792 0.043728054 -0.048682112 0.015990324 -0.03929711 -0.04927254
0.03858982 0.033241563 0.053999595 0.033882603 -0.023889966 -0.019637883 -0.02285494 -0.060613986
-0.009038918 0.028932147 0.05263379 -0.055393428 0.02125355 -0.06725238 0.013414696 0.0032155588
0.030237854 -0.0071835215 0.043244466 -0.033310752 0.011440804 0.02577276 0.026833937 0.024103351
-0.020516349 0.05120369 -0.054120537 -0.011339323 0.0202432 0.018234352 -0.026825001 -0.012264669
0.049209937 0.0050688996 -0.0008967858 0.036202356 -0.04636982 -0.023828737 -0.018477492 -0.007865615
-0.027003728 -0.0397755 0.04147401 -0.04474229 0.049490083 -0.01724202 0.015451026 0.041424476
0.031055704 0.04357485 -0.06731012 -0.059495293 -0.0685035 -0.043128114 0.006690145 0.0038558068
-0.021936705 -0.040677063 -0.030415857 0.06068993 -0.057848614 0.045444712 -0.054773975 -0.045061376
-0.053384162 0.055447325 -0.056735765 -0.043623343 -0.044632845 0.032288894 -0.04041883 -0.04991225
0.027431909 0.01874075 -0.020358376 0.0023637773 -0.009391624 0.021697052 -0.055293463 -0.059202626
00000000: b6ec 5ebd 071d fcb8 b25d 71bd 7c76 ffbc
00000010: 70a9 023d 03ed 7abc 72f8 093c 59e8 f2bb
00000020: 418e 65ba 39d9 8e3c 16c5 30bd 780c c53c
00000030: 7c00 70bb 3c73 57bd 20e0 523d 2846 063d
00000040: d666 453d 18dd 08bd 704a c43c a3ae 24bd
00000050: 04cb 22bd 30b5 d0bc 5faa c63c 710c c4bc
00000060: d670 abbc 3eb7 4cbc 9d2e 4dbd 452c 0e3d
00000070: 450f 44bd e374 173d 560b 06bd 3a38 29bc
00000080: 895b 37bd 40bb 8aba ec4e 243d 516b 64bd
00000090: bdab 51bd cb14 433d 5102 4dbd 54f2 923a
000000a0: f00a c3bc d53d d53c 5644 743b de3e f93a
000000b0: 71fa 26bd 09ea 3c3d a53e 4c3d 10c8 703c
000000c0: a862 f2bc 3863 a33c cc08 603d 264d 083d
000000d0: 29a8 e7bc 12bd 6d3d 4269 493d ee1a 823c
000000e0: 17f8 a53b 6fde 1a3c 802b 1b3b d8b4 ae3c
000000f0: acaa 723d e73b 403a aece 8a3c 9d77 483d
00000100: ccbe 093d 1b84 463c 30d1 bdbc 7f59 39bd
00000110: a670 0cbd 2be2 03bd 97ce 6d3c 1809 79bc
00000120: 7582 5ebd a682 3d3d 00a4 8abb e43a 373d
00000130: ae30 61bd 8dd0 023a 5456 943c b011 313d
00000140: 054f 9a3c 63b1 793c 32bc 91bc 2ac3 d13c
00000150: 1978 3cbc 8b1b a2bc 253f 343d 650e de3c
00000160: f17d 40bc 7136 42bd 6ee9 2cbd f450 343d
00000170: 232a f4bc 0a75 5dbd 60ef 86bd 73f9 c1bc
00000180: 4e20 70bc 2c23 50bd da8e 2ebd 8b77 40bd
00000190: 0533 8dbd 8a1f 633d 91e0 633d 53cd 37bb
000001a0: 5b6a 473d 08af c63c c44c 79bc b240 073d
000001b0: bc9f bdbc e7f4 82bd 1659 bc3c 02f3 1c3d
000001c0: f60f 36bc 88cb 67bd fb31 833c cc52 643b
000001d0: b123 003d 00c5 663b 153e 383d 842f 003d
000001e0: 488d 56bd 50df 34bc 899a 353d a6f8 2c3d
000001f0: 5c29 fd3c 2868 61bc 5287 a6bc 6c95 e3bc
00000200: 0458 64bb 8655 44bc b0a1 47bd 6034 aabb
00000210: 97c0 d63b 44b9 2b3d 6012 05bd ea3d f13c
00000220: b68f 3d3d 2071 16bc 064e 51bd d8d5 40bd
00000230: 6aa0 d5bc 6dce 7bbd ffb6 c3bb 0206 243d
00000240: a4c8 03bd 918d 98bc 9487 683d 28f3 c23c
00000250: bac0 3f3d 6079 fd3c ead9 c9bb 2e9f 2c3d
00000260: 12f2 91bc c7b9 40bd 904a 85bd b4b5 48bd
00000270: 6801 2abd c89b 483d 32fb 21bd 7865 87bd
00000280: 88a8 da3c 7c9e a1bc b359 b2bc 3c9d 34bd
00000290: efec 873c eaa1 8a3c aed5 38bd 4244 5c3d
000002a0: 39df 38bd f75c 1b3d 7aa0 70bd 301c 333d
000002b0: e566 47bd 24fe 823c 02f6 20bd 01d2 49bd
000002c0: 5c10 1e3d 4e28 083d ae2e 5d3d 7cc8 0a3d
000002d0: e4b4 c3bc a0df a0bc 483a bbbc 5f46 78bd
000002e0: f817 14bc 1c03 ed3c 8796 573d 38e4 62bd
000002f0: ed1b ae3c 9ebb 89bd 50c9 5b3c 20bc 523b
00000300: 60b5 f73c bf63 ebbb 1c21 313d db70 08bd
00000310: 3672 3b3c 6521 d33c d8d2 db3c 6474 c53c
00000320: e711 a8bc f6ba 513d 7fad 5dbd 91c8 39bc
00000330: 11d5 a53c 3560 953c 1bc0 dbbc c0f1 48bc
00000340: 5c90 493d 0319 a63b 4716 6bba ec48 143d
00000350: 48ee 3dbd 7c34 c3bc 1c5e 97bc c8de 00bc
00000360: ec36 ddbc a2eb 22bd a7e0 293d b143 37bd
00000370: 1db6 4a3d 233f 8dbc 4d26 7d3c b6ac 293d
00000380: 8868 fe3c 8b7b 323d e3d9 89bd 56b1 73bd
00000390: 904b 8cbd 1ba7 30bd 0139 db3b b4b1 7c3b
000003a0: 9bb4 b3bc fe9c 26bd ad2a f9bc 0196 783d
000003b0: abf2 6cbd 3c24 3a3d ad5a 60bd 4792 38bd
000003c0: 5aa9 5abd bc1c 633d c363 68bd 64ae 32bd
000003d0: eed0 36bd 5c41 043d 378e 25bd ca70 4cbd
000003e0: e2b8 e03c 3486 993c 9cc6 a6bc 9ae9 1a3b
000003f0: 53df 19bc 04be b13c 667b 62bd 747e 72bd

net.2.bias f4 [256]
0.011397199 -0.10029242 -0.065656245 0.038021386 0.000602878 -0.0012373977 0.031597033 -0.071174294
-0.024518998 0.1276875 0.041626487 -0.059953026 0.06058693 -0.034093153 0.07327099 -0.05464143
0.007180023 0.050332896 0.0786709 -0.012805963 0.051877182 0.035011426 0.08199695 -0.02945859
-0.045483306 -0.060006253 -0.019815248 0.025343224 -0.11839496 -0.01264779 0.031953342 0.110167444
-0.013384812 0.10104629 0.045053653 0.03577122 0.07164404 -0.12452545 0.047564767 -0.03994236
0.05443614 0.040510733 -0.061274 0.10911564 -0.025479503 0.07779224 0.022880513 0.045636468
0.1280116 -0.054269943 0.03942781 0.12314435 0.061840944 0.012124578 0.033637702 -0.0002933574
-0.043588214 -0.0012001735 0.09564178 0.026574157 0.10438336 -0.04836717 0.018886631 0.06725763
0.017008187 0.04791213 0.042017423 -0.05472218 -0.07226231 0.017373173 0.07660375 0.04341189
0.03504031 -0.026253195 -0.052784216 0.031090863 -0.076022595 -0.07898742 -0.055381 -0.014851195
-0.021910438 0.119424544 0.05972898 0.00013240469 -0.047208343 -0.015356372 -0.03964127 0.044326328
0.040776815 0.07954233 0.04761897 0.14890583 0.02947581 -0.025489058 -0.058405332 -0.026278187
0.031899896 0.08629713 0.016818918 0.051786806 -0.019487683 0.02554254 -0.027010301 0.0153937815
0.031397235 0.11508892 -0.087228805 -0.04470825 -0.018451078 -0.038005337 0.038307656 -0.05367081
-0.07406083 0.0053654485 -0.006259605 0.0034248729 0.0072298073 -0.027639022 0.11339455 0.002936557
-0.053766854 0.0015004505 -0.017765814 0.07652226 0.07866882 0.12986723 0.016923718 0.061457817
0.032473303 0.01960507 0.031351782 0.03161826 0.032513477 -0.054068778 -0.05397373 0.087223545
0.09429401 -0.05233009 -0.013122641 -0.06511112 0.030381044 -0.04645872 0.09899148 -0.060619317
-0.024360077 -0.038231242 -0.05013843 -0.05685327 -0.027344272 0.015121404 0.04499237 -0.050214466
-0.032772765 -0.038177982 0.06980785 0.079068296 -0.06519643 0.046741825 -0.017433435 -0.019278325
0.05021996 0.15279284 0.10030842 0.05626263 0.11842899 -0.058999978 0.010887432 0.008932054
-0.0043919673 -0.025465546 0.03168645 0.016735518 0.074854575 0.048611388 0.014789827 0.04189782
-0.068338566 0.035045035 0.016115872 0.10330227 -0.056999654 0.012598481 0.010010426 0.035521794
0.0074445256 0.026156636 0.14000726 0.018791681 -0.04006157 -0.004158618 0.007584164 -0.034020588
-0.026213832 -0.044606213 0.04502147 0.03575947 0.13847099 -0.040719606 -0.0139208315 -0.015168332
0.14324784 0.08889008 0.017815609 0.028042212 0.005500311 -0.022643901 0.019220766 0.076379135
-0.04544899 0.056818824 -0.042615216 -0.11812317 0.11393653 0.016378151 -0.00071380567 -0.05935443
-0.030575812 -0.032262642 -0.028127434 -0.060224768 0.13209452 0.012876799 0.059638795 0.056075715
-0.042755302 -0.037892178 0.041124202 0.010596866 -0.012965148 -0.01527651 0.033148274 -0.003235723
-0.07849314 0.0060097193 -0.023646953 0.1378039 0.026861466 0.097052366 0.0634286 -0.03096278
0.05815349 0.03169154 0.037688576 0.045165222 -0.0661908 -0.0185654 0.13368307 0.1252444
0.02337196 -0.005147283 0.011330505 0.057710685 -0.032334525 0.027664449 -0.0044294395 0.11046586
00000000: 51bb 3a3c 1d66 cdbd c876 86bd 50bc 1b3d
00000010: 750a 1e3a 2d30 a2ba e46b 013d d4c3 91bd
00000020: 11dc c8bc 83c0 023e 8980 2a3d 4e91 75bd
00000030: 002a 783d 43a5 0bbd 1a0f 963d b1cf 5fbd
00000040: 6646 eb3b de29 4e3d 351e a13d 1ad0 51bc
00000050: 2b7d 543d 2468 0f3d 04ee a73d 2453 f1bc
00000060: b44c 3abd 1ec9 75bd 9653 a2bc 989c cf3c
00000070: 0f79 f2bd ad38 4fbc 82e1 023d 789f e13d
00000080: f84b 5bbc 5bf1 ce3d 2e8a 383d d884 123d
00000090: 1cba 923d 3307 ffbd 46d3 423d 9a9a 23bd
000000a0: 6ef8 5e3d 95ee 253d 72fa 7abd 0578 df3d
000000b0: 64ba d0bc 8a51 9f3d ea6f bb3c 4eed 3a3d
000000c0: 7915 033e 294a 5ebd 0e7f 213d 1b33 fc3d
000000d0: ee4c 7d3d 2aa6 463c b0c7 093d c4cd 99b9
000000e0: 8e89 32bd 244f 9dba d6df c33d 0cb2 d93c
000000f0: f1c6 d53d a71c 46bd 23b8 9a3c 5ebe 893d
00000100: c154 8b3c 823f 443d 761a 2c3d 5d24 60bd
00000110: 43fe 93bd 2f52 8e3c 6de2 9c3d aad0 313d
00000120: 6e86 0f3d f110 d7bc 4334 58bd 44b2 fe3c
00000130: bcb1 9bbd 28c4 a1bd 30d7 62bd 6d52 73bc
00000140: 857d b3bc db94 f43d 60a6 743d 1dd6 0a39
00000150: 895d 41bd 4b99 7bbc e25e 22bd 868f 353d
00000160: 9705 273d 17e7 a23d 1c0c 433d c57a 183e
00000170: 4177 f13c 6ece d0bc 6e3a 6fbd 5a45 d7bc
00000180: 77a9 023d 8dbc b03d d4c7 893c 671e 543d
00000190: a2a4 9fbc 973e d13c b544 ddbc 3336 7c3c
000001a0: 639a 003d bdb3 eb3d 04a5 b2bd ff1f 37bd
000001b0: b726 97bc 7cab 1bbd 7de8 1c3d ecd5 5bbd
000001c0: 34ad 97bd a5d0 af3b 5f1d cdbb d573 603b
000001d0: 05e8 ec3b 3b6b e2bc 673b e83d 4073 403b
000001e0: a23a 5cbd c4aa c43a 9d89 91bc b4b7 9c3d
000001f0: 1e1d a13d eafb 043e 9ca3 8a3c 31bb 7b3d
00000200: ba02 053d d09a a03c ba6a 003d 2682 013d
00000210: da2c 053d 3977 5dbd 8f13 5dbd 42a2 b23d
00000220: 381d c13d 1458 56bd 5800 57bc fb58 85bd
00000230: abe1 f83c 804b 3ebd 0cbc ca3d f64b 78bd
00000240: c98e c7bc 5d98 1cbd f45d 4dbd f9de 68bd
00000250: 1801 e0bc c4bf 773c eb49 383d afad 4dbd
00000260: bc3c 06bd 8460 1cbd 6bf7 8e3d 8fee a13d
00000270: b585 85bd 5b74 3f3d 90d0 8ebc 94ed 9dbc
00000280: 72b3 4d3d ba75 1c3e 806e cd3d a573 663d
00000290: e68a f23d f6a9 71bd 3361 323c c057 123c
000002a0: 7eea 8fbb 1f9d d0bc a7c9 013d ed18 893c
000002b0: 5b4d 993d bc1c 473d 0851 723c 0c9d 2b3d
000002c0: 17f5 8bbd 628b 0f3d 6f05 843c 2490 d33d
000002d0: 7878 69bd dc69 4e3c c502 243c 4d7f 113d
000002e0: 35f1 f33b 7146 d63c 105e 0f3e 03f1 993c
000002f0: 9a17 24bd 0445 88bb 9484 f83b 2c59 0bbd
00000300: 64be d6bc 01b5 36bd 6f68 383d 8678 123d
00000310: 57cb 0d3e 9ac9 26bd 3314 64bc 9884 78bc
00000320: 90af 123e 010c b63d 0af2 913c c8b8 e53c
00000330: f43b b43b b47f b9bc de74 9d3c aa6c 9c3d
00000340: b828 3abd dbba 683d 4b8d 2ebd 90ea f1bd
00000350: 8e57 e93d 792b 863c b01e 3bba a11d 73bd
00000360: 207a fabc d525 04bd 816b e6bc 3fae 76bd
00000370: c943 073e 36f9 523c cf47 743d a6af 653d
00000380: 2f20 2fbd d434 1bbd da71 283d 7a9e 2d3c
00000390: c66b 54bc 544a 7abc 7cc6 073d 6c0e 54bb
000003a0: 03c1 a0bd 2eed c43b 41b7 c1bc 771c 0d3e
000003b0: 940c dc3c 64c3 c63d dbe6 813d a8a5 fdbc
000003c0: 5b32 6e3d fdce 013d 565f 1a3d 2bff 383d
000003d0: 0b8f 87bd 7716 98bc 37e4 083e 1140 003e
000003e0: 8d76 bf3c 8aaa a8bb 95a3 393c 0a62 6c3d
000003f0: 3571 04bd 8ea0 e23c d524 91bb ed3b e23d

actor.weight f4 [1, 256]
0.010974159 0.036884118 0.058628622 -0.043660313 0.4664993 0.012913487 0.046569493 -0.014622924
0.0042220694 0.086426735 -0.014373004 -0.013445794 0.4234014 -0.004221883 0.29801857 0.024229102
0.40417555 -0.006882593 -0.11187557 0.05010144 -0.040901687 -0.31481192 0.29830343 -0.03504742
-0.32076535 -0.0036520795 0.052363925 -0.019917745 -0.34271133 -0.24834192 0.019554863 0.25629383
0.044684112 -0.032772396 -0.30688074 -0.22854963 0.42653036 0.22803532 -0.20129552 0.008015297
0.13402742 -0.30889204 0.053346403 0.028656939 -0.045536064 0.38390926 -0.0075861793 -0.27287328
0.15104286 0.091860354 -0.027615199 0.16828442 0.39071855 -0.23136348 0.3351864 -0.040921837
-0.32853556 -0.020017961 0.00075945654 -0.02999235 0.12931627 0.024079593 0.2535522 -0.23634611
-1.0433464 0.023070814 -0.25616756 -0.0516793 0.008269344 -0.35074988 0.110333145 0.16105622
0.051215064 -0.0069363476 0.025263244 0.033855196 0.0070853783 0.013527915 -0.075963065 -0.2221803
0.46894544 -0.12720595 -0.3470764 -0.36106846 0.0041673463 -0.012676197 -0.04485239 0.04111539
-0.2480973 0.3787897 0.0047187107 0.0022599618 0.045729414 -0.003463131 -0.0522423 0.4330846
0.052804217 0.20715275 -0.24334052 -0.04225002 0.06327938 0.016480707 -0.008455219 0.0057436414
7.4044883e-06 -0.17032003 0.06810692 0.15130572 0.06003982 0.006998703 0.028555835 0.009826774
0.004741174 0.004775356 -0.0018006001 0.3987366 0.0016632981 -0.0037346943 0.060816895 -0.00082430115
0.04487724 0.038395304 0.055697173 -0.19238347 0.00992684 0.018044857 0.05299781 -0.10016587
0.031819843 -0.009268492 -0.008033492 -0.033622097 0.047019333 -0.27790514 -0.008183334 0.11974103
-0.15563487 -0.01060831 -0.04132229 0.046194024 -0.0011977346 -0.36951658 0.17577688 -0.020720959
0.0072712433 -0.01642676 0.00026030093 0.059836138 -0.03427208 -0.23280351 0.023039214 0.09119268
-0.004773695 -0.041263048 0.39716098 -0.01858562 0.022663176 0.06891757 0.4479363 0.039636254
0.030951167 0.0436237 -0.07665014 0.29708034 0.20615934 0.026515372 -0.2784104 0.41462615
0.03745557 0.39600468 0.021900805 0.3022914 0.04005031 0.40519047 0.050649457 0.0005053666
-0.046787854 -0.28562477 -0.31098893 0.13045168 0.047869258 0.043441422 -0.1925153 0.085215636
0.19063225 0.012254947 0.14865004 0.39374965 0.009072594 0.44812825 -0.039490316 -0.26192725
-0.03849687 -0.29109478 -0.06833276 -0.032777485 0.13436873 -0.026666373 0.020242136 0.008826621
0.09004489 -0.14663725 -0.0646403 0.009308668 -0.24973416 -0.0030545148 -0.11880602 -0.23312955
-0.048350066 0.009869885 -0.40734255 0.103077285 0.12068569 0.3066866 -0.2449934 0.010359507
0.005672764 0.04206727 0.013747301 -0.013715971 0.008032499 0.16391347 0.13825214 -0.024028108
-0.04353003 -0.012065455 0.16143817 -0.038899876 0.018400641 -0.30100468 -0.02951331 -0.046850167
-0.064026326 0.4242766 0.04842298 0.19281684 -0.057431556 0.3980877 0.018787494 0.43235752
0.35762998 -0.36717683 0.19274898 0.0353608 0.05344515 -0.048684824 -0.013564037 -0.1207878
-0.04524522 -0.23050347 -0.052791692 -0.18310814 -0.0067529446 -0.020554228 0.21306781 0.09872118
00000000: f6cc 333c cd13 173d 9124 703d 28d5 32bd
00000010: ffd8 ee3e 1793 533c a7bf 3e3d fd94 6fbc
00000020: 4959 8a3b 8000 b13d c07c 6bbc bf4b 5cbc
00000030: 11c8 d83e b957 8abb e495 983e 1c7c c63c
00000040: 19f0 ce3e 6087 e1bb 051f e5bd 2b37 4d3d
00000050: 8788 27bd 072f a1be 3abb 983e e28d 0fbd
00000060: 5b3b a4be ba57 6fbb 8e7b 563d 8a2a a3bc
00000070: dc77 afbe 584d 7ebe 8531 a03c f238 833e
00000080: b006 373d 593c 06bd 791f 9dbe ea08 6abe
00000090: 3062 da3e 1782 693e 6a20 4ebe 9852 033c
000000a0: 7c3e 093e 1927 9ebe c281 5a3d f5c1 ea3c
000000b0: 0684 3abd c18f c43e 7c95 f8bb 0cb6 8bbe
000000c0: fbaa 1a3e 4821 bc3d 4539 e2bc c052 2c3e
000000d0: 430c c83e 8cea 6cbe 8d9d ab3e a89d 27bd
000000e0: d035 a8be b5fc a3bc 4416 473a 84b2 f5bc
000000f0: 7c6b 043e 9142 c53c 98d1 813e b704 72be
00000100: 608c 85bf 01ff bc3c 6528 83be acad 53bd
00000110: 257c 073c 7d95 b3be 58f6 e13d eceb 243e
00000120: e3c6 513d 4d4a e3bb ddf4 ce3c bfab 0a3d
00000130: 762c e83b 30a4 5d3c 8692 9bbd 3c83 63be
00000140: 9e19 f03e 4742 02be ffb3 b1be f7dd b8be
00000150: 3c8e 883b d3af 4fbc 24b7 37bd 9c68 283d
00000160: 380d 7ebe b9f0 c13e 6a9f 9a3b de1b 143b
00000170: c44e 3b3d b2f5 62bb 06fc 55bd 44bd dd3e
00000180: 3c49 583d da1f 543e 422e 79be 5b0e 2dbd
00000190: 9f98 813d 8c02 873c c287 0abc 2835 bc3b
000001a0: 1274 f836 6068 2ebe a47b 8b3d e3ef 1a3e
000001b0: 50ec 753d 6055 e53b eded e93c 7a00 213c
000001c0: da5b 9b3b 977a 9c3b 1d02 ecba 3427 cc3e
000001d0: 0603 da3a c6c1 74bb 231b 793d ea15 58ba
000001e0: 32d1 373d 6544 1d3d b822 643d 2c00 45be
000001f0: 2fa4 223c cfd2 933c 3b14 593d c323 cdbd
00000200: 8655 023d e0da 17bc e89e 03bc 53b7 09bd
00000210: 5897 403d 9549 8ebe 6413 06bc c93a f53d
00000220: bf5e 1fbe 7ace 2dbc 9041 29bd f235 3d3d
00000230: 4efd 9cba 4731 bdbe dbfe 333e 00bf a9bc
00000240: 9c43 ee3b 6a91 86bc 0079 8839 bd16 753d
00000250: e160 0cbd 0b64 6ebe bcbc bc3c 3ac3 ba3d
00000260: a86c 9cbb 7103 29bd af58 cb3e df40 98bc
00000270: 20a8 b93c a824 8d3d e857 e53e a059 223d
00000280: 4d8d fd3c c4ae 323d c0fa 9cbd ea1a 983e
00000290: 6f1b 533e c436 d93c cf8b 8ebe e149 d43e
000002a0: 036b 193d 20c1 ca3e 5169 b33c f0c5 9a3e
000002b0: cb0b 243d 2075 cf3e ce75 4f3d 947a 043a
000002c0: 9fa4 3fbd 693d 92be f139 9fbe 2095 053e
000002d0: 8e12 443d a2ef 313d bb22 45be 8985 ae3d
000002e0: 1a35 433e f9c8 483c b737 183e 8e99 c93e
000002f0: 38a5 143c 1171 e53e 99c0 21bd 541b 86be
00000300: e5ae 1dbd 600a 95be 0cf2 8bbd af41 06bd
00000310: f597 093e 7073 dabc d6d2 a53c 889d 103c
00000320: 7569 b83d 1328 16be 2262 84bd 6283 183c
00000330: 50ba 7fbe 412e 48bb 9250 f3bd 83b9 6ebe
00000340: b80a 46bd 4cb5 213c 348f d0be 2f1a d33d
00000350: 0f2a f73d 0706 9d3e 8ddf 7abe ecba 293c
00000360: 98e2 b93b bb4e 2c3d 5c3c 613c f4b8 60bc
00000370: be9a 033c efd8 273e f891 0d3e 98d6 c4bc
00000380: 8b4c 32bd 30ae 45bc 0c50 253e 7a55 1fbd
00000390: f1bc 963c 491d 9abe e6c5 f1bc f6e5 3fbd
000003a0: 3c20 83bd c83a d93e 2d57 463d c771 453e
000003b0: 5a3d 6bbd 27d2 cb3e 3be8 993c f75d dd3e
000003c0: 471b b73e 9afe bbbe fd5f 453e 7cd6 103d
000003d0: 4de9 5a3d bd69 47bd b23b 5ebc 985f f7bd
000003e0: 0d53 39bd 1a09 6cbe 1a3c 58bd b380 3bbe
000003f0: ce47 ddbb 5761 a8bc 732e 5a3e 542e ca3d

critic.weight f4 [1, 256]
-0.031594902 -0.06773297 -0.198355 0.043308552 0.0049754353 0.011301598 -0.020529492 0.03345937
-0.011686863 0.06368129 -0.025783202 -0.024152245 0.0067753736 -0.016671209 0.0012193028 0.003997397
0.005486181 -0.048946004 0.07114953 -0.002184089 -0.18424243 0.021085393 0.006654007 -0.03980106
-0.00043177904 -0.010666944 0.041031726 -0.033769105 -0.014974849 0.0055914675 -0.015526671 0.023075704
0.01072754 0.08766744 -0.010742686 -0.003658209 0.0072981245 -0.05454467 0.048854522 0.061740316
0.022245966 -0.006131026 0.006634891 0.0322507 0.015704837 0.0063764616 0.056755222 -0.010257592
0.03438496 -0.108445376 0.023098938 0.040655714 0.0042426 -0.0046606967 0.0057358476 -0.012678637
-0.004309844 -0.001694983 0.021066077 -0.020955648 0.026117072 0.046136566 0.004785523 0.04008075
0.17324609 0.017587557 0.02489663 0.015625117 -0.032290556 0.0072270795 0.019743659 0.021704761
0.008725022 -0.024083948 0.054056898 0.020577896 -0.027296307 -0.11120749 -0.024918534 0.012208195
0.008563546 0.055065826 0.105200276 -0.009766962 0.05383956 -0.052754495 0.0015290603 0.05047401
0.03695632 0.0047070547 0.0395938 0.08555193 0.0424253 -0.027387323 -0.005122178 0.0064782705
0.045998897 0.024800422 0.0025476501 0.04846956 -0.0135256415 -0.030720126 -0.028706573 -0.03799587
0.05454986 0.057531126 -0.11093568 -0.054410785 0.045211088 -0.054935828 0.04302946 -9.0349684e-05
-0.019880401 -0.03866955 -0.021445364 0.004652985 0.020307336 -0.03719523 0.06854352 -0.031814486
-0.028768424 0.043537866 0.08779252 0.039038207 0.0887764 0.075737156 -0.014612804 0.05573838
0.016507894 0.041759692 0.017526673 0.0027596399 0.052998476 -0.007879852 0.03206719 0.06948964
0.046701286 -0.17359015 -0.017410703 -0.023954287 -0.0019615255 0.004116598 0.05771184 0.047502946
-0.023831535 0.006024772 -0.037672363 0.052677486 -0.007475656 0.012144008 0.0012424786 -0.13905865
0.004420833 0.005916165 0.003325758 0.07909673 0.05083458 -0.0074971835 0.0046947887 0.049556915
-0.023647048 0.05944163 0.09631589 0.035705272 0.020080758 0.047881335 -0.011221021 0.0061312076
-0.17066346 0.00510312 -0.02311164 0.007826334 0.060544822 0.010155618 0.012276769 0.012948078
-0.00788824 0.007249215 -0.0031258247 0.007957422 0.024084583 -0.006152163 -0.002271674 -0.006905694
-0.11682902 0.054180436 0.040547654 0.006506111 0.029563561 0.007763885 -0.0163806 -0.0047882944
-0.008467751 -0.0035532287 -0.0049535143 0.059606843 0.06264968 0.05864104 -0.033192504 -0.039355353
0.07247434 0.07260489 0.00047416368 -0.014627943 0.05996792 -0.004332597 -0.24051735 0.015512293
-0.06473191 0.075466 0.006088061 -0.26252136 0.0226989 -0.006115689 0.004796881 -0.001952905
0.018764671 0.03959083 -0.044550106 -0.053803436 0.051032793 0.028301088 0.061386418 0.05423259
-0.016904257 0.059403867 0.04708548 -0.0062582972 -0.0090887165 -0.0043671434 -0.00353095 0.00030237008
-0.028482351 0.00397641 0.015272862 0.040590614 -0.020226587 0.011167648 0.02553995 0.0057010413
0.0044859047 -0.008473639 0.041562073 -0.011122033 -0.05060012 -0.0139216455 0.041437265 0.07693776
-0.029206404 0.006030119 -0.03434609 0.004386909 -0.010030836 0.03573642 0.012055403 0.030418044
00000000: a869 01bd 95b7 8abd 931d 4bbe 4f64 313d
00000010: fa08 a33b 562a 393c 772d a8bc b10c 093d
00000020: 427a 3fbc 566b 823d 4b37 d3bc eeda c5bc
00000030: f403 de3b 0f92 88bc 03d1 9f3a 99fc 823b
00000040: 6cc5 b33b 9b7b 48bd d8b6 913d ef22 0fbb
00000050: 0caa 3cbe 46bb ac3c db09 da3b 7006 23bd
00000060: 6760 e2b9 68c4 2ebc e210 283d 7951 0abd
00000070: 1259 75bc a138 b73b 9463 7ebc 4209 bd3c
00000080: 90c2 2f3c fd8a b33d 1702 30bc 90be 6fbb
00000090: 1b25 ef3b 3b6a 5fbd ae1b 483d 6ae3 7c3d
000000a0: 2c3d b63c c6e6 c8bb 8069 d93b 4f19 043d
000000b0: 6ea7 803c a3f1 d03b 2a78 683d 760f 28bc
000000c0: 3ed7 0c3d 9c18 debd fc39 bd3c 9b86 263d
000000d0: 8205 8b3b c2b8 98bb c7f3 bb3b 0fba 4fbc
000000e0: 9839 8dbb 312a deba c492 ac3c 2eab abbc
000000f0: 78f3 d53c b2f9 3c3d e0cf 9c3b b62b 243d
00000100: 6c67 313e c813 903c 04f4 cb3c 3f00 803c
00000110: 1a43 04bd 23d1 ec3b 74bd a13c 2fce b13c
00000120: 65f3 0e3c b34b c5bc c46a 5d3d fa92 a83c
00000130: 819c dfbc c1c0 e3bd f421 ccbc e204 483c
00000140: 1e4e 0c3c b48c 613d 3e73 d73d 9c05 20bc
00000150: df86 5c3d 1915 58bd c06a c83a d6bd 4e3d
00000160: 835f 173d a33d 9a3b 1c2d 223d da35 af3d
00000170: 27c6 2d3d 615b e0bc f1d7 a7bb ac47 d43b
00000180: 5769 3c3d 412a cb3c 7af6 263b 0488 463d
00000190: a79a 5dbc c6a8 fbbc 0c2a ebbc 8fa1 1bbd
000001a0: ad6f 5f3d c2a5 6b3d 3f32 e3bd d8dd 5ebd
000001b0: 432f 393d 6404 61bd a93f 303d 1e7a bdb8
000001c0: 39dc a2bc f663 1ebd 30ae afbc 1178 983b
000001d0: 925b a63c 075a 18bd 8c60 8c3d e84f 02bd
000001e0: c2ab ebbc c354 323d 91cc b33d 87e6 1f3d
000001f0: 67d0 b53d 151c 9b3d 8b6a 6fbc ed4d 643d
00000200: 903b 873c 360c 2b3d 1994 8f3c 13db 343b
00000210: ee14 593d 7f1a 01bc e358 033d 9650 8e3d
00000220: d949 3f3d 9ec1 31be e4a0 8ebc c83b c4bc
00000230: f08c 00bb 87e4 863b 4063 6c3d 7392 423d
00000240: 5a3a c3bc 736b c53b 564e 1abd 59c4 573d
00000250: 59f6 f4bb a9f7 463c aada a23a 6465 0ebe
00000260: a3dc 903b 64dc c13b f6f4 593b 77fd a13d
00000270: ec37 503d efaa f5bb bed6 993b 31fc 4a3d
00000280: 74b7 c1bc 1179 733d 4441 c53d b13f 123d
00000290: 6780 a43c 381f 443d 60d8 37bc 4ce8 c83b
000002a0: 67c2 2ebe 1338 a73b 9f54 bdbc 063a 003c
000002b0: d9fd 773d c063 263c 8024 493c 2d24 543c
000002c0: ad3d 01bc d38a ed3b a3da 4cbb d95f 023c
000002d0: 084d c53c 1598 c9bb 5ee0 14bb 2949 e2bb
000002e0: 0e44 efbd 4eec 5d3d 4c15 263d 3731 d53b
000002f0: 482f f23c 3068 fe3b 9c30 86bc 20e7 9cbb
00000300: 52bc 0abc 49dd 68bb 1751 a2bb 4e26 743d
00000310: 7a4e 803d 9631 703d ddf4 07bd 1433 21bd
00000320: 6d6d 943d dfb1 943d 2c99 f839 0aaa 6fbc
00000330: eca0 753d 75f8 8dbb 2e4a 76be 4627 7e3c
00000340: 2a92 84bd eb8d 9a3d 5b7e c73b 3369 86be
00000350: 0bf3 b93c 1e66 c8bb 282f 9d3b 9ef8 ffba
00000360: 5eb8 993c ff29 223d 2c7a 36bd fe60 5cbd
00000370: c307 513d afd7 e73c 5370 7b3d fe22 5e3d
00000380: cc7a 8abc 7851 733d b4dc 403d 6712 cdbb
00000390: d7e8 14bc 411a 8fbb 8367 67bb 6d87 9e39
000003a0: d253 e9bc 8b4c 823b 073b 7a3c 5842 263d
000003b0: 3ab2 a5bc 83f8 363c 2839 d13c cdcf ba3b
000003c0: 7ffe 923b 05d5 0abc fe3c 2a3d 3039 36bc
000003d0: 1242 4fbd 9d17 64bc 1fba 293d 8b91 9d3d
000003e0: 4542 efbc 4e98 c53b 7cae 0cbd 0fc0 8f3b
000003f0: 6058 24bc 5a60 123d 0684 453c 432f f93c
