models1/ppo_1400.pth (torch, 275660 bytes, 6 tensors)

net.0.weight f4 [256, 6]
-0.36470953 -0.38902956 0.15934934 0.3764036 -0.053460605 -0.3656391 -0.052099884 -0.01725624
0.45158333 -0.3841951 -0.0850594 0.44627294 -0.073804155 0.48975196 -0.018896338 -0.4606404
-0.20309307 -0.07813674 -0.31783623 0.24448529 0.15239325 -0.05456413 0.017105099 0.3194357
0.23544411 -0.1378365 -0.48843247 0.27431336 0.19703618 -0.202277 0.115575686 -0.06905869
0.35334507 -0.0020218717 -0.27737084 0.19667423 -0.019705215 0.10499726 0.44337395 0.2313736
0.08561902 -0.3368552 -0.36560932 -0.38326252 -0.014195865 0.14882474 -0.04011771 0.2399167
-0.19951683 -0.24176118 0.30297902 -0.08199218 0.23964754 -0.29382503 0.17977525 0.20099705
0.45096964 -0.542903 -0.1812054 0.1696281 0.10932677 -0.16872513 -0.008474137 -0.0290776
-0.2044241 -0.13108909 0.039898075 -0.25291723 -0.21307318 0.2729287 -0.10520436 -0.12455343
-0.16759032 0.07818806 -0.17244029 0.16377825 -0.2939958 -0.30436963 -0.083097145 0.034860034
0.15000907 0.22649203 -0.094677456 -0.5102527 0.33234215 0.16108237 -0.23672035 0.025699949
-0.3163513 0.3339018 0.046560574 -0.37623313 -0.09492271 -0.4000782 -0.23424055 -0.05803468
0.13438836 0.21966404 0.38117954 -0.14052355 -0.012846023 -0.35001987 -0.55179846 -0.22554272
-0.07134646 -0.37102053 0.049071718 0.009747754 -0.49021634 0.19442844 -0.51223177 -0.37259236
-0.101636134 0.16004299 0.14332336 0.20908968 -0.18452619 0.39536297 -0.10487961 -0.2456957
-0.05799924 0.14577244 -0.0324296 0.31734836 0.21997626 0.37743506 0.3538218 0.22561085
-0.0047052274 0.07830283 0.10423827 -0.37568045 -0.3728354 0.027148891 0.3045615 -0.5223305
-0.04588254 0.37759987 0.13680181 -0.14255358 -0.12127824 -0.038647126 0.2027544 0.0053056628
-0.13568911 0.22637919 -0.013684726 0.017076531 0.21056432 -0.44261637 -0.22699189 0.3208594
-0.41150862 0.6136934 0.059336368 -0.23030147 0.15867117 0.05084363 -0.21647759 0.1762084
0.10049902 -0.20931692 0.07855019 -0.10479626 0.5865968 -0.54892397 0.05565892 -0.3396558
0.3004673 -0.39643407 0.1387175 0.2953174 -0.076719865 -0.17217034 -0.29584798 0.032584433
0.19692208 -0.31403875 -0.23601188 0.019520754 -0.11696168 -0.23594272 -0.3695101 0.37715694
0.3530785 0.27509663 -0.00024928604 -0.22180533 -0.5222267 0.28502715 0.0643169 -0.11737696
-0.18635246 -0.04900978 -0.20637216 0.35840192 -0.1271087 0.056554798 -0.0729451 0.2565969
-0.08795201 -0.02170314 0.1572413 0.1048139 -0.36992747 0.18723112 -0.27519265 0.3458451
-0.32550997 0.08962498 -0.37816343 0.04521151 0.26934782 0.15936127 -0.002037318 -0.12773956
0.20142983 0.24602059 0.26123706 -0.4560897 -0.19885321 -0.28607243 -0.23349425 -0.18745017
0.4370131 -0.22611745 -0.16721682 -0.19568272 -0.08353274 0.15906815 -0.3702556 0.30501562
-0.18218873 -0.05304379 -0.108634874 -0.0028982065 -0.08762331 0.048877705 -0.17268848 0.4062177
0.23071969 -0.38478065 -0.05280208 -0.23633192 0.14480585 -0.39345124 -0.53025115 -0.56688267
-0.003601577 0.15361738 0.13905391 -0.081098616 0.29084042 -0.3170448 0.21927613 -0.54801023
00000000: 35bb babe e22e c7be 792c 233e f9b7 c03e
00000010: 82f9 5abd 0c35 bbbe b066 55bd f55c 8dbc
00000020: ee35 e73e 38b5 c4be 9f33 aebd e37d e43e
00000030: a226 97bd c5c0 fa3e 7ecc 9abc 0fd9 ebbe
00000040: a1f7 4fbe 2806 a0bd 6ebb a2be 5a5a 7a3e
00000050: fa0c 1c3e a37e 5fbd fe1f 8c3c 138d a33e
00000060: 4318 713e 0325 0dbe d213 fabe cd72 8c3e
00000070: dac3 493e b421 4fbe f2b2 ec3d a46e 8dbd
00000080: a5e9 b43e 6181 04bb 8d03 8ebe f864 493e
00000090: d56c a1bc ce08 d73d e901 e33e 33ed 6c3e
000000a0: 0659 af3d 4978 acbe 2531 bbbe fc3a c4be
000000b0: c695 68bc 8365 183e 7852 24bd b9ac 753e
000000c0: 244e 4cbe 3e90 77be 1120 9b3e 84eb a7bd
000000d0: 2a66 753e 3c70 96be 0117 383e 2cd2 4d3e
000000e0: 7ee5 e63e b1fb 0abf e98d 39be fdb2 2d3e
000000f0: b7e6 df3d 48c6 2cbe 1bd7 0abc 2634 eebc
00000100: 8d54 51be 383c 06be 2a6c 233d 5e7e 81be
00000110: db2f 5abe 50bd 8b3e 6275 d7bd de15 ffbd
00000120: cc9c 2bbe 1021 a03d 3094 30be 7cb5 273e
00000130: 9e86 96be 56d6 9bbe d62e aabd 65c9 0e3d
00000140: fa9b 193e 87ed 673e 41e6 c1bd ec9f 02bf
00000150: c028 aa3e c7f2 243e d266 72be b388 d23c
00000160: ccf8 a1be 2df5 aa3e 4db6 3e3d a1a1 c0be
00000170: d666 c2bd 0dd7 ccbe c1dc 6fbe c6b5 6dbd
00000180: 1a9d 093e 9cef 603e f729 c33e 68e5 0fbe
00000190: 2078 52bc ce35 b3be aa42 0dbf acf4 66be
000001a0: 181e 92bd 67f6 bdbe 6dff 483d 0bb5 1f3c
000001b0: a3fd fabe 4018 473e 9f21 03bf 6dc4 bebe
000001c0: 9b26 d0bd 4fe2 233e 5cc3 123e 9b1b 563e
000001d0: 6ff4 3cbe 046d ca3e 1fcb d6bd a797 7bbe
000001e0: 9c90 6dbd 5f45 153e e6d4 04bd 7c7b a23e
000001f0: 7541 613e 2b3f c13e 2228 b53e 8806 673e
00000200: 4f2e 9abb 3c5d a03d e07a d53d 3059 c0be
00000210: 48e4 bebe 5a67 de3c 7cef 9b3e 74b7 05bf
00000220: 55ef 3bbd c554 c13e c615 0c3e 91f9 11be
00000230: ba60 f8bd 734c 1ebd d99e 4f3e 20db ad3b
00000240: 16f2 0abe f2cf 673e e735 60bc 15e4 8b3c
00000250: 2c9e 573e 9d9e e2be 9070 68be af47 a43e
00000260: 42b1 d2be 031b 1d3f b10a 733d 26d4 6bbe
00000270: b27a 223e 6941 503d 4dac 5dbe fa6f 343e
00000280: 6ed2 cd3d 2d57 56be ecde a03d 6c9f d6bd
00000290: 352b 163f 4886 0cbf 9cfa 633d 5de7 adbe
000002a0: dad6 993e 68f9 cabe f60b 0e3e d833 973e
000002b0: 4e1f 9dbd 6c4d 30be 6379 97be 4177 053d
000002c0: f1a5 493e b0c9 a0be 19ad 71be fde9 9f3c
000002d0: 9b89 efbd f89a 71be 6e30 bdbe b71a c13e
000002e0: b5c6 b43e 77d9 8c3e 9bb2 82b9 f020 63be
000002f0: a6b0 05bf 14ef 913e 94b8 833d 5563 f0bd
00000300: 2ed3 3ebe 7bbe 48bd 3953 53be 7580 b73e
00000310: c828 02be 01a6 673d 3e64 95bd ab60 833e
00000320: 2f20 b4bd c9ca b1bc dd03 213e aca8 d63d
00000330: 2267 bdbe 84b9 3f3e 0de6 8cbe 9c12 b13e
00000340: 3ea9 a6be 4d8d b73d a39e c1be b42f 393d
00000350: f5e7 893e 9a2f 233e 8684 05bb 29ce 02be
00000360: 9f43 4e3e d2ec 7b3e ddc0 853e 9784 e9be
00000370: 2da0 4bbe 1678 92be 1e19 6fbe f0f2 3fbe
00000380: 2ec0 df3e 558b 67be e33a 2bbe 0d61 48be
00000390: 3713 abbd c3e2 223e 2492 bdbe 022b 9c3e
000003a0: af8f 3abe 7244 59bd f67b debd d6ef 3dbb
000003b0: da73 b3bd fd33 483d 40d5 30be c4fb cf3e
000003c0: c841 6c3e f801 c5be fe46 58bd ff00 72be
000003d0: fc47 143e 7172 c9be 8abe 07bf 391f 11bf
000003e0: 6f08 6cbb e04d 1d3e 2664 0e3e 0817 a6bd
000003f0: 09e9 943e b253 a2be ec89 603e 664a 0cbf

net.0.bias f4 [256]
-0.28348976 0.017290806 -0.31054026 -0.42233258 0.40747207 -0.4368049 -0.3778235 -0.38156328
0.07679651 0.0044512823 0.15426067 -0.22446705 -0.13372451 -0.23388745 -0.3997057 0.14385757
0.3538735 0.02250301 -0.117598705 0.33650762 -0.25099427 -0.2567966 0.030680425 0.3140675
0.37203693 0.17006506 0.21747823 0.22000217 0.05723804 -0.049248893 0.32239413 0.20473939
0.13073787 -0.32661083 -0.21068476 -0.026079116 -0.39753714 0.41180372 0.17867853 -0.38064113
-0.21352394 -0.13171135 0.20016937 -0.30133536 -0.14791876 0.24791203 0.12987232 -0.5335355
0.06332787 0.2417358 -0.34169298 0.18390405 -0.11971752 -0.15564735 -0.27840737 0.2182657
-0.32066673 0.15482308 0.052911267 -0.09232148 -0.08164219 0.14136845 -0.12207954 0.014892762
0.28196904 0.12409219 -0.11727809 0.23036331 0.20293336 0.27836782 0.16684309 -0.055055216
0.27117807 -0.4283072 -0.36187154 0.013871648 0.24563982 -0.38465434 0.22415525 -0.0322624
-0.12826529 -0.06302467 -0.06321361 -0.003145095 -0.24706727 0.07425081 0.2552399 0.35285547
0.014549412 0.27180967 -0.06975597 0.12065902 0.21628793 0.005099902 0.1734298 0.29554513
-0.38572466 -0.29574737 -0.31729874 0.060575273 -0.13501336 -0.21769957 0.16968156 0.22140388
0.12650093 -0.25425962 0.026714088 0.15597539 -0.34729558 0.14989819 0.12064166 0.32896343
0.3168604 -0.1415574 -0.1977725 -0.35769925 -0.1388581 -0.34426212 0.37063077 -0.40187472
-0.3180125 -0.0702525 -0.011234465 0.14568189 0.33951166 -0.23431657 0.31391564 -0.57764137
0.33149526 -0.22905712 -0.18973319 -0.008836534 0.24562973 -0.32575792 -0.068571046 0.17622076
0.0650747 0.11138069 -0.068826094 0.2149625 0.37438717 0.34628117 0.13048622 -0.040429678
0.3659182 0.32767692 -0.34122452 -0.1276478 0.27744406 0.2630544 -0.12917297 -0.31207654
-0.16394307 0.28093216 0.21831898 -0.25626868 -0.24728388 0.037191413 -0.27375293 0.15157446
-0.35746542 -0.18566772 -0.1323757 0.23795411 0.009607641 -0.43352088 0.35731155 0.3467444
0.3838425 -0.32911316 -0.43180242 -0.3598155 -0.25275478 -0.3111281 -0.055309657 0.3764968
0.20073676 -0.14610343 0.31425375 0.005007566 -0.32900622 -0.20614184 -0.40346873 -0.18512376
-0.4573121 0.14334847 0.32899264 -0.115694836 -0.047101397 -0.3245174 0.37101778 0.06278199
0.019167095 0.39037228 -0.20623109 -0.24685208 -0.15457132 -0.016146518 -0.09723582 -0.31415808
0.050716627 0.16278605 0.34627947 -5.077417e-05 0.23476699 -0.059268575 0.21305077 0.07683249
0.35007232 0.2146697 0.05857291 0.11816468 0.34548068 -0.4583316 -0.024406902 -0.15090933
-0.16983132 -0.0602925 -0.43607292 0.34576717 0.07470915 -0.3665775 0.16985166 -0.17315136
-0.33721817 0.1920677 -0.041097153 0.21555941 0.212857 -0.19534187 -0.102365896 0.115400255
-0.083836436 -0.06558693 -0.44418228 -0.116646014 0.32270086 -0.25856712 0.40424582 0.36761162
-0.05989376 0.26332 0.09244896 -0.17549261 0.19721767 -0.17878948 -0.18739748 0.21949147
-0.14004032 0.31707406 -0.4057066 -0.03526086 0.023064202 -0.03148834 0.003335002 -0.06726351
00000000: 9225 91be 73a5 8d3c 22ff 9ebe fa3b d8be
00000010: 2ea0 d03e e4a4 dfbe 1572 c1be 435c c3be
00000020: 7d47 9d3d 10dc 913b 82f6 1d3e b1da 65be
00000030: 14ef 08be 3180 6fbe 3aa6 ccbe 664f 133e
00000040: e82e b53e 3c58 b83c 97d7 f0bd ba4a ac3e
00000050: 5282 80be d87a 83be 8455 fb3c 75cd a03e
00000060: a07b be3e 8925 2e3e 9db2 5e3e 4048 613e
00000070: 6f72 6a3d 35b9 49bd d810 a53e 34a7 513e
00000080: 26e0 053e 8939 a7be bfbd 57be dfa3 d5bc
00000090: fd89 cbbe f0d7 d23e 81f7 363e 65e3 c2be
000000a0: 05a6 5abe 57df 06be 33f9 4c3e a148 9abe
000000b0: 0478 17be a7dc 7d3e 40fd 043e c895 08bf
000000c0: 0bb2 813d 9789 773e 62f2 aebe 5851 3c3e
000000d0: 762e f5bd 0562 1fbe 698b 8ebe 0b81 5f3e
000000e0: 6e2e a4be f189 1e3e 7cb9 583d 0b13 bdbd
000000f0: 0534 a7bd e4c2 103e d604 fabd c500 743c
00000100: 3f5e 903e 0c24 fe3d 7f2f f0bd 5ce4 6b3e
00000110: c3cd 4f3e 3a86 8e3e ead8 2a3e 9481 61bd
00000120: dad7 8a3e 154b dbbe 3a47 b9be e945 633c
00000130: 0189 7b3e 6af1 c4be f488 653e 9425 04bd
00000140: fa57 03be 1413 81bd 2376 81bd f01d 4ebb
00000150: 34ff 7cbe cf10 983d ceae 823e 79a9 b43e
00000160: a860 6e3c a32a 8b3e 38dc 8ebd 141c f73d
00000170: 957a 5d3e 141d a73b 9597 313e b151 973e
00000180: b47d c5be 336c 97be fb74 a2be c71d 783d
00000190: f140 0abe a3ec 5ebe 01c1 2d3e b3b7 623e
000001a0: 7689 013e 512e 82be 81d7 da3c 03b8 1f3e
000001b0: bad0 b1be e97e 193e fa12 f73d e56d a83e
000001c0: 873b a23e 6cf4 10be e084 4abe 5b24 b7be
000001d0: d130 0ebe 2043 b0be 51c3 bd3e 86c2 cdbe
000001e0: 89d2 a2be 8be0 8fbd c310 38bc a22d 153e
000001f0: 79d4 ad3e aff0 6fbe 8db9 a03e 4ee0 13bf
00000200: bfb9 a93e f38d 6abe 6b49 42be 1cc7 10bc
00000210: 5c86 7b3e bec9 a6be fa6e 8cbd 3773 343e
00000220: e245 853d 8f1b e43d b2f4 8cbd 211f 5c3e
00000230: adaf bf3e c44b b13e 2e9e 053e 9799 25bd
00000240: a159 bb3e 45c5 a73e fbb4 aebe 1bb6 02be
00000250: 260d 8e3e 11af 863e eb45 04be 7fc8 9fbe
00000260: b1e0 27be 57d6 8f3e 038f 5f3e a635 83be
00000270: fc37 7dbe 0656 183d 5829 8cbe 5636 1b3e
00000280: b505 b7be ae1f 3ebe 7f8d 07be 3eaa 733e
00000290: 5e69 1d3c 73f6 ddbe 8af1 b63e 7b88 b13e
000002a0: 0187 c43e 8581 a8be 3515 ddbe bd39 b8be
000002b0: 1369 81be 2f4c 9fbe 618c 62bd 30c4 c03e
000002c0: f08d 4d3e 239c 15be dee5 a03e 8216 a43b
000002d0: 8173 a8be d916 53be 7493 cebe 1591 3dbe
000002e0: d024 eabe f1c9 123e b971 a83e 6af1 ecbd
000002f0: 65ed 40bd 2527 a6be 0bf6 bd3e d893 803d
00000300: 5004 9d3c e0de c73e 3e2e 53be cbc6 7cbe
00000310: f247 1ebe b445 84bc 9323 c7bd 54d9 a0be
00000320: 3dbc 4f3d 63b1 263e 8b4b b13e 5af6 54b8
00000330: c266 703e 9bc3 72bd fb29 5a3e 5a5a 9d3d
00000340: ae3c b33e 60d2 5b3e 26ea 6f3d 5300 f23d
00000350: d8e2 b03e 71aa eabe fcf0 c7bc fa87 1abe
00000360: 43e8 2dbe 45f5 76bd f344 dfbe 6508 b13e
00000370: 1c01 993d 0cb0 bbbe 98ed 2d3e 974e 31be
00000380: dca7 acbe 65ad 443e 7d55 28bd 9bbb 5c3e
00000390: 2ff7 593e b307 48be 36a5 d1bd f856 ec3d
000003a0: 70b2 abbd 7152 86bd dc6b e3be 1be4 eebd
000003b0: 0c39 a53e e962 84be 4ff9 ce3e 9737 bc3e
000003c0: 2953 75bd e1d1 863e e155 bd3d 56b4 33be
000003d0: 6ef3 493e 9714 37be 20e5 3fbe 5fc2 603e
000003e0: bb66 0fbe 8857 a23e c7b8 cfbe b16d 10bd
000003f0: 23f1 bc3c ebf9 00bd 0d90 5a3b 73c1 89bd

net.2.weight f4 [256, 256]
-0.054424964 -0.00012021703 -0.058927245 -0.031184427 0.03189987 -0.015315297 0.00842105 -0.007412952
-0.0008756854 0.017437564 -0.043156706 0.024053797 -0.0036621382 -0.05260013 0.051483274 0.03278175
0.048193775 -0.033413976 0.023961276 -0.04020561 -0.039744392 -0.025477022 0.024251161 -0.023931714
-0.020927828 -0.01249486 -0.050093282 0.034710187 -0.047866125 0.036976706 -0.032725655 -0.010328347
-0.04476503 -0.0010584369 0.04011433 -0.055766407 -0.051189173 0.04762725 -0.050051037 0.0011211135
-0.023808926 0.02603046 0.0037272177 0.0019015928 -0.040766183 0.04612163 0.04986443 0.014696136
-0.029588059 0.019944772 0.05469589 0.0332767 -0.028278427 0.05804164 0.049172647 0.015881982
0.005064975 0.009452446 0.002367705 0.021326467 0.059244797 0.0007333145 0.016944256 0.048942197
0.033629224 0.012116457 -0.023171037 -0.045251366 -0.034287117 -0.032198112 0.014514587 -0.015199922
-0.054323632 0.046267174 -0.004230976 0.044733897 -0.054978065 0.0004990183 0.01810757 0.04322976
0.018836508 0.015240046 -0.017789934 0.025605757 -0.011503243 -0.019788524 0.04400553 0.027106473
-0.011748777 -0.0474152 -0.042214803 0.044022515 -0.029805249 -0.054066695 -0.06588626 -0.023678517
-0.01465614 -0.050814793 -0.042616703 -0.046989005 -0.06894497 0.05545 0.055634085 -0.0028045967
0.048685413 0.024253383 -0.015216056 0.033020683 -0.023147456 -0.06394368 0.022991698 0.038317688
-0.011112204 -0.056590587 0.016015043 0.003483939 0.031284038 0.0035212636 0.04498108 0.031295314
-0.05238083 -0.01103957 0.04433683 0.042229317 0.03090351 -0.013757743 -0.020328198 -0.02778121
-0.00348425 -0.011983281 -0.04873818 -0.005194232 0.00655372 0.04192473 -0.032488227 0.029448468
0.04627963 -0.009182245 -0.0510998 -0.047078937 -0.026077468 -0.06147616 -0.0059727426 0.040044792
-0.032173768 -0.018622192 0.056769922 0.023797587 0.046814658 0.030941665 -0.0061600106 0.042143993
-0.017815623 -0.04705217 -0.06508362 -0.04900141 -0.041505247 0.04897669 -0.0395462 -0.066111505
0.02669169 -0.019728892 -0.021771288 -0.044095263 0.01659247 0.01692291 -0.045125656 0.053776033
-0.045134757 0.037930455 -0.058746792 0.043728054 -0.048682112 0.015990324 -0.03929711 -0.04927254
0.03858982 0.033241563 0.053999595 0.033882603 -0.023889966 -0.019637883 -0.02285494 -0.060613986
-0.009038918 0.028932147 0.05263379 -0.055393428 0.02125355 -0.06725238 0.013414696 0.0032155588
0.030237854 -0.0071835215 0.043244466 -0.033310752 0.011440804 0.02577276 0.026833937 0.024103351
-0.020516349 0.05120369 -0.054120537 -0.011339323 0.0202432 0.018234352 -0.026825001 -0.012264669
0.049209937 0.0050688996 -0.0008967858 0.036202356 -0.04636982 -0.023828737 -0.018477492 -0.007865615
-0.027003728 -0.0397755 0.04147401 -0.04474229 0.049490083 -0.01724202 0.015451026 0.041424476
0.031055704 0.04357485 -0.06731012 -0.059495293 -0.0685035 -0.043128114 0.006690145 0.0038558068
-0.021936705 -0.040677063 -0.030415857 0.06068993 -0.057848614 0.045444712 -0.054773975 -0.045061376
-0.053384162 0.055447325 -0.056735765 -0.043623343 -0.044632845 0.032288894 -0.04041883 -0.04991225
0.027431909 0.01874075 -0.020358376 0.0023637773 -0.009391624 0.021697052 -0.055293463 -0.059202626
00000000: b6ec 5ebd 071d fcb8 b25d 71bd 7c76 ffbc
00000010: 70a9 023d 03ed 7abc 72f8 093c 59e8 f2bb
00000020: 418e 65ba 39d9 8e3c 16c5 30bd 780c c53c
00000030: 7c00 70bb 3c73 57bd 20e0 523d 2846 063d
00000040: d666 453d 18dd 08bd 704a c43c a3ae 24bd
00000050: 04cb 22bd 30b5 d0bc 5faa c63c 710c c4bc
00000060: d670 abbc 3eb7 4cbc 9d2e 4dbd 452c 0e3d
00000070: 450f 44bd e374 173d 560b 06bd 3a38 29bc
00000080: 895b 37bd 40bb 8aba ec4e 243d 516b 64bd
00000090: bdab 51bd cb14 433d 5102 4dbd 54f2 923a
000000a0: f00a c3bc d53d d53c 5644 743b de3e f93a
000000b0: 71fa 26bd 09ea 3c3d a53e 4c3d 10c8 703c
000000c0: a862 f2bc 3863 a33c cc08 603d 264d 083d
000000d0: 29a8 e7bc 12bd 6d3d 4269 493d ee1a 823c
000000e0: 17f8 a53b 6fde 1a3c 802b 1b3b d8b4 ae3c
000000f0: acaa 723d e73b 403a aece 8a3c 9d77 483d
00000100: ccbe 093d 1b84 463c 30d1 bdbc 7f59 39bd
00000110: a670 0cbd 2be2 03bd 97ce 6d3c 1809 79bc
00000120: 7582 5ebd a682 3d3d 00a4 8abb e43a 373d
00000130: ae30 61bd 8dd0 023a 5456 943c b011 313d
00000140: 054f 9a3c 63b1 793c 32bc 91bc 2ac3 d13c
00000150: 1978 3cbc 8b1b a2bc 253f 343d 650e de3c
00000160: f17d 40bc 7136 42bd 6ee9 2cbd f450 343d
00000170: 232a f4bc 0a75 5dbd 60ef 86bd 73f9 c1bc
00000180: 4e20 70bc 2c23 50bd da8e 2ebd 8b77 40bd
00000190: 0533 8dbd 8a1f 633d 91e0 633d 53cd 37bb
000001a0: 5b6a 473d 08af c63c c44c 79bc b240 073d
000001b0: bc9f bdbc e7f4 82bd 1659 bc3c 02f3 1c3d
000001c0: f60f 36bc 88cb 67bd fb31 833c cc52 643b
000001d0: b123 003d 00c5 663b 153e 383d 842f 003d
000001e0: 488d 56bd 50df 34bc 899a 353d a6f8 2c3d
000001f0: 5c29 fd3c 2868 61bc 5287 a6bc 6c95 e3bc
00000200: 0458 64bb 8655 44bc b0a1 47bd 6034 aabb
00000210: 97c0 d63b 44b9 2b3d 6012 05bd ea3d f13c
00000220: b68f 3d3d 2071 16bc 064e 51bd d8d5 40bd
00000230: 6aa0 d5bc 6dce 7bbd ffb6 c3bb 0206 243d
00000240: a4c8 03bd 918d 98bc 9487 683d 28f3 c23c
00000250: bac0 3f3d 6079 fd3c ead9 c9bb 2e9f 2c3d
00000260: 12f2 91bc c7b9 40bd 904a 85bd b4b5 48bd
00000270: 6801 2abd c89b 483d 32fb 21bd 7865 87bd
00000280: 88a8 da3c 7c9e a1bc b359 b2bc 3c9d 34bd
00000290: efec 873c eaa1 8a3c aed5 38bd 4244 5c3d
000002a0: 39df 38bd f75c 1b3d 7aa0 70bd 301c 333d
000002b0: e566 47bd 24fe 823c 02f6 20bd 01d2 49bd
000002c0: 5c10 1e3d 4e28 083d ae2e 5d3d 7cc8 0a3d
000002d0: e4b4 c3bc a0df a0bc 483a bbbc 5f46 78bd
000002e0: f817 14bc 1c03 ed3c 8796 573d 38e4 62bd
000002f0: ed1b ae3c 9ebb 89bd 50c9 5b3c 20bc 523b
00000300: 60b5 f73c bf63 ebbb 1c21 313d db70 08bd
00000310: 3672 3b3c 6521 d33c d8d2 db3c 6474 c53c
00000320: e711 a8bc f6ba 513d 7fad 5dbd 91c8 39bc
00000330: 11d5 a53c 3560 953c 1bc0 dbbc c0f1 48bc
00000340: 5c90 493d 0319 a63b 4716 6bba ec48 143d
00000350: 48ee 3dbd 7c34 c3bc 1c5e 97bc c8de 00bc
00000360: ec36 ddbc a2eb 22bd a7e0 293d b143 37bd
00000370: 1db6 4a3d 233f 8dbc 4d26 7d3c b6ac 293d
00000380: 8868 fe3c 8b7b 323d e3d9 89bd 56b1 73bd
00000390: 904b 8cbd 1ba7 30bd 0139 db3b b4b1 7c3b
000003a0: 9bb4 b3bc fe9c 26bd ad2a f9bc 0196 783d
000003b0: abf2 6cbd 3c24 3a3d ad5a 60bd 4792 38bd
000003c0: 5aa9 5abd bc1c 633d c363 68bd 64ae 32bd
000003d0: eed0 36bd 5c41 043d 378e 25bd ca70 4cbd
000003e0: e2b8 e03c 3486 993c 9cc6 a6bc 9ae9 1a3b
000003f0: 53df 19bc 04be b13c 667b 62bd 747e 72bd

net.2.bias f4 [256]
0.011397199 -0.103049174 -0.08345853 0.038021386 0.0298756 -0.010582119 0.031597033 -0.071174294
-0.024518998 0.18372095 0.03367482 -0.059953026 0.08138447 -0.034093153 0.07757248 -0.05464143
0.031748183 0.050332896 0.13428906 -0.012805963 -0.024549445 0.039939765 0.011882981 -0.038963635
-0.046399213 -0.060006253 -0.019815248 0.015871923 -0.16159636 -0.009915632 0.031953342 0.11498542
-0.013384812 0.16726308 0.036410354 0.050862443 0.090984315 -0.13541858 0.07551283 -0.03994236
-0.008817873 0.03261192 -0.061274 0.064580135 -0.025479503 0.083045974 0.022880513 0.040535867
0.1340377 -0.06055424 0.03942781 0.15651162 0.045504082 0.0069600428 0.061646923 -0.0002933574
-0.048324987 -0.010311035 0.0624249 0.026574157 0.053034376 -0.04836717 -0.018541258 0.06858516
0.024386931 0.058030277 0.0290636 -0.060953375 -0.07226231 0.020395275 0.020443903 0.025893973
0.03504031 -0.026253195 -0.052784216 0.049928315 -0.076022595 -0.07898742 -0.055381 -0.03763916
0.009225267 0.15824707 0.08474525 -0.011718121 -0.047208343 -0.015356372 -0.048372693 0.044326328
0.034383666 -0.0040803454 0.03790625 0.21453995 0.02947581 -0.065868154 -0.06436915 -0.004573033
0.05311327 0.081070185 0.014107271 0.051786806 -0.019487683 0.016024232 -0.027010301 0.0153937815
0.025216835 0.15402888 -0.08359922 -0.05407747 -0.018451078 -0.038005337 0.038307656 -0.05367081
-0.07406083 0.0053654485 -0.006259605 0.018352352 0.0072298073 -0.027639022 0.17310782 0.002936557
-0.053766854 0.0015004505 0.04624713 0.0771397 0.097229436 0.14293142 0.016923718 0.10175436
0.023078412 0.01960507 0.031351782 0.03161826 0.032513477 -0.06084564 -0.05397373 0.14678305
0.11269626 -0.06873654 -0.013122641 -0.06511112 0.030381044 -0.044758875 0.14977178 -0.060619317
-0.024360077 -0.038231242 -0.05013843 -0.05685327 -0.038456988 -0.007786279 0.04499237 -0.07629595
-0.032772765 -0.038177982 0.0957351 0.14183244 -0.06519643 0.027285263 -0.020440413 -0.019278325
0.05021996 0.20205685 0.16799693 0.070959926 0.102909304 -0.058999978 0.004283803 0.030204501
-0.052161373 -0.03531131 0.024706734 -0.019076465 0.12679651 0.043025974 0.014789827 0.04189782
-0.068338566 0.04309088 -0.00014411368 0.081685275 -0.056999654 0.012598481 -0.055508703 0.022283526
-0.01074283 0.016667373 0.162717 0.020255543 -0.04006157 0.017167449 0.007584164 -0.043555725
-0.050876427 -0.04121292 0.0315193 0.08111201 0.19497465 -0.040719606 -0.0139208315 -0.015168332
0.20471069 0.14426854 0.008050517 0.028042212 -0.01101905 -0.022643901 0.0050497875 0.06447684
-0.06594032 0.119260475 -0.060717653 -0.1275713 0.08537823 0.002039777 -0.023243247 -0.05935443
-0.030575812 -0.032262642 -0.028127434 -0.060224768 0.17188232 -0.0034464689 0.113743894 0.097569734
-0.042755302 -0.047724072 0.07720786 0.010596866 -0.012965148 -0.015335818 0.033148274 -0.003235723
-0.085897624 0.027982429 -0.023646953 0.17048317 0.026861466 0.061832964 0.03761407 -0.009917291
0.09956661 0.041444287 0.07117038 0.045165222 -0.0661908 -0.0185654 0.113793656 0.18389642
0.02337196 -0.0049953675 0.011330505 0.033556897 -0.032334525 0.027664449 -0.021515219 0.10158185
00000000: 51bb 3a3c 720b d3bd 4eec aabd 50bc 1b3d
00000010: adbd f43c a060 2dbc e46b 013d d4c3 91bd
00000020: 11dc c8bc 5821 3c3e 9cee 093d 4e91 75bd
00000030: e7ac a63d 43a5 0bbd 52de 9e3d b1cf 5fbd
00000040: 620a 023d de29 4e3d 1283 093e 1ad0 51bc
00000050: eb1b c9bc e197 233d d6b0 423c 5598 1fbd
00000060: 1a0d 3ebd 1ec9 75bd 9653 a2bc d605 823c
00000070: 8479 25be 2d75 22bc 82e1 023d 7a7d eb3d
00000080: f84b 5bbc 0347 2b3e 0623 153d 2355 503d
00000090: fc55 ba3d 2bab 0abe 78a6 9a3d 9a9a 23bd
000000a0: d778 10bc 1494 053d 72fa 7abd 9742 843d
000000b0: 64ba d0bc 0214 aa3d ea6f bb3c f008 263d
000000c0: 2e41 093e b907 78bd 0e7f 213d 9544 203e
000000d0: 7d62 3a3d 1211 e43b 7c81 7c3d c4cd 99b9
000000e0: 6cf0 45bd 9eef 28bc 40b1 7f3d 0cb2 d93c
000000f0: 933a 593d a71c 46bd d6e3 97bc 6076 8c3d
00000100: 1ac7 c73c 28b1 6d3d c916 ee3c 3faa 79bd
00000110: 43fe 93bd fe13 a73c f979 a73c 991f d43c
00000120: 6e86 0f3d f110 d7bc 4334 58bd a281 4c3d
00000130: bcb1 9bbd 28c4 a1bd 30d7 62bd 852b 1abd
00000140: 9325 173c 850b 223e eb8e ad3d 5dfd 3fbc
00000150: 895d 41bd 4b99 7bbc 7222 46bd 868f 353d
00000160: e3d5 0c3d 6bb4 85bb 9643 1b3d 5cb0 5b3e
00000170: 4177 f13c e2e5 86bd f9d3 83bd 62d9 95bb
00000180: 4d8d 593d 2008 a63d 2f22 673c 671e 543d
00000190: a2a4 9fbc 4045 833c b544 ddbc 3336 7c3c
000001a0: 8993 ce3c bfb9 1d3e 1136 abbd 5680 5dbd
000001b0: b726 97bc 7cab 1bbd 7de8 1c3d ecd5 5bbd
000001c0: 34ad 97bd a5d0 af3b 5f1d cdbb ac57 963c
000001d0: 05e8 ec3b 3b6b e2bc 2d43 313e 4073 403b
000001e0: a23a 5cbd c4aa c43a a16d 3d3d 6bfb 9d3d
000001f0: 3a20 c73d 9d5c 123e 9ca3 8a3c 9764 d03d
00000200: f00e bd3c d09a a03c ba6a 003d 2682 013d
00000210: da2c 053d 4739 79bd 8f13 5dbd 4c4e 163e
00000220: 4ccd e63d bec5 8cbd 5800 57bc fb58 85bd
00000230: abe1 f83c 1555 37bd c65d 193e f64b 78bd
00000240: c98e c7bc 5d98 1cbd f45d 4dbd f9de 68bd
00000250: 1385 1dbd 0b24 ffbb eb49 383d 0d41 9cbd
00000260: bc3c 06bd 8460 1cbd c410 c43d 863c 113e
00000270: b585 85bd 5885 df3c a772 a7bc 94ed 9dbc
00000280: 72b3 4d3d fee7 4e3e 6307 2c3e 7053 913d
00000290: 1dc2 d23d f6a9 71bd 255f 8c3b 6e6f f73c
000002a0: 2aa7 55bd 98a2 10bd c765 ca3c 3f46 9cbc
000002b0: f2d6 013e 013c 303d 0851 723c 0c9d 2b3d
000002c0: 17f5 8bbd 1080 303d 391d 17b9 9c4a a73d
000002d0: 7878 69bd dc69 4e3c 185d 63bd f18b b63c
000002e0: b202 30bc 048a 883c 499f 263e f4ee a53c
000002f0: 9a17 24bd c0a2 8c3c 9484 f83b 7d67 32bd
00000300: cd63 50bd e1ce 28bd 621a 013d 0e1e a63d
00000310: 6fa7 473e 9ac9 26bd 3314 64bc 9884 78bc
00000320: ae9f 513e 22bb 133e 51e6 033c c8b8 e53c
00000330: 3f89 34bc b47f b9bc b078 a53b 6f0c 843d
00000340: b80b 87bd d63e f43d 13b3 78bd 0da2 02be
00000350: c8da ae3d c8ad 053b 9f68 bebc a11d 73bd
00000360: 207a fabc d525 04bd 816b e6bc 3fae 76bd
00000370: eb01 303e 27de 61bb 8ff2 e83d a4d2 c73d
00000380: 2f20 2fbd 517a 43bd 281f 9e3d 7a9e 2d3c
00000390: c66b 54bc 1543 7bbc 7cc6 073d 6c0e 54bb
000003a0: 18eb afbd 683b e53c 41b7 c1bc 2493 2e3e
000003b0: 940c dc3c 9044 7d3d 3611 1a3d 227c 22bc
000003c0: 94e9 cb3d 7cc1 293d c7c1 913d 2bff 383d
000003d0: 0b8f 87bd 7716 98bc a60c e93d 584f 3c3e
000003e0: 8d76 bf3c 2eb0 a3bb 95a3 393c f572 093d
000003f0: 3571 04bd 8ea0 e23c af40 b0bc 250a d03d

actor.weight f4 [1, 256]
0.010974159 0.0693454 0.058628622 -0.043660313 0.5474293 0.012913487 0.046569493 -0.014622924
0.0042220694 0.096094325 -0.022874273 -0.013445794 0.5335899 -0.004221883 0.36122498 0.024229102
0.49376696 -0.006882593 -0.10961636 0.05010144 0.05628982 -0.3280218 0.3532719 -0.03504742
-0.47220466 -0.0036520795 0.052363925 -0.019665202 -0.34271133 -0.30669925 0.019554863 0.278053
0.044684112 -0.028606214 -0.32624137 -0.29328653 0.5100089 0.22797036 -0.20342906 0.008015297
0.076114684 -0.34215733 0.053346403 0.0042392644 -0.045536064 0.66494066 -0.0075861793 -0.27016145
0.1577663 0.07288104 -0.027615199 0.18157409 0.40788212 -0.31064802 0.4338806 -0.040921837
-0.43178523 -0.019342111 -0.008374825 -0.02999235 0.10481699 0.024079593 0.29751453 -0.23252821
-1.3298434 -0.009633555 -0.27679262 -0.051633164 0.008269344 -0.41881707 0.11054704 0.16059855
0.051215064 -0.0069363476 0.025263244 0.030377097 0.0070853783 0.013527915 -0.075963065 -0.2307477
0.58401674 -0.12507698 -0.35607275 -0.3926563 0.0041673463 -0.012676197 -0.04485239 0.04111539
-0.25174993 0.36680406 0.028487109 0.0074985605 0.045729414 0.0034208768 -0.05230793 0.51670045
0.05517124 0.21494447 -0.21392317 -0.04225002 0.06327938 0.006996753 -0.008455219 0.0057436414
0.004478155 -0.17022502 0.06389256 0.15130572 0.06003982 0.006998703 0.028555835 0.009826774
0.004741174 0.004775356 -0.0018006001 0.49899286 0.0016632981 -0.0037346943 0.06809182 -0.00082430115
0.04487724 0.038395304 0.05283109 -0.19194715 0.032677945 0.023717834 0.05299781 -0.10045478
0.032216918 -0.009268492 -0.008033492 -0.033622097 0.047019333 -0.32151872 -0.008183334 0.12761849
-0.1532639 -0.032829523 -0.04132229 0.046194024 -0.0011977346 -0.39480218 0.18678838 -0.020720959
0.0072712433 -0.01642676 0.00026030093 0.059836138 -0.031899 -0.22767304 0.023039214 0.07582951
-0.004773695 -0.041263048 0.4650199 -0.015596421 0.022663176 0.07985554 0.59193915 0.039636254
0.030951167 0.04705081 -0.07454787 0.30107245 0.21894346 0.026515372 -0.29402322 0.50294864
0.040476028 0.4605303 0.021900805 0.3645385 0.04626458 0.5122706 0.050649457 0.0005053666
-0.046787854 -0.33266312 -0.38615143 0.12780058 0.047869258 0.043441422 -0.22526677 0.07917236
0.131143 0.012497078 0.15593794 0.4580589 0.009072594 0.52160513 -0.039490316 -0.30688548
-0.034349 -0.35148367 -0.020320738 -0.028394816 0.14452927 -0.026666373 0.020242136 0.008826621
0.0982707 -0.14603736 -0.0646403 0.009308668 -0.19689384 -0.0030545148 -0.11247519 -0.23165578
-0.04502408 0.014252301 -0.5049054 0.103077285 0.096868105 0.3017389 -0.28949115 0.010359507
0.005672764 0.04206727 0.013747301 -0.013715971 0.011092051 0.16391347 0.14800557 -0.021159884
-0.04353003 -0.012065455 0.17017676 -0.038899876 0.018400641 -0.34402728 -0.02951331 -0.046850167
-0.07140899 0.5051874 0.04842298 0.20409146 -0.057431556 0.42248645 0.013779205 0.5187578
0.41897377 -0.40801096 0.20204414 0.0353608 0.05344515 -0.048684824 -0.012241036 -0.12049714
-0.04524522 -0.31922078 -0.052791692 -0.19498274 -0.0067529446 -0.020554228 0.23896582 0.13180335
00000000: f6cc 333c f604 8e3d 9124 703d 28d5 32bd
00000010: 5424 0c3f 1793 533c a7bf 3e3d fd94 6fbc
00000020: 4959 8a3b 1acd c43d d462 bbbc bf4b 5cbc
00000030: 5999 083f b957 8abb 7bf2 b83e 1c7c c63c
00000040: 06cf fc3e 6087 e1bb 8b7e e0bd 2b37 4d3d
00000050: 2790 663d 79f2 a7be 0ee0 b43e e28d 0fbd
00000060: cfc4 f1be ba57 6fbb 8e7b 563d eb18 a1bc
00000070: dc77 afbe af07 9dbe 8531 a03c f65c 8e3e
00000080: b006 373d 9457 eabc 1c09 a7be a729 96be
00000090: f18f 023f 1071 693e b54f 50be 9852 033c
000000a0: 04e2 9b3d 3f2f afbe c281 5a3d 87e9 8a3b
000000b0: 0684 3abd 8d39 2a3f 7c95 f8bb 9a52 8abe
000000c0: 7d8d 213e a842 953d 4539 e2bc 8fee 393e
000000d0: edd5 d03e 420d 9fbe 9925 de3e a89d 27bd
000000e0: f412 ddbe 5973 9ebc 9036 09bc 84b2 f5bc
000000f0: 4aaa d63d 9142 c53c d353 983e e01b 6ebe
00000100: 4f38 aabf 0fd6 1dbc c3b7 8dbe 4c7d 53bd
00000110: 257c 073c 316f d6be 7d66 e23d f273 243e
00000120: e3c6 513d 4d4a e3bb ddf4 ce3c 64d9 f83c
00000130: 762c e83b 30a4 5d3c 8692 9bbd 2049 6cbe
00000140: 1f82 153f 2e14 00be 2b4f b6be 3f0a c9be
00000150: 3c8e 883b d3af 4fbc 24b7 37bd 9c68 283d
00000160: 5ee5 80be becd bb3e cc5d e93c 7cb6 f53b
00000170: c44e 3b3d ca30 603b d740 56bd 7b46 043f
00000180: 3dfb 613d 671a 5c3e ad0e 5bbe 5b0e 2dbd
00000190: 9f98 813d 0545 e53b c287 0abc 2835 bc3b
000001a0: 7dbd 923b 784f 2ebe 1ada 823d e3ef 1a3e
000001b0: 50ec 753d 6055 e53b eded e93c 7a00 213c
000001c0: da5b 9b3b 977a 9c3b 1d02 ecba fe7b ff3e
000001d0: 0603 da3a c6c1 74bb b973 8b3d ea15 58ba
000001e0: 32d1 373d 6544 1d3d 6a65 583d cb8d 44be
000001f0: 4fd9 053d e74b c23c 3b14 593d 3cbb cdbd
00000200: e3f5 033d e0da 17bc e89e 03bc 53b7 09bd
00000210: 5897 403d 1a9e a4be 6413 06bc 6cae 023e
00000220: 36f1 1cbe 4078 06bd 9041 29bd f235 3d3d
00000230: 4efd 9cba 8323 cabe 7445 3f3e 00bf a9bc
00000240: 9c43 ee3b 6a91 86bc 0079 8839 bd16 753d
00000250: 87a8 02bd 1f23 69be bcbc bc3c 814c 9b3d
00000260: a86c 9cbb 7103 29bd 1717 ee3e 2288 7fbc
00000270: 20a8 b93c 4d8b a33d 5389 173f a059 223d
00000280: 4d8d fd3c 5ab8 403d 8eac 98bd 2b26 9a3e
00000290: b732 603e c436 d93c 368a 96be 3ec1 003f
000002a0: 31ca 253d a1ca eb3e 5169 b33c caa4 ba3e
000002b0: ee7f 3d3d 2b24 033f ce75 4f3d 947a 043a
000002c0: 9fa4 3fbd d252 aabe a4b5 c5be 28de 023e
000002d0: 8e12 443d a2ef 313d 55ac 66be 1e25 a23d
000002e0: 5a4a 063e 8bc0 4c3c 32ae 1f3e b286 ea3e
000002f0: 38a5 143c ea87 053f 99c0 21bd 1820 9dbe
00000300: 89b1 0cbd abf5 b3be ad77 a6bc 3f9c e8bc
00000310: 7bff 133e 7073 dabc d6d2 a53c 889d 103c
00000320: 2642 c93d d18a 15be 2262 84bd 6283 183c
00000330: 8a9e 49be 412e 48bb 6459 e6bd 2c37 6dbe
00000340: 2b6b 38bd 7c82 693c 7b41 01bf 2f1a d33d
00000350: c962 c63d 857d 9a3e 2f38 94be ecba 293c
00000360: 98e2 b93b bb4e 2c3d 5c3c 613c f4b8 60bc
00000370: 6fbb 353c efd8 273e c68e 173e 7e57 adbc
00000380: 8b4c 32bd 30ae 45bc d142 2e3e 7a55 1fbd
00000390: f1bc 963c 5824 b0be e6c5 f1bc f6e5 3fbd
000003a0: e03e 92bd f653 013f 2d57 463d 5afd 503e
000003b0: 5a3d 6bbd 2550 d83e 2dc2 613c 50cd 043f
000003c0: bb83 d63e d0e6 d0be a9e4 4e3e 7cd6 103d
000003d0: 4de9 5a3d bd69 47bd a08e 48bc 34c7 f6bd
000003e0: 0d53 39bd e870 a3be 1a3c 58bd 8ea9 47be
000003f0: ce47 ddbb 5761 a8bc 75b3 743e 75f7 063e

critic.weight f4 [1, 256]
-0.031594902 -0.038520012 -0.27688068 0.043308552 0.013339404 0.002949245 -0.020529492 0.03345937
-0.011686863 0.06747065 -0.01583064 -0.024152245 0.012005979 -0.016671209 0.01152813 0.003997397
0.004060862 -0.048946004 0.07459793 -0.002184089 -0.015387398 0.020077273 -0.008179956 -0.0348304
0.008239335 -0.010666944 0.041031726 -0.027645154 -0.08459125 0.060381133 -0.015526671 0.0090659065
0.01072754 0.10024759 -0.00866028 -0.0066439337 0.011145677 -0.19090827 0.03236763 0.061740316
-0.030338377 -0.008653988 0.006634891 0.00961302 0.015704837 0.009242314 0.056755222 -0.01583508
0.01173318 -0.12021078 0.023098938 0.037403807 0.021588689 -0.020167964 0.0047513884 -0.012678637
0.010969419 0.009450128 0.002906475 -0.020955648 -0.0018346155 0.046136566 0.029749196 0.013557311
0.14095439 0.09385995 0.00026096072 0.0075845565 -0.032290556 0.0216208 0.04600107 -0.0049046506
0.008725022 -0.024083948 0.054056898 0.0013458501 -0.027296307 -0.11120749 -0.024918534 0.019279553
0.008914014 0.044481795 0.10778948 -0.014121348 0.05383956 -0.052754495 -0.006788281 0.05047401
0.01644724 -0.058212295 5.5404904e-05 0.0950667 0.0424253 -0.091053866 -0.0012413753 0.008024281
0.019164559 0.006935217 -0.01237298 0.04846956 -0.0135256415 -0.021236386 -0.028706573 -0.03799587
0.06816426 0.04763304 -0.23753524 -0.0459963 0.045211088 -0.054935828 0.04302946 -9.0349684e-05
-0.019880401 -0.03866955 -0.021445364 0.009599652 0.020307336 -0.03719523 0.07613118 -0.031814486
-0.028768424 0.043537866 0.044175692 0.010105598 0.0020281845 0.0095514 -0.014612804 0.04265165
0.007954809 0.041759692 0.017526673 0.0027596399 0.052998476 -0.015422927 0.03206719 0.07435321
0.019313075 -0.14899814 -0.017410703 -0.023954287 -0.0019615255 0.010547087 0.057907812 0.047502946
-0.023831535 0.006024772 -0.037672363 0.052677486 -0.0035294218 -0.011291424 0.0012424786 -0.15144256
0.004420833 0.005916165 0.00954331 0.08752404 0.05083458 0.010504103 -0.0050550243 0.049556915
-0.023647048 0.05207646 0.11034686 0.007076971 -0.010555628 0.047881335 -0.006957066 0.007440442
-0.22107595 -0.0040811966 -0.033514638 0.007521837 0.058169607 -0.0005609909 0.012276769 0.012948078
-0.00788824 -0.008449464 0.012979112 -0.008285264 0.024084583 -0.006152163 -0.051024873 -0.0101092
-0.050951578 0.047001157 0.02259531 -0.0048211087 0.029563561 0.007062942 -0.0163806 0.0121697085
-0.016669858 0.010421738 -0.0654263 0.047470674 0.07037958 0.05864104 -0.033192504 -0.039355353
0.0802182 0.07750295 0.0036190827 -0.014627943 0.28857118 -0.004332597 -0.16866532 0.0065683583
-0.045932885 0.08455482 0.019033846 -0.25885874 0.0038974555 -0.11462522 -0.0019097301 -0.001952905
0.018764671 0.03959083 -0.044550106 -0.053803436 0.040663306 0.027448665 0.06293553 0.04258859
-0.016904257 0.049226448 0.036554445 -0.0062582972 -0.0090887165 -0.010951008 -0.00353095 0.00030237008
-0.020097325 0.008717999 0.015272862 0.035902534 -0.020226587 0.04882828 -0.052270073 0.015268786
0.008151991 -0.004579987 0.034823958 -0.011122033 -0.05060012 -0.0139216455 0.00033336823 0.08291035
-0.029206404 -0.062155493 -0.03434609 0.0074884095 -0.010030836 0.03573642 0.0059734536 0.040264923
00000000: a869 01bd 29c7 1dbd 4ec3 8dbe 4f64 313d
00000010: 848d 5a3c 1f48 413b 772d a8bc b10c 093d
00000020: 427a 3fbc 0d2e 8a3d 42af 81bc eeda c5bc
00000030: bab4 443c 0f92 88bc 7be0 3c3c 99fc 823b
00000040: fb10 853b 9b7b 48bd cdc6 983d ef22 0fbb
00000050: 6d1b 7cbc 1879 a43c 3905 06bc 52aa 0ebd
00000060: 47fe 063c 68c4 2ebc e210 283d 1778 e2bc
00000070: 2d3e adbd 3552 773d 9463 7ebc 2b89 143c
00000080: 90c2 2f3c 9c4e cd3d d9e3 0dbc 5bb5 d9bb
00000090: 5c9c 363c 757d 43be ec93 043d 6ae3 7c3d
000000a0: 3088 f8bc 75c9 0dbc 8069 d93b ee7f 1d3c
000000b0: 6ea7 803c 136d 173c 2a78 683d 92b8 81bc
000000c0: 863c 403c 1231 f6bd fc39 bd3c bc34 193d
000000d0: c3da b03c 4937 a5bc 89b1 9b3b 0fba 4fbc
000000e0: 14b9 333c b6d4 1a3c 8f7a 3e3b 2eab abbc
000000f0: 7b77 f0ba b2f9 3c3d 96b4 f33c 7c1f 5e3c
00000100: 5956 103e a539 c03d 8ed1 8839 df87 f83b
00000110: 1a43 04bd 1b1e b13c 9e6b 3c3d 31b7 a0bb
00000120: 65f3 0e3c b34b c5bc c46a 5d3d 3c67 b03a
00000130: 819c dfbc c1c0 e3bd f421 ccbc 27f0 9d3c
00000140: 160c 123c 8b32 363d bbc0 dc3d 3a5d 67bc
00000150: df86 5c3d 1915 58bd 3a70 debb d6bd 4e3d
00000160: 5dbc 863c 0470 6ebd 9062 6838 54b2 c23d
00000170: 27c6 2d3d 737a babd a5b5 a2ba 4678 033c
00000180: fefe 9c3c d140 e33b 0ab8 4abc 0488 463d
00000190: a79a 5dbc eef7 adbc 0c2a ebbc 8fa1 1bbd
000001a0: b499 8b3d dd1a 433d 703c 73be 9e66 3cbd
000001b0: 432f 393d 6404 61bd a93f 303d 1e7a bdb8
000001c0: 39dc a2bc f663 1ebd 30ae afbc dc47 1d3c
000001d0: 925b a63c 075a 18bd aaea 9b3d e84f 02bd
000001e0: c2ab ebbc c354 323d 92f1 343d f391 253c
000001f0: 4aeb 043b 7a7d 1c3c 8b6a 6fbc 7fb3 2e3d
00000200: e354 023c 360c 2b3d 1994 8f3c 13db 343b
00000210: ee14 593d 72b0 7cbc e358 033d 7f46 983d
00000220: 7436 9e3c f892 18be e4a0 8ebc c83b c4bc
00000230: f08c 00bb b0cd 2c3c be30 6d3d 7392 423d
00000240: 5a3a c3bc 736b c53b 564e 1abd 59c4 573d
00000250: df4d 67bb aaff 38bc aada a23a c213 1bbe
00000260: a3dc 903b 64dc c13b 8b5b 1c3c ce3f b33d
00000270: ec37 503d 6719 2c3c 9ea4 a5bb 31fc 4a3d
00000280: 74b7 c1bc 204e 553d 89fd e13d efe5 e73b
00000290: 83f1 2cbc 381f 443d 19f8 e3bb f4ce f33b
000002a0: bc61 62be 8fbb 85bb a546 09bd be79 f63b
000002b0: 4143 6e3d 760f 13ba 8024 493c 2d24 543c
000002c0: ad3d 01bc 9f6f 0abc 57a6 543c eabe 07bc
000002d0: 084d c53c 1598 c9bb 75ff 50bd 0fa1 25bc
000002e0: 9ab2 50bd 4984 403d cd19 b93c 64fa 9dbb
000002f0: 482f f23c 4070 e73b 9c30 86bc 7563 473c
00000300: 3a8f 88bc f0bf 2a3c 39fe 85bd 9c70 423d
00000310: 2b23 903d 9631 703d ddf4 07bd 1433 21bd
00000320: 7149 a43d deb9 9e3d 222e 6d3b 0aaa 6fbc
00000330: 9abf 933e 75f8 8dbb 9ab6 2cbe 623b d73b
00000340: 1f24 3cbd 142b ad3d deec 9b3c 2289 84be
00000350: 746c 7f3b a1c0 eabd e94f faba 9ef8 ffba
00000360: 5eb8 993c ff29 223d 2c7a 36bd fe60 5cbd
00000370: 918e 263d 06dc e03c 58e4 803d 6071 2e3d
00000380: cc7a 8abc aca1 493d 1dba 153d 6712 cdbb
00000390: d7e8 14bc db6b 33bc 8367 67bb 6d87 9e39
000003a0: 25a3 a4bc f0d5 0e3c 073b 7a3c 890e 133d
000003b0: 3ab2 a5bc 2a00 483d 2519 56bd ee29 7a3c
000003c0: ee8f 053c b713 96bb 91a3 0e3d 3039 36bc
000003d0: 1242 4fbd 9d17 64bc edc7 ae39 e7cc a93d
000003e0: 4542 efbc c296 7ebd 7cae 0cbd 5561 f53b
000003f0: 6058 24bc 5a60 123d f6bc c33b d5ec 243d
