models1/ppo_800.pth (torch, 275264 bytes, 6 tensors)

net.0.weight f4 [256, 6]
-0.45103925 -0.45584163 0.13581382 0.3586326 -0.057546116 -0.35367215 -0.051109493 -0.02350574
0.43415242 -0.3621077 -0.10744161 0.4538784 -0.11177105 0.44713914 -0.009536143 -0.47654513
-0.1494609 -0.11701543 -0.31515223 0.2462083 0.19608726 -0.0053083003 -0.047342006 0.35991424
0.25577465 -0.11545297 -0.49135685 0.24880022 0.2058896 -0.20108321 0.09810941 -0.056043386
0.3584439 -0.0035844983 -0.25347355 0.21558248 0.02129195 0.15094596 0.44033435 0.26392603
0.06480951 -0.33541477 -0.3241464 -0.32117385 0.04406813 0.19504818 -0.08010918 0.27206805
-0.17879318 -0.24259426 0.32288352 -0.042885333 0.22096889 -0.25167966 0.20554876 0.2171205
0.44502363 -0.5126402 -0.22295398 0.19744746 0.015943393 -0.24595724 -0.23988678 -0.26194948
-0.12227725 -0.24112098 0.039898075 -0.25291723 -0.21307318 0.2729287 -0.10520436 -0.12455343
-0.13945486 0.10712608 -0.15677415 0.20301536 -0.30297598 -0.14308293 -0.03258309 0.11811082
0.2205403 0.30443358 -0.13313968 -0.37793455 0.33561406 0.16026261 -0.25845084 -0.006619251
-0.30614382 0.33350098 0.19322121 -0.22299011 -0.08679498 -0.38714814 -0.36435056 0.097215995
0.15612888 0.22641756 0.37845305 -0.124891214 -0.05612516 -0.33018357 -0.4191108 -0.18254153
-0.043700196 -0.30668262 0.013850395 0.11838074 -0.4061812 0.27028975 -0.46610206 -0.32920262
-0.11673904 0.22443198 0.16622828 0.21925217 -0.17438607 0.3937911 -0.13790561 -0.22392006
-0.09414758 0.14205176 -0.0629689 0.28227267 0.23914915 0.3092058 0.34411559 0.21761414
-0.04775924 0.037326314 0.1014383 -0.3645623 -0.321474 0.07020274 0.3201135 -0.46556884
-0.10911228 0.42755044 0.18717778 -0.104870304 -0.123787135 -0.04484343 0.13648131 0.051407535
-0.07180039 0.2722426 -0.0068324558 0.01646534 0.25718823 -0.40941077 -0.2274521 0.31779465
-0.39998007 0.5919027 0.051813465 -0.22552487 0.20692253 0.09017491 -0.22823116 0.1462142
0.071252316 -0.19502416 0.10062848 -0.086788826 0.57323617 -0.52150273 0.034670386 -0.33114114
0.3227742 -0.39074808 0.18364674 0.33669057 -0.12187326 -0.13912673 -0.18544415 0.13766192
0.19697654 -0.28646478 -0.287979 0.0625516 -0.15227294 -0.27899575 -0.38385898 0.336549
0.37552822 0.2673596 0.0924771 -0.11555923 -0.4946827 0.2561145 0.07750897 -0.14053854
-0.18659186 -0.054413926 -0.18274935 0.35283068 -0.14564402 0.07772096 -0.0729451 0.2565969
-0.08795201 -0.02170314 0.1572413 0.1048139 -0.37333134 0.19690645 -0.2424651 0.36179888
-0.26240352 0.039248012 -0.28138998 0.11206033 0.3331747 0.23028235 -0.09671912 -0.047306035
0.23904982 0.285053 0.2229435 -0.35489684 -0.20193265 -0.26653373 -0.2227964 -0.19095896
0.42080164 -0.21665254 -0.2117268 -0.18823393 -0.061080977 0.17241655 -0.36360395 0.2931908
-0.215026 -0.027665514 -0.11427096 0.014169037 -0.008059755 0.12602925 -0.1718244 0.42212218
0.23071969 -0.38478065 -0.05280208 -0.23633192 0.14480585 -0.39345124 -0.5448161 -0.5644977
0.0117267 0.1670996 0.092421144 -0.05730951 0.26262867 -0.35173705 0.19003065 -0.5324367
00000000: 9eee e6be 1364 e9be c712 0b3e b19e b73e
00000010: 7ab5 6bbd 8414 b5be 3058 51bd 1c8f c0bc
00000020: 3a49 de3e 2e66 b9be 590a dcbd c062 e83e
00000030: 38e8 e4bd 6cef e43e 7c3d 1cbc b9fd f3be
00000040: 470c 19be c9a5 efbd a25b a1be 071e 7c3e
00000050: 19cb 483e 40f1 adbb b1e9 41bd ae46 b83e
00000060: e5f4 823e 9b72 ecbd 2093 fbbe 7cc5 7e3e
00000070: b9d4 523e c2e8 4dbe 96ed c83d c08d 65bd
00000080: f585 b73e e7e9 6abb 49c7 81be a7c1 5c3e
00000090: 756c ae3c 9491 1a3e 8173 e13e 5021 873e
000000a0: d9ba 843d 7cbb abbe 84f6 a5be e670 a4be
000000b0: c980 343d b6ba 473e 4810 a4bd 814c 8b3e
000000c0: 8f15 37be a16a 78be fd50 a53e 88a8 2fbd
000000d0: ab45 623e 28dc 80be 607b 523e d654 5e3e
000000e0: 23da e33e 633c 03bf 0c4e 64be ab2f 4a3e
000000f0: b89b 823c 37dc 7bbe e1a4 75be 3e1e 86be
00000100: 7f6c fabd 6be8 76be 2a6c 233d 5e7e 81be
00000110: db2f 5abe 50bd 8b3e 6275 d7bd de15 ffbd
00000120: 41cd 0ebe eb64 db3d 6789 20be 42e3 4f3e
00000130: ab1f 9bbe 5584 12be d975 05bd 16e4 f13d
00000140: 51d5 613e b8de 9b3e c555 08be a380 c1be
00000150: 9bd5 ab3e e21b 243e ab53 84be 4de6 d8bb
00000160: e2be 9cbe a4c0 aa3e c8db 453e 8557 64be
00000170: 91c1 b1bd 4838 c6be 288c babe 2e19 c73d
00000180: 40e0 1f3e 01da 673e 99c4 c13e f7c6 ffbd
00000190: 7fe3 65bd d20d a9be b195 d6be 2bec 3abe
000001a0: fafe 32bd 8105 9dbe c4ec 623c 9a71 f23d
000001b0: fbf6 cfbe 6b63 8a3e eea4 eebe 3f8d a8be
000001c0: e114 efbd 7fd1 653e bf37 2a3e a483 603e
000001d0: 4392 32be fd9e c93e 2137 0dbe 4d4b 65be
000001e0: 72d0 c0bd 0476 113e d7f5 80bd 0b86 903e
000001f0: 84e3 743e 3950 9e3e eb2f b03e 3ed6 5e3e
00000200: 319f 43bd 7ae3 183d e2be cf3d e9a7 babe
00000210: 3d98 a4be 74c6 8f3d ebe5 a33e 0a5f eebe
00000220: 4276 dfbd e4e7 da3e 88ab 3f3e 3ec6 d6bd
00000230: 1c84 fdbd bfad 37bd c2c1 0b3e b590 523d
00000240: 150c 93bd 6263 8b3e cbe2 dfbb 52e2 863c
00000250: 2dae 833e 4a9e d1be 34e9 68be fbb5 a23e
00000260: 30ca ccbe ef86 173f 5b3a 543d feef 66be
00000270: 80e3 533e a0ad b83d 6eb5 69be 2db9 153e
00000280: bcec 913d 6ab4 47be 4e16 ce3d 57be b1bd
00000290: 9bbf 123f 3481 05bf 8902 0e3d 558b a9be
000002a0: a942 a53e 2210 c8be e40d 3c3e b562 ac3e
000002b0: b098 f9bd 3d77 0ebe 12e5 3dbe 3ff7 0c3e
000002c0: 38b4 493e 83ab 92be fc71 93be 0e1b 803d
000002d0: 70ed 1bbe 88d8 8ebe 2a89 c4be 2750 ac3e
000002e0: 3c45 c03e 5ce3 883e a264 bd3d 51aa ecbd
000002f0: 0d47 fdbe 7121 833e 06bd 9e3d 56e9 0fbe
00000300: f011 3fbe 23e1 5ebd a522 3bbe 39a6 b43e
00000310: b523 15be 2b2c 9f3d 3e64 95bd ab60 833e
00000320: 2f20 b4bd c9ca b1bc dd03 213e aca8 d63d
00000330: 4925 bfbe d8a1 493e c548 78be b43d b93e
00000340: c159 86be 86c2 203d 5912 90be e37f e53d
00000350: e095 aa3e 23cf 6b3e ad14 c6bd f9c3 41bd
00000360: 7ac9 743e 78f2 913e 4d4b 643e 0ab5 b5be
00000370: 6fc7 4ebe 1c77 88be bd24 64be bf8a 43be
00000380: 5073 d73e 2ada 5dbe e9ce 58be 65c0 40be
00000390: 0c30 7abd f78d 303e 4c2a babe 1b1d 963e
000003a0: c72f 5cbe caa2 e2bc e506 eabd 4025 683c
000003b0: 100d 04bc d00d 013e bcf2 2fbe 6620 d83e
000003c0: c841 6c3e f801 c5be fe46 58bd ff00 72be
000003d0: fc47 143e 7172 c9be 1179 0bbf ec82 10bf
000003e0: 5821 403c 281c 2b3e 4c47 bd3d 60bd 6abd
000003f0: 4477 863e e116 b4be 6597 423e c64d 08bf

net.0.bias f4 [256]
-0.28764957 0.016274163 -0.33643577 -0.37865958 0.39953884 -0.40222365 -0.32636836 -0.33725676
0.12413235 0.021637155 0.078570545 -0.22446705 -0.1090452 -0.15703166 -0.3965558 0.26952848
0.35551563 0.07712869 -0.08028025 0.34374598 -0.30537733 -0.27955815 0.0706843 0.34682515
0.3593141 0.1692021 0.22382617 0.22683004 0.072858445 -0.0030211855 0.30200815 0.23191947
0.14164191 -0.32661083 -0.2138667 0.040978175 -0.37791753 0.4093551 0.19151485 -0.32856876
-0.21352394 -0.10407972 0.20224118 -0.24814594 -0.112221524 0.25695774 0.16770163 -0.45537314
0.15531422 0.24397376 -0.34169298 0.232506 -0.09788018 -0.14060634 -0.27840737 0.20080796
-0.2582135 0.19222927 0.043709744 -0.14763965 -0.08164219 0.19236174 -0.060040474 0.062306285
0.20141862 0.13718604 -0.17858517 0.21951503 0.19423011 0.25757167 0.09776218 -0.12446859
0.2448441 -0.4471679 -0.36187154 -4.7933856e-05 0.2510239 -0.3578493 0.22361988 -0.074885204
-0.12195956 -0.03902666 -0.027564183 -0.012875554 -0.17370053 0.06616363 0.27197647 0.36204314
0.0097156735 0.28441095 0.00033526745 0.13897714 0.23398082 0.00903795 0.1983912 0.26626536
-0.34417278 -0.248683 -0.31729874 0.06270195 -0.18323386 -0.21769957 0.16793795 0.2415256
0.14077662 -0.25425962 0.059854597 0.16038121 -0.37519842 0.2584814 0.014347241 0.36785713
0.32038894 -0.15232809 -0.20629494 -0.32542446 -0.124217406 -0.35161346 0.37482032 -0.37491295
-0.3180125 -0.083636686 0.085340336 0.1508453 0.33047387 -0.23431657 0.32952428 -0.5025248
0.3492982 -0.20267177 -0.07444322 0.08471309 0.29179916 -0.29199407 -0.089339964 0.16213228
0.043938965 0.025208034 -0.07948399 0.19877402 0.34348434 0.33515257 0.1465771 -0.029654311
0.3748399 0.26629466 -0.34122452 -0.07582089 0.30747947 0.21943308 -0.06404275 -0.31207654
-0.08117403 0.28511718 0.21485096 -0.25626868 -0.25390393 0.019890763 -0.27375293 0.13935116
-0.35746542 -0.1369533 -0.12889284 0.13935784 0.0264254 -0.3976747 0.34422272 0.33618215
0.3879897 -0.3432737 -0.34748536 -0.3598155 -0.26249993 -0.3111281 0.0014366317 0.3714964
0.20051019 -0.11329231 0.31341934 0.038954105 -0.32900622 -0.20614184 -0.40346873 -0.10607158
-0.44605997 0.17601863 0.3317519 -0.101341456 -0.054501466 -0.31501654 0.3191637 -0.0031932232
0.013782171 0.39095917 -0.20623109 -0.22022732 -0.1450341 -0.023127075 -0.09723582 -0.31415808
0.05080169 0.17538887 0.33597827 -0.009154249 0.21629636 -0.13222788 0.22185531 0.06280965
0.340189 0.19899713 -0.003668704 0.109114304 0.36176834 -0.4265587 -0.06382615 -0.15090933
-0.16756628 -0.16366498 -0.43607292 0.33560327 0.09160688 -0.35494593 0.20934111 -0.17931254
-0.24127313 0.19794916 -0.011328423 0.22908814 0.20807576 -0.20686796 -0.085700415 0.0056427326
-0.09657133 -0.06033699 -0.4561823 -0.0005085951 0.3183194 -0.24915436 0.40081483 0.3807832
-0.046013363 0.1598761 0.10329414 -0.1174615 0.29763326 -0.17878948 -0.17262879 0.23710719
-0.20692384 0.31947467 -0.4057066 -0.046749186 0.07894738 -0.024248779 0.24202359 -0.07166998
00000000: ce46 93be 6551 853c 4f41 acbe abdf c1be
00000010: 5b90 cc3e 42f0 cdbe c119 a7be ebac acbe
00000020: 1a39 fe3d 6740 b13c 98e9 a03d b1da 65be
00000030: 1753 dfbd e8cc 20be 5d09 cbbe a3ff 893e
00000040: 2506 b63e a6f5 9d3d f969 a4bd 79ff af3e
00000050: 6b5a 9cbe 3f22 8fbe eec2 903d 1193 b13e
00000060: 05f8 b73e 5143 2d3e b032 653e 2246 683e
00000070: cf36 953d 15ff 45bb d0a0 9a3e 4c7c 6d3e
00000080: 940a 113e 8939 a7be dfff 5abe bbd8 273d
00000090: 687e c1be fe96 d13e 781c 443e 2a3a a8be
000000a0: 05a6 5abe c027 d5bd 5018 4f3e f819 7ebe
000000b0: 66d4 e5bd f78f 833e fab9 2b3e ab26 e9be
000000c0: b10a 1f3e 42d4 793e 62f2 aebe 0e16 6e3e
000000d0: 6775 c8bd 1cfb 0fbe 698b 8ebe 9aa0 4d3e
000000e0: 8f34 84be c0d7 443e fd08 333d d92e 17be
000000f0: 0534 a7bd 7afa 443e 00ed 75bd e034 7f3d
00000100: af40 4e3e 7f7a 0c3e 08df 36be 8cc8 603e
00000110: 42e4 463e 6fe0 833e 8a37 c83d 63e9 febd
00000120: 69b8 7a3e 31f3 e4be 3a47 b9be 960c 49b8
00000130: 3486 803e 0638 b7be 9cfc 643e 6a5d 99bd
00000140: efc5 f9bd 6bda 1fbd 48ce e1bc fdf3 52bc
00000150: 8dde 31be cc80 873d 8040 8b3e b85d b93e
00000160: 7d2e 1f3c 509e 913e d6c6 af39 0650 0e3e
00000170: ab98 6f3e e913 143c 1027 4b3e ef53 883e
00000180: 6a37 b0be c2a6 7ebe fb74 a2be e169 803d
00000190: a8a1 3bbe a3ec 5ebe edf7 2b3e 7d52 773e
000001a0: bf27 103e 512e 82be 182a 753d f93a 243e
000001b0: 021a c0be ad57 843e b110 6b3c c557 bc3e
000001c0: 050a a43e e5fb 1bbe fb3e 53be 099e a6be
000001d0: b265 febd ae06 b4be 73e8 bf3e 97f4 bfbe
000001e0: 89d2 a2be b649 abbd eac6 ae3d 3177 1a3e
000001f0: df33 a93e aff0 6fbe 68b7 a83e 77a5 00bf
00000200: 37d7 b23e 3089 4fbe b075 98bd 0e7e ad3d
00000210: b366 953e 3f80 95be dff7 b6bd 0106 263e
00000220: 58f9 333d 1481 ce3c 81c8 a2bd 6b8b 4b3e
00000230: 2edd af3e 1e99 ab3e 4f18 163e 99ed f2bc
00000240: 04eb bf3e c657 883e fbb4 aebe fc47 9bbd
00000250: f36d 9d3e 11b3 603e d828 83bd 7fc8 9fbe
00000260: 923e a6bd e1fa 913e e401 5c3e a635 83be
00000270: b2ff 81be f4f1 a23c 5829 8cbe 12b2 0e3e
00000280: b505 b7be 7c3d 0cbe 7cfc 03be d2b3 0e3e
00000290: 157a d83c 059c cbbe f63d b03e 1120 ac3e
000002a0: 96a6 c63e 92c1 afbe 9ae9 b1be bd39 b8be
000002b0: 6466 86be 2f4c 9fbe 5c4d bc3a c734 be3e
000002c0: 8b52 4d3e cc05 e8bd 8078 a03e 578e 1f3d
000002d0: 8173 a8be d916 53be 7493 cebe 0e3c d9bd
000002e0: f961 e4be 3a3e 343e 63db a93e 1c8c cfbd
000002f0: ee3c 5fbd d949 a1be 6d69 a33e 6545 51bb
00000300: 9dce 613c cd2b c83e 3e2e 53be 4583 61be
00000310: d283 14be fe74 bdbc 9323 c7bd 54d9 a0be
00000320: 6f15 503d 2499 333e 5805 ac3e b4fb 15bc
00000330: cb7c 5d3e bf66 07be 0a2e 633e 59a2 803d
00000340: 412d ae3e e7c5 4b3e a46e 70bb 5277 df3d
00000350: b339 b93e e765 dabe 49b7 82bd fa87 1abe
00000360: 7f96 2bbe cb97 27be f344 dfbe 31d4 ab3e
00000370: 639c bb3d 79bb b5be 845d 563e b59d 37be
00000380: 4e10 77be 2fb3 4a3e da9a 39bc 1596 6a3e
00000390: d011 553e 32d5 53be b383 afbd ace6 b83b
000003a0: 31c7 c5bd eb23 77bd ba90 e9be 3d53 05ba
000003b0: c3fa a23e 5222 7fbe 9a37 cd3e 04f6 c23e
000003c0: 8278 3cbd 8fb6 233e e18b d33d a88f f0bd
000003d0: 6363 983e 9714 37be 9ac5 30be 3acc 723e
000003e0: d8e3 53be 2f92 a33e c7b8 cfbe 137c 3fbd
000003f0: 2aaf a13d 60a5 c6bc 08d5 773e b6c7 92bd

net.2.weight f4 [256, 256]
-0.054424964 -0.00012021703 -0.058927245 -0.031184427 0.03189987 -0.015315297 0.00842105 -0.007412952
-0.0008756854 0.017437564 -0.043156706 0.024053797 -0.0036621382 -0.05260013 0.051483274 0.03278175
0.048193775 -0.033413976 0.023961276 -0.04020561 -0.039744392 -0.025477022 0.024251161 -0.023931714
-0.020927828 -0.01249486 -0.050093282 0.034710187 -0.047866125 0.036976706 -0.032725655 -0.010328347
-0.04476503 -0.0010584369 0.04011433 -0.055766407 -0.051189173 0.04762725 -0.050051037 0.0011211135
-0.023808926 0.02603046 0.0037272177 0.0019015928 -0.040766183 0.04612163 0.04986443 0.014696136
-0.029588059 0.019944772 0.05469589 0.0332767 -0.028278427 0.05804164 0.049172647 0.015881982
0.005064975 0.009452446 0.002367705 0.021326467 0.059244797 0.0007333145 0.016944256 0.048942197
0.033629224 0.012116457 -0.023171037 -0.045251366 -0.034287117 -0.032198112 0.014514587 -0.015199922
-0.054323632 0.046267174 -0.004230976 0.044733897 -0.054978065 0.0004990183 0.01810757 0.04322976
0.018836508 0.015240046 -0.017789934 0.025605757 -0.011503243 -0.019788524 0.04400553 0.027106473
-0.011748777 -0.0474152 -0.042214803 0.044022515 -0.029805249 -0.054066695 -0.06588626 -0.023678517
-0.01465614 -0.050814793 -0.042616703 -0.046989005 -0.06894497 0.05545 0.055634085 -0.0028045967
0.048685413 0.024253383 -0.015216056 0.033020683 -0.023147456 -0.06394368 0.022991698 0.038317688
-0.011112204 -0.056590587 0.016015043 0.003483939 0.031284038 0.0035212636 0.04498108 0.031295314
-0.05238083 -0.01103957 0.04433683 0.042229317 0.03090351 -0.013757743 -0.020328198 -0.02778121
-0.00348425 -0.011983281 -0.04873818 -0.005194232 0.00655372 0.04192473 -0.032488227 0.029448468
0.04627963 -0.009182245 -0.0510998 -0.047078937 -0.026077468 -0.06147616 -0.0059727426 0.040044792
-0.032173768 -0.018622192 0.056769922 0.023797587 0.046814658 0.030941665 -0.0061600106 0.042143993
-0.017815623 -0.04705217 -0.06508362 -0.04900141 -0.041505247 0.04897669 -0.0395462 -0.066111505
0.02669169 -0.019728892 -0.021771288 -0.044095263 0.01659247 0.01692291 -0.045125656 0.053776033
-0.045134757 0.037930455 -0.058746792 0.043728054 -0.048682112 0.015990324 -0.03929711 -0.04927254
0.03858982 0.033241563 0.053999595 0.033882603 -0.023889966 -0.019637883 -0.02285494 -0.060613986
-0.009038918 0.028932147 0.05263379 -0.055393428 0.02125355 -0.06725238 0.013414696 0.0032155588
0.030237854 -0.0071835215 0.043244466 -0.033310752 0.011440804 0.02577276 0.026833937 0.024103351
-0.020516349 0.05120369 -0.054120537 -0.011339323 0.0202432 0.018234352 -0.026825001 -0.012264669
0.049209937 0.0050688996 -0.0008967858 0.036202356 -0.04636982 -0.023828737 -0.018477492 -0.007865615
-0.027003728 -0.0397755 0.04147401 -0.04474229 0.049490083 -0.01724202 0.015451026 0.041424476
0.031055704 0.04357485 -0.06731012 -0.059495293 -0.0685035 -0.043128114 0.006690145 0.0038558068
-0.021936705 -0.040677063 -0.030415857 0.06068993 -0.057848614 0.045444712 -0.054773975 -0.045061376
-0.053384162 0.055447325 -0.056735765 -0.043623343 -0.044632845 0.032288894 -0.04041883 -0.04991225
0.027431909 0.01874075 -0.020358376 0.0023637773 -0.009391624 0.021697052 -0.055293463 -0.059202626
00000000: b6ec 5ebd 071d fcb8 b25d 71bd 7c76 ffbc
00000010: 70a9 023d 03ed 7abc 72f8 093c 59e8 f2bb
00000020: 418e 65ba 39d9 8e3c 16c5 30bd 780c c53c
00000030: 7c00 70bb 3c73 57bd 20e0 523d 2846 063d
00000040: d666 453d 18dd 08bd 704a c43c a3ae 24bd
00000050: 04cb 22bd 30b5 d0bc 5faa c63c 710c c4bc
00000060: d670 abbc 3eb7 4cbc 9d2e 4dbd 452c 0e3d
00000070: 450f 44bd e374 173d 560b 06bd 3a38 29bc
00000080: 895b 37bd 40bb 8aba ec4e 243d 516b 64bd
00000090: bdab 51bd cb14 433d 5102 4dbd 54f2 923a
000000a0: f00a c3bc d53d d53c 5644 743b de3e f93a
000000b0: 71fa 26bd 09ea 3c3d a53e 4c3d 10c8 703c
000000c0: a862 f2bc 3863 a33c cc08 603d 264d 083d
000000d0: 29a8 e7bc 12bd 6d3d 4269 493d ee1a 823c
000000e0: 17f8 a53b 6fde 1a3c 802b 1b3b d8b4 ae3c
000000f0: acaa 723d e73b 403a aece 8a3c 9d77 483d
00000100: ccbe 093d 1b84 463c 30d1 bdbc 7f59 39bd
00000110: a670 0cbd 2be2 03bd 97ce 6d3c 1809 79bc
00000120: 7582 5ebd a682 3d3d 00a4 8abb e43a 373d
00000130: ae30 61bd 8dd0 023a 5456 943c b011 313d
00000140: 054f 9a3c 63b1 793c 32bc 91bc 2ac3 d13c
00000150: 1978 3cbc 8b1b a2bc 253f 343d 650e de3c
00000160: f17d 40bc 7136 42bd 6ee9 2cbd f450 343d
00000170: 232a f4bc 0a75 5dbd 60ef 86bd 73f9 c1bc
00000180: 4e20 70bc 2c23 50bd da8e 2ebd 8b77 40bd
00000190: 0533 8dbd 8a1f 633d 91e0 633d 53cd 37bb
000001a0: 5b6a 473d 08af c63c c44c 79bc b240 073d
000001b0: bc9f bdbc e7f4 82bd 1659 bc3c 02f3 1c3d
000001c0: f60f 36bc 88cb 67bd fb31 833c cc52 643b
000001d0: b123 003d 00c5 663b 153e 383d 842f 003d
000001e0: 488d 56bd 50df 34bc 899a 353d a6f8 2c3d
000001f0: 5c29 fd3c 2868 61bc 5287 a6bc 6c95 e3bc
00000200: 0458 64bb 8655 44bc b0a1 47bd 6034 aabb
00000210: 97c0 d63b 44b9 2b3d 6012 05bd ea3d f13c
00000220: b68f 3d3d 2071 16bc 064e 51bd d8d5 40bd
00000230: 6aa0 d5bc 6dce 7bbd ffb6 c3bb 0206 243d
00000240: a4c8 03bd 918d 98bc 9487 683d 28f3 c23c
00000250: bac0 3f3d 6079 fd3c ead9 c9bb 2e9f 2c3d
00000260: 12f2 91bc c7b9 40bd 904a 85bd b4b5 48bd
00000270: 6801 2abd c89b 483d 32fb 21bd 7865 87bd
00000280: 88a8 da3c 7c9e a1bc b359 b2bc 3c9d 34bd
00000290: efec 873c eaa1 8a3c aed5 38bd 4244 5c3d
000002a0: 39df 38bd f75c 1b3d 7aa0 70bd 301c 333d
000002b0: e566 47bd 24fe 823c 02f6 20bd 01d2 49bd
000002c0: 5c10 1e3d 4e28 083d ae2e 5d3d 7cc8 0a3d
000002d0: e4b4 c3bc a0df a0bc 483a bbbc 5f46 78bd
000002e0: f817 14bc 1c03 ed3c 8796 573d 38e4 62bd
000002f0: ed1b ae3c 9ebb 89bd 50c9 5b3c 20bc 523b
00000300: 60b5 f73c bf63 ebbb 1c21 313d db70 08bd
00000310: 3672 3b3c 6521 d33c d8d2 db3c 6474 c53c
00000320: e711 a8bc f6ba 513d 7fad 5dbd 91c8 39bc
00000330: 11d5 a53c 3560 953c 1bc0 dbbc c0f1 48bc
00000340: 5c90 493d 0319 a63b 4716 6bba ec48 143d
00000350: 48ee 3dbd 7c34 c3bc 1c5e 97bc c8de 00bc
00000360: ec36 ddbc a2eb 22bd a7e0 293d b143 37bd
00000370: 1db6 4a3d 233f 8dbc 4d26 7d3c b6ac 293d
00000380: 8868 fe3c 8b7b 323d e3d9 89bd 56b1 73bd
00000390: 904b 8cbd 1ba7 30bd 0139 db3b b4b1 7c3b
000003a0: 9bb4 b3bc fe9c 26bd ad2a f9bc 0196 783d
000003b0: abf2 6cbd 3c24 3a3d ad5a 60bd 4792 38bd
000003c0: 5aa9 5abd bc1c 633d c363 68bd 64ae 32bd
000003d0: eed0 36bd 5c41 043d 378e 25bd ca70 4cbd
000003e0: e2b8 e03c 3486 993c 9cc6 a6bc 9ae9 1a3b
000003f0: 53df 19bc 04be b13c 667b 62bd 747e 72bd

net.2.bias f4 [256]
0.011397199 -0.10146568 -0.0716201 0.038021386 0.011078346 -0.0012373977 0.031597033 -0.071174294
-0.024518998 0.13726701 0.041626487 -0.059953026 0.06622258 -0.034093153 0.08731145 -0.05464143
0.013191048 0.050332896 0.088127695 -0.012805963 0.011956108 0.041381825 0.090907045 -0.02945859
-0.039205164 -0.060006253 -0.019815248 0.025343224 -0.12179699 -0.014627466 0.031953342 0.117828645
-0.013384812 0.11194943 0.03902092 0.026799588 0.07603265 -0.119900614 0.053661533 -0.03994236
0.053882107 0.035085566 -0.061274 0.11216267 -0.025479503 0.08567176 0.022880513 0.03923655
0.13376532 -0.060308818 0.03942781 0.12981409 0.061938774 0.010980577 0.0486018 -0.0002933574
-0.03917051 -0.0012001735 0.090061165 0.026574157 0.10592035 -0.04836717 0.0019785005 0.07133793
0.020730028 0.08150796 0.04176791 -0.05472218 -0.07226231 0.02690269 0.07278788 0.043189503
0.03504031 -0.026253195 -0.052784216 0.031090863 -0.076022595 -0.07898742 -0.055381 -0.016280634
-0.011714649 0.12701564 0.06296551 -0.0063687535 -0.047208343 -0.015356372 -0.03964127 0.044326328
0.045781266 0.06335987 0.04761897 0.15977931 0.02947581 -0.05137386 -0.058405332 -0.015389419
0.03916546 0.083325714 0.01808671 0.051786806 -0.019487683 0.02554254 -0.027010301 0.0153937815
0.06114501 0.12260638 -0.087228805 -0.04470825 -0.018451078 -0.038005337 0.038307656 -0.05367081
-0.07406083 0.0053654485 -0.006259605 0.0065686204 0.0072298073 -0.027639022 0.12347744 0.002936557
-0.053766854 0.0015004505 -0.018737188 0.08150555 0.08857076 0.13956533 0.016923718 0.06952119
0.032473303 0.01960507 0.031351782 0.03161826 0.032513477 -0.06585878 -0.05397373 0.0972824
0.100243606 -0.03850685 -0.013122641 -0.06511112 0.030381044 -0.048758302 0.107944526 -0.060619317
-0.024360077 -0.038231242 -0.05013843 -0.05685327 -0.027344272 0.009978015 0.04499237 -0.07733841
-0.032772765 -0.038177982 0.07642982 0.08956947 -0.06519643 0.03395565 -0.010653516 -0.019278325
0.05021996 0.16185148 0.111390434 0.06470195 0.114985906 -0.058999978 0.0050370917 0.013697971
-0.006230002 -0.008198979 0.03168645 0.021442387 0.08405704 0.046150107 0.014789827 0.04189782
-0.068338566 0.032860048 0.019097714 0.095020704 -0.056999654 0.012598481 0.025846468 0.024988953
0.0064921607 0.026156636 0.1464451 0.022710016 -0.04006157 0.00042161526 0.007584164 -0.035110876
-0.04827981 -0.037714154 0.034048334 0.044420004 0.14800614 -0.040719606 -0.0139208315 -0.015168332
0.15357389 0.09821943 0.008050517 0.028042212 -0.0060820645 -0.022643901 0.013600746 0.06984668
-0.056421187 0.0672021 -0.05156763 -0.1275713 0.11240808 0.05199744 0.0010460645 -0.05935443
-0.030575812 -0.032262642 -0.028127434 -0.060224768 0.1400508 0.0060636215 0.06901753 0.064268
-0.042755302 -0.037892178 0.04864104 0.010596866 -0.012965148 -0.012767694 0.033148274 -0.003235723
-0.07995205 0.014341137 -0.023646953 0.14439267 0.026861466 0.097106814 0.06229358 -0.023740608
0.04502255 0.030681802 0.044831496 0.045165222 -0.0661908 -0.0185654 0.13976856 0.13509275
0.02337196 -0.00030819039 0.011330505 0.047407318 -0.032334525 0.027664449 -0.0041572363 0.113710985
00000000: 51bb 3a3c 3dcd cfbd 8fad 92bd 50bc 1b3d
00000010: f381 353c 2d30 a2ba e46b 013d d4c3 91bd
00000020: 11dc c8bc b98f 0c3e 8980 2a3d 4e91 75bd
00000030: b49f 873d 43a5 0bbd 58d0 b23d b1cf 5fbd
00000040: 441f 583c de29 4e3d 4b7c b43d 1ad0 51bc
00000050: 8de3 433c fd7f 293d 792d ba3d 2453 f1bc
00000060: 9895 20bd 1ec9 75bd 9653 a2bc 989c cf3c
00000070: b370 f9bd 0aa8 6fbc 82e1 023d 2550 f13d
00000080: f84b 5bbc be45 e53d 66d4 1f3d cf8a db3c
00000090: 02b7 9b3d 748e f5bd 32cc 5b3d 9a9a 23bd
000000a0: 7cb3 5c3d e2b5 0f3d 72fa 7abd 8bb5 e53d
000000b0: 64ba d0bc ad74 af3d ea6f bb3c 81b6 203d
000000c0: c7f9 083e 6106 77bd 0e7f 213d fced 043e
000000d0: 83b3 7d3d e1e7 333c ae12 473d c4cd 99b9
000000e0: 4271 20bd 244f 9dba fd71 b83d 0cb2 d93c
000000f0: c5ec d83d a71c 46bd bba9 013b 9f19 923d
00000100: 05d2 a93c a5ed a63d d414 2b3d 5d24 60bd
00000110: 43fe 93bd 0863 dc3c d011 953d 7ae7 303d
00000120: 6e86 0f3d f110 d7bc 4334 58bd 44b2 fe3c
00000130: bcb1 9bbd 28c4 a1bd 30d7 62bd f75e 85bc
00000140: cdee 3fbc 6310 023e 10f4 803d fab0 d0bb
00000150: 895d 41bd 4b99 7bbc e25e 22bd 868f 353d
00000160: 2385 3b3d d2c2 813d 1c0c 433d 309d 233e
00000170: 4177 f13c 666d 52bd 6e3a 6fbd e723 7cbc
00000180: f66b 203d aca6 aa3d 942a 943c 671e 543d
00000190: a2a4 9fbc 973e d13c b544 ddbc 3336 7c3c
000001a0: 3173 7a3d 0e19 fb3d 04a5 b2bd ff1f 37bd
000001b0: b726 97bc 7cab 1bbd 7de8 1c3d ecd5 5bbd
000001c0: 34ad 97bd a5d0 af3b 5f1d cdbb 953d d73b
000001d0: 05e8 ec3b 3b6b e2bc bde1 fc3d 4073 403b
000001e0: a23a 5cbd c4aa c43a bb7e 99bc 62ec a63d
000001f0: 9664 b53d 37ea 0e3e 9ca3 8a3c 2061 8e3d
00000200: ba02 053d d09a a03c ba6a 003d 2682 013d
00000210: da2c 053d f8e0 86bd 8f13 5dbd ff3b c73d
00000220: 854c cd3d 5cb9 1dbd 5800 57bc fb58 85bd
00000230: abe1 f83c c9b6 47bd 0512 dd3d f64b 78bd
00000240: c98e c7bc 5d98 1cbd f45d 4dbd f9de 68bd
00000250: 1801 e0bc d47a 233c eb49 383d 9a63 9ebd
00000260: bc3c 06bd 8460 1cbd 3d87 9c3d 3370 b73d
00000270: b585 85bd 1415 0b3d 168c 2ebc 94ed 9dbc
00000280: 72b3 4d3d 65bc 253e ab20 e43d 7582 843d
00000290: bb7d eb3d f6a9 71bd 300e a53b 746d 603c
000002a0: 0b25 ccbb 0355 06bc a7c9 013d f2a7 af3c
000002b0: 1926 ac3d e507 3d3d 0851 723c 0c9d 2b3d
000002c0: 17f5 8bbd 4298 063d cf72 9c3c 379a c23d
000002d0: 7878 69bd dc69 4e3c f9bb d33c a2b5 cc3c
000002e0: 31bc d43b 7146 d63c b4f5 153e 5b0a ba3c
000002f0: 9a17 24bd 3e0c dd39 9484 f83b 6cd0 0fbd
00000300: 0dc1 45bd 287a 1abd 4476 0b3d c0f1 353d
00000310: ec8e 173e 9ac9 26bd 3314 64bc 9884 78bc
00000320: 7942 1d3e 4527 c93d 51e6 033c c8b8 e53c
00000330: 0e4c c7bb b47f b9bc aad5 5e3c c70b 8f3d
00000340: e719 67bd 41a1 893d 9438 53bd 0da2 02be
00000350: 3536 e63d 45fb 543d 1a1c 893a a11d 73bd
00000360: 207a fabc d525 04bd 816b e6bc 3fae 76bd
00000370: 7a69 0f3e 58b1 c63b 1059 8d3d f19e 833d
00000380: 2f20 2fbd d434 1bbd d43b 473d 7a9e 2d3c
00000390: c66b 54bc 972f 51bc 7cc6 073d 6c0e 54bb
000003a0: e6bd a3bd 17f7 6a3c 41b7 c1bc acdb 133e
000003b0: 940c dc3c f0df c63d 8e27 7f3d aa7b c2bc
000003c0: 9169 383d 6758 fb3c 3ba1 373d 2bff 383d
000003d0: 0b8f 87bd 7716 98bc 7d1f 0f3e c155 0a3e
000003e0: 8d76 bf3c 9d94 a1b9 95a3 393c 2d2e 423d
000003f0: 3571 04bd 8ea0 e23c 6d39 88bb 4ee1 e83d

actor.weight f4 [1, 256]
0.010974159 0.027469277 0.058628622 -0.043660313 0.47891626 0.012913487 0.046569493 -0.014622924
0.0042220694 0.08715305 -0.014373004 -0.013445794 0.4426953 -0.004221883 0.30459017 0.024229102
0.41979 -0.006882593 -0.1121313 0.05010144 0.0014961385 -0.321514 0.31152073 -0.03504742
-0.35480592 -0.0036520795 0.052363925 -0.019917745 -0.34271133 -0.2465465 0.019554863 0.25981382
0.044684112 -0.032878842 -0.3156046 -0.23778859 0.4436199 0.22803003 -0.20211564 0.008015297
0.13274883 -0.3242797 0.053346403 0.026933674 -0.045536064 0.41393685 -0.0075861793 -0.28047317
0.15199038 0.088166855 -0.027615199 0.16991457 0.39281866 -0.27742055 0.34588358 -0.040921837
-0.35637522 -0.020017961 -9.3413495e-05 -0.02999235 0.12808725 0.024079593 0.24259135 -0.2367843
-1.1195511 0.028912961 -0.25679532 -0.0516793 0.008269344 -0.37669742 0.10847899 0.16050445
0.051215064 -0.0069363476 0.025263244 0.033855196 0.0070853783 0.013527915 -0.075963065 -0.22372787
0.48469582 -0.12758924 -0.350746 -0.37427214 0.0041673463 -0.012676197 -0.04485239 0.04111539
-0.24881521 0.38377762 0.0047187107 0.0021167 0.045729414 0.020905728 -0.0522423 0.43909216
0.052122176 0.20918496 -0.25372198 -0.04225002 0.06327938 0.016480707 -0.008455219 0.0057436414
0.00711407 -0.1708584 0.06810692 0.15130572 0.06003982 0.006998703 0.028555835 0.009826774
0.004741174 0.004775356 -0.0018006001 0.41171518 0.0016632981 -0.0037346943 0.06099092 -0.00082430115
0.04487724 0.038395304 0.05501562 -0.19344562 0.016812481 0.014191543 0.05299781 -0.10121695
0.031819843 -0.009268492 -0.008033492 -0.033622097 0.047019333 -0.29249436 -0.008183334 0.119965225
-0.15616031 -0.035490017 -0.04132229 0.046194024 -0.0011977346 -0.37933993 0.17702483 -0.020720959
0.0072712433 -0.01642676 0.00026030093 0.059836138 -0.03427208 -0.23375595 0.023039214 0.08442066
-0.004773695 -0.041263048 0.41711268 -0.018831361 0.022663176 0.08291483 0.46551308 0.039636254
0.030951167 0.04373812 -0.07678808 0.30460197 0.20691796 0.026515372 -0.28741378 0.42397222
0.037047505 0.41045728 0.021900805 0.31718913 0.04031229 0.42439333 0.050649457 0.0005053666
-0.046787854 -0.30995655 -0.33174682 0.12557667 0.047869258 0.043441422 -0.22696483 0.079179145
0.084596545 0.012254947 0.14921407 0.40615052 0.009072594 0.45995954 -0.039490316 -0.271027
-0.034206677 -0.31668878 -0.0665177 -0.032841224 0.13520223 -0.026666373 0.020242136 0.008826621
0.090358526 -0.14700082 -0.0646403 0.009308668 -0.23356278 -0.0030545148 -0.10188994 -0.23767672
-0.04502404 0.009462511 -0.41687962 0.103077285 0.118490055 0.28598624 -0.26218793 0.010359507
0.005672764 0.04206727 0.013747301 -0.013715971 0.0075403405 0.16391347 0.13894767 -0.024153823
-0.04353003 -0.012065455 0.162356 -0.038899876 0.018400641 -0.3216575 -0.02951331 -0.046850167
-0.064026326 0.43572575 0.04842298 0.19391227 -0.057431556 0.40458637 0.017276939 0.4448901
0.37225977 -0.403245 0.19354895 0.0353608 0.05344515 -0.048684824 -0.014315653 -0.121159226
-0.04524522 -0.26353577 -0.052791692 -0.17999958 -0.0067529446 -0.020554228 0.21054083 0.09853958
00000000: f6cc 333c 4007 e13c 9124 703d 28d5 32bd
00000010: 8334 f53e 1793 533c a7bf 3e3d fd94 6fbc
00000020: 4959 8a3b 4c7d b23d c07c 6bbc bf4b 5cbc
00000030: f5a8 e23e b957 8abb 3ef3 9b3e 1c7c c63c
00000040: b7ee d63e 6087 e1bb 18a5 e5bd 2b37 4d3d
00000050: 141a c43a 7c9d a4be a57f 9f3e e28d 0fbd
00000060: 1fa9 b5be ba57 6fbb 8e7b 563d 8a2a a3bc
00000070: dc77 afbe b076 7cbe 8531 a03c 5106 853e
00000080: b006 373d f7ab 06bd ed96 a1be da7e 73be
00000090: 2622 e33e b480 693e 67f7 4ebe 9852 033c
000000a0: 4fef 073e fd07 a6be c281 5a3d 02a4 dc3c
000000b0: 0684 3abd 88ef d33e 7c95 f8bb 2e9a 8fbe
000000c0: 5ea3 1b3e d390 b43d 4539 e2bc 16fe 2d3e
000000d0: 871f c93e 110a 8ebe a717 b13e a89d 27bd
000000e0: d076 b6be b5fc a3bc fde6 c3b8 84b2 f5bc
000000f0: 4e29 033e 9142 c53c de69 783e 9577 72be
00000100: 734d 8fbf e0da ec3c ad7a 83be acad 53bd
00000110: 257c 073c 7cde c0be 3c2a de3d 475b 243e
00000120: e3c6 513d 4d4a e3bb ddf4 ce3c bfab 0a3d
00000130: 762c e83b 30a4 5d3c 8692 9bbd eb18 65be
00000140: 0d2a f83e c1a6 02be fb94 b3be 99a0 bfbe
00000150: 3c8e 883b d3af 4fbc 24b7 37bd 9c68 283d
00000160: 6ac9 7ebe 807e c43e 6a9f 9a3b 55b8 0a3b
00000170: c44e 3b3d 7d42 ab3c 06fc 55bd b0d0 e03e
00000180: 107e 553d 9534 563e d9e7 81be 5b0e 2dbd
00000190: 9f98 813d 8c02 873c c287 0abc 2835 bc3b
000001a0: 251d e93b 81f5 2ebe a47b 8b3d e3ef 1a3e
000001b0: 50ec 753d 6055 e53b eded e93c 7a00 213c
000001c0: da5b 9b3b 977a 9c3b 1d02 ecba 55cc d23e
000001d0: 0603 da3a c6c1 74bb 9dd1 793d ea15 58ba
000001e0: 32d1 373d 6544 1d3d 0f58 613d 9c16 46be
000001f0: 54ba 893c a583 683c 3b14 593d d54a cfbd
00000200: 8655 023d e0da 17bc e89e 03bc 53b7 09bd
00000210: 5897 403d d2c1 95be 6413 06bc 54b0 f53d
00000220: 7de8 1fbe fb5d 11bd 9041 29bd f235 3d3d
00000230: 4efd 9cba d838 c2be ff45 353e 00bf a9bc
00000240: 9c43 ee3b 6a91 86bc 0079 8839 bd16 753d
00000250: e160 0cbd b85d 6fbe bcbc bc3c bde4 ac3d
00000260: a86c 9cbb 7103 29bd cb8f d53e 3a44 9abc
00000270: 20a8 b93c 40cf a93d bb57 ee3e a059 223d
00000280: 4d8d fd3c be26 333d 1243 9dbd caf4 9b3e
00000290: 4de2 533e c436 d93c e627 93be e312 d93e
000002a0: 20bf 173d 7527 d23e 5169 b33c 9d66 a23e
000002b0: 801e 253d 154a d93e ce75 4f3d 947a 043a
000002c0: 9fa4 3fbd a0b2 9ebe b8da a9be 2c97 003e
000002d0: 8e12 443d a2ef 313d 7869 68be ad28 a23d
000002e0: f440 ad3d f9c8 483c 93cb 183e f6f2 cf3e
000002f0: 38a5 143c d17f eb3e 99c0 21bd 0dc4 8abe
00000300: 4d1c 0cbd 0825 a2be 6f3a 88bd 8584 06bd
00000310: 7472 0a3e 7073 dabc d6d2 a53c 889d 103c
00000320: e40d b93d 6287 16be 2262 84bd 6283 183c
00000330: 152b 6fbe 412e 48bb acab d0bd 8761 73be
00000340: 216b 38bd a608 1b3c 3f71 d5be 2f1a d33d
00000350: eaaa f23d ca6c 923e 7f3d 86be ecba 293c
00000360: 98e2 b93b bb4e 2c3d 5c3c 613c f4b8 60bc
00000370: f614 f73b efd8 273e 4c48 0e3e 3dde c5bc
00000380: 8b4c 32bd 30ae 45bc a740 263e 7a55 1fbd
00000390: f1bc 963c 4bb0 a4be e6c5 f1bc f6e5 3fbd
000003a0: 3c20 83bd 7217 df3e 2d57 463d f090 463e
000003b0: 5a3d 6bbd f225 cf3e 5e88 8d3c a3c8 e33e
000003c0: d598 be3e 2176 cebe b231 463e 7cd6 103d
000003d0: 4de9 5a3d bd69 47bd 338c 6abc 5422 f8bd
000003e0: 0d53 39bd 29ee 86be 1a3c 58bd cf51 38be
000003f0: ce47 ddbb 5761 a8bc 0498 573e 1fcf c93d

critic.weight f4 [1, 256]
-0.031594902 -0.117535844 -0.21746211 0.043308552 0.0007821913 0.011301598 -0.020529492 0.03345937
-0.011686863 0.061772075 -0.025783202 -0.024152245 0.005915931 -0.016671209 0.004827572 0.003997397
0.0068153786 -0.048946004 0.06923903 -0.002184089 -0.14217229 0.018543439 0.007044635 -0.03980106
-0.00022624682 -0.010666944 0.041031726 -0.033769105 -0.04703001 0.0185447 -0.015526671 0.019623749
0.01072754 0.087208875 -0.011875503 -0.015624617 0.005764735 -0.06986071 0.04524367 0.061740316
0.012493819 -0.009626659 0.006634891 0.02188734 0.015704837 0.008133154 0.056755222 -0.014426158
0.03169358 -0.11013116 0.023098938 0.0381533 0.0019613875 0.007790157 0.00532796 -0.012678637
0.0037351344 -0.001694983 0.0051920507 -0.020955648 0.017574325 0.046136566 0.012120779 0.037612535
0.17146482 0.0072031086 0.018144464 0.015625117 -0.032290556 0.010887276 0.0081646405 0.015336149
0.008725022 -0.024083948 0.054056898 0.020577896 -0.027296307 -0.11120749 -0.024918534 0.0028545782
0.009778107 0.05090412 0.10384186 -0.014436733 0.05383956 -0.052754495 0.0015290603 0.05047401
0.032801982 -0.011565731 0.0395938 0.08466926 0.0424253 -0.018592492 -0.005122178 0.008711229
0.041300412 0.02095385 -0.00654956 0.04846956 -0.0135256415 -0.030720126 -0.028706573 -0.03799587
0.068504676 0.054797746 -0.11093568 -0.054410785 0.045211088 -0.054935828 0.04302946 -9.0349684e-05
-0.019880401 -0.03866955 -0.021445364 0.004890096 0.020307336 -0.03719523 0.06805897 -0.031814486
-0.028768424 0.043537866 0.054666225 0.035100408 0.061317068 0.06730919 -0.014612804 0.052111823
0.016507894 0.041759692 0.017526673 0.0027596399 0.052998476 -0.018137844 0.03206719 0.06824963
0.04004872 -0.19404414 -0.017410703 -0.023954287 -0.0019615255 0.008842663 0.055629317 0.047502946
-0.023831535 0.006024772 -0.037672363 0.052677486 -0.007475656 -0.00017008524 0.0012424786 -0.13460322
0.004420833 0.005916165 -0.0012622491 0.07896564 0.05083458 -0.022911172 0.0066489703 0.049556915
-0.023647048 0.055479985 0.095506825 0.021830881 0.01453841 0.047881335 -0.009802168 0.008578018
-0.2083549 0.0017171109 -0.02311164 0.009920065 0.057485472 0.009149051 0.012276769 0.012948078
-0.00788824 0.006211019 -0.0007065045 -0.007912462 0.024084583 -0.006152163 0.009499961 -0.010246267
-0.09929095 0.054180436 0.036507033 0.0058849026 0.029563561 0.009787285 -0.0163806 -0.0069174836
-0.016663803 0.0012339015 -0.03478031 0.05497144 0.061291832 0.05864104 -0.033192504 -0.039355353
0.07219508 0.07035863 0.0036190827 -0.014627943 0.09483331 -0.004332597 -0.21648918 0.0062237596
-0.05329615 0.074624814 0.0067724646 -0.25885874 0.015085381 -0.043285016 0.0037657458 -0.001952905
0.018764671 0.03959083 -0.044550106 -0.053803436 0.04803419 0.032057427 0.060176663 0.049317222
-0.016904257 0.059403867 0.043094754 -0.0062582972 -0.0090887165 -0.0061284974 -0.00353095 0.00030237008
-0.02826223 0.007880071 0.015272862 0.037034966 -0.020226587 0.0113761285 0.01214638 0.0073643783
0.007154123 0.0022120578 0.03934694 -0.011122033 -0.05060012 -0.0139216455 0.03577577 0.07581905
-0.029206404 0.009426622 -0.03434609 -0.00966868 -0.010030836 0.03573642 0.00012990266 0.021309868
00000000: a869 01bd a2b6 f0bd 63ae 5ebe 4f64 313d
00000010: f80b 4d3a 562a 393c 772d a8bc b10c 093d
00000020: 427a 3fbc b704 7d3d 4b37 d3bc eeda c5bc
00000030: 6dda c13b 0f92 88bc 9c30 9e3b 99fc 823b
00000040: 8a53 df3b 9b7b 48bd 31cd 8d3d ef22 0fbb
00000050: 9d95 11be 69e8 973c aed6 e63b 7006 23bd
00000060: ab3c 6db9 68c4 2ebc e210 283d 7951 0abd
00000070: 8aa2 40bd 0eeb 973c 9463 7ebc fcc1 a03c
00000080: 90c2 2f3c 919a b23d 7891 42bc 65fe 7fbc
00000090: 1ae6 bc3b 2213 8fbd 6d51 393d 6ae3 7c3d
000000a0: e0b2 4c3c 22b9 1dbc 8069 d93b 144d b33c
000000b0: 6ea7 803c ec40 053c 2a78 683d b15b 6cbc
000000c0: 21d1 013d 728c e1bd fc39 bd3c a246 1c3d
000000d0: 9f8a 003b 9344 ff3b 2b96 ae3b 0fba 4fbc
000000e0: 28c9 743b 312a deba 1422 aa3b 2eab abbc
000000f0: 08f8 8f3c b2f9 3c3d 3b96 463c 9a0f 1a3d
00000100: 7994 2f3e 0e08 ec3b b3a3 943c 3f00 803c
00000110: 1a43 04bd 8c60 323c fcc4 053c 7944 7b3c
00000120: 65f3 0e3c b34b c5bc c46a 5d3d fa92 a83c
00000130: 819c dfbc c1c0 e3bd f421 ccbc e013 3b3b
00000140: 5a34 203c d780 503d 0bab d43d 0c88 6cbc
00000150: df86 5c3d 1915 58bd c06a c83a d6bd 4e3d
00000160: 5f5b 063d 317e 3dbc 1c2d 223d 1467 ad3d
00000170: 27c6 2d3d 484f 98bc f1d7 a7bb 8bb9 0e3c
00000180: 9f2a 293d 69a7 ab3c b19d d6bb 0488 463d
00000190: a79a 5dbc c6a8 fbbc 0c2a ebbc 8fa1 1bbd
000001a0: 2e4c 8c3d 9a73 603d 3f32 e3bd d8dd 5ebd
000001b0: 432f 393d 6404 61bd a93f 303d 1e7a bdb8
000001c0: 39dc a2bc f663 1ebd 30ae afbc 193d a03b
000001d0: 925b a63c 075a 18bd 8062 8b3d e84f 02bd
000001e0: c2ab ebbc c354 323d b1e9 5f3d 72c5 0f3d
000001f0: 9b27 7b3d 67d9 893d 8b6a 6fbc 3573 553d
00000200: 903b 873c 360c 2b3d 1994 8f3c 13db 343b
00000210: ee14 593d d195 94bc e358 033d 76c6 8b3d
00000220: 200a 243d 82b3 46be e4a0 8ebc c83b c4bc
00000230: f08c 00bb d1e0 103c 91db 633d 7392 423d
00000240: 5a3a c3bc 736b c53b 564e 1abd 59c4 573d
00000250: 59f6 f4bb e958 32b9 aada a23a 6dd5 09be
00000260: a3dc 903b 64dc c13b 0d72 a5ba bdb8 a13d
00000270: ec37 503d 36b0 bbbc 9bdf d93b 31fc 4a3d
00000280: 74b7 c1bc fb3e 633d 1599 c33d add6 b23c
00000290: 8332 6e3c 381f 443d 4699 20bc d18a 0c3c
000002a0: fd5a 55be ae10 e13a 9f54 bdbc c587 223c
000002b0: e375 6b3d e7e5 153c 8024 493c 2d24 543c
000002c0: ad3d 01bc ce85 cb3b b734 39ba 45a3 01bc
000002d0: 084d c53c 1598 c9bb b9a5 1b3c f5df 27bc
000002e0: 0e59 cbbd 4eec 5d3d 6688 153d 24d6 c03b
000002f0: 482f f23c d95a 203c 9c30 86bc 0fac e2bb
00000300: 8782 88bc ddba a13a cc75 0ebd bc29 613d
00000310: 250d 7b3d 9631 703d ddf4 07bd 1433 21bd
00000320: 04db 933d 2f18 903d 222e 6d3b 0aaa 6fbc
00000330: f737 c23d 75f8 8dbb 57af 5dbe aef0 cb3b
00000340: 104d 5abd e5d4 983d 8deb dd3b 2289 84be
00000350: ad28 773c a14b 31bd bbca 763b 9ef8 ffba
00000360: 5eb8 993c ff29 223d 2c7a 36bd fe60 5cbd
00000370: 80bf 443d a64e 033d ce7b 763d db00 4a3d
00000380: cc7a 8abc 7851 733d 2084 303d 6712 cdbb
00000390: d7e8 14bc 90d1 c8bb 8367 67bb 6d87 9e39
000003a0: 3186 e7bc 6a1b 013c 073b 7a3c fab1 173d
000003b0: 3ab2 a5bc f162 3a3c 9c01 473c e250 f13b
000003c0: 226d ea3b 2cf8 103b 422a 213d 3039 36bc
000003d0: 1242 4fbd 9d17 64bc 9d89 123d 0547 9b3d
000003e0: 4542 efbc 1e72 1a3c 7cae 0cbd 6269 1ebc
000003f0: 6058 24bc 5a60 123d 7b36 0839 0892 ae3c
