models1/ppo_200.pth (torch, 275264 bytes, 6 tensors)

net.0.weight f4 [256, 6]
-0.31258908 -0.3570976 0.2008121 0.4218172 -0.12173985 -0.33634847 -0.047299404 -0.034428775
0.40798065 -0.3308253 -0.108424716 0.45842174 -0.12274895 0.4439296 0.023242965 -0.46440262
-0.18481 -0.018448563 -0.27467984 0.29661837 0.18100715 -0.001992811 -0.06457006 0.40105692
0.3019954 -0.059548784 -0.45890802 0.23371196 0.2059908 -0.1699167 0.17036961 0.016160559
0.3601008 0.020637272 -0.31489787 0.18770291 0.063072614 0.19688357 0.3521634 0.255467
0.13775027 -0.3576194 -0.29980856 -0.2909213 0.115980506 0.23916063 -0.14888808 0.31400934
-0.08991997 -0.16648696 0.35401067 0.039485157 0.22424597 -0.23236397 0.25065616 0.24636517
0.45427763 -0.44180763 -0.25990248 0.23510467 -0.004122531 -0.2783729 -0.37772453 -0.32644206
-0.17170873 -0.15152495 0.039898075 -0.25291723 -0.21307318 0.2729287 -0.10520436 -0.12455343
-0.07969537 0.15761518 -0.0417889 0.294036 -0.33716518 -0.019211397 0.02367039 0.19260685
0.11268112 0.19127923 -0.04765911 -0.44656238 0.36886978 0.19306575 -0.29316944 -0.014562512
-0.33785936 0.33286965 0.1947243 -0.23560393 -0.114330664 -0.41907114 -0.38664758 0.11700341
0.19759241 0.25639826 0.39058635 -0.08754066 -0.07610793 -0.29667744 -0.34178793 -0.08861773
-0.060779467 -0.28499135 -0.05465529 0.23729613 -0.41257894 0.2472639 -0.48832086 -0.35388708
-0.09110007 0.26622054 0.20088212 0.255778 -0.14244603 0.40350765 -0.15842856 -0.18804002
-0.13496795 0.09956513 -0.008761004 0.30135325 0.16791469 0.37316707 0.30467036 0.1808959
-0.122677684 -0.014905644 0.033446662 -0.28164482 -0.30488107 0.07285353 0.31345412 -0.40875754
-0.13378583 0.4482259 0.23657939 -0.059046973 -0.10341803 -0.03262514 0.10558575 0.102726914
-0.028445706 0.3088033 -0.011652836 0.009866028 0.27330133 -0.38528463 -0.22836581 0.32744983
-0.38077402 0.5574129 0.05584612 -0.21988237 0.25764492 0.14454895 -0.21439254 0.13054796
0.056825124 -0.16331497 0.11563488 -0.086462446 0.5520275 -0.47927064 0.04969074 -0.34757578
0.36793765 -0.34328198 0.25007212 0.38449067 -0.15622978 -0.09205502 -0.17771715 0.13513222
0.14534967 -0.27131343 -0.30201143 0.05897674 -0.118996 -0.23336059 -0.33767605 0.33296585
0.34766504 0.29909554 0.058496762 -0.124281615 -0.5708934 0.14893529 0.06514573 -0.13099326
-0.20870642 -0.064436644 -0.14242306 0.34863427 -0.16285844 0.09554807 -0.0729451 0.2565969
-0.08795201 -0.02170314 0.1572413 0.1048139 -0.29210356 0.28541398 -0.15039575 0.40993932
-0.339311 0.12908544 -0.25757548 0.13118501 0.37888062 0.29475707 -0.120999865 0.0030266936
0.23390763 0.2817184 0.28426492 -0.28820926 -0.26972756 -0.27087387 -0.24160875 -0.22396758
0.40592608 -0.2049729 -0.20068647 -0.19000041 -0.021282561 0.21848068 -0.3250932 0.29721096
-0.2562036 0.017829463 -0.18360265 -0.060983572 0.046522055 0.18579349 -0.17698151 0.46700484
0.23071969 -0.38478065 -0.05280208 -0.23633192 0.14480585 -0.39345124 -0.35449457 -0.38843998
0.21207497 0.35814196 -0.04129705 0.09835418 0.2894094 -0.33882123 0.19958831 -0.46641076
00000000: ad0b a0be 7fd5 b6be b0a1 4d3e 6df8 d73e
00000010: be52 f9bd de35 acbe 05bd 41bd 3005 0dbd
00000020: d7e2 d03e ef61 a9be c70d debd 41b6 ea3e
00000030: cd63 fbbd be4a e33e 0868 be3c 2ec6 edbe
00000040: d53e 3dbe 7121 97bc d6a2 8cbe 5dde 973e
00000050: f059 393e d299 02bb 4f3d 84bd 5557 cd3e
00000060: 249f 9a3e 6de9 73bd fef5 eabe 3052 6f3e
00000070: 41ef 523e a5fe 2dbe 5f75 2e3e 2663 843c
00000080: 225f b83e 7f0f a93c 4b3a a1be 3135 403e
00000090: 372c 813d d99b 493e c34e b43e 92cc 823e
000000a0: 680e 0d3e e419 b7be 8280 99be a3f3 94be
000000b0: 3087 ed3d 86e6 743e 1e76 18be d5c5 a03e
000000c0: f627 b8bd 8f7b 2abe e340 b53e 30bb 213d
000000d0: bca0 653e d2f0 6dbe 0156 803e 2747 7c3e
000000e0: 1497 e83e 9c34 e2be f011 85be 47bf 703e
000000f0: 4c16 87bb e586 8ebe 1c65 c1be 6a23 a7be
00000100: 6ad4 2fbe 5b29 1bbe 2a6c 233d 5e7e 81be
00000110: db2f 5abe 50bd 8b3e 6275 d7bd de15 ffbd
00000120: 5337 a3bd e065 213e d62a 2bbd e38b 963e
00000130: eaa0 acbe 3861 9dbc 68e8 c13c bb3a 453e
00000140: 5cc5 e63d b4de 433e 3336 43bd d3a3 e4be
00000150: 80dc bc3e 07b3 453e 4e1a 96be 9a97 6ebc
00000160: e7fb acbe e46d aa3e cf65 473e 2842 71be
00000170: 3226 eabd 7e90 d6be acf6 c5be 7c9f ef3d
00000180: aa55 4a3e a246 833e effa c73e 8448 b3bd
00000190: 79de 9bbd 1be6 97be d4fe aebe 367d b5bd
000001a0: e4f3 78bd 63ea 91be 3ade 5fbd c2fd 723e
000001b0: 8c3d d3be bf32 7d3e 3105 fabe b030 b5be
000001c0: ac92 babd 0f4e 883e 0bb4 4d3e 56f5 823e
000001d0: 5fdd 11be 8e98 ce3e 193b 22be 908d 40be
000001e0: 0a35 0abe cee8 cb3d 508a 0fbc f94a 9a3e
000001f0: d4f1 2b3e c10f bf3e c1fd 9b3e c63c 393e
00000200: 703e fbbd cd36 74bc 5eff 083d c033 90be
00000210: 5f19 9cbe 3b34 953d 0f7d a03e ab48 d1be
00000220: 27ff 08be dd7d e53e de41 723e 3ddb 71bd
00000230: d5cc d3bd f0a1 05bd 573d d83d 7d62 d23d
00000240: f806 e9bc 771b 9e3e 89eb 3ebc 1fa5 213c
00000250: 27ee 8b3e 0744 c5be bad8 69be 81a7 a73e
00000260: d0f4 c2be 9db2 0e3f e7be 643d d828 61be
00000270: 09ea 833e a404 143e b889 5bbe 5dae 053e
00000280: 76c1 683d 0a3c 27be fbd1 ec3d 3913 b1bd
00000290: ad51 0d3f f662 f5be 8488 4b3d 74f5 b1be
000002a0: 5362 bc3e a8c2 afbe 7409 803e f6db c43e
000002b0: b3fa 1fbe 5887 bcbd 7cfb 35be 1a60 0a3e
000002c0: 8bd6 143e 98e9 8abe 3ea1 9abe 9891 713d
000002d0: 2db4 f3bd 14f6 6ebe e0e3 acbe 807a aa3e
000002e0: 2701 b23e 0d23 993e 4d9a 6f3d 5c87 febd
000002f0: 1226 12bf 7e82 183e 206b 853d 1923 06be
00000300: 23b7 55be 5cf7 83bd 5ad7 11be 3180 b23e
00000310: 5dc4 26be b5ae c33d 3e64 95bd ab60 833e
00000320: 2f20 b4bd c9ca b1bc dd03 213e aca8 d63d
00000330: 998e 95be c821 923e 5801 1abe 91e3 d13e
00000340: 2cba adbe f92e 043e efe0 83be 5d55 063e
00000350: a4fc c13e 66ea 963e c7ce f7bd 7e5b 463b
00000360: 7b85 6f3e 653d 903e 2c8b 913e 2a90 93be
00000370: bb19 8abe fbaf 8abe 4968 77be c257 65be
00000380: 8bd5 cf3e 6ae4 51be c180 4dbe 788f 42be
00000390: c458 aebc 66b9 5f3e 9e72 a6be 092c 983e
000003a0: 1e2d 83be 180f 923c 5502 3cbe e9c9 79bd
000003b0: e98d 3e3d a640 3e3e a43a 35be 421b ef3e
000003c0: c841 6c3e f801 c5be fe46 58bd ff00 72be
000003d0: fc47 143e 7172 c9be 5080 b5be 9be1 c6be
000003e0: 2e2a 593e 625e b73e 1827 29bd eb6d c93d
000003f0: 782d 943e fa79 adbe e160 4c3e 64cd eebe

net.0.bias f4 [256]
-0.21199593 0.014445327 -0.31362298 -0.34834814 0.4052094 -0.34876248 -0.35631692 -0.2444405
0.15924743 0.0628381 0.12418068 -0.22446705 -0.024882317 -0.23749815 -0.36084837 0.28572074
0.37547356 0.17736407 -0.078064166 0.36106828 -0.21565996 -0.3491958 0.09383219 0.37699494
0.34901083 0.16345283 0.2359355 0.21527766 0.10348251 -0.002194814 0.32660168 0.2244836
0.14724359 -0.32661083 -0.11416836 0.069139086 -0.3591578 0.39794073 0.22415099 -0.20357369
-0.21352394 0.08798761 0.24670503 -0.17338535 -0.072616294 0.25633115 0.20936303 -0.43933633
0.021288006 0.24525335 -0.34169298 0.2541226 -0.05195202 -0.12652646 -0.27840737 0.20765303
-0.24864475 0.24691568 0.06157482 -0.112999104 -0.08164219 0.1940774 0.034070384 0.13581562
0.17990302 0.16678905 -0.12793674 0.21638511 0.18857875 0.24451967 0.15880468 -0.21391556
0.25494468 -0.3895179 -0.36187154 -0.09563174 0.2714215 -0.2899648 0.2137765 -0.1960813
-0.06527785 -0.0031315333 -0.000702475 0.002697122 -0.13352941 0.04945743 0.2993331 0.36690998
0.046071224 0.31947845 -0.06154652 0.17782503 0.26015365 0.03296138 0.25822547 0.3483667
-0.35306415 -0.18279189 -0.31729874 0.057203077 0.03289256 -0.21769957 0.16895248 0.27851197
0.176747 -0.25425962 0.042565793 0.19460094 -0.4089176 0.26002994 0.07278198 0.40406114
0.33498588 -0.057742227 -0.09610961 -0.27416503 -0.09829877 -0.30371606 0.3856474 -0.25850537
-0.3180125 -0.018227791 0.08620125 0.15125693 0.31365612 -0.23431657 0.3697178 -0.3934172
0.38102496 -0.12528512 -0.0054133004 0.20411026 0.22133859 -0.24672174 -0.112218164 0.16281177
0.08112231 -0.048022583 -0.04817983 0.18390347 0.3093742 0.30941808 0.19008575 -0.06933259
0.39851758 0.28676757 -0.34122452 -0.077662975 0.30948427 0.16828047 0.03412339 -0.31207654
-0.036624484 0.3031625 0.22127108 -0.25626868 -0.26921645 0.004933275 -0.23032458 0.15947421
-0.35746542 -0.13640141 -0.117143765 0.0023126854 0.056363206 -0.30722314 0.31114933 0.32084805
0.39035764 -0.33899724 -0.2551537 -0.3598155 -0.18171103 -0.3111281 -0.041681804 0.37263155
0.22281566 -0.12131641 0.3001332 -0.09665913 -0.32900622 -0.20614184 -0.40346873 -0.10857521
-0.40545228 0.038971115 0.34365705 -0.09759582 -0.07413462 -0.29267353 0.14862667 0.028568933
-0.06502356 0.39090982 -0.20623109 -0.1528285 -0.14270596 -0.01775178 -0.09723582 -0.31415808
0.049221803 0.2130124 0.31192404 0.017982323 0.22249718 -0.09550939 0.23231924 0.011877008
0.34221223 0.20537418 -0.006127739 0.08723114 0.38139609 -0.3441934 -0.022717971 -0.15090933
-0.21195406 -0.2474547 -0.4213346 0.3313061 0.119246244 -0.3053452 0.26124668 -0.32449776
-0.18909204 0.20292087 -0.014227157 0.2679676 0.20034336 -0.21873891 -0.013766903 0.11309587
-0.059870567 0.0041076667 -0.37771055 0.017590126 0.306865 -0.2313363 0.40295708 0.30649334
-0.024066996 0.18955693 0.10726923 -0.15906112 0.31958452 -0.17878948 -0.06750771 0.21702468
-0.116939284 0.33893037 -0.4057066 -0.044250447 0.12797059 -0.006158201 0.24447116 -0.065285064
00000000: 7615 59be 18ac 6c3c 3193 a0be b05a b2be
00000010: 9b77 cf3e ff90 b2be 2c6f b6be 9c4e 7abe
00000020: c211 233e 43b1 803d 7152 fe3d b1da 65be
00000030: 00d6 cbbc b732 73be 1ec1 b8be fd49 923e
00000040: 123e c03e ed9e 353e 1be0 9fbd f1dd b83e
00000050: f7d5 5cbe cbc9 b2be 172b c03d 7b05 c13e
00000060: 8cb1 b23e 2e60 273e 1399 713e bf71 5c3e
00000070: a3ee d33d ded6 0fbb 5638 a73e 07df 653e
00000080: 06c7 163e 8939 a7be 1ad1 e9bd cb98 8d3d
00000090: 88e3 b7be e3be cb3e d687 653e 9f75 50be
000000a0: 05a6 5abe d932 b43d 3ea0 7c3e ee8b 31be
000000b0: dab7 94bd d63d 833e 4363 563e b1f0 e0be
000000c0: 2f64 ae3c b223 7b3e 62f2 aebe 5c1c 823e
000000d0: a4cb 54bd 2790 01be 698b 8ebe ffa2 543e
000000e0: bb9c 7ebe 77d7 7c3e e135 7c3d 136c e7bd
000000f0: 0534 a7bd 3abc 463e 638d 0b3d 4013 0b3e
00000100: 7f38 383e c0ca 2a3e d901 03be 0f94 5d3e
00000110: ca1a 413e 5d63 7a3e b29d 223e ae0c 5bbe
00000120: 1c88 823e e46e c7be 3a47 b9be 93da c3bd
00000130: c2f7 8a3e 4476 94be 3ae8 5a3e 89c9 48be
00000140: 65b0 85bd 693a 4dbb 4d26 38ba 33c2 303b
00000150: efbb 08be e093 4a3d 3042 993e a0db bb3e
00000160: 2eb5 3c3d ae92 a33e 3418 7cbd c417 363e
00000170: dc32 853e 8302 073d 2136 843e 1f5d b23e
00000180: d3c4 b4be cc2d 3bbe fb74 a2be c64d 6a3d
00000190: 59ba 063d a3ec 5ebe e101 2d3e 1f99 8e3e
000001a0: 2afd 343e 512e 82be 7859 2e3d 7845 473e
000001b0: a65d d1be a522 853e b80e 953d 1ae1 ce3e
000001c0: 4583 ab3e 1d83 6cbd 1dd5 c4bd 5c5f 8cbe
000001d0: de50 c9bd ac80 9bbe 9373 c53e d15a 84be
000001e0: 89d2 a2be 7352 95bc 488a b03d 19e3 1a3e
000001f0: 8997 a03e aff0 6fbe a74b bd3e fb6d c9be
00000200: b415 c33e be4a 00be 0e62 b1bb 4802 513e
00000210: 95a6 623e a0a4 7cbe a3d2 e5bd 21b8 263e
00000220: 7423 a63d 54b3 44bd 3758 45bd 3151 3c3e
00000230: 4c66 9e3e 0c6c 9e3e d7a5 423e 3ffe 8dbd
00000240: 7f0a cc3e 33d3 923e fbb4 aebe c40d 9fbd
00000250: b974 9e3e b751 2c3e f8c4 0b3d 7fc8 9fbe
00000260: 8e03 16bd 1d38 9b3e e394 623e a635 83be
00000270: bdd6 89be 4fa7 a13b 35da 6bbe 354d 233e
00000280: b505 b7be d0ac 0bbe 12e9 efbd 6c90 173b
00000290: 1bdd 663d 5a4c 9dbe f74e 9f3e 3246 a43e
000002a0: f5dc c73e 0c91 adbe 81a3 82be bd39 b8be
000002b0: 7512 3abe 2f4c 9fbe 8aba 2abd 90c9 be3e
000002c0: ca29 643e bd74 f8bd 0fab 993e 39f5 c5bd
000002d0: 8173 a8be d916 53be 7493 cebe ae5c debd
000002e0: 7197 cfbe 2da0 1f3d d1f3 af3e 51e0 c7bd
000002f0: e4d3 97bd 4ed9 95be 9731 183e 6509 ea3c
00000300: 122b 85bd 5525 c83e 3e2e 53be 137f 1cbe
00000310: 8321 12be 2e6c 91bc 9323 c7bd 54d9 a0be
00000320: cd9c 493d ec1f 5a3e 82b4 9f3e aa4f 933c
00000330: 4dd6 633e 6d9a c3bd 18e5 6d3e c897 423c
00000340: 7136 af3e 9c4d 523e 33cb c8bb 3da6 b23d
00000350: 5946 c33e 1e3a b0be 0a1b babc fa87 1abe
00000360: 7c0a 59be c464 7dbe 2bb9 d7be f4a0 a93e
00000370: 6037 f43d 3556 9cbe 20c2 853e 9224 a6be
00000380: 58a1 41be 7dca 4f3e 0619 69bc 0d33 893e
00000390: cf26 4d3e 18fd 5fbe 948e 61bc cf9e e73d
000003a0: d73a 75bd 9b99 863b 4763 c1be 2b19 903c
000003b0: 691d 9d3e 6ce3 6cbe 6450 ce3e b2ec 9c3e
000003c0: 2628 c5bc 361b 423e f8af db3d ebe0 22be
000003d0: 95a0 a33e 9714 37be 7b41 8abd b83b 5e3e
000003e0: dd7d efbd 4888 ad3e c7b8 cfbe f53f 35bd
000003f0: b90a 033e bcca c9bb a656 7a3e 2db4 85bd

net.2.weight f4 [256, 256]
-0.054424964 -0.00012021703 -0.058927245 -0.031184427 0.03189987 -0.015315297 0.00842105 -0.007412952
-0.0008756854 0.017437564 -0.043156706 0.024053797 -0.0036621382 -0.05260013 0.051483274 0.03278175
0.048193775 -0.033413976 0.023961276 -0.04020561 -0.039744392 -0.025477022 0.024251161 -0.023931714
-0.020927828 -0.01249486 -0.050093282 0.034710187 -0.047866125 0.036976706 -0.032725655 -0.010328347
-0.04476503 -0.0010584369 0.04011433 -0.055766407 -0.051189173 0.04762725 -0.050051037 0.0011211135
-0.023808926 0.02603046 0.0037272177 0.0019015928 -0.040766183 0.04612163 0.04986443 0.014696136
-0.029588059 0.019944772 0.05469589 0.0332767 -0.028278427 0.05804164 0.049172647 0.015881982
0.005064975 0.009452446 0.002367705 0.021326467 0.059244797 0.0007333145 0.016944256 0.048942197
0.033629224 0.012116457 -0.023171037 -0.045251366 -0.034287117 -0.032198112 0.014514587 -0.015199922
-0.054323632 0.046267174 -0.004230976 0.044733897 -0.054978065 0.0004990183 0.01810757 0.04322976
0.018836508 0.015240046 -0.017789934 0.025605757 -0.011503243 -0.019788524 0.04400553 0.027106473
-0.011748777 -0.0474152 -0.042214803 0.044022515 -0.029805249 -0.054066695 -0.06588626 -0.023678517
-0.01465614 -0.050814793 -0.042616703 -0.046989005 -0.06894497 0.05545 0.055634085 -0.0028045967
0.048685413 0.024253383 -0.015216056 0.033020683 -0.023147456 -0.06394368 0.022991698 0.038317688
-0.011112204 -0.056590587 0.016015043 0.003483939 0.031284038 0.0035212636 0.04498108 0.031295314
-0.05238083 -0.01103957 0.04433683 0.042229317 0.03090351 -0.013757743 -0.020328198 -0.02778121
-0.00348425 -0.011983281 -0.04873818 -0.005194232 0.00655372 0.04192473 -0.032488227 0.029448468
0.04627963 -0.009182245 -0.0510998 -0.047078937 -0.026077468 -0.06147616 -0.0059727426 0.040044792
-0.032173768 -0.018622192 0.056769922 0.023797587 0.046814658 0.030941665 -0.0061600106 0.042143993
-0.017815623 -0.04705217 -0.06508362 -0.04900141 -0.041505247 0.04897669 -0.0395462 -0.066111505
0.02669169 -0.019728892 -0.021771288 -0.044095263 0.01659247 0.01692291 -0.045125656 0.053776033
-0.045134757 0.037930455 -0.058746792 0.043728054 -0.048682112 0.015990324 -0.03929711 -0.04927254
0.03858982 0.033241563 0.053999595 0.033882603 -0.023889966 -0.019637883 -0.02285494 -0.060613986
-0.009038918 0.028932147 0.05263379 -0.055393428 0.02125355 -0.06725238 0.013414696 0.0032155588
0.030237854 -0.0071835215 0.043244466 -0.033310752 0.011440804 0.02577276 0.026833937 0.024103351
-0.020516349 0.05120369 -0.054120537 -0.011339323 0.0202432 0.018234352 -0.026825001 -0.012264669
0.049209937 0.0050688996 -0.0008967858 0.036202356 -0.04636982 -0.023828737 -0.018477492 -0.007865615
-0.027003728 -0.0397755 0.04147401 -0.04474229 0.049490083 -0.01724202 0.015451026 0.041424476
0.031055704 0.04357485 -0.06731012 -0.059495293 -0.0685035 -0.043128114 0.006690145 0.0038558068
-0.021936705 -0.040677063 -0.030415857 0.06068993 -0.057848614 0.045444712 -0.054773975 -0.045061376
-0.053384162 0.055447325 -0.056735765 -0.043623343 -0.044632845 0.032288894 -0.04041883 -0.04991225
0.027431909 0.01874075 -0.020358376 0.0023637773 -0.009391624 0.021697052 -0.055293463 -0.059202626
00000000: b6ec 5ebd 071d fcb8 b25d 71bd 7c76 ffbc
00000010: 70a9 023d 03ed 7abc 72f8 093c 59e8 f2bb
00000020: 418e 65ba 39d9 8e3c 16c5 30bd 780c c53c
00000030: 7c00 70bb 3c73 57bd 20e0 523d 2846 063d
00000040: d666 453d 18dd 08bd 704a c43c a3ae 24bd
00000050: 04cb 22bd 30b5 d0bc 5faa c63c 710c c4bc
00000060: d670 abbc 3eb7 4cbc 9d2e 4dbd 452c 0e3d
00000070: 450f 44bd e374 173d 560b 06bd 3a38 29bc
00000080: 895b 37bd 40bb 8aba ec4e 243d 516b 64bd
00000090: bdab 51bd cb14 433d 5102 4dbd 54f2 923a
000000a0: f00a c3bc d53d d53c 5644 743b de3e f93a
000000b0: 71fa 26bd 09ea 3c3d a53e 4c3d 10c8 703c
000000c0: a862 f2bc 3863 a33c cc08 603d 264d 083d
000000d0: 29a8 e7bc 12bd 6d3d 4269 493d ee1a 823c
000000e0: 17f8 a53b 6fde 1a3c 802b 1b3b d8b4 ae3c
000000f0: acaa 723d e73b 403a aece 8a3c 9d77 483d
00000100: ccbe 093d 1b84 463c 30d1 bdbc 7f59 39bd
00000110: a670 0cbd 2be2 03bd 97ce 6d3c 1809 79bc
00000120: 7582 5ebd a682 3d3d 00a4 8abb e43a 373d
00000130: ae30 61bd 8dd0 023a 5456 943c b011 313d
00000140: 054f 9a3c 63b1 793c 32bc 91bc 2ac3 d13c
00000150: 1978 3cbc 8b1b a2bc 253f 343d 650e de3c
00000160: f17d 40bc 7136 42bd 6ee9 2cbd f450 343d
00000170: 232a f4bc 0a75 5dbd 60ef 86bd 73f9 c1bc
00000180: 4e20 70bc 2c23 50bd da8e 2ebd 8b77 40bd
00000190: 0533 8dbd 8a1f 633d 91e0 633d 53cd 37bb
000001a0: 5b6a 473d 08af c63c c44c 79bc b240 073d
000001b0: bc9f bdbc e7f4 82bd 1659 bc3c 02f3 1c3d
000001c0: f60f 36bc 88cb 67bd fb31 833c cc52 643b
000001d0: b123 003d 00c5 663b 153e 383d 842f 003d
000001e0: 488d 56bd 50df 34bc 899a 353d a6f8 2c3d
000001f0: 5c29 fd3c 2868 61bc 5287 a6bc 6c95 e3bc
00000200: 0458 64bb 8655 44bc b0a1 47bd 6034 aabb
00000210: 97c0 d63b 44b9 2b3d 6012 05bd ea3d f13c
00000220: b68f 3d3d 2071 16bc 064e 51bd d8d5 40bd
00000230: 6aa0 d5bc 6dce 7bbd ffb6 c3bb 0206 243d
00000240: a4c8 03bd 918d 98bc 9487 683d 28f3 c23c
00000250: bac0 3f3d 6079 fd3c ead9 c9bb 2e9f 2c3d
00000260: 12f2 91bc c7b9 40bd 904a 85bd b4b5 48bd
00000270: 6801 2abd c89b 483d 32fb 21bd 7865 87bd
00000280: 88a8 da3c 7c9e a1bc b359 b2bc 3c9d 34bd
00000290: efec 873c eaa1 8a3c aed5 38bd 4244 5c3d
000002a0: 39df 38bd f75c 1b3d 7aa0 70bd 301c 333d
000002b0: e566 47bd 24fe 823c 02f6 20bd 01d2 49bd
000002c0: 5c10 1e3d 4e28 083d ae2e 5d3d 7cc8 0a3d
000002d0: e4b4 c3bc a0df a0bc 483a bbbc 5f46 78bd
000002e0: f817 14bc 1c03 ed3c 8796 573d 38e4 62bd
000002f0: ed1b ae3c 9ebb 89bd 50c9 5b3c 20bc 523b
00000300: 60b5 f73c bf63 ebbb 1c21 313d db70 08bd
00000310: 3672 3b3c 6521 d33c d8d2 db3c 6474 c53c
00000320: e711 a8bc f6ba 513d 7fad 5dbd 91c8 39bc
00000330: 11d5 a53c 3560 953c 1bc0 dbbc c0f1 48bc
00000340: 5c90 493d 0319 a63b 4716 6bba ec48 143d
00000350: 48ee 3dbd 7c34 c3bc 1c5e 97bc c8de 00bc
00000360: ec36 ddbc a2eb 22bd a7e0 293d b143 37bd
00000370: 1db6 4a3d 233f 8dbc 4d26 7d3c b6ac 293d
00000380: 8868 fe3c 8b7b 323d e3d9 89bd 56b1 73bd
00000390: 904b 8cbd 1ba7 30bd 0139 db3b b4b1 7c3b
000003a0: 9bb4 b3bc fe9c 26bd ad2a f9bc 0196 783d
000003b0: abf2 6cbd 3c24 3a3d ad5a 60bd 4792 38bd
000003c0: 5aa9 5abd bc1c 633d c363 68bd 64ae 32bd
000003d0: eed0 36bd 5c41 043d 378e 25bd ca70 4cbd
000003e0: e2b8 e03c 3486 993c 9cc6 a6bc 9ae9 1a3b
000003f0: 53df 19bc 04be b13c 667b 62bd 747e 72bd

net.2.bias f4 [256]
0.011397199 -0.051769357 -0.009437042 0.038021386 -0.005538333 -0.0012373977 0.03666826 -0.071174294
-0.020562574 0.08595249 0.041626487 -0.059953026 0.054616936 -0.034093153 0.067255944 -0.051973447
-0.0011155466 0.050332896 0.036834057 -0.006288891 0.040317398 0.03051294 0.079290755 -0.02945859
-0.02612086 -0.060006253 -0.010315374 0.025343224 -0.050890446 -0.017966986 0.04081574 0.10450058
-0.013384812 0.05241412 0.055005454 0.05801614 0.06605966 -0.05567388 0.017248143 -0.03994236
0.034340747 0.048149545 -0.061274 0.08073674 -0.025479503 0.07321181 0.022880513 0.055012662
0.09980375 -0.033166256 0.03942781 0.0911714 0.05744417 0.018181482 0.028736467 -0.0002933574
-0.03201409 -0.0012001735 0.077809796 0.036851324 0.08079419 -0.04836717 0.005250774 0.041088603
0.015412215 0.07017898 0.02834747 -0.05472218 -0.068115406 0.025255006 0.059272178 0.020769017
0.03504031 -0.026253195 -0.052784216 0.031090863 -0.06667033 -0.036176205 -0.047611855 -0.017427059
-0.027695091 0.08379092 0.016901882 0.00035209244 -0.047208343 -0.015356372 -0.03964127 0.044326328
0.016268805 0.07536726 0.04761897 0.10015019 0.02947581 -0.021129765 -0.058405332 -0.036320813
-0.003239274 0.06445217 0.017753946 0.051786806 -0.019353133 0.02554254 -0.027010301 0.024899848
0.07182455 0.080466345 -0.07677413 0.014938065 -0.018451078 -0.038005337 0.048828334 -0.04755932
-0.07406083 0.0053654485 -0.006259605 -0.006994212 0.0072298073 -0.027639022 0.06948622 0.012439065
-0.053766854 0.0015004505 -0.018835785 0.04947616 0.04109489 0.09293064 0.024767 0.02448288
0.032473303 0.01960507 0.035761546 0.03886289 0.032513477 -0.03248538 -0.05397373 0.04209439
0.063593596 -0.035045743 -0.013122641 -0.06511112 0.030381044 -0.04708056 0.059200596 -0.060619317
-0.024360077 -0.029612677 -0.05013843 -0.05685327 -0.027344272 0.016077293 0.04499237 -0.0566957
-0.032772765 -0.038177982 0.061475147 0.03244367 -0.06519643 0.06545695 -0.026437411 -0.019278325
0.05021996 0.11128667 0.050620336 0.022000197 0.09747148 -0.058999978 0.020479254 -7.510937e-05
0.011012416 -0.029407535 0.03168645 0.0075421967 0.033780757 0.035169754 0.014789827 0.04189782
-0.068338566 0.049919676 0.031242324 0.09777645 -0.056999654 0.021850966 0.020553784 0.02602636
0.0542454 0.026156636 0.10839064 0.013092529 -0.04006157 -0.012062413 0.029624796 -0.03092261
0.0063178237 -0.023743339 0.0861773 -0.0042508245 0.09647994 -0.040719606 -0.0139208315 -0.015168332
0.097714156 0.04745219 0.06227604 0.028042212 0.04979157 -0.022643901 0.024437303 0.0722959
-0.0082456665 0.010651503 -0.045792937 -0.07754903 0.09435463 0.0552679 0.0011977013 -0.05935443
-0.030575812 -0.032262642 -0.018613053 -0.060224768 0.09722638 0.050322905 0.018212875 0.01864902
-0.042755302 -0.037892178 0.005712816 0.019664176 0.007743502 -0.00070419954 0.033148274 -0.003235723
-0.075373515 -0.00026752683 -0.023646953 0.10470629 0.031848643 0.08263689 0.04232214 -0.03744833
0.058221906 0.038935214 0.0033226965 0.048400197 -0.0661908 -0.0185654 0.10464435 0.08170467
0.032136794 0.007080407 0.017643465 0.06310058 -0.032334525 0.027664449 -0.0067442665 0.08686072
00000000: 51bb 3a3c 1b0c 54bd d39d 1abc 50bc 1b3d
00000010: e87a b5bb 2d30 a2ba 7531 163d d4c3 91bd
00000020: d872 a8bc dc07 b03d 8980 2a3d 4e91 75bd
00000030: 02b6 5f3d 43a5 0bbd 7cbd 893d 1ce2 54bd
00000040: 8837 92ba de29 4e3d 4fdf 163d 0b13 cebb
00000050: db23 253d 46f6 f93c 3163 a23d 2453 f1bc
00000060: 6afb d5bc 1ec9 75bd d001 29bc 989c cf3c
00000070: 8072 50bd 802f 93bc 682e 273d 6604 d63d
00000080: f84b 5bbc 30b0 563d 664d 613d 55a2 6d3d
00000090: 494a 873d 4b0a 64bd fa4b 8d3c 9a9a 23bd
000000a0: e2a8 0c3d 7538 453d 72fa 7abd 4e59 a53d
000000b0: 64ba d0bc 13f0 953d ea6f bb3c f554 613d
000000c0: e965 cc3d 57d9 07bd 0e7f 213d 12b8 ba3d
000000d0: 944a 6b3d 55f1 943c bd68 eb3c c4cd 99b9
000000e0: 3521 03bd 244f 9dba be5a 9f3d 6af1 163d
000000f0: 6d77 a53d a71c 46bd af0e ac3b 864c 283d
00000100: 8483 7c3c ffb9 8f3d f438 e83c 5d24 60bd
00000110: 1780 8bbd 96e3 ce3c 62c7 723d c923 aa3c
00000120: 6e86 0f3d f110 d7bc 4334 58bd 44b2 fe3c
00000130: 748a 88bd 802d 14bd a604 43bd 31c3 8ebc
00000140: d1e0 e2bc 939a ab3d d175 8a3c 0c99 b839
00000150: 895d 41bd 4b99 7bbc e25e 22bd 868f 353d
00000160: 2846 853c 265a 9a3d 1c0c 433d 8b1b cd3d
00000170: 4177 f13c 5418 adbc 6e3a 6fbd 22c5 14bd
00000180: 004a 54bb 80ff 833d b970 913c 671e 543d
00000190: 768a 9ebc 973e d13c b544 ddbc c4fa cb3c
000001a0: c018 933d 8acb a43d c13b 9dbd c9be 743c
000001b0: b726 97bc 7cab 1bbd 3800 483d 90cd 42bd
000001c0: 34ad 97bd a5d0 af3b 5f1d cdbb b42f e5bb
000001d0: 05e8 ec3b 3b6b e2bc cb4e 8e3d 38cd 4b3c
000001e0: a23a 5cbd c4aa c43a 814d 9abc 84a7 4a3d
000001f0: 1e53 283d 6b52 be3d 2ae4 ca3c 5290 c83c
00000200: ba02 053d d09a a03c b37a 123d b22e 1f3d
00000210: da2c 053d 640f 05bd 8f13 5dbd 2b6b 2c3d
00000220: 5c3d 823d 208c 0fbd 5800 57bc fb58 85bd
00000230: abe1 f83c 8cd7 40bd 537c 723d f64b 78bd
00000240: c98e c7bc 4996 f2bc f45d 4dbd f9de 68bd
00000250: 1801 e0bc 87b4 833c eb49 383d c039 68bd
00000260: bc3c 06bd 8460 1cbd 5dcd 7b3d a7e3 043d
00000270: b585 85bd 4b0e 863d 4593 d8bc 94ed 9dbc
00000280: 72b3 4d3d 44ea e33d 4557 4f3d c239 b43c
00000290: 219f c73d f6a9 71bd 1cc4 a73c 0984 9db8
000002a0: 6c6d 343c 12e8 f0bc a7c9 013d 8824 f73b
000002b0: b15d 0a3d 290e 103d 0851 723c 0c9d 2b3d
000002c0: 17f5 8bbd 9378 4c3d e7ef ff3c 053f c83d
000002d0: 7878 69bd cc00 b33c 6960 a83c 3c35 d53c
000002e0: 6d30 5e3d 7146 d63c e9fb dd3d 0c82 563c
000002f0: 9a17 24bd 6da1 45bc b3af f23c 6a51 fdbc
00000300: bf05 cf3b 6481 c2bc b97d b03d 804a 8bbb
00000310: 4697 c53d 9ac9 26bd 3314 64bc 9884 78bc
00000320: 5c1e c83d 3a5d 423d 2915 7f3d c8b8 e53c
00000330: 3ff2 4b3d b47f b9bc bd30 c83c df0f 943d
00000340: d518 07bc a483 2e3c 6091 3bbd 07d2 9ebd
00000350: 003d c13d 9860 623d 30fc 9c3a a11d 73bd
00000360: 207a fabc d525 04bd 677a 98bc 3fae 76bd
00000370: a01e c73d 641f 4e3d 2b33 953c d4c5 983c
00000380: 2f20 2fbd d434 1bbd 9332 bb3b c416 a13c
00000390: 34bd fd3b 089a 38ba 7cc6 073d 6c0e 54bb
000003a0: 6e5d 9abd d842 8cb9 41b7 c1bc 4070 d63d
000003b0: b973 023d 883d a93d fb59 2d3d 6c63 19bd
000003c0: 187a 6e3d 887a 1f3d 99c1 593b 493f 463d
000003d0: 0b8f 87bd 7716 98bc c74f d63d c754 a73d
000003e0: dfa1 033d c202 e83b 0789 903c e03a 813d
000003f0: 3571 04bd 8ea0 e23c 02ff dcbb 08e4 b13d

actor.weight f4 [1, 256]
0.010974159 0.042563062 0.07670659 -0.043660313 0.33065018 0.012913487 0.046569142 -0.014622924
-0.0013920665 0.07373118 -0.014373004 -0.013445794 0.29951084 -0.004221883 0.23522083 0.024229102
0.2766557 -0.006882593 -0.10865525 0.050030734 -0.08269345 -0.27615923 0.23012573 -0.03504742
-0.22353876 -0.0036520795 0.052363925 -0.019917745 -0.24319567 -0.24045025 -0.0020032958 0.22198105
0.044684112 -0.03418651 -0.24820411 -0.2095419 0.29810554 0.230229 -0.18928207 0.008015297
0.1180163 -0.22421382 0.053346403 0.025322208 -0.045536064 0.27136123 -0.0075861793 -0.23340239
0.12989555 0.03179455 -0.027615199 0.14453122 0.2631911 -0.20205922 0.22485693 -0.040921837
-0.24757074 -0.020017961 -0.0020755518 -0.018430948 0.112982534 0.024079593 0.22525664 -0.22445795
-0.6039953 0.012416318 -0.2430634 -0.0516793 -0.020190204 -0.26598787 0.09469647 0.14122663
0.051215064 -0.0069363476 0.025263244 0.033855196 -0.022904944 0.02057594 -0.061661296 -0.20376384
0.33189082 -0.12339145 -0.3235184 -0.2660858 0.0041673463 -0.012676197 -0.04485239 0.04111539
-0.23037268 0.28081083 0.0047187107 -0.0016718203 0.045729414 -0.011809413 -0.0522423 0.3040861
0.04723591 0.18170902 -0.17949076 -0.04225002 0.06320884 0.016480707 -0.008455219 0.0057436414
0.0060300953 -0.1611338 0.052822772 0.18667872 0.06003982 0.006998703 0.020127848 0.009638858
0.004741174 0.004775356 -0.0018006001 0.27841944 0.0016632981 -0.0037346943 0.052839827 -0.00040890276
0.04487724 0.038395304 0.05030868 -0.18000819 -0.020274859 0.013767503 0.04519306 -0.09462081
0.031819843 -0.009268492 -0.008007919 -0.03584505 0.047019333 -0.22935891 -0.008183334 0.106254786
-0.1485359 0.0018904993 -0.04132229 0.046194024 -0.0011977346 -0.29392043 0.15754445 -0.020720959
0.0072712433 -0.01642668 0.00026030093 0.059836138 -0.03427208 -0.21294817 0.023039214 0.10605666
-0.004773695 -0.041263048 0.29633546 -0.019011257 0.022663176 0.04676961 0.32079038 0.039636254
0.030951167 0.039745912 -0.07515453 0.21871272 0.18522853 0.026515372 -0.2314662 0.28283495
-0.046734493 0.26657245 0.021900805 0.2515921 0.031673674 0.24930319 0.050649457 0.0005053666
-0.046787854 -0.21991806 -0.23702794 0.11807727 0.047869258 0.043441422 -0.1898112 0.016170863
0.232655 0.012254947 0.12954721 0.26113594 0.009072594 0.3067601 -0.03508856 -0.22290222
-0.05857583 -0.1969276 -0.069530435 -0.035829935 0.11964723 -0.026666373 0.020242136 0.008826621
0.07946252 -0.1398096 -0.064660944 0.009308668 -0.17234449 -0.0030545148 -0.07194233 -0.20675
-0.04358315 0.007876695 -0.3184364 0.10724093 0.10146494 0.23918986 -0.19469881 0.010359507
0.005672764 0.04206727 0.013693228 -0.013715971 0.0043972307 0.19956312 0.12424909 -0.025156088
-0.04353003 -0.012065455 0.14467202 -0.038899876 0.03488418 -0.2173644 -0.02951331 -0.046850167
-0.094983645 0.30278465 0.04842298 0.17030229 -0.060634725 0.3057454 0.013749428 0.31429052
0.28673476 -0.29692575 0.17141463 0.035361975 0.05344515 -0.048684824 -0.016108528 -0.11645585
-0.045248616 -0.18905894 -0.05279171 -0.17359212 -0.0067529446 -0.020554228 0.19204625 0.082315505
00000000: f6cc 333c 9b56 2e3d 5818 9d3d 28d5 32bd
00000010: fb4a a93e 1793 533c 49bf 3e3d fd94 6fbc
00000020: 0076 b6ba 5f00 973d c07c 6bbc bf4b 5cbc
00000030: 7c59 993e b957 8abb bbdd 703e 1c7c c63c
00000040: d1a5 8d3e 6087 e1bb a586 debd 07ed 4c3d
00000050: 2f5b a9bd be64 8dbe 14a6 6b3e e28d 0fbd
00000060: 58e7 64be ba57 6fbb 8e7b 563d 8a2a a3bc
00000070: 4908 79be 9738 76be ba49 03bb 004f 633e
00000080: b006 373d 2707 0cbd 3829 7ebe 2792 56be
00000090: 4aa1 983e 27c1 6b3e 29d3 41be 9852 033c
000000a0: 88b2 f13d 4f98 65be c281 5a3d 8570 cf3c
000000b0: 0684 3abd dcef 8a3e 7c95 f8bb 0901 6fbe
000000c0: 5703 053e 013b 023d 4539 e2bc feff 133e
000000d0: fcc0 863e 9de8 4ebe e540 663e a89d 27bd
000000e0: 2f83 7dbe b5fc a3bc fb05 08bb 80fc 96bc
000000f0: 6363 e73d 9142 c53c ada9 663e 4ed8 65be
00000100: 709f 1abf d06d 4b3c 9de5 78be acad 53bd
00000110: ed65 a5bc 902f 88be 39f0 c13d b79d 103e
00000120: e3c6 513d 4d4a e3bb ddf4 ce3c bfab 0a3d
00000130: 26a3 bbbc e08e a83c 8e90 7cbd 78a7 50be
00000140: 98ed a93e a8b4 fcbd 34a4 a5be 663c 88be
00000150: 3c8e 883b d3af 4fbc 24b7 37bd 9c68 283d
00000160: d1e6 6bbe 70c6 8f3e 6a9f 9a3b fb20 dbba
00000170: c44e 3b3d 457c 41bc 06fc 55bd 2cb1 9b3e
00000180: 717a 413d ee11 3a3e 6dcc 37be 5b0e 2dbd
00000190: a373 813d 8c02 873c c287 0abc 2835 bc3b
000001a0: 1b98 c53b 4200 25be b15c 583d b528 3f3e
000001b0: 50ec 753d 6055 e53b 28e3 a43c 4dec 1d3c
000001c0: da5b 9b3b 977a 9c3b 1d02 ecba fe8c 8e3e
000001d0: 0603 da3a c6c1 74bb 936e 583d 0062 d6b9
000001e0: 32d1 373d 6544 1d3d 7910 4e3d 1154 38be
000001f0: 7617 a6bc 1891 613c 5c1c 393d 8ec8 c1bd
00000200: 8655 023d e0da 17bc a633 03bc 42d2 12bd
00000210: 5897 403d 10dd 6abe 6413 06bc 1c9c d93d
00000220: cc19 18be a1ca f73a 9041 29bd f235 3d3d
00000230: 4efd 9cba bd7c 96be 5553 213e 00bf a9bc
00000240: 9c43 ee3b 3f91 86bc 0079 8839 bd16 753d
00000250: e160 0cbd 160f 5abe bcbc bc3c 3c34 d93d
00000260: a86c 9cbb 7103 29bd 48b9 973e 7fbd 9bbc
00000270: 20a8 b93c 7e91 3f3d a33e a43e a059 223d
00000280: 4d8d fd3c 9ccc 223d 9eea 99bd 3af6 5f3e
00000290: 8cac 3d3e c436 d93c 7a05 6dbe becf 903e
000002a0: ab6c 3fbd 2f7c 883e 5169 b33c aed0 803e
000002b0: 41bc 013d 5649 7f3e ce75 4f3d 947a 043a
000002c0: 9fa4 3fbd 3332 61be 74b7 72be 7fd2 f13d
000002d0: 8e12 443d a2ef 313d de5d 42be c278 843c
000002e0: 1d3d 6e3e f9c8 483c 06a8 043e 9cb3 853e
000002f0: 38a5 143c a90f 9d3e 06b9 0fbd 7b40 64be
00000300: 36ed 6fbd 64a7 49be f965 8ebd 69c2 12bd
00000310: 9b09 f53d 7073 dabc d6d2 a53c 889d 103c
00000320: 3fbd a23d 3f2a 0fbe f56c 84bd 6283 183c
00000330: 137b 30be 412e 48bb 8056 93bd 46b6 53be
00000340: 3f84 32bd 410d 013c 190a a3be 22a1 db3d
00000350: dacc cf3d 30ee 743e 205f 47be ecba 293c
00000360: 98e2 b93b bb4e 2c3d 9059 603c f4b8 60bc
00000370: a516 903b 465a 4c3e 4f76 fe3d 2414 cebc
00000380: 8b4c 32bd 30ae 45bc e724 143e 7a55 1fbd
00000390: b7e2 0e3d c694 5ebe e6c5 f1bc f6e5 3fbd
000003a0: c986 c2bd 9706 9b3e 2d57 463d b963 2e3e
000003b0: 1e5c 78bd a98a 9c3e 4845 613c b0ea a03e
000003c0: e6ce 923e a706 98be 5187 2f3e b8d7 103d
000003d0: 4de9 5a3d bd69 47bd 08f6 83bc 6880 eebd
000003e0: 9d56 39bd ab98 41be 1f3c 58bd 22c2 31be
000003f0: ce47 ddbb 5761 a8bc c6a7 443e 0895 a83d

critic.weight f4 [1, 256]
-0.031594902 -0.028152034 0.00053229113 0.043308552 0.014638803 0.011301598 -0.027675206 0.03345937
-0.024619162 0.06128738 -0.025783202 -0.024152245 0.009682398 -0.016671209 -0.0009161463 -0.0018954352
0.011449873 -0.048946004 0.07334998 -0.0041104183 -0.13922049 0.043704413 0.009989515 -0.03980106
0.014244705 -0.010666944 0.050007686 -0.033769105 0.00073790905 0.06059102 -0.017074702 0.025851512
0.01072754 0.08458248 -0.008464595 0.019993028 0.014699306 -0.0034834046 0.058397662 0.061740316
0.039934866 -0.0071377265 0.006634891 0.05493649 0.015704837 0.0139745455 0.056755222 -0.00021813328
0.039281778 -0.034894343 0.023098938 0.042562596 0.011308715 -0.0044651907 0.00860071 -0.012678637
-0.015118631 -0.001694983 0.049863726 -0.032194417 0.042633604 0.046136566 0.0013700142 0.05195226
0.19036812 0.027229276 0.04667799 0.015625117 -0.033524737 0.00068275386 0.040506206 0.032968074
0.008725022 -0.024083948 0.054056898 0.020577896 -0.05321825 -0.11109841 -0.04271812 0.054138847
0.017062567 0.06627724 0.1169615 0.002586373 0.05383956 -0.052754495 0.0015290603 0.05047401
0.048397865 0.0047882195 0.0395938 0.08318626 0.0424253 0.007595932 -0.005122178 0.012756014
0.05764836 0.028638538 0.015218722 0.04846956 -0.01360492 -0.030720126 -0.028706573 -0.0473093
0.03340211 0.067563966 -0.07209874 0.0018956781 0.045211088 -0.054935828 0.050003648 -0.0050058356
-0.019880401 -0.03866955 -0.021445364 0.011506171 0.020307336 -0.03719523 0.06610938 -0.038420588
-0.028768424 0.043537866 -0.010391245 0.049889304 -0.09121542 0.058855373 -0.02421382 0.06505424
0.016507894 0.041759692 0.009658373 0.009492844 0.052998476 0.012659803 0.03206719 0.069727376
0.061363548 -0.021253234 -0.017410703 -0.023954287 -0.0019615255 0.010100398 0.059645556 0.047502946
-0.023831535 -0.0032740745 -0.037672363 0.052677486 -0.007475656 0.037134334 0.0012424786 -0.04228592
0.004420833 0.005916165 0.0062267757 0.07759997 0.05083458 0.037451275 0.0055874926 0.049556915
-0.023647048 0.065820634 0.09202912 0.012209759 0.029497232 0.047881335 -0.004007675 0.012378512
-0.03654197 0.011584114 -0.02311164 0.0026090199 0.06428318 0.012921413 0.012276769 0.012948078
-0.00788824 -0.0026421282 -0.011848974 0.032223534 0.024084583 -0.013170786 0.0052539897 -0.07287894
-0.0029681097 0.054180436 0.04608057 0.013428854 0.029563561 0.021863777 -0.020607207 -0.0023192435
0.031260196 0.015064219 0.040909637 0.06847631 0.06151186 0.05864104 -0.033192504 -0.039355353
0.068718255 0.07592286 0.03661319 -0.014627943 0.008356911 -0.004332597 -0.0437511 0.047457736
-0.07357306 0.07327419 0.00766586 -0.09222282 0.04125326 -0.0010688001 0.004952959 -0.001952905
0.018764671 0.03959083 -0.05389074 -0.053803436 0.055476535 0.015130781 0.06173188 0.06176151
-0.016904257 0.059403867 0.053450778 -0.014242105 0.008238683 -0.00022834534 -0.00353095 0.00030237008
-0.034094077 0.0052916184 0.015272862 0.043286428 -0.028404674 0.018653266 0.04867391 0.011084438
0.0017455217 -0.009543273 0.04427388 -0.012723104 -0.05060012 -0.0139216455 0.05082195 0.0779062
-0.03451036 -0.0061738538 -0.03450655 0.03907588 -0.010030836 0.03573642 0.028635422 0.042978432
00000000: a869 01bd 189f e6bc 7489 0b3a 4f64 313d
00000010: 97d7 6f3c 562a 393c 1db7 e2bc b10c 093d
00000020: 20ae c9bc 7a08 7b3d 4b37 d3bc eeda c5bc
00000030: eca2 1e3c 0f92 88bc 8a29 70ba 4070 f8ba
00000040: 4098 3b3c 9b7b 48bd 8438 963d b0b0 86bb
00000050: d18f 0ebe 6603 333d 10ab 233c 7006 23bd
00000060: a062 693c 68c4 2ebc dcd4 4c3d 7951 0abd
00000070: 3d70 413a 4a2e 783d 3fe0 8bbc 8dc6 d33c
00000080: 90c2 2f3c 9439 ad3d 16af 0abc 6bc8 a33c
00000090: 5cd5 703c d549 64bb 6332 6f3d 6ae3 7c3d
000000a0: be92 233d 97e3 e9bb 8069 d93b 1605 613d
000000b0: 6ea7 803c 7ef5 643c 2a78 683d b5ba 64b9
000000c0: eee5 203d 5fed 0ebd fc39 bd3c 1e56 2e3d
000000d0: 3048 393c bc50 92bb fee9 0c3c 0fba 4fbc
000000e0: 22b4 77bc 312a deba e83d 4c3d 4bde 03bd
000000f0: 93a0 2e3d b2f9 3c3d 0c92 b33a e5cb 543d
00000100: dcef 423e ee0f df3c 6c31 3f3d 3f00 803c
00000110: 3c51 09bd d6fa 323a d6e9 253d 8809 073d
00000120: 65f3 0e3c b34b c5bc c46a 5d3d fa92 a83c
00000130: 61fb 59bd 9087 e3bd 32f9 2ebd b2c0 5d3d
00000140: ccc6 8b3c 5dbc 873d 8389 ef3d 2380 293b
00000150: df86 5c3d 1915 58bd c06a c83a d6bd 4e3d
00000160: d73c 463d 7fe6 9c3b 1c2d 223d 8f5d aa3d
00000170: 27c6 2d3d 4ce7 f83b f1d7 a7bb 9afe 503c
00000180: b020 6c3d 5e9b ea3c f257 793c 0488 463d
00000190: 2ce7 5ebc c6a8 fbbc 0c2a ebbc 66c7 41bd
000001a0: a7d0 083d fa5e 8a3d 81a8 93bd 6778 f83a
000001b0: 432f 393d 6404 61bd a0d0 4c3d fe07 a4bb
000001c0: 39dc a2bc f663 1ebd 30ae afbc 6184 3c3c
000001d0: 925b a63c 075a 18bd 5b64 873d e85e 1dbd
000001e0: c2ab ebbc c354 323d 0a40 2abc ba58 4c3d
000001f0: 26cf babd 5512 713d 105c c6bc 283b 853d
00000200: 903b 873c 360c 2b3d 273e 1e3c e087 1b3c
00000210: ee14 593d 106b 4f3c e358 033d 3acd 8e3d
00000220: 5858 7b3d 431b aebc e4a0 8ebc c83b c4bc
00000230: f08c 00bb 247c 253c e64e 743d 7392 423d
00000240: 5a3a c3bc db91 56bb 564e 1abd 59c4 573d
00000250: 59f6 f4bb 2c1a 183d aada a23a 0034 2dbd
00000260: a3dc 903b 64dc c13b fb09 cc3b bcec 9e3d
00000270: ec37 503d 8266 193d 4917 b73b 31fc 4a3d
00000280: 74b7 c1bc f8cc 863d c379 bc3d 710b 483c
00000290: 2ea4 f13c 381f 443d d152 83bb 3ecf 4a3c
000002a0: 08ad 15bd 4ccb 3d3c 9f54 bdbc 17fc 2a3b
000002b0: e6a6 833d 56b4 533c 8024 493c 2d24 543c
000002c0: ad3d 01bc 8e27 2dbb 3322 42bc d3fc 033d
000002d0: 084d c53c 48ca 57bc a929 ac3b 8e41 95bd
000002e0: 9e84 42bb 4eec 5d3d fbbe 3c3d b204 5c3c
000002f0: 482f f23c aa1b b33c 72d0 a8bc 73fe 17bb
00000300: b10a 003d eacf 763c dd90 273d 4f3d 8c3d
00000310: dcf3 7b3d 9631 703d ddf4 07bd 1433 21bd
00000320: 28bc 8c3d 727d 9b3d b6f7 153d 0aaa 6fbc
00000330: 6deb 083c 75f8 8dbb 5a34 33bd 0b63 423d
00000340: 79ad 96bd c710 963d e531 fb3b 51df bcbd
00000350: 2ef9 283d fb16 8cba 6e4c a23b 9ef8 ffba
00000360: 5eb8 993c ff29 223d 89bc 5cbd fe60 5cbd
00000370: 5d3b 633d 18e7 773c 91da 7c3d a3f9 7c3d
00000380: cc7a 8abc 7851 733d 34ef 5a3d b857 69bc
00000390: 8bfb 063c fc6f 6fb9 8367 67bb 6d87 9e39
000003a0: 3ba6 0bbd 5065 ad3b 073b 7a3c 1c4d 313d
000003b0: ebb0 e8bc bcce 983c 4b5e 473d 819b 353c
000003c0: fdc9 e43a 635b 1cbc 8758 353d 9174 50bc
000003d0: 1242 4fbd 9d17 64bc ad2a 503d 498d 9f3d
000003e0: bc5a 0dbd 0a4e cabb bd56 0dbd 080e 203d
000003f0: 6058 24bc 5a60 123d d594 ea3c 270a 303d
