models1/ppo_250.pth (torch, 275264 bytes, 6 tensors)

net.0.weight f4 [256, 6]
00000000: 1505 aabe 25e9 bdbe 7964 403e bca4 d23e
00000010: 53dd c0bd 84d4 acbe 8e36 45bd c019 11bd
00000020: dcd1 d23e a829 acbe 26c5 dcbd 95ec eb3e
00000030: 4f50 f8bd 8fe9 e33e 085e 5f3d 70f1 debe
00000040: 1169 26be 52d2 f0bc 6664 94be cc8d 8f3e
00000050: 37c7 243e b322 dcbc f83e 31bd d4be c13e
00000060: 6caa 9a3e 304a 80bd a804 ecbe 92f6 733e
00000070: 9bff 5d3e 6524 30be 792f 253e 9670 353c
00000080: 1300 b63e 2294 123c c95f 9ebe 4529 463e
00000090: 33d9 8a3d 7425 4a3e 08aa ad3e d038 663e
000000a0: 620c 0e3e cdc3 c8be 31bc a0be 6571 99be
000000b0: 0f32 d73d fedf 6c3e 1719 00be 0ce3 9a3e
000000c0: 951c cfbd 3231 34be e92d b23e 66be ff3c
000000d0: 09e4 663e 67d2 77be 93a3 7a3e e591 763e
000000e0: ddf9 e73e 5d5c e8be 5aa2 83be 8781 6e3e
000000f0: ed05 f23a ccab 88be da02 b8be eab8 a5be
00000100: b740 34be 8aca 14be 2a6c 233d 5e7e 81be
00000110: db2f 5abe 50bd 8b3e 6275 d7bd de15 ffbd
00000120: a56c aebd f568 183e 8d59 6dbd 20c6 913e
00000130: d398 a2be 478d 11bd dea4 42bb 00f6 223e
00000140: d3d0 073e 15d1 503e bb2f 7cbd 2924 efbe
00000150: 6bf9 b13e 4405 333e bd3f 9fbe cb5d e5bc
00000160: 6cb9 abbe e766 9c3e 1771 553e 7634 63be
00000170: f2bc b7bd fd62 c8be f647 c6be 3233 0a3e
00000180: 1854 473e 8e73 803e 2fba c63e 365f c1bd
00000190: 9f90 89bd c8f6 98be 75df b3be 818d c7bd
000001a0: d540 c4bd 89e3 a7be c9e3 c2bc 19d9 563e
000001b0: 46fe d9be 74ff 703e ebe4 fabe 1a10 b2be
000001c0: dd69 aabd 9844 7f3e 9464 4c3e f565 803e
000001d0: 8d32 17be be94 cd3e 3580 15be 1984 44be
000001e0: 3f75 1bbe 0703 af3d 2f92 75bc a7b1 983e
000001f0: 924f 213e e472 bb3e 4d46 a33e 4ad0 483e
00000200: edd3 b9bd 38cd c73c 03f6 8a3c 3e60 92be
00000210: 36c0 9cbe 9a24 943d a953 a13e 941e d6be
00000220: 244e 09be f8b3 e53e ead3 703e 9159 83bd
00000230: c606 dbbd 1f71 12bd c1a7 f03d fa74 cb3d
00000240: e6b5 eabc 4f47 9c3e ce7d 5dbc 9cfb 053c
00000250: e632 913e acb2 c6be d393 66be 63ae a73e
00000260: 3651 c4be a51e 103f 9543 793d d45c 5fbe
00000270: 9592 823e eeb7 0d3e 7231 5ebe 5d73 073e
00000280: 818c 8a3d b895 29be 984e ea3d d64a b1bd
00000290: 62b4 0e3f 46d1 f7be bb5a 393d 2503 afbe
000002a0: 1bcb bb3e e559 b2be 29fe 783e 11b7 c23e
000002b0: 2475 13be a3f7 c6bd e483 31be aad2 113e
000002c0: f58e 203e 4354 8bbe 3f9f 9dbe 928d 723d
000002d0: a7ea 0abe c3dd 81be 3518 b6be 62bc a53e
000002e0: 9974 bc3e feec 943e 1009 043d 71ff 19be
000002f0: 5dae 16bf c393 e63d 9ed2 d03d 6a05 0ebe
00000300: 49af 4fbe 3f53 7dbd d001 1bbe 7808 b23e
00000310: 2446 1dbe 9565 bb3d 3e64 95bd ab60 833e
00000320: 2f20 b4bd c9ca b1bc dd03 213e aca8 d63d
00000330: d990 97be 6114 8f3e 50f2 26be dac1 d03e
00000340: 21eb a9be 10b3 f23d 59bd 85be cbf4 fd3d
00000350: baca bf3e fe56 933e a889 e0bd 8591 2ebb
00000360: e74a 623e a0bd 893e e6ca 883e def9 9dbe
00000370: e495 79be 89b7 89be 698e 79be 8b47 69be
00000380: 1f66 d03e d587 55be 226f 48be e705 43be
00000390: 2b6f cfbc f92a 583e 4dd0 aabe 48d9 963e
000003a0: e7c9 75be a3c8 243c 11f8 39be d1a8 60bd
000003b0: 94d7 273d 1d6c 393e 7aca 2cbe e035 e93e
000003c0: c841 6c3e f801 c5be fe46 58bd ff00 72be
000003d0: fc47 143e 7172 c9be 669e b0be 5765 c4be
000003e0: f854 4d3e 7107 b33e 6971 c9bc 5ece b53d
000003f0: f4d2 963e fb13 aabe 542f 563e 289a eebe
-0.33207002 -0.37091938 0.18788327 0.41141307 -0.09417214 -0.33755887 -0.04814773 -0.035424948
0.41175735 -0.3362553 -0.107797906 0.46078935 -0.12124693 0.4451413 0.054533035 -0.43543577
-0.16251017 -0.029397164 -0.28982848 0.2803787 0.1609162 -0.026872015 -0.043272942 0.37840903
0.30208147 -0.0626415 -0.46097302 0.23824528 0.21679537 -0.17201383 0.1613139 0.011074206
0.35546932 0.00894645 -0.30932453 0.1935168 0.06779709 0.1974085 0.33918786 0.2248261
0.13871911 -0.39211884 -0.3139358 -0.29969326 0.10507595 0.23132321 -0.12509571 0.30251348
-0.101128735 -0.17596892 0.34800652 0.031218719 0.22547926 -0.24201356 0.24476461 0.24079092
0.45307818 -0.45382968 -0.25709802 0.23291598 0.0018464901 -0.2669357 -0.35939676 -0.3236764
-0.17602812 -0.14530388 0.039898075 -0.25291723 -0.21307318 0.2729287 -0.10520436 -0.12455343
-0.08516816 0.14883788 -0.05794673 0.2847147 -0.3175722 -0.035535123 -0.002970032 0.15914154
0.13263254 0.20392258 -0.061568957 -0.46707276 0.34760603 0.17482477 -0.31103316 -0.027998826
-0.33539903 0.30547258 0.20843922 -0.22187981 -0.08971585 -0.39138022 -0.38726777 0.13496092
0.19465673 0.2508816 0.38813922 -0.09441988 -0.067170374 -0.2987578 -0.35131422 -0.097437866
-0.09582678 -0.32790783 -0.023790257 0.20981254 -0.42576808 0.23534948 -0.49002776 -0.3477791
-0.08320973 0.2492851 0.19960243 0.25077787 -0.14765377 0.40152544 -0.14599688 -0.19191016
-0.15181445 0.08545499 -0.014988466 0.29823038 0.1575301 0.36611092 0.31889573 0.19610706
-0.09073625 0.024389848 0.01696301 -0.28589052 -0.30615395 0.07233544 0.3150914 -0.41820204
-0.13408715 0.44863868 0.23518339 -0.06413568 -0.10694651 -0.035752412 0.117507465 0.09934421
-0.028651189 0.30523154 -0.013518764 0.008177664 0.28359145 -0.3880819 -0.22517328 0.32750234
-0.3834321 0.5629676 0.060855467 -0.21812755 0.25502458 0.13839695 -0.2169855 0.13227601
0.0676508 -0.1656102 0.11440772 -0.08656852 0.5574399 -0.4840185 0.045252543 -0.34182087
0.36678395 -0.3483421 0.24315704 0.38030294 -0.14400154 -0.09715202 -0.17335469 0.14240518
0.15679534 -0.27212724 -0.30785558 0.059217043 -0.13566075 -0.25364503 -0.35565343 0.32370287
0.36807707 0.2908706 0.032235205 -0.1503885 -0.5885981 0.11258652 0.10196422 -0.13869253
-0.2028171 -0.061846968 -0.1513741 0.34772086 -0.15358788 0.091502346 -0.0729451 0.2565969
-0.08795201 -0.02170314 0.1572413 0.1048139 -0.29602697 0.27945235 -0.16303372 0.40772897
-0.33187202 0.1185056 -0.26121023 0.12400206 0.37459356 0.28777307 -0.10963756 -0.002663703
0.22098885 0.26902485 0.267173 -0.30854696 -0.24373585 -0.2689784 -0.24370731 -0.22781198
0.40702912 -0.20852597 -0.19573644 -0.1904522 -0.025321564 0.21110143 -0.33362046 0.29462647
-0.24002801 0.010057601 -0.18161036 -0.054848496 0.040977076 0.18107648 -0.16874114 0.45548916
0.23071969 -0.38478065 -0.05280208 -0.23633192 0.14480585 -0.39345124 -0.34495848 -0.38358566
0.20051944 0.34966615 -0.024590211 0.08877252 0.2945782 -0.3321837 0.20916492 -0.46601987

net.0.bias f4 [256]
00000000: 69e0 6ebe 4426 443c c206 a5be 3a47 c1be
00000010: 6f7b d03e 25b9 b7be 7647 bcbe 48e7 8abe
00000020: 46f7 1b3e 5415 633d 6d1a 023e b1da 65be
00000030: 7188 18bd 599f 6bbe d7d6 c1be eec3 953e
00000040: d275 be3e 043d 143e 0dcc bfbd 3821 b83e
00000050: 4c17 72be 8939 a9be 6486 b53d 6e9f bf3e
00000060: 672b b33e 9600 2d3e 9d84 723e 54ca 5c3e
00000070: b2f4 cc3d 0fa1 0dbb 8de7 a13e 3531 4e3e
00000080: fd31 163e 8939 a7be 1b48 ffbd f219 803d
00000090: 123e c1be 142e ca3e ecb9 603e fae0 6bbe
000000a0: 05a6 5abe 1869 a03d 4a89 7b3e 7e10 48be
000000b0: db31 adbd 846d 833e 7aaf 5e3e 53ef e7be
000000c0: 8a4c 773d 25e1 7e3e 62f2 aebe 080f 823e
000000d0: d6d1 66bd 3761 17be 698b 8ebe 8e78 543e
000000e0: 9995 82be 80e3 763e 4e17 683d b5a1 02be
000000f0: 0534 a7bd 5c42 403e 5584 a83c 4ce2 103e
00000100: 491d 813e d453 253e c0c3 d4bd f34f 5b3e
00000110: ea59 413e f9fa 843e 6233 1d3e 8033 3abe
00000120: c386 7d3e 02bc d1be 3a47 b9be 7069 d9bd
00000130: be11 8a3e 19e3 a5be 4813 613e a29b 54be
00000140: 89be 9bbd a409 44bc 4d3b 9bbc 03f3 823b
00000150: 1a61 0ebe b1c7 4f3d ba45 963e cb94 bc3e
00000160: 7eb9 2f3d 86a7 a03e ca65 77bd b2bf 2f3e
00000170: 204f 823e 7297 db3c f27d 803e bf83 ab3e
00000180: f5b4 babe 471c 44be fb74 a2be ad5d 783d
00000190: 05aa 963b a3ec 5ebe e12e 0e3e b905 8d3e
000001a0: 0532 323e 512e 82be b852 6b3d a087 413e
000001b0: 41b5 c4be 64da 8a3e 3d75 923d 7b9c cd3e
000001c0: 8018 aa3e f4d0 d8bd 0b8a cabd db75 8bbe
000001d0: fff1 cebd 2f01 a6be f742 c43e 2e37 91be
000001e0: 89d2 a2be 77d6 eabc db77 a23d cd54 253e
000001f0: 5f8a a33e aff0 6fbe 1ec0 bb3e f071 d2be
00000200: bfbb c03e 2d1c 0dbe 788c 0cbd d1c5 413e
00000210: 66c7 333e 6582 8cbe f377 e0bd 1936 2a3e
00000220: 8414 893d 26df 17bd 2b96 36bd 3419 393e
00000230: c5a7 a63e c0cd a13e df9d 403e c2cd 95bd
00000240: b9e8 ca3e 83b1 933e fbb4 aebe f627 84bd
00000250: d8a5 9b3e 7467 0e3e fece 123d 7fc8 9fbe
00000260: 9daa 40bd 535b 9a3e 1c08 603e a635 83be
00000270: ba79 8fbe 4334 f13b 1f2c 73be 8611 203e
00000280: b505 b7be ebbb 2bbe 4ed2 f4bd b8f3 123e
00000290: aed4 573d b627 a8be 5054 a03e bd27 a53e
000002a0: 980c c83e 84ea b0be 16bf 8fbe bd39 b8be
000002b0: 44a6 55be 2f4c 9fbe b36b 04bd 6880 bf3e
000002c0: 7a57 613e f95b 26be b548 9a3e 5b15 e0bd
000002d0: 8173 a8be d916 53be 7493 cebe c002 d9bd
000002e0: 2248 d8be 2544 b13d 31ca ae3e 0fa7 ccbd
000002f0: c401 84bd c26e 9dbe 4d3c 4f3e c810 603b
00000300: 4c85 cabb 2da3 c83e 3e2e 53be 3904 2cbe
00000310: b664 13be 6ca2 c8bc 9323 c7bd 54d9 a0be
00000320: 8543 403d 1a8a 533e 4063 a23e 95db 863c
00000330: c480 6a3e b305 bbbd 595d 6b3e a456 663a
00000340: 0138 b23e 1b8c 553e bba7 19bd 27da bb3d
00000350: 5dd0 c03e c88d aebe 9e90 1abd fa87 1abe
00000360: d7b2 75be c464 7dbe c6db dabe 2f3b aa3e
00000370: c562 ea3d 73a8 9dbe 4ee2 813e 9224 a6be
00000380: 06b9 46be bcc3 513e b504 a9bc c45a 883e
00000390: 2b51 503e 3e35 5bbe ba8e 0bbd f501 df3d
000003a0: d35b 8ebd 0a55 9bbb e7fe c5be 875b 5bbb
000003b0: 867a 9e3e d387 67be 258f ce3e f561 a63e
000003c0: a578 cfbc aa50 5a3e 4cc8 f03d 964d 19be
000003d0: 1b8a a23e 9714 37be 32e2 66bd 8fc3 5c3e
000003e0: a239 ecbd 7f3b ac3e c7b8 cfbe acc2 11bd
000003f0: 0469 f83d edc8 03bc 4ac5 7f3e 95e9 87bd
-0.23327793 0.011972014 -0.32231718 -0.37749654 0.40719172 -0.35883442 -0.3677327 -0.2712958
0.15231046 0.055440262 0.12705393 -0.22446705 -0.037239496 -0.23010005 -0.37859222 0.29251045
0.37199265 0.144764 -0.093650915 0.35962844 -0.236417 -0.33051708 0.088635236 0.37426323
0.3499405 0.16894755 0.236834 0.21561557 0.100076094 -0.002161089 0.31621972 0.20135958
0.14667507 -0.32661083 -0.12464925 0.06254949 -0.37742668 0.3948828 0.21945924 -0.2303504
-0.21352394 0.07832545 0.2456409 -0.19537541 -0.08456775 0.2566949 0.21746626 -0.45299777
0.060375728 0.24890573 -0.34169298 0.25402093 -0.05635246 -0.14783178 -0.27840737 0.20749113
-0.2550476 0.24110222 0.05666285 -0.12756999 -0.08164219 0.18775314 0.020570913 0.14148825
0.25217655 0.16145259 -0.10388899 0.21417217 0.18881956 0.25972727 0.15351632 -0.18183708
0.24758439 -0.4096375 -0.36187154 -0.10615814 0.2696666 -0.32399824 0.21980011 -0.20762494
-0.07604701 -0.011965189 -0.018949175 0.0039962544 -0.13904229 0.05072755 0.29350072 0.3683227
0.04290151 0.3137781 -0.060399808 0.1716297 0.25450993 0.026805613 0.2509609 0.33498952
-0.36466184 -0.19151412 -0.31729874 0.06063621 0.0045979046 -0.21769957 0.1388507 0.2754343
0.17401893 -0.25425962 0.057451934 0.18899393 -0.38419536 0.27119744 0.07151268 0.40158448
0.33221817 -0.1058673 -0.09889611 -0.27238354 -0.10104751 -0.32422778 0.3833234 -0.2836241
-0.3180125 -0.028666718 0.07933017 0.1614563 0.31941506 -0.23431657 0.3667001 -0.41102552
0.3764324 -0.1378028 -0.03431365 0.18923117 0.17556533 -0.27443233 -0.109603785 0.16622199
0.06693366 -0.037078045 -0.044576805 0.1807602 0.32549873 0.31602287 0.18810223 -0.07314636
0.39630678 0.28846368 -0.34122452 -0.064529344 0.30399966 0.13906652 0.035841934 -0.31207654
-0.04703771 0.301478 0.21878093 -0.25626868 -0.28022557 0.0073609664 -0.237473 0.15631685
-0.35746542 -0.16770904 -0.11954175 0.14350784 0.05269306 -0.32842797 0.31314325 0.3225688
0.39072108 -0.3455392 -0.28075475 -0.3598155 -0.20864207 -0.3111281 -0.032329272 0.37402654
0.22006026 -0.16246022 0.30133596 -0.10941573 -0.32900622 -0.20614184 -0.40346873 -0.10596228
-0.42242533 0.08655576 0.34138635 -0.099928014 -0.06445649 -0.30748564 0.20237847 0.003418969
-0.006180441 0.39186993 -0.20623109 -0.16798486 -0.14393887 -0.024491511 -0.09723582 -0.31415808
0.04693939 0.2065815 0.31716347 0.016462127 0.22900683 -0.091319464 0.22984828 0.0008786714
0.34808353 0.20854227 -0.037513476 0.09172469 0.3765897 -0.34092546 -0.037735574 -0.15090933
-0.23994003 -0.2474547 -0.427458 0.33248278 0.1144462 -0.3079258 0.2536797 -0.32449776
-0.19406518 0.20484823 -0.020632127 0.2663175 0.20343463 -0.21407029 -0.03407166 0.10889045
-0.06951108 -0.004740362 -0.38671038 -0.0033471303 0.30952853 -0.22610407 0.40343586 0.3249661
-0.025326082 0.21319833 0.117569536 -0.14971003 0.3174599 -0.17878948 -0.05636806 0.21558975
-0.1153443 0.33639142 -0.4057066 -0.035586044 0.12129405 -0.00804351 0.24977604 -0.06636349

net.2.weight f4 [256, 256]
00000000: b6ec 5ebd 071d fcb8 b25d 71bd 7c76 ffbc
00000010: 70a9 023d 03ed 7abc 72f8 093c 59e8 f2bb
00000020: 418e 65ba 39d9 8e3c 16c5 30bd 780c c53c
00000030: 7c00 70bb 3c73 57bd 20e0 523d 2846 063d
00000040: d666 453d 18dd 08bd 704a c43c a3ae 24bd
00000050: 04cb 22bd 30b5 d0bc 5faa c63c 710c c4bc
00000060: d670 abbc 3eb7 4cbc 9d2e 4dbd 452c 0e3d
00000070: 450f 44bd e374 173d 560b 06bd 3a38 29bc
00000080: 895b 37bd 40bb 8aba ec4e 243d 516b 64bd
00000090: bdab 51bd cb14 433d 5102 4dbd 54f2 923a
000000a0: f00a c3bc d53d d53c 5644 743b de3e f93a
000000b0: 71fa 26bd 09ea 3c3d a53e 4c3d 10c8 703c
000000c0: a862 f2bc 3863 a33c cc08 603d 264d 083d
000000d0: 29a8 e7bc 12bd 6d3d 4269 493d ee1a 823c
000000e0: 17f8 a53b 6fde 1a3c 802b 1b3b d8b4 ae3c
000000f0: acaa 723d e73b 403a aece 8a3c 9d77 483d
00000100: ccbe 093d 1b84 463c 30d1 bdbc 7f59 39bd
00000110: a670 0cbd 2be2 03bd 97ce 6d3c 1809 79bc
00000120: 7582 5ebd a682 3d3d 00a4 8abb e43a 373d
00000130: ae30 61bd 8dd0 023a 5456 943c b011 313d
00000140: 054f 9a3c 63b1 793c 32bc 91bc 2ac3 d13c
00000150: 1978 3cbc 8b1b a2bc 253f 343d 650e de3c
00000160: f17d 40bc 7136 42bd 6ee9 2cbd f450 343d
00000170: 232a f4bc 0a75 5dbd 60ef 86bd 73f9 c1bc
00000180: 4e20 70bc 2c23 50bd da8e 2ebd 8b77 40bd
00000190: 0533 8dbd 8a1f 633d 91e0 633d 53cd 37bb
000001a0: 5b6a 473d 08af c63c c44c 79bc b240 073d
000001b0: bc9f bdbc e7f4 82bd 1659 bc3c 02f3 1c3d
000001c0: f60f 36bc 88cb 67bd fb31 833c cc52 643b
000001d0: b123 003d 00c5 663b 153e 383d 842f 003d
000001e0: 488d 56bd 50df 34bc 899a 353d a6f8 2c3d
000001f0: 5c29 fd3c 2868 61bc 5287 a6bc 6c95 e3bc
00000200: 0458 64bb 8655 44bc b0a1 47bd 6034 aabb
00000210: 97c0 d63b 44b9 2b3d 6012 05bd ea3d f13c
00000220: b68f 3d3d 2071 16bc 064e 51bd d8d5 40bd
00000230: 6aa0 d5bc 6dce 7bbd ffb6 c3bb 0206 243d
00000240: a4c8 03bd 918d 98bc 9487 683d 28f3 c23c
00000250: bac0 3f3d 6079 fd3c ead9 c9bb 2e9f 2c3d
00000260: 12f2 91bc c7b9 40bd 904a 85bd b4b5 48bd
00000270: 6801 2abd c89b 483d 32fb 21bd 7865 87bd
00000280: 88a8 da3c 7c9e a1bc b359 b2bc 3c9d 34bd
00000290: efec 873c eaa1 8a3c aed5 38bd 4244 5c3d
000002a0: 39df 38bd f75c 1b3d 7aa0 70bd 301c 333d
000002b0: e566 47bd 24fe 823c 02f6 20bd 01d2 49bd
000002c0: 5c10 1e3d 4e28 083d ae2e 5d3d 7cc8 0a3d
000002d0: e4b4 c3bc a0df a0bc 483a bbbc 5f46 78bd
000002e0: f817 14bc 1c03 ed3c 8796 573d 38e4 62bd
000002f0: ed1b ae3c 9ebb 89bd 50c9 5b3c 20bc 523b
00000300: 60b5 f73c bf63 ebbb 1c21 313d db70 08bd
00000310: 3672 3b3c 6521 d33c d8d2 db3c 6474 c53c
00000320: e711 a8bc f6ba 513d 7fad 5dbd 91c8 39bc
00000330: 11d5 a53c 3560 953c 1bc0 dbbc c0f1 48bc
00000340: 5c90 493d 0319 a63b 4716 6bba ec48 143d
00000350: 48ee 3dbd 7c34 c3bc 1c5e 97bc c8de 00bc
00000360: ec36 ddbc a2eb 22bd a7e0 293d b143 37bd
00000370: 1db6 4a3d 233f 8dbc 4d26 7d3c b6ac 293d
00000380: 8868 fe3c 8b7b 323d e3d9 89bd 56b1 73bd
00000390: 904b 8cbd 1ba7 30bd 0139 db3b b4b1 7c3b
000003a0: 9bb4 b3bc fe9c 26bd ad2a f9bc 0196 783d
000003b0: abf2 6cbd 3c24 3a3d ad5a 60bd 4792 38bd
000003c0: 5aa9 5abd bc1c 633d c363 68bd 64ae 32bd
000003d0: eed0 36bd 5c41 043d 378e 25bd ca70 4cbd
000003e0: e2b8 e03c 3486 993c 9cc6 a6bc 9ae9 1a3b
000003f0: 53df 19bc 04be b13c 667b 62bd 747e 72bd
-0.054424964 -0.00012021703 -0.058927245 -0.031184427 0.03189987 -0.015315297 0.00842105 -0.007412952
-0.0008756854 0.017437564 -0.043156706 0.024053797 -0.0036621382 -0.05260013 0.051483274 0.03278175
0.048193775 -0.033413976 0.023961276 -0.04020561 -0.039744392 -0.025477022 0.024251161 -0.023931714
-0.020927828 -0.01249486 -0.050093282 0.034710187 -0.047866125 0.036976706 -0.032725655 -0.010328347
-0.04476503 -0.0010584369 0.04011433 -0.055766407 -0.051189173 0.04762725 -0.050051037 0.0011211135
-0.023808926 0.02603046 0.0037272177 0.0019015928 -0.040766183 0.04612163 0.04986443 0.014696136
-0.029588059 0.019944772 0.05469589 0.0332767 -0.028278427 0.05804164 0.049172647 0.015881982
0.005064975 0.009452446 0.002367705 0.021326467 0.059244797 0.0007333145 0.016944256 0.048942197
0.033629224 0.012116457 -0.023171037 -0.045251366 -0.034287117 -0.032198112 0.014514587 -0.015199922
-0.054323632 0.046267174 -0.004230976 0.044733897 -0.054978065 0.0004990183 0.01810757 0.04322976
0.018836508 0.015240046 -0.017789934 0.025605757 -0.011503243 -0.019788524 0.04400553 0.027106473
-0.011748777 -0.0474152 -0.042214803 0.044022515 -0.029805249 -0.054066695 -0.06588626 -0.023678517
-0.01465614 -0.050814793 -0.042616703 -0.046989005 -0.06894497 0.05545 0.055634085 -0.0028045967
0.048685413 0.024253383 -0.015216056 0.033020683 -0.023147456 -0.06394368 0.022991698 0.038317688
-0.011112204 -0.056590587 0.016015043 0.003483939 0.031284038 0.0035212636 0.04498108 0.031295314
-0.05238083 -0.01103957 0.04433683 0.042229317 0.03090351 -0.013757743 -0.020328198 -0.02778121
-0.00348425 -0.011983281 -0.04873818 -0.005194232 0.00655372 0.04192473 -0.032488227 0.029448468
0.04627963 -0.009182245 -0.0510998 -0.047078937 -0.026077468 -0.06147616 -0.0059727426 0.040044792
-0.032173768 -0.018622192 0.056769922 0.023797587 0.046814658 0.030941665 -0.0061600106 0.042143993
-0.017815623 -0.04705217 -0.06508362 -0.04900141 -0.041505247 0.04897669 -0.0395462 -0.066111505
0.02669169 -0.019728892 -0.021771288 -0.044095263 0.01659247 0.01692291 -0.045125656 0.053776033
-0.045134757 0.037930455 -0.058746792 0.043728054 -0.048682112 0.015990324 -0.03929711 -0.04927254
0.03858982 0.033241563 0.053999595 0.033882603 -0.023889966 -0.019637883 -0.02285494 -0.060613986
-0.009038918 0.028932147 0.05263379 -0.055393428 0.02125355 -0.06725238 0.013414696 0.0032155588
0.030237854 -0.0071835215 0.043244466 -0.033310752 0.011440804 0.02577276 0.026833937 0.024103351
-0.020516349 0.05120369 -0.054120537 -0.011339323 0.0202432 0.018234352 -0.026825001 -0.012264669
0.049209937 0.0050688996 -0.0008967858 0.036202356 -0.04636982 -0.023828737 -0.018477492 -0.007865615
-0.027003728 -0.0397755 0.04147401 -0.04474229 0.049490083 -0.01724202 0.015451026 0.041424476
0.031055704 0.04357485 -0.06731012 -0.059495293 -0.0685035 -0.043128114 0.006690145 0.0038558068
-0.021936705 -0.040677063 -0.030415857 0.06068993 -0.057848614 0.045444712 -0.054773975 -0.045061376
-0.053384162 0.055447325 -0.056735765 -0.043623343 -0.044632845 0.032288894 -0.04041883 -0.04991225
0.027431909 0.01874075 -0.020358376 0.0023637773 -0.009391624 0.021697052 -0.055293463 -0.059202626

net.2.bias f4 [256]
00000000: 51bb 3a3c 46bf 85bd fea6 83bc 50bc 1b3d
00000010: 5e92 5fba 2d30 a2ba 7531 163d d4c3 91bd
00000020: d872 a8bc b609 ba3d 8980 2a3d 4e91 75bd
00000030: 3ef3 6f3d 43a5 0bbd 8810 8c3d 1ce2 54bd
00000040: be77 0e3b de29 4e3d 4fe8 273d 0b13 cebb
00000050: f3bc 853d a0b1 ff3c 1194 a63d 2453 f1bc
00000060: cb19 ffbc 1ec9 75bd d001 29bc 989c cf3c
00000070: c822 5cbd 7262 f1bc 82e1 023d e1f1 df3d
00000080: f84b 5bbc 1ccc 6b3d 2787 473d 4b5c 5f3d
00000090: 38d4 8d3d c2a0 6ebd 9386 ab3c 9a9a 23bd
000000a0: 560c 1b3d 048c 2a3d 72fa 7abd 4dca ad3d
000000b0: 64ba d0bc f2f2 9c3d ea6f bb3c 7c7f 593d
000000c0: 28f9 d33d 4046 06bd 0e7f 213d 06f7 c23d
000000d0: 3036 723d 46c9 713c 465e ea3c c4cd 99b9
000000e0: 7c27 1fbd 244f 9dba b743 a63d 6af1 163d
000000f0: 9238 ad3d a71c 46bd 2c53 0f3c 20c0 313d
00000100: 2c67 683c 4690 8e3d 78be f03c 5d24 60bd
00000110: 1780 8bbd c851 c23c 0c73 803d 7551 cf3c
00000120: 6e86 0f3d f110 d7bc 4334 58bd 44b2 fe3c
00000130: 748a 88bd 4266 84bd a604 43bd da33 6abc
00000140: f3aa babc ef0d b33d e686 b93c c1cd 80ba
00000150: 895d 41bd 4b99 7bbc e25e 22bd 868f 353d
00000160: 6509 913c bcc7 9b3d 1c0c 433d 9afa d73d
00000170: 4177 f13c 4cd6 a9bc 6e3a 6fbd 0141 06bd
00000180: 92e4 9c3a c7f2 8d3d 57bb 953c 671e 543d
00000190: a2a4 9fbc 973e d13c b544 ddbc 3336 7c3c
000001a0: a116 963d 018d ab3d c53b 9dbd c45e 8d3c
000001b0: b726 97bc 7cab 1bbd 3800 483d 90cd 42bd
000001c0: 34ad 97bd a5d0 af3b 5f1d cdbb 55ef 8abb
000001d0: 05e8 ec3b 3b6b e2bc b18a 983d 38cd 4b3c
000001e0: a23a 5cbd c4aa c43a bb88 c4bc 5a68 563d
000001f0: 9371 a73d a72f a03d 9ca3 8a3c a7ed e73c
00000200: ba02 053d d09a a03c ba6a 003d b22e 1f3d
00000210: da2c 053d bbaa 14bd 8f13 5dbd 2d99 423d
00000220: 1ab6 883d 712f 12bd 5800 57bc fb58 85bd
00000230: abe1 f83c 1f1e 34bd b6c6 833d f64b 78bd
00000240: c98e c7bc 5d98 1cbd f45d 4dbd f9de 68bd
00000250: 1801 e0bc acdd 8b3c eb49 383d c039 68bd
00000260: bc3c 06bd 8460 1cbd 086a 803d eb52 193d
00000270: b585 85bd 7744 8b3d 5a55 d6bc 94ed 9dbc
00000280: 72b3 4d3d 41fa ed3d fb62 643d 2cfb e33c
00000290: fe94 d23d f6a9 71bd 7802 813c 87b6 a53b
000002a0: 1d5f 0f3c bd70 ebbc a7c9 013d 4bd8 7f3b
000002b0: 73be 1d3d 4d22 1e3d 0851 723c 0c9d 2b3d
000002c0: 17f5 8bbd c15e 373d 0ac0 c53c c109 cf3d
000002d0: 7878 69bd cc00 b33c 27d6 943c 3c35 d53c
000002e0: e35b 583d 7146 d63c 009d e63d bda5 853c
000002f0: 9a17 24bd af2d 0ebc 5af6 a03c db6c 03bd
00000300: 6be3 c93b 3bd8 f2bc 1862 b33d 662f 3d39
00000310: df24 d03d 9ac9 26bd 3314 64bc 9884 78bc
00000320: deed d23d afdc 523d 477b 813d c8b8 e53c
00000330: 6856 563d b47f b9bc ad6f 0a3d 12ee 963d
00000340: 243c b4bc 97ab 803c 42b3 36bd 736f c0bd
00000350: b621 c83d af72 643d 90c6 b23a a11d 73bd
00000360: 207a fabc d525 04bd 677a 98bc 3fae 76bd
00000370: f14b cf3d 4643 3d3d 9e2b bf3c 641b bb3c
00000380: 2f20 2fbd d434 1bbd 1853 2c3c c416 a13c
00000390: 97eb 0cbb 27df c9bb 7cc6 073d 6c0e 54bb
000003a0: 6e5d 9abd 1994 10ba 41b7 c1bc 62db df3d
000003b0: b973 023d 9481 af3d 7c62 3b3d 53d3 16bd
000003c0: 01cb 813d 1795 0f3d 3c54 013c 493f 463d
000003d0: 0b8f 87bd 7716 98bc 394d dd3d 212c b03d
000003e0: dfa1 033d 81f2 753b 0789 903c 0584 833d
000003f0: 3571 04bd 8ea0 e23c bc66 08bb 7e7c b93d
0.011397199 -0.06530623 -0.016070839 0.038021386 -0.00085285853 -0.0012373977 0.03666826 -0.071174294
-0.020562574 0.090838835 0.041626487 -0.059953026 0.058581583 -0.034093153 0.068390906 -0.051973447
0.0021738852 0.050332896 0.04099303 -0.006288891 0.0653018 0.031212628 0.0813371 -0.02945859
-0.031140229 -0.060006253 -0.010315374 0.025343224 -0.053744107 -0.029465888 0.031953342 0.109348066
-0.013384812 0.0575677 0.048712876 0.054531377 0.06925243 -0.05825878 0.020938193 -0.03994236
0.03785356 0.041637436 -0.061274 0.084858514 -0.025479503 0.07663526 0.022880513 0.053100094
0.10350257 -0.03278184 0.03942781 0.09519772 0.05913371 0.01475746 0.028609406 -0.0002933574
-0.038856015 -0.0012001735 0.08118384 0.036851324 0.084580556 -0.04836717 0.008747857 0.043396115
0.014184754 0.06961112 0.029387698 -0.05472218 -0.068115406 0.023720637 0.062719434 0.025307396
0.03504031 -0.026253195 -0.052784216 0.031090863 -0.06667033 -0.06464817 -0.047611855 -0.014294589
-0.022786593 0.08742892 0.022647332 -0.0009826944 -0.047208343 -0.015356372 -0.03964127 0.044326328
0.017704675 0.07606456 0.04761897 0.10545845 0.02947581 -0.020732068 -0.058405332 -0.032776836
0.0011969975 0.06931072 0.018277807 0.051786806 -0.019487683 0.02554254 -0.027010301 0.0153937815
0.07328535 0.08376504 -0.07677416 0.017257102 -0.018451078 -0.038005337 0.048828334 -0.04755932
-0.07406083 0.0053654485 -0.006259605 -0.0042399564 0.0072298073 -0.027639022 0.07448328 0.012439065
-0.053766854 0.0015004505 -0.02399098 0.05234561 0.081759594 0.07821589 0.016923718 0.028311564
0.032473303 0.01960507 0.031351782 0.03886289 0.032513477 -0.036295634 -0.05397373 0.04750936
0.06675358 -0.035689775 -0.013122641 -0.06511112 0.030381044 -0.04397404 0.064343855 -0.060619317
-0.024360077 -0.038231242 -0.05013843 -0.05685327 -0.027344272 0.017073475 0.04499237 -0.0566957
-0.032772765 -0.038177982 0.06270224 0.037432592 -0.06519643 0.06800168 -0.026163746 -0.019278325
0.05021996 0.11619998 0.055758458 0.027829729 0.10282324 -0.058999978 0.015748248 0.0050571593
0.008750704 -0.028740281 0.03168645 0.0039038833 0.038511705 0.03860693 0.014789827 0.04189782
-0.068338566 0.0447681 0.024139423 0.10109282 -0.056999654 0.021850966 0.018168522 0.02602636
0.052822005 0.026156636 0.11260414 0.016314382 -0.04006157 -0.008677884 0.01964872 -0.032086235
0.0061611435 -0.029644122 0.08758944 0.00018042102 0.101632826 -0.040719606 -0.0139208315 -0.015168332
0.10299276 0.05147999 0.063223414 0.028042212 0.052328497 -0.022643901 0.03379791 0.07369627
-0.022001334 0.01570682 -0.044604547 -0.09396257 0.09772055 0.055773433 0.0013639499 -0.05935443
-0.030575812 -0.032262642 -0.018613053 -0.060224768 0.101219065 0.046206735 0.023336228 0.02284021
-0.042755302 -0.037892178 0.010517858 0.019664176 -0.0021502727 -0.006160635 0.033148274 -0.003235723
-0.075373515 -0.00055152323 -0.023646953 0.10930516 0.031848643 0.08569637 0.04574822 -0.03682263
0.06337548 0.035054293 0.007893618 0.048400197 -0.0661908 -0.0185654 0.10805745 0.08602167
0.032136794 0.0037528577 0.017643465 0.06421665 -0.032334525 0.027664449 -0.0020813188 0.09056948

actor.weight f4 [1, 256]
00000000: f6cc 333c 8801 1c3d ecc8 9c3d 28d5 32bd
00000010: 5675 bb3e 1793 533c 49bf 3e3d fd94 6fbc
00000020: 0076 b6ba 3d76 a03d c07c 6bbc bf4b 5cbc
00000030: 7d76 a73e b957 8abb c1d0 7f3e 1c7c c63c
00000040: f139 9e3e 6087 e1bb fab3 ddbd 07ed 4c3d
00000050: bba7 22bd 3555 91be aeba 7e3e e28d 0fbd
00000060: 9a5e 70be ba57 6fbb 8e7b 563d 8a2a a3bc
00000070: fff9 87be 5c4c 7bbe 8531 a03c 551e 6c3e
00000080: b006 373d c61d 05bd 20b5 87be bb29 5cbe
00000090: 32c3 a33e 57c4 743e a832 43be 9852 033c
000000a0: 93e3 ff3d 3f1b 76be c281 5a3d 16de e43c
000000b0: 0684 3abd 5c2c 983e 7c95 f8bb e8c3 78be
000000c0: f1bf 0b3e da4e 023d 4539 e2bc a964 1b3e
000000d0: 151d 943e 0312 57be 3236 7c3e a89d 27bd
000000e0: dc90 87be b5fc a3bc faf9 e839 80fc 96bc
000000f0: 6588 f53d 9142 c53c e6f7 6f3e e73f 69be
00000100: 2f56 2cbf 357f 833c 8ca1 7cbe acad 53bd
00000110: ed65 a5bc 76e4 90be 8497 cd3d bde0 173e
00000120: e3c6 513d 4d4a e3bb ddf4 ce3c bfab 0a3d
00000130: 26a3 bbbc 41ea 7b3c 8e90 7cbd efef 54be
00000140: 6071 b93e f09b fabd 8be2 a8be 38ce 91be
00000150: 3c8e 883b d3af 4fbc 24b7 37bd 9c68 283d
00000160: c6a3 6fbe 0bab 9c3e 6a9f 9a3b 25a4 373a
00000170: c44e 3b3d a73e 49bc 06fc 55bd a8f2 a93e
00000180: a4a1 4b3d 944d 423e c693 41be 5b0e 2dbd
00000190: 9f98 813d 8c02 873c c287 0abc 2835 bc3b
000001a0: 114a 303c 6e8d 26be b15c 583d c3bf 453e
000001b0: 50ec 753d 6055 e53b 28e3 a43c 4dec 1d3c
000001c0: da5b 9b3b 977a 9c3b 1d02 ecba 2888 9d3e
000001d0: 0603 da3a c6c1 74bb 8358 653d 0062 d6b9
000001e0: 32d1 373d 6544 1d3d e080 513d 97bd 3abe
000001f0: 53b6 c2bc 97f3 bb3b 3b14 593d 7164 c1bd
00000200: 8655 023d e0da 17bc e89e 03bc 42d2 12bd
00000210: 5897 403d 7ee4 74be 6413 06bc f346 e33d
00000220: 7e22 18be b7ff 123a 9041 29bd f235 3d3d
00000230: 4efd 9cba 0809 a0be c7c2 273e 00bf a9bc
00000240: 9c43 ee3b 6a91 86bc 0079 8839 bd16 753d
00000250: e160 0cbd df8b 5dbe bcbc bc3c 3c34 d93d
00000260: a86c 9cbb 7103 29bd 9481 a33e 2194 8fbc
00000270: 20a8 b93c 4610 543d fbd7 b33e a059 223d
00000280: 4d8d fd3c 91ff 2f3d 6fc7 96bd cd5c 703e
00000290: 1b6c 453e c436 d93c 935b 7cbe e315 a03e
000002a0: ab6c 3fbd ae4b 953e 5169 b33c c7db 883e
000002b0: 15a9 103d 4f43 8e3e ce75 4f3d 947a 043a
000002c0: 9fa4 3fbd 05ad 6ebe 6f2f 81be 67f7 003e
000002d0: 8e12 443d a2ef 313d 7c63 47be c278 843c
000002e0: c7c4 753e f9c8 483c bd4f 0b3e e809 923e
000002f0: 38a5 143c 19d2 ad3e 256d ffbc a935 72be
00000300: cb0b 6dbd 80ab 51be cff5 89bd 5760 09bd
00000310: 9f74 ff3d 7073 dabc d6d2 a53c 889d 103c
00000320: 6edf aa3d bf98 0fbe a850 84bd 6283 183c
00000330: b0a5 3abe 412e 48bb 922c 89bd e515 5abe
00000340: c395 31bd d71d 213c d937 afbe bddd e73d
00000350: f4de dc3d 8599 813e d998 54be ecba 293c
00000360: 98e2 b93b bb4e 2c3d 9059 603c f4b8 60bc
00000370: 70ce dd3b 961a 603e f5d0 033e c764 bbbc
00000380: 8b4c 32bd 30ae 45bc 0124 1a3e 7a55 1fbd
00000390: e486 f03c c02b 6dbe e6c5 f1bc f6e5 3fbd
000003a0: c986 c2bd af1e a73e 2d57 463d cdcf 353e
000003b0: 1e5c 78bd 3402 a93e 85e7 8c3c 24e0 ae3e
000003c0: 744f 9d3e 04f7 9fbe 346e 363e b8d7 103d
000003d0: 4de9 5a3d bd69 47bd 84e6 5fbc 49e1 edbd
000003e0: 9d56 39bd 160c 4cbe 1f3c 58bd 8da2 33be
000003f0: ce47 ddbb 5761 a8bc 26bf 4c3e 610b b43d
0.010974159 0.038087398 0.0765551 -0.043660313 0.36612958 0.012913487 0.046569142 -0.014622924
-0.0013920665 0.07835052 -0.014373004 -0.013445794 0.32707587 -0.004221883 0.24981977 0.024229102
0.3090358 -0.006882593 -0.108253434 0.050030734 -0.03971074 -0.2838532 0.248759 -0.03504742
-0.23473588 -0.0036520795 0.052363925 -0.019917745 -0.2655792 -0.24540848 0.019554863 0.23058446
0.044684112 -0.032499097 -0.26505375 -0.21500294 0.3198486 0.23903023 -0.19062293 0.008015297
0.12494578 -0.24033831 0.053346403 0.02793793 -0.045536064 0.29721344 -0.0075861793 -0.24293482
0.13647439 0.03181348 -0.027615199 0.15175118 0.28928438 -0.21002965 0.24630049 -0.040921837
-0.26477706 -0.020017961 0.00044436735 -0.018430948 0.11988906 0.024079593 0.2343441 -0.22778283
-0.67319006 0.016051868 -0.24671 -0.0516793 -0.020190204 -0.28299302 0.10038665 0.14831825
0.051215064 -0.0069363476 0.025263244 0.033855196 -0.022904944 0.015375675 -0.061661296 -0.20794652
0.3621931 -0.12236774 -0.3298534 -0.28477645 0.0041673463 -0.012676197 -0.04485239 0.04111539
-0.23402318 0.30599245 0.0047187107 0.00070053554 0.045729414 -0.012283004 -0.0522423 0.33192945
0.0497147 0.18974906 -0.18904027 -0.04225002 0.06327938 0.016480707 -0.008455219 0.0057436414
0.010759846 -0.16264889 0.052822772 0.19311433 0.06003982 0.006998703 0.020127848 0.009638858
0.004741174 0.004775356 -0.0018006001 0.3076794 0.0016632981 -0.0037346943 0.055992614 -0.00040890276
0.04487724 0.038395304 0.051148295 -0.18236385 -0.02376858 0.0057358253 0.05299781 -0.09442986
0.031819843 -0.009268492 -0.008033492 -0.03584505 0.047019333 -0.23915288 -0.008183334 0.11097517
-0.14856908 0.00056075625 -0.04132229 0.046194024 -0.0011977346 -0.3125689 0.16382895 -0.020720959
0.0072712433 -0.01642676 0.00026030093 0.059836138 -0.03427208 -0.21635388 0.023039214 0.10605666
-0.004773695 -0.041263048 0.31934798 -0.017526688 0.022663176 0.051773332 0.35125718 0.039636254
0.030951167 0.042968336 -0.07362258 0.234729 0.1927952 0.026515372 -0.24644308 0.31266698
-0.046734493 0.29159302 0.021900805 0.26730177 0.0353175 0.27785727 0.050649457 0.0005053666
-0.046787854 -0.23308189 -0.252315 0.12594377 0.047869258 0.043441422 -0.19471544 0.016170863
0.24000846 0.012254947 0.13604636 0.28523183 0.009072594 0.33949354 -0.031179974 -0.23653282
-0.057872575 -0.20475578 -0.067363374 -0.033539142 0.124734156 -0.026666373 0.020242136 0.008826621
0.08343397 -0.14023112 -0.064606965 0.009308668 -0.18227267 -0.0030545148 -0.06697954 -0.21297415
-0.043355715 0.0098337745 -0.34222296 0.1132159 0.107847124 0.2531244 -0.20761432 0.010359507
0.005672764 0.04206727 0.013693228 -0.013715971 0.006768994 0.21885142 0.1287268 -0.022875203
-0.04353003 -0.012065455 0.15052797 -0.038899876 0.029361196 -0.2316122 -0.02951331 -0.046850167
-0.094983645 0.32640597 0.04842298 0.17755051 -0.060634725 0.33009493 0.01720024 0.3415538
0.3072468 -0.31243145 0.17815477 0.035361975 0.05344515 -0.048684824 -0.013665799 -0.11615235
-0.045248616 -0.19926485 -0.05279171 -0.17542477 -0.0067529446 -0.020554228 0.19994792 0.08791233

critic.weight f4 [1, 256]
00000000: a869 01bd b4bd 1dbc 2888 c4ba 4f64 313d
00000010: 87e2 353c 562a 393c 1db7 e2bc b10c 093d
00000020: 20ae c9bc aceb 783d 4b37 d3bc eeda c5bc
00000030: 8909 ca3b 0f92 88bc b7ec 08bb 4070 f8ba
00000040: 1353 b43b 9b7b 48bd 1d25 943d b0b0 86bb
00000050: bb3f 2dbe d0f4 253d b7f4 de3b 7006 23bd
00000060: 39b0 413c 68c4 2ebc dcd4 4c3d 7951 0abd
00000070: 42f0 823b dbc5 473d 9463 7ebc 98c5 cc3c
00000080: 90c2 2f3c 03ec ab3d ef16 06bc d71a 883c
00000090: 05b9 243c 1c08 6bbb 928d 6b3d 6ae3 7c3d
000000a0: 5b66 1a3d f5b1 fabb 8069 d93b 8d54 553d
000000b0: 6ea7 803c e5b1 153c 2a78 683d 37d0 bcba
000000c0: 73b1 1e3d 9a29 0ebd fc39 bd3c e27b 2c3d
000000d0: f63e ff3b 35a0 c9bb ebad 953b 0fba 4fbc
000000e0: 393b 55bc 312a deba 9e23 3f3d 4bde 03bd
000000f0: 983d 253d b2f9 3c3d 17b6 e7ba d5a3 4b3d
00000100: 62b9 443e a718 a63c 4921 2f3d 3f00 803c
00000110: 3c51 09bd 6b28 0239 7893 1e3d 542b 033d
00000120: 65f3 0e3c b34b c5bc c46a 5d3d fa92 a83c
00000130: 61fb 59bd 8857 e6bd 32f9 2ebd a8a5 4b3d
00000140: 1e19 3c3c 003a 843d 417c e83d 73ce a53b
00000150: df86 5c3d 1915 58bd c06a c83a d6bd 4e3d
00000160: 9e1d 423d 0f7a 3d3a 1c2d 223d dca4 a83d
00000170: 27c6 2d3d 2239 fd3b f1d7 a7bb 793f f73b
00000180: 4303 653d 45ad e33c 0ce4 e83b 0488 463d
00000190: a79a 5dbc c6a8 fbbc 0c2a ebbc 8fa1 1bbd
000001a0: 1e91 f23c 6f7f 863d 81a8 93bd d9e8 b939
000001b0: 432f 393d 6404 61bd a0d0 4c3d fe07 a4bb
000001c0: 39dc a2bc f663 1ebd 30ae afbc 33e2 e23b
000001d0: 925b a63c 075a 18bd 9e9b 873d e85e 1dbd
000001e0: c2ab ebbc c354 323d 8f62 4dbc b4f4 453d
000001f0: 7e79 b7bd b48b 273d 8b6a 6fbc 5344 833d
00000200: 903b 873c 360c 2b3d 1994 8f3c e087 1b3c
00000210: ee14 593d e522 473c e358 033d 7f43 8d3d
00000220: 982c 763d 7b1d a9bc e4a0 8ebc c83b c4bc
00000230: f08c 00bb 5451 253c 5adc 6e3d 7392 423d
00000240: 5a3a c3bc 736b c53b 564e 1abd 59c4 573d
00000250: 59f6 f4bb e00e 0f3d aada a23a 0034 2dbd
00000260: a3dc 903b 64dc c13b cbf8 f93a 3fb0 9e3d
00000270: ec37 503d 5e28 093d 23f6 3a3b 31fc 4a3d
00000280: 74b7 c1bc 3448 833d bc03 bb3d ac21 073c
00000290: 12fe e03c 381f 443d 5a09 bebb dbda 083c
000002a0: 70b0 14bd c96a ec3b 9f54 bdbc 77f5 65ba
000002b0: 76f5 803d 3182 223c 8024 493c 2d24 543c
000002c0: ad3d 01bc 2835 6ebb 0c59 3abc 0386 f73c
000002d0: 084d c53c 48ca 57bc bbd5 123b 8e41 95bd
000002e0: d39c 19bb 4eec 5d3d b9c7 373d 9aae 1e3c
000002f0: 482f f23c f35d 7e3c 3461 b6bc 7ba3 7938
00000300: ddf5 d23c 52cc 353c 7e13 103d f63f 883d
00000310: 128c 7a3d 9631 703d ddf4 07bd 1433 21bd
00000320: be93 8c3d dfb2 983d f7bc 093d 0aaa 6fbc
00000330: 660b bc3b 75f8 8dbb 6946 b7bd 4bc4 2a3d
00000340: cbdf 8abd c5a2 943d dffd 143c 6541 d2bd
00000350: 70e6 1c3d f35f a2bb 782b 743b 9ef8 ffba
00000360: 5eb8 993c ff29 223d 89bc 5cbd fe60 5cbd
00000370: 81d5 5e3d f8ce 0d3c 8b40 793d 36ef 783d
00000380: cc7a 8abc 7851 733d ce1c 563d b857 69bc
00000390: cd16 a9bb ca1a c139 8367 67bb 6d87 9e39
000003a0: 3ba6 0bbd 9ff4 833a 073b 7a3c 5ae8 2d3d
000003b0: ebb0 e8bc b10e 663c 1c79 3c3d 20a3 e83b
000003c0: e5f6 eab9 e2cb 36bc 0ccf 323d 9174 50bc
000003d0: 1242 4fbd 9d17 64bc 4b7f 4b3d 385b 9e3d
000003e0: bc5a 0dbd 83f3 9bbb bd56 0dbd ca0d 143d
000003f0: 6058 24bc 5a60 123d 7988 de3c 1779 2b3d
-0.031594902 -0.009627748 -0.0014994191 0.043308552 0.011101372 0.011301598 -0.027675206 0.03345937
-0.024619162 0.06077163 -0.025783202 -0.024152245 0.0061656875 -0.016671209 -0.0020893046 -0.0018954352
0.0055030673 -0.048946004 0.07233641 -0.0041104183 -0.16918842 0.040516675 0.0068040746 -0.03980106
0.0118218 -0.010666944 0.050007686 -0.033769105 0.003995926 0.048772674 -0.015526671 0.024996564
0.01072754 0.08394625 -0.008184179 0.01661436 0.010053878 -0.0035862988 0.05750806 0.061740316
0.03769527 -0.0076506087 0.006634891 0.052082587 0.015704837 0.009136652 0.056755222 -0.0014405315
0.038743448 -0.034707643 0.023098938 0.04211033 0.007789488 -0.0061531314 0.004567852 -0.012678637
-0.013014608 -0.001694983 0.046664827 -0.032194417 0.040341944 0.046136566 -0.0017678168 0.04971679
0.19211343 0.020275427 0.042756353 0.015625117 -0.033524737 0.00012412823 0.038714856 0.032023743
0.008725022 -0.024083948 0.054056898 0.020577896 -0.05321825 -0.11247164 -0.04271812 0.04971853
0.011480598 0.06456375 0.113518246 0.005060011 0.05383956 -0.052754495 0.0015290603 0.05047401
0.047391526 0.0007227966 0.0395938 0.082345694 0.0424253 0.007727758 -0.005122178 0.0075454083
0.055911314 0.027792582 0.0071072634 0.04846956 -0.0135256415 -0.030720126 -0.028706573 -0.03799587
0.029610213 0.06567275 -0.07209874 0.00035459435 0.045211088 -0.054935828 0.050003648 -0.0050058356
-0.019880401 -0.03866955 -0.021445364 0.0069239377 0.020307336 -0.03719523 0.066214785 -0.038420588
-0.028768424 0.043537866 -0.012535705 0.04832907 -0.0895872 0.040904716 -0.014612804 0.06409516
0.016507894 0.041759692 0.017526673 0.009492844 0.052998476 0.012154316 0.03206719 0.068976395
0.06010112 -0.02064394 -0.017410703 -0.023954287 -0.0019615255 0.010090191 0.058315612 0.047502946
-0.023831535 0.006024772 -0.037672363 0.052677486 -0.007475656 0.034926295 0.0012424786 -0.04228592
0.004420833 0.005916165 0.0019071338 0.0774846 0.05083458 0.033485763 0.0028528057 0.049556915
-0.023647048 0.06410256 0.09131572 0.008247774 0.0274649 0.047881335 -0.0057994546 0.00835296
-0.036301076 0.007214878 -0.02311164 -0.0008772234 0.06296818 0.009918735 0.012276769 0.012948078
-0.00788824 -0.0036347602 -0.0113737695 0.030215269 0.024084583 -0.013170786 0.0022405225 -0.07287894
-0.0023439422 0.054180436 0.044868205 0.009685183 0.029563561 0.015525329 -0.022263147 5.951848e-05
0.025752002 0.011096077 0.03517484 0.066528246 0.061168738 0.05864104 -0.033192504 -0.039355353
0.06864117 0.07455992 0.033627477 -0.014627943 0.0057386635 -0.004332597 -0.089489765 0.041691106
-0.06780966 0.07257608 0.009093731 -0.10266379 0.0383057 -0.0049552857 0.0037257355 -0.001952905
0.018764671 0.03959083 -0.05389074 -0.053803436 0.054402832 0.008655302 0.06085257 0.060775004
-0.016904257 0.059403867 0.052273564 -0.014242105 -0.005160189 0.00036831788 -0.00353095 0.00030237008
-0.034094077 0.001006741 0.015272862 0.042457916 -0.028404674 0.014041589 0.046013936 0.007099524
-0.0004481591 -0.011157008 0.043654487 -0.012723104 -0.05060012 -0.0139216455 0.049681943 0.07732242
-0.03451036 -0.0047592535 -0.03450655 0.036145963 -0.010030836 0.03573642 0.027164685 0.041863527
