models1/ppo_300.pth (torch, 275264 bytes, 6 tensors)

net.0.weight f4 [256, 6]
0	0xbeb0835a	-0.34475213
1	0xbec80117	-0.3906333
2	0x3e39246e	0.18080303
3	0x3ed0b53e	0.40763277
4	0xbdce7522	-0.10080935
5	0xbea981a8	-0.33106732
6	0xbd4a5875	-0.049400765
7	0xbd0e5918	-0.034752935
8	0x3ed3f03f	0.4139423
9	0xbeadf853	-0.3397852
10	0xbdda53da	-0.10660525
11	0x3eea33cd	0.45742646
12	0xbe050c0b	-0.12992875
13	0x3edee749	0.43535832
14	0x3d055b56	0.032557808
15	0xbedbe47c	-0.42947757
16	0xbe1f7980	-0.15573692
17	0xbd1e18b6	-0.038597785
18	0xbe821aa7	-0.2541096
19	0x3ea0c5dc	0.31400955
20	0x3e4516c6	0.19246969
21	0x3c3ea8ab	0.011636893
22	0xbd9098f6	-0.07060425
23	0x3ed3fe4c	0.4140495
24	0x3e955f78	0.291744
25	0xbd8eec5e	-0.06978677
26	0xbef3bd07	-0.47605154
27	0x3e67cc1d	0.22636457
28	0x3e623bb1	0.22093083
29	0xbe3fc199	-0.18726195
30	0x3e25e373	0.16200046
31	0x3c00a26d	0.007851225
32	0x3eb30261	0.34962752
33	0x3aa5c8f2	0.0012648387
34	0xbe9f5537	-0.311197
35	0x3e46dcca	0.19420162
36	0x3d2d47be	0.042304747
37	0x3e2fe13d	0.17175765
38	0x3eb6ba1b	0.35688862
39	0x3e7295f1	0.2369001
40	0x3e24a135	0.1607712
41	0xbec28cf8	-0.37998176
42	0xbea123d2	-0.3147264
43	0xbe998020	-0.29980564
44	0x3dcf2891	0.10115159
45	0x3e6fa6c3	0.23403458
46	0xbe0ab850	-0.13546872
47	0x3e9bb35a	0.30410272
48	0xbdd911eb	-0.10599121
49	0xbe343b66	-0.17600784
50	0x3eb0da9e	0.34541792
51	0x3cac3aa0	0.021024048
52	0x3e6a4d0c	0.22880954
53	0xbe754704	-0.23952872
54	0x3e76bff5	0.24096663
55	0x3e746933	0.23868255
56	0x3ee6d73f	0.45086095
57	0xbeec8f04	-0.46202862
58	0xbe803a7a	-0.25044614
59	0x3e658e1f	0.22417496
60	0x3c2ce330	0.010552213
61	0xbe836364	-0.25661767
62	0xbebfde7c	-0.3747443
63	0xbeae4082	-0.3403359
64	0xbe2f69e4	-0.17130238
65	0xbe122eab	-0.14275615
66	0x3d236c2a	0.039898075
67	0xbe817e5e	-0.25291723
68	0xbe5a2fdb	-0.21307318
69	0x3e8bbd50	0.2729287
70	0xbdd77562	-0.10520436
71	0xbdff15de	-0.12455343
72	0xbdc4563b	-0.0958676
73	0x3e10927c	0.1411838
74	0xbd89427d	-0.06702135
75	0x3e8f2ad9	0.27962378
76	0xbea15466	-0.31509703
77	0xbd49173c	-0.049094424
78	0xbc837b93	-0.016050136
79	0x3e155c85	0.14586075
80	0x3e192187	0.14954196
81	0x3e61850f	0.22023414
82	0xbd9c1b23	-0.076223634
83	0xbee89f72	-0.45434147
84	0x3eb32cee	0.34995216
85	0x3e35f6d0	0.17769933
86	0xbe9a4806	-0.30133075
87	0xbd0501de	-0.032472484
88	0xbea2cc79	-0.31796625
89	0x3ea27dce	0.31736606
90	0x3e4ee8a6	0.20205936
91	0xbe63a926	-0.22232494
92	0xbddae73c	-0.10688636
93	0xbecf232e	-0.40456527
94	0xbec862c5	-0.39137855
95	0x3df0bd07	0.11754804
96	0x3e3d5717	0.18490253
97	0x3e7bed40	0.24602222
98	0x3ec4b245	0.3841726
99	0xbdcf20b2	-0.10113658
100	0xbd841c8d	-0.06450758
101	0xbe9f29fe	-0.31086725
102	0xbeb4dfd3	-0.35327014
103	0xbdc46ea9	-0.09591419
104	0xbd8f9cbc	-0.070123166
105	0xbea11ac0	-0.3146572
106	0xbcc382e0	-0.023866117
107	0x3e56ca0e	0.20975515
108	0xbed2d710	-0.41179705
109	0x3e7fef91	0.24993731
110	0xbf00749e	-0.50177944
111	0xbeb6b299	-0.35683134
112	0xbdcb7936	-0.099352285
113	0x3e8484dd	0.25882617
114	0x3e418441	0.18898107
115	0x3e7adf9e	0.24499366
116	0xbe1cc52b	-0.15309589
117	0x3ecbaea5	0.3978168
118	0xbe152e1e	-0.14568374
119	0xbe5097ba	-0.20370379
120	0xbe23debb	-0.16002934
121	0x3d9aa1ba	0.07550378
122	0xbca89cf6	-0.020582657
123	0x3e977d4d	0.29587784
124	0x3e17fac1	0.14841749
125	0x3eb70602	0.3574677
126	0x3ea23c03	0.3168641
127	0x3e46f3d9	0.19428958
128	0xbdc384d1	-0.09546817
129	0x3ccf665c	0.025317363
130	0x3d0ad730	0.033896625
131	0xbe922b68	-0.2854874
132	0xbe9b25d1	-0.3030229
133	0x3d9c483c	0.07630965
134	0x3ea2ced8	0.31798434
135	0xbed782ea	-0.42092067
136	0xbe067853	-0.13131838
137	0x3ee459a6	0.44599646
138	0x3e65ddd2	0.22447899
139	0xbd8e176d	-0.06938062
140	0xbde65866	-0.112473294
141	0xbd2910a1	-0.041275624
142	0x3df24e6a	0.118313625
143	0x3db1b891	0.086777814
144	0xbd322fea	-0.043502726
145	0x3e977a23	0.2958537
146	0xbc99710e	-0.018730666
147	0x3b4af663	0.0030969612
148	0x3e90d133	0.28284606
149	0xbecd49a5	-0.4009525
150	0xbe6aacd9	-0.22917499
151	0x3ea6a8a7	0.32550547
152	0xbec4db8a	-0.38448745
153	0x3f10db77	0.56584877
154	0x3d726f79	0.05918834
155	0xbe6519ca	-0.22373119
156	0x3e777e70	0.24169326
157	0x3e04673c	0.12930006
158	0xbe64bf09	-0.22338499
159	0x3e035f7b	0.12829392
160	0x3d8b7210	0.06808865
161	0xbe351e2f	-0.17687295
162	0x3de5c758	0.112196624
163	0xbdb5168f	-0.08842193
164	0x3f0f6749	0.56016976
165	0xbef923f0	-0.4866023
166	0x3d425221	0.047441605
167	0xbeb1090b	-0.34577212
168	0x3eb72283	0.35768518
169	0xbeb48de8	-0.35264516
170	0x3e6fe5db	0.23427527
171	0x3ebec7bf	0.3726177
172	0xbe1598e6	-0.14609107
173	0xbddad08f	-0.10684311
174	0xbe335459	-0.17512645
175	0x3e0e8bee	0.13920566
176	0x3e18a501	0.14906694
177	0xbe92c177	-0.28663227
178	0xbe9a1036	-0.30090493
179	0x3d5ba78f	0.053626593
180	0xbdf8f3e0	-0.121558905
181	0xbe72fabf	-0.23728465
182	0xbeb3adbd	-0.3509349
183	0x3eaa0ac6	0.33211344
184	0x3eb55d6f	0.35422847
185	0x3e9713cc	0.2950729
186	0x3cef3361	0.029199304
187	0xbe203042	-0.15643409
188	0xbf1c2212	-0.6098949
189	0x3df31ce3	0.11870744
190	0x3dd2f25f	0.10300135
191	0xbe1f318c	-0.15546244
192	0xbe52f69a	-0.20601884
193	0xbd7fadb4	-0.062421516
194	0xbe207509	-0.15669645
195	0x3eb0f7d0	0.34564066
196	0xbe1f84d1	-0.15578009
197	0x3daffe9b	0.08593484
198	0xbd95643e	-0.0729451
199	0x3e8360ab	0.2565969
200	0xbdb4202f	-0.08795201
201	0xbcb1cac9	-0.02170314
202	0x3e2103dd	0.1572413
203	0x3dd6a8ac	0.1048139
204	0xbe99c37f	-0.30031964
205	0x3e8d2b0c	0.27571905
206	0xbe29fad4	-0.1659959
207	0x3ed1018a	0.40821487
208	0xbea8c5ce	-0.32963413
209	0x3dddf520	0.108377695
210	0xbe883185	-0.2660028
211	0x3dff9db9	0.12481255
212	0x3ebcda3b	0.36885247
213	0x3e8f16b8	0.2794702
214	0xbde087b5	-0.10963384
215	0xbc76c6d8	-0.0150620565
216	0x3e734568	0.23756945
217	0x3e926396	0.28591603
218	0x3e89c157	0.2690532
219	0xbe9ba08a	-0.3039592
220	0xbe8974c8	-0.2684691
221	0xbe811246	-0.25209254
222	0xbe7406e8	-0.2383076
223	0xbe5f510d	-0.21808262
224	0x3ed18b2a	0.40926486
225	0xbe5534c4	-0.2082091
226	0xbe493317	-0.19648395
227	0xbe476c5c	-0.1947493
228	0xbd0f2dec	-0.034955904
229	0x3e523149	0.20526613
230	0xbeae0ea8	-0.33995557
231	0x3e954480	0.29153824
232	0xbe73ea1e	-0.23819777
233	0xbae6446c	-0.0017567999
234	0xbe2e3cb2	-0.17015341
235	0xbd405e0f	-0.0469647
236	0x3d29f3ff	0.04149246
237	0x3e38574b	0.1800205
238	0xbe3b8ed0	-0.18316197
239	0x3ee953cd	0.45571747
240	0x3e6c41c8	0.23071969
241	0xbec501f8	-0.38478065
242	0xbd5846fe	-0.05280208
243	0xbe7200ff	-0.23633192
244	0x3e1447fc	0.14480585
245	0xbec97271	-0.39345124
246	0xbeb25b3a	-0.34835225
247	0xbec42dd4	-0.38316214
248	0x3e40b504	0.18819052
249	0x3ead9c29	0.33908203
250	0xbc875206	-0.016518604
251	0x3d9b6dc5	0.07589296
252	0x3e980fb2	0.29699475
253	0xbea89531	-0.32926324
254	0x3e5a888e	0.21341154
255	0xbeeeb3fa	-0.46621686

net.0.bias f4 [256]
0	0xbe71b66e	-0.23604748
1	0x3c4a434d	0.012345147
2	0xbeaacec8	-0.33360887
3	0xbeb2ac2b	-0.3489698
4	0x3ecd0761	0.40044692
5	0xbebcc57c	-0.3686942
6	0xbeb7da16	-0.35908574
7	0xbe8ff349	-0.281153
8	0x3e22b464	0.15889126
9	0x3d4d0056	0.05004915
10	0x3df77bc0	0.1208415
11	0xbe65dab1	-0.22446705
12	0xbd41a279	-0.047274087
13	0xbe584146	-0.2111865
14	0xbec01c9c	-0.37521827
15	0x3e9200af	0.28516147
16	0x3ebcb594	0.36857283
17	0x3e1c4df4	0.15264112
18	0xbdb1a0a8	-0.08673221
19	0x3eb696dd	0.35661975
20	0xbe7d2ec9	-0.24724878
21	0xbeaa4aa4	-0.3326007
22	0x3db40092	0.08789171
23	0x3ebe2aa5	0.3714191
24	0x3eb23408	0.34805322
25	0x3e2c248c	0.16810817
26	0x3e6f0009	0.23339857
27	0x3e5bdc7b	0.21470825
28	0x3dcbe5d6	0.09955947
29	0xbc2bf3ce	-0.010495139
30	0x3ea636d9	0.3246372
31	0x3e36fed8	0.17870653
32	0x3e144da9	0.1448275
33	0xbea73989	-0.32661083
34	0xbe073901	-0.13205339
35	0x3d7a8e9a	0.06117115
36	0xbeb82351	-0.35964444
37	0x3ecc335d	0.39882937
38	0x3e5bf79d	0.21481176
39	0xbe72590b	-0.2366678
40	0xbe5aa605	-0.21352394
41	0x3d9038cb	0.070420824
42	0x3e7b1d86	0.24522981
43	0xbe50488e	-0.20340177
44	0xbdab0a76	-0.08351605
45	0x3e85c17c	0.2612418
46	0x3e539e87	0.20665942
47	0xbee7dd8f	-0.45286223
48	0x3d828e94	0.06374851
49	0x3e7f3054	0.2492078
50	0xbeaef262	-0.34169298
51	0x3e7dff8f	0.24804519
52	0xbd7b685f	-0.061378833
53	0xbe178d21	-0.1479993
54	0xbe8e8b69	-0.27840737
55	0x3e59e830	0.21279979
56	0xbe8448e7	-0.2583687
57	0x3e6fdd19	0.23424186
58	0x3d5bdbe6	0.05367651
59	0xbdd0dab1	-0.10197962
60	0xbda73405	-0.08164219
61	0x3e4050f2	0.18780878
62	0xbbab18d2	-0.0052214647
63	0x3e16cc10	0.14726281
64	0x3e6f683b	0.23379605
65	0x3e20cb98	0.15702665
66	0xbde49fb5	-0.11163274
67	0x3e5730da	0.21014729
68	0x3e441c62	0.19151452
69	0x3e862bff	0.2620544
70	0x3e0c0fb8	0.13677871
71	0xbe13553b	-0.14387982
72	0x3e7c5abb	0.24643986
73	0xbed29aa5	-0.4113361
74	0xbeb9473a	-0.36187154
75	0xbdf25b43	-0.11833813
76	0x3e88ff2f	0.2675719
77	0xbead3e54	-0.33836615
78	0x3e5b872e	0.21438286
79	0xbe05b2d3	-0.13056497
80	0xbda6cda1	-0.08144689
81	0xbcb699ab	-0.022290071
82	0xbc8ae850	-0.016956478
83	0x3bb741ec	0.0055925753
84	0xbe149f70	-0.14513946
85	0x3d3fe6a9	0.046850834
86	0x3e952914	0.29132903
87	0x3ebc6384	0.36794674
88	0x3d160882	0.036629207
89	0x3e9f249b	0.31082615
90	0xbd75e4f5	-0.060032804
91	0x3e2c41e6	0.16822013
92	0x3e8143f5	0.2524716
93	0x3cbfb9f5	0.0234041
94	0x3e79c535	0.24391635
95	0x3eaedff7	0.34155247
96	0xbeb9a44f	-0.3625817
97	0xbe585095	-0.2112449
98	0xbea274fb	-0.31729874
99	0x3d59a469	0.05313531
100	0xbc909484	-0.017648943
101	0xbe5eeca3	-0.21769957
102	0x3df75e1d	0.120784976
103	0x3e8afa9c	0.27144325
104	0x3e3313f5	0.17488082
105	0xbe822e51	-0.25425962
106	0x3d5cfc58	0.05395159
107	0x3e35df5b	0.17760985
108	0xbeb376a9	-0.35051468
109	0x3e8c7967	0.27436373
110	0x3d9d09d1	0.07667888
111	0x3eccba6d	0.39985982
112	0x3ea8c23c	0.3296069
113	0xbe04978f	-0.1294844
114	0xbde3ef10	-0.11129582
115	0xbe923260	-0.28554058
116	0xbdd9747b	-0.1061792
117	0xbe9ae165	-0.30250087
118	0x3ec348b2	0.381414
119	0xbe97f9b4	-0.29682696
120	0xbea2d289	-0.3180125
121	0xbd44c018	-0.048034757
122	0x3db122d2	0.086492196
123	0x3e242c0a	0.16032425
124	0x3ea47902	0.32123572
125	0xbe6ff0af	-0.23431657
126	0x3eb96b20	0.36214542
127	0xbed32dcc	-0.41245878
128	0x3ebf303a	0.3734148
129	0xbe100425	-0.14064081
130	0xbd8560ff	-0.06512641
131	0x3e370ecf	0.17876743
132	0x3e8a89af	0.2705817
133	0xbe8bc29f	-0.27296922
134	0xbddfa9a5	-0.10921029
135	0x3e29472f	0.1653106
136	0x3da046da	0.07826014
137	0x3c68d303	0.014210465
138	0xbd626eeb	-0.05528156
139	0x3e39c1f4	0.18140393
140	0x3ea367e5	0.31915203
141	0x3ea42e57	0.32066604
142	0x3e3cc1c8	0.18433297
143	0xbdb15a87	-0.08659845
144	0x3ec9fbf4	0.39450037
145	0x3e8f2fe8	0.27966237
146	0xbeaeb4fb	-0.34122452
147	0xbdb9d5df	-0.09073996
148	0x3e9ec329	0.3100827
149	0x3dfcc584	0.123423606
150	0x3c9ea8a4	0.019367523
151	0xbe9fc87f	-0.31207654
152	0xbd417b35	-0.04723664
153	0x3e99307f	0.29919812
154	0x3e5ed13e	0.21759507
155	0xbe8335a6	-0.25626868
156	0xbe8aeeca	-0.27135307
157	0x3c3d3922	0.011549266
158	0xbe7936d9	-0.24337329
159	0x3e1da068	0.15393221
160	0xbeb705b5	-0.35746542
161	0xbe2aceb5	-0.16680415
162	0xbe03fc7c	-0.12889284
163	0x3e0654e9	0.13118328
164	0x3d462c58	0.048382133
165	0xbeb5bb0b	-0.35494265
166	0x3ea17580	0.31534958
167	0x3ea48890	0.3213544
168	0x3ec7acee	0.38999122
169	0xbeba385f	-0.36371133
170	0xbe956430	-0.29178
171	0xbeb839bd	-0.3598155
172	0xbe4c02cd	-0.19922943
173	0xbe9f4c2f	-0.3111281
174	0xbd717f2e	-0.05895918
175	0x3ebf073a	0.373102
176	0x3e5f32d4	0.21796733
177	0xbe109d5d	-0.1412253
178	0x3e9b4249	0.3032401
179	0xbdce96fe	-0.10087393
180	0xbea87381	-0.32900622
181	0xbe5316d9	-0.20614184
182	0xbece9374	-0.40346873
183	0xbdf64641	-0.120251186
184	0xbed11776	-0.40838212
185	0x3dc35638	0.09537929
186	0x3eae6dfe	0.34068292
187	0xbdcea12a	-0.10089333
188	0xbd9be7cf	-0.07612573
189	0xbea149d9	-0.31501654
190	0x3e39a821	0.18130542
191	0x3b878d0d	0.0041366876
192	0x3a4547c1	0.0007525646
193	0x3ec882c2	0.3916226
194	0xbe532e3e	-0.20623109
195	0xbe344add	-0.17606683
196	0xbdd7adab	-0.105311714
197	0xbcf5ef10	-0.03002122
198	0xbdc72393	-0.09723582
199	0xbea0d954	-0.31415808
200	0x3d424696	0.047430597
201	0x3e4dee63	0.20110469
202	0x3ea1d6f6	0.31609315
203	0x3cc24f63	0.023719495
204	0x3e54e2e9	0.20789684
205	0xbdc40cca	-0.09572752
206	0x3e6cdc6b	0.23130958
207	0x3aba1ec9	0.0014199849
208	0x3eb01ec0	0.3439846
209	0x3e4434f2	0.19160822
210	0xbc12a391	-0.00895013
211	0x3dc13e73	0.09435739
212	0x3ec05498	0.3756454
213	0xbeb211e3	-0.3477927
214	0xbce11281	-0.027474644
215	0xbe1a87fa	-0.15090933
216	0xbe5ec097	-0.21753155
217	0xbe85f58d	-0.26163903
218	0xbeda7866	-0.42669982
219	0x3eaaa3fb	0.33328232
220	0x3de240c5	0.1104751
221	0xbe9feeb1	-0.31236795
222	0x3e7d79fd	0.24753566
223	0xbea62492	-0.32449776
224	0xbe67c331	-0.22633053
225	0x3e511a9c	0.20420307
226	0xbcbb9ff0	-0.022903413
227	0x3e8690e9	0.26282433
228	0x3e4fa47c	0.2027759
229	0xbe5755fa	-0.21028891
230	0xbd8437d8	-0.06455964
231	0x3dd7695d	0.10518143
232	0xbd98f26a	-0.07468112
233	0xbc2029da	-0.009775603
234	0xbece0605	-0.40238968
235	0xbc9bd781	-0.019023659
236	0x3e9ecd43	0.31015977
237	0xbe664840	-0.22488499
238	0x3ece1b24	0.40255082
239	0x3ec47be7	0.3837578
240	0xbcce1afc	-0.025159352
241	0x3e71ba1f	0.23606156
242	0x3df05781	0.1173544
243	0xbe16efcc	-0.14739913
244	0x3ea707b6	0.3262307
245	0xbe371497	-0.17878948
246	0xbdab3020	-0.083587885
247	0x3e63f8c8	0.22262871
248	0xbe0978a6	-0.1342493
249	0x3eaa7d0b	0.33298525
250	0xbecfb8c7	-0.4057066
251	0xbd2baaf2	-0.041911073
252	0x3df90e88	0.12160975
253	0xbc08d27f	-0.008350967
254	0x3e75a71f	0.23989533
255	0xbd97d42e	-0.07413517

net.2.weight f4 [256, 256]
0	0xbd5eecb6	-0.054424964
1	0xb8fc1d07	-0.00012021703
2	0xbd715db2	-0.058927245
3	0xbcff767c	-0.031184427
4	0x3d02a970	0.03189987
5	0xbc7aed03	-0.015315297
6	0x3c09f872	0.00842105
7	0xbbf2e859	-0.007412952
8	0xba658e41	-0.0008756854
9	0x3c8ed939	0.017437564
10	0xbd30c516	-0.043156706
11	0x3cc50c78	0.024053797
12	0xbb70007c	-0.0036621382
13	0xbd57733c	-0.05260013
14	0x3d52e020	0.051483274
15	0x3d064628	0.03278175
16	0x3d4566d6	0.048193775
17	0xbd08dd18	-0.033413976
18	0x3cc44a70	0.023961276
19	0xbd24aea3	-0.04020561
20	0xbd22cb04	-0.039744392
21	0xbcd0b530	-0.025477022
22	0x3cc6aa5f	0.024251161
23	0xbcc40c71	-0.023931714
24	0xbcab70d6	-0.020927828
25	0xbc4cb73e	-0.01249486
26	0xbd4d2e9d	-0.050093282
27	0x3d0e2c45	0.034710187
28	0xbd440f45	-0.047866125
29	0x3d1774e3	0.036976706
30	0xbd060b56	-0.032725655
31	0xbc29383a	-0.010328347
32	0xbd375b89	-0.04476503
33	0xba8abb40	-0.0010584369
34	0x3d244eec	0.04011433
35	0xbd646b51	-0.055766407
36	0xbd51abbd	-0.051189173
37	0x3d4314cb	0.04762725
38	0xbd4d0251	-0.050051037
39	0x3a92f254	0.0011211135
40	0xbcc30af0	-0.023808926
41	0x3cd53dd5	0.02603046
42	0x3b744456	0.0037272177
43	0x3af93ede	0.0019015928
44	0xbd26fa71	-0.040766183
45	0x3d3cea09	0.04612163
46	0x3d4c3ea5	0.04986443
47	0x3c70c810	0.014696136
48	0xbcf262a8	-0.029588059
49	0x3ca36338	0.019944772
50	0x3d6008cc	0.05469589
51	0x3d084d26	0.0332767
52	0xbce7a829	-0.028278427
53	0x3d6dbd12	0.05804164
54	0x3d496942	0.049172647
55	0x3c821aee	0.015881982
56	0x3ba5f817	0.005064975
57	0x3c1ade6f	0.009452446
58	0x3b1b2b80	0.002367705
59	0x3caeb4d8	0.021326467
60	0x3d72aaac	0.059244797
61	0x3a403be7	0.0007333145
62	0x3c8aceae	0.016944256
63	0x3d48779d	0.048942197
64	0x3d09becc	0.033629224
65	0x3c46841b	0.012116457
66	0xbcbdd130	-0.023171037
67	0xbd39597f	-0.045251366
68	0xbd0c70a6	-0.034287117
69	0xbd03e22b	-0.032198112
70	0x3c6dce97	0.014514587
71	0xbc790918	-0.015199922
72	0xbd5e8275	-0.054323632
73	0x3d3d82a6	0.046267174
74	0xbb8aa400	-0.004230976
75	0x3d373ae4	0.044733897
76	0xbd6130ae	-0.054978065
77	0x3a02d08d	0.0004990183
78	0x3c945654	0.01810757
79	0x3d3111b0	0.04322976
80	0x3c9a4f05	0.018836508
81	0x3c79b163	0.015240046
82	0xbc91bc32	-0.017789934
83	0x3cd1c32a	0.025605757
84	0xbc3c7819	-0.011503243
85	0xbca21b8b	-0.019788524
86	0x3d343f25	0.04400553
87	0x3cde0e65	0.027106473
88	0xbc407df1	-0.011748777
89	0xbd423671	-0.0474152
90	0xbd2ce96e	-0.042214803
91	0x3d3450f4	0.044022515
92	0xbcf42a23	-0.029805249
93	0xbd5d750a	-0.054066695
94	0xbd86ef60	-0.06588626
95	0xbcc1f973	-0.023678517
96	0xbc70204e	-0.01465614
97	0xbd50232c	-0.050814793
98	0xbd2e8eda	-0.042616703
99	0xbd40778b	-0.046989005
100	0xbd8d3305	-0.06894497
101	0x3d631f8a	0.05545
102	0x3d63e091	0.055634085
103	0xbb37cd53	-0.0028045967
104	0x3d476a5b	0.048685413
105	0x3cc6af08	0.024253383
106	0xbc794cc4	-0.015216056
107	0x3d0740b2	0.033020683
108	0xbcbd9fbc	-0.023147456
109	0xbd82f4e7	-0.06394368
110	0x3cbc5916	0.022991698
111	0x3d1cf302	0.038317688
112	0xbc360ff6	-0.011112204
113	0xbd67cb88	-0.056590587
114	0x3c8331fb	0.016015043
115	0x3b6452cc	0.003483939
116	0x3d0023b1	0.031284038
117	0x3b66c500	0.0035212636
118	0x3d383e15	0.04498108
119	0x3d002f84	0.031295314
120	0xbd568d48	-0.05238083
121	0xbc34df50	-0.01103957
122	0x3d359a89	0.04433683
123	0x3d2cf8a6	0.042229317
124	0x3cfd295c	0.03090351
125	0xbc616828	-0.013757743
126	0xbca68752	-0.020328198
127	0xbce3956c	-0.02778121
128	0xbb645804	-0.00348425
129	0xbc445586	-0.011983281
130	0xbd47a1b0	-0.04873818
131	0xbbaa3460	-0.005194232
132	0x3bd6c097	0.00655372
133	0x3d2bb944	0.04192473
134	0xbd051260	-0.032488227
135	0x3cf13dea	0.029448468
136	0x3d3d8fb6	0.04627963
137	0xbc167120	-0.009182245
138	0xbd514e06	-0.0510998
139	0xbd40d5d8	-0.047078937
140	0xbcd5a06a	-0.026077468
141	0xbd7bce6d	-0.06147616
142	0xbbc3b6ff	-0.0059727426
143	0x3d240602	0.040044792
144	0xbd03c8a4	-0.032173768
145	0xbc988d91	-0.018622192
146	0x3d688794	0.056769922
147	0x3cc2f328	0.023797587
148	0x3d3fc0ba	0.046814658
149	0x3cfd7960	0.030941665
150	0xbbc9d9ea	-0.0061600106
151	0x3d2c9f2e	0.042143993
152	0xbc91f212	-0.017815623
153	0xbd40b9c7	-0.04705217
154	0xbd854a90	-0.06508362
155	0xbd48b5b4	-0.04900141
156	0xbd2a0168	-0.041505247
157	0x3d489bc8	0.04897669
158	0xbd21fb32	-0.0395462
159	0xbd876578	-0.066111505
160	0x3cdaa888	0.02669169
161	0xbca19e7c	-0.019728892
162	0xbcb259b3	-0.021771288
163	0xbd349d3c	-0.044095263
164	0x3c87ecef	0.01659247
165	0x3c8aa1ea	0.01692291
166	0xbd38d5ae	-0.045125656
167	0x3d5c4442	0.053776033
168	0xbd38df39	-0.045134757
169	0x3d1b5cf7	0.037930455
170	0xbd70a07a	-0.058746792
171	0x3d331c30	0.043728054
172	0xbd4766e5	-0.048682112
173	0x3c82fe24	0.015990324
174	0xbd20f602	-0.03929711
175	0xbd49d201	-0.04927254
176	0x3d1e105c	0.03858982
177	0x3d08284e	0.033241563
178	0x3d5d2eae	0.053999595
179	0x3d0ac87c	0.033882603
180	0xbcc3b4e4	-0.023889966
181	0xbca0dfa0	-0.019637883
182	0xbcbb3a48	-0.02285494
183	0xbd78465f	-0.060613986
184	0xbc1417f8	-0.009038918
185	0x3ced031c	0.028932147
186	0x3d579687	0.05263379
187	0xbd62e438	-0.055393428
188	0x3cae1bed	0.02125355
189	0xbd89bb9e	-0.06725238
190	0x3c5bc950	0.013414696
191	0x3b52bc20	0.0032155588
192	0x3cf7b560	0.030237854
193	0xbbeb63bf	-0.0071835215
194	0x3d31211c	0.043244466
195	0xbd0870db	-0.033310752
196	0x3c3b7236	0.011440804
197	0x3cd32165	0.02577276
198	0x3cdbd2d8	0.026833937
199	0x3cc57464	0.024103351
200	0xbca811e7	-0.020516349
201	0x3d51baf6	0.05120369
202	0xbd5dad7f	-0.054120537
203	0xbc39c891	-0.011339323
204	0x3ca5d511	0.0202432
205	0x3c956035	0.018234352
206	0xbcdbc01b	-0.026825001
207	0xbc48f1c0	-0.012264669
208	0x3d49905c	0.049209937
209	0x3ba61903	0.0050688996
210	0xba6b1647	-0.0008967858
211	0x3d1448ec	0.036202356
212	0xbd3dee48	-0.04636982
213	0xbcc3347c	-0.023828737
214	0xbc975e1c	-0.018477492
215	0xbc00dec8	-0.007865615
216	0xbcdd36ec	-0.027003728
217	0xbd22eba2	-0.0397755
218	0x3d29e0a7	0.04147401
219	0xbd3743b1	-0.04474229
220	0x3d4ab61d	0.049490083
221	0xbc8d3f23	-0.01724202
222	0x3c7d264d	0.015451026
223	0x3d29acb6	0.041424476
224	0x3cfe6888	0.031055704
225	0x3d327b8b	0.04357485
226	0xbd89d9e3	-0.06731012
227	0xbd73b156	-0.059495293
228	0xbd8c4b90	-0.0685035
229	0xbd30a71b	-0.043128114
230	0x3bdb3901	0.006690145
231	0x3b7cb1b4	0.0038558068
232	0xbcb3b49b	-0.021936705
233	0xbd269cfe	-0.040677063
234	0xbcf92aad	-0.030415857
235	0x3d789601	0.06068993
236	0xbd6cf2ab	-0.057848614
237	0x3d3a243c	0.045444712
238	0xbd605aad	-0.054773975
239	0xbd389247	-0.045061376
240	0xbd5aa95a	-0.053384162
241	0x3d631cbc	0.055447325
242	0xbd6863c3	-0.056735765
243	0xbd32ae64	-0.043623343
244	0xbd36d0ee	-0.044632845
245	0x3d04415c	0.032288894
246	0xbd258e37	-0.04041883
247	0xbd4c70ca	-0.04991225
248	0x3ce0b8e2	0.027431909
249	0x3c998634	0.01874075
250	0xbca6c69c	-0.020358376
251	0x3b1ae99a	0.0023637773
252	0xbc19df53	-0.009391624
253	0x3cb1be04	0.021697052
254	0xbd627b66	-0.055293463
255	0xbd727e74	-0.059202626

net.2.bias f4 [256]
0	0x3c3abb51	0.011397199
1	0xbd940399	-0.07227249
2	0xbcc3c564	-0.023897834
3	0x3d1bbc50	0.038021386
4	0x3b5d9a85	0.0033814025
5	0xbaa2302d	-0.0012373977
6	0x3d016be4	0.031597033
7	0xbd91c3d4	-0.071174294
8	0xbca872d8	-0.020562574
9	0x3dc3ee59	0.095669456
10	0x3d2a8089	0.041626487
11	0xbd75914e	-0.059953026
12	0x3d75ae44	0.059980646
13	0xbd0ba543	-0.034093153
14	0x3d9213b9	0.07132668
15	0xbd54e21c	-0.051973447
16	0x3b7e0fda	0.0038766772
17	0x3d4e29de	0.050332896
18	0x3d3c586d	0.045982767
19	0xbbce130b	-0.006288891
20	0x3d89c77a	0.067275
21	0x3d0f6df7	0.03501698
22	0x3da7c321	0.08191515
23	0xbcf15324	-0.02945859
24	0xbd0b5fb7	-0.034026828
25	0xbd75c91e	-0.060006253
26	0xbca25396	-0.019815248
27	0x3ccf9c98	0.025343224
28	0xbd6973a4	-0.05699505
29	0xbb946997	-0.004529189
30	0x3d02e182	0.031953342
31	0x3de43049	0.11142022
32	0xbc5b4bf8	-0.013384812
33	0x3d8162fb	0.06317707
34	0x3d406971	0.046975557
35	0x3d58beb2	0.052916236
36	0x3d89e1d1	0.06732524
37	0xbd967a21	-0.07347513
38	0x3ccf9260	0.025338352
39	0xbd239a9a	-0.03994236
40	0x3d270725	0.040778298
41	0x3d2edcf1	0.042691175
42	0xbd7afa72	-0.061274
43	0x3db6530d	0.089025594
44	0xbcd0ba64	-0.025479503
45	0x3da2013c	0.07910392
46	0x3cbb6fea	0.022880513
47	0x3d5b83fb	0.053592663
48	0x3dda3629	0.106548615
49	0xbd111fea	-0.035430826
50	0x3d217f0e	0.03942781
51	0x3dc9a9ae	0.09846817
52	0x3d7853db	0.060626846
53	0x3c81b72d	0.015834415
54	0x3cdcaced	0.026937926
55	0xb999cdc4	-0.0002933574
56	0xbd1ed2f3	-0.038775396
57	0xba9d4f24	-0.0012001735
58	0x3dad9bcc	0.084769815
59	0x3d16f16a	0.036851324
60	0x3db3d59b	0.087809764
61	0xbd461ca7	-0.04836717
62	0x3b86a37b	0.004108844
63	0x3d458913	0.048226427
64	0x3c87d7f9	0.016582476
65	0x3d8937a9	0.067000695
66	0x3d0bb9ef	0.034112867
67	0xbd60245d	-0.05472218
68	0xbd93fe43	-0.07226231
69	0x3c9451ae	0.018105354
70	0x3d867ace	0.06566392
71	0x3ce3e442	0.027818803
72	0x3d0f866e	0.03504031
73	0xbcd710f1	-0.026253195
74	0xbd583443	-0.052784216
75	0x3cfeb244	0.031090863
76	0xbd888a74	-0.06667033
77	0xbd8f9793	-0.07011332
78	0xbd4304a6	-0.047611855
79	0xbc462fc1	-0.012096346
80	0xbcaeb0f8	-0.02132462
81	0x3dbc5d2f	0.09197461
82	0x3cd9f67c	0.02660679
83	0xbbb918bb	-0.0056487
84	0xbd415d89	-0.047208343
85	0xbc7b994b	-0.015356372
86	0xbd225ee2	-0.03964127
87	0x3d358f86	0.044326328
88	0x3cba8232	0.02276716
89	0x3da51332	0.08060302
90	0x3d430c1c	0.04761897
91	0x3de37b52	0.11107506
92	0x3cf17741	0.02947581
93	0xbcb5b12e	-0.022179212
94	0xbd6f3a6e	-0.058405332
95	0xbd1016b5	-0.035177905
96	0x3bbaaad6	0.0056966348
97	0x3d95b4ed	0.073098995
98	0x3c8912a4	0.016732521
99	0x3d541e67	0.051786806
100	0xbc9fa4a2	-0.019487683
101	0x3cd13e97	0.02554254
102	0xbcdd44b5	-0.027010301
103	0x3c7c3633	0.0153937815
104	0x3d986218	0.07440585
105	0x3db4bd10	0.08825123
106	0xbda02b78	-0.07820791
107	0x3c492997	0.012277982
108	0xbc9726b7	-0.018451078
109	0xbd1bab7c	-0.038005337
110	0x3d480038	0.048828334
111	0xbd42cd90	-0.04755932
112	0xbd97ad34	-0.07406083
113	0x3bafd0a5	0.0053654485
114	0xbbcd1d5f	-0.006259605
115	0xbafeea01	-0.0019448401
116	0x3bece805	0.0072298073
117	0xbce26b3b	-0.027639022
118	0x3da2fa49	0.07957894
119	0x3c4bcd38	0.012439065
120	0xbd5c3aa2	-0.053766854
121	0x3ac4aac4	0.0015004505
122	0xbd0370db	-0.03209005
123	0x3d6785c9	0.05652407
124	0x3da15b9e	0.07878803
125	0x3d904871	0.07045067
126	0x3c8aa39c	0.016923718
127	0x3d06dfdf	0.032928344
128	0x3d0502ba	0.032473303
129	0x3ca09ad0	0.01960507
130	0x3d006aba	0.031351782
131	0x3d1f2eb2	0.03886289
132	0x3d052cda	0.032513477
133	0xbd1d5001	-0.038406376
134	0xbd5d138f	-0.05397373
135	0x3d580cc5	0.052746553
136	0x3d9121ca	0.07086523
137	0xbc2cea13	-0.0105538545
138	0xbc570058	-0.013122641
139	0xbd8558fb	-0.06511112
140	0x3cf8e1ab	0.030381044
141	0xbd440c70	-0.047863424
142	0x3d8d5075	0.069001116
143	0xbd784bf6	-0.060619317
144	0xbcc78ec9	-0.024360077
145	0xbd1c985d	-0.038231242
146	0xbd4d5df4	-0.05013843
147	0xbd68def9	-0.05685327
148	0xbce00118	-0.027344272
149	0x3ca8f582	0.02062488
150	0x3d3849eb	0.04499237
151	0xbd6839c0	-0.0566957
152	0xbd063cbc	-0.032772765
153	0xbd1c6084	-0.038177982
154	0x3d879c4e	0.0662161
155	0x3d2f9dfe	0.042875282
156	0xbd8585b5	-0.06519643
157	0x3d8f82a9	0.07007343
158	0xbcaec5b5	-0.021334508
159	0xbc9ded94	-0.019278325
160	0x3d4db372	0.05021996
161	0x3df81762	0.12113835
162	0x3d7bd6e4	0.061484233
163	0x3c4ea2c2	0.012612047
164	0x3dd9c097	0.10632437
165	0xbd71a9f6	-0.058999978
166	0x3c79b327	0.015240467
167	0x3bad8622	0.005295531
168	0x3c0f5f1d	0.008750704
169	0xbd085f5a	-0.03329406
170	0x3d01c9a7	0.03168645
171	0x3bbeb278	0.005819615
172	0x3d31d88b	0.043419402
173	0x3d1aa807	0.0377579
174	0x3c725108	0.014789827
175	0x3d2b9d0c	0.04189782
176	0xbd8bf517	-0.068338566
177	0x3d2163ec	0.039401934
178	0x3ccf6dbb	0.025320878
179	0x3dd32e45	0.103115596
180	0xbd697878	-0.056999654
181	0x3cb300cc	0.021850966
182	0x3c84aaca	0.01619472
183	0x3cd5353c	0.02602636
184	0x3d1debd6	0.03855499
185	0x3cd64671	0.026156636
186	0x3dee1944	0.11625913
187	0x3c6c4414	0.014420528
188	0xbd24179a	-0.04006157
189	0xbc054e33	-0.00813632
190	0x3c87dcc9	0.01658477
191	0xbd152d49	-0.03642014
192	0x3bdd0d0b	0.0067459396
193	0xbd06b2ed	-0.03288548
194	0x3db73a90	0.08946717
195	0x3ba5e850	0.005063094
196	0x3dda1b98	0.10649794
197	0xbd26c99a	-0.040719606
198	0xbc641433	-0.0139208315
199	0xbc788498	-0.015168332
200	0x3ddda13c	0.10821769
201	0x3d6723d8	0.056430668
202	0x3d850a79	0.06496138
203	0x3ce5b8c8	0.028042212
204	0x3d50492d	0.050851036
205	0xbcb97fb4	-0.022643901
206	0x3cf5b92b	0.029995522
207	0x3d9dea82	0.077107444
208	0x3c11e83d	0.008905468
209	0x3cac675f	0.021045385
210	0xbd493222	-0.049120076
211	0xbdd3172e	-0.103071555
212	0x3dce6462	0.1007774
213	0x3d56256a	0.052281775
214	0xbb7adee9	-0.0038279837
215	0xbd731da1	-0.05935443
216	0xbcfa7a20	-0.030575812
217	0xbd0425d5	-0.032262642
218	0xbc987a67	-0.018613053
219	0xbd76ae3f	-0.060224768
220	0x3dd81d37	0.10552447
221	0x3d4ef328	0.05052486
222	0x3ce6df10	0.028182536
223	0x3ce15778	0.027507529
224	0xbd2f202f	-0.042755302
225	0xbd1b34d4	-0.037892178
226	0x3c723b86	0.014784699
227	0x3ca116c4	0.019664176
228	0xbc020b20	-0.007937223
229	0xbc5b8e26	-0.01340059
230	0x3d07c67c	0.033148274
231	0xbb540e6c	-0.003235723
232	0xbd9a5d6e	-0.075373515
233	0x3af4f429	0.0018688488
234	0xbcc1b741	-0.023646953
235	0x3de6a9e8	0.11262876
236	0x3d0273b9	0.031848643
237	0x3daaa817	0.08332842
238	0x3d4a1a0e	0.049341254
239	0xbd060382	-0.03271819
240	0x3d87a296	0.06622808
241	0x3cfd9008	0.030952469
242	0x3c3b44cc	0.011429977
243	0x3d38ff2b	0.045165222
244	0xbd878f0b	-0.0661908
245	0xbc981677	-0.0185654
246	0x3de54fe3	0.11196878
247	0x3dbab6af	0.091168754
248	0x3d03a1df	0.032136794
249	0xba83ea27	-0.001006429
250	0x3c39a395	0.011330505
251	0x3d89c945	0.06727842
252	0xbd047135	-0.032334525
253	0x3ce2a08e	0.027664449
254	0x3aa967ee	0.001292465
255	0x3dc04df2	0.09389867

actor.weight f4 [1, 256]
0	0x3c33ccf6	0.010974159
1	0x3d385030	0.044998348
2	0x3dacc9b8	0.08436912
3	0xbd32d528	-0.043660313
4	0x3eb90c4d	0.36142197
5	0x3c539317	0.012913487
6	0x3d3ebfa7	0.046569493
7	0xbc6f94fd	-0.014622924
8	0xbab67600	-0.0013920665
9	0x3da2b0b6	0.07943861
10	0xbc6b7cc0	-0.014373004
11	0xbc5c4bbf	-0.013445794
12	0x3ea47ced	0.3212656
13	0xbb8a57b9	-0.004221883
14	0x3e717878	0.23581111
15	0x3cc67c1c	0.024229102
16	0x3e99cba0	0.30038166
17	0xbbe18760	-0.006882593
18	0xbddc6e69	-0.107632466
19	0x3d4ced07	0.050030734
20	0xbd2769b9	-0.04087231
21	0xbe8fd70e	-0.2809376
22	0x3e7540c9	0.23950495
23	0xbd0f8de2	-0.03504742
24	0xbe6b035d	-0.22950502
25	0xbb6f57ba	-0.0036520795
26	0x3d567b8e	0.052363925
27	0xbca32a8a	-0.019917745
28	0xbe836ba4	-0.2566806
29	0xbe761725	-0.24032266
30	0x3ca03185	0.019554863
31	0x3e6bc5e8	0.23024714
32	0x3d3706b0	0.044684112
33	0xbd02c5a6	-0.031926773
34	0xbe83dce4	-0.25754464
35	0xbe56ac0d	-0.2096407
36	0x3ea36c52	0.3191858
37	0x3e730d04	0.23735434
38	0xbe434a6f	-0.19071363
39	0x3c035298	0.008015297
40	0x3dffe4b7	0.12494796
41	0xbe6f2014	-0.2335208
42	0x3d5a81c2	0.053346403
43	0x3cf02dbb	0.029318681
44	0xbd3a8406	-0.045536064
45	0x3e95eec9	0.2928374
46	0xbbf8957c	-0.0075861793
47	0xbe6b2dd2	-0.22966698
48	0x3e0c753b	0.13716595
49	0x3d257c8b	0.040401977
50	0xbce23945	-0.027615199
51	0x3e1c97ba	0.15292254
52	0x3e93356d	0.28751698
53	0xbe457d6e	-0.19286129
54	0x3e791af5	0.2432669
55	0xbd279da8	-0.040921837
56	0xbe847c80	-0.25876236
57	0xbca3fcb5	-0.020017961
58	0x3abdcdf1	0.0014480931
59	0xbc96fc80	-0.018430948
60	0x3df6d1cf	0.120517366
61	0x3cc54291	0.024079593
62	0x3e6f75ca	0.23384777
63	0xbe67aedf	-0.22625302
64	0xbf351701	-0.70738226
65	0x3c783efa	0.0151517335
66	0xbe7a9d62	-0.244741
67	0xbd53adac	-0.0516793
68	0x3c077c25	0.008269344
69	0xbe8bdb5a	-0.2731579
70	0x3dced112	0.10098471
71	0x3e17ec3c	0.1483621
72	0x3d51c6e3	0.051215064
73	0xbbe34a4d	-0.0069363476
74	0x3ccef4dd	0.025263244
75	0x3d0aabbf	0.033855196
76	0xbcbba326	-0.022904944
77	0x3c706ed7	0.014674864
78	0xbd7c908e	-0.061661296
79	0xbe5187cc	-0.20461959
80	0x3eb7f695	0.35930315
81	0xbdf8fab5	-0.121571936
82	0xbea7c84e	-0.32770008
83	0xbe91a2f4	-0.28444636
84	0x3b888e3c	0.0041673463
85	0xbc4fafd3	-0.012676197
86	0xbd37b724	-0.04485239
87	0x3d28689c	0.04111539
88	0xbe6f5d02	-0.23375323
89	0x3e984d8e	0.2974667
90	0x3b9a9f6a	0.0047187107
91	0x3ae5d353	0.0017534293
92	0x3d3b4ec4	0.045729414
93	0xbc7f1b38	-0.015570454
94	0xbd55fc06	-0.0522423
95	0x3ea507b8	0.3223245
96	0x3d4f4418	0.05060205
97	0x3e42960a	0.19002548
98	0xbe3b46ee	-0.18288776
99	0xbd2d0e5b	-0.04225002
100	0x3d81989f	0.06327938
101	0x3c87028c	0.016480707
102	0xbc0a87c2	-0.008455219
103	0x3bbc3528	0.0057436414
104	0x3c4011ca	0.011722991
105	0xbe25d515	-0.16194566
106	0x3d585cb1	0.052822772
107	0x3e4ad771	0.19808747
108	0x3d75ec50	0.06003982
109	0x3be55560	0.006998703
110	0x3ca4e328	0.020127848
111	0x3c1dec4d	0.009638858
112	0x3b9b5bda	0.004741174
113	0x3b9c7a97	0.004775356
114	0xbaec021d	-0.0018006001
115	0x3e9ae152	0.3025003
116	0x3ada0306	0.0016632981
117	0xbb74c1c6	-0.0037346943
118	0x3d68b87e	0.05681657
119	0xb9d66200	-0.00040890276
120	0x3d37d132	0.04487724
121	0x3d1d4465	0.038395304
122	0x3d8406eb	0.06446632
123	0xbe3a51ff	-0.18195342
124	0xbcc6ebf0	-0.024282426
125	0x3cfe1833	0.031017398
126	0x3d59143b	0.05299781
127	0xbdbf9073	-0.093537234
128	0x3d025586	0.031819843
129	0xbc17dae0	-0.009268492
130	0xbc039ee8	-0.008033492
131	0xbd12d242	-0.03584505
132	0x3d409758	0.047019333
133	0xbe70b053	-0.23504762
134	0xbc061364	-0.008183334
135	0x3de50685	0.11182884
136	0xbe16ecb8	-0.14738739
137	0xbca2d4a9	-0.019876795
138	0xbd294190	-0.04132229
139	0x3d3d35f2	0.046194024
140	0xba9cfd4e	-0.0011977346
141	0xbe9c5441	-0.3053303
142	0x3e28a4e0	0.16469145
143	0xbca9bf00	-0.020720959
144	0x3bee439c	0.0072712433
145	0xbc86916a	-0.01642676
146	0x39887900	0.00026030093
147	0x3d7516bd	0.059836138
148	0xbd0c60e1	-0.03427208
149	0xbe5c7d75	-0.21532233
150	0x3cbcbcbc	0.023039214
151	0x3dd9343c	0.10605666
152	0xbb9c6ca8	-0.004773695
153	0xbd290371	-0.041263048
154	0x3e9f3ca2	0.31100947
155	0xbc8c18ec	-0.017101727
156	0x3cb9a820	0.022663176
157	0x3d57d932	0.052697368
158	0x3eb08d2e	0.34482712
159	0x3d2259a0	0.039636254
160	0x3cfd8d4d	0.030951167
161	0x3d31de57	0.04342493
162	0xbd96be11	-0.07360471
163	0x3e680ebf	0.22661875
164	0x3e44736d	0.19184656
165	0x3cd936c4	0.026515372
166	0xbe748d91	-0.23882128
167	0x3e9ea065	0.30981746
168	0xbd3f6cab	-0.046734493
169	0x3e975d50	0.2956338
170	0x3cb36951	0.021900805
171	0x3e8d2341	0.2756596
172	0x3d14f2a6	0.03636422
173	0x3e8f383e	0.27972597
174	0x3d4f75ce	0.050649457
175	0x3a047a94	0.0005053666
176	0xbd3fa49f	-0.046787854
177	0xbe663cd4	-0.22484142
178	0xbe7bd83d	-0.24594207
179	0x3e005c1a	0.12535134
180	0x3d44128e	0.047869258
181	0x3d31efa2	0.043441422
182	0xbe3627e5	-0.17788656
183	0x3c8478c2	0.016170863
184	0x3e706ce3	0.23479037
185	0x3c48c8f9	0.012254947
186	0x3e0bf0c2	0.1366606
187	0x3e91af08	0.2845385
188	0x3c14a538	0.009072594
189	0x3ead91ef	0.339004
190	0xbd21c099	-0.039490316
191	0xbe67713a	-0.22601786
192	0xbd62c5b4	-0.055364326
193	0xbe4ba8cb	-0.19888608
194	0xbd85dde2	-0.065364614
195	0xbd04af60	-0.032393813
196	0x3e009359	0.12556209
197	0xbcda7370	-0.026666373
198	0x3ca5d2d6	0.020242136
199	0x3c109d88	0.008826621
200	0x3dacd187	0.08438402
201	0xbe0f57d2	-0.13998345
202	0xbd811ab6	-0.06303923
203	0x3c188362	0.009308668
204	0xbe266e49	-0.16253008
205	0xbb482e41	-0.0030545148
206	0xbd53b815	-0.051689226
207	0xbe56aaab	-0.20963542
208	0xbd061e4a	-0.03274373
209	0x3c2aca13	0.010424155
210	0xbeac0786	-0.3359949
211	0x3e0afcc1	0.1357298
212	0x3ddf2916	0.108965084
213	0x3e6ca202	0.23108676
214	0xbe43b75b	-0.19112913
215	0x3c29baec	0.010359507
216	0x3bb9e298	0.005672764
217	0x3d2c4ebb	0.04206727
218	0x3c605990	0.013693228
219	0xbc60b8f4	-0.013715971
220	0x3c039dd7	0.008033237
221	0x3e5f89a7	0.21829854
222	0x3e048ed3	0.12945108
223	0xbcb83665	-0.022486875
224	0xbd324c8b	-0.04353003
225	0xbc45ae30	-0.012065455
226	0x3e1aaab3	0.15104179
227	0xbd1f557a	-0.038899876
228	0x3cfb490a	0.030674476
229	0xbe6af85b	-0.22946303
230	0xbcf1c5e6	-0.02951331
231	0xbd3fe5f6	-0.046850167
232	0xbdc286c9	-0.094983645
233	0x3ea57e22	0.32322794
234	0x3d46572d	0.04842298
235	0x3e367c96	0.17820963
236	0xbd785c1e	-0.060634725
237	0x3ea489df	0.32136437
238	0x3c919d7e	0.017775293
239	0x3eaca9f9	0.3372343
240	0x3e957fef	0.29199168
241	0xbe9cd0a2	-0.30627924
242	0x3e36dd85	0.1785794
243	0x3d10d67c	0.0353608
244	0x3d5ae94d	0.05344515
245	0xbd4769bd	-0.048684824
246	0xbc55278b	-0.013009916
247	0xbdecbd1f	-0.115595095
248	0xbd39569d	-0.045248616
249	0xbe3b3a92	-0.18284062
250	0xbd583c1a	-0.052791692
251	0xbe318e80	-0.17339516
252	0xbbdd47ce	-0.0067529446
253	0xbca86157	-0.020554228
254	0x3e4b73e6	0.1986843
255	0x3db5c628	0.08875686

critic.weight f4 [1, 256]
0	0xbd0169a8	-0.031594902
1	0xbc859cce	-0.016310122
2	0xbc9db152	-0.019249592
3	0x3d31644f	0.043308552
4	0x3c212dae	0.009837551
5	0x3c392a56	0.011301598
6	0xbca82d77	-0.020529492
7	0x3d090cb1	0.03345937
8	0xbcc9ae20	-0.024619162
9	0x3d7fec94	0.062481478
10	0xbcd3374b	-0.025783202
11	0xbcc5daee	-0.024152245
12	0x3bdca20f	0.006733186
13	0xbc88920f	-0.016671209
14	0x37ae7ee9	2.0801514e-05
15	0xbaf87040	-0.0018954352
16	0x3be0f912	0.006865629
17	0xbd487b9b	-0.048946004
18	0x3d95985f	0.07304453
19	0xbb86b0b0	-0.0041104183
20	0xbe23ecfa	-0.16008368
21	0x3d229480	0.039692402
22	0x3bbcdcae	0.0057636118
23	0xbd230670	-0.03980106
24	0x3b8df599	0.004332256
25	0xbc2ec468	-0.010666944
26	0x3d2810e2	0.041031726
27	0xbd0a5179	-0.033769105
28	0xbb4530a9	-0.0030088818
29	0x3d02635e	0.031833045
30	0xbc7e6394	-0.015526671
31	0x3cdcbb76	0.026944857
32	0x3c2fc290	0.01072754
33	0x3dae7918	0.085191905
34	0xbc3be4e1	-0.011468143
35	0x3c45755f	0.012051909
36	0x3c254f6e	0.010089738
37	0xbc1368c0	-0.008997142
38	0x3d6947b8	0.056953162
39	0x3d7ce36a	0.061740316
40	0x3d1c2763	0.0381235
41	0xbc42b88f	-0.0118848225
42	0x3bd96980	0.006634891
43	0x3d54913d	0.051896323
44	0x3c80a76e	0.015704837
45	0x3c16e508	0.009209879
46	0x3d68782a	0.056755222
47	0xbb942146	-0.004520568
48	0x3d2179c4	0.039422765
49	0xbd71dc8c	-0.05904822
50	0x3cbd39fc	0.023098938
51	0x3d32d38f	0.04365879
52	0x3c07ac67	0.00828085
53	0xbc03018a	-0.007995972
54	0x3bc784f9	0.0060888496
55	0xbc4fba0f	-0.012678637
56	0xbc83fe88	-0.01611258
57	0xbade2a31	-0.001694983
58	0x3d3b4ffc	0.045730576
59	0xbd03de4b	-0.032194417
60	0x3d276e3d	0.040876616
61	0x3d3cf9b2	0.046136566
62	0x3acaf3d5	0.0015484045
63	0x3d4a43b9	0.04938099
64	0x3e4513cc	0.19245833
65	0x3c54db37	0.012991718
66	0x3d2a5a85	0.041590232
67	0x3c80003f	0.015625117
68	0xbd04431a	-0.032290556
69	0xb95ee63c	-0.00021257339
70	0x3d1dbec1	0.038511995
71	0x3d06a632	0.03287334
72	0x3c0ef365	0.008725022
73	0xbcc54bb3	-0.024083948
74	0x3d5d6ac4	0.054056898
75	0x3ca892fa	0.020577896
76	0xbd59fb61	-0.05321825
77	0xbde5c71c	-0.11219618
78	0xbd2ef932	-0.04271812
79	0x3d46c225	0.048524994
80	0x3c2fac3f	0.010722219
81	0x3d849c32	0.064751044
82	0x3de90bb1	0.11379183
83	0x3abd116c	0.0014424748
84	0x3d5c86df	0.05383956
85	0xbd581519	-0.052754495
86	0x3ac86ac0	0.0015290603
87	0x3d4ebdd6	0.05047401
88	0x3d3d55e0	0.046224475
89	0x3b6bfb0b	0.0036007788
90	0x3d222d1c	0.0395938
91	0x3dac138b	0.08402165
92	0x3d2dc627	0.0424253
93	0xbba73b1a	-0.005103481
94	0xbba7d7f1	-0.005122178
95	0x3c260245	0.010132377
96	0x3d64e7f8	0.055885285
97	0x3cf32e07	0.029685033
98	0x3bfb6716	0.007672201
99	0x3d468804	0.04846956
100	0xbc5d9aa7	-0.0135256415
101	0xbcfba8c6	-0.030720126
102	0xbceb2a0c	-0.028706573
103	0xbd1ba18f	-0.03799587
104	0x3cea9ec2	0.028640155
105	0x3d87bd58	0.06627911
106	0xbd98bdf2	-0.07458104
107	0xbb5a7652	-0.0033334685
108	0x3d392f43	0.045211088
109	0xbd610464	-0.054935828
110	0x3d4cd0a0	0.050003648
111	0xbba407fe	-0.0050058356
112	0xbca2dc39	-0.019880401
113	0xbd1e63f6	-0.03866955
114	0xbcafae30	-0.021445364
115	0x3c007ac9	0.007841774
116	0x3ca65b92	0.020307336
117	0xbd185a07	-0.03719523
118	0x3d892720	0.066969156
119	0xbd1d5ee8	-0.038420588
120	0xbcebabc2	-0.028768424
121	0x3d3254c3	0.043537866
122	0xbc880fbe	-0.016609069
123	0x3d44d33a	0.048053004
124	0xbd72953f	-0.059224363
125	0x3d395788	0.045249492
126	0xbc6f6a8b	-0.014612804
127	0x3d81eb7c	0.06343743
128	0x3c873b90	0.016507894
129	0x3d2b0c36	0.041759692
130	0x3c8f9419	0.017526673
131	0x3c1b87e0	0.009492844
132	0x3d5914ee	0.052998476
133	0x3bc67f9b	0.006057692
134	0x3d0358e3	0.03206719
135	0x3d8f651e	0.070017084
136	0x3d708df2	0.05872912
137	0xbd76dc18	-0.06026849
138	0xbc8ea0e4	-0.017410703
139	0xbcc43bc8	-0.023954287
140	0xbb008cf0	-0.0019615255
141	0x3bb982eb	0.0056613586
142	0x3d736f20	0.05943215
143	0x3d429273	0.047502946
144	0xbcc33a5a	-0.023831535
145	0x3bc56b73	0.006024772
146	0xbd1a4e56	-0.037672363
147	0x3d57c459	0.052677486
148	0xbbf4f659	-0.007475656
149	0x3d0e4248	0.03473118
150	0x3aa2daaa	0.0012424786
151	0xbd2d3400	-0.04228592
152	0x3b90dca3	0.004420833
153	0x3bc1dc64	0.005916165
154	0x3b55dedb	0.0032634053
155	0x3da09145	0.07840208
156	0x3d5037ec	0.05083458
157	0x3d06c4c7	0.032902505
158	0x3b861146	0.0040914146
159	0x3d4afc31	0.049556915
160	0xbcc1b774	-0.023647048
161	0x3d8509d6	0.06496017
162	0x3dbe22e6	0.09284
163	0x3c07fe1d	0.008300331
164	0x3ceeb33c	0.0291382
165	0x3d441f38	0.047881335
166	0xbc285dd4	-0.010276277
167	0x3bffe44f	0.007809199
168	0xbd14b070	-0.036301076
169	0x3c0f81af	0.008758946
170	0xbcbd549f	-0.02311164
171	0xbb68acf6	-0.0035503483
172	0x3d8294a7	0.063760094
173	0x3c220e4e	0.009891106
174	0x3c492480	0.012276769
175	0x3c54242d	0.012948078
176	0xbc013dad	-0.00788824
177	0xbb4fb37d	-0.0031692677
178	0xbc7bc813	-0.015367526
179	0x3cf6fdd8	0.030150339
180	0x3cc54d08	0.024084583
181	0xbc57ca48	-0.013170786
182	0x3b07634a	0.0020658546
183	0xbd95418e	-0.07287894
184	0xbbc251c8	-0.0059301592
185	0x3d5dec4e	0.054180436
186	0x3d3ef070	0.046616018
187	0x3c299cfd	0.01035237
188	0x3cf22f48	0.029563561
189	0x3c7ae0e9	0.015312412
190	0xbcbaf1c4	-0.022820361
191	0xbba88911	-0.0051432927
192	0x3cc8845c	0.024477176
193	0x3b0ee64a	0.0021804743
194	0x3d0a5550	0.033772767
195	0x3d894e84	0.06704429
196	0x3d7f5056	0.062332474
197	0x3d703196	0.05864104
198	0xbd07f4dd	-0.033192504
199	0xbd213314	-0.039355353
200	0x3d8eee92	0.069790974
201	0x3d9a3149	0.07528932
202	0x3d03eb4a	0.03220681
203	0xbc6faa0a	-0.014627943
204	0x3b950ea2	0.0045488635
205	0xbb8df875	-0.004332597
206	0xbde24d18	-0.11049861
207	0x3d2d0fcf	0.042251404
208	0xbda72891	-0.08162034
209	0x3d980b5a	0.0742404
210	0x3b7e1682	0.003877074
211	0xbe301357	-0.17194878
212	0x3d201908	0.03908637
213	0xb8a2a43b	-7.755352e-05
214	0xba28ea79	-0.00064436306
215	0xbafff89e	-0.001952905
216	0x3c99b85e	0.018764671
217	0x3d2229ff	0.03959083
218	0xbd5cbc89	-0.05389074
219	0xbd5c60fe	-0.053803436
220	0x3d5f5ed7	0.054533806
221	0x3b1b3b58	0.0023686495
222	0x3d7e7cec	0.062130854
223	0x3d7c1f37	0.061553206
224	0xbc8a7acc	-0.016904257
225	0x3d735178	0.059403867
226	0x3d58cd6e	0.052930288
227	0xbc6957b8	-0.014242105
228	0xbbcdfae0	-0.00628601
229	0xbb827766	-0.0039815186
230	0xbb676783	-0.00353095
231	0x399e876d	0.00030237008
232	0xbd0ba63b	-0.034094077
233	0x3b72ece8	0.0037067477
234	0x3c7a3b07	0.015272862
235	0x3d3659ab	0.044519108
236	0xbce8b0eb	-0.028404674
237	0x3c522fe7	0.012828804
238	0x3d3a7e42	0.045530565
239	0x3bf5379c	0.007483436
240	0x39bd759a	0.0003613651
241	0xbc116c15	-0.008875866
242	0x3d370b50	0.044688523
243	0xbc363930	-0.011122033
244	0xbd4f4212	-0.05060012
245	0xbc64179d	-0.0139216455
246	0x3d4e218d	0.050324965
247	0x3d9e5061	0.07730175
248	0xbd0d5abc	-0.03451036
249	0xbbc1c908	-0.0059138574
250	0xbd0cae7c	-0.03434609
251	0x3d0b8de8	0.03407088
252	0xbc245860	-0.010030836
253	0x3d12605a	0.03573642
254	0x3cedb009	0.029014604
255	0x3d2d6533	0.04233284
