models1/ppo_2000.pth (torch, 275660 bytes, 6 tensors)

net.0.weight f4 [256, 6]
00000000: d25b d8be f675 d9be 6054 c53d 3670 a03e
00000010: 5ae9 b33c 8f32 d7be 6006 78bd e4e3 99bb
00000020: 5f4f f13e 022f cabe 6ca3 bdbd 89dd e33e
00000030: 7fc3 ddbc f1c7 0a3f ba5b 173e 6003 8dbe
00000040: 1238 77be 8fbf 61bd 6ebb a2be 5a5a 7a3e
00000050: fa0c 1c3e a37e 5fbd fe1f 8c3c 138d a33e
00000060: 2a85 853e f73a 04be 25cc eebe b269 a33e
00000070: c7bb 3b3e 576f 38be d50a cc3d 01ed b9bd
00000080: c9b7 bf3e 0932 653c 7a69 99be d784 623e
00000090: 25a5 aabd 9c36 963d e64f f63e 0edb 543e
000000a0: ba98 be3d 73a7 9bbe 2531 bbbe fc3a c4be
000000b0: c695 68bc 8365 183e 7852 24bd b9ac 753e
000000c0: b45c 91be c5af a7be d16b 803e 3072 06be
000000d0: 931b 903e 23a1 b1be 5653 113e f7ca 3b3e
000000e0: 0611 ee3e af2a 0fbf 3b69 2bbe eea8 1c3e
000000f0: 99e8 043e accd 28be 2f91 b93c a438 7a3b
00000100: d7ee 72be b0f5 91bd 2a6c 233d 5e7e 81be
00000110: db2f 5abe 50bd 8b3e 6275 d7bd de15 ffbd
00000120: f66e 12be 1ad0 db3d 667c 0cbe 57c1 2a3e
00000130: 92d3 98be 6549 adbe 2073 a8bc 4857 873d
00000140: ccd8 4b3e 3dd7 903e d995 10be c0bf ebbe
00000150: d2be 853e 2357 b43d 8a82 90be 6942 7f3a
00000160: 3640 90be 6586 983e cb18 a93d 2ddc a7be
00000170: 88a6 afbd 311f c4be bcf4 37be e541 fcbd
00000180: ee93 ff3d eb58 5f3e 33b6 c63e 472e 15be
00000190: fd5b aabc 70f0 b1be aa33 f0be 9dba 06be
000001a0: e70c 70bc 465c c0be 56dc 83bc 697f d23d
000001b0: b67a e9be abfe 7b3e 4d67 f7be 9aba a9be
000001c0: f494 d7bd 5379 183e 8892 163e 0542 4f3e
000001d0: de09 48be 2ce2 cd3e 3970 d0bd 92ee 78be
000001e0: 0021 10be 7961 8a3d 1e51 11be 9c8d 663e
000001f0: 39e4 6a3e d7ea 933e 7f3f bc3e 448c 713e
00000200: 0390 8f3c def7 0d3e 6782 8f3d 2496 bbbe
00000210: aef6 9ebe 6237 eb3d 0562 b83e 0884 00bf
00000220: 5886 95bd 3b8e c53e dc18 de3d d49a 38be
00000230: 0bf9 d2bd eeef c1bb 18b9 7a3e 76b7 ffbc
00000240: d22c 11be 231f 683e 1812 c23c c2e1 5c3d
00000250: c902 4f3e 5710 dcbe e84c 54be c3e5 a43e
00000260: 7c13 dbbe 76d6 213f 0b2b b33d ef6b 76be
00000270: 4128 183e 9897 b03c a789 5abe 9de4 503e
00000280: b633 d83d 9aee 51be a14b a43d 44a1 a5bd
00000290: c466 1a3f 4a6f 11bf 244c fd3c cff6 a8be
000002a0: 40d7 a83e 0736 bfbe 8545 b23d 60cb 803e
000002b0: 5e13 2fbd 43f0 2abe 3187 48be 55ec 143e
000002c0: b918 803e d4b8 99be 2dbe a2be b079 8f3d
000002d0: 2b08 0ebe 7459 8ebe bf4e c2be 8abd ca3e
000002e0: 65a6 c13e 2bde 813e 705d a5bd a784 a1be
000002f0: 1a9b 0fbf 859e 923e 68ac 423c 8c4d b2bd
00000300: 8cb7 49be 042d 97bd 8f8c 74be f8df b53e
00000310: 108e b2bd de6b f33c 3e64 95bd ab60 833e
00000320: 2f20 b4bd c9ca b1bc dd03 213e aca8 d63d
00000330: 1c6f debe 6401 0e3e 9094 8dbe c18c ad3e
00000340: 83f6 9fbe a1a8 623d 191d bdbe 82d8 af3d
00000350: c465 213e af8c 5b3d f996 c43d 1080 90be
00000360: ea6b 2c3e 8378 5a3e 8ee5 803e 467c ebbe
00000370: 553a 4ebe 0fe0 95be 8e17 72be f00a 33be
00000380: 371a e43e 0f74 6ebe ce23 41be 2afa 3ebe
00000390: 80b0 95bd 107d 1b3e 212e bfbe 5741 a73e
000003a0: e861 32be 6304 51bd 8320 fabc 2fdc 863d
000003b0: c2e6 f2bc 01a6 dd3d 9aeb 81be 36b8 063f
000003c0: c841 6c3e f801 c5be fe46 58bd ff00 72be
000003d0: fc47 143e 7172 c9be 8abe 07bf 391f 11bf
000003e0: 6f08 6cbb e04d 1d3e 2664 0e3e 0817 a6bd
000003f0: 3e47 9c3e f719 92be ca93 7a3e 1877 0fbf
-0.42257553 -0.4247281 0.09635234 0.3133561 0.021961857 -0.4203076 -0.060552955 -0.004696356
0.47130868 -0.3948899 -0.09259686 0.44504955 -0.027070759 0.54211336 0.14781085 -0.27541637
-0.24142483 -0.055114325 -0.31783623 0.24448529 0.15239325 -0.05456413 0.017105099 0.3194357
0.2607816 -0.12913118 -0.46640125 0.31916577 0.1833335 -0.18011223 0.099630035 -0.09078408
0.37444904 0.01398898 -0.29963285 0.22120987 -0.0833228 0.07334635 0.48107833 0.20786688
0.09306474 -0.3040119 -0.36560932 -0.38326252 -0.014195865 0.14882474 -0.04011771 0.2399167
-0.2839104 -0.3275129 0.25082257 -0.13129497 0.28146037 -0.3469325 0.14191946 0.18339144
0.46497363 -0.55924505 -0.16739361 0.15298817 0.12979354 -0.16484708 0.022652237 0.0038180733
-0.23723923 -0.07126939 0.039898075 -0.25291723 -0.21307318 0.2729287 -0.10520436 -0.12455343
-0.1430014 0.107330516 -0.13719329 0.16675316 -0.29848915 -0.33845058 -0.020562708 0.066084445
0.1990692 0.28289214 -0.14119662 -0.4604473 0.26122147 0.088056825 -0.28224593 0.0009737374
-0.2817399 0.29790035 0.08256682 -0.32785168 -0.08576685 -0.38305047 -0.17964453 -0.12317256
0.12479387 0.21811263 0.38810882 -0.14568435 -0.020795817 -0.34753752 -0.46914417 -0.13157125
-0.014651514 -0.375704 -0.016096275 0.10278208 -0.45601434 0.24608867 -0.48321 -0.33150178
-0.105264574 0.14890032 0.14704335 0.20240028 -0.19535014 0.40211618 -0.10177655 -0.24309757
-0.14075089 0.06756873 -0.141911 0.22514957 0.22938623 0.28890106 0.36767194 0.23588663
0.017524725 0.13864085 0.07007294 -0.36637986 -0.31047577 0.11485173 0.36012283 -0.50201464
-0.07301015 0.38585076 0.10844585 -0.18027812 -0.103014074 -0.0059184944 0.2448467 -0.03121541
-0.14177254 0.22668128 0.023690268 0.053926237 0.20215906 -0.42981216 -0.20732462 0.32206544
-0.42788303 0.63217866 0.08748444 -0.24064611 0.14859106 0.02155666 -0.21341573 0.20399709
0.10556738 -0.20501176 0.080222376 -0.080873996 0.6031306 -0.5681044 0.030920096 -0.330008
0.32976723 -0.37345907 0.08704666 0.25155163 -0.04274308 -0.16693215 -0.19582821 0.14543279
0.25018862 -0.30023825 -0.31785718 0.07005632 -0.13870303 -0.27802622 -0.37950704 0.39597732
0.3782226 0.25364813 -0.080744624 -0.31546518 -0.5609604 0.28636566 0.011881925 -0.08706197
-0.19698924 -0.07381633 -0.23881744 0.35522437 -0.087185025 0.029714521 -0.0729451 0.2565969
-0.08795201 -0.02170314 0.1572413 0.1048139 -0.43444145 0.13867718 -0.27652407 0.3389645
-0.3124276 0.0553366 -0.36936262 0.085862175 0.15761477 0.053600963 0.09599108 -0.28222704
0.16838041 0.21335034 0.25175136 -0.4599325 -0.2013944 -0.29272506 -0.23641798 -0.17484641
0.4455125 -0.2328646 -0.18861315 -0.18650118 -0.07309055 0.15184426 -0.3733988 0.32667038
-0.17420161 -0.051029574 -0.03053308 0.065849654 -0.02965105 0.10822678 -0.25375062 0.52624834
0.23071969 -0.38478065 -0.05280208 -0.23633192 0.14480585 -0.39345124 -0.53025115 -0.56688267
-0.003601577 0.15361738 0.13905391 -0.081098616 0.30523103 -0.28535435 0.2447044 -0.560411

net.0.bias f4 [256]
00000000: 0b46 b3be e0d3 bd3c 6763 86be fa3b d8be
00000010: 23ab db3e 21bc e1be db8f cebe 435c c3be
00000020: 5fc0 1ebb d7a5 10bc 7201 4a3e b1da 65be
00000030: 14dd 09be 6b1f 35be b4fb f0be 89b3 a33d
00000040: a71a b73e 2c59 c43d 8f87 f2bd aa47 ad3e
00000050: bfd1 b9be 02d5 7fbe 4f03 703d f5d7 8d3e
00000060: 0c2c c33e 464f 203e 2d07 5c3e 533c 6c3e
00000070: 01ed 5c3d 16db 753c ebf8 9a3e bfb0 543e
00000080: ec2f d93d 8939 a7be beb6 80be 0365 0fbe
00000090: adf6 ddbe e82d d93e 0a05 393e 766c 93be
000000a0: 05a6 5abe 57df 06be 577f 423e a148 9abe
000000b0: 860b 47be e624 5f3e 3c05 1d3e f732 13bf
000000c0: b583 d43d c52b 793e 62f2 aebe 48e1 233e
000000d0: d416 ddbd 486c 33be 698b 8ebe 1896 5b3e
000000e0: 0e0f 9cbe 064d b83d c65d 4a3d 9644 ebbd
000000f0: 0534 a7bd 2eb5 713e 2f16 e2bd 859b 9a3d
00000100: 759d 9c3e 8a7a fa3d 820b 8fbd 1de8 6c3e
00000110: 4be9 5b3e 2d51 943e 27d8 453e e61a 233e
00000120: dc5e 863e fe5e c8be 3a47 b9be f38d a4bd
00000130: 94a8 763e d048 e4be 8f34 693e 7643 87bd
00000140: 5fbe 31be 3c1e a0bd 56a4 9bbd 07d4 673c
00000150: 5c1d 6ebe 2a4e 893d 7598 893e af9f b03e
00000160: d1e2 8c3a 6d5d 863e 64ee febd 095f 1a3d
00000170: e6f5 503e 25ca 3c3d 3bd3 1c3e 2bdb 943e
00000180: ceba f0be 336c 97be fb74 a2be a700 013b
00000190: 4c7d ecbd a3ec 5ebe 0696 593e e3c6 573e
000001a0: efbf 463d 512e 82be 4e3c a23d 8ed0 193e
000001b0: 673c bcbe 61c1 0d3e ed03 393e 9a3c 9a3e
000001c0: db88 a43e a069 85bd ed6d 26be 347f b5be
000001d0: 56ae 3bbe 8178 e4be 30c6 be3e ee42 cfbe
000001e0: 89d2 a2be 67e8 d8bd 9860 963c 966d 1e3e
000001f0: fffe b23e aff0 6fbe 6ba5 9d3e 748d 03bf
00000200: cd17 a13e b97c 61be 3349 7ebe a03e 733d
00000210: 5ee6 813e bedf 9abe 3f18 bcbd 4f0b 3f3e
00000220: dc14 283d 179e b23d 37dd f6bd d174 6e3e
00000230: 3a1f cb3e c6ed b43e 0845 483e 7cf7 b8bc
00000240: 7b08 bc3e c32f 9c3e fbb4 aebe 2c27 10be
00000250: 9c60 243e 6b95 8e3e eb45 04be 7fc8 9fbe
00000260: 092e 47be 8153 923e ef45 6a3e a635 83be
00000270: 1153 74be da90 f73c 5829 8cbe de38 263e
00000280: b505 b7be 7e4d 79be 7f8d 07be af5e 513e
00000290: 9b1c 8f39 509e f0be 8c7b be3e 1a14 b43e
000002a0: 970d c73e 727c bdbe 590f a5be bd39 b8be
000002b0: d445 a1be 2f4c 9fbe fb52 abbd 0b36 cb3e
000002c0: 7450 4d3e 4510 0cbe 1157 a33e 4c8a 813d
000002d0: 8173 a8be d916 53be 7493 cebe 1468 72be
000002e0: 581e f9be 6b4c 363e bad6 a83e f67e 02be
000002f0: b9bf 54bd 2527 a6be 8300 803e 2362 ca3d
00000300: 493a c93c 6c94 c73e 3e2e 53be a473 92be
00000310: f247 1ebe 3eca 1e3c 9323 c7bd 54d9 a0be
00000320: 22f9 1e3d 9ff9 223e 5c9e b63e 5f24 a53b
00000330: d987 843e 100c c93b 3280 5a3e 15cd ab3d
00000340: 7bf8 b43e 680d 6e3e 99b2 803d 2fe6 fd3d
00000350: cd99 ac3e a12b f0be 2a25 883d fa87 1abe
00000360: bbbb 45be 6278 19bc f344 dfbe d50e b63e
00000370: 68f5 883d 2fb9 b4be a8e2 163e 4575 75be
00000380: 0143 9cbe b291 3a3e 5dea 6fbd 2945 463e
00000390: f18f 613e 715f 30be eab0 87bd 181c 2e3b
000003a0: c405 d2bd 41a4 4fbd 3f36 e8be e1ec a0bd
000003b0: d0b5 a63e e962 84be f127 d53e 7547 473e
000003c0: dea4 76bd d7e4 aa3e ca5e a93d 05f2 1ebe
000003d0: 6df7 453e 9714 37be 01c3 82bd e7d7 873e
000003e0: af75 2dbe 6497 a63e c7b8 cfbe ba2f 6fbd
000003f0: 0e1f bebc e8f8 06bd f194 0abe f7d7 8dbd
-0.35014376 0.023172319 -0.26247713 -0.42233258 0.42904004 -0.44088843 -0.40344128 -0.38156328
-0.0024223549 -0.008828602 0.19727114 -0.22446705 -0.13463241 -0.17687766 -0.47067034 0.07993228
0.35762522 0.09587321 -0.11842262 0.33843738 -0.36292836 -0.249836 0.058596905 0.27703825
0.38119543 0.1565524 0.21487112 0.23069887 0.053936962 0.015005847 0.30268034 0.20770548
0.106048435 -0.32661083 -0.2513942 -0.14003377 -0.4335226 0.42417836 0.18068328 -0.28793687
-0.21352394 -0.13171135 0.18993889 -0.30133536 -0.1943799 0.2179142 0.15334028 -0.5749964
0.103766836 0.24333103 -0.34169298 0.16003907 -0.1079537 -0.17521775 -0.27840737 0.21443975
-0.30480236 0.08999066 0.049405836 -0.11487691 -0.08164219 0.23604271 -0.110393874 0.07549194
0.3058888 0.12230404 -0.06984617 0.23135419 0.21475713 0.28968182 0.19320737 0.1592823
0.26244247 -0.39134973 -0.36187154 -0.08034887 0.24087745 -0.44586802 0.22773956 -0.06604664
-0.17357777 -0.07818267 -0.07599704 0.014149672 -0.23253387 0.06704362 0.26874128 0.3449683
0.0010748749 0.26243153 -0.12447813 0.03768829 0.20406303 0.046091218 0.15314953 0.29073462
-0.4701752 -0.29574737 -0.31729874 0.0019684227 -0.11547336 -0.21769957 0.21248636 0.21071963
0.048522886 -0.25425962 0.079216585 0.15020964 -0.36764833 0.138433 0.18067904 0.3012436
0.32135662 -0.06514287 -0.16252871 -0.3544861 -0.18328223 -0.44623187 0.3726058 -0.4048075
-0.3180125 -0.10591202 0.018356606 0.15471491 0.34960172 -0.23431657 0.30790266 -0.51387715
0.3146347 -0.22020234 -0.24832611 0.059385896 0.2537107 -0.30248827 -0.09184312 0.18656658
0.041035518 0.087215595 -0.12053912 0.2328675 0.3967226 0.35337657 0.19557583 -0.022578947
0.3672522 0.3050519 -0.34122452 -0.14077443 0.16052479 0.27848372 -0.12917297 -0.31207654
-0.19451155 0.28579333 0.2287824 -0.25626868 -0.23859812 0.030220438 -0.27375293 0.1623263
-0.35746542 -0.24345967 -0.1323757 0.20446275 0.00027296398 -0.46995783 0.37203634 0.35171586
0.38877556 -0.37009007 -0.32238272 -0.3598155 -0.31498587 -0.3111281 -0.08365437 0.3968967
0.20050222 -0.13678081 0.31902364 0.06325206 -0.32900622 -0.20614184 -0.40346873 -0.23672515
-0.48655963 0.17802589 0.32976323 -0.12743744 -0.051940653 -0.3245174 0.2500039 0.09881999
0.024563925 0.38980424 -0.20623109 -0.28603852 -0.15457132 0.009691773 -0.09723582 -0.31415808
0.03881181 0.15915535 0.35667694 0.005039736 0.25884894 0.006135471 0.21337965 0.08388726
0.35345826 0.23247302 0.06284065 0.1239742 0.3371109 -0.46908286 0.066477135 -0.15090933
-0.19309895 -0.00936708 -0.43607292 0.3555819 0.066874325 -0.35297534 0.147349 -0.23970516
-0.3051987 0.18219641 -0.058573116 0.1936232 0.22027566 -0.17223908 -0.066255406 0.0026567038
-0.10255006 -0.050693754 -0.45353886 -0.07857681 0.32560587 -0.25856712 0.41632035 0.19460852
-0.060215823 0.33377716 0.08270033 -0.1552201 0.19332667 -0.17878948 -0.0638485 0.26531908
-0.16939424 0.32537377 -0.4057066 -0.058395125 -0.023208167 -0.03295222 -0.13533379 -0.06925958

net.2.weight f4 [256, 256]
00000000: b6ec 5ebd 071d fcb8 b25d 71bd 7c76 ffbc
00000010: 70a9 023d 03ed 7abc 72f8 093c 59e8 f2bb
00000020: 418e 65ba 39d9 8e3c 16c5 30bd 780c c53c
00000030: 7c00 70bb 3c73 57bd 20e0 523d 2846 063d
00000040: d666 453d 18dd 08bd 704a c43c a3ae 24bd
00000050: 04cb 22bd 30b5 d0bc 5faa c63c 710c c4bc
00000060: d670 abbc 3eb7 4cbc 9d2e 4dbd 452c 0e3d
00000070: 450f 44bd e374 173d 560b 06bd 3a38 29bc
00000080: 895b 37bd 40bb 8aba ec4e 243d 516b 64bd
00000090: bdab 51bd cb14 433d 5102 4dbd 54f2 923a
000000a0: f00a c3bc d53d d53c 5644 743b de3e f93a
000000b0: 71fa 26bd 09ea 3c3d a53e 4c3d 10c8 703c
000000c0: a862 f2bc 3863 a33c cc08 603d 264d 083d
000000d0: 29a8 e7bc 12bd 6d3d 4269 493d ee1a 823c
000000e0: 17f8 a53b 6fde 1a3c 802b 1b3b d8b4 ae3c
000000f0: acaa 723d e73b 403a aece 8a3c 9d77 483d
00000100: ccbe 093d 1b84 463c 30d1 bdbc 7f59 39bd
00000110: a670 0cbd 2be2 03bd 97ce 6d3c 1809 79bc
00000120: 7582 5ebd a682 3d3d 00a4 8abb e43a 373d
00000130: ae30 61bd 8dd0 023a 5456 943c b011 313d
00000140: 054f 9a3c 63b1 793c 32bc 91bc 2ac3 d13c
00000150: 1978 3cbc 8b1b a2bc 253f 343d 650e de3c
00000160: f17d 40bc 7136 42bd 6ee9 2cbd f450 343d
00000170: 232a f4bc 0a75 5dbd 60ef 86bd 73f9 c1bc
00000180: 4e20 70bc 2c23 50bd da8e 2ebd 8b77 40bd
00000190: 0533 8dbd 8a1f 633d 91e0 633d 53cd 37bb
000001a0: 5b6a 473d 08af c63c c44c 79bc b240 073d
000001b0: bc9f bdbc e7f4 82bd 1659 bc3c 02f3 1c3d
000001c0: f60f 36bc 88cb 67bd fb31 833c cc52 643b
000001d0: b123 003d 00c5 663b 153e 383d 842f 003d
000001e0: 488d 56bd 50df 34bc 899a 353d a6f8 2c3d
000001f0: 5c29 fd3c 2868 61bc 5287 a6bc 6c95 e3bc
00000200: 0458 64bb 8655 44bc b0a1 47bd 6034 aabb
00000210: 97c0 d63b 44b9 2b3d 6012 05bd ea3d f13c
00000220: b68f 3d3d 2071 16bc 064e 51bd d8d5 40bd
00000230: 6aa0 d5bc 6dce 7bbd ffb6 c3bb 0206 243d
00000240: a4c8 03bd 918d 98bc 9487 683d 28f3 c23c
00000250: bac0 3f3d 6079 fd3c ead9 c9bb 2e9f 2c3d
00000260: 12f2 91bc c7b9 40bd 904a 85bd b4b5 48bd
00000270: 6801 2abd c89b 483d 32fb 21bd 7865 87bd
00000280: 88a8 da3c 7c9e a1bc b359 b2bc 3c9d 34bd
00000290: efec 873c eaa1 8a3c aed5 38bd 4244 5c3d
000002a0: 39df 38bd f75c 1b3d 7aa0 70bd 301c 333d
000002b0: e566 47bd 24fe 823c 02f6 20bd 01d2 49bd
000002c0: 5c10 1e3d 4e28 083d ae2e 5d3d 7cc8 0a3d
000002d0: e4b4 c3bc a0df a0bc 483a bbbc 5f46 78bd
000002e0: f817 14bc 1c03 ed3c 8796 573d 38e4 62bd
000002f0: ed1b ae3c 9ebb 89bd 50c9 5b3c 20bc 523b
00000300: 60b5 f73c bf63 ebbb 1c21 313d db70 08bd
00000310: 3672 3b3c 6521 d33c d8d2 db3c 6474 c53c
00000320: e711 a8bc f6ba 513d 7fad 5dbd 91c8 39bc
00000330: 11d5 a53c 3560 953c 1bc0 dbbc c0f1 48bc
00000340: 5c90 493d 0319 a63b 4716 6bba ec48 143d
00000350: 48ee 3dbd 7c34 c3bc 1c5e 97bc c8de 00bc
00000360: ec36 ddbc a2eb 22bd a7e0 293d b143 37bd
00000370: 1db6 4a3d 233f 8dbc 4d26 7d3c b6ac 293d
00000380: 8868 fe3c 8b7b 323d e3d9 89bd 56b1 73bd
00000390: 904b 8cbd 1ba7 30bd 0139 db3b b4b1 7c3b
000003a0: 9bb4 b3bc fe9c 26bd ad2a f9bc 0196 783d
000003b0: abf2 6cbd 3c24 3a3d ad5a 60bd 4792 38bd
000003c0: 5aa9 5abd bc1c 633d c363 68bd 64ae 32bd
000003d0: eed0 36bd 5c41 043d 378e 25bd ca70 4cbd
000003e0: e2b8 e03c 3486 993c 9cc6 a6bc 9ae9 1a3b
000003f0: 53df 19bc 04be b13c 667b 62bd 747e 72bd
-0.054424964 -0.00012021703 -0.058927245 -0.031184427 0.03189987 -0.015315297 0.00842105 -0.007412952
-0.0008756854 0.017437564 -0.043156706 0.024053797 -0.0036621382 -0.05260013 0.051483274 0.03278175
0.048193775 -0.033413976 0.023961276 -0.04020561 -0.039744392 -0.025477022 0.024251161 -0.023931714
-0.020927828 -0.01249486 -0.050093282 0.034710187 -0.047866125 0.036976706 -0.032725655 -0.010328347
-0.04476503 -0.0010584369 0.04011433 -0.055766407 -0.051189173 0.04762725 -0.050051037 0.0011211135
-0.023808926 0.02603046 0.0037272177 0.0019015928 -0.040766183 0.04612163 0.04986443 0.014696136
-0.029588059 0.019944772 0.05469589 0.0332767 -0.028278427 0.05804164 0.049172647 0.015881982
0.005064975 0.009452446 0.002367705 0.021326467 0.059244797 0.0007333145 0.016944256 0.048942197
0.033629224 0.012116457 -0.023171037 -0.045251366 -0.034287117 -0.032198112 0.014514587 -0.015199922
-0.054323632 0.046267174 -0.004230976 0.044733897 -0.054978065 0.0004990183 0.01810757 0.04322976
0.018836508 0.015240046 -0.017789934 0.025605757 -0.011503243 -0.019788524 0.04400553 0.027106473
-0.011748777 -0.0474152 -0.042214803 0.044022515 -0.029805249 -0.054066695 -0.06588626 -0.023678517
-0.01465614 -0.050814793 -0.042616703 -0.046989005 -0.06894497 0.05545 0.055634085 -0.0028045967
0.048685413 0.024253383 -0.015216056 0.033020683 -0.023147456 -0.06394368 0.022991698 0.038317688
-0.011112204 -0.056590587 0.016015043 0.003483939 0.031284038 0.0035212636 0.04498108 0.031295314
-0.05238083 -0.01103957 0.04433683 0.042229317 0.03090351 -0.013757743 -0.020328198 -0.02778121
-0.00348425 -0.011983281 -0.04873818 -0.005194232 0.00655372 0.04192473 -0.032488227 0.029448468
0.04627963 -0.009182245 -0.0510998 -0.047078937 -0.026077468 -0.06147616 -0.0059727426 0.040044792
-0.032173768 -0.018622192 0.056769922 0.023797587 0.046814658 0.030941665 -0.0061600106 0.042143993
-0.017815623 -0.04705217 -0.06508362 -0.04900141 -0.041505247 0.04897669 -0.0395462 -0.066111505
0.02669169 -0.019728892 -0.021771288 -0.044095263 0.01659247 0.01692291 -0.045125656 0.053776033
-0.045134757 0.037930455 -0.058746792 0.043728054 -0.048682112 0.015990324 -0.03929711 -0.04927254
0.03858982 0.033241563 0.053999595 0.033882603 -0.023889966 -0.019637883 -0.02285494 -0.060613986
-0.009038918 0.028932147 0.05263379 -0.055393428 0.02125355 -0.06725238 0.013414696 0.0032155588
0.030237854 -0.0071835215 0.043244466 -0.033310752 0.011440804 0.02577276 0.026833937 0.024103351
-0.020516349 0.05120369 -0.054120537 -0.011339323 0.0202432 0.018234352 -0.026825001 -0.012264669
0.049209937 0.0050688996 -0.0008967858 0.036202356 -0.04636982 -0.023828737 -0.018477492 -0.007865615
-0.027003728 -0.0397755 0.04147401 -0.04474229 0.049490083 -0.01724202 0.015451026 0.041424476
0.031055704 0.04357485 -0.06731012 -0.059495293 -0.0685035 -0.043128114 0.006690145 0.0038558068
-0.021936705 -0.040677063 -0.030415857 0.06068993 -0.057848614 0.045444712 -0.054773975 -0.045061376
-0.053384162 0.055447325 -0.056735765 -0.043623343 -0.044632845 0.032288894 -0.04041883 -0.04991225
0.027431909 0.01874075 -0.020358376 0.0023637773 -0.009391624 0.021697052 -0.055293463 -0.059202626

net.2.bias f4 [256]
00000000: 51bb 3a3c f809 86bd 4157 c2bd 50bc 1b3d
00000010: ac72 533d a060 2dbc e46b 013d d4c3 91bd
00000020: 6cfa d4bc 507e 6e3e 9cee 093d 4e91 75bd
00000030: 7727 c13d 43a5 0bbd f5fd 7a3d 6a17 83bd
00000040: a6e9 293d e561 ca3d e0c1 3b3e 1ad0 51bc
00000050: 41de 263d 9673 013d e962 223b 5598 1fbd
00000060: b355 7abd 1ec9 75bd 9653 a2bc d605 823c
00000070: 8479 25be fc72 9fbd 82e1 023d c7e4 f33d
00000080: f84b 5bbc c51a 683e d5ae ed3c f211 043d
00000090: 96f8 c83d 75c6 16be 50f8 433d 9a9a 23bd
000000a0: ed01 2bbd 9ab2 e03c 72fa 7abd 9742 843d
000000b0: 64ba d0bc bef5 973d ea6f bb3c 7a1d 1b3d
000000c0: 5c22 ac3d cef0 42bd 7b06 0d3d 522e 343e
000000d0: 010f 3a3d 89d9 acbd b6f3 933d c4cd 99b9
000000e0: d9d8 02bd 9eef 28bc 5195 5c3d 0cb2 d93c
000000f0: 8a70 2a3d a71c 46bd 4112 f13b d71b 203d
00000100: 86e6 c73c 125a 133d dab7 fa3c 3faa 79bd
00000110: da74 a7bd bdfa e13c 5adc 20bc 79e5 30bd
00000120: 6e86 0f3d f110 d7bc 4334 58bd 8a0a bd3c
00000130: bcb1 9bbd 28c4 a1bd 30d7 62bd 367d dbbd
00000140: c5f3 b53c 9a3d 2e3e ff23 de3d 5726 54bc
00000150: 895d 41bd 72c0 573c 7222 46bd 868f 353d
00000160: 5615 4f3c 1cb5 2d3d 9643 1b3d d0ca 8b3e
00000170: 4177 f13c 1155 f0bc f9d3 83bd fbd6 55bc
00000180: 8985 2fbb a025 cc3d e617 c2bd 671e 543d
00000190: 2abf b7bc 4045 833c b544 ddbc 3336 7c3c
000001a0: 8993 ce3c f511 313e 5b67 dcbd 5680 5dbd
000001b0: b726 97bc 7cab 1bbd 7de8 1c3d ecd5 5bbd
000001c0: 34ad 97bd a5d0 af3b 5f1d cdbb 6557 df3c
000001d0: 05e8 ec3b 3b6b e2bc 58d2 673e 4073 403b
000001e0: a23a 5cbd c4aa c43a 359d 5b3d 764b 8cbc
000001f0: 2c0d 3c3d 1471 cc3d 9ca3 8a3c cc6c d23d
00000200: f00e bd3c d09a a03c ba6a 003d 2682 013d
00000210: da2c 053d 83cf 65bd 8f13 5dbd b6ae 4b3e
00000220: 6b3b 633d bec5 8cbd 5800 57bc fb58 85bd
00000230: 0a65 b43c 7bb3 53bd fa99 433e f64b 78bd
00000240: c98e c7bc 5d98 1cbd f45d 4dbd 99db 87bd
00000250: 831a 29bd 5102 fdbd eb49 383d 2fbf 3cbd
00000260: bc3c 06bd 8460 1cbd bd28 c73d d585 4a3e
00000270: 2a4c 97bd 5885 df3c 09b8 823c 94ed 9dbc
00000280: 72b3 4d3d 8acc 703e 0e51 6a3e 2fd1 903c
00000290: b4dc cf3d f6a9 71bd aa75 40bc 8c07 123d
000002a0: 2aa7 55bd 41d4 84bd c765 ca3c 8990 60bd
000002b0: c202 2c3e 479b 7f3c 0851 723c 0c9d 2b3d
000002c0: 17f5 8bbd 50bf 4ebd 759f c43a b7f3 1a3d
000002d0: 7878 69bd dc69 4e3c e946 93bd f18b b63c
000002e0: 004d 6dbd 048a 883c dba8 e53d 2231 e73c
000002f0: 9a17 24bd 607a e03c 9484 f83b 816a 29bd
00000300: cd63 50bd fd18 2cbd cb3f b43c 5246 d53d
00000310: c9a5 7b3e 9ac9 26bd 9055 82bc 9884 78bc
00000320: b9cb 843e 46b4 463e 51e6 033c c8b8 e53c
00000330: c8bf 8abc b47f b9bc fb26 3bbd 6bfd bbbb
00000340: b80b 87bd 8a52 333e b149 1cbd 0da2 02be
00000350: b35e 9e3d fdce 1dbd 028b ddbd a11d 73bd
00000360: 207a fabc d525 04bd 816b e6bc 3fae 76bd
00000370: 26fb 333e 27de 61bb 4cfa 223e 1868 cd3d
00000380: 78f4 55bd 517a 43bd 9f14 ab3d 7a9e 2d3c
00000390: c66b 54bc 4ded c8bc 7cc6 073d 6c0e 54bb
000003a0: 18eb afbd c3ac 2b3d 41b7 c1bc 20b1 403e
000003b0: 940c dc3c a591 f73d 9abe 583d a1e5 aa3b
000003c0: e6c8 ce3d c4e6 e63c fc87 ac3d 2bff 383d
000003d0: 0b8f 87bd 7716 98bc d46c e43d 85f8 713e
000003e0: 8d76 bf3c 9a6e 6abd 95a3 393c 2523 ebbc
000003f0: 3571 04bd 8ea0 e23c 32fc 5ebd e352 a13d
0.011397199 -0.0654487 -0.094892986 0.038021386 0.05162303 -0.010582119 0.031597033 -0.071174294
-0.025998317 0.23290372 0.03367482 -0.059953026 0.094313554 -0.034093153 0.06127735 -0.0640095
0.04148259 0.09881953 0.18335676 -0.012805963 0.0407393 0.031604372 0.0024778193 -0.038963635
-0.061116885 -0.060006253 -0.019815248 0.015871923 -0.16159636 -0.077856034 0.031953342 0.1190887
-0.013384812 0.22666462 0.02901403 0.032243676 0.09813039 -0.14724143 0.04784423 -0.03994236
-0.041749883 0.027428914 -0.061274 0.064580135 -0.025479503 0.074199185 0.022880513 0.037869908
0.08404991 -0.04759293 0.03443001 0.17595795 0.045424465 -0.08439929 0.072242185 -0.0002933574
-0.031945083 -0.010311035 0.053853337 0.026574157 0.041611232 -0.04836717 0.0073569124 0.03908905
0.024401914 0.03597457 0.030605245 -0.060953375 -0.081765845 0.027585382 -0.009818161 -0.043187592
0.03504031 -0.026253195 -0.052784216 0.023076314 -0.076022595 -0.07898742 -0.055381 -0.107172415
0.022210965 0.17015687 0.108467095 -0.012948594 -0.047208343 0.013168441 -0.048372693 0.044326328
0.012639364 0.042409047 0.03790625 0.2730317 0.02947581 -0.029337438 -0.06436915 -0.013051744
-0.0026782474 0.09968114 -0.094772145 0.051786806 -0.022430021 0.016024232 -0.027010301 0.0153937815
0.025216835 0.17292006 -0.10761901 -0.05407747 -0.018451078 -0.038005337 0.038307656 -0.05367081
-0.07406083 0.0053654485 -0.006259605 0.027263353 0.0072298073 -0.027639022 0.22638834 0.002936557
-0.053766854 0.0015004505 0.05361672 -0.017125826 0.045911 0.099825054 0.016923718 0.102746576
0.023078412 0.01960507 0.031351782 0.03161826 0.032513477 -0.0561061 -0.05397373 0.19890866
0.055476587 -0.06873654 -0.013122641 -0.06511112 0.022020835 -0.051684838 0.19101706 -0.060619317
-0.024360077 -0.038231242 -0.05013843 -0.06633682 -0.04128505 -0.123539574 0.04499237 -0.046080764
-0.032772765 -0.038177982 0.09724567 0.19777615 -0.07387574 0.027285263 0.015956895 -0.019278325
0.05021996 0.23515525 0.22882482 0.017677872 0.10149518 -0.058999978 -0.011746803 0.03565173
-0.052161373 -0.06485797 0.024706734 -0.05482534 0.16797927 0.015600986 0.014789827 0.04189782
-0.068338566 -0.05047542 0.0015001135 0.03783008 -0.056999654 0.012598481 -0.071912594 0.022283526
-0.05793476 0.016667373 0.11213847 0.02822167 -0.04006157 0.027402103 0.007584164 -0.041361336
-0.050876427 -0.04201602 0.022003075 0.10413803 0.24574961 -0.040719606 -0.01590994 -0.015168332
0.25936678 0.19404706 0.008050517 0.028042212 -0.016937152 -0.022643901 -0.04569147 -0.005736997
-0.06594032 0.17511955 -0.038156215 -0.1275713 0.07732906 -0.038527478 -0.10817529 -0.05935443
-0.030575812 -0.032262642 -0.028127434 -0.060224768 0.17576274 -0.0034464689 0.15915793 0.1002962
-0.052235097 -0.047724072 0.083535425 0.010596866 -0.012965148 -0.024527216 0.033148274 -0.003235723
-0.085897624 0.041912805 -0.023646953 0.18817568 0.026861466 0.12088326 0.052916147 0.005215362
0.10096912 0.02818621 0.084243745 0.045165222 -0.0661908 -0.0185654 0.1115357 0.23629959
0.02337196 -0.057234384 0.011330505 -0.028703282 -0.032334525 0.027664449 -0.05443973 0.078771375

actor.weight f4 [1, 256]
00000000: f6cc 333c c692 f23d 9124 703d 28d5 32bd
00000010: 99b1 253f 1793 533c a7bf 3e3d fd94 6fbc
00000020: db57 8a3b f324 d13d d462 bbbc bf4b 5cbc
00000030: 8bad 303f b957 8abb e2e3 943e 1c7c c63c
00000040: 9f7c 0c3f ea72 143d 9294 e3bd 2b37 4d3d
00000050: cfec 063d 63f4 afbe 9d43 983e e28d 0fbd
00000060: bb08 0dbf ba57 6fbb 8e7b 563d eb18 a1bc
00000070: dc77 afbe 8640 bbbe 8531 a03c e504 b83e
00000080: b006 373d 30b7 e4bc cc77 bdbe 2cb0 9bbe
00000090: 8b6c 173f 7371 693e bbaa 4ebe 9852 033c
000000a0: dca0 643d 29f4 c8be c281 5a3d 87e9 8a3b
000000b0: 0684 3abd b09c 493f 7c95 f8bb fe4a 8abe
000000c0: fe0f 3e3e 8057 b13d a905 f7bc c4cb 403e
000000d0: 415c f53e bbf7 a4be 50db f63e a89d 27bd
000000e0: a9cf f7be 5973 9ebc 0831 04bc 84b2 f5bc
000000f0: be76 003e 9142 c53c edea ac3e deb7 63be
00000100: 889e bfbf 0619 34bd 3613 95be 4c7d 53bd
00000110: a574 073c 07e0 e5be e8da 1b3e f1b1 1f3e
00000120: e3c6 513d 4d4a e3bb ddf4 ce3c 0542 bf3c
00000130: 762c e83b 30a4 5d3c 8692 9bbd 0965 81be
00000140: b77f 283f 197e 01be 03c3 bbbe 9e5c debe
00000150: 3c8e 883b b2df 0fbc 24b7 37bd 9c68 283d
00000160: 2969 85be f186 8b3c cc5d e93c a8fa 143c
00000170: c44e 3b3d ca19 dfbc d740 56bd b84e 373f
00000180: dcaa 0f3c 7daa 753e 3e5f 5dbe 5b0e 2dbd
00000190: b630 0b3e 0545 e53b c287 0abc 2835 bc3b
000001a0: 7dbd 923b d070 32be 7092 0d3d e3ef 1a3e
000001b0: 50ec 753d 6055 e53b eded e93c 7a00 213c
000001c0: da5b 9b3b 977a 9c3b 1d02 ecba b1cc 153f
000001d0: 0603 da3a c6c1 74bb a5f0 943d ea15 58ba
000001e0: 32d1 373d 6544 1d3d 6fdc 223d ba0b 27be
000001f0: 03ed 4b3c ecc2 9abb 3b14 593d 9b8c cfbd
00000200: e3f5 033d e0da 17bc e89e 03bc 53b7 09bd
00000210: 5897 403d 415b babe 6413 06bc eb05 093e
00000220: 70c9 08be 4078 06bd 9041 29bd f235 3d3d
00000230: 30fb 37ba 29ed e0be 1a1e 473e 00bf a9bc
00000240: 9c43 ee3b 6a91 86bc 0079 8839 bd16 753d
00000250: 749d 03bd 6b6a 72be bcbc bc3c 7de4 953d
00000260: a86c 9cbb 7103 29bd be7d 153f 94ce 73bc
00000270: a46f 503c 4d8b a33d ccda 343f a059 223d
00000280: 4d8d fd3c 43eb 453d cd18 99bd b4a7 a83e
00000290: 2add 793e c436 d93c a891 a9be 585e 113f
000002a0: 31ca 253d cdbd ed3e 5169 b33c 70d3 b83e
000002b0: fc88 483d 1850 133f ce75 4f3d 947a 043a
000002c0: 9fa4 3fbd 50c1 b4be f0f7 e8be f370 063e
000002d0: 8e12 443d a2ef 313d 55ac 66be 1e25 a23d
000002e0: 0e29 733d 8bc0 4c3c 7e21 083e 31b3 ff3e
000002f0: 38a5 143c 1719 163f 99c0 21bd 6815 a6be
00000300: 89b1 0cbd 0b02 cebe ad77 a6bc d659 edbc
00000310: 671b 1b3e 7073 dabc 46c3 a23c 889d 103c
00000320: d710 d33d b4bb 17be 2262 84bd 6283 183c
00000330: 5255 46be 412e 48bb c1be bfbd cd61 70be
00000340: 2b6b 38bd f418 7f3c 6cbf 0ebf 2f1a d33d
00000350: 429b 883d a8f8 883e 3fa9 94be ecba 293c
00000360: 98e2 b93b bb4e 2c3d 5c3c 613c f4b8 60bc
00000370: 439f 223c efd8 273e 448c 1d3e 3048 bbbc
00000380: 584d 32bd 30ae 45bc 4169 2f3e 7a55 1fbd
00000390: f1bc 963c 418f c4be e6c5 f1bc f6e5 3fbd
000003a0: e03e 92bd a3f6 133f 2d57 463d 1a7b 563e
000003b0: 5a3d 6bbd 0235 0a3f 9f3c 573c 9a03 173f
000003c0: 4879 f43e 849c dbbe 7dcf 513e 7cd6 103d
000003d0: 4de9 5a3d bd69 47bd a4ae 29bd de57 fbbd
000003e0: 0d53 39bd e214 8fbe 1a3c 58bd 8122 43be
000003f0: ce47 ddbb 5761 a8bc 0693 753e 1d99 bd3d
0.010974159 0.11844401 0.058628622 -0.043660313 0.6472412 0.012913487 0.046569493 -0.014622924
0.004221899 0.10212126 -0.022874273 -0.013445794 0.69014806 -0.004221883 0.2908011 0.024229102
0.54877657 0.036242403 -0.11112322 0.05010144 0.032940682 -0.3436614 0.29739085 -0.03504742
-0.55091447 -0.0036520795 0.052363925 -0.019665202 -0.34271133 -0.36572665 0.019554863 0.35941234
0.044684112 -0.027919382 -0.3700546 -0.30407846 0.5915 0.22797184 -0.20182316 0.008015297
0.05581747 -0.3924878 0.053346403 0.0042392644 -0.045536064 0.7875471 -0.0075861793 -0.2701034
0.18560788 0.086592674 -0.030154066 0.1882773 0.47921947 -0.32220253 0.48214197 -0.040921837
-0.4840062 -0.019342111 -0.008068331 -0.02999235 0.12545297 0.024079593 0.33772984 -0.22238109
-1.4970255 -0.043969177 -0.2911622 -0.051633164 0.008267556 -0.44897482 0.15220225 0.15595223
0.051215064 -0.0069363476 0.025263244 0.02334691 0.0070853783 0.013527915 -0.075963065 -0.25272396
0.6581988 -0.12645759 -0.3667222 -0.43430036 0.0041673463 -0.00878136 -0.04485239 0.04111539
-0.26056793 0.017032119 0.028487109 0.009092964 0.045729414 -0.027233977 -0.05230793 0.7160449
0.008768763 0.23990817 -0.21618363 -0.04225002 0.135928 0.006996753 -0.008455219 0.0057436414
0.004478155 -0.17425847 0.03456348 0.15130572 0.06003982 0.006998703 0.028555835 0.009826774
0.004741174 0.004775356 -0.0018006001 0.5851546 0.0016632981 -0.0037346943 0.07272462 -0.00082430115
0.04487724 0.038395304 0.039761003 -0.16313067 0.012446645 -0.0047229435 0.05299781 -0.1013424
0.032216918 -0.009268492 -0.008033492 -0.033622097 0.047019333 -0.36397746 -0.008183334 0.13381164
-0.13358092 -0.032829523 -0.04132229 0.046194024 -0.0007018326 -0.4393094 0.19445077 -0.020720959
0.0072712433 -0.01642676 0.00026030093 0.059836138 -0.03213258 -0.23673408 0.023039214 0.07318971
-0.004773695 -0.041263048 0.5839499 -0.014880795 0.01272193 0.07985554 0.7064636 0.039636254
0.030951167 0.048320066 -0.074754335 0.32940447 0.24400774 0.026515372 -0.3311894 0.5678458
0.040476028 0.4643387 0.021900805 0.36098814 0.048958763 0.5754409 0.050649457 0.0005053666
-0.046787854 -0.35303736 -0.4550166 0.13129024 0.047869258 0.043441422 -0.22526677 0.07917236
0.059365325 0.012497078 0.13294026 0.499414 0.009072594 0.58632034 -0.039490316 -0.32438207
-0.034349 -0.40235934 -0.020320738 -0.028973501 0.15147172 -0.026666373 0.019868504 0.008826621
0.10305946 -0.14817697 -0.0646403 0.009308668 -0.19368485 -0.0030545148 -0.09362555 -0.23474808
-0.04502408 0.015569914 -0.55760837 0.103077285 0.06670238 0.2675221 -0.29035375 0.010359507
0.005672764 0.04206727 0.013747301 -0.013715971 0.009925666 0.16391347 0.15385538 -0.02286157
-0.043530792 -0.012065455 0.17129995 -0.038899876 0.018400641 -0.38390544 -0.02951331 -0.046850167
-0.07140899 0.5779821 0.04842298 0.20945397 -0.057431556 0.53987134 0.013137012 0.5898987
0.4774878 -0.4289285 0.20489307 0.0353608 0.05344515 -0.048684824 -0.041426316 -0.12272619
-0.04524522 -0.2794562 -0.052791692 -0.19056131 -0.0067529446 -0.020554228 0.23981866 0.0925772

critic.weight f4 [1, 256]
00000000: a869 01bd d3be 243d c7eb a1be 4f64 313d
00000010: c2eb 4a3c 1f48 413b 772d a8bc b10c 093d
00000020: 6bb0 3ebc 006f 923d 42af 81bc eeda c5bc
00000030: ddd2 653c 0f92 88bc 287d 9c3d 29d5 9abb
00000040: 66c5 f83b 6f4f 803d fbb6 a03d ef22 0fbb
00000050: 1b83 643d c35c e03a a6f0 81bd 52aa 0ebd
00000060: bec9 65ba 68c4 2ebc e210 283d 1778 e2bc
00000070: 2d3e adbd 0832 7c3d 9463 7ebc b72c 683b
00000080: 90c2 2f3c da55 e53d 6c38 5938 4139 4ebb
00000090: e6ac 0f3c df83 64be f1c9 663a 6ae3 7c3d
000000a0: 7b83 95bd b8bf a8ba 8069 d93b ee7f 1d3c
000000b0: 6ea7 803c b1e0 32bb 2a78 683d eea4 04bc
000000c0: a631 73bd 64cf 1ebe 6c95 573c 6fc0 db3c
000000d0: 6759 893c b39f c8bd 7a2c 4e3c 0fba 4fbc
000000e0: a517 5c3b b6d4 1a3c 31e7 b1bb 2eab abbc
000000f0: 1113 83bc b2f9 3c3d d04e 683c 2c1c 8dbb
00000100: f240 013e de9e 3f3e d968 4bbc df87 f83b
00000110: a209 bbbc 69fa bc3b 3963 013e cd9d 80bc
00000120: 65f3 0e3c b34b c5bc c46a 5d3d 9cac 0d3c
00000130: 819c dfbc c1c0 e3bd f421 ccbc 11f9 aa3d
00000140: dd93 3a3c 7412 ba3c 7214 a33d fdb5 04bc
00000150: df86 5c3d 19aa e4bc 3a70 debb d6bd 4e3d
00000160: ff4b 7dbc 0270 6ebd 9062 6838 14c8 d73d
00000170: 27c6 2d3d 084f 5dbd a5b5 a2ba 1325 a4bb
00000180: 65fd b2bc e749 a63c 2250 f23c 0488 463d
00000190: bfb7 ecbd eef7 adbc 0c2a ebbc 8fa1 1bbd
000001a0: b499 8b3d 09b2 063d cf93 8dbe 9e66 3cbd
000001b0: 432f 393d 6404 61bd a93f 303d 1e7a bdb8
000001c0: 39dc a2bc f663 1ebd 30ae afbc 3997 c93b
000001d0: 925b a63c 075a 18bd 348f ab3d e84f 02bd
000001e0: c2ab ebbc c354 323d e6f5 e23b 139c c5bb
000001f0: b634 893c 3107 d4bc 8b6a 6fbc ee00 543c
00000200: e354 023c 360c 2b3d 1994 8f3c 13db 343b
00000210: ee14 593d b075 4abc e358 033d 0222 a23d
00000220: 682b 9cbc f892 18be e4a0 8ebc c83b c4bc
00000230: efdb e53b ddd6 853b 2915 643d 7392 423d
00000240: 5a3a c3bc 736b c53b 564e 1abd 344d 353d
00000250: b1fe 8dba ce10 fc3c aada a23a 9db1 65bd
00000260: a3dc 903b 64dc c13b 05ff 323b 9995 c43d
00000270: 4c18 1d3d 6719 2c3c d576 673b 31fc 4a3d
00000280: 74b7 c1bc 9dd3 253d 1dad fc3d 3416 fe3c
00000290: 00f3 6e3c 381f 443d f5ec 813b 0227 2a3c
000002a0: bc61 62be c8c1 3c3e a546 09bd a084 893d
000002b0: ad0c 5b3d 0825 dc3c 8024 493c 2d24 543c
000002c0: ad3d 01bc 60ea 2d3d befa 1c3c e913 1abe
000002d0: 084d c53c 1598 c9bb a6d6 20bd 0fa1 25bc
000002e0: 7d58 b7bd 4984 403d 33ac 8bbd e596 e23a
000002f0: 482f f23c 0b19 3a3c 9c30 86bc a477 993b
00000300: 3a8f 88bc 1aa8 0cbb b528 65bd a211 fa3c
00000310: de7b 9c3d 9631 703d 3606 e3bc 1433 21bd
00000320: c98a b43d 919c ab3d 222e 6d3b 0aaa 6fbc
00000330: f794 c93e 75f8 8dbb d72b 74be e5cc 0cbe
00000340: 1f24 3cbd c862 bf3d b5bb e73b 2289 84be
00000350: 2425 33bd e60f 89be b5af 00be 9ef8 ffba
00000360: 5eb8 993c ff29 223d 2c7a 36bd fe60 5cbd
00000370: 7a56 793c 06dc e03c 2691 803d d7aa 653c
00000380: e4f4 f6bb aca1 493d 329e 5d3c 6712 cdbb
00000390: d7e8 14bc 2388 dfbb 8367 67bb 6d87 9e39
000003a0: 25a3 a4bc 074e 003c 073b 7a3c 21a1 b73c
000003b0: 3ab2 a5bc a0ba 073d 47b7 9ebd ff98 6e3c
000003c0: c436 d63b 50ab 99bb 955a 8f3c 3039 36bc
000003d0: 1242 4fbd 9d17 64bc 0d46 abbc 6301 b73d
000003e0: 4542 efbc f20b 1cbd 7cae 0cbd bb64 493b
000003f0: 6058 24bc 5a60 123d 9840 0abd 4f54 403d
-0.031594902 0.040221047 -0.31625196 0.043308552 0.012385311 0.002949245 -0.020529492 0.03345937
-0.011638741 0.07150078 -0.01583064 -0.024152245 0.0140273245 -0.016671209 0.07641059 -0.0047251177
0.007591891 0.06265151 0.07847401 -0.002184089 0.055789094 0.0017117489 -0.06344728 -0.0348304
-0.00087657187 -0.010666944 0.041031726 -0.027645154 -0.08459125 0.06157115 -0.015526671 0.0035427043
0.01072754 0.111980155 5.178938e-05 -0.0031467231 0.00876925 -0.2231593 0.00088038953 0.061740316
-0.073004685 -0.001287452 0.006634891 0.00961302 0.015704837 -0.002729457 0.056755222 -0.008095963
-0.05937352 -0.155088 0.013158184 0.026825158 0.016766263 -0.09796085 0.012583846 -0.012678637
0.003358343 0.009450128 -0.0054291715 -0.020955648 -0.016000303 0.046136566 0.014178947 -0.004306337
0.12622431 0.18712947 -0.012415134 0.0075845565 -0.022831742 0.005767156 0.12635507 -0.015700245
0.008725022 -0.024083948 0.054056898 0.00864711 -0.027296307 -0.11120749 -0.024918534 0.08348287
0.011387792 0.022713877 0.07962884 -0.00810003 0.05383956 -0.02791314 -0.006788281 0.05047401
-0.015460013 -0.058212288 5.5404904e-05 0.10536209 0.0424253 -0.05403045 -0.0012413753 -0.0050093024
-0.021849344 0.020298911 0.029579226 0.04846956 -0.11558484 -0.021236386 -0.028706573 -0.03799587
0.06816426 0.03288463 -0.27651832 -0.0459963 0.045211088 -0.054935828 0.04302946 -9.0349684e-05
-0.019880401 -0.03866955 -0.021445364 0.0061520603 0.020307336 -0.03719523 0.08376923 -0.031814486
-0.028768424 0.043537866 0.006926286 -0.0060305684 0.016748767 -0.025882335 -0.014612804 0.012939675
0.007954809 0.041759692 0.017526673 0.0027596399 0.052998476 -0.01235716 0.03206719 0.07916643
-0.019063666 -0.14899814 -0.017410703 -0.023954287 0.0070147435 0.0040844516 0.055684242 0.047502946
-0.023831535 0.006024772 -0.037672363 0.04426308 -0.001083335 0.030769732 0.0012424786 -0.05607759
0.004420833 0.005916165 0.0027312648 0.09598846 0.03835325 0.010504103 0.0035318632 0.049556915
-0.023647048 0.040485013 0.12337706 0.031016447 0.014584303 0.047881335 0.003965015 0.010385277
-0.22107595 0.18433297 -0.033514638 0.06714749 0.053478885 0.026873127 0.012276769 0.012948078
-0.00788824 0.042459846 0.009581266 -0.15046658 0.024084583 -0.006152163 -0.039267205 -0.0101092
-0.08952425 0.047001157 -0.06819954 0.0017287402 0.029563561 0.01135851 -0.0163806 0.0046834517
-0.016669858 -0.00214625 -0.055947024 0.030525986 0.07640813 0.05864104 -0.027712923 -0.039355353
0.08815534 0.08379472 0.0036190827 -0.014627943 0.39371464 -0.004332597 -0.23844849 -0.13750036
-0.045932885 0.09345013 0.007071937 -0.25885874 -0.043736592 -0.26769942 -0.12567027 -0.001952905
0.018764671 0.03959083 -0.044550106 -0.053803436 0.0152183715 0.027448665 0.06277685 0.014017782
-0.0075365175 0.049226448 0.013526486 -0.0062582972 -0.0090887165 -0.0068216487 -0.00353095 0.00030237008
-0.020097325 0.007831103 0.015272862 0.0224157 -0.020226587 0.033136964 -0.07749801 0.014562844
0.0065372903 -0.0046896115 0.017499248 -0.011122033 -0.05060012 -0.0139216455 -0.020907426 0.08935811
-0.029206404 -0.03809733 -0.03434609 0.0030730206 -0.010030836 0.03573642 -0.033753008 0.046955403
