models1/ppo_350.pth (torch, 275264 bytes, 6 tensors)

net.0.weight f4 [256, 6]
-0.35007414 -0.38897473 0.1492889 0.37442714 -0.07223824 -0.3745851 -0.05073443 -0.03449975
0.4157014 -0.34373254 -0.10297059 0.45582858 -0.11824751 0.44477835 0.020874761 -0.46984196
-0.14853634 -0.036710832 -0.25911123 0.3075838 0.20836875 0.0248299 -0.088502124 0.40855992
0.28794697 -0.07554304 -0.47488487 0.23332952 0.21406585 -0.1907817 0.156651 0.0023589132
0.34492648 -0.0066528115 -0.29306984 0.19882385 0.038970664 0.17142376 0.36368412 0.23202382
0.15130204 -0.3759682 -0.29010075 -0.27538186 0.099088214 0.23217279 -0.13521408 0.31201756
-0.10517779 -0.17119433 0.34904638 0.02075577 0.2340902 -0.22827801 0.23630631 0.23549534
0.44916463 -0.47062805 -0.24335046 0.22102916 0.0555163 -0.21110111 -0.37765923 -0.3450997
-0.17484304 -0.1542397 0.039898075 -0.25291723 -0.21307318 0.2729287 -0.10520436 -0.12455343
-0.09483528 0.13880795 -0.0776469 0.27414873 -0.31737703 -0.05077446 -0.039082218 0.12193457
0.14238276 0.21611442 -0.08827427 -0.47054762 0.35890988 0.18700741 -0.28212363 -0.011477892
-0.31484723 0.33866963 0.21239416 -0.21239999 -0.086443074 -0.37851828 -0.39995608 0.12441146
0.1790833 0.2401004 0.37947562 -0.10796449 -0.06475918 -0.3181891 -0.35412392 -0.09527712
-0.058915596 -0.30656633 -0.014711773 0.20752177 -0.3966141 0.2672683 -0.5052243 -0.35473925
-0.0939601 0.25087857 0.18360119 0.23723504 -0.15982753 0.39441615 -0.15007572 -0.21070464
-0.15524438 0.08045875 -0.032349367 0.28485602 0.17317542 0.3568283 0.3065074 0.18407169
-0.08991966 0.03524766 0.033306554 -0.29897138 -0.30846485 0.07275265 0.3180672 -0.4278755
-0.12357767 0.44409007 0.21888742 -0.07634921 -0.11699945 -0.043999873 0.11666559 0.07735182
-0.04787431 0.29077765 -0.016878998 0.0059777643 0.27088553 -0.40197772 -0.2299964 0.32203877
-0.38775948 0.5684278 0.051765483 -0.22722414 0.23559134 0.1209354 -0.22723258 0.1288639
0.06296323 -0.18430962 0.11046083 -0.08742006 0.5642128 -0.48872712 0.05244316 -0.3475987
0.3558078 -0.3571634 0.22416171 0.36548758 -0.15142925 -0.11266178 -0.17912832 0.13700189
0.13836926 -0.30364794 -0.2922049 0.041388817 -0.13107763 -0.25008002 -0.35935867 0.32955685
0.35447493 0.28564635 0.05665221 -0.13273115 -0.57363516 0.1579499 0.06535679 -0.122924194
-0.20782542 -0.0677613 -0.16160734 0.3464327 -0.15836106 0.081932046 -0.0729451 0.2565969
-0.08795201 -0.02170314 0.1572413 0.1048139 -0.29868984 0.27430516 -0.17171472 0.40991783
-0.33316785 0.103051454 -0.26746997 0.12134417 0.36250556 0.271588 -0.11271711 -0.018645184
0.2436407 0.29112434 0.27300933 -0.29721105 -0.25679064 -0.24564049 -0.23581824 -0.21481037
0.408058 -0.21207756 -0.19850387 -0.19785531 -0.042115275 0.19535945 -0.3479795 0.28848547
-0.23993742 -0.009572082 -0.16794235 -0.046107292 0.031280186 0.17372975 -0.17284445 0.46139345
0.23071969 -0.38478065 -0.05280208 -0.23633192 0.14480585 -0.39345124 -0.39245355 -0.4291238
0.1536979 0.30604595 -0.0009205922 0.044288784 0.29455838 -0.32909527 0.21471833 -0.4715732
00000000: eb3c b3be b227 c7be 30df 183e eab4 bf3e
00000010: a4f1 93bd 9ec9 bfbe e8ce 4fbd 9c4f 0dbd
00000020: d0d6 d43e b6fd afbe 3fe2 d2bd 5d62 e93e
00000030: c02b f2bd fdb9 e33e 8c01 ab3c 208f f0be
00000040: e919 18be 195e 16bd 3aaa 84be a07b 9d3e
00000050: 9e5e 553e 1368 cb3c 9a40 b5bd c42e d13e
00000060: c96d 933e 4fb6 9abd 1c24 f3be efed 6e3e
00000070: 1434 5b3e 475c 43be 1f69 203e ff97 1a3b
00000080: 349a b03e d4ff d9bb 400d 96be 7b98 4b3e
00000090: b49f 1f3d b689 2f3e ce34 ba3e a797 6d3e
000000a0: ecee 1a3e e77e c0be 1688 94be dafe 8cbe
000000b0: c3ee ca3d b4be 6d3e 8f75 0abe c4c0 9f3e
000000c0: 7467 d7bd 914d 2fbe 35b6 b23e 0108 aa3c
000000d0: 57b5 6f3e b6c1 69be 48fa 713e b125 713e
000000e0: e8f8 e53e 29f6 f0be dd30 79be 7855 623e
000000f0: 0f65 633d e42a 58be 8d5c c1be e8b0 b0be
00000100: 0e0a 33be 03f1 1dbe 2a6c 233d 5e7e 81be
00000110: db2f 5abe 50bd 8b3e 6275 d7bd de15 ffbd
00000120: 0039 c2bd ac23 0e3e 5705 9fbd 395d 8c3e
00000130: 3e7f a2be e1f8 4fbd ad14 20bd d5b8 f93d
00000140: c9cc 113e 194d 5d3e 24c9 b4bd 9eeb f0be
00000150: 09c3 b73e df7e 3f3e 8272 90be c50d 3cbc
00000160: a833 a1be 1b66 ad3e db7d 593e 627f 59be
00000170: 1109 b1bd 26cd c1be 0bc7 ccbe 6fcb fe3d
00000180: 9d61 373e e1dc 753e a14a c23e 7d1c ddbd
00000190: 76a0 84bd afe9 a2be bb4f b5be a720 c3bd
000001a0: 7b51 71bd 43f6 9cbe a609 71bc 9680 543e
000001b0: 0111 cbbe 64d7 883e 6156 01bf 62a0 b5be
000001c0: 276e c0bd 2873 803e f301 3c3e beed 723e
000001d0: d4a9 23be eaf0 c93e 73ad 19be f5c2 57be
000001e0: 62f8 1ebe 8fc7 a43d c580 04bd a6d8 913e
000001f0: e654 313e 33b2 b63e 8aee 9c3e 4a7d 3c3e
00000200: cc27 b8bd da5f 103d 746c 083d c712 99be
00000210: 1bef 9dbe 57ff 943d b4d9 a23e 7f12 dbbe
00000220: 4a16 fdbd c65f e33e 0624 603e fa5c 9cbd
00000230: 689d efbd 3639 34bd 5eee ee3d a26a 9e3d
00000240: da17 44bd cfe0 943e d345 8abc 1fe1 c33b
00000250: 82b1 8a3e 06d0 cdbe 2d84 6bbe 44e2 a43e
00000260: 6988 c6be 7c84 113f 0b08 543d 72ad 68be
00000270: db3e 713e fbac f73d a8af 68be e6f4 033e
00000280: def2 803d a9bb 3cbe 4a39 e23d 4a09 b3bd
00000290: 4070 103f 713a fabe a4ce 563d 75f8 b1be
000002a0: 712c b63e 1fde b6be a68a 653e 3021 bb3e
000002b0: 4510 1bbe 38bb e6bd 6a6d 37be 394a 0c3e
000002c0: acb0 0d3e be77 9bbe e19b 95be 5287 293d
000002d0: 3739 06be 7d0a 80be dcfd b7be adbb a83e
000002e0: bd7d b53e 3d40 923e 260c 683d adea 07be
000002f0: c1d9 12bf 9ebd 213e c8d9 853d aebf fbbd
00000300: 30d0 54be 70c6 8abd 657c 25be a05f b13e
00000310: 6729 22be fdcb a73d 3e64 95bd ab60 833e
00000320: 2f20 b4bd c9ca b1bc dd03 213e aca8 d63d
00000330: e0ed 98be ba71 8c3e fcd5 2fbe c0e0 d13e
00000340: fa94 aabe a40c d33d d3f1 88be 4b83 f83d
00000350: 549a b93e 950d 8b3e 3ad8 e6bd c9bd 98bc
00000360: f37c 793e 400e 953e e1c7 8b3e 0c2c 98be
00000370: 107a 83be 2e89 7bbe 567a 71be 40f7 5bbe
00000380: faec d03e dc2a 59be 9944 4bbe 959a 4abe
00000390: 1181 2cbd 4f0c 483e 5e2a b2be 5eb4 933e
000003a0: 28b2 75be 39d4 1cbc 14f9 2bbe 00db 3cbd
000003b0: a71f 003d 36e6 313e 23fe 30be c33b ec3e
000003c0: c841 6c3e f801 c5be fe46 58bd ff00 72be
000003d0: fc47 143e 7172 c9be acef c8be 1db6 dbbe
000003e0: fb62 1d3e 0eb2 9c3e e653 71ba 2868 353d
000003f0: 5bd0 963e 2d7f a8be 1fdf 5b3e 0b72 f1be

net.0.bias f4 [256]
-0.26671684 0.013172196 -0.32799187 -0.33633813 0.40166512 -0.375375 -0.36363658 -0.28080937
0.1679351 0.047739577 0.12523384 -0.22446705 -0.050149016 -0.21407446 -0.3652884 0.29745814
0.36760768 0.15221722 -0.09175888 0.35438627 -0.26160327 -0.34305704 0.08564652 0.36860827
0.35506555 0.16706571 0.23141801 0.21629868 0.09957367 -0.019995468 0.3186169 0.21922025
0.14184886 -0.32661083 -0.13714483 0.06335452 -0.35663953 0.40244225 0.20972472 -0.24388249
-0.21352394 0.040779293 0.24495392 -0.2177765 -0.08526004 0.2603568 0.1977477 -0.45762905
0.058880523 0.24411768 -0.34169298 0.24884018 -0.06682451 -0.1612899 -0.27840737 0.20525664
-0.26069894 0.22927509 0.053393837 -0.10161182 -0.08164219 0.17805262 -0.019905832 0.12688725
0.2365197 0.15375337 -0.10989892 0.21369721 0.19416434 0.2688077 0.14323539 -0.18711184
0.24816199 -0.4101829 -0.36187154 -0.13224651 0.26574364 -0.3347086 0.20941938 -0.16621675
-0.07787733 -0.02271582 0.008190023 0.005125603 -0.14168428 0.047844015 0.28949678 0.36624083
0.031443935 0.309468 -0.045256656 0.16742791 0.25169978 0.026267014 0.24054211 0.32840008
-0.39763263 -0.21663211 -0.31729874 0.05391298 -0.06008081 -0.21769957 0.15952143 0.26678807
0.17204818 -0.25425962 0.06414985 0.16586067 -0.3688168 0.2566719 0.09088975 0.397384
0.32759652 -0.14272346 -0.10991931 -0.29071388 -0.117867954 -0.31717858 0.38135478 -0.30720922
-0.3180125 -0.058103576 0.08354384 0.1520763 0.32032308 -0.23431657 0.35899013 -0.3975318
0.37069076 -0.14705639 -0.07339771 0.16840807 0.22934462 -0.27165538 -0.1160682 0.16168942
0.08066658 0.054428093 -0.0664596 0.18145612 0.3221518 0.324793 0.18095723 -0.049997713
0.3916042 0.26543275 -0.34122452 -0.014839615 0.31619036 0.111939155 0.015495578 -0.31207654
-0.042175602 0.29728872 0.21940495 -0.25626868 -0.2610898 0.019064901 -0.24337329 0.15560263
-0.35746542 -0.14678013 -0.12889284 0.090752974 0.043879893 -0.35832077 0.31756225 0.31847563
0.38855556 -0.35943753 -0.29368374 -0.3598155 -0.19654614 -0.3111281 -0.05382785 0.37236562
0.21274096 -0.16145141 0.30656028 -0.07503746 -0.32900622 -0.20614184 -0.40346873 -0.13181403
-0.40867987 0.08096229 0.34153396 -0.10167175 -0.08210184 -0.31501654 0.16483793 -0.013892051
0.0070298873 0.39032874 -0.20623109 -0.17423554 -0.10704967 -0.032086775 -0.09723582 -0.31415808
0.051284995 0.19842386 0.3212793 0.02299116 0.2073815 -0.10369811 0.23229235 -0.0070711095
0.34927088 0.20368922 -0.013439606 0.09467156 0.37508702 -0.35511503 -0.017316671 -0.15090933
-0.19574699 -0.26163903 -0.42669982 0.33471668 0.1060176 -0.3140994 0.24109745 -0.32449776
-0.23670232 0.20293595 -0.020627463 0.260274 0.20269954 -0.19333902 -0.06632467 0.09766831
-0.06527418 -0.011142591 -0.42778033 -0.01137729 0.31160465 -0.22819082 0.40189725 0.3744501
-0.028816197 0.1981024 0.11514711 -0.13549145 0.32138672 -0.17878948 -0.08315025 0.22236085
-0.1403685 0.33139858 -0.4057066 -0.04336064 0.118323185 -0.013660082 0.2545744 -0.07021359
00000000: 1c8f 88be 32d0 573c 8dee a7be 8334 acbe
00000010: 0da7 cd3e 2731 c0be 932e babe 3fc6 8fbe
00000020: 2ef7 2b3e 938a 433d 4d3d 003e b1da 65be
00000030: 0e69 4dbd 5636 5bbe 1507 bbbe 6f4c 983e
00000040: 1337 bc3e d5de 1b3e 14ec bbbd 1e72 b53e
00000050: ddf0 85be 2ca5 afbe 7167 af3d 39ba bc3e
00000060: 27cb b53e 4613 2b3e d8f8 6c3e 677d 5d3e
00000070: 48ed cb3d 89cd a3bc c121 a33e 467b 603e
00000080: d440 113e 8939 a7be b26f 0cbe 04c0 813d
00000090: 7599 b6be e90c ce3e 14c2 563e 55bc 79be
000000a0: 05a6 5abe 3008 273d 33d5 7a3e ce00 5fbe
000000b0: d19c aebd 7d4d 853e 607e 4a3e 5b4e eabe
000000c0: b42c 713d fcf9 793e 62f2 aebe f6cf 7e3e
000000d0: 4adb 88bd 2e29 25be 698b 8ebe cc2e 523e
000000e0: 557a 85be 17c7 6a3e 7fb3 5a3d dc19 d0bd
000000f0: 0534 a7bd 6d53 363e 8e11 a3bc bbee 013e
00000100: 3832 723e 8671 1d3e af12 e1bd 71d3 5a3e
00000110: 04d3 463e 2aa1 893e 4cac 123e 3f9a 3fbe
00000120: 2d1e 7e3e 7e03 d2be 3a47 b9be a16b 07be
00000130: 8d0f 883e ed5e abbe 0972 563e b934 2abe
00000140: 267e 9fbd 8716 babc 722f 063c adf4 a73b
00000150: af15 11be 16f8 433d ec38 943e eb83 bb3e
00000160: 5bcb 003d 9772 9e3e 0b5f 39bd 3972 2b3e
00000170: cbde 803e ec2d d73c ac50 763e 0e24 a83e
00000180: 8196 cbbe cfd4 5dbe fb74 a2be dbd3 5c3d
00000190: 4c17 76bd a3ec 5ebe 9659 233e 7298 883e
000001a0: 662d 303e 512e 82be ff60 833d 61d7 293e
000001b0: 8ed5 bcbe 806a 833e 6824 ba3d ea75 cb3e
000001c0: bbba a73e 1926 12be 601d e1bd 73d8 94be
000001d0: c164 f1bd 3b65 a2be ef40 c33e 874a 9dbe
000001e0: 89d2 a2be 04fe 6dbd 0819 ab3d e4b9 1b3e
000001f0: 6301 a43e aff0 6fbe 8ecd b73e 4a89 cbbe
00000200: 2ecb bd3e f395 16be 8a51 96bd 2a73 2c3e
00000210: 51d9 6a3e 6a16 8bbe 2ab5 edbd e991 253e
00000220: 8534 a53d feef 5e3d f91b 88bd a2cf 393e
00000230: 15f1 a43e 454b a63e da4c 393e 67ca 4cbd
00000240: 5880 c83e cde6 873e fbb4 aebe db21 73bc
00000250: b4e3 a13e 5b40 e53d 2ae1 7d3c 7fc8 9fbe
00000260: 53c0 2cbd 3a36 983e b1ab 603e a635 83be
00000270: 90ad 85be ff2d 9c3c d936 79be 4c56 1f3e
00000280: b505 b7be 884d 16be 7cfc 03be b2dc b93d
00000290: 67bb 333d d275 b7be 8597 a23e 3d0f a33e
000002a0: c1f0 c63e 3208 b8be b75d 96be bd39 b8be
000002b0: 6443 49be 2f4c 9fbe 977a 5cbd b5a6 be3e
000002c0: c4d8 593e 8553 25be 78f5 9c3e 3dad 99bd
000002d0: 8173 a8be d916 53be 7493 cebe 42fa 06be
000002e0: 7d3e d1be 8fcf a53d 8add ae3e 4739 d0bd
000002f0: 0225 a8bd d949 a1be 46cb 283e 7c9b 63bc
00000300: f85a e63b 2bd9 c73e 3e2e 53be cd6a 32be
00000310: db3c dbbd 6c6d 03bd 9323 c7bd 54d9 a0be
00000320: 3710 523d a02f 4b3e b87e a43e f557 bc3c
00000330: d15b 543e ad5f d4bd 0cde 6d3e c4b4 e7bb
00000340: a2d3 b23e e893 503e cb31 5cbc 2ae3 c13d
00000350: 680b c03e a3d1 b5be b1db 8dbc fa87 1abe
00000360: e671 48be 8df5 85be 6678 dabe fc5f ab3e
00000370: c11f d93d a3d1 a0be 40e2 763e 9224 a6be
00000380: 1862 72be 71ce 4f3e edfa a8bc a242 853e
00000390: 7890 4f3e aafa 45be 3bd5 87bd 5306 c83d
000003a0: 78ae 85bd 6a8f 36bc 0606 dbbe d067 3abc
000003b0: a58a 9f3e dbaa 69be 7ac5 cd3e ecb7 bf3e
000003c0: f20f ecbc 5bdb 4a3e 3fd2 eb3d 45be 0abe
000003d0: cd8c a43e 9714 37be ae4a aabd 90b2 633e
000003e0: c3bc 0fbe 13ad a93e c7b8 cfbe ed9a 31bd
000003f0: 6d53 f23d 89ce 5fbc 9357 823e 25cc 8fbd

net.2.weight f4 [256, 256]
-0.054424964 -0.00012021703 -0.058927245 -0.031184427 0.03189987 -0.015315297 0.00842105 -0.007412952
-0.0008756854 0.017437564 -0.043156706 0.024053797 -0.0036621382 -0.05260013 0.051483274 0.03278175
0.048193775 -0.033413976 0.023961276 -0.04020561 -0.039744392 -0.025477022 0.024251161 -0.023931714
-0.020927828 -0.01249486 -0.050093282 0.034710187 -0.047866125 0.036976706 -0.032725655 -0.010328347
-0.04476503 -0.0010584369 0.04011433 -0.055766407 -0.051189173 0.04762725 -0.050051037 0.0011211135
-0.023808926 0.02603046 0.0037272177 0.0019015928 -0.040766183 0.04612163 0.04986443 0.014696136
-0.029588059 0.019944772 0.05469589 0.0332767 -0.028278427 0.05804164 0.049172647 0.015881982
0.005064975 0.009452446 0.002367705 0.021326467 0.059244797 0.0007333145 0.016944256 0.048942197
0.033629224 0.012116457 -0.023171037 -0.045251366 -0.034287117 -0.032198112 0.014514587 -0.015199922
-0.054323632 0.046267174 -0.004230976 0.044733897 -0.054978065 0.0004990183 0.01810757 0.04322976
0.018836508 0.015240046 -0.017789934 0.025605757 -0.011503243 -0.019788524 0.04400553 0.027106473
-0.011748777 -0.0474152 -0.042214803 0.044022515 -0.029805249 -0.054066695 -0.06588626 -0.023678517
-0.01465614 -0.050814793 -0.042616703 -0.046989005 -0.06894497 0.05545 0.055634085 -0.0028045967
0.048685413 0.024253383 -0.015216056 0.033020683 -0.023147456 -0.06394368 0.022991698 0.038317688
-0.011112204 -0.056590587 0.016015043 0.003483939 0.031284038 0.0035212636 0.04498108 0.031295314
-0.05238083 -0.01103957 0.04433683 0.042229317 0.03090351 -0.013757743 -0.020328198 -0.02778121
-0.00348425 -0.011983281 -0.04873818 -0.005194232 0.00655372 0.04192473 -0.032488227 0.029448468
0.04627963 -0.009182245 -0.0510998 -0.047078937 -0.026077468 -0.06147616 -0.0059727426 0.040044792
-0.032173768 -0.018622192 0.056769922 0.023797587 0.046814658 0.030941665 -0.0061600106 0.042143993
-0.017815623 -0.04705217 -0.06508362 -0.04900141 -0.041505247 0.04897669 -0.0395462 -0.066111505
0.02669169 -0.019728892 -0.021771288 -0.044095263 0.01659247 0.01692291 -0.045125656 0.053776033
-0.045134757 0.037930455 -0.058746792 0.043728054 -0.048682112 0.015990324 -0.03929711 -0.04927254
0.03858982 0.033241563 0.053999595 0.033882603 -0.023889966 -0.019637883 -0.02285494 -0.060613986
-0.009038918 0.028932147 0.05263379 -0.055393428 0.02125355 -0.06725238 0.013414696 0.0032155588
0.030237854 -0.0071835215 0.043244466 -0.033310752 0.011440804 0.02577276 0.026833937 0.024103351
-0.020516349 0.05120369 -0.054120537 -0.011339323 0.0202432 0.018234352 -0.026825001 -0.012264669
0.049209937 0.0050688996 -0.0008967858 0.036202356 -0.04636982 -0.023828737 -0.018477492 -0.007865615
-0.027003728 -0.0397755 0.04147401 -0.04474229 0.049490083 -0.01724202 0.015451026 0.041424476
0.031055704 0.04357485 -0.06731012 -0.059495293 -0.0685035 -0.043128114 0.006690145 0.0038558068
-0.021936705 -0.040677063 -0.030415857 0.06068993 -0.057848614 0.045444712 -0.054773975 -0.045061376
-0.053384162 0.055447325 -0.056735765 -0.043623343 -0.044632845 0.032288894 -0.04041883 -0.04991225
0.027431909 0.01874075 -0.020358376 0.0023637773 -0.009391624 0.021697052 -0.055293463 -0.059202626
00000000: b6ec 5ebd 071d fcb8 b25d 71bd 7c76 ffbc
00000010: 70a9 023d 03ed 7abc 72f8 093c 59e8 f2bb
00000020: 418e 65ba 39d9 8e3c 16c5 30bd 780c c53c
00000030: 7c00 70bb 3c73 57bd 20e0 523d 2846 063d
00000040: d666 453d 18dd 08bd 704a c43c a3ae 24bd
00000050: 04cb 22bd 30b5 d0bc 5faa c63c 710c c4bc
00000060: d670 abbc 3eb7 4cbc 9d2e 4dbd 452c 0e3d
00000070: 450f 44bd e374 173d 560b 06bd 3a38 29bc
00000080: 895b 37bd 40bb 8aba ec4e 243d 516b 64bd
00000090: bdab 51bd cb14 433d 5102 4dbd 54f2 923a
000000a0: f00a c3bc d53d d53c 5644 743b de3e f93a
000000b0: 71fa 26bd 09ea 3c3d a53e 4c3d 10c8 703c
000000c0: a862 f2bc 3863 a33c cc08 603d 264d 083d
000000d0: 29a8 e7bc 12bd 6d3d 4269 493d ee1a 823c
000000e0: 17f8 a53b 6fde 1a3c 802b 1b3b d8b4 ae3c
000000f0: acaa 723d e73b 403a aece 8a3c 9d77 483d
00000100: ccbe 093d 1b84 463c 30d1 bdbc 7f59 39bd
00000110: a670 0cbd 2be2 03bd 97ce 6d3c 1809 79bc
00000120: 7582 5ebd a682 3d3d 00a4 8abb e43a 373d
00000130: ae30 61bd 8dd0 023a 5456 943c b011 313d
00000140: 054f 9a3c 63b1 793c 32bc 91bc 2ac3 d13c
00000150: 1978 3cbc 8b1b a2bc 253f 343d 650e de3c
00000160: f17d 40bc 7136 42bd 6ee9 2cbd f450 343d
00000170: 232a f4bc 0a75 5dbd 60ef 86bd 73f9 c1bc
00000180: 4e20 70bc 2c23 50bd da8e 2ebd 8b77 40bd
00000190: 0533 8dbd 8a1f 633d 91e0 633d 53cd 37bb
000001a0: 5b6a 473d 08af c63c c44c 79bc b240 073d
000001b0: bc9f bdbc e7f4 82bd 1659 bc3c 02f3 1c3d
000001c0: f60f 36bc 88cb 67bd fb31 833c cc52 643b
000001d0: b123 003d 00c5 663b 153e 383d 842f 003d
000001e0: 488d 56bd 50df 34bc 899a 353d a6f8 2c3d
000001f0: 5c29 fd3c 2868 61bc 5287 a6bc 6c95 e3bc
00000200: 0458 64bb 8655 44bc b0a1 47bd 6034 aabb
00000210: 97c0 d63b 44b9 2b3d 6012 05bd ea3d f13c
00000220: b68f 3d3d 2071 16bc 064e 51bd d8d5 40bd
00000230: 6aa0 d5bc 6dce 7bbd ffb6 c3bb 0206 243d
00000240: a4c8 03bd 918d 98bc 9487 683d 28f3 c23c
00000250: bac0 3f3d 6079 fd3c ead9 c9bb 2e9f 2c3d
00000260: 12f2 91bc c7b9 40bd 904a 85bd b4b5 48bd
00000270: 6801 2abd c89b 483d 32fb 21bd 7865 87bd
00000280: 88a8 da3c 7c9e a1bc b359 b2bc 3c9d 34bd
00000290: efec 873c eaa1 8a3c aed5 38bd 4244 5c3d
000002a0: 39df 38bd f75c 1b3d 7aa0 70bd 301c 333d
000002b0: e566 47bd 24fe 823c 02f6 20bd 01d2 49bd
000002c0: 5c10 1e3d 4e28 083d ae2e 5d3d 7cc8 0a3d
000002d0: e4b4 c3bc a0df a0bc 483a bbbc 5f46 78bd
000002e0: f817 14bc 1c03 ed3c 8796 573d 38e4 62bd
000002f0: ed1b ae3c 9ebb 89bd 50c9 5b3c 20bc 523b
00000300: 60b5 f73c bf63 ebbb 1c21 313d db70 08bd
00000310: 3672 3b3c 6521 d33c d8d2 db3c 6474 c53c
00000320: e711 a8bc f6ba 513d 7fad 5dbd 91c8 39bc
00000330: 11d5 a53c 3560 953c 1bc0 dbbc c0f1 48bc
00000340: 5c90 493d 0319 a63b 4716 6bba ec48 143d
00000350: 48ee 3dbd 7c34 c3bc 1c5e 97bc c8de 00bc
00000360: ec36 ddbc a2eb 22bd a7e0 293d b143 37bd
00000370: 1db6 4a3d 233f 8dbc 4d26 7d3c b6ac 293d
00000380: 8868 fe3c 8b7b 323d e3d9 89bd 56b1 73bd
00000390: 904b 8cbd 1ba7 30bd 0139 db3b b4b1 7c3b
000003a0: 9bb4 b3bc fe9c 26bd ad2a f9bc 0196 783d
000003b0: abf2 6cbd 3c24 3a3d ad5a 60bd 4792 38bd
000003c0: 5aa9 5abd bc1c 633d c363 68bd 64ae 32bd
000003d0: eed0 36bd 5c41 043d 378e 25bd ca70 4cbd
000003e0: e2b8 e03c 3486 993c 9cc6 a6bc 9ae9 1a3b
000003f0: 53df 19bc 04be b13c 667b 62bd 747e 72bd

net.2.bias f4 [256]
0.011397199 -0.064437956 -0.035023313 0.038021386 0.0024137925 -0.0012373977 0.031597033 -0.071174294
-0.020562574 0.10022462 0.041626487 -0.059953026 0.058182962 -0.034093153 0.068984054 -0.051973447
0.0031218138 0.050332896 0.05111156 -0.006288891 0.060374737 0.03146953 0.07854296 -0.02945859
-0.033035845 -0.060006253 -0.019815248 0.025343224 -0.05478471 -0.009275469 0.031953342 0.11274275
-0.013384812 0.068689376 0.0515955 0.052993212 0.067667946 -0.08129113 0.02981548 -0.03994236
0.042978007 0.044559143 -0.061274 0.09305126 -0.025479503 0.07766484 0.022880513 0.05494393
0.10908355 -0.007029118 0.03942781 0.10148593 0.059586458 0.016794419 0.030500982 -0.0002933574
-0.036646165 -0.0012001735 0.08828373 0.026574157 0.09028794 -0.04836717 0.0047492646 0.053488262
0.014524898 0.05319734 0.039467815 -0.05472218 -0.07226231 0.023801288 0.06816389 0.029249396
0.03504031 -0.026253195 -0.052784216 0.031090863 -0.0687799 -0.07011332 -0.047611855 -0.009342692
-0.024026107 0.096732095 0.031682957 0.0017095243 -0.047208343 -0.015356372 -0.03964127 0.044326328
0.028334225 0.07844893 0.04761897 0.11653448 0.02947581 -0.016913641 -0.058405332 -0.032229822
0.0099798115 0.07303314 0.01843314 0.051786806 -0.019487683 0.02554254 -0.027010301 0.0153937815
0.07504889 0.092922725 -0.08151571 0.0006717908 -0.018451078 -0.038005337 0.048828334 -0.053660735
-0.07406083 0.0053654485 -0.006259605 -0.0028805323 0.0072298073 -0.027639022 0.08447407 0.002936557
-0.053766854 0.0015004505 -0.02948021 0.06144506 0.06860967 0.057695694 0.016923718 0.037750542
0.032473303 0.01960507 0.031351782 0.03886289 0.032513477 -0.038418923 -0.05397373 0.057543326
0.07525935 -0.029469853 -0.013122641 -0.06511112 0.030381044 -0.049760867 0.07307933 -0.060619317
-0.024360077 -0.038231242 -0.05013843 -0.05685327 -0.027344272 0.021819338 0.04499237 -0.0566957
-0.032772765 -0.038177982 0.064676605 0.04819593 -0.06519643 0.071793385 -0.023013238 -0.019278325
0.05021996 0.1259261 0.06712395 0.009878984 0.10681475 -0.058999978 0.017999018 0.0035774405
0.008750704 -0.02564236 0.03168645 0.006761473 0.048150714 0.03895955 0.014789827 0.04189782
-0.068338566 0.0375272 0.02525448 0.10436721 -0.056999654 0.021850966 0.021719173 0.04490101
0.026916184 0.026156636 0.1192856 0.015590487 -0.04006157 -0.009000912 0.01658477 -0.0313336
0.007910049 -0.033125333 0.091291785 0.009918993 0.11092157 -0.040719606 -0.0139208315 -0.015168332
0.113136634 0.061550044 0.06712769 0.028042212 0.053382788 -0.022643901 0.0098021785 0.08173078
0.002094886 0.026289161 -0.046213865 -0.098837435 0.10288713 0.05333722 -0.00084356696 -0.05935443
-0.030575812 -0.032262642 -0.018613053 -0.060224768 0.10977885 0.039227907 0.03256416 0.03215015
-0.042755302 -0.037892178 0.01852531 0.019664176 -0.012965148 -0.007138364 0.033148274 -0.003235723
-0.075373515 0.001474293 -0.023646953 0.11536531 0.031848643 0.087358564 0.052820623 -0.034967232
0.06302032 0.037184093 0.014507073 0.045165222 -0.0661908 -0.0185654 0.11594945 0.09641477
0.02337196 -0.0026684643 0.011330505 0.07170753 -0.032334525 0.027664449 0.000975257 0.09699917
00000000: 51bb 3a3c 0cf8 83bd 9b74 0fbd 50bc 1b3d
00000010: b830 1e3b 2d30 a2ba e46b 013d d4c3 91bd
00000020: d872 a8bc 9142 cd3d 8980 2a3d 4e91 75bd
00000030: 4251 6e3d 43a5 0bbd 8347 8d3d 1ce2 54bd
00000040: 5897 4c3b de29 4e3d 5b5a 513d 0b13 cebb
00000050: 804b 773d 32e6 003d 22db a03d 2453 f1bc
00000060: 9850 07bd 1ec9 75bd 9653 a2bc 989c cf3c
00000070: ef65 60bd 23f8 17bc 82e1 023d ace5 e63d
00000080: f84b 5bbc 04ad 8c3d ce55 533d 690f 593d
00000090: 7e95 8a3d f77b a6bd 983f f43c 9a9a 23bd
000000a0: b509 303d a683 363d 72fa 7abd a991 be3d
000000b0: 64ba d0bc be0e 9f3d ea6f bb3c e30c 613d
000000c0: 3267 df3d 8454 e6bb 0e7f 213d dbd7 cf3d
000000d0: ee10 743d 7394 893c 32dd f93c c4cd 99b9
000000e0: 4a1a 16bd 244f 9dba 1ace b43d 0cb2 d93c
000000f0: e2e8 b83d a71c 46bd b89f 9b3b 8216 5b3d
00000100: d6f9 6d3c 74e5 593d 01a9 213d 5d24 60bd
00000110: 43fe 93bd ebfa c23c 8299 8b3d 6e9c ef3c
00000120: 6e86 0f3d f110 d7bc 4334 58bd 44b2 fe3c
00000130: 7adc 8cbd 9397 8fbd a604 43bd 1712 19bc
00000140: 66d2 c4bc 7a1b c63d fdc5 013d 1e12 e03a
00000150: 895d 41bd 4b99 7bbc e25e 22bd 868f 353d
00000160: 2d1d e83c d5a9 a03d 1c0c 433d a1a9 ee3d
00000170: 4177 f13c 7a8e 8abc 6e3a 6fbd 6b03 04bd
00000180: 5d82 233c 6692 953d 1901 973c 671e 543d
00000190: a2a4 9fbc 973e d13c b544 ddbc 3336 7c3c
000001a0: 3cb3 993d 454e be3d b5f1 a6bd 1e1b 303a
000001b0: b726 97bc 7cab 1bbd 3800 483d 5ccb 5bbd
000001c0: 34ad 97bd a5d0 af3b 5f1d cdbb 50c7 3cbb
000001d0: 05e8 ec3b 3b6b e2bc be00 ad3d 4073 403b
000001e0: a23a 5cbd c4aa c43a 7b80 f1bc d1ad 7b3d
000001f0: 3a83 8c3d 5252 6c3d 9ca3 8a3c 50a0 1a3d
00000200: ba02 053d d09a a03c ba6a 003d b22e 1f3d
00000210: da2c 053d 295d 1dbd 8f13 5dbd 8db2 6b3d
00000220: 9321 9a3d c36a f1bc 5800 57bc fb58 85bd
00000230: abe1 f83c 0dd2 4bbd 9eaa 953d f64b 78bd
00000240: c98e c7bc 5d98 1cbd f45d 4dbd f9de 68bd
00000250: 1801 e0bc 78be b23c eb49 383d c039 68bd
00000260: bc3c 06bd 8460 1cbd 2b75 843d 1869 453d
00000270: b585 85bd 6908 933d 4286 bcbc 94ed 9dbc
00000280: 72b3 4d3d c6f2 003e 4878 893d 76db 213c
00000290: b1c1 da3d f6a9 71bd ad72 933c 7e73 6a3b
000002a0: 1d5f 0f3c ed0f d2bc a7c9 013d 598f dd3b
000002b0: af39 453d 0d94 1f3d 0851 723c 0c9d 2b3d
000002c0: 17f5 8bbd 1fb6 193d 7ce2 ce3c 7abe d53d
000002d0: 7878 69bd cc00 b33c 68ec b13c 1fea 373d
000002e0: 547f dc3c 7146 d63c 024c f43d 3e6f 7f3c
000002f0: 9a17 24bd 9078 13bc c9dc 873c a957 00bd
00000300: 2699 013c 6eae 07bd 30f7 ba3d 4683 223c
00000310: d92a e33d 9ac9 26bd 3314 64bc 9884 78bc
00000320: 2eb4 e73d e61b 7c3d 3e7a 893d c8b8 e53c
00000330: e9a7 5a3d b47f b9bc 5199 203c 7862 a73d
00000340: 5b4a 093b 5e5c d73c c04a 3dbd 486b cabd
00000350: 7db6 d23d 2178 5a3d d222 5dba a11d 73bd
00000360: 207a fabc d525 04bd 677a 98bc 3fae 76bd
00000370: bcd3 e03d 71ad 203d ff61 053d e0af 033d
00000380: 2f20 2fbd d434 1bbd 64c2 973c c416 a13c
00000390: c66b 54bc f0e8 e9bb 7cc6 073d 6c0e 54bb
000003a0: 6e5d 9abd 103d c13a 41b7 c1bc a644 ec3d
000003b0: b973 023d 0ce9 b23d 705a 583d cd39 0fbd
000003c0: cc10 813d 594e 183d 13af 6d3c 2bff 383d
000003d0: 0b8f 87bd 7716 98bc e876 ed3d 1b75 c53d
000003e0: 8d76 bf3c 67e1 2ebb 95a3 393c 66db 923d
000003f0: 3571 04bd 8ea0 e23c 64a8 7f3a 80a7 c63d

actor.weight f4 [1, 256]
0.010974159 0.04244035 0.08428647 -0.043660313 0.37901428 0.012913487 0.046569493 -0.014622924
-0.0013920665 0.07920771 -0.014373004 -0.013445794 0.33643928 -0.004221883 0.24597512 0.024229102
0.3145592 -0.006882593 -0.11015938 0.050030734 -0.047736175 -0.287421 0.25092176 -0.03504742
-0.23935148 -0.0036520795 0.052363925 -0.019917745 -0.27185604 -0.25549567 0.019554863 0.23351799
0.044684112 -0.03339867 -0.26911682 -0.2156157 0.33343086 0.2373491 -0.19502258 0.008015297
0.12561066 -0.245398 0.053346403 0.027585529 -0.045536064 0.30813563 -0.0075861793 -0.23719054
0.13868688 0.06783811 -0.027615199 0.15428706 0.30737722 -0.19816685 0.2624302 -0.040921837
-0.26910523 -0.020017961 -4.3310578e-05 -0.02999235 0.121100165 0.024079593 0.2509273 -0.22966942
-0.76096845 0.012565089 -0.24873617 -0.0516793 0.008269344 -0.2835493 0.101594985 0.15000749
0.051215064 -0.0069363476 0.025263244 0.033855196 0.006883892 0.014674864 -0.061661296 -0.21015817
0.37711743 -0.12460688 -0.33363476 -0.3042428 0.0041673463 -0.012676197 -0.04485239 0.04111539
-0.23822032 0.30937666 0.0047187107 0.0004637289 0.045729414 -0.02094804 -0.0522423 0.34736598
0.050080996 0.19201599 -0.19306178 -0.04225002 0.06327938 0.016480707 -0.008455219 0.0057436414
0.009301407 -0.16523375 0.06810692 0.2050881 0.06003982 0.006998703 0.020127848 0.009826475
0.004741174 0.004775356 -0.0018006001 0.3172476 0.0016632981 -0.0037346943 0.05637346 -0.00082430115
0.04487724 0.038395304 0.072322324 -0.1858403 -0.021595472 0.031189982 0.05299781 -0.09627379
0.031819843 -0.009268492 -0.008033492 -0.03584505 0.047019333 -0.24436818 -0.008183334 0.11210538
-0.15072477 -0.018772528 -0.04132229 0.046194024 -0.0011977346 -0.319686 0.16492869 -0.020720959
0.0072712433 -0.01642676 0.00026030093 0.059836138 -0.03427208 -0.22063087 0.023039214 0.10605666
-0.004773695 -0.041263048 0.3238414 -0.018905902 0.022663176 0.05125201 0.36244482 0.039636254
0.030951167 0.04197822 -0.07612592 0.24336238 0.19353941 0.026515372 -0.24889731 0.32661366
-0.046734493 0.31787524 0.021900805 0.28027576 0.035671666 0.30425572 0.050649457 0.0005053666
-0.046787854 -0.2370612 -0.25617462 0.12526621 0.047869258 0.043441422 -0.18007214 0.06341776
0.23452117 0.012254947 0.13764004 0.30545193 0.009072594 0.35900545 -0.039490316 -0.22954123
-0.058450703 -0.20947385 -0.06909891 -0.033909146 0.12576282 -0.026666373 0.020242136 0.008826621
0.08413731 -0.14299288 -0.06670234 0.009308668 -0.16505378 -0.0030545148 -0.051776044 -0.21580714
-0.026352847 0.009097128 -0.35485607 0.14093974 0.11041252 0.25760138 -0.19317783 0.010359507
0.005672764 0.04206727 0.013693228 -0.013715971 0.0067344774 0.22518492 0.1296649 -0.024652386
-0.04353003 -0.012065455 0.15177287 -0.038899876 0.018400641 -0.24347647 -0.02951331 -0.046850167
-0.094983645 0.34329215 0.04842298 0.17957488 -0.060634725 0.33537722 0.016436858 0.35238263
0.30083397 -0.3152695 0.18028238 0.0353608 0.05344515 -0.048684824 -0.014912635 -0.11804836
-0.04524522 -0.18560353 -0.052791692 -0.17758933 -0.0067529446 -0.020554228 0.20033959 0.08942846
00000000: f6cc 333c efd5 2d3d 639e ac3d 28d5 32bd
00000010: 290e c23e 1793 533c a7bf 3e3d fd94 6fbc
00000020: 0076 b6ba a737 a23d c07c 6bbc bf4b 5cbc
00000030: c541 ac3e b957 8abb e7e0 7b3e 1c7c c63c
00000040: e70d a13e 6087 e1bb 3e9b e1bd 07ed 4c3d
00000050: 0287 43bd d828 93be d178 803e e28d 0fbd
00000060: 8e18 75be ba57 6fbb 8e7b 563d 8a2a a3bc
00000070: b730 8bbe 54d0 82be 8531 a03c 571f 6f3e
00000080: b006 373d 0bcd 08bd aec9 89be 5dca 5cbe
00000090: 73b7 aa3e a40b 733e 00b4 47be 9852 033c
000000a0: 15a0 003e 9d49 7bbe c281 5a3d 0cfb e13c
000000b0: 0684 3abd f4c3 9d3e 7c95 f8bb 14e2 72be
000000c0: ef03 0e3e b5ee 8a3d 4539 e2bc 6dfd 1d3e
000000d0: 8c60 9d3e 40ec 4abe 405d 863e a89d 27bd
000000e0: 29c8 89be b5fc a3bc 61a8 35b8 84b2 f5bc
000000f0: 5d03 f83d 9142 c53c 8b79 803e 762e 6bbe
00000100: d4ce 42bf cedd 4d3c b2b4 7ebe acad 53bd
00000110: 257c 073c 602d 91be 0811 d03d 909b 193e
00000120: e3c6 513d 4d4a e3bb ddf4 ce3c bfab 0a3d
00000130: 4692 e13b d76e 703c 8e90 7cbd b433 57be
00000140: 8915 c13e e431 ffbd 2dd2 aabe b6c5 9bbe
00000150: 3c8e 883b d3af 4fbc 24b7 37bd 9c68 283d
00000160: 07f0 73be 9e66 9e3e 6a9f 9a3b a420 f339
00000170: c44e 3b3d 399b abbc 06fc 55bd f4d9 b13e
00000180: bb21 4d3d d79f 443e fdb1 45be 5b0e 2dbd
00000190: 9f98 813d 8c02 873c c287 0abc 2835 bc3b
000001a0: ee64 183c 0933 29be a47b 8b3d 9d02 523e
000001b0: 50ec 753d 6055 e53b 28e3 a43c 39ff 203c
000001c0: da5b 9b3b 977a 9c3b 1d02 ecba 476e a23e
000001d0: 0603 da3a c6c1 74bb dbe7 663d ea15 58ba
000001e0: 32d1 373d 6544 1d3d ba1d 943d eb4c 3ebe
000001f0: fde8 b0bc 2282 ff3c 3b14 593d 312b c5bd
00000200: 8655 023d e0da 17bc e89e 03bc 42d2 12bd
00000210: 5897 403d a73b 7abe 6413 06bc 8197 e53d
00000220: 9857 1abe d8c8 99bc 9041 29bd f235 3d3d
00000230: 4efd 9cba e2ad a3be 11e3 283e 00bf a9bc
00000240: 9c43 ee3b 6a91 86bc 0079 8839 bd16 753d
00000250: e160 0cbd 0fed 61be bcbc bc3c 3c34 d93d
00000260: a86c 9cbb 7103 29bd 8ace a53e 8de0 9abc
00000270: 20a8 b93c a1ed 513d 5e92 b93e a059 223d
00000280: 4d8d fd3c 5bf1 2b3d e8e7 9bbd fd33 793e
00000290: 322f 463e c436 d93c f0de 7ebe e839 a73e
000002a0: ab6c 3fbd 8bc0 a23e 5169 b33c 4e80 8f3e
000002b0: 741c 123d 68c7 9b3e ce75 4f3d 947a 043a
000002c0: 9fa4 3fbd 2cc0 72be 5229 83be c945 003e
000002d0: 8e12 443d a2ef 313d d564 38be 2ce1 813d
000002e0: 5126 703e f9c8 483c 83f1 0c3e 3264 9c3e
000002f0: 38a5 143c 90cf b73e 99c0 21bd db0c 6bbe
00000300: 016a 6fbd 5080 56be bb83 8dbd 51e4 0abd
00000310: f8c7 003e 7073 dabc d6d2 a53c 889d 103c
00000320: 2f50 ac3d ba6c 12be 3d9b 88bd 6283 183c
00000330: dc03 29be 412e 48bb 1e13 54bd 8cfc 5cbe
00000340: ede1 d7bc 1f0c 153c b2af b5be 8252 103e
00000350: f61f e23d 54e4 833e 69d0 45be ecba 293c
00000360: 98e2 b93b bb4e 2c3d 9059 603c f4b8 60bc
00000370: e4ac dc3b e096 663e e0c6 043e cdf3 c9bc
00000380: 8b4c 32bd 30ae 45bc 596a 1b3e 7a55 1fbd
00000390: f1bc 963c e551 79be e6c5 f1bc f6e5 3fbd
000003a0: c986 c2bd fdc3 af3e 2d57 463d 7ae2 373e
000003b0: 1e5c 78bd 90b6 ab3e 97a6 863c 7f6b b43e
000003c0: e906 9a3e 016b a1be f29b 383e 7cd6 103d
000003d0: 4de9 5a3d bd69 47bd 2054 74bc 57c3 f1bd
000003e0: 0d53 39bd da0e 3ebe 1a3c 58bd fad9 35be
000003f0: ce47 ddbb 5761 a8bc d225 4d3e 4526 b73d

critic.weight f4 [1, 256]
-0.031594902 -0.053524647 -0.045922287 0.043308552 0.009019496 0.011301598 -0.020529492 0.03345937
-0.024619162 0.063142054 -0.025783202 -0.024152245 0.006532166 -0.016671209 0.0027282552 -0.0018954352
0.007111284 -0.048946004 0.073211655 -0.0041104183 -0.21218619 0.03464092 0.005218439 -0.03980106
0.0042238575 -0.010666944 0.041031726 -0.033769105 -0.0041945786 0.022132564 -0.015526671 0.02817192
0.01072754 0.08550848 -0.009257385 0.010598718 0.01021979 -0.017322598 0.055822805 0.061740316
0.037031777 -0.008325368 0.006634891 0.05031053 0.015704837 0.0091509465 0.056755222 -0.0050958553
0.039732974 -0.08703883 0.023098938 0.04423894 0.009135534 -0.0058501433 0.009356019 -0.012678637
-0.011322219 -0.001694983 0.04444525 -0.020955648 0.040645145 0.046136566 -5.954784e-05 0.049588095
0.19513312 0.005531414 0.040108792 0.015625117 -0.032290556 0.0029788404 0.03791153 0.033043195
0.008725022 -0.024083948 0.054056898 0.020577896 -0.036661536 -0.11219618 -0.04271812 0.042544704
0.010694201 0.06411658 0.11036121 0.0012783429 0.05383956 -0.052754495 0.0015290603 0.05047401
0.045488745 0.0044782357 0.0395938 0.084565595 0.0424253 -0.02842381 -0.005122178 0.012004089
0.055284828 0.030510407 0.013944227 0.04846956 -0.0135256415 -0.030720126 -0.028706573 -0.03799587
0.02556562 0.065483585 -0.1038203 -0.010417414 0.045211088 -0.054935828 0.050003648 -9.8424716e-05
-0.019880401 -0.03866955 -0.021445364 0.0077296305 0.020307336 -0.03719523 0.06712655 -0.031814486
-0.028768424 0.043537866 -0.03501423 0.047511593 -0.0373475 0.041161228 -0.014612804 0.06249217
0.016507894 0.041759692 0.017526673 0.009492844 0.052998476 0.006883498 0.03206719 0.07076769
0.057774674 -0.059433937 -0.017410703 -0.023954287 -0.0019615255 0.0015667988 0.059501737 0.047502946
-0.023831535 0.006024772 -0.037672363 0.052677486 -0.007475656 0.03378499 0.0012424786 -0.04228592
0.004420833 0.005916165 0.003799928 0.078504436 0.05083458 0.031206386 0.004212526 0.049556915
-0.023647048 0.064725034 0.09359451 0.010461883 0.030246941 0.047881335 -0.00863026 0.007799305
-0.036301076 0.012383766 -0.02311164 -0.00038356325 0.06365139 0.012072426 0.012276769 0.012948078
-0.00788824 0.0064503574 -0.011962113 0.02944327 0.024084583 -0.013170786 0.0019315833 -0.104921795
-0.014859148 0.054180436 0.04684984 0.011848989 0.029563561 0.015622477 -0.022820361 -0.0032666032
0.019921998 -4.2655658e-05 0.030151287 0.0668184 0.062439162 0.05864104 -0.033192504 -0.039355353
0.070606366 0.0753766 0.02913192 -0.014627943 0.0017843229 -0.004332597 -0.1095207 0.036843818
-0.06669625 0.0745146 0.0013904285 -0.19005719 0.0390607 0.004376626 0.0035410908 -0.001952905
0.018764671 0.03959083 -0.05389074 -0.053803436 0.054713886 0.00010612066 0.062652975 0.06077276
-0.016904257 0.059403867 0.052852213 -0.014242105 -0.0090887165 -0.0020418724 -0.00353095 0.00030237008
-0.034094077 0.0050592986 0.015272862 0.044706423 -0.028404674 0.014088742 0.044639844 0.0066867666
0.00263429 -0.0062259682 0.04537794 -0.011122033 -0.05060012 -0.0139216455 0.049662016 0.07737076
-0.029206404 -0.0016929586 -0.03434609 0.03082615 -0.010030836 0.03573642 0.02933346 0.042222112
00000000: a869 01bd a93c 5bbd 0219 3cbd 4f64 313d
00000010: 82c6 133c 562a 393c 772d a8bc b10c 093d
00000020: 20ae c9bc 9f50 813d 4b37 d3bc eeda c5bc
00000030: c80b d63b 0f92 88bc 87cc 323b 4070 f8ba
00000040: c605 e93b 9b7b 48bd feef 953d b0b0 86bb
00000050: 5647 59be a3e3 0d3d 70ff aa3b 7006 23bd
00000060: 4968 8a3b 68c4 2ebc e210 283d 7951 0abd
00000070: ad72 89bb 5a4f b53c 9463 7ebc ccc8 e63c
00000080: 90c2 2f3c 121f af3d 49ac 17bc 3fa6 2d3c
00000090: e870 273c 1fe8 8dbc 74a6 643d 6ae3 7c3d
000000a0: a2ae 173d 2067 08bc 8069 d93b 6a12 4e3d
000000b0: 6ea7 803c daed 153c 2a78 683d 22fb a6bb
000000c0: 0bbf 223d 6a41 b2bd fc39 bd3c e433 353d
000000d0: 35ad 153c 8fb2 bfbb fd49 193c 0fba 4fbc
000000e0: d480 39bc 312a deba 390c 363d 2eab abbc
000000f0: 867b 263d b2f9 3c3d 02c3 79b8 e31c 4b3d
00000100: fad0 473e dd40 b53b 1e49 243d 3f00 803c
00000110: 1a43 04bd a638 433b 1f49 1b3d 4d58 073d
00000120: 65f3 0e3c b34b c5bc c46a 5d3d fa92 a83c
00000130: 682a 16bd 1cc7 e5bd 32f9 2ebd 5b43 2e3d
00000140: bb36 2f3c 8e4f 833d 0f05 e23d 128e a73a
00000150: df86 5c3d 1915 58bd c06a c83a d6bd 4e3d
00000160: 6852 3a3d 2abe 923b 1c2d 223d ba30 ad3d
00000170: 27c6 2d3d 0dd9 e8bc f1d7 a7bb ccac 443c
00000180: 5872 623d f6f0 f93c 5476 643c 0488 463d
00000190: a79a 5dbc c6a8 fbbc 0c2a ebbc 8fa1 1bbd
000001a0: fe6e d13c 421c 863d bd9f d4bd cdad 2abc
000001b0: 432f 393d 6404 61bd a0d0 4c3d 5e69 ceb8
000001c0: 39dc a2bc f663 1ebd 30ae afbc d748 fd3b
000001d0: 925b a63c 075a 18bd a579 893d e84f 02bd
000001e0: c2ab ebbc c354 323d 156b 0fbd 849b 423d
000001f0: b1f9 18bd ad98 283d 8b6a 6fbc caf7 7f3d
00000200: 903b 873c 360c 2b3d 1994 8f3c e087 1b3c
00000210: ee14 593d f78e e13b e358 033d a7ee 903d
00000220: 23a5 6c3d 0071 73bd e4a0 8ebc c83b c4bc
00000230: f08c 00bb 0b5d cd3a 18b8 733d 7392 423d
00000240: 5a3a c3bc 736b c53b 564e 1abd 59c4 573d
00000250: 59f6 f4bb 2162 0a3d aada a23a 0034 2dbd
00000260: a3dc 903b 64dc c13b 3608 793b efc6 a03d
00000270: ec37 503d 89a4 ff3c 3b09 8a3b 31fc 4a3d
00000280: 74b7 c1bc 8f8e 843d 7aae bf3d 5168 2b3c
00000290: 6fc8 f73c 381f 443d ef65 0dbc 5091 ff3b
000002a0: 70b0 14bd 47e5 4a3c 9f54 bdbc fd18 c9b9
000002b0: a95b 823d 6dcb 453c 8024 493c 2d24 543c
000002c0: ad3d 01bc 855d d33b bdfc 43bc 0333 f13c
000002d0: 084d c53c 48ca 57bc 2e2d fd3a 3de1 d6bd
000002e0: c973 73bc 4eec 5d3d 9ee5 3f3d 4322 423c
000002f0: 482f f23c 6bf5 7f3c c4f1 babc 8214 56bb
00000300: 7533 a33c 2ae9 32b8 d5ff f63c 16d8 883d
00000310: 35c0 7f3d 9631 703d ddf4 07bd 1433 21bd
00000320: 129a 903d 0c5f 9a3d 10a6 ee3c 0aaa 6fbc
00000330: f1df e93a 75f8 8dbb 644c e0bd 8be9 163d
00000340: 0b98 88bd 1c9b 983d 0a3f b63a 5a9e 42be
00000350: 1dfe 1f3d cd69 8f3b a511 683b 9ef8 ffba
00000360: 5eb8 993c ff29 223d 89bc 5cbd fe60 5cbd
00000370: ab1b 603d 188d de38 3450 803d dcec 783d
00000380: cc7a 8abc 7851 733d 907b 583d b857 69bc
00000390: d7e8 14bc efd0 05bb 8367 67bb 6d87 9e39
000003a0: 3ba6 0bbd 79c8 a53b 073b 7a3c 151e 373d
000003b0: ebb0 e8bc 78d4 663c 45d8 363d aa1c db3b
000003c0: 0da4 2c3b 3503 ccbb 38de 393d 3039 36bc
000003d0: 1242 4fbd 9d17 64bc 666a 4b3d 9074 9e3d
000003e0: 4542 efbc 44e6 ddba 7cae 0cbd 1f87 fc3c
000003f0: 6058 24bc 5a60 123d b94c f03c 18f1 2c3d
