models1/ppo_1650.pth (torch, 275660 bytes, 6 tensors)

net.0.weight f4 [256, 6]
00000000: 7e6c d2be 69f1 d3be 9eab 233e 19b6 c13e
00000010: 7d07 2abd 2fe7 b2be 5117 5fbd f575 6dbc
00000020: 56af e83e 47b6 c8be 7ba5 bbbd b337 e33e
00000030: ed09 43bd ad9a 043f 0c94 473d d034 c0be
00000040: c58d 55be 129c 82bd 6ebb a2be 5a5a 7a3e
00000050: fa0c 1c3e a37e 5fbd fe1f 8c3c 138d a33e
00000060: 7b7c 7c3e 421f 0cbe fa36 f5be 86c3 953e
00000070: 6ad2 433e b352 44be 080f f23d 8551 76bd
00000080: 0f7c bf3e fb80 6f3c 4d48 9ebe 0f70 663e
00000090: 3c02 2ebd 9051 c03d 7bd6 ec3e e6d4 683e
000000a0: 9651 ae3d 2971 abbe 2531 bbbe fc3a c4be
000000b0: c695 68bc 8365 183e 7852 24bd b9ac 753e
000000c0: ef1d 80be 4053 90be deac 993e 019b b6bd
000000d0: e6e1 813e 3ade 94be c0e8 283e ff46 433e
000000e0: e61e e63e 680e 0ebf f8c4 35be 2bfc 253e
000000f0: f789 ce3d 80b3 43be 5d72 28bc b7f2 0abd
00000100: ba85 6ebe 386a f4bd 2a6c 233d 5e7e 81be
00000110: db2f 5abe 50bd 8b3e 6275 d7bd de15 ffbd
00000120: 7c76 23be 5b5c ad3d ce36 eebd 2b94 403e
00000130: 2ba8 97be 91a7 8ebe 2dec dabb 8ca2 d53d
00000140: 92a3 603e 124a 963e c00d 18be 2739 dfbe
00000150: 76c2 9e3e 1c41 143e 10f1 6abe b802 f93c
00000160: 9938 9bbe aa22 a43e 2f6c 4c3d 17ed babe
00000170: 11c7 b2bd 6583 b9be ccba 68be 5a88 9cbd
00000180: eb5e 073e 8de6 5b3e d2f9 bf3e f547 18be
00000190: 94a0 92bc 1265 b4be a437 09bf d04a 4cbe
000001a0: 7aa8 5cbd 69d6 b7be 3c7d 6c3d 5d71 233d
000001b0: cc89 efbe a3c2 673e a86d 05bf a0d2 bcbe
000001c0: cf84 fbbd b768 433e 4966 143e cedd 4f3e
000001d0: 3fd9 46be 2332 ca3e 953c cebd ee08 7dbe
000001e0: ffe9 d9bd aaa8 ce3d 5c2c bdbd 76f7 883e
000001f0: ce27 733e d6ff a63e 3885 b13e 6b3f 613e
00000200: 0d8c 653b d743 c43d 5fdf fc3d 71b8 bebe
00000210: c454 a7be 5abd ab3d 206c a63e 67f5 03bf
00000220: d726 8cbd 5247 c63e 4efd 053e 68b8 23be
00000230: df36 05be c7af 24bd 18f8 633e 9210 36bc
00000240: 7812 14be 6ffb 5b3e 566d db3b f1a6 313d
00000250: 7b3e 643e 6a4c e6be d68e 62be 3c81 a33e
00000260: a0ed d5be 1a15 1f3f 0b8a 8c3d dc39 67be
00000270: e1dc 1c3e 9c3b 0c3d 085b 5dbe 4207 3f3e
00000280: d390 d43d 74ed 51be 027d b03d 4355 b7bd
00000290: cb9d 153f b1db 10bf d18c 3a3d f964 afbe
000002a0: 6e81 943e 11d0 d1be c950 f53d 4ed0 8f3e
000002b0: e2cc 41bd d386 32be da28 86be d090 8b3d
000002c0: de19 523e 5e75 a7be 3714 8cbe 2752 243d
000002d0: 4677 05be 8893 84be 2b6f c2be d4a4 c23e
000002e0: 8f55 bf3e b866 863e 09e5 81bd 2014 9cbe
000002f0: 7743 f0be e950 c03e ef99 9c3d 9738 e0bd
00000300: cccb 43be 13f2 7cbd f0e1 67be bd42 b33e
00000310: 7f14 e7bd a9ba 433d 3e64 95bd ab60 833e
00000320: 2f20 b4bd c9ca b1bc dd03 213e aca8 d63d
00000330: 69c6 d5be 336b 243e 9c9e 90be b19d aa3e
00000340: 4b1c abbe 760b b73d bded cbbe dd6a 3a3d
00000350: 487f 613e 2b97 ec3d d5bb 563d 5a96 44be
00000360: ab93 4e3e 0ecc 7e3e cac1 843e 680b ecbe
00000370: aa7e 76be e187 97be 68bd 73be 767c 43be
00000380: f7b0 dd3e ace7 6dbe 3289 34be 59de 4bbe
00000390: c343 a6bd 6abd 1b3e 748a c2be 673d 9c3e
000003a0: 5df4 2fbe 0df5 67bd fedb 13bd f124 993d
000003b0: 5218 12bd 8eef bb3d 2dff 93be 5574 ff3e
000003c0: c841 6c3e f801 c5be fe46 58bd ff00 72be
000003d0: fc47 143e 7172 c9be 8abe 07bf 391f 11bf
000003e0: 6f08 6cbb e04d 1d3e 2664 0e3e 0817 a6bd
000003f0: fff3 9b3e a493 97be 1ed1 673e d45d 0ebf
-0.41098398 -0.4139512 0.15983436 0.37834242 -0.041511048 -0.34942004 -0.054465596 -0.014493455
0.4544627 -0.39201567 -0.09162422 0.44378433 -0.047616888 0.51798517 0.048725173 -0.37540293
-0.20854862 -0.06377424 -0.31783623 0.24448529 0.15239325 -0.05456413 0.017105099 0.3194357
0.2465686 -0.13683799 -0.47893506 0.29250735 0.19123235 -0.19172172 0.11819273 -0.060136337
0.37399337 0.014618154 -0.30914536 0.22503684 -0.0424826 0.09390557 0.46257386 0.22737464
0.08511655 -0.33484772 -0.36560932 -0.38326252 -0.014195865 0.14882474 -0.04011771 0.2399167
-0.25022838 -0.28188515 0.300147 -0.089162834 0.2536766 -0.29075795 0.16495037 0.19070052
0.4494545 -0.5549073 -0.17750919 0.16209476 0.100849085 -0.19111443 -0.010281173 -0.033922877
-0.232932 -0.11934322 0.039898075 -0.25291723 -0.21307318 0.2729287 -0.10520436 -0.12455343
-0.15963167 0.08464881 -0.11631547 0.18806522 -0.2962049 -0.27862218 -0.0066809864 0.10431394
0.21937397 0.29353386 -0.14848995 -0.4359829 0.31007737 0.14477962 -0.2294352 0.030396804
-0.30316618 0.32057697 0.04990786 -0.3650901 -0.08729375 -0.3623306 -0.22727507 -0.076431945
0.13219802 0.21474667 0.37495285 -0.148712 -0.017898835 -0.3523336 -0.53600526 -0.19950414
-0.05387161 -0.3590577 0.05773662 0.039903034 -0.46784818 0.22632842 -0.5212045 -0.36879444
-0.122811906 0.19082914 0.14492144 0.20299456 -0.1941881 0.39491376 -0.10070149 -0.24710438
-0.10640334 0.10090764 -0.092369765 0.26751298 0.23745653 0.32617062 0.3467195 0.21996848
0.0035026104 0.09583252 0.12347292 -0.37250093 -0.3268186 0.08385725 0.32504368 -0.5154633
-0.068433456 0.38726288 0.1308491 -0.15988314 -0.13009213 -0.040206697 0.22262609 -0.011112349
-0.1446017 0.21482633 0.0066963835 0.0433721 0.2228946 -0.44980174 -0.221248 0.31934536
-0.41782856 0.62141573 0.06862267 -0.22580665 0.15318634 0.034236535 -0.21616757 0.18655112
0.103791855 -0.20500737 0.08617593 -0.08951809 0.584439 -0.5658522 0.04554445 -0.34256724
0.29004997 -0.40979055 0.11978299 0.2808861 -0.047314532 -0.17434244 -0.26203042 0.0681473
0.2051768 -0.32706732 -0.27359173 0.04011741 -0.1303378 -0.25893807 -0.3797544 0.3801638
0.37369964 0.26250243 -0.06342513 -0.30484104 -0.46926472 0.3756173 0.07646548 -0.10948294
-0.19120711 -0.061754297 -0.22644782 0.35011855 -0.11283206 0.047785435 -0.0729451 0.2565969
-0.08795201 -0.02170314 0.1572413 0.1048139 -0.41752937 0.16056518 -0.2824601 0.33323434
-0.33420023 0.08937733 -0.39829817 0.04551207 0.2202121 0.115522705 0.052425224 -0.1919798
0.20173518 0.24882528 0.259291 -0.46102452 -0.24071756 -0.29595855 -0.23802722 -0.19090447
0.43299076 -0.23232907 -0.17630461 -0.19909038 -0.08118393 0.15208974 -0.37996256 0.30515596
-0.17183061 -0.056630183 -0.036098473 0.07477749 -0.035667725 0.09176551 -0.2890562 0.49893442
0.23071969 -0.38478065 -0.05280208 -0.23633192 0.14480585 -0.39345124 -0.53025115 -0.56688267
-0.003601577 0.15361738 0.13905391 -0.081098616 0.30459592 -0.29604828 0.22638366 -0.5561192

net.0.bias f4 [256]
00000000: 78aa 91be ca49 ad3c 3e41 99be fa3b d8be
00000010: 9005 d73e fe53 d7be 0682 c5be 435c c3be
00000020: 1072 7d3d 11fd ee3a 695a 1b3e b1da 65be
00000030: 8d39 09be 6b4d 0fbe 719c debe 02f7 fc3d
00000040: 35d7 b73e 60fa 2b3d 96ff bebd 7036 ad3e
00000050: 0091 a3be 1f23 8abe f061 443d 21d6 9a3e
00000060: 4f8f bd3e 2020 2f3e a4fc 613e 5af5 643e
00000070: 46cb 343d 69c7 a5bc 2745 9f3e 114a 463e
00000080: 986a f93d 8939 a7be 3923 63be b160 a9bd
00000090: 0f4a c9be 48f7 d43e c048 343e 83ae 99be
000000a0: 05a6 5abe 57df 06be 3c2a 473e a148 9abe
000000b0: 1ac2 12be 35ee 773e b7da e23d 49f2 ffbe
000000c0: 6ffb 043e 14f6 783e 62f2 aebe edc3 113e
000000d0: ead1 f2bd dbeb 21be 698b 8ebe 0864 603e
000000e0: 298e a4be 04a6 033e 9458 603d d166 07be
000000f0: 0534 a7bd f6bd 6d3e 6038 9cbd 3766 b93c
00000100: 3083 923e bd37 003e 0fad 0ebe 8a69 703e
00000110: ffa2 5c3e 4fb9 8b3e f958 253e 4ec1 be3d
00000120: 8fd9 893e ba5f c9be 3a47 b9be a2eb 8cbc
00000130: 8db7 7b3e f735 ccbe 0460 653e aa79 5abd
00000140: c12e 09be cec6 99bd c8fa d2bd 4d03 b63b
00000150: c435 70be 1718 933d a9ff 7d3e 07f9 b23e
00000160: 36d1 403c 9271 8b3e 8a77 31bd a2ed 9a3d
00000170: 1db9 5a3e 0503 783d f50a 2a3e 9fbf 973e
00000180: 4b1e dfbe 336c 97be fb74 a2be d424 793d
00000190: c9f3 13be a3ec 5ebe 8c6b 3f3e 1d2a 5d3e
000001a0: aeb3 5e3d 512e 82be f045 8f39 356e 2b3e
000001b0: d6a4 a2be 004d 143e b683 173e 6329 a53e
000001c0: c293 a63e 0942 6bbd 7f76 4fbe f27b b4be
000001d0: 5815 19be 9261 b9be 41f2 bf3e f1f6 c4be
000001e0: 89d2 a2be c800 e7bd 7f42 4abb e44e 183e
000001f0: 8a06 b13e aff0 6fbe 5fcb a13e e25b febe
00000200: 6f15 a73e 807b 4cbe 3349 7ebe f211 683c
00000210: ca2f 9b3e 95e7 a3be 671d a6bd d4db 383e
00000220: 5d50 2f3d a102 893d 3e83 a6bd da29 673e
00000230: 2e7a c63e 3708 b43e 945b 183e 277e 61bc
00000240: 6c10 bc3e d23e ae3e fbb4 aebe 2c27 10be
00000250: af81 883e 9651 833e eb45 04be 7fc8 9fbe
00000260: 37ee 1dbe 2f45 923e 3bed 623e a635 83be
00000270: 8c92 61be 5ab7 093d 5829 8cbe 74af 043e
00000280: b505 b7be deed 3fbe 7f8d 07be 20b3 843e
00000290: 210e 713b d8b2 e0be df5d bb3e 29ca b43e
000002a0: 0632 c73e d5d1 adbe 18e5 c8be bd39 b8be
000002b0: 7acd 7ebe 2f4c 9fbe c5f8 d8bd 06f9 c43e
000002c0: b5fb 403e 5d4b cebd dc1c a33e 80b3 06bd
000002d0: 8173 a8be d916 53be 7493 cebe 47cd 2fbe
000002e0: 6f1e 00bf e9b3 423e 36a1 aa3e dfca dcbd
000002f0: e4ab 9abd 2527 a6be f3dd ba3e 22b2 663d
00000300: 9309 e43c e9f9 c63e 3e2e 53be a481 83be
00000310: f247 1ebe 30da 74bc 9323 c7bd 54d9 a0be
00000320: f75a 3f3d 28c0 203e 05bb b33e dd5c c43b
00000330: 924a 743e 0aa5 8abd 7d7a 593e af34 69bb
00000340: e648 b83e b7aa 5f3e 1f60 763d 05ed f73d
00000350: ba37 b13e a12b f0be 1b9b 743c fa87 1abe
00000360: 6f44 48be 334e f6bc f344 dfbe 760a b53e
00000370: 1218 913d 5482 bebe 0d34 f63d aed3 85be
00000380: 0856 9bbe 9e3f 3e3e f724 83bd b1ab 5e3e
00000390: 3a52 5d3e aa30 54be e606 9fbd 64d3 873d
000003a0: dc37 bebd 39b3 bebd ab9c f0be 2d61 3fbd
000003b0: 8d2f a83e e962 84be 4ad5 d13e a1ed 5a3e
000003c0: eba6 8cbd 3523 573e e58b b43d 0995 0bbe
000003d0: e067 3b3e 9714 37be 767a 38be 66f6 893e
000003e0: cd48 0fbe 7723 a73e c7b8 cfbe 1e13 65bd
000003f0: bbd2 28bd a61f 03bd 68a3 d6bd 6104 bebd
-0.2845037 0.02115335 -0.29932588 -0.42233258 0.4199643 -0.42056268 -0.38575763 -0.38156328
0.061876357 0.0018233379 0.15171207 -0.22446705 -0.1340086 -0.13994376 -0.4347873 0.123518005
0.35906377 0.041986823 -0.09326093 0.33830595 -0.31946564 -0.2697992 0.047944963 0.30241492
0.37023398 0.17102098 0.22069031 0.22359219 0.04413917 -0.020236688 0.31107447 0.19364192
0.12178534 -0.32661083 -0.22181405 -0.082703955 -0.39314315 0.4159491 0.17605877 -0.30015954
-0.21352394 -0.13171135 0.19449705 -0.30133536 -0.14331856 0.24211963 0.11076873 -0.49989536
0.1298654 0.24312621 -0.34169298 0.14234896 -0.11856444 -0.15812628 -0.27840737 0.21913159
-0.3213971 0.12856299 0.054771975 -0.13222815 -0.08164219 0.23216996 -0.0762794 0.022631748
0.28615713 0.12521262 -0.13933204 0.2347776 0.21546553 0.27289817 0.16147222 0.09314214
0.26923797 -0.39330846 -0.36187154 -0.017202202 0.24581738 -0.39884922 0.22399908 -0.053338684
-0.13396741 -0.07508622 -0.10301739 0.0055545927 -0.2345801 0.07182329 0.24804558 0.34955618
0.01176863 0.27235085 -0.043326892 0.07564856 0.21359678 0.060549755 0.16605742 0.29638383
-0.435778 -0.29574737 -0.31729874 0.060826138 -0.14448465 -0.21769957 0.1869337 0.21598096
0.054370575 -0.25425962 0.00027327193 0.1674126 -0.31766385 0.14482498 0.14796337 0.32258138
0.32534605 -0.057436023 -0.20260046 -0.35250813 -0.14949548 -0.36207253 0.37489513 -0.3846965
-0.3180125 -0.11279446 -0.0030862389 0.14873844 0.345753 -0.23431657 0.31600472 -0.49679476
0.3263354 -0.19968987 -0.24832611 0.014164435 0.30309898 -0.3201262 -0.08111077 0.18052608
0.04280125 0.066899545 -0.08130501 0.22574559 0.3876509 0.35162517 0.14878684 -0.013762987
0.3673128 0.34032303 -0.34122452 -0.14077443 0.2666144 0.25648183 -0.12917297 -0.31207654
-0.15422903 0.28568408 0.22160809 -0.25626868 -0.2202856 0.033622123 -0.27375293 0.12957555
-0.35746542 -0.18743083 -0.1323757 0.25917912 0.0036782103 -0.43886447 0.36595055 0.35310486
0.38905352 -0.33949152 -0.39237285 -0.3598155 -0.2488307 -0.3111281 -0.10594324 0.3847124
0.18846019 -0.10072968 0.31857955 -0.03288603 -0.32900622 -0.20614184 -0.40346873 -0.17168151
-0.5004644 0.19013943 0.3332612 -0.10780882 -0.07552317 -0.3245174 0.3649746 0.056322224
0.027836597 0.3886254 -0.20623109 -0.25684845 -0.15457132 -0.014944598 -0.09723582 -0.31415808
0.04671761 0.15698302 0.35103622 0.0059925155 0.23856571 -0.0676976 0.21238132 -0.003558438
0.35993117 0.21842466 0.060150262 0.12105755 0.34612828 -0.46908286 0.014929558 -0.15090933
-0.19557355 -0.030066585 -0.43607292 0.35359544 0.07084669 -0.37208807 0.12021647 -0.2613806
-0.30339074 0.18578956 -0.06403535 0.21745183 0.21613398 -0.20721689 -0.07764988 0.066321164
-0.09287998 -0.09311528 -0.46994528 -0.046723533 0.32848778 -0.25856712 0.4098304 0.2137971
-0.068677746 0.21009524 0.08815745 -0.13631071 0.18301344 -0.17878948 -0.18015465 0.269458
-0.13992615 0.32644245 -0.4057066 -0.055926435 -0.041216593 -0.032012604 -0.10480386 -0.09278179

net.2.weight f4 [256, 256]
00000000: b6ec 5ebd 071d fcb8 b25d 71bd 7c76 ffbc
00000010: 70a9 023d 03ed 7abc 72f8 093c 59e8 f2bb
00000020: 418e 65ba 39d9 8e3c 16c5 30bd 780c c53c
00000030: 7c00 70bb 3c73 57bd 20e0 523d 2846 063d
00000040: d666 453d 18dd 08bd 704a c43c a3ae 24bd
00000050: 04cb 22bd 30b5 d0bc 5faa c63c 710c c4bc
00000060: d670 abbc 3eb7 4cbc 9d2e 4dbd 452c 0e3d
00000070: 450f 44bd e374 173d 560b 06bd 3a38 29bc
00000080: 895b 37bd 40bb 8aba ec4e 243d 516b 64bd
00000090: bdab 51bd cb14 433d 5102 4dbd 54f2 923a
000000a0: f00a c3bc d53d d53c 5644 743b de3e f93a
000000b0: 71fa 26bd 09ea 3c3d a53e 4c3d 10c8 703c
000000c0: a862 f2bc 3863 a33c cc08 603d 264d 083d
000000d0: 29a8 e7bc 12bd 6d3d 4269 493d ee1a 823c
000000e0: 17f8 a53b 6fde 1a3c 802b 1b3b d8b4 ae3c
000000f0: acaa 723d e73b 403a aece 8a3c 9d77 483d
00000100: ccbe 093d 1b84 463c 30d1 bdbc 7f59 39bd
00000110: a670 0cbd 2be2 03bd 97ce 6d3c 1809 79bc
00000120: 7582 5ebd a682 3d3d 00a4 8abb e43a 373d
00000130: ae30 61bd 8dd0 023a 5456 943c b011 313d
00000140: 054f 9a3c 63b1 793c 32bc 91bc 2ac3 d13c
00000150: 1978 3cbc 8b1b a2bc 253f 343d 650e de3c
00000160: f17d 40bc 7136 42bd 6ee9 2cbd f450 343d
00000170: 232a f4bc 0a75 5dbd 60ef 86bd 73f9 c1bc
00000180: 4e20 70bc 2c23 50bd da8e 2ebd 8b77 40bd
00000190: 0533 8dbd 8a1f 633d 91e0 633d 53cd 37bb
000001a0: 5b6a 473d 08af c63c c44c 79bc b240 073d
000001b0: bc9f bdbc e7f4 82bd 1659 bc3c 02f3 1c3d
000001c0: f60f 36bc 88cb 67bd fb31 833c cc52 643b
000001d0: b123 003d 00c5 663b 153e 383d 842f 003d
000001e0: 488d 56bd 50df 34bc 899a 353d a6f8 2c3d
000001f0: 5c29 fd3c 2868 61bc 5287 a6bc 6c95 e3bc
00000200: 0458 64bb 8655 44bc b0a1 47bd 6034 aabb
00000210: 97c0 d63b 44b9 2b3d 6012 05bd ea3d f13c
00000220: b68f 3d3d 2071 16bc 064e 51bd d8d5 40bd
00000230: 6aa0 d5bc 6dce 7bbd ffb6 c3bb 0206 243d
00000240: a4c8 03bd 918d 98bc 9487 683d 28f3 c23c
00000250: bac0 3f3d 6079 fd3c ead9 c9bb 2e9f 2c3d
00000260: 12f2 91bc c7b9 40bd 904a 85bd b4b5 48bd
00000270: 6801 2abd c89b 483d 32fb 21bd 7865 87bd
00000280: 88a8 da3c 7c9e a1bc b359 b2bc 3c9d 34bd
00000290: efec 873c eaa1 8a3c aed5 38bd 4244 5c3d
000002a0: 39df 38bd f75c 1b3d 7aa0 70bd 301c 333d
000002b0: e566 47bd 24fe 823c 02f6 20bd 01d2 49bd
000002c0: 5c10 1e3d 4e28 083d ae2e 5d3d 7cc8 0a3d
000002d0: e4b4 c3bc a0df a0bc 483a bbbc 5f46 78bd
000002e0: f817 14bc 1c03 ed3c 8796 573d 38e4 62bd
000002f0: ed1b ae3c 9ebb 89bd 50c9 5b3c 20bc 523b
00000300: 60b5 f73c bf63 ebbb 1c21 313d db70 08bd
00000310: 3672 3b3c 6521 d33c d8d2 db3c 6474 c53c
00000320: e711 a8bc f6ba 513d 7fad 5dbd 91c8 39bc
00000330: 11d5 a53c 3560 953c 1bc0 dbbc c0f1 48bc
00000340: 5c90 493d 0319 a63b 4716 6bba ec48 143d
00000350: 48ee 3dbd 7c34 c3bc 1c5e 97bc c8de 00bc
00000360: ec36 ddbc a2eb 22bd a7e0 293d b143 37bd
00000370: 1db6 4a3d 233f 8dbc 4d26 7d3c b6ac 293d
00000380: 8868 fe3c 8b7b 323d e3d9 89bd 56b1 73bd
00000390: 904b 8cbd 1ba7 30bd 0139 db3b b4b1 7c3b
000003a0: 9bb4 b3bc fe9c 26bd ad2a f9bc 0196 783d
000003b0: abf2 6cbd 3c24 3a3d ad5a 60bd 4792 38bd
000003c0: 5aa9 5abd bc1c 633d c363 68bd 64ae 32bd
000003d0: eed0 36bd 5c41 043d 378e 25bd ca70 4cbd
000003e0: e2b8 e03c 3486 993c 9cc6 a6bc 9ae9 1a3b
000003f0: 53df 19bc 04be b13c 667b 62bd 747e 72bd
-0.054424964 -0.00012021703 -0.058927245 -0.031184427 0.03189987 -0.015315297 0.00842105 -0.007412952
-0.0008756854 0.017437564 -0.043156706 0.024053797 -0.0036621382 -0.05260013 0.051483274 0.03278175
0.048193775 -0.033413976 0.023961276 -0.04020561 -0.039744392 -0.025477022 0.024251161 -0.023931714
-0.020927828 -0.01249486 -0.050093282 0.034710187 -0.047866125 0.036976706 -0.032725655 -0.010328347
-0.04476503 -0.0010584369 0.04011433 -0.055766407 -0.051189173 0.04762725 -0.050051037 0.0011211135
-0.023808926 0.02603046 0.0037272177 0.0019015928 -0.040766183 0.04612163 0.04986443 0.014696136
-0.029588059 0.019944772 0.05469589 0.0332767 -0.028278427 0.05804164 0.049172647 0.015881982
0.005064975 0.009452446 0.002367705 0.021326467 0.059244797 0.0007333145 0.016944256 0.048942197
0.033629224 0.012116457 -0.023171037 -0.045251366 -0.034287117 -0.032198112 0.014514587 -0.015199922
-0.054323632 0.046267174 -0.004230976 0.044733897 -0.054978065 0.0004990183 0.01810757 0.04322976
0.018836508 0.015240046 -0.017789934 0.025605757 -0.011503243 -0.019788524 0.04400553 0.027106473
-0.011748777 -0.0474152 -0.042214803 0.044022515 -0.029805249 -0.054066695 -0.06588626 -0.023678517
-0.01465614 -0.050814793 -0.042616703 -0.046989005 -0.06894497 0.05545 0.055634085 -0.0028045967
0.048685413 0.024253383 -0.015216056 0.033020683 -0.023147456 -0.06394368 0.022991698 0.038317688
-0.011112204 -0.056590587 0.016015043 0.003483939 0.031284038 0.0035212636 0.04498108 0.031295314
-0.05238083 -0.01103957 0.04433683 0.042229317 0.03090351 -0.013757743 -0.020328198 -0.02778121
-0.00348425 -0.011983281 -0.04873818 -0.005194232 0.00655372 0.04192473 -0.032488227 0.029448468
0.04627963 -0.009182245 -0.0510998 -0.047078937 -0.026077468 -0.06147616 -0.0059727426 0.040044792
-0.032173768 -0.018622192 0.056769922 0.023797587 0.046814658 0.030941665 -0.0061600106 0.042143993
-0.017815623 -0.04705217 -0.06508362 -0.04900141 -0.041505247 0.04897669 -0.0395462 -0.066111505
0.02669169 -0.019728892 -0.021771288 -0.044095263 0.01659247 0.01692291 -0.045125656 0.053776033
-0.045134757 0.037930455 -0.058746792 0.043728054 -0.048682112 0.015990324 -0.03929711 -0.04927254
0.03858982 0.033241563 0.053999595 0.033882603 -0.023889966 -0.019637883 -0.02285494 -0.060613986
-0.009038918 0.028932147 0.05263379 -0.055393428 0.02125355 -0.06725238 0.013414696 0.0032155588
0.030237854 -0.0071835215 0.043244466 -0.033310752 0.011440804 0.02577276 0.026833937 0.024103351
-0.020516349 0.05120369 -0.054120537 -0.011339323 0.0202432 0.018234352 -0.026825001 -0.012264669
0.049209937 0.0050688996 -0.0008967858 0.036202356 -0.04636982 -0.023828737 -0.018477492 -0.007865615
-0.027003728 -0.0397755 0.04147401 -0.04474229 0.049490083 -0.01724202 0.015451026 0.041424476
0.031055704 0.04357485 -0.06731012 -0.059495293 -0.0685035 -0.043128114 0.006690145 0.0038558068
-0.021936705 -0.040677063 -0.030415857 0.06068993 -0.057848614 0.045444712 -0.054773975 -0.045061376
-0.053384162 0.055447325 -0.056735765 -0.043623343 -0.044632845 0.032288894 -0.04041883 -0.04991225
0.027431909 0.01874075 -0.020358376 0.0023637773 -0.009391624 0.021697052 -0.055293463 -0.059202626

net.2.bias f4 [256]
00000000: 51bb 3a3c 0445 3e3c 2f24 bdbd 50bc 1b3d
00000010: 2db9 8b3c a060 2dbc e46b 013d d4c3 91bd
00000020: 11dc c8bc ee8b 573e 9cee 093d 4e91 75bd
00000030: 8dfb 893d 43a5 0bbd b88b 293d 6a17 83bd
00000040: 6996 043d 4b39 473d 5f01 243e 1ad0 51bc
00000050: 8dc5 213c 5c78 003d 6179 803d 5598 1fbd
00000060: b269 40bd 1ec9 75bd 9653 a2bc d605 823c
00000070: 8479 25be 7c93 7dbd 82e1 023d 2ec9 f83d
00000080: f84b 5bbc b820 4b3e f23a cf3c 81ab 263d
00000090: 7ddd c93d 75c6 16be ba7e 8e3d 9a9a 23bd
000000a0: 9fe0 4cbc d1a6 e03c 72fa 7abd 9742 843d
000000b0: 64ba d0bc 9ac5 c53d ea6f bb3c b1fc 1b3d
000000c0: 47c2 ef3d 89ca c73c 7b06 0d3d a856 323e
000000d0: 67bd a83d a861 77bd 8ac3 403d c4cd 99b9
000000e0: 7536 04bd 9eef 28bc 40b1 7f3d 0cb2 d93c
000000f0: bfa3 4a3d a71c 46bd c9ed 8a3c d6f6 4f3d
00000100: fde2 d53c 5baf a03d 787e 683c 3faa 79bd
00000110: da74 a7bd 6004 e93c 1f85 ce3c 4c55 0cbd
00000120: 6e86 0f3d f110 d7bc 4334 58bd 8a0a bd3c
00000130: bcb1 9bbd 28c4 a1bd 30d7 62bd d530 93bd
00000140: 9845 60bb 507c 2e3e ae56 c53d b959 03bc
00000150: 895d 41bd 6820 69bc 7222 46bd 868f 353d
00000160: 7b16 c33c 8405 8bbc 9643 1b3d df30 7b3e
00000170: 4177 f13c 5aef 1bbd f9d3 83bd de8e 14bc
00000180: 3e04 e23b 869f 583d e8f9 58bd 671e 543d
00000190: a2a4 9fbc 4045 833c b544 ddbc 3336 7c3c
000001a0: 8993 ce3c 3928 2b3e 2a4f d6bd 5680 5dbd
000001b0: b726 97bc 7cab 1bbd 7de8 1c3d ecd5 5bbd
000001c0: 34ad 97bd a5d0 af3b 5f1d cdbb aef6 9e3c
000001d0: 05e8 ec3b 3b6b e2bc 8063 4e3e 4073 403b
000001e0: a23a 5cbd c4aa c43a c3d1 863d ebc9 263d
000001f0: 8039 4c3d feee df3d 9ca3 8a3c 875d e63d
00000200: f00e bd3c d09a a03c ba6a 003d 2682 013d
00000210: da2c 053d ebe1 68bd 8f13 5dbd 282e 333e
00000220: 9fbc b23d bec5 8cbd 5800 57bc fb58 85bd
00000230: abe1 f83c 77a0 5ebd b5b9 313e f64b 78bd
00000240: c98e c7bc 5d98 1cbd f45d 4dbd 99db 87bd
00000250: 831a 29bd 62f3 93bd eb49 383d b34f f7bc
00000260: bc3c 06bd 8460 1cbd 9d68 b73d c05c 2f3e
00000270: 2a4c 97bd 5885 df3c 5db0 863b 94ed 9dbc
00000280: 72b3 4d3d 0313 643e b977 4c3e d0d1 8a3d
00000290: 121a 7a3d f6a9 71bd 65d1 a9b9 696c c73c
000002a0: 2aa7 55bd af97 c4bd c765 ca3c d024 863b
000002b0: 8be8 193e 59be 293d 0851 723c 0c9d 2b3d
000002c0: 17f5 8bbd bd90 9ebc b0bc 573c ff85 083d
000002d0: 7878 69bd dc69 4e3c 8c9f 7fbd f18b b63c
000002e0: b58a 14bd 048a 883c 8f7c 1d3e d37e d63c
000002f0: 9a17 24bd 5d1b 9a3c 9484 f83b d403 1cbd
00000300: cd63 50bd befe 16bd 621a 013d 6fea c83d
00000310: bee5 633e 9ac9 26bd 3314 64bc 9884 78bc
00000320: 7086 6f3e 435b 2e3e 51e6 033c c8b8 e53c
00000330: a405 853b b47f b9bc 54bb 06b9 d425 553d
00000340: b80b 87bd 005f 183e 0dea 2cbd 0da2 02be
00000350: 725a b73d 44c4 abbc 810b 99bd a11d 73bd
00000360: 207a fabc d525 04bd 816b e6bc 3fae 76bd
00000370: 765f 3d3e 27de 61bb 8886 0e3e 76a8 e23d
00000380: 78f4 55bd 517a 43bd cd89 b93d 7a9e 2d3c
00000390: c66b 54bc 9c43 9cbc 7cc6 073d 6c0e 54bb
000003a0: 18eb afbd d2f2 a23c 41b7 c1bc 6932 403e
000003b0: 940c dc3c dd75 dd3d 9e71 3e3d 18d7 da3b
000003c0: 5b93 da3d 8e4e 0f3d c727 ac3d 2bff 383d
000003d0: 0b8f 87bd 7716 98bc 94de dd3d d556 583e
000003e0: 8d76 bf3c ba44 f8bc 95a3 393c c62e b2bc
000003f0: 3571 04bd 8ea0 e23c f648 a3bc 9c57 ee3d
0.011397199 0.011613134 -0.09235417 0.038021386 0.017056072 -0.010582119 0.031597033 -0.071174294
-0.024518998 0.21049473 0.03367482 -0.059953026 0.06737433 -0.034093153 0.04139301 -0.0640095
0.032370005 0.048638623 0.16016148 -0.012805963 0.00987376 0.031364784 0.06273151 -0.038963635
-0.0469758 -0.060006253 -0.019815248 0.015871923 -0.16159636 -0.06190823 0.031953342 0.12147747
-0.013384812 0.198367 0.025296662 0.040690903 0.09856699 -0.14724143 0.06957765 -0.03994236
-0.012504726 0.027423294 -0.061274 0.064580135 -0.025479503 0.0965683 0.022880513 0.038082782
0.11706977 0.024388568 0.03443001 0.17415869 0.08239251 -0.060395867 0.04706148 -0.0002933574
-0.032278497 -0.010311035 0.0624249 0.026574157 0.049472567 -0.04836717 0.016959088 0.05077251
0.026109213 0.078459464 0.014190309 -0.060953375 -0.081765845 0.028444469 0.025209961 -0.034261033
0.03504031 -0.026253195 -0.052784216 0.023076314 -0.076022595 -0.07898742 -0.055381 -0.07187048
-0.0034221169 0.17039609 0.096356735 -0.008016997 -0.047208343 -0.014228918 -0.048372693 0.044326328
0.02381443 -0.016970403 0.03790625 0.24530362 0.02947581 -0.03807006 -0.06436915 -0.009067265
0.0068974784 0.05288651 -0.052972704 0.051786806 -0.019487683 0.016024232 -0.027010301 0.0153937815
0.025216835 0.16714562 -0.10464318 -0.05407747 -0.018451078 -0.038005337 0.038307656 -0.05367081
-0.07406083 0.0053654485 -0.006259605 0.019404735 0.0072298073 -0.027639022 0.20155144 0.002936557
-0.053766854 0.0015004505 0.065829776 0.040719908 0.049859524 0.10934256 0.016923718 0.11248308
0.023078412 0.01960507 0.031351782 0.03161826 0.032513477 -0.056856077 -0.05397373 0.17498076
0.08727383 -0.06873654 -0.013122641 -0.06511112 0.030381044 -0.05435225 0.17355998 -0.060619317
-0.024360077 -0.038231242 -0.05013843 -0.06633682 -0.04128505 -0.07224156 0.04499237 -0.03018937
-0.032772765 -0.038177982 0.089555 0.17125225 -0.07387574 0.027285263 0.0041103796 -0.019278325
0.05021996 0.22272877 0.19967546 0.067783 0.06106002 -0.058999978 -0.00032390203 0.024343686
-0.052161373 -0.09599244 0.024706734 0.004093744 0.15030114 0.041441295 0.014789827 0.04189782
-0.068338566 -0.019356126 0.013167545 0.033330914 -0.056999654 0.012598481 -0.062408015 0.022283526
-0.036265094 0.016667373 0.15379547 0.026183521 -0.04006157 0.018811876 0.007584164 -0.03808959
-0.050876427 -0.036864035 0.0315193 0.0981034 0.22255608 -0.040719606 -0.0139208315 -0.015168332
0.23391128 0.17027001 0.008050517 0.028042212 0.0040595103 -0.022643901 -0.00012849021 0.05203803
-0.06594032 0.1487999 -0.042215396 -0.1275713 0.08952798 -0.02096761 -0.07472897 -0.05935443
-0.030575812 -0.032262642 -0.028127434 -0.060224768 0.18493447 -0.0034464689 0.13918507 0.110672876
-0.052235097 -0.047724072 0.090594865 0.010596866 -0.012965148 -0.019075207 0.033148274 -0.003235723
-0.085897624 0.019891176 -0.023646953 0.1876923 0.026861466 0.10813496 0.046495073 0.006678473
0.10672637 0.034987025 0.084060244 0.045165222 -0.0661908 -0.0185654 0.10833469 0.21126874
0.02337196 -0.030306209 0.011330505 -0.021750819 -0.032334525 0.027664449 -0.019932251 0.11637804

actor.weight f4 [1, 256]
00000000: f6cc 333c 1443 c33d 9124 703d 28d5 32bd
00000010: 3198 123f 1793 533c a7bf 3e3d fd94 6fbc
00000020: 4959 8a3b 101b d43d d462 bbbc bf4b 5cbc
00000030: 7e7c 153f b957 8abb 45e1 ba3e 1c7c c63c
00000040: cffe 013f ff0a d03c eb46 d8bd 2b37 4d3d
00000050: bb41 9a3d ff7a a1be 664e 953e e28d 0fbd
00000060: 244a 02bf ba57 6fbb 8e7b 563d eb18 a1bc
00000070: dc77 afbe 1f91 9cbe 8531 a03c ddc5 993e
00000080: b006 373d de1c c3bc 196d acbe 8cb7 94be
00000090: 8b79 073f 7371 693e 5bf1 4bbe 9852 033c
000000a0: 7004 6d3d 0ed9 b6be c281 5a3d 87e9 8a3b
000000b0: 0684 3abd 3fe6 393f 7c95 f8bb 5b39 80be
000000c0: 0eb6 1f3e c3a4 b03d a905 f7bc 3f25 423e
000000d0: 5aef ea3e 873f a1be 4977 d73e a89d 27bd
000000e0: 1ece e9be 5973 9ebc 9036 09bc 84b2 f5bc
000000f0: be76 003e 9142 c53c 1736 863e 5aac 65be
00000100: 4e4e b2bf 28b4 cebb 2f7a 92be 4c7d 53bd
00000110: a574 073c 195d d8be 0c94 033e f1b1 1f3e
00000120: e3c6 513d 4d4a e3bb ddf4 ce3c 0542 bf3c
00000130: 762c e83b 30a4 5d3c 8692 9bbd bf64 81be
00000140: 13ad 183f 47e0 f7bd c1ec b2be a5ba cfbe
00000150: 3c8e 883b 68a1 853c 24b7 37bd 9c68 283d
00000160: 91f1 78be becd bb3e cc5d e93c eeed 4d3c
00000170: c44e 3b3d eccf 8bbc d740 56bd 8912 103f
00000180: 0f4f 363d 90dc 513e 933c 5dbe 5b0e 2dbd
00000190: 9f98 813d 0545 e53b c287 0abc 2835 bc3b
000001a0: 7dbd 923b 4ffb 2bbe ba90 553d e3ef 1a3e
000001b0: 50ec 753d 6055 e53b eded e93c 7a00 213c
000001c0: da5b 9b3b 977a 9c3b 1d02 ecba f961 0a3f
000001d0: 0603 da3a c6c1 74bb 357a 993d ea15 58ba
000001e0: 32d1 373d 6544 1d3d b4b0 523d 048f 39be
000001f0: ffcd 483c fafd 3cbb 3b14 593d 7e93 c5bd
00000200: e3f5 033d e0da 17bc e89e 03bc 53b7 09bd
00000210: 5897 403d c037 a7be 6413 06bc b55d 0a3e
00000220: d046 0dbe 4078 06bd 9041 29bd f235 3d3d
00000230: 4efd 9cba abbb c9be 2eca 473e 00bf a9bc
00000240: 9c43 ee3b 6a91 86bc 0079 8839 bd16 753d
00000250: 749d 03bd 4472 72be bcbc bc3c f8ce 873d
00000260: a86c 9cbb 7103 29bd 6463 003f 46b7 2dbc
00000270: a46f 503c 4d8b a33d 24ea 1f3f a059 223d
00000280: 4d8d fd3c 1c5d 573d 29ee 8fbd 9075 933e
00000290: 0334 553e c436 d93c 9abd 9abe 10cd 043f
000002a0: 31ca 253d cef2 eb3e 5169 b33c 5ba2 ba3e
000002b0: 9f0e 573d 8f74 083f ce75 4f3d 947a 043a
000002c0: 9fa4 3fbd 8e63 b6be 106d cdbe bdf0 213e
000002d0: 8e12 443d a2ef 313d 55ac 66be 1e25 a23d
000002e0: f41b f93d 8bc0 4c3c 825d 233e 9fb1 ef3e
000002f0: 38a5 143c e4ff 093f 99c0 21bd 853a 98be
00000300: 89b1 0cbd 9483 b5be ad77 a6bc 7fc8 c3bc
00000310: c6c9 1b3e 7073 dabc d6d2 a53c 889d 103c
00000320: 5d1e d73d d5ec 11be 2262 84bd 6283 183c
00000330: 32da 32be 412e 48bb 00c3 bfbd 30c8 6ebe
00000340: 2b6b 38bd 56a3 a13c 36b3 04bf 2f1a d33d
00000350: 106d b93d a8f8 883e 659f 94be ecba 293c
00000360: 98e2 b93b bb4e 2c3d 5c3c 613c f4b8 60bc
00000370: a5db 843c efd8 273e 6f11 1f3e 31b5 88bc
00000380: 584d 32bd 30ae 45bc 7119 363e 7a55 1fbd
00000390: f1bc 963c 9631 b5be e6c5 f1bc f6e5 3fbd
000003a0: e03e 92bd 5d6e 073f 2d57 463d d617 593e
000003b0: 5a3d 6bbd a2f7 063f 1920 3a3d 4ab3 0c3f
000003c0: 7f10 d93e 3239 d3be 2543 563e 7cd6 103d
000003d0: 4de9 5a3d bd69 47bd 4cba 8abc 7971 efbd
000003e0: 0d53 39bd 324e 97be 1a3c 58bd 8122 43be
000003f0: ce47 ddbb 5761 a8bc 09d0 7b3e 85a4 cc3d
0.010974159 0.095342785 0.058628622 -0.043660313 0.57263476 0.012913487 0.046569493 -0.014622924
0.0042220694 0.10356724 -0.022874273 -0.013445794 0.58393085 -0.004221883 0.36499992 0.024229102
0.5077943 0.025395868 -0.105604015 0.05010144 0.07532068 -0.3153915 0.29161376 -0.03504742
-0.5089438 -0.0036520795 0.052363925 -0.019665202 -0.34271133 -0.3057947 0.019554863 0.3003377
0.044684112 -0.023817476 -0.33676985 -0.29046285 0.52919835 0.22797184 -0.19916289 0.008015297
0.05786556 -0.35712475 0.053346403 0.0042392644 -0.045536064 0.7261695 -0.0075861793 -0.2504376
0.15596792 0.08625176 -0.030154066 0.18959521 0.45885736 -0.3149378 0.42083195 -0.040921837
-0.45665067 -0.019342111 -0.008374825 -0.02999235 0.12545297 0.024079593 0.26213142 -0.22429028
-1.3930147 -0.0063080974 -0.28608844 -0.051633164 0.008267556 -0.42258528 0.12849444 0.15595223
0.051215064 -0.0069363476 0.025263244 0.02334691 0.0070853783 0.013527915 -0.075963065 -0.25272176
0.5963909 -0.121033244 -0.34946254 -0.40572086 0.0041673463 0.016312316 -0.04485239 0.04111539
-0.243109 0.36680406 0.028487109 0.012568934 0.045729414 -0.017066918 -0.05230793 0.5627828
0.04450899 0.20494294 -0.21605138 -0.04225002 0.06327938 0.006996753 -0.008455219 0.0057436414
0.004478155 -0.16795085 0.052139975 0.15130572 0.06003982 0.006998703 0.028555835 0.009826774
0.004741174 0.004775356 -0.0018006001 0.54055744 0.0016632981 -0.0037346943 0.07494012 -0.00082430115
0.04487724 0.038395304 0.05143805 -0.18120962 0.012256145 -0.0028837905 0.05299781 -0.096472725
0.032216918 -0.009268492 -0.008033492 -0.033622097 0.047019333 -0.3265972 -0.008183334 0.13512309
-0.13796544 -0.032829523 -0.04132229 0.046194024 -0.0011977346 -0.39400992 0.19510719 -0.020720959
0.0072712433 -0.01642676 0.00026030093 0.059836138 -0.03213258 -0.23676401 0.023039214 0.06631273
-0.004773695 -0.041263048 0.5015166 -0.010602778 0.01272193 0.07985554 0.62466645 0.039636254
0.030951167 0.05257903 -0.07027847 0.2880063 0.20820622 0.026515372 -0.3022278 0.518754
0.040476028 0.46083683 0.021900805 0.36451992 0.052504178 0.53302854 0.050649457 0.0005053666
-0.046787854 -0.3562283 -0.4012227 0.1581449 0.047869258 0.043441422 -0.22526677 0.07917236
0.12163535 0.012497078 0.15953639 0.46815202 0.009072594 0.53906083 -0.039490316 -0.29732147
-0.034349 -0.3545195 -0.020320738 -0.023899315 0.15213689 -0.026666373 0.020242136 0.008826621
0.10503838 -0.142505 -0.0646403 0.009308668 -0.17466047 -0.0030545148 -0.09363365 -0.23318553
-0.04502408 0.019731205 -0.51835954 0.103077285 0.09054005 0.2675221 -0.29027858 0.010359507
0.005672764 0.04206727 0.013747301 -0.013715971 0.016218016 0.16391347 0.15533994 -0.016687961
-0.043530792 -0.012065455 0.17783143 -0.038899876 0.018400641 -0.35389394 -0.02951331 -0.046850167
-0.07140899 0.52902776 0.04842298 0.21200499 -0.057431556 0.5272161 0.045440767 0.54961073
0.42395398 -0.41254574 0.20924051 0.0353608 0.05344515 -0.048684824 -0.016934536 -0.11691565
-0.04524522 -0.29551846 -0.052791692 -0.19056131 -0.0067529446 -0.020554228 0.24591078 0.09992317

critic.weight f4 [1, 256]
00000000: a869 01bd 401c 84bd f4a7 8dbe 4f64 313d
00000010: 4828 353c 1f48 413b 772d a8bc b10c 093d
00000020: 427a 3fbc ef21 943d 42af 81bc eeda c5bc
00000030: 0414 173c 0f92 88bc 7c35 c73c 29d5 9abb
00000040: eff8 913b 6d05 20bd 2f0c a13d ef22 0fbb
00000050: 5ec1 8e3d 4ce8 773b 49c6 59bd 52aa 0ebd
00000060: efa0 283c 68c4 2ebc e210 283d 1778 e2bc
00000070: 2d3e adbd deb1 2a3d 9463 7ebc 873d 3cba
00000080: 90c2 2f3c 9431 dd3d 8700 0abc 6fd6 90bb
00000090: 7bd8 cb3b df83 64be c02d a43c 6ae3 7c3d
000000a0: 4e87 4bbd 5d9a 15bc 8069 d93b ee7f 1d3c
000000b0: 6ea7 803c 1e2a e0ba 2a78 683d 1552 79bc
000000c0: f59b 62bc 492d ffbd 6c95 573c d069 133d
000000d0: 90ad 51bb 9214 17bc 079c 993a 0fba 4fbc
000000e0: fa02 bd3b b6d4 1a3c 8f7a 3e3b 2eab abbc
000000f0: 7fc3 83bc b2f9 3c3d 55ac 1d3d bcc3 abba
00000100: 0995 053e 19f7 2d3e 7645 07bc df87 f83b
00000110: a209 bbbc 89c7 073c f400 d23d 134b 9bbc
00000120: 65f3 0e3c b34b c5bc c46a 5d3d 9cac 0d3c
00000130: 819c dfbc c1c0 e3bd f421 ccbc 3c13 603d
00000140: 78a8 eb3b 3084 1c3d c4c0 bf3d c961 75bc
00000150: df86 5c3d 200f 3bbd 3a70 debb d6bd 4e3d
00000160: 7e2b 03bb d910 b1bd 9062 6838 1da3 d13d
00000170: 27c6 2d3d 7233 f9bd a5b5 a2ba 7c84 9c3b
00000180: 9ac1 013c 2a39 193d 64e6 2b3d 0488 463d
00000190: a79a 5dbc eef7 adbc 0c2a ebbc 8fa1 1bbd
000001a0: b499 8b3d 9f68 333d d163 65be 9e66 3cbd
000001b0: 432f 393d 6404 61bd a93f 303d 1e7a bdb8
000001c0: 39dc a2bc f663 1ebd 30ae afbc 1c93 1a3b
000001d0: 925b a63c 075a 18bd ab7b a83d e84f 02bd
000001e0: c2ab ebbc c354 323d 08b1 0b3d fee6 52bc
000001f0: f1b5 8b3c ee63 f9bc 8b6a 6fbc 278d 0d3d
00000200: e354 023c 360c 2b3d 1994 8f3c 13db 343b
00000210: ee14 593d 39ed 8cbc e358 033d 1a03 a33d
00000220: fe4b 20bb f892 18be e4a0 8ebc c83b c4bc
00000230: f08c 00bb af4c 5db8 5703 743d 7392 423d
00000240: 5a3a c3bc 736b c53b 564e 1abd 344d 353d
00000250: b1fe 8dba 2053 353d aada a23a c1fd e0bd
00000260: a3dc 903b 64dc c13b c35e 53bb f9dc bf3d
00000270: 4c18 1d3d 6719 2c3c 7d81 603b 31fc 4a3d
00000280: 74b7 c1bc 2655 4d3d 746a f33d 756d f5b9
00000290: a9fa 8b3c 381f 443d 64f3 b5bb 6f3c cd3b
000002a0: bc61 62be 2bb3 593d a546 09bd 61ca 833d
000002b0: 7808 713d e916 fa3b 8024 493c 2d24 543c
000002c0: ad3d 01bc 0af1 0aba 7519 653c 8844 15bd
000002d0: 084d c53c 1598 c9bb 94cc 47bd 0fa1 25bc
000002e0: 3383 f3bd 4984 403d 0944 b73b cf40 fb3a
000002f0: 482f f23c d652 873b 9c30 86bc 1227 b23a
00000300: 3a8f 88bc a1b2 f1ba 39fe 85bd 3634 323d
00000310: 9446 9c3d 9631 703d ddf4 07bd 1433 21bd
00000320: 7071 b13d c0af a73d 222e 6d3b 0aaa 6fbc
00000330: 122a 943e 75f8 8dbb e6d7 57be 47ce 9ebc
00000340: 1f24 3cbd 932e bb3d aec2 843c 2289 84be
00000350: 77b9 193d ae73 0cbe 9d23 58bd 9ef8 ffba
00000360: 5eb8 993c ff29 223d 2c7a 36bd fe60 5cbd
00000370: 18e7 0c3d 06dc e03c 3db5 853d 0b0a 103d
00000380: e4f4 f6bb aca1 493d c129 f53c 6712 cdbb
00000390: d7e8 14bc 8e07 3cbc 8367 67bb 6d87 9e39
000003a0: 25a3 a4bc 1be5 dc3b 073b 7a3c 9a12 083d
000003b0: 3ab2 a5bc b491 273d c475 63bc dd55 473c
000003c0: c5d2 f73a e4c7 b1bb 0a8e f83c 3039 36bc
000003d0: 1242 4fbd 9d17 64bc 9bf9 463c bdc5 b43d
000003e0: 4542 efbc cb87 bdbd 7cae 0cbd 8640 853b
000003f0: 6058 24bc 5a60 123d bf61 5bbb 3476 9f3d
-0.031594902 -0.06450701 -0.276672 0.043308552 0.011056967 0.002949245 -0.020529492 0.03345937
-0.011686863 0.07233035 -0.01583064 -0.024152245 0.009221081 -0.016671209 0.024317496 -0.0047251177
0.004454724 -0.039067674 0.07863652 -0.002184089 0.069704756 0.0037827669 -0.053167615 -0.0348304
0.010292276 -0.010666944 0.041031726 -0.027645154 -0.08459125 0.041673534 -0.015526671 -0.0007180799
0.01072754 0.10800472 -0.008422977 -0.0044200937 0.006220875 -0.2231593 0.020041347 0.061740316
-0.049689583 -0.009131041 0.006634891 0.00961302 0.015704837 -0.0017102396 0.056755222 -0.015217324
-0.013831128 -0.12459809 0.013158184 0.035989583 -0.003199432 -0.009221213 0.0011719473 -0.012678637
0.005768177 0.009450128 0.002906475 -0.020955648 -0.01608443 0.046136566 0.038494427 -0.0013104598
0.13045134 0.16988792 -0.008256307 0.0075845565 -0.022831742 0.008287319 0.10254088 -0.018956697
0.008725022 -0.024083948 0.054056898 0.00864711 -0.027296307 -0.11120749 -0.024918534 0.054705843
0.007191714 0.038212 0.09362939 -0.014976927 0.05383956 -0.04566872 -0.006788281 0.05047401
-0.0020014937 -0.086457916 5.5404904e-05 0.102361895 0.0424253 -0.121680155 -0.0012413753 0.0047765356
0.007919693 0.03740803 0.041967764 0.04846956 -0.0135256415 -0.021236386 -0.028706573 -0.03799587
0.06816426 0.043800946 -0.22401358 -0.0459963 0.045211088 -0.054935828 0.04302946 -9.0349684e-05
-0.019880401 -0.03866955 -0.021445364 0.002358622 0.020307336 -0.03719523 0.08226713 -0.031814486
-0.028768424 0.043537866 0.034104377 -0.012872456 0.01705453 -0.030443158 -0.014612804 0.03455844
0.007954809 0.041759692 0.017526673 0.0027596399 0.052998476 -0.01720296 0.03206719 0.07959576
-0.0024459357 -0.14899814 -0.017410703 -0.023954287 -0.0019615255 -5.2761923e-05 0.059573498 0.047502946
-0.023831535 0.006024772 -0.037672363 0.04426308 -0.001083335 0.044268727 0.0012424786 -0.109859
0.004420833 0.005916165 -0.0032252527 0.09368319 0.03835325 0.010504103 0.0034256869 0.049556915
-0.023647048 0.050130032 0.11885539 -0.00046811593 0.017087298 0.047881335 -0.005552696 0.0062633078
-0.22107595 0.053149384 -0.033514638 0.06435085 0.058845967 0.0076321256 0.012276769 0.012948078
-0.00788824 -0.00053002 0.01398312 -0.03644231 0.024084583 -0.006152163 -0.048779085 -0.0101092
-0.11890259 0.047001157 0.005592827 0.0019169095 0.029563561 0.004129748 -0.0163806 0.0013591966
-0.016669858 -0.0018440076 -0.0654263 0.043506823 0.07630649 0.05864104 -0.033192504 -0.039355353
0.086642146 0.081878185 0.0036190827 -0.014627943 0.28938347 -0.004332597 -0.21078452 -0.01938547
-0.045932885 0.09139743 0.016206112 -0.25885874 0.03753039 -0.13716003 -0.05276834 -0.001952905
0.018764671 0.03959083 -0.044550106 -0.053803436 0.034400076 0.027448665 0.06528709 0.035165828
-0.0075365175 0.049226448 0.029927136 -0.0062582972 -0.0090887165 -0.011476411 -0.00353095 0.00030237008
-0.020097325 0.0067411787 0.015272862 0.033220865 -0.020226587 0.040910438 -0.013883058 0.0121664675
0.0018907419 -0.00542544 0.030341167 -0.011122033 -0.05060012 -0.0139216455 0.0121444715 0.08826778
-0.029206404 -0.09254416 -0.03434609 0.0040665297 -0.010030836 0.03573642 -0.003347501 0.07786217
