models1/ppo_1300.pth (torch, 275660 bytes, 6 tensors)

net.0.weight f4 [256, 6]
000000 20 8c bb be 0d 49 c6 be e4 b9 16 3e e6 f3 bb 3e
       -0.36630344 -0.38727608 0.14719349 0.36709517
000010 b8 39 52 bd 92 2e c1 be 85 8e 6b bd 32 2d ad bc
       -0.051324576 -0.37730843 -0.057508964 -0.021139715
000020 55 4c e6 3e 69 6e c1 be e2 ab b4 bd 05 45 e2 3e
       0.44980112 -0.3777955 -0.088218465 0.44193283
000030 16 66 2e be 7e b6 c9 3e 25 95 80 3b 2d 25 ed be
       -0.1703113 0.39397043 0.0039240294 -0.46317425
000040 3d c1 f8 bd 76 bf 0d be 67 3b a5 be f8 5d 74 3e
       -0.12146232 -0.13842568 -0.32271883 0.23863971
000050 0c ec 1e 3e 43 91 44 bd 61 bc a5 3b e1 86 a4 3e
       0.15519732 -0.047990095 0.005057857 0.32134154
000060 c5 70 77 3e e1 54 07 be 7e a9 fd be e3 bb 86 3e
       0.24164112 -0.13215972 -0.49543375 0.2631522
000070 a2 23 3b 3e 3e c3 4c be 4f 3a fa 3d 9c c9 78 bd
       0.18275312 -0.19996354 0.12218153 -0.060739145
000080 db 51 bd 3e 90 87 2e 3c 32 63 8e be 13 bf 59 3e
       0.36976513 0.010652438 -0.27810055 0.21264295
000090 b2 fe 84 bc 30 60 df 3d 44 4c e4 3e b8 08 7b 3e
       -0.01623473 0.10907018 0.44589436 0.24515045
0000a0 d0 d1 c2 3d 68 49 a8 be 25 31 bb be fc 3a c4 be
       0.09512675 -0.32868505 -0.36560932 -0.38326252
0000b0 8a 23 6a bb 31 45 23 3e bd 52 2c bd 22 14 81 3e
       -0.003572675 0.15944363 -0.042071093 0.25210673
0000c0 91 38 81 be b9 63 9b be 71 d3 8d 3e 0f cb cb bd
       -0.2523847 -0.3034952 0.2770038 -0.0995084
0000d0 ee 46 7a 3e f8 ec a1 be 64 d6 34 3e 9f e7 4b 3e
       0.2444112 -0.31626105 0.17659909 0.19912575
0000e0 3b c0 e4 3e 51 80 0a bf ec 97 3d be 04 79 29 3e
       0.4467791 -0.54102045 -0.18514985 0.1655007
0000f0 1d d8 f9 3d b0 e7 1c be 9b de 75 bc 0d e7 4a bd
       0.121994235 -0.15322757 -0.015006687 -0.049536753
000100 2a e1 54 be 2b 0b 03 be 2a 6c 23 3d 5e 7e 81 be
       -0.20789018 -0.12797229 0.039898075 -0.25291723
000110 db 2f 5a be 50 bd 8b 3e 62 75 d7 bd de 15 ff bd
       -0.21307318 0.2729287 -0.10520436 -0.12455343
000120 2f 7b 1d be ef 9c b9 3d 49 8e 47 be 4a a9 1b 3e
       -0.15379022 0.09063136 -0.19487871 0.15201297
000130 c2 cf a1 be 51 20 9d be 48 65 af bd f1 2d e6 3c
       -0.3160382 -0.30688718 -0.0856424 0.028098078
000140 cf 33 06 3e f2 b6 53 3e 5b 3f 8d bd c2 16 fd be
       0.13105701 0.20675257 -0.0689685 -0.49431425
000150 b7 2c ac 3e 5c 2f 25 3e 05 39 67 be a0 18 ed 3c
       0.33627865 0.16131347 -0.22580345 0.028942406
000160 10 db a8 be 8a 55 b0 3e c9 43 89 3d 62 e8 b2 be
       -0.3297963 0.3444026 0.06702382 -0.3494292
000170 ba 58 e9 bd 5a 4d d7 be 1d e8 84 be 5d 25 cd bc
       -0.113938764 -0.42051202 -0.25958338 -0.02504223
000180 a9 49 0c 3e e5 95 63 3e 8d d5 c0 3e 2d ae 0f be
       0.13699974 0.22225149 0.37662926 -0.14031287
000190 0d 3e cf bc 15 5a b4 be fc c2 05 bf 8a 88 44 be
       -0.025298143 -0.35224977 -0.5225065 -0.1919271
0001a0 59 3f 73 bd 52 aa bf be 1d c0 65 3d 11 54 f6 3c
       -0.059386585 -0.37434632 0.056091417 0.030069383
0001b0 37 6e e0 be 34 a0 7d 3e 30 83 03 bf e0 cd c3 be
       -0.43834087 0.24768144 -0.5137205 -0.38243008
0001c0 55 ed 1e be 4a 75 5e 3e 28 e1 19 3e 75 90 5b 3e
       -0.15520222 0.2172443 0.15027297 0.21441825
0001d0 e9 c7 42 be 58 01 c7 3e f9 3d ed bd 5e 1a 7a be
       -0.19021572 0.38868213 -0.11584086 -0.24424121
0001e0 c5 b6 61 bd 76 a7 14 3e 05 03 ef bc d9 ce a0 3e
       -0.055105943 0.14517006 -0.029176245 0.31407812
0001f0 6d 81 86 3e 09 3a c1 3e 6d a6 ac 3e 1d 32 55 3e
       0.2627062 0.3773959 0.33720723 0.20819898
000200 68 59 92 bc a4 8d 87 3d 0e b1 05 3e 39 32 c6 be
       -0.017864898 0.06618813 0.13055822 -0.38710192
000210 14 bf b5 be 7f 86 2d 3d ff ae 9c 3e b4 b4 03 bf
       -0.35497344 0.042364594 0.3060226 -0.51447606
000220 4d f0 71 bd 51 e0 c5 3e 45 91 18 3e 82 24 06 be
       -0.05906706 0.38647702 0.14899166 -0.13099864
000230 a8 9e 07 be 32 3e 4b bd 9b e6 3d 3e c3 2a 12 3c
       -0.13244116 -0.04961986 0.18545 0.008921328
000240 61 75 01 be 18 14 70 3e fd 1e 99 bc df 29 62 3c
       -0.12642433 0.23445165 -0.018691534 0.013803928
000250 1f 31 4d 3e b4 3f e5 be bb c4 60 be 4c 72 a7 3e
       0.2003827 -0.44775164 -0.21950047 0.3270439
000260 27 d3 d4 be a7 57 1a 3f 4d ce 5b 3d aa bc 68 be
       -0.41567346 0.60289997 0.05366354 -0.2272822
000270 06 95 2e 3e 30 cb 7b 3d 84 a0 68 be b6 19 26 3e
       0.17049035 0.06147307 -0.22717482 0.16220745
000280 fe 50 b6 3d 01 1f 56 be 23 03 ae 3d 91 97 c5 bd
       0.08902167 -0.20910265 0.08496692 -0.096480496
000290 02 ad 15 3f 07 4b 0b bf 49 01 43 3d 3c 08 ad be
       0.58467114 -0.5441136 0.047608647 -0.33795345
0002a0 45 44 98 3e 43 b5 cd be f1 4e 0d 3e df 74 97 3e
       0.29739586 -0.40177354 0.13799645 0.29581353
0002b0 43 37 c7 bd e7 5d 2b be e5 2c 76 be e0 38 bc 3d
       -0.09727337 -0.1673504 -0.24040563 0.091905355
0002c0 ba b3 31 3e 0f df ad be 4f ac 7c be c0 7a e3 3c
       0.17353716 -0.33959243 -0.24675106 0.027768493
0002d0 6a e6 f2 bd 57 1f 76 be 15 16 c1 be cb 4d bb 3e
       -0.11860354 -0.24035393 -0.3771216 0.3658279
0002e0 c3 06 b2 3e b6 17 8c 3e 28 df 29 3d 66 3b 42 be
       0.34770784 0.2736184 0.041472584 -0.18967971
0002f0 a1 ea 09 bf 90 3a 84 3e f1 03 83 3d 30 a0 01 be
       -0.5387364 0.2582593 0.06397236 -0.12658763
000300 2e c5 41 be ce be 5a bd 2d e4 58 be 13 07 b2 3e
       -0.18922874 -0.05340462 -0.21180792 0.34771022
000310 0f 69 07 be c9 fb 68 3d 3e 64 95 bd ab 60 83 3e
       -0.1322367 0.056880746 -0.0729451 0.2565969
000320 2f 20 b4 bd c9 ca b1 bc dd 03 21 3e ac a8 d6 3d
       -0.08795201 -0.02170314 0.1572413 0.1048139
000330 09 92 da be c0 3c 07 3e ff 3c 8c be 7f a1 ac 3e
       -0.4268954 0.13206768 -0.27390286 0.33716962
000340 76 f8 a6 be 66 46 a8 3d e3 81 b5 be 99 9d 85 3d
       -0.32611436 0.082165524 -0.35450658 0.065242
000350 3f b2 90 3e f0 90 34 3e aa 64 ec bc 41 3e db bd
       0.2826099 0.17633414 -0.028856594 -0.10705233
000360 5a 86 68 3e 40 a3 8a 3e 7b a1 83 3e ef 08 e8 be
       0.22707501 0.27077675 0.25709137 -0.45319316
000370 ce 59 5c be fd c0 8c be 94 8d 6b be eb 6b 3c be
       -0.21518633 -0.27490988 -0.23003227 -0.18400542
000380 fe ee dc 3e 48 6b 66 be 66 b2 34 be 10 69 4b be
       0.43151087 -0.22501862 -0.17646179 -0.19864297
000390 ad a9 9a bd a6 4d 29 3e 95 64 c1 be 84 94 96 3e
       -0.07551894 0.16533527 -0.3777205 0.29410183
0003a0 3c 4c 44 be cd 1b 4f bd f6 7b de bd d6 ef 3d bb
       -0.19169706 -0.050563622 -0.108634874 -0.0028982065
0003b0 da 73 b3 bd fd 33 48 3d 40 d5 30 be c4 fb cf 3e
       -0.08762331 0.048877705 -0.17268848 0.4062177
0003c0 c8 41 6c 3e f8 01 c5 be fe 46 58 bd ff 00 72 be
       0.23071969 -0.38478065 -0.05280208 -0.23633192
0003d0 fc 47 14 3e 71 72 c9 be 8a be 07 bf 39 1f 11 bf
       0.14480585 -0.39345124 -0.53025115 -0.56688267
0003e0 6f 08 6c bb e0 4d 1d 3e 26 64 0e 3e 08 17 a6 bd
       -0.003601577 0.15361738 0.13905391 -0.081098616
0003f0 20 3d 8a 3e 8d 0e ac be c6 74 4b 3e 28 bb 10 bf
       0.2699976 -0.3360485 0.19868764 -0.5653558

net.0.bias f4 [256]
000000 6b e5 94 be d3 3d 8a 3c 90 65 c5 be 5f 14 d7 be
       -0.29081282 0.016875183 -0.3855405 -0.4200773
000010 82 da d1 3e 83 6c d3 be 8d 03 bc be 45 1a be be
       0.4098702 -0.41293725 -0.3672146 -0.37129417
000020 f9 4a 42 3d 6d f4 88 3b 79 d4 24 3e b1 da 65 be
       0.04743478 0.0041795284 0.16096677 -0.22446705
000030 48 e2 e3 bd ad 2e 82 be 87 ce ca be 77 14 30 3e
       -0.11127144 -0.25426236 -0.39610693 0.17195307
000040 35 f3 b5 3e d4 1c e1 3c 2b 57 87 bd f6 38 ad 3e
       0.35537115 0.027479567 -0.06608423 0.3383252
000050 11 57 81 be 9f 5c 8e be f2 2d 2b 3d 6f ff a2 3e
       -0.2526174 -0.2780504 0.041791864 0.31835505
000060 60 ac bc 3e d4 e2 2e 3e 45 a3 5e 3e 76 ae 66 3e
       0.36850262 0.17078716 0.2174197 0.22527489
000070 3a 7b 82 3d e8 45 17 bd 3b 8d a3 3e 75 43 53 3e
       0.0637116 -0.036931902 0.31943688 0.20631202
000080 e8 fb 02 3e 89 39 a7 be 0d ae 58 be 49 66 69 bb
       0.12791407 -0.32661083 -0.21160145 -0.0035613945
000090 86 0e c2 be 75 17 d4 3e cc 7c 37 3e 65 e3 c2 be
       -0.37901706 0.41424146 0.179187 -0.38064113
0000a0 05 a6 5a be 57 df 06 be c5 6d 45 3e 80 9b 97 be
       -0.21352394 -0.13171135 0.19280155 -0.29610825
0000b0 99 e7 1b be 22 97 7d 3e 51 5b 12 3e 79 4f 04 bf
       -0.15225066 0.24764684 0.14292647 -0.51683766
0000c0 66 36 cd 3d 9f 6d 78 3e 62 f2 ae be 80 2e 29 3e
       0.10020141 0.24260567 -0.34169298 0.16521645
0000d0 e7 88 f7 bd 05 62 1f be 69 8b 8e be 5f af 62 3e
       -0.12086659 -0.15564735 -0.27840737 0.22137211
0000e0 ee e5 9b be 95 2d 26 3e 6e 91 59 3d f8 a1 15 be
       -0.3044886 0.16228326 0.05311721 -0.14612567
0000f0 05 34 a7 bd 3e e1 28 3e 85 13 81 bd 0f ab 6f 3d
       -0.08164219 0.16492173 -0.06302551 0.058512744
000100 6b 1b 90 3e 8e af 01 3e 04 15 1c be f8 82 69 3e
       0.28145918 0.12664625 -0.15242392 0.22803867
000110 8d 74 4e 3e a8 9b 87 3e 8c 26 28 3e 0b 1f 1c bb
       0.20161648 0.26485944 0.16420954 -0.0023822214
000120 01 7e 88 3e a9 38 cd be 3a 47 b9 be 8d 15 1b 3c
       0.26658633 -0.4008229 -0.36187154 0.009465587
000130 2f 02 7e 3e 60 00 c2 be 0f b2 63 3e 26 76 04 bd
       0.2480552 -0.3789091 0.22235893 -0.032339238
000140 4e 91 0a be 36 88 78 bd 6c 94 83 bd 5f 30 c5 bc
       -0.13531992 -0.060676776 -0.064247936 -0.024070917
000150 11 1a 75 be fd 0a 91 3d f4 99 84 3e 39 c2 b5 3e
       -0.23935725 0.07082174 0.25898707 0.35499743
000160 e4 d8 8c bb 51 a6 8c 3e 1f 23 21 bd 74 8a 00 3e
       -0.0042983163 0.2747064 -0.039340135 0.12552816
000170 3f 70 5f 3e 73 73 45 bd d1 0d 33 3e 98 7a 95 3e
       0.21820162 -0.048205804 0.1748574 0.29195094
000180 54 53 ba be cc 79 91 be fb 74 a2 be 4d f9 72 3d
       -0.363917 -0.28413236 -0.31729874 0.059319783
000190 1d ce 13 be a3 ec 5e be 3f 32 43 3e 3e 29 66 3e
       -0.14434095 -0.21769957 0.19062136 0.2247667
0001a0 c7 8e d3 3d 51 2e 82 be 08 3b 85 bc 26 de 54 3e
       0.10329967 -0.25425962 -0.0162635 0.20787868
0001b0 0d 20 b6 be 56 14 3c 3e 1d 46 bc 3d 97 cc b0 3e
       -0.35571328 0.18367133 0.091930605 0.3453109
0001c0 a5 0d a1 3e cf da ce bd 48 99 2c be c2 1b b4 be
       0.31455722 -0.10100328 -0.16855347 -0.35177428
0001d0 d4 f0 1e be cb 8c a2 be 1d 65 be 3e aa 01 dc be
       -0.15521556 -0.31748042 0.37186518 -0.4297002
0001e0 89 d2 a2 be ff b1 75 bd 9b 05 29 3b 14 e8 1a 3e
       -0.3180125 -0.059984203 0.0025790695 0.15127593
0001f0 c3 a2 ac 3e af f0 6f be 89 92 a2 3e 34 20 11 bf
       0.33717927 -0.23431657 0.31752422 -0.56689763
000200 df 5a ab 3e 21 e0 53 be f1 eb 40 be 3b 66 14 bc
       0.33467767 -0.20690967 -0.18840005 -0.009057577
000210 3d 99 96 3e 91 1e 9e be 8a be 97 bd 76 c3 28 3e
       0.29413787 -0.30882695 -0.07409389 0.16480812
000220 60 e2 96 3d 24 70 af 3d e4 8e 03 be 93 55 58 3e
       0.07367396 0.08566311 -0.12847477 0.21126394
000230 dd de c0 3e 8f 7a b0 3e af 48 16 3e 9e 48 95 bc
       0.3767003 0.34468505 0.14676164 -0.018223103
000240 7d f7 bb 3e c9 29 9b 3e fb b4 ae be 10 c0 e5 bd
       0.36712256 0.30305317 -0.34122452 -0.11218274
000250 c7 1e 90 3e 6b cc 7c 3e eb 45 04 be 7f c8 9f be
       0.2814848 0.24687354 -0.12917297 -0.31207654
000260 74 aa 45 be 09 86 90 3e 64 cf 5e 3e a6 35 83 be
       -0.19303304 0.2822726 0.217588 -0.25626868
000270 4e 4c 6e be 8b e4 ff 3c 58 29 8c be fc b2 15 3e
       -0.23271295 0.031236907 -0.27375293 0.14619058
000280 b5 05 b7 be 61 d6 56 be 7f 8d 07 be ac 4b 6b 3e
       -0.35746542 -0.20980217 -0.1323757 0.22978085
000290 fa 8b 2e 3c c5 21 db be 80 86 b7 3e 07 15 b1 3e
       0.01065349 -0.42799202 0.35844803 0.34586355
0002a0 30 56 c4 3e 87 cd a7 be cd 8f d7 be bd 39 b8 be
       0.38347006 -0.32773992 -0.421019 -0.3598155
0002b0 f8 6f 63 be 2f 4c 9f be ab a7 c5 bd 61 46 c0 3e
       -0.22210681 -0.3111281 -0.09651121 0.37553695
0002c0 20 69 51 3e 84 b6 11 be 68 40 a1 3e 3f 27 69 3c
       0.20450258 -0.1422978 0.3149445 0.014230548
0002d0 81 73 a8 be d9 16 53 be 74 93 ce be 02 00 2b be
       -0.32900622 -0.20614184 -0.40346873 -0.16699222
0002e0 12 21 fb be 7c 20 3f 3e 59 e7 a8 3e 7d a4 df bd
       -0.49048668 0.18664736 0.32989004 -0.109200455
0002f0 1b 96 3a bd d9 49 a1 be ce c6 b9 3e 49 a1 b1 3c
       -0.045553308 -0.31501654 0.36284488 0.021683352
000300 d6 2d 3b ba fc 13 c9 3e 3e 2e 53 be 77 96 7a be
       -0.0007140314 0.3927306 -0.20623109 -0.2447146
000310 d2 83 14 be f1 a7 6d bc 93 23 c7 bd 54 d9 a0 be
       -0.1450341 -0.014505372 -0.09723582 -0.31415808
000320 3b e6 51 3d 92 db 25 3e 55 7c b0 3e 89 1f 32 bd
       0.051244956 0.1619704 0.34469858 -0.043487106
000330 66 17 64 3e cb bc 8e bd 5e b0 5d 3e 9e a6 9c 3d
       0.22274551 -0.06969603 0.2164931 0.07648967
000340 13 41 b7 3e be 1a 5c 3e cd b2 78 39 71 aa f1 3d
       0.35791835 0.21494576 0.00023717732 0.11800087
000350 4b 03 b3 3e 4f 14 dd be 47 5d a8 bc fa 87 1a be
       0.3496345 -0.43179557 -0.02055229 -0.15090933
000360 7e 07 4d be 84 9f 41 bd f3 44 df be 2b a8 b0 3e
       -0.2002239 -0.047271267 -0.43607292 0.34503302
000370 83 da 9e 3d 0d 5b a6 be 14 9b 37 3e 31 f8 51 be
       0.077565216 -0.3249134 0.17930251 -0.20504834
000380 77 11 b1 be c8 ba 48 3e ae ac 43 bd 44 ad 63 3e
       -0.34583637 0.19602501 -0.047772102 0.22234064
000390 27 19 5b 3e 47 8a 44 be 90 ac d2 bd a3 61 e3 3d
       0.21396314 -0.19193374 -0.1028682 0.11102607
0003a0 4a 7d ab bd 3e c2 91 bd 79 b2 e8 be 1b e4 ee bd
       -0.08373506 -0.07117127 -0.45448664 -0.116646014
0003b0 50 d1 a4 3e e9 62 84 be 7c f8 ce 3e dd 4f a2 3e
       0.32190943 -0.25856712 0.40423954 0.31701556
0003c0 af ff 6c bd 4a 6f 70 3e d4 c9 be 3d 94 a2 24 be
       -0.057861026 0.23479953 0.093158394 -0.16077644
0003d0 f8 08 65 3e 97 14 37 be 20 e5 3f be 4b 77 77 3e
       0.22366703 -0.17878948 -0.18739748 0.241666
0003e0 eb dc 0a be 29 66 a3 3e c7 b8 cf be 99 87 b3 bc
       -0.13560836 0.3191388 -0.4057066 -0.021915244
0003f0 56 96 55 bb 62 28 0a bd 62 8b 8f 3d c7 e1 a7 bd
       -0.0032590828 -0.03372992 0.07009007 -0.081973605

net.2.weight f4 [256, 256]
000000 b6 ec 5e bd 07 1d fc b8 b2 5d 71 bd 7c 76 ff bc
       -0.054424964 -0.00012021703 -0.058927245 -0.031184427
000010 70 a9 02 3d 03 ed 7a bc 72 f8 09 3c 59 e8 f2 bb
       0.03189987 -0.015315297 0.00842105 -0.007412952
000020 41 8e 65 ba 39 d9 8e 3c 16 c5 30 bd 78 0c c5 3c
       -0.0008756854 0.017437564 -0.043156706 0.024053797
000030 7c 00 70 bb 3c 73 57 bd 20 e0 52 3d 28 46 06 3d
       -0.0036621382 -0.05260013 0.051483274 0.03278175
000040 d6 66 45 3d 18 dd 08 bd 70 4a c4 3c a3 ae 24 bd
       0.048193775 -0.033413976 0.023961276 -0.04020561
000050 04 cb 22 bd 30 b5 d0 bc 5f aa c6 3c 71 0c c4 bc
       -0.039744392 -0.025477022 0.024251161 -0.023931714
000060 d6 70 ab bc 3e b7 4c bc 9d 2e 4d bd 45 2c 0e 3d
       -0.020927828 -0.01249486 -0.050093282 0.034710187
000070 45 0f 44 bd e3 74 17 3d 56 0b 06 bd 3a 38 29 bc
       -0.047866125 0.036976706 -0.032725655 -0.010328347
000080 89 5b 37 bd 40 bb 8a ba ec 4e 24 3d 51 6b 64 bd
       -0.04476503 -0.0010584369 0.04011433 -0.055766407
000090 bd ab 51 bd cb 14 43 3d 51 02 4d bd 54 f2 92 3a
       -0.051189173 0.04762725 -0.050051037 0.0011211135
0000a0 f0 0a c3 bc d5 3d d5 3c 56 44 74 3b de 3e f9 3a
       -0.023808926 0.02603046 0.0037272177 0.0019015928
0000b0 71 fa 26 bd 09 ea 3c 3d a5 3e 4c 3d 10 c8 70 3c
       -0.040766183 0.04612163 0.04986443 0.014696136
0000c0 a8 62 f2 bc 38 63 a3 3c cc 08 60 3d 26 4d 08 3d
       -0.029588059 0.019944772 0.05469589 0.0332767
0000d0 29 a8 e7 bc 12 bd 6d 3d 42 69 49 3d ee 1a 82 3c
       -0.028278427 0.05804164 0.049172647 0.015881982
0000e0 17 f8 a5 3b 6f de 1a 3c 80 2b 1b 3b d8 b4 ae 3c
       0.005064975 0.009452446 0.002367705 0.021326467
0000f0 ac aa 72 3d e7 3b 40 3a ae ce 8a 3c 9d 77 48 3d
       0.059244797 0.0007333145 0.016944256 0.048942197
000100 cc be 09 3d 1b 84 46 3c 30 d1 bd bc 7f 59 39 bd
       0.033629224 0.012116457 -0.023171037 -0.045251366
000110 a6 70 0c bd 2b e2 03 bd 97 ce 6d 3c 18 09 79 bc
       -0.034287117 -0.032198112 0.014514587 -0.015199922
000120 75 82 5e bd a6 82 3d 3d 00 a4 8a bb e4 3a 37 3d
       -0.054323632 0.046267174 -0.004230976 0.044733897
000130 ae 30 61 bd 8d d0 02 3a 54 56 94 3c b0 11 31 3d
       -0.054978065 0.0004990183 0.01810757 0.04322976
000140 05 4f 9a 3c 63 b1 79 3c 32 bc 91 bc 2a c3 d1 3c
       0.018836508 0.015240046 -0.017789934 0.025605757
000150 19 78 3c bc 8b 1b a2 bc 25 3f 34 3d 65 0e de 3c
       -0.011503243 -0.019788524 0.04400553 0.027106473
000160 f1 7d 40 bc 71 36 42 bd 6e e9 2c bd f4 50 34 3d
       -0.011748777 -0.0474152 -0.042214803 0.044022515
000170 23 2a f4 bc 0a 75 5d bd 60 ef 86 bd 73 f9 c1 bc
       -0.029805249 -0.054066695 -0.06588626 -0.023678517
000180 4e 20 70 bc 2c 23 50 bd da 8e 2e bd 8b 77 40 bd
       -0.01465614 -0.050814793 -0.042616703 -0.046989005
000190 05 33 8d bd 8a 1f 63 3d 91 e0 63 3d 53 cd 37 bb
       -0.06894497 0.05545 0.055634085 -0.0028045967
0001a0 5b 6a 47 3d 08 af c6 3c c4 4c 79 bc b2 40 07 3d
       0.048685413 0.024253383 -0.015216056 0.033020683
0001b0 bc 9f bd bc e7 f4 82 bd 16 59 bc 3c 02 f3 1c 3d
       -0.023147456 -0.06394368 0.022991698 0.038317688
0001c0 f6 0f 36 bc 88 cb 67 bd fb 31 83 3c cc 52 64 3b
       -0.011112204 -0.056590587 0.016015043 0.003483939
0001d0 b1 23 00 3d 00 c5 66 3b 15 3e 38 3d 84 2f 00 3d
       0.031284038 0.0035212636 0.04498108 0.031295314
0001e0 48 8d 56 bd 50 df 34 bc 89 9a 35 3d a6 f8 2c 3d
       -0.05238083 -0.01103957 0.04433683 0.042229317
0001f0 5c 29 fd 3c 28 68 61 bc 52 87 a6 bc 6c 95 e3 bc
       0.03090351 -0.013757743 -0.020328198 -0.02778121
000200 04 58 64 bb 86 55 44 bc b0 a1 47 bd 60 34 aa bb
       -0.00348425 -0.011983281 -0.04873818 -0.005194232
000210 97 c0 d6 3b 44 b9 2b 3d 60 12 05 bd ea 3d f1 3c
       0.00655372 0.04192473 -0.032488227 0.029448468
000220 b6 8f 3d 3d 20 71 16 bc 06 4e 51 bd d8 d5 40 bd
       0.04627963 -0.009182245 -0.0510998 -0.047078937
000230 6a a0 d5 bc 6d ce 7b bd ff b6 c3 bb 02 06 24 3d
       -0.026077468 -0.06147616 -0.0059727426 0.040044792
000240 a4 c8 03 bd 91 8d 98 bc 94 87 68 3d 28 f3 c2 3c
       -0.032173768 -0.018622192 0.056769922 0.023797587
000250 ba c0 3f 3d 60 79 fd 3c ea d9 c9 bb 2e 9f 2c 3d
       0.046814658 0.030941665 -0.0061600106 0.042143993
000260 12 f2 91 bc c7 b9 40 bd 90 4a 85 bd b4 b5 48 bd
       -0.017815623 -0.04705217 -0.06508362 -0.04900141
000270 68 01 2a bd c8 9b 48 3d 32 fb 21 bd 78 65 87 bd
       -0.041505247 0.04897669 -0.0395462 -0.066111505
000280 88 a8 da 3c 7c 9e a1 bc b3 59 b2 bc 3c 9d 34 bd
       0.02669169 -0.019728892 -0.021771288 -0.044095263
000290 ef ec 87 3c ea a1 8a 3c ae d5 38 bd 42 44 5c 3d
       0.01659247 0.01692291 -0.045125656 0.053776033
0002a0 39 df 38 bd f7 5c 1b 3d 7a a0 70 bd 30 1c 33 3d
       -0.045134757 0.037930455 -0.058746792 0.043728054
0002b0 e5 66 47 bd 24 fe 82 3c 02 f6 20 bd 01 d2 49 bd
       -0.048682112 0.015990324 -0.03929711 -0.04927254
0002c0 5c 10 1e 3d 4e 28 08 3d ae 2e 5d 3d 7c c8 0a 3d
       0.03858982 0.033241563 0.053999595 0.033882603
0002d0 e4 b4 c3 bc a0 df a0 bc 48 3a bb bc 5f 46 78 bd
       -0.023889966 -0.019637883 -0.02285494 -0.060613986
0002e0 f8 17 14 bc 1c 03 ed 3c 87 96 57 3d 38 e4 62 bd
       -0.009038918 0.028932147 0.05263379 -0.055393428
0002f0 ed 1b ae 3c 9e bb 89 bd 50 c9 5b 3c 20 bc 52 3b
       0.02125355 -0.06725238 0.013414696 0.0032155588
000300 60 b5 f7 3c bf 63 eb bb 1c 21 31 3d db 70 08 bd
       0.030237854 -0.0071835215 0.043244466 -0.033310752
000310 36 72 3b 3c 65 21 d3 3c d8 d2 db 3c 64 74 c5 3c
       0.011440804 0.02577276 0.026833937 0.024103351
000320 e7 11 a8 bc f6 ba 51 3d 7f ad 5d bd 91 c8 39 bc
       -0.020516349 0.05120369 -0.054120537 -0.011339323
000330 11 d5 a5 3c 35 60 95 3c 1b c0 db bc c0 f1 48 bc
       0.0202432 0.018234352 -0.026825001 -0.012264669
000340 5c 90 49 3d 03 19 a6 3b 47 16 6b ba ec 48 14 3d
       0.049209937 0.0050688996 -0.0008967858 0.036202356
000350 48 ee 3d bd 7c 34 c3 bc 1c 5e 97 bc c8 de 00 bc
       -0.04636982 -0.023828737 -0.018477492 -0.007865615
000360 ec 36 dd bc a2 eb 22 bd a7 e0 29 3d b1 43 37 bd
       -0.027003728 -0.0397755 0.04147401 -0.04474229
000370 1d b6 4a 3d 23 3f 8d bc 4d 26 7d 3c b6 ac 29 3d
       0.049490083 -0.01724202 0.015451026 0.041424476
000380 88 68 fe 3c 8b 7b 32 3d e3 d9 89 bd 56 b1 73 bd
       0.031055704 0.04357485 -0.06731012 -0.059495293
000390 90 4b 8c bd 1b a7 30 bd 01 39 db 3b b4 b1 7c 3b
       -0.0685035 -0.043128114 0.006690145 0.0038558068
0003a0 9b b4 b3 bc fe 9c 26 bd ad 2a f9 bc 01 96 78 3d
       -0.021936705 -0.040677063 -0.030415857 0.06068993
0003b0 ab f2 6c bd 3c 24 3a 3d ad 5a 60 bd 47 92 38 bd
       -0.057848614 0.045444712 -0.054773975 -0.045061376
0003c0 5a a9 5a bd bc 1c 63 3d c3 63 68 bd 64 ae 32 bd
       -0.053384162 0.055447325 -0.056735765 -0.043623343
0003d0 ee d0 36 bd 5c 41 04 3d 37 8e 25 bd ca 70 4c bd
       -0.044632845 0.032288894 -0.04041883 -0.04991225
0003e0 e2 b8 e0 3c 34 86 99 3c 9c c6 a6 bc 9a e9 1a 3b
       0.027431909 0.01874075 -0.020358376 0.0023637773
0003f0 53 df 19 bc 04 be b1 3c 66 7b 62 bd 74 7e 72 bd
       -0.009391624 0.021697052 -0.055293463 -0.059202626

net.2.bias f4 [256]
000000 51 bb 3a 3c 4a fc 49 bd 38 24 ac bd 50 bc 1b 3d
       0.011397199 -0.049312867 -0.08405346 0.038021386
000010 21 4f b0 3c a0 60 2d bc e4 6b 01 3d d4 c3 91 bd
       0.021522107 -0.010582119 0.031597033 -0.071174294
000020 11 dc c8 bc 18 ea 37 3e 9c ee 09 3d 4e 91 75 bd
       -0.024518998 0.17960393 0.03367482 -0.059953026
000030 53 81 9a 3d 43 a5 0b bd f9 b8 b3 3d b1 cf 5f bd
       0.07544198 -0.034093153 0.08775515 -0.05464143
000040 4f 21 ed 3c de 29 4e 3d 3e cd 02 3e 1a d0 51 bc
       0.028946547 0.050332896 0.12773606 -0.012805963
000050 d9 2a 37 bb ba 14 1a 3d f3 8a 31 3d 55 98 1f bd
       -0.0027949123 0.037617423 0.043345403 -0.038963635
000060 57 d8 0f bd 1e c9 75 bd 96 53 a2 bc d6 05 82 3c
       -0.035118427 -0.060006253 -0.019815248 0.015871923
000070 84 79 25 be cc e0 24 bc 82 e1 02 3d fe 5a 00 3e
       -0.16159636 -0.010063361 0.031953342 0.12534711
000080 f8 4b 5b bc b0 10 24 3e a9 9f 0d 3d 45 04 17 3d
       -0.013384812 0.16021991 0.034576092 0.036869306
000090 7e ad bb 3d 2b ab 0a be 5a 69 94 3d 9a 9a 23 bd
       0.091639504 -0.13541858 0.07246657 -0.03994236
0000a0 93 bc 75 3c 51 78 0a 3d 72 fa 7a bd 00 46 87 3d
       0.014998573 0.03380615 -0.061274 0.06605148
0000b0 64 ba d0 bc 25 0b a1 3d ea 6f bb 3c 69 75 03 3d
       -0.025479503 0.07863454 0.022880513 0.032094393
0000c0 58 10 12 3e b9 07 78 bd 0e 7f 21 3d a7 32 21 3e
       0.14264047 -0.06055424 0.03942781 0.15741979
0000d0 b1 7e 7d 3d a0 b0 5f 3c f5 89 5f 3d c4 cd 99 b9
       0.0618884 0.0136529505 0.054574925 -0.0002933574
0000e0 c8 18 46 bd 9e ef 28 bc 40 b1 7f 3d 0c b2 d9 3c
       -0.048363477 -0.010311035 0.0624249 0.026574157
0000f0 ae 9c 97 3d a7 1c 46 bd 2e 07 0f bd e3 fb 8d 3d
       0.07402931 -0.04836717 -0.034918956 0.06932809
000100 d6 27 f7 3c d1 70 3f 3d 83 89 b3 3c 3f aa 79 bd
       0.030170362 0.04673845 0.021916157 -0.060953375
000110 43 fe 93 bd a0 bf f3 3b 46 4f dd 3c 1d 69 8c 3c
       -0.07226231 0.007438615 0.02701534 0.017139966
000120 6e 86 0f 3d f1 10 d7 bc 43 34 58 bd 44 b2 fe 3c
       0.03504031 -0.026253195 -0.052784216 0.031090863
000130 bc b1 9b bd 28 c4 a1 bd 30 d7 62 bd 6f 04 3f bd
       -0.076022595 -0.07898742 -0.055381 -0.046635088
000140 76 67 1b 3c f1 a5 1d 3e cc fd 9e 3d c8 4c 04 bc
       0.009485116 0.15395333 0.07763252 -0.008074947
000150 89 5d 41 bd 4b 99 7b bc 72 22 46 bd 86 8f 35 3d
       -0.047208343 -0.015356372 -0.048372693 0.044326328
000160 52 59 0b 3d 09 ed f7 3c ac 37 39 3d 42 f1 54 3e
       0.03402073 0.030264394 0.04521911 0.20795158
000170 41 77 f1 3c 0c f9 71 bd f9 d3 83 bd 27 21 4a bc
       0.02947581 -0.0590754 -0.06436915 -0.012337006
000180 0e 4f 71 3d ad 88 ba 3d 91 99 37 3c 67 1e 54 3d
       0.058913283 0.091081 0.011206047 0.051786806
000190 a2 a4 9f bc 40 45 83 3c b5 44 dd bc 33 36 7c 3c
       -0.019487683 0.016024232 -0.027010301 0.0153937815
0001a0 89 93 ce 3c eb 74 18 3e b7 91 b5 bd 56 80 5d bd
       0.025216835 0.1488835 -0.088656835 -0.05407747
0001b0 b7 26 97 bc 7c ab 1b bd 7d e8 1c 3d ec d5 5b bd
       -0.018451078 -0.038005337 0.038307656 -0.05367081
0001c0 34 ad 97 bd a5 d0 af 3b 5f 1d cd bb 1c 2e 6a 3b
       -0.07406083 0.0053654485 -0.006259605 0.003573305
0001d0 05 e8 ec 3b 3b 6b e2 bc e8 0c 2c 3e 40 73 40 3b
       0.0072298073 -0.027639022 0.16801798 0.002936557
0001e0 a2 3a 5c bd c4 aa c4 3a 40 c4 2f 3d 2b bc a3 3d
       -0.053766854 0.0015004505 0.042911768 0.079948746
0001f0 7b 95 e2 3d 48 1a 23 3e 9c a3 8a 3c 5b 7a c8 3d
       0.110636674 0.15927994 0.016923718 0.097889625
000200 f0 0e bd 3c d0 9a a0 3c ba 6a 00 3d 26 82 01 3d
       0.023078412 0.01960507 0.031351782 0.03161826
000210 da 2c 05 3d 27 c6 69 bd 8f 13 5d bd 24 dc 11 3e
       0.032513477 -0.05707374 -0.05397373 0.14244133
000220 65 10 e8 3d be c5 8c bd 58 00 57 bc fb 58 85 bd
       0.11331252 -0.06873654 -0.013122641 -0.06511112
000230 ab e1 f8 3c 9b 8d 44 bd 86 40 17 3e f6 4b 78 bd
       0.030381044 -0.047986608 0.14770707 -0.060619317
000240 c9 8e c7 bc 5d 98 1c bd f4 5d 4d bd f9 de 68 bd
       -0.024360077 -0.038231242 -0.05013843 -0.05685327
000250 8c 03 1b bd 92 6f b3 bb eb 49 38 3d 1d 51 89 bd
       -0.03784518 -0.0054759467 0.04499237 -0.06704924
000260 bc 3c 06 bd 84 60 1c bd e8 71 bf 3d db a6 0a 3e
       -0.032772765 -0.038177982 0.09347898 0.13540213
000270 b5 85 85 bd 58 85 df 3c f5 b8 5c bc 94 ed 9d bc
       -0.06519643 0.027285263 -0.013471832 -0.019278325
000280 72 b3 4d 3d 62 d2 4b 3e e6 43 24 3e 00 4e 99 3d
       0.05021996 0.19904473 0.16041526 0.074855804
000290 e8 e4 ba 3d f6 a9 71 bd f1 65 9e 3b c9 67 a6 3c
       0.09125692 -0.058999978 0.0048339297 0.02031316
0002a0 2a a7 55 bd 62 51 3f bc c7 65 ca 3c 5b 71 b3 3b
       -0.052161373 -0.011677118 0.024706734 0.0054761595
0002b0 ba dc fb 3d bb 69 4a 3d 08 51 72 3c 0c 9d 2b 3d
       0.122979596 0.04941724 0.014789827 0.04189782
0002c0 17 f5 8b bd 22 20 33 3d ce a5 b1 bb 5b d8 9e 3d
       -0.068338566 0.043731816 -0.005421377 0.0775611
0002d0 78 78 69 bd dc 69 4e 3c 14 62 26 bd f1 8b b6 3c
       -0.056999654 0.012598481 -0.04062088 0.022283526
0002e0 a4 f7 a1 3b 04 8a 88 3c 71 68 2c 3e 25 a7 39 bb
       0.004942851 0.016667373 0.16836716 -0.0028328386
0002f0 9a 17 24 bd c5 b6 84 3c 94 84 f8 3b 70 fe 65 bd
       -0.04006157 0.016200433 0.007584164 -0.056150854
000300 cd 63 50 bd 93 b5 5e bd 62 1a 01 3d 97 00 9f 3d
       -0.050876427 -0.05437238 0.0315193 0.077637844
000310 5e ba 43 3e 9a c9 26 bd 33 14 64 bc 98 84 78 bc
       0.19114062 -0.040719606 -0.0139208315 -0.015168332
000320 16 79 4c 3e 45 9e 0c 3e 51 e6 03 3c c8 b8 e5 3c
       0.19968066 0.1373225 0.008050517 0.028042212
000330 f7 14 f1 ba b4 7f b9 bc c7 f1 0a 3c 61 69 5d 3d
       -0.0018393089 -0.022643901 0.008480496 0.054055575
000340 b8 0b 87 bd 40 c3 e7 3d a7 33 9a bd 0d a2 02 be
       -0.06594032 0.11316538 -0.07529383 -0.1275713
000350 a5 bf e4 3d af 46 bf bc a4 17 8f bc a1 1d 73 bd
       0.11169366 -0.023349134 -0.017467327 -0.05935443
000360 20 7a fa bc d5 25 04 bd 81 6b e6 bc 3f ae 76 bd
       -0.030575812 -0.032262642 -0.028127434 -0.060224768
000370 7a 2b 2e 3e 27 de 61 bb 3a 99 e2 3d cb 70 c2 3d
       0.17008772 -0.0034464689 0.11064382 0.0949417
000380 2f 20 2f bd 51 7a 43 bd 61 b4 a0 3d 7a 9e 2d 3c
       -0.042755302 -0.047724072 0.078469045 0.010596866
000390 c6 6b 54 bc 12 73 76 bc 7c c6 07 3d 6c 0e 54 bb
       -0.012965148 -0.015042083 0.033148274 -0.003235723
0003a0 18 eb af bd c3 28 b0 3c 41 b7 c1 bc 55 63 30 3e
       -0.085897624 0.021503812 -0.023646953 0.17225392
0003b0 94 0c dc 3c f8 77 d1 3c d2 f0 58 3d 40 0a 7a bc
       0.026861466 0.0255699 0.05296404 -0.015261233
0003c0 9d 9d 9f 3d 45 cf 2a 3d e8 df 95 3d 2b ff 38 3d
       0.07793734 0.041701574 0.07318097 0.045165222
0003d0 0b 8f 87 bd 77 16 98 bc 82 fb 12 3e b8 23 35 3e
       -0.0661908 -0.0185654 0.14353755 0.17689407
0003e0 8d 76 bf 3c 8f fd c4 bc 95 a3 39 3c 6b 69 f6 3c
       0.02337196 -0.024046687 0.011330505 0.030079564
0003f0 35 71 04 bd 8e a0 e2 3c 61 1e a0 bc 1f da 98 3d
       -0.032334525 0.027664449 -0.019545736 0.07463478

actor.weight f4 [1, 256]
000000 f6 cc 33 3c fe c6 4b 3d 91 24 70 3d 28 d5 32 bd
       0.010974159 0.04975032 0.058628622 -0.043660313
000010 ec e0 08 3f 17 93 53 3c a7 bf 3e 3d fd 94 6f bc
       0.53468204 0.012913487 0.046569493 -0.014622924
000020 49 59 8a 3b 7d a1 c8 3d d4 62 bb bc bf 4b 5c bc
       0.0042220694 0.097964264 -0.022874273 -0.013445794
000030 7e ef 02 3f b9 57 8a bb 87 f4 bb 3e 1c 7c c6 3c
       0.51146686 -0.004221883 0.36709997 0.024229102
000040 00 22 f1 3e 60 87 e1 bb 16 79 d7 bd 2b 37 4d 3d
       0.47096252 -0.006882593 -0.10521142 0.05010144
000050 c9 c4 36 3d fb 17 9f be 7d e0 b4 3e e2 8d 0f bd
       0.044621263 -0.31072983 0.3532752 -0.03504742
000060 a8 9e e1 be ba 57 6f bb 8e 7b 56 3d eb 18 a1 bc
       -0.44066358 -0.0036520795 0.052363925 -0.019665202
000070 dc 77 af be b9 d4 8c be 85 31 a0 3c b3 9d 88 3e
       -0.34271133 -0.27506045 0.019554863 0.26682815
000080 b0 06 37 3d c7 97 d0 bc 21 8f 9b be 63 f7 8c be
       0.044684112 -0.025462998 -0.30382636 -0.2753249
000090 68 7d fa 3e 10 71 69 3e ea dc 49 be 98 52 03 3c
       0.48923802 0.22797036 -0.19713178 0.008015297
0000a0 48 e2 9b 3d e8 2c a3 be c2 81 5a 3d 88 e0 8a 3b
       0.07611519 -0.31870198 0.053346403 0.004238192
0000b0 06 84 3a bd e0 6b 25 3f 7c 95 f8 bb ad 60 74 be
       -0.045536064 0.6461773 -0.0075861793 -0.23865004
0000c0 09 52 20 3e a8 42 95 3d 45 39 e2 bc 85 ad 39 3e
       0.15656294 0.07288104 -0.027615199 0.18132599
0000d0 58 c6 c2 3e 38 7c 99 be 46 db d4 3e a8 9d 27 bd
       0.3804195 -0.29977584 0.41573542 -0.040921837
0000e0 5b 3a cd be 59 73 9e bc 90 36 09 bc 84 b2 f5 bc
       -0.40083584 -0.019342111 -0.008374825 -0.02999235
0000f0 19 94 c0 3d 91 42 c5 3c 41 a8 98 3e 03 ed 66 be
       0.094032474 0.024079593 0.29815868 -0.2255135
000100 af 99 a3 bf 42 14 e1 3c bd e1 84 be 4c 7d 53 bd
       -1.2781276 0.02747548 -0.25953475 -0.051633164
000110 25 7c 07 3c 37 94 c4 be b6 1b ba 3d 19 16 1a 3e
       0.008269344 -0.3839433 0.09087317 0.15047492
000120 e3 c6 51 3d 4d 4a e3 bb dd f4 ce 3c bf ab 0a 3d
       0.051215064 -0.0069363476 0.025263244 0.033855196
000130 76 2c e8 3b 30 a4 5d 3c 86 92 9b bd 1c c1 5a be
       0.0070853783 0.013527915 -0.075963065 -0.21362728
000140 b7 07 10 3f 7d 0f f7 bd e3 8d b2 be 03 0e bd be
       0.5626177 -0.12063501 -0.34873876 -0.36924753
000150 3c 8e 88 3b d3 af 4f bc 24 b7 37 bd 9c 68 28 3d
       0.0041673463 -0.012676197 -0.04485239 0.04111539
000160 ac 81 76 be be cd bb 3e cc 5d e9 3c 35 91 30 3c
       -0.24072903 0.36680406 0.028487109 0.010776808
000170 c4 4e 3b 3d 2d ca 3e 3c d7 40 56 bd 39 c2 fd 3e
       0.045729414 0.011644882 -0.05230793 0.49562243
000180 2d 35 6d 3d 66 ec 57 3e 53 58 49 be 5b 0e 2d bd
       0.05791204 0.21086273 -0.196626 -0.04225002
000190 9f 98 81 3d 05 45 e5 3b c2 87 0a bc 28 35 bc 3b
       0.06327938 0.006996753 -0.008455219 0.0057436414
0001a0 7d bd 92 3b 4b a6 28 be 38 d9 82 3d e3 ef 1a 3e
       0.004478155 -0.16469686 0.063890874 0.15130572
0001b0 50 ec 75 3d 60 55 e5 3b ed ed e9 3c 7a 00 21 3c
       0.06003982 0.006998703 0.028555835 0.009826774
0001c0 da 5b 9b 3b 97 7a 9c 3b 1d 02 ec ba d9 9c fa 3e
       0.004741174 0.004775356 -0.0018006001 0.4894779
0001d0 06 03 da 3a c6 c1 74 bb 73 cc 90 3d ea 15 58 ba
       0.0016632981 -0.0037346943 0.070702456 -0.00082430115
0001e0 32 d1 37 3d 65 44 1d 3d e4 13 56 3d c9 75 3d be
       0.04487724 0.038395304 0.052265063 -0.18501963
0001f0 ef e0 fe 3c 82 0f cf 3c 3b 14 59 3d 2e 84 c4 bd
       0.031113116 0.02527595 0.05299781 -0.09595524
000200 e3 f5 03 3d e0 da 17 bc e8 9e 03 bc 53 b7 09 bd
       0.032216918 -0.009268492 -0.008033492 -0.033622097
000210 58 97 40 3d e9 96 97 be 64 13 06 bc cd 3e 04 3e
       0.047019333 -0.29607323 -0.008183334 0.12914582
000220 de 4e 17 be 40 78 06 bd 90 41 29 bd f2 35 3d 3d
       -0.14776179 -0.032829523 -0.04132229 0.046194024
000230 4e fd 9c ba 3f 89 bf be 42 bb 3f 3e 00 bf a9 bc
       -0.0011977346 -0.37409398 0.18723777 -0.020720959
000240 9c 43 ee 3b 6a 91 86 bc 00 79 88 39 bd 16 75 3d
       0.0072712433 -0.01642676 0.00026030093 0.059836138
000250 6f c4 02 bd a3 0e 50 be bc bc bc 3c b7 2a c3 3d
       -0.031925615 -0.20318083 0.023039214 0.095296316
000260 a8 6c 9c bb 71 03 29 bd c4 a0 e5 3e 85 7f 3f bc
       -0.004773695 -0.041263048 0.44849217 -0.011688118
000270 20 a8 b9 3c 4d 8b a3 3d 37 f1 13 3f a0 59 22 3d
       0.022663176 0.07985554 0.5778994 0.039636254
000280 4d 8d fd 3c a8 db 4d 3d c9 16 90 bd b7 ba 98 3e
       0.030951167 0.05025831 -0.07035596 0.29829952
000290 27 27 64 3e c4 36 d9 3c 21 f4 8b be 47 6b f7 3e
       0.2228056 0.026515372 -0.27334693 0.48324034
0002a0 31 ca 25 3d 7f 46 eb 3e 51 69 b3 3c a4 c0 ba 3e
       0.040476028 0.45952222 0.021900805 0.36475098
0002b0 90 af 47 3d b9 f6 00 3f ce 75 4f 3d 94 7a 04 3a
       0.048751414 0.5037647 0.050649457 0.0005053666
0002c0 9f a4 3f bd 3e c9 9e be 1f 73 a9 be 31 c7 e5 3d
       -0.046787854 -0.3101291 -0.33095643 0.11219633
0002d0 8e 12 44 3d a2 ef 31 3d 1c a8 66 be 1e 25 a2 3d
       0.047869258 0.043441422 -0.22525066 0.07917236
0002e0 ba 20 07 3e 8b c0 4c 3c 78 72 1f 3e e7 f9 cf 3e
       0.13196078 0.012497078 0.1557101 0.40620348
0002f0 38 a5 14 3c d0 44 00 3f 99 c0 21 bd 6b 47 87 be
       0.009072594 0.50105 -0.039490316 -0.26421675
000300 89 b1 0c bd 11 50 a5 be ad 77 a6 bc 86 b4 cc bc
       -0.034349 -0.32287648 -0.020320738 -0.024988424
000310 c8 91 15 3e 70 73 da bc d6 d2 a5 3c 88 9d 10 3c
       0.14606392 -0.026666373 0.020242136 0.008826621
000320 d0 d2 cd 3d 02 4d 10 be 22 62 84 bd 62 83 18 3c
       0.10049975 -0.14091876 -0.0646403 0.009308668
000330 41 77 35 be 41 2e 48 bb c3 1e d3 bd 6d 8e 3f be
       -0.17721273 -0.0030545148 -0.10308602 -0.18706675
000340 2b 6b 38 bd cc 46 8c 3c 4b 9e e8 be 2f 1a d3 3d
       -0.04502408 0.017123602 -0.45433268 0.103077285
000350 18 02 cb 3d e5 92 98 3e 70 e7 8f be ec ba 29 3c
       0.09912509 0.29799572 -0.2810626 0.010359507
000360 98 e2 b9 3b bb 4e 2c 3d 5c 3c 61 3c f4 b8 60 bc
       0.005672764 0.04206727 0.013747301 -0.013715971
000370 49 3e 75 3c ef d8 27 3e 7e 6a 18 3e 76 a0 92 bc
       0.014968463 0.16391347 0.14884374 -0.01789878
000380 8b 4c 32 bd 30 ae 45 bc c4 70 2e 3e 7a 55 1f bd
       -0.04353003 -0.012065455 0.17035204 -0.038899876
000390 f1 bc 96 3c d9 71 a4 be e6 c5 f1 bc f6 e5 3f bd
       0.018400641 -0.3211811 -0.02951331 -0.046850167
0003a0 e0 3e 92 bd 83 bb f8 3e 2d 57 46 3d b1 d3 50 3e
       -0.07140899 0.4858056 0.04842298 0.20393254
0003b0 5a 3d 6b bd 47 ca e0 3e e9 7b bf 3c d0 4f 00 3f
       -0.057431556 0.43904325 0.023374515 0.50121784
0003c0 e5 b4 cf 3e 7b 47 c7 be 60 78 4e 3e 7c d6 10 3d
       0.405677 -0.38921723 0.20163107 0.0353608
0003d0 4d e9 5a 3d bd 69 47 bd 8d 1c 03 bc 5b 88 ec bd
       0.05344515 -0.048684824 -0.0080024125 -0.11549445
0003e0 0d 53 39 bd 53 fd 98 be 1a 3c 58 bd 43 c4 24 be
       -0.04524522 -0.2988077 -0.052791692 -0.16090493
0003f0 ce 47 dd bb 57 61 a8 bc f9 f1 68 3e 71 00 cb 3d
       -0.0067529446 -0.020554228 0.22748555 0.099121936

critic.weight f4 [1, 256]
000000 a8 69 01 bd 9e 14 f2 bd 17 ab 69 be 4f 64 31 3d
       -0.031594902 -0.11820339 -0.22819172 0.043308552
000010 a5 61 16 3c 1f 48 41 3b 77 2d a8 bc b1 0c 09 3d
       0.009178554 0.002949245 -0.020529492 0.03345937
000020 42 7a 3f bc e8 1a 8c 3d 42 af 81 bc ee da c5 bc
       -0.011686863 0.068410695 -0.01583064 -0.024152245
000030 6a c7 25 3c 0f 92 88 bc d5 31 2c 3c 99 fc 82 3b
       0.010118345 -0.016671209 0.010509928 0.003997397
000040 ed ed 6d 3b 9b 7b 48 bd e1 1e 98 3d ef 22 0f bb
       0.0036305145 -0.048946004 0.07427765 -0.002184089
000050 70 2a cd bc 7d dd 5e 3c 02 78 b1 bb 52 aa 0e bd
       -0.02504465 0.013602612 -0.0054159174 -0.0348304
000060 e6 49 d1 ba 68 c4 2e bc e2 10 28 3d 17 78 e2 bc
       -0.0015967458 -0.010666944 0.041031726 -0.027645154
000070 2d 3e ad bd fd 24 43 3d 94 63 7e bc f1 95 3c 3c
       -0.08459125 0.047642697 -0.015526671 0.011510358
000080 90 c2 2f 3c a1 72 ca 3d 10 6c 59 bc d8 22 09 bc
       0.01072754 0.09885145 -0.013270393 -0.008370124
000090 3e 6b 41 3c 75 7d 43 be 90 29 0b 3d 6a e3 7c 3d
       0.011805354 -0.19090827 0.033975184 0.061740316
0000a0 c2 c6 a4 bc 46 87 4a bc 80 69 d9 3b 3d 38 1e 3c
       -0.020114306 -0.012361353 0.006634891 0.009656963
0000b0 6e a7 80 3c d1 c0 e5 3b 2a 78 68 3d ef f8 9d bc
       0.015704837 0.007011511 0.056755222 -0.01928374
0000c0 89 2b a4 3c 12 31 f6 bd fc 39 bd 3c f0 26 28 3d
       0.02004029 -0.12021078 0.023098938 0.04105276
0000d0 30 c1 ff 3b 79 dd ac bc 43 2c 94 3b 0f ba 4f bc
       0.007805012 -0.0211017 0.004521878 -0.012678637
0000e0 5a 88 0a 3b b6 d4 1a 3c 8f 7a 3e 3b 2e ab ab bc
       0.00211384 0.009450128 0.002906475 -0.020955648
0000f0 7f 22 4a 3c b2 f9 3c 3d 56 6e 80 3c b5 b5 76 3c
       0.012337326 0.046136566 0.015677612 0.015057971
000100 9c 0a 18 3e 56 37 a9 3c 0a 04 2d 3a df 87 f8 3b
       0.14847797 0.020656269 0.0006600028 0.0075845565
000110 1a 43 04 bd 68 c5 00 3b 06 d7 03 3d cd eb db ba
       -0.032290556 0.0019648913 0.032187484 -0.0016778648
000120 65 f3 0e 3c b3 4b c5 bc c4 6a 5d 3d fa 92 a8 3c
       0.008725022 -0.024083948 0.054056898 0.020577896
000130 81 9c df bc c1 c0 e3 bd f4 21 cc bc ac 4c 8f bb
       -0.027296307 -0.11120749 -0.024918534 -0.0043731537
000140 c0 26 17 3c da 5a 3e 3d 81 57 da 3d 95 10 9e bc
       0.009225547 0.04647336 0.10661221 -0.019295016
000150 df 86 5c 3d 19 15 58 bd 3a 70 de bb d6 bd 4e 3d
       0.05383956 -0.052754495 -0.006788281 0.05047401
000160 f6 a7 56 3c d6 c8 24 bd b1 4a 53 3b 42 34 c2 3d
       0.013101568 -0.040230595 0.0032240564 0.09482624
000170 27 c6 2d 3d 7b ca d4 bd a5 b5 a2 ba e1 24 8a 3b
       0.0424253 -0.103901826 -0.0012413753 0.004215822
000180 b5 27 d9 3c ae fb 57 3c e4 e8 85 bc 04 88 46 3d
       0.026508192 0.013182564 -0.016346402 0.04846956
000190 a7 9a 5d bc ee f7 ad bc 0c 2a eb bc 8f a1 1b bd
       -0.0135256415 -0.021236386 -0.028706573 -0.03799587
0001a0 b4 99 8b 3d b3 8e 4b 3d c7 4d 39 be 9e 66 3c bd
       0.06816426 0.049696635 -0.18096076 -0.0459963
0001b0 43 2f 39 3d 64 04 61 bd a9 3f 30 3d 1e 7a bd b8
       0.045211088 -0.054935828 0.04302946 -9.0349684e-05
0001c0 39 dc a2 bc f6 63 1e bd 30 ae af bc 42 95 00 3c
       -0.019880401 -0.03866955 -0.021445364 0.007848086
0001d0 92 5b a6 3c 07 5a 18 bd 01 00 9c 3d e8 4f 02 bd
       0.020307336 -0.03719523 0.07617188 -0.031814486
0001e0 c2 ab eb bc c3 54 32 3d 43 da 5f 3d e0 a3 3f 3c
       -0.028768424 0.043537866 0.05465151 0.011696786
0001f0 e9 c3 b7 3c e7 82 f2 3c 8b 6a 6f bc b6 fb 35 3d
       0.022432284 0.029603435 -0.014612804 0.044429503
000200 e3 54 02 3c 36 0c 2b 3d 19 94 8f 3c 13 db 34 3b
       0.007954809 0.041759692 0.017526673 0.0027596399
000210 ee 14 59 3d 79 c2 9f bc e3 58 03 3d 31 f4 99 3d
       0.052998476 -0.019501911 0.03206719 0.07517279
000220 db 6a c3 3c f8 92 18 be e4 a0 8e bc c8 3b c4 bc
       0.023854664 -0.14899814 -0.017410703 -0.023954287
000230 f0 8c 00 bb ae 57 9e 3b fc 09 75 3d 73 92 42 3d
       -0.0019615255 0.0048322296 0.059823975 0.047502946
000240 5a 3a c3 bc 73 6b c5 3b 56 4e 1a bd 59 c4 57 3d
       -0.023831535 0.006024772 -0.037672363 0.052677486
000250 a8 73 67 bb fe be 89 bc aa da a2 3a 45 7d 1d be
       -0.003531674 -0.016814705 0.0012424786 -0.15379818
000260 a3 dc 90 3b 64 dc c1 3b d6 7d d0 3b 55 0b b1 3d
       0.004420833 0.005916165 0.006362657 0.086447395
000270 ec 37 50 3d 67 19 2c 3c d8 71 97 3b 31 fc 4a 3d
       0.05083458 0.010504103 0.0046217255 0.049556915
000280 74 b7 c1 bc 3f f6 5d 3d cc df de 3d ac 39 4b 3c
       -0.023647048 0.054189917 0.108825296 0.012403887
000290 fc e9 72 3b 38 1f 44 3d c3 62 5c bc f0 9e 07 3c
       0.0037065735 0.047881335 -0.013451281 0.00827764
0002a0 bc 61 62 be b4 06 9e 3b a5 46 09 bd 1f eb 82 bb
       -0.22107595 0.0048225764 -0.033514638 -0.003995314
0002b0 4c c6 75 3d 55 f0 42 3c 80 24 49 3c 2d 24 54 3c
       0.060003564 0.01189812 0.012276769 0.012948078
0002c0 ad 3d 01 bc 70 5b 4f bc 41 0d 18 bb f1 89 56 bd
       -0.00788824 -0.012656078 -0.002320126 -0.052377645
0002d0 08 4d c5 3c 15 98 c9 bb be 04 2f bd 0f a1 25 bc
       0.024084583 -0.006152163 -0.042729132 -0.0101092
0002e0 ef d5 2d bd 49 84 40 3d a8 fc f0 3c e5 02 a5 bc
       -0.04244035 0.047001157 0.02941735 -0.020142982
0002f0 48 2f f2 3c 21 cb d9 3b 9c 30 86 bc 9f 65 c0 bb
       0.029563561 0.0066465293 -0.0163806 -0.005871489
000300 3a 8f 88 bc fa d3 34 bb 39 fe 85 bd 50 5a 4f 3d
       -0.016669858 -0.0027592168 -0.0654263 0.050623238
000310 82 60 90 3d 96 31 70 3d dd f4 07 bd 14 33 21 bd
       0.070496574 0.05864104 -0.033192504 -0.039355353
000320 75 a0 a4 3d b2 b9 9d 3d 22 2e 6d 3b 0a aa 6f bc
       0.08038417 0.07701434 0.0036190827 -0.014627943
000330 cc c4 69 3e 75 f8 8d bb e2 33 2b be ea 92 13 3b
       0.22828978 -0.004332597 -0.1671901 0.0022517988
000340 1f 24 3c bd 77 ad ac 3d 91 05 a5 3b 22 89 84 be
       -0.045932885 0.08431523 0.005036064 -0.25885874
000350 40 7c be 3c 9a 1e 9f bd 60 5f 33 bb 9e f8 ff ba
       0.023252606 -0.07769509 -0.002737008 -0.001952905
000360 5e b8 99 3c ff 29 22 3d 2c 7a 36 bd fe 60 5c bd
       0.018764671 0.03959083 -0.044550106 -0.053803436
000370 85 48 38 3d 06 dc e0 3c b1 d5 83 3d e1 df 39 3d
       0.044991035 0.027448665 0.06437243 0.045379523
000380 cc 7a 8a bc ac a1 49 3d 6e c6 23 3d 67 12 cd bb
       -0.016904257 0.049226448 0.03998416 -0.0062582972
000390 d7 e8 14 bc cb 91 8e bc 83 67 67 bb 6d 87 9e 39
       -0.0090887165 -0.017403504 -0.00353095 0.00030237008
0003a0 25 a3 a4 bc 9c 7c 09 3c 07 3b 7a 3c 48 7d 23 3d
       -0.020097325 0.008391526 0.015272862 0.0399144
0003b0 3a b2 a5 bc 2d de 23 3c 60 bc 9f bd d5 3d 4a 3c
       -0.020226587 0.010001701 -0.077996016 0.0123438435
0003c0 03 6f 1f 3c fd 51 05 bc 54 e3 1e 3d 30 39 36 bc
       0.009731057 -0.008137223 0.038791016 -0.011122033
0003d0 12 42 4f bd 9d 17 64 bc f7 41 4b 3c f1 71 a8 3d
       -0.05060012 -0.0139216455 0.012405864 0.082248576
0003e0 45 42 ef bc fd f7 db bc 7c ae 0c bd d5 a4 7a bc
       -0.029206404 -0.026851648 -0.03434609 -0.015298088
0003f0 60 58 24 bc 5a 60 12 3d da 96 4c bc 80 d6 2e 3c
       -0.010030836 0.03573642 -0.012487138 0.010671258
