models1/ppo_1750.pth (torch, 275660 bytes, 6 tensors)

net.0.weight f4 [256, 6]
000000 23 6c e0 be db 84 e0 be 99 2c 16 3e b7 09 b9 3e
       -0.43832502 -0.4385136 0.1466545 0.36140224
000010 68 62 39 bd d4 b6 bb be 69 11 62 bd 42 21 fc bb
       -0.045259863 -0.36662924 -0.055192385 -0.0076943943
000020 f6 f1 ea 3e 38 d2 c9 be 88 7a b7 bd 07 da e2 3e
       0.45887727 -0.39418197 -0.08958918 0.44306967
000030 54 c7 18 bd c2 cc 07 3f 8b 7b d7 3d 14 39 a7 be
       -0.03729947 0.5304681 0.10521611 -0.32660735
000040 bf 63 64 be f4 95 71 bd 6e bb a2 be 5a 5a 7a 3e
       -0.22303675 -0.058980897 -0.31783623 0.24448529
000050 fa 0c 1c 3e a3 7e 5f bd fe 1f 8c 3c 13 8d a3 3e
       0.15239325 -0.05456413 0.017105099 0.3194357
000060 d0 fc 7d 3e 2b 71 0e be e2 f9 f4 be be c7 99 3e
       0.24803472 -0.13910358 -0.47846895 0.30035204
000070 3c e0 41 3e b5 f6 3d be 56 9f d5 3d 38 47 97 bd
       0.18933195 -0.18551143 0.104307815 -0.07386631
000080 8b e0 b3 3e bf d7 f9 bb b2 48 89 be 53 94 58 3e
       0.3513225 -0.007624596 -0.26813275 0.21150331
000090 7c e1 81 bd a6 4d 9a 3d 67 2e eb 3e 49 ad 5f 3e
       -0.06341836 0.075343415 0.4593384 0.21843447
0000a0 28 57 a6 3d e0 36 af be 25 31 bb be fc 3a c4 be
       0.081220925 -0.34221554 -0.36560932 -0.38326252
0000b0 c6 95 68 bc 83 65 18 3e 78 52 24 bd b9 ac 75 3e
       -0.014195865 0.14882474 -0.04011771 0.2399167
0000c0 f7 96 60 be 1f 9a 83 be 76 1a 91 3e e9 d6 e3 bd
       -0.21932589 -0.25703523 0.283405 -0.11124975
0000d0 c3 25 8a 3e c0 3b 9d be 7a 95 26 3e 0c 88 48 3e
       0.26981935 -0.30709648 0.16267958 0.19583148
0000e0 7d ea ea 3e 3d 1b 0d bf 13 17 33 be 02 61 28 3e
       0.45882025 -0.5511969 -0.17489271 0.16443256
0000f0 65 68 e8 3d aa 2e 3d be 59 6e e9 3c e3 c7 9a 3b
       0.11348037 -0.18474832 0.028495 0.0047235354
000100 f0 93 52 be 3e 55 b7 bd 2a 6c 23 3d 5e 7e 81 be
       -0.20564246 -0.089518055 0.039898075 -0.25291723
000110 db 2f 5a be 50 bd 8b 3e 62 75 d7 bd de 15 ff bd
       -0.21307318 0.2729287 -0.10520436 -0.12455343
000120 74 c6 1e be 46 fd b4 3d 63 95 fe bd 3f b0 37 3e
       -0.15505391 0.088373706 -0.12430837 0.17938326
000130 7d 8a 94 be 0a d8 98 be 7e fd b0 bc 7e 75 b3 3d
       -0.29011908 -0.29852325 -0.02160525 0.08762644
000140 a2 48 59 3e 17 06 93 3e ba cc f7 bd 5c 1f e0 be
       0.21219113 0.28715584 -0.12099595 -0.43773925
000150 7a 44 a4 3e 41 b6 1d 3e ea 2f 5b be ae 0a 50 3d
       0.32083493 0.15401556 -0.21404997 0.050791435
000160 a7 30 9f be d3 68 aa 3e 70 40 49 3d 28 81 b9 be
       -0.31091806 0.332831 0.049133718 -0.3623135
000170 61 21 b1 bd 98 96 c2 be 54 07 6a be 5c 6e a6 bd
       -0.08648945 -0.3800552 -0.22854358 -0.08126518
000180 e7 95 04 3e 4e e9 5d 3e d1 d6 bf 3e 07 4e 1a be
       0.12947808 0.2167103 0.3746858 -0.15068828
000190 d8 e8 85 bc 3d eb b2 be b1 f2 06 bf 10 8d 57 be
       -0.01634638 -0.34945098 -0.5271407 -0.21049905
0001a0 5c e5 24 bd 66 8e b0 be a1 97 d5 3d cd 67 2e 3c
       -0.040257797 -0.3448364 0.104293115 0.010644865
0001b0 63 4b e2 be 61 7b 82 3e 0f 89 04 bf e7 78 be be
       -0.4419814 0.25484756 -0.51771635 -0.37201616
0001c0 1a 1f f9 bd 0f e5 3a 3e 78 f2 13 3e 2e 84 4d 3e
       -0.12164135 0.18251441 0.14447963 0.20069954
0001d0 ad 2e 4c be 4a 6e c9 3e 18 ab cf bd a7 77 79 be
       -0.1993968 0.39341956 -0.101400554 -0.2436205
0001e0 28 5b f5 bd 34 a9 b3 3d ac 0a d7 bd 21 c1 83 3e
       -0.11980277 0.08772507 -0.105000824 0.25733283
0001f0 b3 ec 74 3e 98 06 a4 3e 44 1e b9 3e 2a d9 6e 3e
       0.23918419 0.3203628 0.36155903 0.23325029
000200 aa eb 7e 3c 8d 61 e2 3d 5a b6 c5 3d c4 25 bd be
       0.015559116 0.110537626 0.096539214 -0.36942875
000210 e9 45 a1 be eb 9d d2 3d 6f 6a af 3e 97 15 01 bf
       -0.3149865 0.10284027 0.3426089 -0.5042357
000220 3f 61 94 bd bf 7c c7 3e ff b2 01 3e 29 3b 28 be
       -0.07245111 0.3896236 0.12665938 -0.16428818
000230 12 a4 f5 bd f4 00 c9 bc 55 d8 6b 3e b0 b8 fc bb
       -0.119941846 -0.024536587 0.23031743 -0.007712446
000240 c0 88 19 be 9b c5 5a 3e f7 6a 10 ba 9c 49 12 3d
       -0.14993572 0.21364443 -0.0005509103 0.03571473
000250 00 b5 65 3e 4c 1f e9 be 11 f1 60 be 9a 11 a1 3e
       0.22432327 -0.4553169 -0.2196696 0.3145874
000260 a7 28 d9 be 86 68 1f 3f 8e 8f 8a 3d db b0 65 be
       -0.42413828 0.62268865 0.06765662 -0.22430746
000270 57 87 19 3e c7 cc dd 3c 29 53 5e be 28 7b 43 3e
       0.14993034 0.027075185 -0.2171141 0.19089949
000280 d4 1d d6 3d 67 6b 4e be 61 ca b3 3d 2d 17 a6 bd
       0.10454908 -0.20158158 0.08778835 -0.08109889
000290 b7 b3 17 3f e1 4b 10 bf 65 15 30 3d 6f e3 af be
       0.592586 -0.5636578 0.042989153 -0.34353206
0002a0 28 a6 90 3e 41 e3 d7 be 55 dd c7 3d 8b 7f 85 3e
       0.28251767 -0.42165568 0.097590126 0.2607387
0002b0 66 f5 18 bd 49 db 3a be d8 ea 85 be 87 01 96 3d
       -0.037343405 -0.18247713 -0.26155734 0.0732451
0002c0 aa 9a 43 3e 25 be b1 be df 29 8c be 7b 94 f7 3c
       0.19101968 -0.3471538 -0.27375695 0.030222168
0002d0 fc ad 09 be 97 6f 89 be 3c f3 c5 be 0f 35 c2 3e
       -0.13445276 -0.2684295 -0.38662136 0.37931105
0002e0 49 a1 bf 3e 3d fc 86 3e 74 77 81 bd c6 89 9f be
       0.37427738 0.26364318 -0.06321612 -0.311598
0002f0 78 09 06 bf ec ed ad 3e 5b 46 98 3d 54 79 14 be
       -0.523582 0.33970582 0.07435294 -0.14499408
000300 bc 96 57 be 5e 0b b1 bd bc 91 73 be 3a 7b b0 3e
       -0.21053594 -0.08644746 -0.23786062 0.34469014
000310 76 d3 c3 bd 57 e3 31 3d 3e 64 95 bd ab 60 83 3e
       -0.09561817 0.0434297 -0.0729451 0.2565969
000320 2f 20 b4 bd c9 ca b1 bc dd 03 21 3e ac a8 d6 3d
       -0.08795201 -0.02170314 0.1572413 0.1048139
000330 26 35 dc be c5 70 13 3e 9e 62 94 be c4 f2 a7 3e
       -0.430093 0.14398487 -0.2898149 0.32802403
000340 e2 84 a0 be 69 88 a0 3d bf b8 d7 be 81 14 ca 3c
       -0.31351382 0.07838518 -0.42133138 0.02466798
000350 cf af 37 3e bf 25 9d 3d 98 18 7b 3d a0 f7 6f be
       0.1793816 0.07673215 0.06130275 -0.23434305
000360 22 c2 2f 3e 97 97 5f 3e 99 9e 68 3e c6 94 ec be
       0.171639 0.2183517 0.2271675 -0.46207255
000370 47 7c 54 be 7b 25 9a be 11 97 82 be 6b d3 4d be
       -0.20750533 -0.3010672 -0.2550588 -0.20100181
000380 4c b4 db 3e 23 42 76 be 5a 71 31 be 12 a8 4f be
       0.42910993 -0.24048667 -0.17328396 -0.20278957
000390 15 1c 9d bd ee 8a 1b 3e a5 6f bf be 2f 67 a2 3e
       -0.07671372 0.15189716 -0.37389866 0.31719348
0003a0 35 ce 33 be c7 9b 41 bd 3b 70 20 bd c4 a5 87 3d
       -0.1755913 -0.0472677 -0.03916953 0.06623414
0003b0 51 d7 01 bd 7c 49 cf 3d bb 5d 83 be e0 65 02 3f
       -0.031699482 0.10121438 -0.25657448 0.509367
0003c0 c8 41 6c 3e f8 01 c5 be fe 46 58 bd ff 00 72 be
       0.23071969 -0.38478065 -0.05280208 -0.23633192
0003d0 fc 47 14 3e 71 72 c9 be 8a be 07 bf 39 1f 11 bf
       0.14480585 -0.39345124 -0.53025115 -0.56688267
0003e0 6f 08 6c bb e0 4d 1d 3e 26 64 0e 3e 08 17 a6 bd
       -0.003601577 0.15361738 0.13905391 -0.081098616
0003f0 32 44 95 3e f4 00 9b be 15 c4 5b 3e 9d af 13 bf
       0.2915359 -0.30274165 0.21461518 -0.5768984

net.0.bias f4 [256]
000000 1d 4e 9a be e1 90 bd 3c 3c 16 94 be fa 3b d8 be
       -0.3013772 0.023140373 -0.28923213 -0.42233258
000010 57 c4 d9 3e c6 31 e8 be 7d 40 cd be 43 5c c3 be
       0.42532608 -0.45350474 -0.40088263 -0.38156328
000020 97 be 74 3d fd e3 98 3b da c6 38 3e b1 da 65 be
       0.059752073 0.00466585 0.18044606 -0.22446705
000030 51 b4 10 be 44 87 1d be b5 fd d9 be 9f 30 f3 3d
       -0.14131285 -0.15383631 -0.42576376 0.11874508
000040 52 12 b9 3e f9 9c 82 3c 13 93 b7 bd 2d f0 ae 3e
       0.3614679 0.015943991 -0.08963599 0.34167615
000050 a6 a7 a9 be e7 4f 85 be 20 06 61 3d 35 6d 9c 3e
       -0.33135718 -0.26037523 0.054937482 0.30552068
000060 fa 58 bb 3e 13 67 30 3e 84 ff 62 3e 82 f2 63 3e
       0.3659132 0.1722682 0.22167784 0.22260478
000070 42 71 17 3d d9 ed fa bc 5c 9f 9f 3e 63 e6 27 3e
       0.036973245 -0.030630993 0.3117627 0.1639648
000080 52 39 ec 3d 89 39 a7 be 15 19 71 be 50 e4 ff bd
       0.115343705 -0.32661083 -0.23544724 -0.12494719
000090 0a 67 db be 45 f8 d2 3e 90 b8 3c 3e 4b 90 9b be
       -0.4285205 0.4120504 0.1842978 -0.30383524
0000a0 05 a6 5a be 57 df 06 be 67 29 3a 3e a1 48 9a be
       -0.21352394 -0.13171135 0.18179856 -0.30133536
0000b0 e4 bb 0c be f6 ed 6e 3e f5 37 b2 3d cb 50 01 bf
       -0.1374355 0.23332962 0.08702079 -0.50513905
0000c0 fe 29 ec 3d 2b 35 7b 3e 62 f2 ae be 49 fa 0f 3e
       0.11531447 0.24532 -0.34169298 0.1406032
0000d0 35 ae d3 bd 48 6c 33 be 69 8b 8e be e9 99 62 3e
       -0.10335962 -0.17521775 -0.27840737 0.22129025
0000e0 74 fc 9a be d4 a3 01 3e 62 af 51 3d eb 66 f1 bd
       -0.3027073 0.12660152 0.05119265 -0.11787208
0000f0 05 34 a7 bd 94 71 53 3e 32 4a f3 bd 9d d2 11 3d
       -0.08164219 0.20648795 -0.11879386 0.035601247
000100 b9 f5 8c 3e d6 57 05 3e 4d 07 0b be bd 24 72 3e
       0.27531222 0.13021788 -0.13577004 0.23646827
000110 6d 35 5e 3e c6 2e 8d 3e ca 48 37 3e 34 ff 04 3e
       0.21700068 0.27574748 0.1789886 0.12987977
000120 b1 29 88 3e e2 a8 ba be 3a 47 b9 be 32 0f 73 bd
       0.26594308 -0.36456972 -0.36187154 -0.059340663
000130 f7 03 80 3e 99 f3 cb be 94 52 67 3e 3b eb ef bc
       0.25003025 -0.39834288 0.22590095 -0.029286971
000140 58 fd 0d be 2f 9d cb bd 3e 5d 52 bd cf 78 ce 3b
       -0.13866174 -0.0994209 -0.051358454 0.0063010226
000150 94 67 82 be e9 5e 95 3d 71 26 8e 3e e8 15 b2 3e
       -0.2546965 0.07293493 0.27763703 0.34782338
000160 e1 c4 78 3c d3 3a 8c 3e 5e 73 10 bd 1a eb 95 3d
       0.015183658 0.2738863 -0.035266273 0.07320233
000170 be 79 5b 3e 7d 9e 10 3d f3 62 30 3e 83 76 9c 3e
       0.2143316 0.035307396 0.17225246 0.30559167
000180 89 66 e3 be 33 6c 97 be fb 74 a2 be 7e 78 10 3d
       -0.44414166 -0.29574737 -0.31729874 0.03527116
000190 6d 9d 09 be a3 ec 5e be 5d 8d 36 3e 64 8f 61 3e
       -0.1343896 -0.21769957 0.17827363 0.22027355
0001a0 43 d3 4f 3d 51 2e 82 be 0d e6 4d bd 9a b6 26 3e
       0.050738584 -0.25425962 -0.05026822 0.16280594
0001b0 d9 6f b1 be 2a ff 1c 3e 9a ef 32 3e f0 0a a3 3e
       -0.34655645 0.15331712 0.17474213 0.31844282
0001c0 e7 b0 a6 3e 9b 11 c3 bd 4d 8c 35 be b9 ea ad be
       0.3255684 -0.09524842 -0.17729302 -0.33968142
0001d0 0b 6a 34 be 17 e5 c3 be 52 99 c1 3e 11 fc e1 be
       -0.17618577 -0.3826072 0.37812287 -0.44137624
0001e0 89 d2 a2 be c9 66 02 be b5 cb 17 ba 31 2c 17 3e
       -0.3180125 -0.12734522 -0.00057905476 0.14762951
0001f0 25 80 b2 3e af f0 6f be 63 42 a3 3e 1a d3 02 bf
       0.34863392 -0.23431657 0.31886587 -0.51103365
000200 ca 59 a8 3e ef c9 6e be 33 49 7e be 2c 4b 7b 3c
       0.32881004 -0.23319219 -0.24832611 0.015337747
000210 d5 63 9c 3e b1 c1 9a be 4d 4f a2 bd e4 b8 35 3e
       0.30544916 -0.302259 -0.07925282 0.17746311
000220 97 82 38 3d b0 5d 50 3d 94 2f b8 bd 49 eb 6a 3e
       0.045046415 0.050870597 -0.0899345 0.22941317
000230 81 4c cf 3e 25 a2 b4 3e 49 ac 23 3e 79 50 53 bd
       0.40488055 0.35279956 0.1598369 -0.051590417
000240 77 26 bf 3e 46 46 af 3e fb b4 ae be 2c 27 10 be
       0.37334034 0.34233302 -0.34122452 -0.14077443
000250 1f 65 4f 3e 30 53 8e 3e eb 45 04 be 7f c8 9f be
       0.20253418 0.27797842 -0.12917297 -0.31207654
000260 38 77 3f be bc e7 93 3e 23 43 6c 3e a6 35 83 be
       -0.18697822 0.28887737 0.23072486 -0.25626868
000270 30 8c 68 be c3 dd cf 3c 58 29 8c be 88 f4 11 3e
       -0.22709727 0.025374299 -0.27375293 0.14253438
000280 b5 05 b7 be ae 7e 2f be 7f 8d 07 be b4 e3 83 3e
       -0.35746542 -0.17138168 -0.1323757 0.2575966
000290 14 20 0f 3c 1f 33 ed be f3 ed ba 3e 2b 94 b4 3e
       0.008735675 -0.46328065 0.36509666 0.35269293
0002a0 51 d4 c8 3e 21 82 c0 be cf fd dd be bd 39 b8 be
       0.39224485 -0.3759928 -0.43357703 -0.3598155
0002b0 f3 87 90 be 2f 4c 9f be ef 0a f7 bd 24 c0 c7 3e
       -0.2822872 -0.3111281 -0.12062632 0.3901378
0002c0 db 37 52 3e 5e ca 12 be c0 b0 a3 3e a8 6c 1b bb
       0.2052912 -0.1433501 0.31970787 -0.0023715887
0002d0 81 73 a8 be d9 16 53 be 74 93 ce be 16 81 5d be
       -0.32900622 -0.20614184 -0.40346873 -0.21631274
0002e0 cf a2 ed be 3b 5f 3d 3e fa d4 aa 3e 40 48 e4 bd
       -0.46413276 0.18493359 0.33365613 -0.11146593
0002f0 e0 87 86 bd 25 27 a6 be f1 03 b6 3e 28 d1 84 3d
       -0.06568885 -0.3245174 0.35549882 0.06485206
000300 91 21 2d 3d 2b 6c c7 3e 3e 2e 53 be 6f 19 81 be
       0.04226834 0.38949713 -0.20623109 -0.25214717
000310 f2 47 1e be ac 67 9e bb 93 23 c7 bd 54 d9 a0 be
       -0.15457132 -0.004834136 -0.09723582 -0.31415808
000320 e1 8a 2f 3d ed b9 21 3e 23 1b b5 3e f0 e1 84 bb
       0.042857055 0.15793581 0.35372266 -0.004055254
000330 a1 69 70 3e 14 bf ae bd 09 bf 5d 3e 6c 79 c5 3c
       0.23477794 -0.08532539 0.21654905 0.02410575
000340 96 b0 b6 3e 19 33 69 3e 72 0a 06 3d b6 bd fe 3d
       0.356816 0.22773398 0.032724805 0.12438528
000350 d6 0b b3 3e a1 2b f0 be 27 6b a4 3c fa 87 1a be
       0.34969968 -0.46908286 0.020070625 -0.15090933
000360 36 da 48 be 32 1f 6e bc f3 44 df be ea e5 b4 3e
       -0.19614491 -0.014533805 -0.43607292 0.3533166
000370 11 ee 97 3d 4c 41 c8 be 17 e2 0d 3e f4 07 92 be
       0.074184544 -0.39112318 0.13855778 -0.28521693
000380 be 9c a6 be 23 35 41 3e d6 f5 24 bd 96 2f 4d 3e
       -0.3254146 0.18867926 -0.04027351 0.20037684
000390 8f 94 5f 3e ec c8 4a be f7 ec 53 bd fc 0e a0 3d
       0.21834014 -0.19803208 -0.05173966 0.07815358
0003a0 02 bc c8 bd 12 3c 91 bd ac a0 e4 be 00 9a b2 bd
       -0.09801485 -0.07091536 -0.44653833 -0.087207794
0003b0 3f c2 a7 3e e9 62 84 be 80 5f d4 3e 30 25 56 3e
       0.32765386 -0.25856712 0.4147911 0.20912623
0003c0 b8 f3 71 bd 5e b2 92 3e cc d0 b6 3d 53 3f 19 be
       -0.05907032 0.28651708 0.089265436 -0.14965563
0003d0 b7 9e 1d 3e 97 14 37 be 7b 04 16 be 1e b4 80 3e
       0.15392576 -0.17878948 -0.14650147 0.25137419
0003e0 7a 4c 0b be 6e c0 a8 3e c7 b8 cf be 87 9e 2f bd
       -0.13603392 0.32959312 -0.4057066 -0.042875793
0003f0 3d b0 01 3d 5d 0d e2 bc 1c 29 a3 bd a1 86 e0 bd
       0.031662215 -0.027594263 -0.07966825 -0.109631784

net.2.weight f4 [256, 256]
000000 b6 ec 5e bd 07 1d fc b8 b2 5d 71 bd 7c 76 ff bc
       -0.054424964 -0.00012021703 -0.058927245 -0.031184427
000010 70 a9 02 3d 03 ed 7a bc 72 f8 09 3c 59 e8 f2 bb
       0.03189987 -0.015315297 0.00842105 -0.007412952
000020 41 8e 65 ba 39 d9 8e 3c 16 c5 30 bd 78 0c c5 3c
       -0.0008756854 0.017437564 -0.043156706 0.024053797
000030 7c 00 70 bb 3c 73 57 bd 20 e0 52 3d 28 46 06 3d
       -0.0036621382 -0.05260013 0.051483274 0.03278175
000040 d6 66 45 3d 18 dd 08 bd 70 4a c4 3c a3 ae 24 bd
       0.048193775 -0.033413976 0.023961276 -0.04020561
000050 04 cb 22 bd 30 b5 d0 bc 5f aa c6 3c 71 0c c4 bc
       -0.039744392 -0.025477022 0.024251161 -0.023931714
000060 d6 70 ab bc 3e b7 4c bc 9d 2e 4d bd 45 2c 0e 3d
       -0.020927828 -0.01249486 -0.050093282 0.034710187
000070 45 0f 44 bd e3 74 17 3d 56 0b 06 bd 3a 38 29 bc
       -0.047866125 0.036976706 -0.032725655 -0.010328347
000080 89 5b 37 bd 40 bb 8a ba ec 4e 24 3d 51 6b 64 bd
       -0.04476503 -0.0010584369 0.04011433 -0.055766407
000090 bd ab 51 bd cb 14 43 3d 51 02 4d bd 54 f2 92 3a
       -0.051189173 0.04762725 -0.050051037 0.0011211135
0000a0 f0 0a c3 bc d5 3d d5 3c 56 44 74 3b de 3e f9 3a
       -0.023808926 0.02603046 0.0037272177 0.0019015928
0000b0 71 fa 26 bd 09 ea 3c 3d a5 3e 4c 3d 10 c8 70 3c
       -0.040766183 0.04612163 0.04986443 0.014696136
0000c0 a8 62 f2 bc 38 63 a3 3c cc 08 60 3d 26 4d 08 3d
       -0.029588059 0.019944772 0.05469589 0.0332767
0000d0 29 a8 e7 bc 12 bd 6d 3d 42 69 49 3d ee 1a 82 3c
       -0.028278427 0.05804164 0.049172647 0.015881982
0000e0 17 f8 a5 3b 6f de 1a 3c 80 2b 1b 3b d8 b4 ae 3c
       0.005064975 0.009452446 0.002367705 0.021326467
0000f0 ac aa 72 3d e7 3b 40 3a ae ce 8a 3c 9d 77 48 3d
       0.059244797 0.0007333145 0.016944256 0.048942197
000100 cc be 09 3d 1b 84 46 3c 30 d1 bd bc 7f 59 39 bd
       0.033629224 0.012116457 -0.023171037 -0.045251366
000110 a6 70 0c bd 2b e2 03 bd 97 ce 6d 3c 18 09 79 bc
       -0.034287117 -0.032198112 0.014514587 -0.015199922
000120 75 82 5e bd a6 82 3d 3d 00 a4 8a bb e4 3a 37 3d
       -0.054323632 0.046267174 -0.004230976 0.044733897
000130 ae 30 61 bd 8d d0 02 3a 54 56 94 3c b0 11 31 3d
       -0.054978065 0.0004990183 0.01810757 0.04322976
000140 05 4f 9a 3c 63 b1 79 3c 32 bc 91 bc 2a c3 d1 3c
       0.018836508 0.015240046 -0.017789934 0.025605757
000150 19 78 3c bc 8b 1b a2 bc 25 3f 34 3d 65 0e de 3c
       -0.011503243 -0.019788524 0.04400553 0.027106473
000160 f1 7d 40 bc 71 36 42 bd 6e e9 2c bd f4 50 34 3d
       -0.011748777 -0.0474152 -0.042214803 0.044022515
000170 23 2a f4 bc 0a 75 5d bd 60 ef 86 bd 73 f9 c1 bc
       -0.029805249 -0.054066695 -0.06588626 -0.023678517
000180 4e 20 70 bc 2c 23 50 bd da 8e 2e bd 8b 77 40 bd
       -0.01465614 -0.050814793 -0.042616703 -0.046989005
000190 05 33 8d bd 8a 1f 63 3d 91 e0 63 3d 53 cd 37 bb
       -0.06894497 0.05545 0.055634085 -0.0028045967
0001a0 5b 6a 47 3d 08 af c6 3c c4 4c 79 bc b2 40 07 3d
       0.048685413 0.024253383 -0.015216056 0.033020683
0001b0 bc 9f bd bc e7 f4 82 bd 16 59 bc 3c 02 f3 1c 3d
       -0.023147456 -0.06394368 0.022991698 0.038317688
0001c0 f6 0f 36 bc 88 cb 67 bd fb 31 83 3c cc 52 64 3b
       -0.011112204 -0.056590587 0.016015043 0.003483939
0001d0 b1 23 00 3d 00 c5 66 3b 15 3e 38 3d 84 2f 00 3d
       0.031284038 0.0035212636 0.04498108 0.031295314
0001e0 48 8d 56 bd 50 df 34 bc 89 9a 35 3d a6 f8 2c 3d
       -0.05238083 -0.01103957 0.04433683 0.042229317
0001f0 5c 29 fd 3c 28 68 61 bc 52 87 a6 bc 6c 95 e3 bc
       0.03090351 -0.013757743 -0.020328198 -0.02778121
000200 04 58 64 bb 86 55 44 bc b0 a1 47 bd 60 34 aa bb
       -0.00348425 -0.011983281 -0.04873818 -0.005194232
000210 97 c0 d6 3b 44 b9 2b 3d 60 12 05 bd ea 3d f1 3c
       0.00655372 0.04192473 -0.032488227 0.029448468
000220 b6 8f 3d 3d 20 71 16 bc 06 4e 51 bd d8 d5 40 bd
       0.04627963 -0.009182245 -0.0510998 -0.047078937
000230 6a a0 d5 bc 6d ce 7b bd ff b6 c3 bb 02 06 24 3d
       -0.026077468 -0.06147616 -0.0059727426 0.040044792
000240 a4 c8 03 bd 91 8d 98 bc 94 87 68 3d 28 f3 c2 3c
       -0.032173768 -0.018622192 0.056769922 0.023797587
000250 ba c0 3f 3d 60 79 fd 3c ea d9 c9 bb 2e 9f 2c 3d
       0.046814658 0.030941665 -0.0061600106 0.042143993
000260 12 f2 91 bc c7 b9 40 bd 90 4a 85 bd b4 b5 48 bd
       -0.017815623 -0.04705217 -0.06508362 -0.04900141
000270 68 01 2a bd c8 9b 48 3d 32 fb 21 bd 78 65 87 bd
       -0.041505247 0.04897669 -0.0395462 -0.066111505
000280 88 a8 da 3c 7c 9e a1 bc b3 59 b2 bc 3c 9d 34 bd
       0.02669169 -0.019728892 -0.021771288 -0.044095263
000290 ef ec 87 3c ea a1 8a 3c ae d5 38 bd 42 44 5c 3d
       0.01659247 0.01692291 -0.045125656 0.053776033
0002a0 39 df 38 bd f7 5c 1b 3d 7a a0 70 bd 30 1c 33 3d
       -0.045134757 0.037930455 -0.058746792 0.043728054
0002b0 e5 66 47 bd 24 fe 82 3c 02 f6 20 bd 01 d2 49 bd
       -0.048682112 0.015990324 -0.03929711 -0.04927254
0002c0 5c 10 1e 3d 4e 28 08 3d ae 2e 5d 3d 7c c8 0a 3d
       0.03858982 0.033241563 0.053999595 0.033882603
0002d0 e4 b4 c3 bc a0 df a0 bc 48 3a bb bc 5f 46 78 bd
       -0.023889966 -0.019637883 -0.02285494 -0.060613986
0002e0 f8 17 14 bc 1c 03 ed 3c 87 96 57 3d 38 e4 62 bd
       -0.009038918 0.028932147 0.05263379 -0.055393428
0002f0 ed 1b ae 3c 9e bb 89 bd 50 c9 5b 3c 20 bc 52 3b
       0.02125355 -0.06725238 0.013414696 0.0032155588
000300 60 b5 f7 3c bf 63 eb bb 1c 21 31 3d db 70 08 bd
       0.030237854 -0.0071835215 0.043244466 -0.033310752
000310 36 72 3b 3c 65 21 d3 3c d8 d2 db 3c 64 74 c5 3c
       0.011440804 0.02577276 0.026833937 0.024103351
000320 e7 11 a8 bc f6 ba 51 3d 7f ad 5d bd 91 c8 39 bc
       -0.020516349 0.05120369 -0.054120537 -0.011339323
000330 11 d5 a5 3c 35 60 95 3c 1b c0 db bc c0 f1 48 bc
       0.0202432 0.018234352 -0.026825001 -0.012264669
000340 5c 90 49 3d 03 19 a6 3b 47 16 6b ba ec 48 14 3d
       0.049209937 0.0050688996 -0.0008967858 0.036202356
000350 48 ee 3d bd 7c 34 c3 bc 1c 5e 97 bc c8 de 00 bc
       -0.04636982 -0.023828737 -0.018477492 -0.007865615
000360 ec 36 dd bc a2 eb 22 bd a7 e0 29 3d b1 43 37 bd
       -0.027003728 -0.0397755 0.04147401 -0.04474229
000370 1d b6 4a 3d 23 3f 8d bc 4d 26 7d 3c b6 ac 29 3d
       0.049490083 -0.01724202 0.015451026 0.041424476
000380 88 68 fe 3c 8b 7b 32 3d e3 d9 89 bd 56 b1 73 bd
       0.031055704 0.04357485 -0.06731012 -0.059495293
000390 90 4b 8c bd 1b a7 30 bd 01 39 db 3b b4 b1 7c 3b
       -0.0685035 -0.043128114 0.006690145 0.0038558068
0003a0 9b b4 b3 bc fe 9c 26 bd ad 2a f9 bc 01 96 78 3d
       -0.021936705 -0.040677063 -0.030415857 0.06068993
0003b0 ab f2 6c bd 3c 24 3a 3d ad 5a 60 bd 47 92 38 bd
       -0.057848614 0.045444712 -0.054773975 -0.045061376
0003c0 5a a9 5a bd bc 1c 63 3d c3 63 68 bd 64 ae 32 bd
       -0.053384162 0.055447325 -0.056735765 -0.043623343
0003d0 ee d0 36 bd 5c 41 04 3d 37 8e 25 bd ca 70 4c bd
       -0.044632845 0.032288894 -0.04041883 -0.04991225
0003e0 e2 b8 e0 3c 34 86 99 3c 9c c6 a6 bc 9a e9 1a 3b
       0.027431909 0.01874075 -0.020358376 0.0023637773
0003f0 53 df 19 bc 04 be b1 3c 66 7b 62 bd 74 7e 72 bd
       -0.009391624 0.021697052 -0.055293463 -0.059202626

net.2.bias f4 [256]
000000 51 bb 3a 3c a8 7c 3c bc 78 13 b9 bd 50 bc 1b 3d
       0.011397199 -0.01150433 -0.090369165 0.038021386
000010 15 79 2b 3d a0 60 2d bc e4 6b 01 3d d4 c3 91 bd
       0.04186352 -0.010582119 0.031597033 -0.071174294
000020 6c fa d4 bc 3f ac 60 3e 9c ee 09 3d 4e 91 75 bd
       -0.025998317 0.21940707 0.03367482 -0.059953026
000030 be 7b bd 3d 43 a5 0b bd 10 6b 7d 3d 6a 17 83 bd
       0.092521176 -0.034093153 0.06186968 -0.0640095
000040 1e 13 06 3d d4 17 48 3d 21 d1 2d 3e 1a d0 51 bc
       0.032733075 0.04885085 0.16974308 -0.012805963
000050 65 15 b5 3c 4c 61 0f 3d ba 0f af 3c 55 98 1f bd
       0.022104928 0.0350049 0.021369804 -0.038963635
000060 22 68 1b bd 1e c9 75 bd 96 53 a2 bc d6 05 82 3c
       -0.037941106 -0.060006253 -0.019815248 0.015871923
000070 84 79 25 be cb 2a 9e bd 82 e1 02 3d ae 73 fa 3d
       -0.16159636 -0.07723006 0.031953342 0.122290954
000080 f8 4b 5b bc 1d 40 56 3e 74 20 fa 3c 56 6d 21 3d
       -0.013384812 0.20922895 0.030533053 0.03941091
000090 d0 0c ca 3d 75 c6 16 be 19 56 86 3d 9a 9a 23 bd
       0.09865725 -0.14724143 0.065593906 -0.03994236
0000a0 7d 35 c1 bc e0 11 f9 3c 72 fa 7a bd 97 42 84 3d
       -0.023585076 0.030404031 -0.061274 0.064580135
0000b0 64 ba d0 bc 33 1f c6 3d ea 6f bb 3c 23 64 23 3d
       -0.025479503 0.096739195 0.022880513 0.03989042
0000c0 d3 70 e5 3d b8 81 59 3b 7b 06 0d 3d ca 17 35 3e
       0.1120316 0.003318889 0.03443001 0.17684856
0000d0 a7 0b ad 3d 72 5a 5a bd a3 41 5d 3d c4 cd 99 b9
       0.08449488 -0.05330891 0.054017674 -0.0002933574
0000e0 a2 5d 09 bd 9e ef 28 bc 40 b1 7f 3d 0c b2 d9 3c
       -0.03353656 -0.010311035 0.0624249 0.026574157
0000f0 8a 70 2a 3d a7 1c 46 bd eb 2d 90 3c 3b 4d 40 3d
       0.041611232 -0.04836717 0.01760002 0.046948653
000100 fe 8e ec 3c d6 3d 2f 3d 94 1a 04 3d 3f aa 79 bd
       0.028876778 0.04278358 0.03225191 -0.060953375
000110 da 74 a7 bd 77 1d ed 3c 57 96 3b bb 79 e5 30 bd
       -0.081765845 0.028944714 -0.0028623545 -0.043187592
000120 6e 86 0f 3d f1 10 d7 bc 43 34 58 bd 8a 0a bd 3c
       0.03504031 -0.026253195 -0.052784216 0.023076314
000130 bc b1 9b bd 28 c4 a1 bd 30 d7 62 bd 0f f5 c7 bd
       -0.076022595 -0.07898742 -0.055381 -0.09763538
000140 be f3 5c 3c f3 d3 32 3e e7 4b ca 3d 8d 96 f6 bb
       0.013485847 0.17463665 0.098777585 -0.0075252713
000150 89 5d 41 bd 66 f8 8d 3c 72 22 46 bd 86 8f 35 3d
       -0.047208343 0.01733036 -0.048372693 0.044326328
000160 6a c2 b6 3c 16 65 fa 3b 96 43 1b 3d 22 0b 83 3e
       0.0223095 0.007641445 0.03790625 0.2559443
000170 41 77 f1 3c f3 6d 02 be f9 d3 83 bd 41 b9 71 bb
       0.02947581 -0.12737255 -0.06436915 -0.0036884102
000180 ee b1 08 3d 5e 65 42 3d 99 81 9c bd 67 1e 54 3d
       0.033372812 0.047459953 -0.07641906 0.051786806
000190 ca a9 aa bc 40 45 83 3c b5 44 dd bc 33 36 7c 3c
       -0.020832915 0.016024232 -0.027010301 0.0153937815
0001a0 89 93 ce 3c 92 fd 30 3e 13 1c bc bd 56 80 5d bd
       0.025216835 0.1728423 -0.09185042 -0.05407747
0001b0 b7 26 97 bc 7c ab 1b bd 7d e8 1c 3d ec d5 5b bd
       -0.018451078 -0.038005337 0.038307656 -0.05367081
0001c0 34 ad 97 bd a5 d0 af 3b 5f 1d cd bb cb ae ec 3c
       -0.07406083 0.0053654485 -0.006259605 0.028891942
0001d0 05 e8 ec 3b 3b 6b e2 bc 9b 47 58 3e 40 73 40 3b
       0.0072298073 -0.027639022 0.21121065 0.002936557
0001e0 a2 3a 5c bd c4 aa c4 3a 48 84 8f 3d 8d 46 f7 3c
       -0.053766854 0.0015004505 0.070076525 0.030185008
0001f0 2c 0d 3c 3d 14 71 cc 3d 9c a3 8a 3c e2 3c ec 3d
       0.045911 0.099825054 0.016923718 0.1153505
000200 f0 0e bd 3c d0 9a a0 3c ba 6a 00 3d 26 82 01 3d
       0.023078412 0.01960507 0.031351782 0.03161826
000210 da 2c 05 3d 52 5c 67 bd 8f 13 5d bd 8b ac 3c 3e
       0.032513477 -0.056484528 -0.05397373 0.18425195
000220 02 84 a7 3d be c5 8c bd 58 00 57 bc fb 58 85 bd
       0.08179475 -0.06873654 -0.013122641 -0.06511112
000230 ab e1 f8 3c 2f a4 4f bd 3f 0b 39 3e f6 4b 78 bd
       0.030381044 -0.050693687 0.18070696 -0.060619317
000240 c9 8e c7 bc 5d 98 1c bd f4 5d 4d bd 99 db 87 bd
       -0.024360077 -0.038231242 -0.05013843 -0.06633682
000250 83 1a 29 bd 69 6c de bd eb 49 38 3d 8f ad a8 3b
       -0.04128505 -0.10860521 0.04499237 0.005147643
000260 bc 3c 06 bd 84 60 1c bd 9f d2 c7 3d ed ef 39 3e
       -0.032772765 -0.038177982 0.0975697 0.1815793
000270 2a 4c 97 bd 58 85 df 3c ca aa 85 3c 94 ed 9d bc
       -0.07387574 0.027285263 0.01631679 -0.019278325
000280 72 b3 4d 3d ab c1 6a 3e 7d e8 57 3e 51 eb 83 3d
       0.05021996 0.22925441 0.21084781 0.064413674
000290 c2 62 6c 3d f6 a9 71 bd 00 74 da 39 b0 b5 17 3d
       0.05771137 -0.058999978 0.00041666627 0.037038505
0002a0 2a a7 55 bd 3f 95 7f bd c7 65 ca 3c 2e 97 90 bb
       -0.052161373 -0.06239819 0.024706734 -0.0044125533
0002b0 90 e4 21 3e d2 d3 79 3c 08 51 72 3c 0c 9d 2b 3d
       0.15809846 0.015248256 0.014789827 0.04189782
0002c0 17 f5 8b bd 63 65 8c bd 08 3e 9d 3c 8e 65 60 3c
       -0.068338566 -0.068552755 0.019194618 0.0136960875
0002d0 78 78 69 bd dc 69 4e 3c 8c 9f 7f bd f1 8b b6 3c
       -0.056999654 0.012598481 -0.062408015 0.022283526
0002e0 a9 74 f5 bc 04 8a 88 3c 97 17 11 3e 20 b7 fb 3c
       -0.029962854 0.016667373 0.14169155 0.03072697
0002f0 9a 17 24 bd d0 11 a7 3c 94 84 f8 3b 34 90 0c bd
       -0.04006157 0.020394236 0.007584164 -0.03431721
000300 cd 63 50 bd c5 d2 2e bd 62 1a 01 3d 3f 13 d4 3d
       -0.050876427 -0.042681474 0.0315193 0.103552334
000310 b7 1b 6d 3e 9a c9 26 bd 33 14 64 bc 98 84 78 bc
       0.23155104 -0.040719606 -0.0139208315 -0.015168332
000320 ff 8b 79 3e 33 59 38 3e 51 e6 03 3c c8 b8 e5 3c
       0.2436981 0.18002777 0.008050517 0.028042212
000330 45 84 54 bc b4 7f b9 bc 72 b6 f4 bc 98 dd 60 bc
       -0.012970989 -0.022643901 -0.029872153 -0.013724707
000340 b8 0b 87 bd bf d8 22 3e e3 79 20 bd 0d a2 02 be
       -0.06594032 0.15902995 -0.03917874 -0.1275713
000350 99 9f aa 3d d6 0c a0 bc 11 3b c1 bd a1 1d 73 bd
       0.08331222 -0.01953737 -0.09435094 -0.05935443
000360 20 7a fa bc d5 25 04 bd 81 6b e6 bc 3f ae 76 bd
       -0.030575812 -0.032262642 -0.028127434 -0.060224768
000370 66 60 40 3e 27 de 61 bb 53 be 16 3e 78 ec e8 3d
       0.18786773 -0.0034464689 0.1472104 0.11373228
000380 78 f4 55 bd 51 7a 43 bd 29 5e bb 3d 7a 9e 2d 3c
       -0.052235097 -0.047724072 0.09148819 0.010596866
000390 c6 6b 54 bc ff ff 9a bc 7c c6 07 3d 6c 0e 54 bb
       -0.012965148 -0.018920897 0.033148274 -0.003235723
0003a0 18 eb af bd 3f dc fa 3c 41 b7 c1 bc 61 0a 42 3e
       -0.085897624 0.0306226 -0.023646953 0.18949272
0003b0 94 0c dc 3c ea 8c e9 3d 6f b5 0b 3d 4d a6 c5 3b
       0.026861466 0.1140383 0.034108575 0.0060317875
0003c0 76 85 d5 3d e4 e8 0d 3d 7b 7c b2 3d 2b ff 38 3d
       0.10425846 0.03464593 0.08715149 0.045165222
0003d0 0b 8f 87 bd 77 16 98 bc f8 c4 c0 3d 7d ab 62 3e
       -0.0661908 -0.0185654 0.09412569 0.2213573
0003e0 8d 76 bf 3c 8a 95 b7 bc 95 a3 39 3c 25 23 eb bc
       0.02337196 -0.022410173 0.011330505 -0.028703282
0003f0 35 71 04 bd 8e a0 e2 3c 10 07 b4 bc f0 c0 10 3e
       -0.032334525 0.027664449 -0.021976024 0.141361

actor.weight f4 [1, 256]
000000 f6 cc 33 3c 5b eb c7 3d 91 24 70 3d 28 d5 32 bd
       0.010974159 0.09761687 0.058628622 -0.043660313
000010 0b 63 20 3f 17 93 53 3c a7 bf 3e 3d fd 94 6f bc
       0.6265113 0.012913487 0.046569493 -0.014622924
000020 db 57 8a 3b 2a 9a d1 3d d4 62 bb bc bf 4b 5c bc
       0.004221899 0.102344826 -0.022874273 -0.013445794
000030 b6 c5 2a 3f b9 57 8a bb 73 3a be 3e 1c 7c c6 3c
       0.6670793 -0.004221883 0.37153968 0.024229102
000040 d4 a0 09 3f 65 ea 05 3d 53 65 df bd 2b 37 4d 3d
       0.5376103 0.03269424 -0.10907998 0.05010144
000050 ca 3d 7b 3d 2d 77 aa be d9 43 98 3e e2 8d 0f bd
       0.061338224 -0.3329405 0.29739264 -0.03504742
000060 ee 2d 0a bf ba 57 6f bb 8e 7b 56 3d eb 18 a1 bc
       -0.53976333 -0.0036520795 0.052363925 -0.019665202
000070 dc 77 af be 2e 80 9c be 85 31 a0 3c 0c 67 a8 3e
       -0.34271133 -0.30566543 0.019554863 0.3289112
000080 b0 06 37 3d a1 6b da bc 61 d2 b8 be 19 56 9c be
       0.044684112 -0.02666265 -0.36098006 -0.30534437
000090 c0 24 0f 3f 73 71 69 3e fc 59 50 be 98 52 03 3c
       0.5591545 0.22797184 -0.20346826 0.008015297
0000a0 c3 9c 64 3d d2 cd c2 be c2 81 5a 3d 87 e9 8a 3b
       0.055813562 -0.38047653 0.053346403 0.0042392644
0000b0 06 84 3a bd 4d 32 42 3f 7c 95 f8 bb 12 2b 8a be
       -0.045536064 0.75858 -0.0075861793 -0.26985985
0000c0 4e b5 3c 3e f7 55 b2 3d a9 05 f7 bc 7c 6d 43 3e
       0.18428537 0.08707803 -0.030154066 0.19084734
0000d0 08 d8 f5 3e 48 8a 98 be c1 16 ee 3e a8 9d 27 bd
       0.4801638 -0.29793 0.46501735 -0.040921837
0000e0 25 54 f3 be 59 73 9e bc 90 36 09 bc 84 b2 f5 bc
       -0.47525135 -0.019342111 -0.008374825 -0.02999235
0000f0 be 76 00 3e 91 42 c5 3c 4c 00 8d 3e 05 23 6b be
       0.12545297 0.024079593 0.2753929 -0.22962578
000100 cd 82 b7 bf da be a9 bc b4 85 96 be 4c 7d 53 bd
       -1.4336792 -0.020720888 -0.29398882 -0.051633164
000110 a5 74 07 3c c4 e2 e1 be e8 da 1b 3e f1 b1 1f 3e
       0.008267556 -0.4411832 0.15220225 0.15595223
000120 e3 c6 51 3d 4d 4a e3 bb dd f4 ce 3c 05 42 bf 3c
       0.051215064 -0.0069363476 0.025263244 0.02334691
000130 76 2c e8 3b 30 a4 5d 3c 86 92 9b bd 09 65 81 be
       0.0070853783 0.013527915 -0.075963065 -0.25272396
000140 24 53 23 3f 49 b6 fe bd ee c3 b6 be cf 99 d9 be
       0.6379874 -0.12437112 -0.35696357 -0.4250016
000150 3c 8e 88 3b 6c 83 1b 3c 24 b7 37 bd 9c 68 28 3d
       0.0041673463 0.009491783 -0.04485239 0.04111539
000160 2d 72 82 be 72 c9 bb 3e cc 5d e9 3c 03 83 24 3c
       -0.25477734 0.36677128 0.028487109 0.010041001
000170 c4 4e 3b 3d 89 33 d3 bc d7 40 56 bd a3 cb 1b 3f
       0.045729414 -0.02578141 -0.05230793 0.608576
000180 7d 9f 47 3d 0d 63 72 3e 3e 5f 5d be 5b 0e 2d bd
       0.048736084 0.23670597 -0.21618363 -0.04225002
000190 1d a1 b3 3d 05 45 e5 3b c2 87 0a bc 28 35 bc 3b
       0.08770964 0.006996753 -0.008455219 0.0057436414
0001a0 7d bd 92 3b fe 36 30 be 70 8b 55 3d e3 ef 1a 3e
       0.004478155 -0.17208478 0.05213493 0.15130572
0001b0 50 ec 75 3d 60 55 e5 3b ed ed e9 3c 7a 00 21 3c
       0.06003982 0.006998703 0.028555835 0.009826774
0001c0 da 5b 9b 3b 97 7a 9c 3b 1d 02 ec ba a0 21 10 3f
       0.004741174 0.004775356 -0.0018006001 0.5630131
0001d0 06 03 da 3a c6 c1 74 bb 9e f2 95 3d ea 15 58 ba
       0.0016632981 -0.0037346943 0.07321666 -0.00082430115
0001e0 32 d1 37 3d 65 44 1d 3d 1c 4b 41 3d 9d 4d 54 be
       0.04487724 0.038395304 0.04719077 -0.20732732
0001f0 03 ed 4b 3c ec c2 9a bb 3b 14 59 3d 65 50 cd bd
       0.012446645 -0.0047229435 0.05299781 -0.100251
000200 e3 f5 03 3d e0 da 17 bc e8 9e 03 bc 53 b7 09 bd
       0.032216918 -0.009268492 -0.008033492 -0.033622097
000210 58 97 40 3d 61 d7 b1 be 64 13 06 bc 5d 5d 09 3e
       0.047019333 -0.34734634 -0.008183334 0.13414522
000220 0b 73 0c be 40 78 06 bd 90 41 29 bd f2 35 3d 3d
       -0.1371576 -0.032829523 -0.04132229 0.046194024
000230 4e fd 9c ba c3 e9 d5 be ca c6 47 3e 00 bf a9 bc
       -0.0011977346 -0.4177991 0.19509426 -0.020720959
000240 9c 43 ee 3b 6a 91 86 bc 00 79 88 39 bd 16 75 3d
       0.0072712433 -0.01642676 0.00026030093 0.059836138
000250 74 9d 03 bd 6b 6a 72 be bc bc bc 3c a2 20 89 3d
       -0.03213258 -0.23673408 0.023039214 0.06695677
000260 a8 6c 9c bb 71 03 29 bd c2 e3 0d 3f 03 df 58 bc
       -0.004773695 -0.041263048 0.55425656 -0.013236764
000270 a4 6f 50 3c 4d 8b a3 3d 3d e3 2c 3f a0 59 22 3d
       0.01272193 0.07985554 0.6753424 0.039636254
000280 4d 8d fd 3c 06 94 4f 3d 31 67 96 bd c2 7a 9f 3e
       0.030951167 0.050678276 -0.07343901 0.31148344
000290 55 33 55 3e c4 36 d9 3c 18 d5 a5 be 0f 24 0d 3f
       0.20820363 0.026515372 -0.3238914 0.55133146
0002a0 31 ca 25 3d 8f de e8 3e 51 69 b3 3c e9 d5 b8 3e
       0.040476028 0.454823 0.021900805 0.361007
0002b0 22 b4 4e 3d fe 4c 08 3f ce 75 4f 3d 94 7a 04 3a
       0.050464757 0.5324248 0.050649457 0.0005053666
0002c0 9f a4 3f bd 8e 63 b6 be 77 81 db be bd f0 21 3e
       -0.046787854 -0.3562283 -0.4287221 0.1581449
0002d0 8e 12 44 3d a2 ef 31 3d 55 ac 66 be 1e 25 a2 3d
       0.047869258 0.043441422 -0.22526677 0.07917236
0002e0 af 2b a5 3d 8b c0 4c 3c 7f 51 25 3e 09 5d fc 3e
       0.080649726 0.012497078 0.1614437 0.4928973
0002f0 38 a5 14 3c 3e 1a 12 3f 99 c0 21 bd 25 89 a3 be
       0.009072594 0.5707129 -0.039490316 -0.3194057
000300 89 b1 0c bd cb 58 c1 be ad 77 a6 bc 0e 24 d8 bc
       -0.034349 -0.37763056 -0.020320738 -0.02638438
000310 4f 0a 1b 3e 70 73 da bc d6 d2 a5 3c 88 9d 10 3c
       0.15140651 -0.026666373 0.020242136 0.008826621
000320 34 5e d4 3d e4 fa 15 be 22 62 84 bd 62 83 18 3c
       0.1036953 -0.14646488 -0.0646403 0.009308668
000330 4d 43 3a be 41 2e 48 bb c1 be bf bd b3 6b 70 be
       -0.18189736 -0.0030545148 -0.09362555 -0.23478584
000340 2b 6b 38 bd 30 80 8c 3c 7a ee 0b bf 2f 1a d3 3d
       -0.04502408 0.017150968 -0.5466076 0.103077285
000350 7b 78 b1 3d a8 f8 88 3e 6f af 94 be ec ba 29 3c
       0.08665558 0.2675221 -0.29040095 0.010359507
000360 98 e2 b9 3b bb 4e 2c 3d 5c 3c 61 3c f4 b8 60 bc
       0.005672764 0.04206727 0.013747301 -0.013715971
000370 d0 58 60 3c ef d8 27 3e e9 8a 1e 3e 86 c2 9c bc
       0.01369305 0.16391347 0.15482678 -0.019135725
000380 58 4d 32 bd 30 ae 45 bc a9 ac 36 3e 7a 55 1f bd
       -0.043530792 -0.012065455 0.17839302 -0.038899876
000390 f1 bc 96 3c f1 27 c0 be e6 c5 f1 bc f6 e5 3f bd
       0.018400641 -0.37530473 -0.02951331 -0.046850167
0003a0 e0 3e 92 bd 27 72 0f 3f 2d 57 46 3d 06 19 5a 3e
       -0.07140899 0.5603356 0.04842298 0.21298608
0003b0 5a 3d 6b bd 42 8c 0a 3f b2 9d 2c 3d 20 74 12 3f
       -0.057431556 0.54120266 0.042142577 0.5720844
0003c0 11 9e e4 3e 4b ed db be 12 c0 57 3e 7c d6 10 3d
       0.44651845 -0.42954478 0.21069363 0.0353608
0003d0 4d e9 5a 3d bd 69 47 bd 81 c3 4f bc 86 af f6 bd
       0.05344515 -0.048684824 -0.012680889 -0.12045197
0003e0 0d 53 39 bd 33 9e 9f be 1a 3c 58 bd 81 22 43 be
       -0.04524522 -0.31175384 -0.052791692 -0.19056131
0003f0 ce 47 dd bb 57 61 a8 bc f1 8e 80 3e 0d 7b d3 3d
       -0.0067529446 -0.020554228 0.25109056 0.103262044

critic.weight f4 [1, 256]
000000 a8 69 01 bd ad bd 08 bd 8f 29 99 be 4f 64 31 3d
       -0.031594902 -0.033384014 -0.2991452 0.043308552
000010 a7 b4 51 3c 1f 48 41 3b 77 2d a8 bc b1 0c 09 3d
       0.0127994185 0.002949245 -0.020529492 0.03345937
000020 6b b0 3e bc 7c 2a 94 3d 42 af 81 bc ee da c5 bc
       -0.011638741 0.07234666 -0.01583064 -0.024152245
000030 da 6d 38 3c 0f 92 88 bc 2a d1 84 3d 29 d5 9a bb
       0.011256659 -0.016671209 0.064852074 -0.0047251177
000040 f8 5a 0e 3c da ea 79 bd 78 0f 9f 3d ef 22 0f bb
       0.008688681 -0.061014988 0.07766622 -0.002184089
000050 ad 4d 54 3d 56 59 9f 3b b6 09 c0 bc 52 aa 0e bd
       0.05183189 0.0048629446 -0.02344213 -0.0348304
000060 14 2f 8d 3b 68 c4 2e bc e2 10 28 3d 17 78 e2 bc
       0.0043085907 -0.010666944 0.041031726 -0.027645154
000070 2d 3e ad bd d8 71 8c 3d 94 63 7e bc 0f 28 52 3b
       -0.08459125 0.068576515 -0.015526671 0.0032067334
000080 90 c2 2f 3c 21 39 de 3d 6e eb 12 bc ad 12 b2 bb
       0.01072754 0.1085074 -0.008967264 -0.0054343552
000090 4c 5a 22 3c df 83 64 be 78 a5 2f 3c 6a e3 7c 3d
       0.009909224 -0.2231593 0.010720603 0.061740316
0000a0 3b 40 66 bd b4 74 1f bc 80 69 d9 3b ee 7f 1d 3c
       -0.0562136 -0.009732414 0.006634891 0.00961302
0000b0 6e a7 80 3c 8b b9 b1 bb 2a 78 68 3d 27 40 1b bc
       0.015704837 -0.00542373 0.056755222 -0.009475744
0000c0 a8 18 ad bb 2e 2e 00 be 6c 95 57 3c 1e 89 09 3d
       -0.0052824803 -0.12517616 0.013158184 0.03357803
0000d0 e9 fd 70 3b 37 4b 7a bd 80 fa 06 3c 0f ba 4f bc
       0.0036772436 -0.061106887 0.008238435 -0.012678637
0000e0 ab 8d 1e 3a b6 d4 1a 3c 8f 7a 3e 3b 2e ab ab bc
       0.0006048332 0.009450128 0.002906475 -0.020955648
0000f0 11 13 83 bc b2 f9 3c 3d 7d a7 b2 3c 96 88 df bb
       -0.016000303 0.046136566 0.02180838 -0.0068217022
000100 be e4 03 3e 9a 18 21 3e 8d e8 c0 bb df 87 f8 3b
       0.12880227 0.15732041 -0.005887097 0.0075845565
000110 a2 09 bb bc 44 f4 0e 3c 87 b0 02 3e cd 9d 80 bc
       -0.022831742 0.00872523 0.12762652 -0.015700245
000120 65 f3 0e 3c b3 4b c5 bc c4 6a 5d 3d 9c ac 0d 3c
       0.008725022 -0.024083948 0.054056898 0.00864711
000130 81 9c df bc c1 c0 e3 bd f4 21 cc bc a2 07 c0 3d
       -0.027296307 -0.11120749 -0.024918534 0.09376456
000140 dd 53 42 3c 1e fd 06 3d 4d 3e b2 3d 6f 90 7f bc
       0.011860815 0.032956235 0.08703289 -0.0155984005
000150 df 86 5c 3d 42 0d a0 bd 3a 70 de bb d6 bd 4e 3d
       0.05383956 -0.07815029 -0.006788281 0.05047401
000160 b8 bd f4 bb 50 20 02 be 90 62 68 38 59 b6 d2 3d
       -0.0074689053 -0.12707639 5.5404904e-05 0.10288686
000170 27 c6 2d 3d 94 1f cf bd a5 b5 a2 ba f6 a7 0f 3c
       0.0424253 -0.10113445 -0.0012413753 0.008768072
000180 ab 64 0a 3c ff b0 46 3d 60 5e 0e 3d 04 88 46 3d
       0.008446853 0.04850864 0.03475797 0.04846956
000190 e3 77 cd bb ee f7 ad bc 0c 2a eb bc 8f a1 1b bd
       -0.006270395 -0.021236386 -0.028706573 -0.03799587
0001a0 b4 99 8b 3d 43 27 1f 3d 0f a6 84 be 9e 66 3c bd
       0.06816426 0.038855802 -0.25907943 -0.0459963
0001b0 43 2f 39 3d 64 04 61 bd a9 3f 30 3d 1e 7a bd b8
       0.045211088 -0.054935828 0.04302946 -9.0349684e-05
0001c0 39 dc a2 bc f6 63 1e bd 30 ae af bc 04 c9 e7 3b
       -0.019880401 -0.03866955 -0.021445364 0.0070735235
0001d0 92 5b a6 3c 07 5a 18 bd 3e d1 a8 3d e8 4f 02 bd
       0.020307336 -0.03719523 0.08243035 -0.031814486
0001e0 c2 ab eb bc c3 54 32 3d 50 c1 fa 3c 92 26 8b 3a
       -0.028768424 0.043537866 0.030609757 0.0010616353
0001f0 b6 34 89 3c 31 07 d4 bc 8b 6a 6f bc dc 42 da 3c
       0.016748767 -0.025882335 -0.014612804 0.02664321
000200 e3 54 02 3c 36 0c 2b 3d 19 94 8f 3c 13 db 34 3b
       0.007954809 0.041759692 0.017526673 0.0027596399
000210 ee 14 59 3d ff 5d 84 bc e3 58 03 3d bf 28 a2 3d
       0.052998476 -0.016158102 0.03206719 0.07917928
000220 bb 51 22 bc f8 92 18 be e4 a0 8e bc c8 3b c4 bc
       -0.009907181 -0.14899814 -0.017410703 -0.023954287
000230 f0 8c 00 bb 85 40 d8 ba 03 bf 6e 3d 73 92 42 3d
       -0.0019615255 -0.001649872 0.05828763 0.047502946
000240 5a 3a c3 bc 73 6b c5 3b 56 4e 1a bd 34 4d 35 3d
       -0.023831535 0.006024772 -0.037672363 0.04426308
000250 b1 fe 8d ba cb 1e 51 3d aa da a2 3a da ba da bd
       -0.001083335 0.051054757 0.0012424786 -0.1068017
000260 a3 dc 90 3b 64 dc c1 3b 02 7d 80 3b 38 38 c0 3d
       0.004420833 0.005916165 0.003921152 0.09385723
000270 4c 18 1d 3d 67 19 2c 3c cd 98 e6 3b 31 fc 4a 3d
       0.03835325 0.010504103 0.0070372582 0.049556915
000280 74 b7 c1 bc ee 20 3f 3d b9 54 f5 3d 97 73 a0 3b
       -0.023647048 0.046662264 0.1197905 0.004896592
000290 ba b3 5d 3d 38 1f 44 3d 71 5a d7 bb a1 cc 2c 3c
       0.05412648 0.047881335 -0.0065720608 0.010546834
0002a0 bc 61 62 be e5 b9 c8 3d a5 46 09 bd 82 4f a5 3d
       -0.22107595 0.098010816 -0.033514638 0.080718055
0002b0 f9 dd 68 3d e8 91 d0 3c 80 24 49 3c 2d 24 54 3c
       0.056852315 0.025460199 0.012276769 0.012948078
0002c0 ad 3d 01 bc be 7c 42 3c 3e e0 40 3c 05 96 8f bd
       -0.00788824 0.011870561 0.0117722135 -0.07011036
0002d0 08 4d c5 3c 15 98 c9 bb 94 cc 47 bd 0f a1 25 bc
       0.024084583 -0.006152163 -0.048779085 -0.0101092
0002e0 3e a8 21 be 49 84 40 3d 2c 28 05 ba 62 b0 d6 3b
       -0.15786836 0.047001157 -0.00050795334 0.006551788
0002f0 48 2f f2 3c 7d ab 1c 3c 9c 30 86 bc 17 1a 3a 3b
       0.029563561 0.00956237 -0.0163806 0.0028396898
000300 3a 8f 88 bc 63 38 20 3b 39 fe 85 bd 99 3a 21 3d
       -0.016669858 0.0024447672 -0.0654263 0.039362524
000310 2f 4d 9c 3d 96 31 70 3d dd f4 07 bd 14 33 21 bd
       0.07631909 0.05864104 -0.033192504 -0.039355353
000320 72 6d b2 3d 95 ee a6 3d 22 2e 6d 3b 0a aa 6f bc
       0.08712281 0.08150975 0.0036190827 -0.014627943
000330 f3 db a7 3e 75 f8 8d bb 2f c7 5c be ba 32 08 bd
       0.32784995 -0.004332597 -0.21560358 -0.0332515
000340 1f 24 3c bd 5a c3 ba 3d 70 a8 4e 3c 22 89 84 be
       -0.045932885 0.091192916 0.012613401 -0.25885874
000350 69 6d 81 3c 27 a4 68 be 01 db 95 bd 9e f8 ff ba
       0.015799241 -0.22718869 -0.07317162 -0.001952905
000360 5e b8 99 3c ff 29 22 3d 2c 7a 36 bd fe 60 5c bd
       0.018764671 0.03959083 -0.044550106 -0.053803436
000370 0b 93 f3 3c 06 dc e0 3c 93 4c 84 3d e6 31 f2 3c
       0.029733201 0.027448665 0.06459918 0.029564809
000380 e4 f4 f6 bb ac a1 49 3d f9 f9 cc 3c 67 12 cd bb
       -0.0075365175 0.049226448 0.02502154 -0.0062582972
000390 d7 e8 14 bc 02 6d 62 bc 83 67 67 bb 6d 87 9e 39
       -0.0090887165 -0.013819935 -0.00353095 0.00030237008
0003a0 25 a3 a4 bc 1e d2 61 3c 07 3b 7a 3c e8 98 fb 3c
       -0.020097325 0.013783006 0.015272862 0.03071256
0003b0 3a b2 a5 bc 54 f8 35 3d ef 42 2c bd 7d 3e 85 3c
       -0.020226587 0.044426277 -0.04205602 0.016265148
0003c0 69 2f 98 3b 27 98 07 bc a9 c8 db 3c 30 39 36 bc
       0.0046443236 -0.008276022 0.02682908 -0.011122033
0003d0 12 42 4f bd 9d 17 64 bc 02 f2 3e bc f1 cd b3 3d
       -0.05060012 -0.0139216455 -0.011654379 0.087795146
0003e0 45 42 ef bc c9 bd 99 bd 7c ae 0c bd bb 64 49 3b
       -0.029206404 -0.07506902 -0.03434609 0.0030730206
0003f0 60 58 24 bc 5a 60 12 3d b0 97 db bc 7d 5a 85 3d
       -0.010030836 0.03573642 -0.026805729 0.065114
