models1/ppo_1550.pth (torch, 275660 bytes, 6 tensors)

net.0.weight f4 [256, 6]
000000 b8 7b c8 be a9 3e d0 be c1 6c f5 3d 53 dc ad 3e
       -0.3915689 -0.40672806 0.11983634 0.33957157
000010 4d d1 f7 3b 60 7b c5 be b3 cd 52 bd 8a aa 70 bc
       0.0075627924 -0.3857069 -0.0514657 -0.014689097
000020 b1 d6 e8 3e f6 3f c6 be f8 97 b2 bd ec d5 e4 3e
       0.45476297 -0.38720673 -0.08720392 0.4469446
000030 ad 9d 87 bd 87 f2 fe 3e 5c fe 25 3c 98 bc e1 be
       -0.06621871 0.4979441 0.010131445 -0.44089198
000040 e8 aa 55 be 28 1c b5 bd 6e bb a2 be 5a 5a 7a 3e
       -0.20865977 -0.08843261 -0.31783623 0.24448529
000050 fa 0c 1c 3e a3 7e 5f bd fe 1f 8c 3c 13 8d a3 3e
       0.15239325 -0.05456413 0.017105099 0.3194357
000060 58 7d 7b 3e b8 c2 06 be 1b 9e f7 be 21 05 92 3e
       0.24559534 -0.13160217 -0.48362812 0.28519538
000070 ec 02 40 3e b7 1b 47 be 79 d0 e6 3d 4c f5 91 bd
       0.18751115 -0.19444166 0.11270232 -0.07126865
000080 56 81 bb 3e af 59 76 3b 1d 81 95 be 59 ea 54 3e
       0.36622113 0.0037590077 -0.29200068 0.20792522
000090 dd ce 8d bc 0e 2c e8 3d 57 28 e3 3e 3a 17 5e 3e
       -0.017310554 0.11336528 0.44366714 0.21688548
0000a0 44 0a ce 3d 57 b5 b3 be 25 31 bb be fc 3a c4 be
       0.10060552 -0.3509929 -0.36560932 -0.38326252
0000b0 c6 95 68 bc 83 65 18 3e 78 52 24 bd b9 ac 75 3e
       -0.014195865 0.14882474 -0.04011771 0.2399167
0000c0 d8 95 66 be 4b 53 83 be ce 6a 9f 3e 8b bb a0 bd
       -0.22518098 -0.25649485 0.31136173 -0.07848271
0000d0 10 c1 54 3e 23 e6 93 be 13 07 31 3e 31 d3 48 3e
       0.20776772 -0.28886518 0.17287855 0.19611813
0000e0 87 9c e6 3e 8b b6 0c bf a9 45 35 be bd 87 2b 3e
       0.45041296 -0.5496604 -0.17702354 0.16750999
0000f0 84 66 e0 3d c7 aa 37 be d1 bd 9a bc 6e 94 2c bd
       0.10957053 -0.1793624 -0.01888934 -0.04213374
000100 c6 03 5c be 9f 59 0c be 2a 6c 23 3d 5e 7e 81 be
       -0.21485814 -0.13706063 0.039898075 -0.25291723
000110 db 2f 5a be 50 bd 8b 3e 62 75 d7 bd de 15 ff bd
       -0.21307318 0.2729287 -0.10520436 -0.12455343
000120 24 ba 22 be 8d 40 ae 3d 79 3a 24 be 29 b7 1c 3e
       -0.1589132 0.08508406 -0.1603793 0.15304245
000130 a5 f1 a1 be 25 11 ac be c4 2b 2f bd 1c 0a 95 3d
       -0.31629673 -0.3360683 -0.042766348 0.07277319
000140 ed 1d 5d 3e 2e b7 93 3e 97 3e 22 be 95 f0 e8 be
       0.21593447 0.28850693 -0.15844189 -0.4549605
000150 b9 8b a6 3e 4e 1b 24 3e 12 c7 62 be dd db 17 3d
       0.32528475 0.16026041 -0.22146252 0.037074912
000160 3a 37 99 be b4 86 a0 3e 88 3b 10 3d de d9 bd be
       -0.29924947 0.3135277 0.035213023 -0.37080282
000170 63 2e 9d bd 56 7e b7 be d0 ac 50 be d3 1d c7 bd
       -0.07674863 -0.35838574 -0.20378423 -0.097224854
000180 1b 74 09 3e 6d 21 60 3e 72 64 c1 3e e1 48 13 be
       0.13423197 0.21887751 0.37771946 -0.1438327
000190 d1 f3 92 bc e3 d3 b1 be 3e 6b 19 bf 6f 32 8f be
       -0.017938526 -0.3473197 -0.59929264 -0.27968165
0001a0 87 29 9e bc 98 4e 9e be c5 8e f1 3d 92 ad 82 bd
       -0.019306911 -0.30919337 0.11794809 -0.06380762
0001b0 08 d7 e1 be db b7 80 3e 16 ef 05 bf 31 9e be be
       -0.44109368 0.2514027 -0.5231794 -0.37230065
0001c0 7a 42 dd bd 7f 0a 2b 3e 28 0a 13 3e 16 68 54 3e
       -0.10803695 0.16703223 0.14359343 0.2074283
0001d0 22 59 45 be 39 04 ca 3e cc 16 d4 bd 27 65 79 be
       -0.19272283 0.39456347 -0.10355911 -0.24354993
0001e0 4d 5b aa bd ce 02 ff 3d c9 f4 86 bd 53 cf 93 3e
       -0.083181955 0.12451707 -0.06589658 0.28869113
0001f0 9f d1 7d 3e 75 df b4 3e 3e 41 b0 3e da 32 5d 3e
       0.24786995 0.35326734 0.34424776 0.2160143
000200 9f ee 33 bc 40 c7 99 3d 5d 2e e4 3d ce 15 c1 be
       -0.010982185 0.07508707 0.111416556 -0.37711948
000210 3a 3d ad be 25 dd 86 3d 7c f6 9e 3e 08 6f 06 bf
       -0.33835775 0.06585149 0.31047428 -0.5251317
000220 d7 35 61 bd 1c 3f c4 3e 77 0f 0b 3e b8 d7 16 be
       -0.054982986 0.383294 0.13580118 -0.14730728
000230 96 56 08 be 70 ac 39 bd 64 f8 58 3e 01 ed b3 bb
       -0.1331428 -0.045330465 0.21188504 -0.0054908996
000240 67 16 31 be 90 60 40 3e 6e 18 7a bd 8a b7 d0 bc
       -0.17293702 0.18786836 -0.061058454 -0.025478143
000250 a2 69 81 3e 3a ea fc be 34 93 67 be 60 d5 a3 3e
       0.25275904 -0.4939745 -0.22614747 0.3199873
000260 10 4b d6 be bb 04 1e 3f 07 59 90 3d fe eb 71 be
       -0.41854143 0.6172597 0.070482306 -0.2362518
000270 e1 b3 1f 3e 44 b8 33 3d e0 c5 60 be a7 b2 38 3e
       0.15595962 0.0438769 -0.21950483 0.180369
000280 5e 9d c6 3d af e7 52 be c8 3f ae 3d 31 05 c2 bd
       0.09697984 -0.20596193 0.08508259 -0.094736464
000290 f1 b4 16 3f b2 0e 0e bf 89 ce 61 3d 61 1d b0 be
       0.58869845 -0.55491173 0.055128608 -0.34397414
0002a0 68 02 96 3e c4 d0 ce be 0d 5e 00 3e 3c de 92 3e
       0.2929871 -0.4039365 0.12535878 0.28685176
0002b0 87 bc 65 bd 52 ea 2c be c8 54 97 be 2d 3f 29 3d
       -0.056087997 -0.16886261 -0.2955687 0.041320015
0002c0 e0 f1 56 3e 34 87 a0 be e5 62 51 be d6 e9 ec ba
       0.20990705 -0.31353152 -0.20447882 -0.001807506
0002d0 34 fc f0 bd 7e d6 74 be 34 54 c0 be 27 f2 c1 3e
       -0.11766854 -0.23909947 -0.37564242 0.3788006
0002e0 c8 50 b9 3e a7 85 8a 3e a7 21 5a bd b5 69 94 be
       0.36194444 0.27055094 -0.05325475 -0.28986898
0002f0 d4 80 0b bf 03 68 8e 3e c9 5e 70 3d 76 23 0c be
       -0.5449345 0.2781373 0.058684144 -0.13685402
000300 03 2b 4d be 4a 42 84 bd 82 52 64 be 01 c3 b2 3e
       -0.20035939 -0.06457956 -0.22297099 0.349144
000310 ae ad ee bd 86 0f 42 3d 3e 64 95 bd ab 60 83 3e
       -0.116542205 0.047378086 -0.0729451 0.2565969
000320 2f 20 b4 bd c9 ca b1 bc dd 03 21 3e ac a8 d6 3d
       -0.08795201 -0.02170314 0.1572413 0.1048139
000330 2f 27 d0 be d3 d3 26 3e bf 7f 84 be 84 a4 b8 3e
       -0.40654895 0.16291742 -0.25878713 0.36063015
000340 32 ad b4 be ed 3a d3 3d 63 66 c8 be 19 21 2d 3d
       -0.35288388 0.103139736 -0.39140615 0.042267893
000350 2d 49 74 3e 14 49 0b 3e af e2 27 3d ed 36 2c be
       0.2385604 0.13602096 0.040987667 -0.16817828
000360 1b a7 35 3e 54 6f 63 3e a6 e9 63 3e 22 49 fc be
       0.17739527 0.22210437 0.22257099 -0.49274546
000370 42 c7 52 be a1 0b a4 be dc 6d 74 be 40 9b 44 be
       -0.20583823 -0.32040122 -0.23870033 -0.19199848
000380 41 01 e0 3e cf 19 67 be 0b 63 2e be 1c 57 48 be
       0.43750957 -0.22568439 -0.1702997 -0.1956448
000390 ad 7e a3 bd b4 92 23 3e e1 af c0 be 69 ed 9b 3e
       -0.07983146 0.15973932 -0.37634185 0.30454567
0003a0 2a 04 38 be 59 30 57 bd 33 7e 2d bd 31 4f 8a 3d
       -0.17970338 -0.052536342 -0.04235668 0.06753386
0003b0 75 47 54 bd d6 6a 95 3d ef a9 91 be 4d 73 f2 3e
       -0.05182596 0.07295768 -0.28449962 0.47353593
0003c0 c8 41 6c 3e f8 01 c5 be fe 46 58 bd ff 00 72 be
       0.23071969 -0.38478065 -0.05280208 -0.23633192
0003d0 fc 47 14 3e 71 72 c9 be 8a be 07 bf 39 1f 11 bf
       0.14480585 -0.39345124 -0.53025115 -0.56688267
0003e0 6f 08 6c bb e0 4d 1d 3e 26 64 0e 3e 08 17 a6 bd
       -0.003601577 0.15361738 0.13905391 -0.081098616
0003f0 dc c2 98 3e ff ec 9c be 2b 76 60 3e 2f f2 0e bf
       0.29836166 -0.30649564 0.21920078 -0.5583829

net.0.bias f4 [256]
000000 0e a7 a5 be 89 57 9b 3c 76 49 9b be fa 3b d8 be
       -0.32354015 0.018962638 -0.30329484 -0.42233258
000010 90 8d d5 3e e2 25 df be e5 fd c6 be 43 5c c3 be
       0.41709566 -0.4358359 -0.3886558 -0.38156328
000020 a1 15 a5 3d 7d 29 15 3b 01 83 15 3e b1 da 65 be
       0.08060766 0.0022760325 0.14600755 -0.22446705
000030 a1 15 e7 bd 35 72 29 be 07 15 d8 be 86 d5 c6 3d
       -0.11283422 -0.16547473 -0.42203543 0.09708695
000040 04 80 b7 3e 17 96 ef bc d2 dd da bd 7b 92 ad 3e
       0.35839856 -0.029246373 -0.1068684 0.33900818
000050 43 50 92 be 76 e9 8c be 75 1a 10 3d bd 3c 9c 3e
       -0.2857686 -0.27521867 0.03518148 0.3051509
000060 3d 54 ab 3e f7 77 28 3e 52 50 62 3e 08 79 60 3e
       0.33462706 0.16452013 0.22100952 0.2192117
000070 24 ed 53 3d c6 ee 9c bd f6 99 a3 3e 1c 58 42 3e
       0.051739827 -0.0766273 0.319534 0.18978924
000080 66 76 fb 3d 89 39 a7 be 60 11 46 be 79 0f 65 bd
       0.12278442 -0.32661083 -0.19342566 -0.05592296
000090 9f 5e d5 be e8 92 d3 3e 91 46 38 3e d7 7b a2 be
       -0.41673753 0.41323018 0.17995669 -0.31735107
0000a0 05 a6 5a be 57 df 06 be b9 8a 45 3e a1 48 9a be
       -0.21352394 -0.13171135 0.192912 -0.30133536
0000b0 cd 9a 29 be e4 58 7d 3e a5 48 23 3e 96 4f 03 bf
       -0.16562958 0.2474094 0.1594568 -0.51293314
0000c0 25 a5 2a 3d e7 d3 79 3e 62 f2 ae be 90 29 2b 3e
       0.0416614 0.2439724 -0.34169298 0.16715074
0000d0 8f 3a e2 bd e5 ad 05 be 69 8b 8e be 91 35 66 3e
       -0.110463254 -0.13054617 -0.27840737 0.22481371
0000e0 c7 72 9a be 82 f2 0c 3e 84 e1 51 3d 71 55 0d be
       -0.30165693 0.13764384 0.05124046 -0.13802125
0000f0 05 34 a7 bd 20 b6 61 3e 53 b4 0a be 4e ba 2b 3d
       -0.08164219 0.22042131 -0.1354535 0.04192572
000100 c4 80 8f 3e d9 84 02 3e a8 d1 3a be 93 94 6e 3e
       0.28027928 0.1274599 -0.1824404 0.23298864
000110 7a eb 58 3e 46 0d 87 3e 27 04 25 3e b9 29 a0 3d
       0.21183577 0.26377314 0.16114865 0.07820458
000120 ef 4b 8b 3e ad 07 e1 be 3a 47 b9 be 1b e0 6a bb
       0.2720637 -0.4395117 -0.36187154 -0.0035839144
000130 7f 46 7e 3e c9 bc c3 be bc cb 66 3e b1 fb 38 bc
       0.2483158 -0.3822997 0.22538656 -0.011290477
000140 60 57 16 be c6 46 82 bd 33 ca ba bd 49 67 c2 3b
       -0.14681768 -0.06361155 -0.09120598 0.0059327227
000150 a3 73 6a be 7f cf 93 3d 66 97 82 3e 42 12 b5 3e
       -0.22895674 0.07217311 0.25506133 0.35365492
000160 47 fd f8 ba 85 b7 8b 3e bf 0c 87 bd b3 02 e6 3d
       -0.0018996381 0.27288452 -0.06594228 0.112309836
000170 2b 4f 5a 3e 9e a6 9b 3d 4c 5b 2d 3e 23 dd 93 3e
       0.21319263 0.07600139 0.16929358 0.2887965
000180 f6 88 cc be 33 6c 97 be fb 74 a2 be 17 a5 69 3d
       -0.39948243 -0.29574737 -0.31729874 0.057042208
000190 e6 05 0d be a3 ec 5e be 46 ed 40 3e 52 36 61 3e
       -0.13771781 -0.21769957 0.18840513 0.21993378
0001a0 b0 2a c0 3d 51 2e 82 be 8d 29 27 3d 91 14 0c 3e
       0.09383142 -0.25425962 0.04081111 0.1367972
0001b0 bd 9e a3 be b2 55 f4 3d 3c a5 01 3e 0e 03 a6 3e
       -0.31957045 0.119304076 0.12660688 0.32424206
0001c0 cf 2e a4 3e 43 fc 36 be 9c eb 38 be 72 cf c2 be
       0.32066962 -0.17869668 -0.18058628 -0.38048893
0001d0 3f 26 13 be 3d 44 b2 be 05 7a be 3e b3 53 d6 be
       -0.14370058 -0.34817687 0.3720247 -0.41860732
0001e0 89 d2 a2 be e8 aa da bd 34 18 04 bd 2b fb 0d 3e
       -0.3180125 -0.10677129 -0.032249644 0.13865344
0001f0 ac 74 b1 3e af f0 6f be 06 76 a3 3e 46 b9 01 bf
       0.34659326 -0.23431657 0.31925982 -0.5067333
000200 ed 74 a8 3e 89 33 48 be b3 99 69 be a2 2c 2a 3d
       0.32901707 -0.19550909 -0.22812538 0.04154647
000210 73 0a 70 3e 77 06 ae be 80 d9 ac bd b2 9c 34 3e
       0.23441486 -0.33989307 -0.08439922 0.176379
000220 53 8d 50 3d 68 b5 f7 3d c8 ca 88 bd 01 c4 64 3e
       0.050916027 0.12095147 -0.066793025 0.22340395
000230 2f 18 c7 3e a3 88 b3 3e cd 40 a6 3d 55 e9 16 bd
       0.38885638 0.35065183 0.081178285 -0.036843617
000240 cc 9d bc 3e 78 ae af 3e fb b4 ae be dc 3e 0c be
       0.3683914 0.34312797 -0.34122452 -0.13695854
000250 1a 4c 91 3e 96 0e 51 3e eb 45 04 be 7f c8 9f be
       0.28378373 0.2041572 -0.12917297 -0.31207654
000260 bd 73 1d be b4 4a 92 3e 7d 98 61 3e a6 35 83 be
       -0.15376182 0.2857262 0.22030826 -0.25626868
000270 7f 87 65 be c7 ca 24 3d 58 29 8c be cd 8e 0c 3e
       -0.22414969 0.040232446 -0.27375293 0.13726349
000280 b5 05 b7 be 48 4e 41 be 7f 8d 07 be db 21 88 3e
       -0.35746542 -0.18877518 -0.1323757 0.2658833
000290 c4 6c de 3b f1 8d e7 be 2d 79 b8 3e ba ac b3 3e
       0.006787868 -0.4522548 0.3602995 0.35092717
0002a0 cb 28 c7 3e f6 2d ad be 5b 59 b7 be bd 39 b8 be
       0.3889831 -0.33824128 -0.3581036 -0.3598155
0002b0 80 ac 88 be 2f 4c 9f be 24 7c cd bd 29 d2 c3 3e
       -0.26694107 -0.3111281 -0.100334436 0.38246277
0002c0 48 fd 4c 3e 47 60 17 be 32 98 a2 3e c5 20 08 bc
       0.20018494 -0.1478282 0.3175674 -0.008308594
0002d0 81 73 a8 be d9 16 53 be 74 93 ce be 69 d4 29 be
       -0.32900622 -0.20614184 -0.40346873 -0.16584934
0002e0 b5 f6 f4 be f0 75 40 3e 56 ef a9 3e 64 42 e6 bd
       -0.47844473 0.1879499 0.3319041 -0.11243132
0002f0 96 58 8a bd 25 27 a6 be 96 3c ba 3e a7 19 88 3d
       -0.06755178 -0.3245174 0.36374348 0.06645518
000300 25 f2 e2 3c 7c 30 c6 3e 3e 2e 53 be a1 bc 80 be
       0.027703354 0.38708866 -0.20623109 -0.25143912
000310 f2 47 1e be ba 30 08 bc 93 23 c7 bd 54 d9 a0 be
       -0.15457132 -0.008312399 -0.09723582 -0.31415808
000320 e1 37 47 3d 97 74 21 3e b3 81 b3 3e 72 f4 a7 3c
       0.048637275 0.15767132 0.3505989 0.020502303
000330 9b f4 71 3e 05 9e 85 bd 66 98 58 3e bd 70 66 bc
       0.23628466 -0.065242805 0.21151885 -0.014064965
000340 01 a7 b4 3e b5 cc 5a 3e 4b b6 8d 3c f7 bc fa 3d
       0.35283664 0.21367152 0.017298838 0.122430734
000350 fa d7 af 3e 2c 93 f4 be 6f 96 a5 3a fa 87 1a be
       0.34344465 -0.47768533 0.0012633334 -0.15090933
000360 80 64 1d be e1 31 1f bc f3 44 df be 26 d0 b2 3e
       -0.15370369 -0.009716482 -0.43607292 0.3492443
000370 6d 40 9a 3d 90 03 cc be 44 b8 0d 3e 17 c4 6a be
       0.075318195 -0.39846468 0.13839823 -0.22926365
000380 64 e4 ad be 06 57 47 3e bd 44 73 bd 4e 9e 5e 3e
       -0.3396331 0.1946679 -0.059391726 0.21740076
000390 dc 0f 59 3e d3 7a 43 be d7 fc 8e bd 4e 15 cf 3d
       0.21197456 -0.19089822 -0.06981819 0.101114854
0003a0 d0 ee 94 bd c2 76 a7 bd 8c a9 f3 be 1b e4 ee bd
       -0.07272112 -0.08176948 -0.47590292 -0.116646014
0003b0 0e cc a6 3e e9 62 84 be ff 47 d1 3e 56 7f 91 3e
       0.32577556 -0.25856712 0.4087524 0.28417462
0003c0 ea d3 7a bd 8d 4b 67 3e 7b 2a b6 3d a8 db 13 be
       -0.061237253 0.22587414 0.08894821 -0.14439261
0003d0 a6 15 44 3e 97 14 37 be 20 e5 3f be 58 38 84 3e
       0.19148883 -0.17878948 -0.18739748 0.25824237
0003e0 87 72 0a be 97 4e a6 3e c7 b8 cf be 21 75 29 bd
       -0.13520251 0.32481834 -0.4057066 -0.04137147
0003f0 6b 10 15 bc b2 e3 fc bc be 31 5b bd 79 7c 9e bd
       -0.009098153 -0.030870292 -0.053514235 -0.07738585

net.2.weight f4 [256, 256]
000000 b6 ec 5e bd 07 1d fc b8 b2 5d 71 bd 7c 76 ff bc
       -0.054424964 -0.00012021703 -0.058927245 -0.031184427
000010 70 a9 02 3d 03 ed 7a bc 72 f8 09 3c 59 e8 f2 bb
       0.03189987 -0.015315297 0.00842105 -0.007412952
000020 41 8e 65 ba 39 d9 8e 3c 16 c5 30 bd 78 0c c5 3c
       -0.0008756854 0.017437564 -0.043156706 0.024053797
000030 7c 00 70 bb 3c 73 57 bd 20 e0 52 3d 28 46 06 3d
       -0.0036621382 -0.05260013 0.051483274 0.03278175
000040 d6 66 45 3d 18 dd 08 bd 70 4a c4 3c a3 ae 24 bd
       0.048193775 -0.033413976 0.023961276 -0.04020561
000050 04 cb 22 bd 30 b5 d0 bc 5f aa c6 3c 71 0c c4 bc
       -0.039744392 -0.025477022 0.024251161 -0.023931714
000060 d6 70 ab bc 3e b7 4c bc 9d 2e 4d bd 45 2c 0e 3d
       -0.020927828 -0.01249486 -0.050093282 0.034710187
000070 45 0f 44 bd e3 74 17 3d 56 0b 06 bd 3a 38 29 bc
       -0.047866125 0.036976706 -0.032725655 -0.010328347
000080 89 5b 37 bd 40 bb 8a ba ec 4e 24 3d 51 6b 64 bd
       -0.04476503 -0.0010584369 0.04011433 -0.055766407
000090 bd ab 51 bd cb 14 43 3d 51 02 4d bd 54 f2 92 3a
       -0.051189173 0.04762725 -0.050051037 0.0011211135
0000a0 f0 0a c3 bc d5 3d d5 3c 56 44 74 3b de 3e f9 3a
       -0.023808926 0.02603046 0.0037272177 0.0019015928
0000b0 71 fa 26 bd 09 ea 3c 3d a5 3e 4c 3d 10 c8 70 3c
       -0.040766183 0.04612163 0.04986443 0.014696136
0000c0 a8 62 f2 bc 38 63 a3 3c cc 08 60 3d 26 4d 08 3d
       -0.029588059 0.019944772 0.05469589 0.0332767
0000d0 29 a8 e7 bc 12 bd 6d 3d 42 69 49 3d ee 1a 82 3c
       -0.028278427 0.05804164 0.049172647 0.015881982
0000e0 17 f8 a5 3b 6f de 1a 3c 80 2b 1b 3b d8 b4 ae 3c
       0.005064975 0.009452446 0.002367705 0.021326467
0000f0 ac aa 72 3d e7 3b 40 3a ae ce 8a 3c 9d 77 48 3d
       0.059244797 0.0007333145 0.016944256 0.048942197
000100 cc be 09 3d 1b 84 46 3c 30 d1 bd bc 7f 59 39 bd
       0.033629224 0.012116457 -0.023171037 -0.045251366
000110 a6 70 0c bd 2b e2 03 bd 97 ce 6d 3c 18 09 79 bc
       -0.034287117 -0.032198112 0.014514587 -0.015199922
000120 75 82 5e bd a6 82 3d 3d 00 a4 8a bb e4 3a 37 3d
       -0.054323632 0.046267174 -0.004230976 0.044733897
000130 ae 30 61 bd 8d d0 02 3a 54 56 94 3c b0 11 31 3d
       -0.054978065 0.0004990183 0.01810757 0.04322976
000140 05 4f 9a 3c 63 b1 79 3c 32 bc 91 bc 2a c3 d1 3c
       0.018836508 0.015240046 -0.017789934 0.025605757
000150 19 78 3c bc 8b 1b a2 bc 25 3f 34 3d 65 0e de 3c
       -0.011503243 -0.019788524 0.04400553 0.027106473
000160 f1 7d 40 bc 71 36 42 bd 6e e9 2c bd f4 50 34 3d
       -0.011748777 -0.0474152 -0.042214803 0.044022515
000170 23 2a f4 bc 0a 75 5d bd 60 ef 86 bd 73 f9 c1 bc
       -0.029805249 -0.054066695 -0.06588626 -0.023678517
000180 4e 20 70 bc 2c 23 50 bd da 8e 2e bd 8b 77 40 bd
       -0.01465614 -0.050814793 -0.042616703 -0.046989005
000190 05 33 8d bd 8a 1f 63 3d 91 e0 63 3d 53 cd 37 bb
       -0.06894497 0.05545 0.055634085 -0.0028045967
0001a0 5b 6a 47 3d 08 af c6 3c c4 4c 79 bc b2 40 07 3d
       0.048685413 0.024253383 -0.015216056 0.033020683
0001b0 bc 9f bd bc e7 f4 82 bd 16 59 bc 3c 02 f3 1c 3d
       -0.023147456 -0.06394368 0.022991698 0.038317688
0001c0 f6 0f 36 bc 88 cb 67 bd fb 31 83 3c cc 52 64 3b
       -0.011112204 -0.056590587 0.016015043 0.003483939
0001d0 b1 23 00 3d 00 c5 66 3b 15 3e 38 3d 84 2f 00 3d
       0.031284038 0.0035212636 0.04498108 0.031295314
0001e0 48 8d 56 bd 50 df 34 bc 89 9a 35 3d a6 f8 2c 3d
       -0.05238083 -0.01103957 0.04433683 0.042229317
0001f0 5c 29 fd 3c 28 68 61 bc 52 87 a6 bc 6c 95 e3 bc
       0.03090351 -0.013757743 -0.020328198 -0.02778121
000200 04 58 64 bb 86 55 44 bc b0 a1 47 bd 60 34 aa bb
       -0.00348425 -0.011983281 -0.04873818 -0.005194232
000210 97 c0 d6 3b 44 b9 2b 3d 60 12 05 bd ea 3d f1 3c
       0.00655372 0.04192473 -0.032488227 0.029448468
000220 b6 8f 3d 3d 20 71 16 bc 06 4e 51 bd d8 d5 40 bd
       0.04627963 -0.009182245 -0.0510998 -0.047078937
000230 6a a0 d5 bc 6d ce 7b bd ff b6 c3 bb 02 06 24 3d
       -0.026077468 -0.06147616 -0.0059727426 0.040044792
000240 a4 c8 03 bd 91 8d 98 bc 94 87 68 3d 28 f3 c2 3c
       -0.032173768 -0.018622192 0.056769922 0.023797587
000250 ba c0 3f 3d 60 79 fd 3c ea d9 c9 bb 2e 9f 2c 3d
       0.046814658 0.030941665 -0.0061600106 0.042143993
000260 12 f2 91 bc c7 b9 40 bd 90 4a 85 bd b4 b5 48 bd
       -0.017815623 -0.04705217 -0.06508362 -0.04900141
000270 68 01 2a bd c8 9b 48 3d 32 fb 21 bd 78 65 87 bd
       -0.041505247 0.04897669 -0.0395462 -0.066111505
000280 88 a8 da 3c 7c 9e a1 bc b3 59 b2 bc 3c 9d 34 bd
       0.02669169 -0.019728892 -0.021771288 -0.044095263
000290 ef ec 87 3c ea a1 8a 3c ae d5 38 bd 42 44 5c 3d
       0.01659247 0.01692291 -0.045125656 0.053776033
0002a0 39 df 38 bd f7 5c 1b 3d 7a a0 70 bd 30 1c 33 3d
       -0.045134757 0.037930455 -0.058746792 0.043728054
0002b0 e5 66 47 bd 24 fe 82 3c 02 f6 20 bd 01 d2 49 bd
       -0.048682112 0.015990324 -0.03929711 -0.04927254
0002c0 5c 10 1e 3d 4e 28 08 3d ae 2e 5d 3d 7c c8 0a 3d
       0.03858982 0.033241563 0.053999595 0.033882603
0002d0 e4 b4 c3 bc a0 df a0 bc 48 3a bb bc 5f 46 78 bd
       -0.023889966 -0.019637883 -0.02285494 -0.060613986
0002e0 f8 17 14 bc 1c 03 ed 3c 87 96 57 3d 38 e4 62 bd
       -0.009038918 0.028932147 0.05263379 -0.055393428
0002f0 ed 1b ae 3c 9e bb 89 bd 50 c9 5b 3c 20 bc 52 3b
       0.02125355 -0.06725238 0.013414696 0.0032155588
000300 60 b5 f7 3c bf 63 eb bb 1c 21 31 3d db 70 08 bd
       0.030237854 -0.0071835215 0.043244466 -0.033310752
000310 36 72 3b 3c 65 21 d3 3c d8 d2 db 3c 64 74 c5 3c
       0.011440804 0.02577276 0.026833937 0.024103351
000320 e7 11 a8 bc f6 ba 51 3d 7f ad 5d bd 91 c8 39 bc
       -0.020516349 0.05120369 -0.054120537 -0.011339323
000330 11 d5 a5 3c 35 60 95 3c 1b c0 db bc c0 f1 48 bc
       0.0202432 0.018234352 -0.026825001 -0.012264669
000340 5c 90 49 3d 03 19 a6 3b 47 16 6b ba ec 48 14 3d
       0.049209937 0.0050688996 -0.0008967858 0.036202356
000350 48 ee 3d bd 7c 34 c3 bc 1c 5e 97 bc c8 de 00 bc
       -0.04636982 -0.023828737 -0.018477492 -0.007865615
000360 ec 36 dd bc a2 eb 22 bd a7 e0 29 3d b1 43 37 bd
       -0.027003728 -0.0397755 0.04147401 -0.04474229
000370 1d b6 4a 3d 23 3f 8d bc 4d 26 7d 3c b6 ac 29 3d
       0.049490083 -0.01724202 0.015451026 0.041424476
000380 88 68 fe 3c 8b 7b 32 3d e3 d9 89 bd 56 b1 73 bd
       0.031055704 0.04357485 -0.06731012 -0.059495293
000390 90 4b 8c bd 1b a7 30 bd 01 39 db 3b b4 b1 7c 3b
       -0.0685035 -0.043128114 0.006690145 0.0038558068
0003a0 9b b4 b3 bc fe 9c 26 bd ad 2a f9 bc 01 96 78 3d
       -0.021936705 -0.040677063 -0.030415857 0.06068993
0003b0 ab f2 6c bd 3c 24 3a 3d ad 5a 60 bd 47 92 38 bd
       -0.057848614 0.045444712 -0.054773975 -0.045061376
0003c0 5a a9 5a bd bc 1c 63 3d c3 63 68 bd 64 ae 32 bd
       -0.053384162 0.055447325 -0.056735765 -0.043623343
0003d0 ee d0 36 bd 5c 41 04 3d 37 8e 25 bd ca 70 4c bd
       -0.044632845 0.032288894 -0.04041883 -0.04991225
0003e0 e2 b8 e0 3c 34 86 99 3c 9c c6 a6 bc 9a e9 1a 3b
       0.027431909 0.01874075 -0.020358376 0.0023637773
0003f0 53 df 19 bc 04 be b1 3c 66 7b 62 bd 74 7e 72 bd
       -0.009391624 0.021697052 -0.055293463 -0.059202626

net.2.bias f4 [256]
000000 51 bb 3a 3c 25 c0 c2 bc 2f 24 bd bd 50 bc 1b 3d
       0.011397199 -0.023773262 -0.09235417 0.038021386
000010 1f 29 d0 3c a0 60 2d bc e4 6b 01 3d d4 c3 91 bd
       0.025410233 -0.010582119 0.031597033 -0.071174294
000020 11 dc c8 bc 6b 4f 4f 3e 9c ee 09 3d 4e 91 75 bd
       -0.024518998 0.2024514 0.03367482 -0.059953026
000030 eb 06 a9 3d 43 a5 0b bd 49 2a 8f 3d 6a 17 83 bd
       0.082532726 -0.034093153 0.06990487 -0.0640095
000040 61 f9 e4 3c 4d d4 b4 3d 50 b8 1b 3e 1a d0 51 bc
       0.027950944 0.08829556 0.15207028 -0.012805963
000050 6a 09 bd 3b e1 45 08 3d 84 48 47 3d 55 98 1f bd
       0.0057689445 0.033269767 0.04865314 -0.038963635
000060 b5 bd 2d bd 1e c9 75 bd 96 53 a2 bc d6 05 82 3c
       -0.042417247 -0.060006253 -0.019815248 0.015871923
000070 84 79 25 be 67 c1 02 bd 82 e1 02 3d a0 4c f5 3d
       -0.16159636 -0.031922724 0.031953342 0.11977506
000080 f8 4b 5b bc 7f 37 41 3e 71 60 d7 3c a9 3d 2b 3d
       -0.013384812 0.18868826 0.026291104 0.04180685
000090 74 e3 c5 3d 9f cd 0d be 2f 76 9a 3d 9a 9a 23 bd
       0.09662524 -0.1384797 0.07542073 -0.03994236
0000a0 cd 8f 31 bc 88 36 f3 3c 72 fa 7a bd 97 42 84 3d
       -0.010837507 0.029689088 -0.061274 0.064580135
0000b0 64 ba d0 bc c4 c7 7e 3d ea 6f bb 3c 09 57 12 3d
       -0.025479503 0.06220223 0.022880513 0.035727534
0000c0 94 04 fc 3d e4 fb 05 3b 7b 06 0d 3d 14 80 2e 3e
       0.12305561 0.0020444328 0.03443001 0.17041045
0000d0 b4 1c 91 3d ae 0e df bc 31 03 53 3d c4 cd 99 b9
       0.07085553 -0.02722868 0.051516715 -0.0002933574
0000e0 9e 5e 1f bd 9e ef 28 bc 40 b1 7f 3d 0c b2 d9 3c
       -0.038908593 -0.010311035 0.0624249 0.026574157
0000f0 f8 c3 78 3d a7 1c 46 bd 66 26 a5 bb 8e d7 62 3d
       0.060733765 -0.04836717 -0.005039978 0.05538135
000100 8b 6d ed 3c 47 81 ba 3d 97 46 00 3d 3f aa 79 bd
       0.028982898 0.09106689 0.03131732 -0.060953375
000110 43 fe 93 bd 9f 1b cf 3c a1 db 30 3d 3d 9a a3 bc
       -0.07226231 0.025281725 0.043178204 -0.019971007
000120 6e 86 0f 3d f1 10 d7 bc 43 34 58 bd 39 c9 de 3c
       0.03504031 -0.026253195 -0.052784216 0.02719556
000130 bc b1 9b bd 28 c4 a1 bd 30 d7 62 bd fe 88 33 bd
       -0.076022595 -0.07898742 -0.055381 -0.043831818
000140 94 9d 60 3c 60 48 2b 3e 7a e8 bb 3d 60 a8 66 bc
       0.013709445 0.16726828 0.09175201 -0.01407823
000150 89 5d 41 bd 4b 99 7b bc 72 22 46 bd 86 8f 35 3d
       -0.047208343 -0.015356372 -0.048372693 0.044326328
000160 d0 29 ce 3c 7d 6d 3d 3b 96 43 1b 3d 31 6b 71 3e
       0.025166422 0.0028904371 0.03790625 0.23576047
000170 41 77 f1 3c 12 a6 f0 bd f9 d3 83 bd 8a 72 13 bc
       0.02947581 -0.117504254 -0.06436915 -0.008999476
000180 c4 2e 06 3d b4 73 84 3d 97 15 89 bc 67 1e 54 3d
       0.032759443 0.06467381 -0.016733928 0.051786806
000190 a2 a4 9f bc 40 45 83 3c b5 44 dd bc 33 36 7c 3c
       -0.019487683 0.016024232 -0.027010301 0.0153937815
0001a0 89 93 ce 3c e0 38 27 3e 2a 4f d6 bd 56 80 5d bd
       0.025216835 0.1633029 -0.10464318 -0.05407747
0001b0 b7 26 97 bc 7c ab 1b bd 7d e8 1c 3d ec d5 5b bd
       -0.018451078 -0.038005337 0.038307656 -0.05367081
0001c0 34 ad 97 bd a5 d0 af 3b 5f 1d cd bb 4d 00 88 3c
       -0.07406083 0.0053654485 -0.006259605 0.016601706
0001d0 05 e8 ec 3b 3b 6b e2 bc 40 81 45 3e 40 73 40 3b
       0.0072298073 -0.027639022 0.19287586 0.002936557
0001e0 a2 3a 5c bd c4 aa c4 3a f2 13 7e 3d 1d 46 73 3d
       -0.053766854 0.0015004505 0.06203074 0.059393037
0001f0 a9 b7 61 3d 40 bc 08 3e 9c a3 8a 3c b7 92 e1 3d
       0.055106793 0.13353062 0.016923718 0.11014312
000200 f0 0e bd 3c d0 9a a0 3c ba 6a 00 3d 26 82 01 3d
       0.023078412 0.01960507 0.031351782 0.03161826
000210 da 2c 05 3d 49 6f 82 bd 8f 13 5d bd 45 77 2a 3e
       0.032513477 -0.06368882 -0.05397373 0.1664706
000220 33 48 c6 3d be c5 8c bd 58 00 57 bc fb 58 85 bd
       0.0968174 -0.06873654 -0.013122641 -0.06511112
000230 ab e1 f8 3c 96 e5 4f bd af b6 2a 3e f6 4b 78 bd
       0.030381044 -0.05075606 0.16671251 -0.060619317
000240 c9 8e c7 bc 5d 98 1c bd f4 5d 4d bd 99 db 87 bd
       -0.024360077 -0.038231242 -0.05013843 -0.06633682
000250 83 1a 29 bd 9d b4 5d bd eb 49 38 3d 88 d0 68 bd
       -0.04128505 -0.054127324 0.04499237 -0.056839496
000260 bc 3c 06 bd 84 60 1c bd 6e 51 b3 3d 48 fc 25 3e
       -0.032772765 -0.038177982 0.08755766 0.16209519
000270 2a 4c 97 bd 58 85 df 3c 37 83 95 3b 94 ed 9d bc
       -0.07387574 0.027285263 0.004562761 -0.019278325
000280 72 b3 4d 3d 64 27 5e 3e f0 47 42 3e 1d 48 94 3d
       0.05021996 0.21694714 0.18972754 0.07240317
000290 fc c4 9f 3d f6 a9 71 bd a1 54 c0 3a 42 72 fd 3c
       0.07801244 -0.058999978 0.0014673659 0.030938271
0002a0 2a a7 55 bd 62 69 ab bd c7 65 ca 3c 51 bb 2b bd
       -0.052161373 -0.083697096 0.024706734 -0.041926686
0002b0 0a dc 12 3e e0 e9 5c 3d 08 51 72 3c 0c 9d 2b 3d
       0.1434175 0.053933978 0.014789827 0.04189782
0002c0 17 f5 8b bd b0 54 74 3c 0d ce 1b 3c 13 bd 3b 3d
       -0.068338566 0.014912769 0.009509576 0.045834612
0002d0 78 78 69 bd dc 69 4e 3c 8c 9f 7f bd f1 8b b6 3c
       -0.056999654 0.012598481 -0.062408015 0.022283526
0002e0 ff 6d 10 bd 04 8a 88 3c 6f c2 27 3e 96 c7 e2 3c
       -0.03526115 0.016667373 0.16382764 0.02768306
0002f0 9a 17 24 bd b4 4b 9c 3c 94 84 f8 3b 5a 50 1f bd
       -0.04006157 0.019079067 0.007584164 -0.03889499
000300 cd 63 50 bd 54 97 1c bd 62 1a 01 3d 00 90 bf 3d
       -0.050876427 -0.038230255 0.0315193 0.09353638
000310 2d 64 5b 3e 9a c9 26 bd 33 14 64 bc 98 84 78 bc
       0.21424933 -0.040719606 -0.0139208315 -0.015168332
000320 e6 61 66 3e f3 f8 25 3e 51 e6 03 3c c8 b8 e5 3c
       0.22498283 0.16208248 0.008050517 0.028042212
000330 2f c8 95 bb b4 7f b9 bc 05 f7 66 bb f7 eb 88 3d
       -0.004570983 -0.022643901 -0.003524245 0.06685632
000340 b8 0b 87 bd 6f 0c 0f 3e e4 61 66 bd 0d a2 02 be
       -0.06594032 0.13969587 -0.0562457 -0.1275713
000350 67 b7 ae 3d 87 be 4f bc 63 74 5c bd a1 1d 73 bd
       0.08531075 -0.012679703 -0.053821933 -0.05935443
000360 20 7a fa bc d5 25 04 bd 81 6b e6 bc 3f ae 76 bd
       -0.030575812 -0.032262642 -0.028127434 -0.060224768
000370 f7 6e 3a 3e 27 de 61 bb c3 e1 06 3e e1 cd dc 3d
       0.18206392 -0.0034464689 0.13172059 0.10781456
000380 2f 20 2f bd 51 7a 43 bd d7 3a b4 3d 7a 9e 2d 3c
       -0.042755302 -0.047724072 0.08800285 0.010596866
000390 c6 6b 54 bc 3c 14 b5 bc 7c c6 07 3d 6c 0e 54 bb
       -0.012965148 -0.022104375 0.033148274 -0.003235723
0003a0 18 eb af bd bb cc 0a 3d 41 b7 c1 bc 47 47 3c 3e
       -0.085897624 0.033886652 -0.023646953 0.18386565
0003b0 94 0c dc 3c 5c 2b c8 3d a1 4d 3d 3d d6 3a c2 bb
       0.026861466 0.09773895 0.04621661 -0.005927424
0003c0 41 95 d3 3d 72 90 0e 3d 9d f9 a8 3d 2b ff 38 3d
       0.10331202 0.034805723 0.08250735 0.045165222
0003d0 0b 8f 87 bd 77 16 98 bc 61 70 01 3e ae 85 4f 3e
       -0.0661908 -0.0185654 0.12640525 0.20265839
0003e0 8d 76 bf 3c c5 bc 00 bd 95 a3 39 3c b9 be 8f bc
       0.02337196 -0.031430025 0.011330505 -0.017546998
0003f0 35 71 04 bd 8e a0 e2 3c 72 17 a2 bc cf 45 a9 3d
       -0.032334525 0.027664449 -0.01978657 0.08265268

actor.weight f4 [1, 256]
000000 f6 cc 33 3c 01 12 98 3d 91 24 70 3d 28 d5 32 bd
       0.010974159 0.07425309 0.058628622 -0.043660313
000010 8e 0e 11 3f 17 93 53 3c a7 bf 3e 3d fd 94 6f bc
       0.56662834 0.012913487 0.046569493 -0.014622924
000020 49 59 8a 3b a5 ac ce 3d d4 62 bb bc bf 4b 5c bc
       0.0042220694 0.10091523 -0.022874273 -0.013445794
000030 97 4b 0e 3f b9 57 8a bb 48 a7 ba 3e 1c 7c c6 3c
       0.5558409 -0.004221883 0.3645575 0.024229102
000040 31 1f 01 3f f8 89 02 3d de f0 da bd 2b 37 4d 3d
       0.5043822 0.03186986 -0.10690473 0.05010144
000050 24 45 9c 3d b0 bd a9 be 61 9a b2 3e e2 8d 0f bd
       0.07630375 -0.33152533 0.34883407 -0.03504742
000060 17 7e fa be ba 57 6f bb 8e 7b 56 3d eb 18 a1 bc
       -0.48924324 -0.0036520795 0.052363925 -0.019665202
000070 dc 77 af be 62 de 9c be 85 31 a0 3c f1 ef 99 3e
       -0.34271133 -0.30638415 0.019554863 0.30065873
000080 b0 06 37 3d 04 8c cf bc 69 65 ac be 73 d4 94 be
       0.044684112 -0.02533532 -0.3367112 -0.29068336
000090 f8 9d 06 3f 73 71 69 3e 18 dd 4d be 98 52 03 3c
       0.5258479 0.22797184 -0.20103872 0.008015297
0000a0 d1 40 75 3d 96 fc b4 be c2 81 5a 3d 87 e9 8a 3b
       0.059876267 -0.35348958 0.053346403 0.0042392644
0000b0 06 84 3a bd d5 b5 2d 3f 7c 95 f8 bb 2d 52 86 be
       -0.045536064 0.6785558 -0.0075861793 -0.2623457
0000c0 3c 04 1f 3e f2 70 a6 3d a9 05 f7 bc bc b5 3f 3e
       0.15528959 0.08127011 -0.030154066 0.1872167
0000d0 c1 3f ea 3e 03 41 a1 be db 47 da 3e a8 9d 27 bd
       0.45751765 -0.31494913 0.42632946 -0.040921837
0000e0 89 32 e5 be 59 73 9e bc 90 36 09 bc 84 b2 f5 bc
       -0.44765118 -0.019342111 -0.008374825 -0.02999235
0000f0 ae 75 00 3e 91 42 c5 3c c4 3a 8f 3e 12 c7 6b be
       0.12544891 0.024079593 0.27974522 -0.23025158
000100 19 2c b1 bf 7a 9f 86 bb 54 03 91 be 4c 7d 53 bd
       -1.3841583 -0.0041083666 -0.28322852 -0.051633164
000110 25 7c 07 3c 58 97 d8 be fb 72 f7 3d f1 b1 1f 3e
       0.008269344 -0.42302966 0.12082478 0.15595223
000120 e3 c6 51 3d 4d 4a e3 bb dd f4 ce 3c be 05 d0 3c
       0.051215064 -0.0069363476 0.025263244 0.025393363
000130 76 2c e8 3b 30 a4 5d 3c 86 92 9b bd e7 31 7e be
       0.0070853783 0.013527915 -0.075963065 -0.24823724
000140 2a ae 18 3f 04 12 fb bd 68 af b5 be ab 56 ce be
       0.59640753 -0.122592956 -0.35485387 -0.40300497
000150 3c 8e 88 3b d3 af 4f bc 24 b7 37 bd 9c 68 28 3d
       0.0041673463 -0.012676197 -0.04485239 0.04111539
000160 c5 60 80 be be cd bb 3e cc 5d e9 3c cc 9c 33 3c
       -0.2507383 0.36680406 0.028487109 0.010962676
000170 c4 4e 3b 3d 89 5c 06 3c d7 40 56 bd 90 39 09 3f
       0.045729414 0.008200773 -0.05230793 0.5360346
000180 a6 65 56 3d a9 78 5e 3e 1b 4d 5d be 5b 0e 2d bd
       0.052343033 0.21725716 -0.21611445 -0.04225002
000190 9f 98 81 3d 05 45 e5 3b c2 87 0a bc 28 35 bc 3b
       0.06327938 0.006996753 -0.008455219 0.0057436414
0001a0 7d bd 92 3b ff 69 2c be ba 90 55 3d e3 ef 1a 3e
       0.004478155 -0.1683731 0.052139975 0.15130572
0001b0 50 ec 75 3d 60 55 e5 3b ed ed e9 3c 7a 00 21 3c
       0.06003982 0.006998703 0.028555835 0.009826774
0001c0 da 5b 9b 3b 97 7a 9c 3b 1d 02 ec ba 52 ee 09 3f
       0.004741174 0.004775356 -0.0018006001 0.5387927
0001d0 06 03 da 3a c6 c1 74 bb 59 22 94 3d ea 15 58 ba
       0.0016632981 -0.0037346943 0.07233114 -0.00082430115
0001e0 32 d1 37 3d 65 44 1d 3d e8 c3 52 3d 15 bf 3e be
       0.04487724 0.038395304 0.051456362 -0.1862758
0001f0 b8 ba 48 3c 5a f4 82 3a 3b 14 59 3d d6 66 c8 bd
       0.0122515485 0.0009991035 0.05299781 -0.097852394
000200 e3 f5 03 3d e0 da 17 bc e8 9e 03 bc 53 b7 09 bd
       0.032216918 -0.009268492 -0.008033492 -0.033622097
000210 58 97 40 3d f9 ee a8 be 64 13 06 bc 33 e9 07 3e
       0.047019333 -0.32994822 -0.008183334 0.13272552
000220 7e 64 17 be 40 78 06 bd 90 41 29 bd f2 35 3d 3d
       -0.14784428 -0.032829523 -0.04132229 0.046194024
000230 4e fd 9c ba 8a 02 ce be 26 ef 44 3e 00 bf a9 bc
       -0.0011977346 -0.40236312 0.19231853 -0.020720959
000240 9c 43 ee 3b 6a 91 86 bc 00 79 88 39 bd 16 75 3d
       0.0072712433 -0.01642676 0.00026030093 0.059836138
000250 74 9d 03 bd 82 93 72 be bc bc bc 3c 55 25 31 3d
       -0.03213258 -0.23689082 0.023039214 0.043248493
000260 a8 6c 9c bb 71 03 29 bd 20 b0 f0 3e 30 b6 48 bc
       -0.004773695 -0.041263048 0.47009373 -0.012250468
000270 a4 6f 50 3c 4d 8b a3 3d c8 be 1e 3f a0 59 22 3d
       0.01272193 0.07985554 0.6200986 0.039636254
000280 4d 8d fd 3c 30 9b 50 3d 70 7b 92 bd 01 f0 98 3e
       0.030951167 0.05092925 -0.0715245 0.29870608
000290 b1 2c 58 3e c4 36 d9 3c 0b ef 99 be 6a b1 04 3f
       0.21110798 0.026515372 -0.30065188 0.5183321
0002a0 31 ca 25 3d 6b ad eb 3e 51 69 b3 3c eb 91 ba 3e
       0.040476028 0.46030745 0.021900805 0.36439452
0002b0 c4 cc 4d 3d 59 92 03 3f ce 75 4f 3d 94 7a 04 3a
       0.050244108 0.51395184 0.050649457 0.0005053666
0002c0 9f a4 3f bd d0 43 b5 be b1 8f d1 be bd f0 21 3e
       -0.046787854 -0.354033 -0.4092994 0.1581449
0002d0 8e 12 44 3d a2 ef 31 3d 55 ac 66 be 1e 25 a2 3d
       0.047869258 0.043441422 -0.22526677 0.07917236
0002e0 03 1c f9 3d 8b c0 4c 3c 49 e8 22 3e 9b 86 f0 3e
       0.12163546 0.012497078 0.15908922 0.46977696
0002f0 38 a5 14 3c 3c bb 09 3f 99 c0 21 bd 12 ab 9a be
       0.009072594 0.5380132 -0.039490316 -0.3020864
000300 89 b1 0c bd d6 8f b5 be ad 77 a6 bc 1e e6 ce bc
       -0.034349 -0.354613 -0.020320738 -0.025256213
000310 65 22 19 3e 70 73 da bc d6 d2 a5 3c 88 9d 10 3c
       0.14954527 -0.026666373 0.020242136 0.008826621
000320 1c 3f d2 3d 82 20 13 be 22 62 84 bd 62 83 18 3c
       0.102659434 -0.1436787 -0.0646403 0.009308668
000330 06 b3 2b be 41 2e 48 bb 2a 32 ef bd 04 3a 6b be
       -0.16767511 -0.0030545148 -0.1167949 -0.2297135
000340 2b 6b 38 bd 64 d6 90 3c 2c 7c 06 bf 2f 1a d3 3d
       -0.04502408 0.017680354 -0.5253322 0.103077285
000350 5a ca c8 3d a8 f8 88 3e 35 a4 94 be ec ba 29 3c
       0.098042205 0.2675221 -0.2903153 0.010359507
000360 98 e2 b9 3b bb 4e 2c 3d 5c 3c 61 3c f4 b8 60 bc
       0.005672764 0.04206727 0.013747301 -0.013715971
000370 71 45 6c 3c ef d8 27 3e c7 91 1c 3e 86 bd 93 bc
       0.014420853 0.16391347 0.15289985 -0.018034708
000380 8b 4c 32 bd 30 ae 45 bc fb b6 33 3e 7a 55 1f bd
       -0.04353003 -0.012065455 0.1755027 -0.038899876
000390 f1 bc 96 3c 8e 7e b4 be e6 c5 f1 bc f6 e5 3f bd
       0.018400641 -0.35252804 -0.02951331 -0.046850167
0003a0 e0 3e 92 bd 2e 25 07 3f 2d 57 46 3d 87 b1 56 3e
       -0.07140899 0.52791107 0.04842298 0.20966159
0003b0 5a 3d 6b bd 5c 24 04 3f 81 0b 21 3d 82 8e 0c 3f
       -0.057431556 0.5161798 0.03931761 0.5490495
0003c0 45 c2 d9 3e fc 80 d2 be 2c f0 53 3e 7c d6 10 3d
       0.42531028 -0.41114032 0.20697087 0.0353608
0003d0 4d e9 5a 3d bd 69 47 bd 5e cf 60 bc fa c8 f1 bd
       0.05344515 -0.048684824 -0.013721315 -0.11805911
0003e0 0d 53 39 bd f6 ad 7c be 1a 3c 58 bd 81 22 43 be
       -0.04524522 -0.24675736 -0.052791692 -0.19056131
0003f0 ce 47 dd bb 57 61 a8 bc 2b 78 7e 3e 39 65 ea 3d
       -0.0067529446 -0.020554228 0.24850528 0.11445088

critic.weight f4 [1, 256]
000000 a8 69 01 bd 56 65 e3 bc f4 a7 8d be 4f 64 31 3d
       -0.031594902 -0.027758282 -0.276672 0.043308552
000010 df 08 47 3c 1f 48 41 3b 77 2d a8 bc b1 0c 09 3d
       0.012148111 0.002949245 -0.020529492 0.03345937
000020 42 7a 3f bc 40 3c 91 3d 42 af 81 bc ee da c5 bc
       -0.011686863 0.0709157 -0.01583064 -0.024152245
000030 70 73 4b 3c 0f 92 88 bc 60 72 de 3c 29 d5 9a bb
       0.012417659 -0.016671209 0.027154148 -0.0047251177
000040 e3 10 c2 3b 8b 5a 8b bd b0 30 9e 3d ef 22 0f bb
       0.005922423 -0.06804379 0.0772413 -0.002184089
000050 71 ab 48 3d d9 42 00 3c df 1a 8c bd 52 aa 0e bd
       0.048991624 0.007828438 -0.06841063 -0.0348304
000060 4c aa 62 3b 68 c4 2e bc e2 10 28 3d 17 78 e2 bc
       0.0034586368 -0.010666944 0.041031726 -0.027645154
000070 2d 3e ad bd be 75 f7 3c 94 63 7e bc 6a f3 90 3b
       -0.08459125 0.030207511 -0.015526671 0.0044235485
000080 90 c2 2f 3c ba 74 d7 3d 49 58 25 bc 93 3e 29 bc
       0.01072754 0.10520311 -0.01009185 -0.01032986
000090 b7 6c 32 3c 31 50 65 be f4 02 d5 3c 6a e3 7c 3d
       0.010890177 -0.22393872 0.026002385 0.061740316
0000a0 9b 2b 86 bd 72 07 50 bc 80 69 d9 3b ee 7f 1d 3c
       -0.06551286 -0.012697088 0.006634891 0.00961302
0000b0 6e a7 80 3c 83 26 9e 3b 2a 78 68 3d be da 4e bc
       0.015704837 0.0048263683 0.056755222 -0.012625394
0000c0 01 e4 6d bb d0 f2 10 be 6c 95 57 3c e5 20 18 3d
       -0.003629923 -0.14155126 0.013158184 0.037140746
0000d0 e3 c5 ab 3a ae df bd bc e7 b4 f5 3a 0f ba 4f bc
       0.001310524 -0.023177948 0.001874593 -0.012678637
0000e0 03 ee 03 3b b6 d4 1a 3c 8f 7a 3e 3b 2e ab ab bc
       0.002013088 0.009450128 0.002906475 -0.020955648
0000f0 ef 16 15 bc b2 f9 3c 3d 3c db 87 3c ed a5 36 3a
       -0.009099706 0.046136566 0.016584031 0.0006967474
000100 af 4a 09 3e 2b 09 01 3e 13 e4 6e bb df 87 f8 3b
       0.13407396 0.12601154 -0.003645186 0.0075845565
000110 1a 43 04 bd 39 1a 46 3c 73 78 aa 3d 42 6b d0 bc
       -0.032290556 0.012091213 0.08323755 -0.02544177
000120 65 f3 0e 3c b3 4b c5 bc c4 6a 5d 3d a0 0d 1b 3c
       0.008725022 -0.024083948 0.054056898 0.009463698
000130 81 9c df bc c1 c0 e3 bd f4 21 cc bc ea 1c a1 3c
       -0.027296307 -0.11120749 -0.024918534 0.019667108
000140 a6 b6 fd 3b 63 22 27 3d 5b 28 cd 3d 40 49 92 bc
       0.0077427207 0.040804278 0.10017463 -0.017857194
000150 df 86 5c 3d 19 15 58 bd 3a 70 de bb d6 bd 4e 3d
       0.05383956 -0.052754495 -0.006788281 0.05047401
000160 47 03 b3 ba e5 49 df bd 90 62 68 38 31 20 cc 3d
       -0.0013657593 -0.10902766 5.5404904e-05 0.099670775
000170 27 c6 2d 3d 1b c9 c5 bd a5 b5 a2 ba ef 15 10 3c
       0.0424253 -0.096574984 -0.0012413753 0.008794292
000180 de 11 7d ba 15 70 39 bb 59 58 0b bc 04 88 46 3d
       -0.00096538465 -0.0028295566 -0.00850495 0.04846956
000190 a7 9a 5d bc ee f7 ad bc 0c 2a eb bc 8f a1 1b bd
       -0.0135256415 -0.021236386 -0.028706573 -0.03799587
0001a0 b4 99 8b 3d 40 16 39 3d d1 63 65 be 9e 66 3c bd
       0.06816426 0.045187235 -0.22401358 -0.0459963
0001b0 43 2f 39 3d 64 04 61 bd a9 3f 30 3d 1e 7a bd b8
       0.045211088 -0.054935828 0.04302946 -9.0349684e-05
0001c0 39 dc a2 bc f6 63 1e bd 30 ae af bc b9 d6 8c 3b
       -0.019880401 -0.03866955 -0.021445364 0.004298058
0001d0 92 5b a6 3c 07 5a 18 bd d3 5d a4 3d e8 4f 02 bd
       0.020307336 -0.03719523 0.08025708 -0.031814486
0001e0 c2 ab eb bc c3 54 32 3d ef f8 0e 3d 77 70 c5 bb
       -0.028768424 0.043537866 0.03490537 -0.0060253697
0001f0 1c 2d a1 3c f7 1d 2b 3a 8b 6a 6f bc 35 56 1a 3d
       0.01967483 0.00065275974 -0.014612804 0.03767987
000200 e3 54 02 3c 36 0c 2b 3d 19 94 8f 3c 13 db 34 3b
       0.007954809 0.041759692 0.017526673 0.0027596399
000210 ee 14 59 3d 2b fc 9c bc e3 58 03 3d 86 31 9f 3d
       0.052998476 -0.019163212 0.03206719 0.07773118
000220 45 6e b7 3b f8 92 18 be e4 a0 8e bc c8 3b c4 bc
       0.005597862 -0.14899814 -0.017410703 -0.023954287
000230 f0 8c 00 bb 9f b3 1a 3c 59 fc 72 3d 73 92 42 3d
       -0.0019615255 0.009442239 0.05932269 0.047502946
000240 5a 3a c3 bc 73 6b c5 3b 56 4e 1a bd 34 4d 35 3d
       -0.023831535 0.006024772 -0.037672363 0.04426308
000250 b1 fe 8d ba 66 ef 57 bc aa da a2 3a a4 65 a3 bd
       -0.001083335 -0.013179636 0.0012424786 -0.07978371
000260 a3 dc 90 3b 64 dc c1 3b b8 1f 41 3a 19 ce bb 3d
       0.004420833 0.005916165 0.0007367092 0.091701694
000270 4c 18 1d 3d 67 19 2c 3c 19 d6 6e 3b 31 fc 4a 3d
       0.03835325 0.010504103 0.003644353 0.049556915
000280 74 b7 c1 bc fc f2 4e 3d 1b 2f ed 3d f1 91 8b 3b
       -0.023647048 0.050524697 0.1158125 0.004259341
000290 08 f5 a4 bc 38 1f 44 3d 6c e3 21 bc 9c 37 06 3c
       -0.020136371 0.047881335 -0.009880882 0.008191969
0002a0 bc 61 62 be 4b 7e 87 3b a5 46 09 bd 3c 1a b4 3c
       -0.22107595 0.0041349283 -0.033514638 0.021985166
0002b0 3b 47 71 3d 09 d5 29 3c 80 24 49 3c 2d 24 54 3c
       0.05890582 0.010365733 0.012276769 0.012948078
0002c0 ad 3d 01 bc 1f ba 8f bb be de 5f 3c 7f 0e 8e bc
       -0.00788824 -0.004386201 0.013663946 -0.017340897
0002d0 08 4d c5 3c 15 98 c9 bb 94 cc 47 bd 0f a1 25 bc
       0.024084583 -0.006152163 -0.048779085 -0.0101092
0002e0 f3 58 c7 bd 49 84 40 3d 93 31 45 3c 42 d2 bc 3a
       -0.097337626 0.047001157 0.012035745 0.0014405923
0002f0 48 2f f2 3c ed a7 05 3c 9c 30 86 bc 5a ef f3 3b
       0.029563561 0.008157712 -0.0163806 0.0074443044
000300 3a 8f 88 bc 23 12 8c b9 39 fe 85 bd 38 e4 37 3d
       -0.016669858 -0.00026716394 -0.0654263 0.04489538
000310 1d 52 98 3d 96 31 70 3d dd f4 07 bd 14 33 21 bd
       0.07437537 0.05864104 -0.033192504 -0.039355353
000320 39 c8 ad 3d 78 ae a4 3d 22 2e 6d 3b 0a aa 6f bc
       0.08485455 0.0804109 0.0036190827 -0.014627943
000330 a5 63 95 3e 75 f8 8d bb 46 b8 4c be 81 c2 92 bb
       0.29177585 -0.004332597 -0.1999217 -0.004478753
000340 1f 24 3c bd 7e 24 b6 3d 1f 73 9d 3c 22 89 84 be
       -0.045932885 0.08893679 0.019219933 -0.25885874
000350 9d 4b 0f 3c 5d 98 00 be d7 96 0e bd 9e f8 ff ba
       0.008746055 -0.12558122 -0.03481182 -0.001952905
000360 5e b8 99 3c ff 29 22 3d 2c 7a 36 bd fe 60 5c bd
       0.018764671 0.03959083 -0.044550106 -0.053803436
000370 8b d1 18 3d 06 dc e0 3c 11 b3 84 3d 36 ad 1d 3d
       0.03730921 0.027448665 0.06479467 0.038495265
000380 cc 7a 8a bc ac a1 49 3d e8 2f 05 3d 67 12 cd bb
       -0.016904257 0.049226448 0.03251639 -0.0062582972
000390 d7 e8 14 bc 43 0c 78 bc 83 67 67 bb 6d 87 9e 39
       -0.0090887165 -0.015139642 -0.00353095 0.00030237008
0003a0 25 a3 a4 bc e3 44 08 3c 07 3b 7a 3c f5 17 0d 3d
       -0.020097325 0.008317205 0.015272862 0.034446675
0003b0 3a b2 a5 bc e3 23 47 3d 8b 13 21 bd 60 fd 44 3c
       -0.020226587 0.04861821 -0.03932528 0.0120233
0003c0 1e 9b 9e 3b 1e 49 14 bc 70 ed 02 3d 30 39 36 bc
       0.0048402688 -0.009050636 0.03196472 -0.011122033
0003d0 12 42 4f bd 9d 17 64 bc fd 17 0e 3d 8c 9b b0 3d
       -0.05060012 -0.0139216455 0.034690846 0.08623418
0003e0 45 42 ef bc c9 8f a1 bd 7c ae 0c bd 30 a3 55 3b
       -0.029206404 -0.07888753 -0.03434609 0.0032598488
0003f0 60 58 24 bc 5a 60 12 3d 93 a0 8f 3b e1 05 ad 3c
       -0.010030836 0.03573642 0.0043831556 0.021120967
