models1/ppo_0.pth (torch, 275240 bytes, 6 tensors)

net.0.weight f4 [256, 6]
00000000: 6967 a9be a0af b6be d665 843e b503 cf3e
00000010: b4fe 0ebe 2b97 8abe b0bd 2fbe 4037 33be
00000020: 0cbd 953e 0000 8bbe 521a 2bbd 8c3d c93e
00000030: 3a0d 3bbe 6775 c53e a2a2 9f3d 8d09 afbe
00000040: 695e f9bd 22b7 2cbd e596 98be ed41 823e
00000050: 65c5 eb3d c61e 36bd 3f79 dcbd 8718 bb3e
00000060: fac2 a23e f27b 29bd 429b c2be f48e 323d
00000070: 6f98 6a3e a870 5ebe c8c2 243e bf5a 243c
00000080: 5879 843e b305 df3d 1c25 82be da74 153e
00000090: 384c 113e 41a4 843e ea2e a83e 2f38 a23e
000000a0: 737e 7c3d b77f a7be 68d4 86be d4bf 73be
000000b0: d534 673e a5d1 7a3e 6ade 40be c908 cc3e
000000c0: 6993 4dbe d7bf 98be 9394 973e 4241 8d3c
000000d0: 7335 8d3e 3b2d 59be 78df a33e a2cd 973e
000000e0: ac30 c43e d776 91be 2c45 97be ed49 973e
000000f0: f5de 8bbc 790e 9dbe 9edc aabe 0c57 86be
00000100: f8fc 34be f033 6ebe 2a6c 233d 5e7e 81be
00000110: db2f 5abe 50bd 8b3e 6275 d7bd de15 ffbd
00000120: d3bb 28bd 050c 4a3e bf67 ab3d d52d 423e
00000130: 6513 c2be fddb d73b e724 fb3d 67ab 8d3e
00000140: b322 8e3e e012 903e a5d7 10be f510 91be
00000150: 1ecf ae3e 55ea 363e ed55 c2be c720 eabd
00000160: 8372 98be da40 763e bca7 783e 2389 4cbe
00000170: 44d8 0cbe bbd0 b4be 7614 cbbe 1912 c53d
00000180: 4d65 7f3e 345b 923e 7418 bb3e 7cd7 77bd
00000190: 67fd b0bd 035e 6bbe 1766 a2be 9d3a 9fbd
000001a0: 25fb e1bd c47b 78be 9c68 66bd 96b2 523e
000001b0: b24e c4be b945 8a3e 4ff0 cebe 18e1 72be
000001c0: 1a91 d6bd e401 833e 393c 643e a9a1 883e
000001d0: abed d8bd d0ee bd3e 4062 29be 68cc ecbd
000001e0: 3646 55be d0d1 493d 04fe 06bd ed65 803e
000001f0: 3e5b 893e e325 ac3e 65aa 833e 77c2 0a3e
00000200: 6edc d2bd 06b5 a7ba 2c63 8b3d 7a53 84be
00000210: e5f8 c9be 3cc0 debc 4d3a 453e 23ff 93be
00000220: 4aca c4bd fb7f d03e b8ce 933e af44 c3bc
00000230: 8e93 d0bd c8b2 68bd 7e3f b13d 6e88 2c3e
00000240: 7667 933b 1fce a63e 0a35 313c 4b00 c1bd
00000250: 0f83 9a3e 5cce b3be 392b a9be 2963 673e
00000260: b2a2 c2be 2b5b b53e 25bd 573e bf4d b2be
00000270: e389 963e 3733 323e d4e7 27be 8030 2e3d
00000280: a8b1 1c3d 2080 cdbd 07b6 e43d 1d14 dabd
00000290: 9816 ca3e 7583 d1be 5472 c53d 28c9 b4be
000002a0: fb03 c63e 5d13 adbe 9c73 903e e5fe b23e
000002b0: 3275 27be b09f bebc 77e0 46be 58c0 df3d
000002c0: 914d 6dbd 4c2b 38be 18ac 81be 38d0 39bd
000002d0: 83c5 4ebe 539f a0be f352 a9be b738 783e
000002e0: 7e0a c73e 8f24 863e 67b8 10bc 64f6 3fbe
000002f0: 76d3 cabe c52a db3d 5c76 383e 9b7d b5be
00000300: 03a5 65be 68ef 9abd 3134 ebbc b7d6 6a3e
00000310: 19d1 2bbe 2061 b03d 3e64 95bd ab60 833e
00000320: 2f20 b4bd c9ca b1bc dd03 213e aca8 d63d
00000330: 9fe8 b2be 3997 743e a988 f6bc ab6a a83e
00000340: b928 92be b36f 3d3d 61bd 82be 15ab e93d
00000350: 00dd cd3e 9613 903e cb1e e1bd fee1 4b3d
00000360: 9372 633e d7af 8a3e 95b5 023e 49e8 71be
00000370: af5b 78be 6e82 a4be 396a 8fbe d52f 93be
00000380: c668 ad3e 04c5 37be ac6f 2fbe 133b 16be
00000390: ad70 ca3c 8a7c 873e aa5f 4abe 7593 673e
000003a0: 1fe5 9dbe 52d8 043d 9111 9bbe 4b56 20be
000003b0: 55cd 3cba 1c6b 023e 502a 61bd f4f1 cf3e
000003c0: c841 6c3e f801 c5be fe46 58bd ff00 72be
000003d0: fc47 143e 7172 c9be 3a32 a6be bd0b bfbe
000003e0: 9bd6 923e b631 a93e 8b28 b1bd 5d54 283e
000003f0: b65b 803e 1c52 c8be 4471 d63c bdcc c2be
-0.33086708 -0.35680866 0.25858945 0.40432516 -0.13964349 -0.27068457 -0.17162204 -0.17501545
0.29245794 -0.27148438 -0.041773148 0.3930477 -0.18266764 0.38566133 0.077946916 -0.34186974
-0.121762104 -0.042166837 -0.29802623 0.25440922 0.115122594 -0.04446294 -0.10765313 0.3654215
0.3178938 -0.04137797 -0.38009077 0.043593362 0.22909711 -0.21722662 0.16089928 0.010031401
0.25873828 0.10889759 -0.25418937 0.14595357 0.14189231 0.25906566 0.32848293 0.3168349
0.06164403 -0.32714626 -0.26333928 -0.23803645 0.22578748 0.24494036 -0.18834844 0.39850453
-0.20075764 -0.29833862 0.2960554 0.017243031 0.2757984 -0.2120866 0.3200643 0.29649073
0.38318384 -0.2841098 -0.2954496 0.29548588 -0.017074088 -0.30675104 -0.33371443 -0.26238286
-0.17674625 -0.23262 0.039898075 -0.25291723 -0.21307318 0.2729287 -0.10520436 -0.12455343
-0.041194748 0.19731148 0.08369397 0.18962796 -0.37905422 0.006587504 0.12262898 0.27669832
0.27760848 0.281394 -0.14144762 -0.2833325 0.34142393 0.17862828 -0.3795618 -0.11432033
-0.29774866 0.24048176 0.24282736 -0.19974189 -0.13754374 -0.353155 -0.39664048 0.096225925
0.24940987 0.28585207 0.36542094 -0.060508236 -0.08642083 -0.22985081 -0.31718513 -0.077748515
-0.1103423 -0.24265963 -0.056252107 0.20575938 -0.3834129 0.2700632 -0.40417716 -0.23718679
-0.10476895 0.2558738 0.22288598 0.26685837 -0.105922066 0.37096262 -0.16541386 -0.11562425
-0.20827565 0.04927236 -0.032957092 0.25077763 0.26827425 0.33622655 0.25715938 0.13550745
-0.1029595 -0.0012795038 0.06806025 -0.25844938 -0.39447704 -0.027191274 0.19260521 -0.2890559
-0.09608896 0.4072264 0.2886865 -0.023836462 -0.10184394 -0.056811124 0.08654688 0.16848919
0.0044984175 0.32579133 0.010815868 -0.09423884 0.30178115 -0.35118377 -0.3304079 0.2259642
-0.38014752 0.35421118 0.21068247 -0.3482494 0.29402074 0.1740235 -0.16397029 0.042526722
0.038255364 -0.100342035 0.111675315 -0.106483676 0.39470363 -0.40920606 0.09640947 -0.3530972
0.38674912 -0.33803836 0.28213203 0.34960094 -0.163533 -0.023269504 -0.19421564 0.109253585
-0.0579353 -0.17985266 -0.2532661 -0.04536459 -0.20192532 -0.31371555 -0.33071098 0.24240385
0.38875192 0.26199767 -0.008833027 -0.18746334 -0.39614457 0.10701517 0.180139 -0.35447392
-0.22426228 -0.07565194 -0.02871141 0.2293347 -0.16778983 0.08612275 -0.0729451 0.2565969
-0.08795201 -0.02170314 0.1572413 0.1048139 -0.349431 0.23885812 -0.030094462 0.3289388
-0.28546694 0.046249103 -0.2553511 0.114095844 0.40207672 0.28139943 -0.109922014 0.04977607
0.22211675 0.2708728 0.1276458 -0.23623766 -0.24253725 -0.3213076 -0.2801073 -0.2874743
0.33868998 -0.17946249 -0.17132443 -0.14670973 0.024711931 0.26462203 -0.19763055 0.22614844
-0.30838868 0.03243286 -0.3028684 -0.15657918 -0.0007202228 0.12736171 -0.054971993 0.40614283
0.23071969 -0.38478065 -0.05280208 -0.23633192 0.14480585 -0.39345124 -0.32460195 -0.37313643
0.28679356 0.3304574 -0.08650311 0.16438432 0.2506997 -0.39125144 0.026177056 -0.38046828

net.0.bias f4 [256]
00000000: 5a57 3dbe 67f7 77bd 49ea bcbe 833d bfbe
00000010: 5c55 c13e 35a9 bfbe cec3 a4be 98ed 34be
00000020: 4f48 ab3d 1e91 d93d b07a ef3d b1da 65be
00000030: e93e bbba c304 21be 2643 c3be ba8b 9c3e
00000040: ca10 c23e c82c 4d3e b40f 6bbd c6a6 b13e
00000050: 0aa0 70be cdbb cbbe 74f7 623d 1b9f c03e
00000060: 25b1 9e3e 5584 b13b 4372 6e3e d69c 3b3e
00000070: a186 b53d af93 66bd 967f 873e 9c9d 213e
00000080: 27c1 0a3e 8939 a7be e6f4 2ebe bacc 1f3d
00000090: 329c c6be e96a b43e 9c89 893e 92ea 79be
000000a0: 05a6 5abe c511 c13d ccf7 623e d362 ddbd
000000b0: a82d bdbd b512 4c3e 767d 253e 61fa cbbe
000000c0: 972e 5a3d e9cb 523e b75d a8be bba3 8f3e
000000d0: e4c7 36bd 3ccb febd 698b 8ebe c938 1d3e
000000e0: cb07 92be 2ac8 863e c7b4 82bc e6c1 dabd
000000f0: 0534 a7bd a6b4 133e 4262 4e3e 524f 2b3d
00000100: d9c8 b03d e342 2a3e 48f3 2dbe 127a 663e
00000110: 9653 fc3d d24c 463e 7474 313e 1f5a 49be
00000120: 7d1d 793e 5cd1 bfbe 3a47 b9be db7c b4bd
00000130: e3d5 833e 8443 78be 0de3 203e b31c 59be
00000140: d757 0ebd ad2a 6cbd ee6d 07bc 68ef e5bd
00000150: f784 20be 1168 d6bd cf3b 9b3e 5677 cb3e
00000160: 848e a33d 3258 a93e 538b 98bd fc9c 313e
00000170: a2be 863e 15bd 213d 5f87 923e 92cf c93e
00000180: 2dd9 89be 35d7 2fbe fb74 a2be 9670 1fbd
00000190: 03f4 e43d a3ec 5ebe 4815 543e 9b7b 8f3e
000001a0: 0236 2a3e 512e 82be 9d45 2c3c ffa9 4d3e
000001b0: 0b6e b8be f2b7 a13e 6ccd 1b3d dadb c63e
000001c0: 4f0e b03e e481 4ebc 523a 93bc 1409 c0be
000001d0: e7d3 efbd 5474 c1be a2e1 c23e 46cb 9bbe
000001e0: 89d2 a2be dcff 6bbc c6d0 093e b1b0 ab3d
000001f0: f9ea 843e aff0 6fbe 646b bc3e b37a b2be
00000200: c549 c63e 3fc2 21be 2690 823d aa42 853e
00000210: 742f a53e b949 79be 6e70 edbd 5a1b 063e
00000220: 93ee 433d 6f70 4abd ea93 09bd 0c83 2b3e
00000230: 0c29 b13e 2fb5 923e 4916 513e d1de 37be
00000240: 0090 c43e ed2e a63e fbb4 aebe 585e 03be
00000250: 53f2 883e fe4d 793e 366b 063d 7fc8 9fbe
00000260: eacc 36bd 3ef9 933e 5dce 573e a635 83be
00000270: dc2e 9ebe 4386 cfbd e035 81be 510e 123e
00000280: b505 b7be 8e4c 4bbe 1ac9 72bd e151 b8bc
00000290: 4a20 963d f0e0 a3be cc3e 813e 3fd8 8e3e
000002a0: 1abc b23e 45dc adbe bc90 b6be bd39 b8be
000002b0: 7151 1cbe 2f4c 9fbe 2b61 2dbc 3c67 b03e
000002c0: 06ef 813e 8f3b 0cbe 2602 823e d16c febd
000002d0: 8173 a8be d916 53be 7493 cebe 2c88 9dbd
000002e0: 6350 b9be 326f fa3c a5a0 b03e 3003 15be
000002f0: fafb aebd 6e1d 41be 4244 193d 8173 833d
00000300: 9256 93bd b662 c43e 3e2e 53be e377 57be
00000310: d2d8 04be 3364 11be 9323 c7bd 54d9 a0be
00000320: 6706 133d 8e30 823e cff9 903e f1d7 39bd
00000330: a122 553e 2c36 c7bd 75e6 653e 5555 a53d
00000340: a01b 973e abec 4d3e 55bd b03d c29c 11be
00000350: 02b1 c23e 658b c3be b61b f0bb fa87 1abe
00000360: c9b7 81be 070b 89be 8bdf bdbe 6ab5 a03e
00000370: c34f fe3d 103c a5be d6ab 963e a522 a2be
00000380: 3db8 70be 05c0 353e 7ea4 f0bd 7b44 843e
00000390: 66a8 533e a516 9fbe b67f 5ebc 7ae8 c53d
000003a0: 6ddb e3bd c040 1f3d c6a6 b8be 1450 6a3c
000003b0: e666 873e a8f1 3abe 36c8 c83e 1e46 c53e
000003c0: 1081 30bd ffa7 613e f93a 113e 4a28 0bbe
000003d0: 62cb 9a3e 9714 37be 95d8 503d 1174 3f3e
000003e0: 0dee 2abe 1cf7 a83e c7b8 cfbe 670c f4bd
000003f0: 053e ee3d fb28 84bd 4344 823e ead5 44bd
-0.18490353 -0.060538676 -0.36897495 -0.37351617 0.37760437 -0.37433782 -0.32180637 -0.1766876
0.08363401 0.10623382 0.11693323 -0.22446705 -0.0014285716 -0.15724473 -0.38137168 0.30575353
0.37903434 0.20036614 -0.057388023 0.3469755 -0.2349855 -0.39791718 0.05541177 0.37621388
0.30994526 0.0054173865 0.23285775 0.18321547 0.08863569 -0.056293186 0.26464528 0.1578278
0.13550244 -0.32661083 -0.17085609 0.0390136 -0.38791043 0.35237816 0.268628 -0.24405888
-0.21352394 0.094272174 0.2216484 -0.10809865 -0.09237224 0.19929011 0.16161141 -0.3983946
0.053267088 0.20585598 -0.32884 0.28054604 -0.044624224 -0.12441108 -0.27840737 0.15353693
-0.2852157 0.26324588 -0.015955342 -0.106815144 -0.08164219 0.1442438 0.2015467 0.041823693
0.08632059 0.16627078 -0.16987336 0.22507504 0.1232063 0.19365242 0.1732958 -0.19663285
0.24327655 -0.37464416 -0.36187154 -0.08812877 0.2574912 -0.24244505 0.15711613 -0.21202354
-0.03475174 -0.057657886 -0.008265955 -0.11227304 -0.15675722 -0.10469068 0.30319068 0.39739484
0.07986167 0.330751 -0.07448449 0.17345041 0.26317316 0.039486963 0.28618905 0.39416176
-0.26923504 -0.17171939 -0.31729874 -0.03892573 0.11179354 -0.21769957 0.20711243 0.2802399
0.16622165 -0.25425962 0.010514644 0.2008438 -0.36021456 0.31585652 0.038037702 0.38839608
0.34385917 -0.0126042105 -0.017972145 -0.37506926 -0.11710339 -0.37784064 0.3806277 -0.30428523
-0.3180125 -0.014404263 0.13458547 0.083833106 0.2596052 -0.23431657 0.36800683 -0.34859237
0.38728157 -0.15796755 0.063751504 0.26027423 0.32262766 -0.24344529 -0.1159371 0.13096371
0.047834944 -0.04942363 -0.033588327 0.16749209 0.3460163 0.28653857 0.20418657 -0.17956091
0.38391113 0.32457677 -0.34122452 -0.12828958 0.2674738 0.24346158 0.032817088 -0.31207654
-0.044629015 0.28901094 0.21074815 -0.25626868 -0.30895126 -0.1013303 -0.25236416 0.14263274
-0.35746542 -0.19853422 -0.059273817 -0.02249998 0.073303774 -0.3200755 0.25243223 0.27899358
0.34909135 -0.33957115 -0.356573 -0.3598155 -0.15265442 -0.3111281 -0.010582249 0.34453762
0.25377673 -0.13694595 0.25392264 -0.12423099 -0.32900622 -0.20614184 -0.40346873 -0.07691988
-0.36194143 0.0305706 0.34497562 -0.14551997 -0.085441545 -0.18858883 0.03741861 0.06418515
-0.07194246 0.3835656 -0.20623109 -0.21041827 -0.12973335 -0.14198379 -0.09723582 -0.31415808
0.035894778 0.2542767 0.2831559 -0.045371953 0.20813991 -0.09727129 0.22451194 0.080729164
0.29513264 0.20109813 0.08629862 -0.14219955 0.3802567 -0.38192287 -0.007327522 -0.15090933
-0.2533553 -0.26766226 -0.37084612 0.31388408 0.12417557 -0.32272387 0.29427975 -0.31667057
-0.23507781 0.17749031 -0.117501244 0.25833496 0.20669708 -0.31071964 -0.013580253 0.09663482
-0.111258365 0.03888011 -0.36064738 0.014301319 0.26445693 -0.18256247 0.3921525 0.38530058
-0.043091834 0.22036742 0.14182653 -0.13589588 0.30233294 -0.17878948 0.0509878 0.1869662
-0.16692372 0.3300103 -0.4057066 -0.11916428 0.11632923 -0.06453129 0.25442705 -0.048055567

net.2.weight f4 [256, 256]
00000000: 2ce3 3ebd e076 f63b b25d 71bd 7c76 ffbc
00000010: f250 133d e0a9 ccbb fc22 8f3c 809b 033a
00000020: 0041 a73b 84d7 ce3c 16c5 30bd 780c c53c
00000030: e082 8a3b d808 34bd e084 393d 3092 243d
00000040: 8ed2 633d 1417 debc 704a c43c 2c0f 06bd
00000050: 9c1b 02bd 30b5 d0bc 68da 013d a06a 8abc
00000060: 8832 79bc e051 a9bb b8ba 2fbd e0d7 283d
00000070: 060e 25bd 845e 3c3d ac30 dabc bc47 95bc
00000080: e2d8 18bd 40bb 8aba 40ef 453d d668 45bd
00000090: a637 74bd ee79 603d 1c06 2ebd b818 263c
000000a0: f00a c3bc 3ee6 083d c0d0 113c f8e7 193c
000000b0: ac1b 06bd 70a9 503d 621f 683d 708d c23c
000000c0: a862 f2bc 2c4c dd3c cc08 603d daeb 263d
000000d0: e0d0 a7bc 12bd 6d3d 4269 493d 048e bd3c
000000e0: 5060 673c a8e7 8a3c 40e2 3a3c d8b4 ae3c
000000f0: acaa 723d a839 053c b04c 023c 64fb 433d
00000100: ccbe 093d 5042 a13c 30d1 bdbc d8d0 1bbd
00000110: f424 ebbc 7a9c 40bd d807 b63c 1809 79bc
00000120: 7a00 40bd a682 3d3d 00a4 8abb d45e 5a3d
00000130: 6c75 42bd e002 1b3c 442b d13c 8edf 553d
00000140: 3c57 e43c 38ab b93c 608e 2dbc 4433 0d3d
00000150: 2057 22bb 5842 43bc c8fc 523d f294 093d
00000160: 7097 86bb 0eb5 23bd 6ee9 2cbd a6fc 523d
00000170: 3c9e b7bc 42d0 3dbd 7c98 6fbd 209d cebc
00000180: a060 d5bb ce69 30bd da8e 2ebd 90fc 20bd
00000190: 5e61 75bd 8a1f 633d 20ad 323d 606c 8c3b
000001a0: 606f 663d 08af c63c e053 ccbb b240 073d
000001b0: c85b 75bc e070 6abd 2ce9 f93c 168f 393d
000001c0: 2072 97bb 88cb 67bd 8836 cb3c 085b 4d3c
000001d0: 5846 213d 00c5 663b b27a 563d 842f 003d
000001e0: 488d 56bd 50df 34bc f07d 173d 06ac 513d
000001f0: c626 193d 2868 61bc 40ac 54bc 6c95 e3bc
00000200: 00db 6a3b 80a0 41bb caf9 22bd 60a5 193b
00000210: a0f3 4fbb 44b9 2b3d 70cc bfbc 8233 0f3d
00000220: b68f 3d3d 2071 16bc cadb 2ebd a855 22bd
00000230: 3cb4 9fbc f6cf 6cbd 00f2 d03a 0206 243d
00000240: 60aa ccbc 00b6 dcbc 9487 683d 28f3 c23c
00000250: d4b3 5b3d b486 a73c 8033 973a 2e9f 2c3d
00000260: 88bb 26bc 3625 22bd 6a92 6bbd b4b5 48bd
00000270: 6801 2abd 7c6e 673d 32fb 21bd 0e84 6fbd
00000280: 88a8 da3c 7c9e a1bc a4a7 8dbc 3c9d 34bd
00000290: 4490 c73c fcb4 cc3c b604 24bd 8a83 773d
000002a0: ee23 1cbd d630 3f3d 7aa0 70bd 301c 333d
000002b0: 3449 22bd 24fe 823c b48c 1dbd dc3b 2cbd
000002c0: c05d 3c3d 4e28 083d b460 793d 7cc8 0a3d
000002d0: e4b4 c3bc a0df a0bc 483a bbbc 2a4f 58bd
000002e0: f817 14bc 1c03 ed3c 9e1b 743d a6c3 3dbd
000002f0: 240c f83c fea5 6ebd 50c9 5b3c 90ea babb
00000300: 60b5 f73c 00be 1eb9 1c21 313d aead 24bd
00000310: b478 933c c89d 093d d8d2 db3c 6474 c53c
00000320: d0c8 52bc e6c3 703d d442 42bd 8085 6cbb
00000330: a083 db3c 501d df3c 8460 a7bc c0f1 48bc
00000340: 7658 623d 1054 4e3c 0021 663b 9458 393d
00000350: 0a0f 20bd 7c34 c3bc 1c5e 97bc c8de 00bc
00000360: ec36 ddbc a2eb 22bd 208f 4b3d 3249 1ebd
00000370: bc21 6a3d e015 06bc 44cf bb3c b6ac 293d
00000380: 2630 243d 8232 4f3d 6cc0 6ebd 9cf7 55bd
00000390: 1824 78bd 1a90 3dbd 9057 663c 108f 343c
000003a0: f81e 6dbc 5c0a 07bd 70e8 aebc dc56 563d
000003b0: 86a0 52bd 4c33 5f3d 0649 43bd 4c90 76bd
000003c0: 5e93 39bd bc1c 633d 5666 4abd 1ac7 0dbd
000003d0: 2a92 1cbd 5c41 043d 6490 46bd ca70 4cbd
000003e0: 222c 153d 2cda d53c 9cc6 a6bc f0c3 2e3c
000003f0: a03b 04bb 346b f03c 2ee4 42bd b27d 4dbd
-0.046603367 0.007521495 -0.058927245 -0.031184427 0.035965867 -0.0062458366 0.017472737 0.0005020425
0.005104184 0.02524925 -0.043156706 0.024053797 0.0042270273 -0.043953747 0.045292735 0.040178478
0.055620722 -0.027110614 0.023961276 -0.032729313 -0.03176461 -0.025477022 0.03170243 -0.016896546
-0.0152098015 -0.005167231 -0.04290268 0.0412215 -0.040296577 0.045988575 -0.026634537 -0.018222682
-0.03731621 -0.0010584369 0.04832387 -0.048195682 -0.059623383 0.05480378 -0.042486295 0.010137729
-0.023808926 0.0334227 0.008899868 0.009393685 -0.032741234 0.05094284 0.056670554 0.023749083
-0.029588059 0.02701386 0.05469589 0.04075227 -0.020485342 0.05804164 0.049172647 0.023139007
0.014122084 0.016956165 0.011406481 0.021326467 0.059244797 0.008131422 0.007952854 0.047847167
0.033629224 0.01968494 -0.023171037 -0.038040966 -0.028704144 -0.047024228 0.022220537 -0.015199922
-0.046875454 0.046267174 -0.004230976 0.05331309 -0.047475263 0.009461135 0.025533326 0.05221515
0.027873628 0.022664651 -0.010593027 0.03447272 -0.0024771169 -0.011917673 0.051510602 0.03358931
-0.004107408 -0.03996759 -0.042214803 0.051510476 -0.02241432 -0.04634119 -0.05849503 -0.025221407
-0.0065117627 -0.043069653 -0.042616703 -0.039303362 -0.05990731 0.05545 0.043622136 0.0042853802
0.05625856 0.024253383 -0.0062355846 0.033020683 -0.014975496 -0.057236552 0.030506693 0.045302473
-0.004621759 -0.056590587 0.024806276 0.012533911 0.039373726 0.0035212636 0.052363105 0.031295314
-0.05238083 -0.01103957 0.036985338 0.051189445 0.037390493 -0.013757743 -0.012980521 -0.02778121
0.00358361 -0.0029545128 -0.039789 0.0023444518 -0.0031730905 0.04192473 -0.023412913 0.03496123
0.04627963 -0.009182245 -0.042690076 -0.03963247 -0.019495122 -0.057815515 0.0015941262 0.040044792
-0.024983585 -0.026942253 0.056769922 0.023797587 0.053638294 0.020449974 0.0011535734 0.042143993
-0.010176547 -0.03958627 -0.05751268 -0.04900141 -0.041505247 0.05650185 -0.0395462 -0.058475547
0.02669169 -0.019728892 -0.017291851 -0.044095263 0.024360783 0.024988644 -0.040043555 0.06042818
-0.038120203 0.046677433 -0.058746792 0.043728054 -0.039620593 0.015990324 -0.038464263 -0.042049274
0.045987844 0.033241563 0.06088324 0.033882603 -0.023889966 -0.019637883 -0.02285494 -0.05280987
-0.009038918 0.028932147 0.05959665 -0.046329163 0.030279227 -0.05826377 0.013414696 -0.0057042316
0.030237854 -0.00015138835 0.043244466 -0.040204696 0.018001892 0.033597738 0.026833937 0.024103351
-0.01286526 0.058780573 -0.047427014 -0.0036090314 0.026796162 0.027235657 -0.020431764 -0.012264669
0.055260144 0.012593284 0.0035114884 0.04525049 -0.039076842 -0.023828737 -0.018477492 -0.007865615
-0.027003728 -0.0397755 0.04969704 -0.038644023 0.057161078 -0.008183926 0.02292598 0.041424476
0.04008498 0.050585277 -0.058288977 -0.05223809 -0.060581297 -0.046280004 0.014058962 0.011020437
-0.014472716 -0.032968864 -0.02135107 0.05232893 -0.05142262 0.05449228 -0.047677062 -0.060196206
-0.045306556 0.055447325 -0.049414 -0.034613706 -0.03822533 0.032288894 -0.048477545 -0.04991225
0.03641904 0.026105009 -0.020358376 0.010666832 -0.002017714 0.029347993 -0.04758089 -0.0501687

net.2.bias f4 [256]
00000000: 84b3 973c b3e6 53bd edf3 eeba 667a 423d
00000010: f254 eebc 3dd6 613b 3676 473d 7a9c 7fbd
00000020: d872 a8bc c07e 0b3d 8980 2a3d 4a04 47bd
00000030: dd7f 113d a87b e1bc 5019 763d 1ce2 54bd
00000040: d96e 85bc 5703 6b3d 2357 14bc 0b13 cebb
00000050: dbf3 5e3d a002 773c ab3c 663d 2453 f1bc
00000060: e8a5 31bd 541c 53bd d001 29bc 15de 053d
00000070: b55d 56bd 55e7 69bc 38c7 5d3d 2e7a 623d
00000080: f84b 5bbc ced3 f5b9 5745 453d 272a 083d
00000090: 0e15 073d 42f4 6ebd 90cf cbbc 9a9a 23bd
000000a0: 5451 93bc 228d 223d 72fa 7abd 4d9f 163d
000000b0: 2fa6 dabb a4e1 633d ea6f bb3c 37e6 4e3d
000000c0: 81b1 523d 538d c8bb 0b6b 3c3d afa3 293d
000000d0: b957 113d becb 9d3c 5328 2d3c fbc8 5b3c
000000e0: 35cc 0dbd 5798 953a 9e30 053d 6af1 163d
000000f0: 5e45 093d a2e1 24bd 5818 c8bb becf 73ba
00000100: b3dd 5a3c 6d7a d03c 822e 9abb e8a2 4abd
00000110: 020f 52bd 1fa7 da3c 80f4 4d3c 4d73 ecbc
00000120: a587 283d 1e77 8bbc 4ade 36bd 748b 1f3d
00000130: 9f1f 82bd ab66 04bd a604 43bd 4c06 30bd
00000140: 8e4c 76bd 195f 2c3d d0b8 6dbc 4705 99b9
00000150: 9494 1abd 4b99 7bbc e25e 22bd 868f 353d
00000160: 3beb 9fbc 4fe1 7e3d 84d7 603d a992 463d
00000170: e988 1c3d b0b0 b1bc 39b5 57bd e17e 6cbd
00000180: 145c 54bd a1e2 5a3c 8ec9 4a3c 671e 543d
00000190: 6bfb 5aba 3a50 083d 4ba9 97bc c4fa cb3c
000001a0: a27f cc3c ac39 1e3d 0aad 42bd 13c7 8b3b
000001b0: b08c 12bc 7cab 1bbd 3800 483d 90cd 42bd
000001c0: 9d8d 82bd e029 533c 0e1a ef3b 21ab febc
000001d0: 62ba 703c 1195 9bbc f98f 9a3c 38cd 4b3c
000001e0: f826 36bd d582 c33b 299c 33bc f314 2d3c
000001f0: d6a9 6d3d baa2 663d d0a7 fd3c afc1 9cbc
00000200: 2932 1a3d d09a a03c e8f6 3e3d b22e 1f3d
00000210: da77 233d e602 52bd 7d02 37bd 238a 43bc
00000220: c2cc a83c 0a20 85bc 5800 57bc 08da 63bd
00000230: 4a80 103d a503 2cbd f7df d53b 75d5 43bd
00000240: f327 31bc 5711 c9bc f45d 4dbd 1e09 54bd
00000250: b4da cfbc 5a5f b2bc 3a9b 5e3d 709f 05bd
00000260: 284c d8bc 4d08 ddbc ef27 3f3d f2cc c4bc
00000270: b585 85bd 1a4a cd3c 7244 47bd 6779 21bc
00000280: 42f0 5f3d dffb 823d dadd fdbb 62f2 9d3b
00000290: 8aa5 4e3d f6a9 71bd b94f 943c 9004 c9bc
000002a0: 9944 113d 7308 59bd 539f 223d de9a 00bb
000002b0: e291 8bbc 7991 173c 0851 723c c795 4e3d
000002c0: 70df 7bbd ddc0 463d de77 cf3c 5475 513d
000002d0: 7878 69bd cc00 b33c 84d1 883c 12b6 4a3d
000002e0: a41f 423d 622a fd3c 093d 643d d88e 6cbc
000002f0: 8ce0 02bd 56cc 1bbd d314 3d3d c572 09bd
00000300: 9194 d0bc 19ed 42bd 01a0 493d 6e40 5ebd
00000310: 96c5 313d 9ac9 26bd 80af b53b 9884 78bc
00000320: 9711 363d 92ed 44b9 5bb8 e13c 0b7b 3f3d
00000330: 9f09 4f3d 9593 85bc 43c3 4a3d 6d08 623d
00000340: 899f 323c c15d 22bd ae7d 33bd 15a2 6ebd
00000350: aa80 4a3d d9c6 503d 975b 4dba e80b 51bd
00000360: f4dc babc d525 04bd 4db2 83bc 4d9d 5ebd
00000370: 697b 443d 83b1 1b3d 5a06 16bd 9aaa 0fbd
00000380: 676c e8bc d434 1bbd b383 44bd c416 a13c
00000390: 2402 97bc 544d 12bc ba50 1a3d 607e 223b
000003a0: a4f8 6bbd d39b c8bc e979 88bc 7513 523d
000003b0: ad31 243d 1d1b 733d 18da 8dbb bfa6 6fbd
000003c0: 24c7 5a3d 6883 193d 9241 51bd a8fb 643d
000003d0: 880e 71bd 06a4 1abc 8b0c 753d c0e2 0c3d
000003e0: 94a4 443d 946e a93b d285 fc3c 11d6 cf3c
000003f0: 00d2 c5bc aa47 183d 05b9 5bbd 92b3 273d
0.018518217 -0.051733684 -0.0018230655 0.04748001 -0.02909324 0.0034459971 0.04869672 -0.062405087
-0.020562574 0.034056425 0.041626487 -0.048588075 0.03552233 -0.027524784 0.060082734 -0.051973447
-0.016288208 0.057376232 -0.009053978 -0.006288891 0.054431777 0.015076309 0.0562102 -0.02945859
-0.04337111 -0.051540688 -0.010315374 0.032682497 -0.05233546 -0.014276345 0.054145068 0.0552923
-0.013384812 -0.00046887848 0.04816183 0.033243325 0.032979064 -0.05833841 -0.024879247 -0.03994236
-0.017983116 0.039685376 -0.061274 0.036773015 -0.0066726427 0.05563511 0.022880513 0.05051252
0.051438812 -0.006120363 0.04600052 0.041415866 0.03548405 0.01926219 0.010568696 0.013414617
-0.034618575 0.0011413199 0.032517068 0.036851324 0.03351342 -0.040254243 -0.0061064176 -0.00093006704
0.013358521 0.025449002 -0.004705251 -0.049471766 -0.051283844 0.026691018 0.0125705 -0.028863573
0.041144986 -0.017024573 -0.044645585 0.038951352 -0.063536875 -0.032324474 -0.047611855 -0.042974755
-0.060131602 0.04208288 -0.014509395 -0.00029186366 -0.03773935 -0.015356372 -0.03964127 0.044326328
-0.019521346 0.06222659 0.05489303 0.04847971 0.038216505 -0.021690696 -0.05266306 -0.05773819
-0.051845625 0.013359697 0.012377156 0.051786806 -0.0008353504 0.033279635 -0.018513342 0.024899848
0.024963204 0.03862922 -0.047528304 0.004265675 -0.008944675 -0.038005337 0.048828334 -0.04755932
-0.06374667 0.012888402 0.007296807 -0.03108746 0.014692875 -0.018991979 0.01886748 0.012439065
-0.044470757 0.005966524 -0.010962524 0.010564077 0.058023296 0.056307532 0.030963808 -0.019135324
0.037645493 0.01960507 0.046622187 0.03886289 0.03990922 -0.051272295 -0.044680107 -0.01193479
0.020605449 -0.016250629 -0.013122641 -0.055627853 0.035278596 -0.041995663 0.006526943 -0.04781099
-0.010812747 -0.024544401 -0.05013843 -0.051766507 -0.02537284 -0.021773983 0.054347254 -0.032622755
-0.026403502 -0.026981497 0.046668943 -0.024023507 -0.06519643 0.025059748 -0.04864926 -0.009855605
0.054672487 0.06395697 -0.007747394 0.004820154 0.05045084 -0.058999978 0.018104421 -0.024538308
0.03546581 -0.052986573 0.039702725 -0.0019623558 -0.017037336 0.009250992 0.014789827 0.050435808
-0.061492383 0.048523773 0.025325712 0.051137283 -0.056999654 0.021850966 0.016701467 0.049490042
0.047393456 0.030903999 0.05572227 -0.0144383535 -0.031952426 -0.038036667 0.046162438 -0.03355672
-0.025461467 -0.047589395 0.049224857 -0.054260664 0.043401323 -0.040719606 0.005544603 -0.015168332
0.04445037 -0.00018780518 0.027553728 0.046748202 0.050546285 -0.016305724 0.049502622 0.055183817
0.010902294 -0.039640192 -0.04382103 -0.058260042 0.04943911 0.050970886 -0.00078337773 -0.051036745
-0.022810437 -0.032262642 -0.016076231 -0.054349232 0.047969256 0.038011085 -0.03662715 -0.035074808
-0.028372003 -0.037892178 -0.04797716 0.019664176 -0.018433638 -0.008929569 0.037674643 0.0024794564
-0.05761017 -0.024488365 -0.016659694 0.051288087 0.040086437 0.05935203 -0.0043289773 -0.05850863
0.05341257 0.037478834 -0.051087923 0.05590406 -0.05885175 -0.00943852 0.059826415 0.034395933
0.048008516 0.0051706526 0.03082553 0.02537063 -0.024147987 0.03717772 -0.053643245 0.040942736

actor.weight f4 [1, 256]
00000000: 405c a23c 71e6 6c3c 3ca2 813c 2bd5 32bd
00000010: b81a 4f3d 7c3a 9a3c 0040 0b3d 083e 6fbc
00000020: 0076 b6ba 0cb9 f73c c07c 6bbc 3738 3fbc
00000030: ed21 203d 30b5 49bc ec71 293d 1c7c c63c
00000040: b316 9c3c 803d cbbb 60df 69bd 07ed 4c3d
00000050: 3196 14bd 3d30 3abd aa30 30bb e28d 0fbd
00000060: fad8 76bc 001a 99ba 8e7b 563d afe3 bdbc
00000070: a1f4 c6ba 3481 46bc e555 23bc a1c3 543d
00000080: b006 373d 6bcb a8bb f698 13bd 114c 2ebd
00000090: 3479 623d cc89 143d 9ec2 56bd 9852 033c
000000a0: ae67 113d 9a37 a8bc c281 5a3d a838 cc3c
000000b0: 3dce 2fbd 237a aa3c 7c95 f8bb 594e 6fbd
000000c0: b47c 253d beb5 033d 6be8 f9bc 3305 4f3d
000000d0: 1eca 573d 508e 8bbd 066b 493d aa20 59bc
000000e0: 0ddb 35bd da06 b3bc ece0 0cbb 80fc 96bc
000000f0: 8837 f63c 406d e93c 2fb2 f73c 40c0 78bd
00000100: d9af 41bd 9c53 45bc a725 74bd c350 58bd
00000110: 0000 38bc 288c 4ebd e4d9 a23c c0d1 333d
00000120: ecb0 6c3d f748 e3bb 652c be3c 4437 cc3c
00000130: fa6c c1bc edb6 09bb 8e90 7cbd d32a 80bc
00000140: a8c9 743c d2cb 24bd cd12 73bd 9d21 14bd
00000150: b091 883b d3af 4fbc 24b7 37bd 9c68 283d
00000160: 3b00 7fbd 3938 373d a895 97bb cbf5 2d3b
00000170: 4064 3b3d b008 c7bb 2070 6bbd 1e91 0b3d
00000180: 7e0d b43c 8ecb 003d c86f 53bc 5b0e 2dbd
00000190: e940 033d d18f 9e3c f78b bdbb 2835 bc3b
000001a0: 718e 2bbc aa4e 62bd 90ca d7bb ddd1 183b
000001b0: 50ec 753d 6055 e53b 28e3 a43c 4dec 1d3c
000001c0: 6e53 0c3c a878 433c 2113 21bc d558 0e3d
000001d0: 3fbf 023c 0618 b639 12b1 b43c 0062 d6b9
000001e0: 0c5f 373d 813c 273d f069 3e3d 5f65 25bd
000001f0: c0b5 47bd c00c 823b 3e60 333d 0627 1cbd
00000200: 3085 fa3c e0da 17bc f25a ebbc 42d2 12bd
00000210: 4abb 333d fd91 c2bc 7031 0cbc ef2e 3c3d
00000220: b313 f7bc 5da2 83bc 9041 29bd 4cac 3f3d
00000230: 8e5e 3ab9 0459 a2bb 378f 453d 0d9f 08bd
00000240: dbc7 b53a a076 a2bc 0079 8839 fc33 633d
00000250: 75fe 01bd 5a5e 12bd dcbb bc3c 1a3a 413d
00000260: 0002 ac39 d853 30bd 0e65 4a3d 9b6f 293d
00000270: 20a8 b93c 634b 723c 5790 563d 9b92 1a3d
00000280: c7aa 0c3d fe26 233d d071 a1ba 80dd c03b
00000290: 2fe4 603d c436 d93c 2309 d4bc a649 d43c
000002a0: bb9f 80bc 9e7c 273d 66ed c53c 9e5e 213d
000002b0: 49dc 3dbb 8082 223c ce75 4f3d 5edb 00bb
000002c0: a38e 30bd ae88 60bd 41af 3cbd 2b39 a83c
000002d0: 8e12 443d a2ef 313d 87ea 20bd c213 9fbc
000002e0: 35a1 403d 5f64 bb3c cbea 4f3d 2cb5 013d
000002f0: 00a3 333c bda0 3d3c 4194 45bd 8e5c 19bd
00000300: 7e12 e2bc 636b aebc 7f78 50bd c16d 6e3c
00000310: 2951 603d 7073 dabc a0ce a43b 889d 103c
00000320: 6a22 203d 3bf2 32bd c1d8 80bc 1e7c ce3b
00000330: 18ed 24bd eded 65bc bbb5 44bd d71e 39bc
00000340: ad2e e5bc ae79 573c 5705 9c3a cce9 cc3c
00000350: 6e3f 4c3d abfa 203d 7ed3 2cbd e8ba 293c
00000360: 20bc 843b bb4e 2c3d fbe6 743c 08f7 05bc
00000370: ef9b 7f3c a567 593c dc0c 7c3d 8ab1 2b3b
00000380: d9b1 52bb 30ae 45bc 3a43 833d 7a55 1fbd
00000390: 4000 483d c936 f8bc 8695 07bd de26 32bd
000003a0: b2dd 30bd 7998 6e3d 4f5d 6c3d fc73 773d
000003b0: 486e 49bd 93f5 5f3b 6f94 ca3a 8477 683d
000003c0: c644 6d3d 7f15 39bd f1b6 8d3d 6a91 373d
000003d0: 04a5 643d 73f2 6abd f546 80bc adfa 2ebd
000003e0: 0162 53bd b49a d3bc b3d2 1cbc 9122 78bc
000003f0: 60d7 473b 1c28 a6bc 8c3d 153d 7970 983c
0.019819379 0.014459238 0.01582443 -0.043660324 0.05056259 0.018826716 0.033996582 -0.014602192
-0.0013920665 0.030239604 -0.014373004 -0.0116711175 0.039094854 -0.012311265 0.04136841 0.024229102
0.019053793 -0.0062023997 -0.057097793 0.050030734 -0.036276046 -0.04545616 -0.0026884475 -0.03504742
-0.01506638 -0.0011680722 0.052363925 -0.023179857 -0.0015179106 -0.012115765 -0.009969209 0.05194438
0.044684112 -0.0051512024 -0.036034547 -0.04255301 0.05529137 0.036264226 -0.052431695 0.008015297
0.035499267 -0.020534325 0.053346403 0.02492936 -0.042921294 0.020810192 -0.0075861793 -0.058424328
0.04040213 0.032155745 -0.030506333 0.050542068 0.05268299 -0.06814253 0.04917433 -0.013252417
-0.044398356 -0.021853853 -0.0021496369 -0.018430948 0.030055776 0.028494477 0.030236332 -0.06073022
-0.047286842 -0.01204386 -0.05960622 -0.052811395 -0.011230469 -0.050426632 0.019879289 0.043901205
0.057785913 -0.0069361883 0.023214528 0.024928696 -0.023611534 -0.0021013573 -0.061661296 -0.01564542
0.014940657 -0.04023344 -0.0593441 -0.03616487 0.004167758 -0.012676197 -0.04485239 0.04111539
-0.06225608 0.044731352 -0.0046259947 0.002654421 0.045749903 -0.0060740337 -0.057479978 0.03407394
0.02197909 0.031444125 -0.012905069 -0.04225002 0.032044325 0.019355686 -0.0057845074 0.0057436414
-0.010470972 -0.0552508 -0.0065854266 0.0023318448 0.06003982 0.006998703 0.020127848 0.009638858
0.008564813 0.011930622 -0.009831221 0.034752686 0.007980167 0.00034731644 0.02205709 -0.00040890276
0.04476838 0.040829185 0.04648775 -0.040379878 -0.048757315 0.003968805 0.043792956 -0.038123153
0.030581087 -0.009268492 -0.02872989 -0.03584505 0.043879785 -0.023751253 -0.008556709 0.045943197
-0.03016076 -0.016068632 -0.04132229 0.046795174 -0.00017773567 -0.004954459 0.048232283 -0.033354808
0.0013868766 -0.019831955 0.00026030093 0.055469498 -0.03173681 -0.035734512 0.023038797 0.04717455
0.00032807887 -0.04304871 0.04941278 0.0413662 0.022663176 0.014788481 0.052383747 0.03773747
0.034342553 0.039832108 -0.0012317244 0.00588578 0.054905113 0.026515372 -0.025883263 0.025914025
-0.015701165 0.04089033 0.024161052 0.039396875 -0.0028970412 0.009918809 0.050649457 -0.0019662003
-0.04310478 -0.054817848 -0.046065573 0.020535072 0.047869258 0.043441422 -0.039286163 -0.019418601
0.04702874 0.02287501 0.050761025 0.03166692 0.010964155 0.0115739675 -0.04823709 -0.037441783
-0.027596708 -0.02129144 -0.050896164 0.014552535 0.0547649 -0.026666373 0.0050295144 0.008826621
0.03909532 -0.04368804 -0.015728356 0.006301417 -0.040265173 -0.014033777 -0.048024874 -0.011298857
-0.027976358 0.013151569 0.0011903447 0.025013827 0.04986518 0.039301556 -0.042193882 0.010359503
0.0040507466 0.04206727 0.014947648 -0.008176573 0.015601142 0.01326934 0.0615357 0.002619835
-0.0032149462 -0.012065455 0.06409307 -0.038899876 0.048828363 -0.030299561 -0.03310158 -0.043494098
-0.043180175 0.058250878 0.057706174 0.060413346 -0.049177438 0.0034173473 0.0015455614 0.056754604
0.057926916 -0.045186516 0.06919659 0.044816412 0.055821434 -0.057360124 -0.015658835 -0.04271953
-0.051607136 -0.025830604 -0.009571719 -0.01514496 0.0030493364 -0.020282798 0.03643565 0.018608319

critic.weight f4 [1, 256]
00000000: 5acf 22bd ec5f 76bd ae53 08bd 8bf1 543d
00000010: b8db 6d3b 34ee c6b9 ee00 40bd b6b9 173d
00000020: 20ae c9bc ec52 2c3d 4b37 d3bc faaf 0abd
00000030: 65bb 20bc d052 c5bb df4e 21bd 4070 f8ba
00000040: 2c7b 63bc 57eb 60bd d777 5e3d b0b0 86bb
00000050: 17cb 5dbd b8d0 bb3c 1369 b8bb 7006 23bd
00000060: dfdc b53b b432 9cbc dcd4 4c3d 8a4c 46bd
00000070: f0fa 6bbc 5005 113d 6559 f8bc 567f 323c
00000080: 90c2 2f3c 5af3 773d f956 a1bb 64fe 7e3c
00000090: 5710 293c 884c 4ebd bdd0 0c3d 6ae3 7c3d
000000a0: 719f f13c 1a8a c2bb 8069 d93b f749 2c3d
000000b0: a162 063d afb2 293c 2a78 683d 56d3 0cbd
000000c0: a361 8f3c e893 a1bc 939d b03c 2a6a 843c
000000d0: eb97 d63a 10b8 22bd 5a01 7dbb 0eba 01bd
000000e0: b55e 96bc 564a a2bb 7bd0 463d 4bde 03bd
000000f0: a32f 093d ca21 5e3d e705 fabc f98e e63c
00000100: ddcf 603d 0d71 273d ee86 493d 58a1 a33c
00000110: f502 07bd dc64 05bd b533 c53c 9710 443c
00000120: 1484 653c 04da 05bd 37f2 753d 30d9 ce3c
00000130: 9a1d 67bd 403b 4fbd 32f9 2ebd bb33 2b3d
00000140: a0de 24bb d926 473d 0593 683d 1bdd e13b
00000150: b2c6 733d 1915 58bd c06a c83a d6bd 4e3d
00000160: 9a26 a43c 881b e7bc f8b0 403d bd13 753d
00000170: b8e3 2e3d a0fd 283d d1cf 2fbc 6090 19bc
00000180: cafd 483d 0d55 053c 9679 54bc 0488 463d
00000190: 8876 39bd cafd 2ebd 8d0a 18bd 66c7 41bd
000001a0: 1b61 553b ba32 5e3d de49 a8bb e9a9 3dbd
000001b0: aecb 5f3d 6404 61bd a0d0 4c3d fe07 a4bb
000001c0: 5860 00bd 5207 3dbd f658 09bd 45cf 1fba
000001d0: ee55 e13c f38c 3bbd 933b 4c3d e85e 1dbd
000001e0: 39b2 0bbd deed 3c3d 3f26 4cbd f99d 013d
000001f0: f7ca 34bd 4041 8d3a 4e60 e6bc 327f 093d
00000200: b656 ee3c 360c 2b3d fb0f c93c e087 1b3c
00000210: faf9 413d ab43 d339 0c3c 293d cb1a 693d
00000220: eb09 253d 03e8 53bd e4a0 8ebc 702e 08bd
00000230: f430 9dbc d4f3 3abc b156 5b3d 93ff 003d
00000240: 191f b5bc cdbb a7bb 564e 1abd e089 6b3d
00000250: 56ce e8bb b528 043c 68fb 1f3c 6fc9 85bd
00000260: 38e6 303c 747d 5d3c e91e d3bc 0974 323d
00000270: ec37 503d 2654 b33c 47c1 f7bb 7f40 6c3d
00000280: dc1c cabc 270d 1f3d f095 303d 4614 9cbc
00000290: 6e0f 883c 381f 443d dbbd 2dbb 6409 bf38
000002a0: 0a8d cabc 1f18 193c d88f 0bbd 2998 29bd
000002b0: ec01 4b3d 043d b8ba 8024 493c 9587 ae3c
000002c0: a93a 90bc 70d0 a8bc 1f21 84bc 8bcb 613c
000002d0: 084d c53c 48ca 57bc af22 55bd e2e1 19bd
000002e0: 61a8 67bd ce11 733d 11c2 643c d160 0ebb
000002f0: 68ef 193d 977f 313c 692c 78bd 78d4 71bc
00000300: 34b3 8f3c bf2d b53b 4c83 163d ac40 623d
00000310: 1740 303d 9631 703d 74f1 acbc 1433 21bd
00000320: 07dc 403d b4e0 5d3d 6d97 c23c 16f7 07bd
00000330: a038 03bd f4ef 953b 773f 15bd de54 c23c
00000340: 3842 08bd e840 473d 679b 98bc fe8f 65bd
00000350: 7be6 9c3c a102 2cbd 040f 20bd 08d4 12bc
00000360: f4ca c53c ff29 223d 01d6 65bd c1a8 7fbd
00000370: 5e46 e33c 667d a5bc 8567 303d 9a3c 173d
00000380: b67d 16bd 7851 733d 8e52 133d b857 69bc
00000390: e414 f73c 9f6b 80bb 6001 b1bb 2095 65bb
000003a0: 4f6a 7cbd 0467 72bc 5c85 c53c 9aaa 9e3c
000003b0: 952f 60bd 777c 8cbc b2ae 1a3d 58d8 0ebc
000003c0: e653 44bd 7bcf 39bd 46db de3c 345e 41bd
000003d0: 3c01 efbc 49e3 a2bc dda8 273d 8c6b 733d
000003e0: f327 72bd 097d 5fbd 0a4c 82bd ac80 ae3c
000003f0: 6438 a6bc bc6a 373d 21d8 a13c cf91 c43c
-0.039748527 -0.060150072 -0.03328293 0.051988166 0.0036294293 -0.00037942978 -0.046875887 0.037042342
-0.024619162 0.042071268 -0.025783202 -0.03385923 -0.009810303 -0.006021835 -0.039381858 -0.0018954352
-0.013884347 -0.054911938 0.054313507 -0.0041104183 -0.05414876 0.022926673 -0.00562776 -0.03980106
0.0055500115 -0.019067146 0.050007686 -0.048412837 -0.01440309 0.035405457 -0.030316064 0.010894617
0.01072754 0.060534813 -0.004923698 0.015563581 0.010318837 -0.050365955 0.034378756 0.061740316
0.029494973 -0.005936873 0.006634891 0.042062726 0.032808904 0.010357543 0.056755222 -0.034381233
0.017502612 -0.019723848 0.021559512 0.016163904 0.0016372179 -0.039726317 -0.0038605542 -0.031671576
-0.018355707 -0.004952709 0.048538666 -0.032194417 0.033492696 0.054231443 -0.030520393 0.028144347
0.054885734 0.040879298 0.049200945 0.019974396 -0.032961804 -0.03256689 0.024072507 0.011966846
0.014008541 -0.03267862 0.060045447 0.025250047 -0.056424715 -0.050593615 -0.04271812 0.04179738
-0.002515711 0.048621032 0.056780834 0.006892813 0.059515662 -0.052754495 0.0015290603 0.05047401
0.020037938 -0.02821137 0.04704377 0.059833277 0.04269764 0.0412575 -0.0107307 -0.009372801
0.049070157 0.0081379535 -0.0129684415 0.04846956 -0.045279056 -0.0427225 -0.037119437 -0.0473093
0.00325591 0.054247595 -0.005135759 -0.046304617 0.054637603 -0.054935828 0.050003648 -0.0050058356
-0.03134188 -0.04614956 -0.033532105 -0.0006096254 0.027506795 -0.045788717 0.049861502 -0.038420588
-0.034105513 0.046125285 -0.04984116 0.031644795 -0.044138875 0.0010776892 -0.028122094 0.03356857
0.029094081 0.041759692 0.024543753 0.009492844 0.047357537 0.00040295473 0.04131703 0.056910317
0.04029266 -0.051734935 -0.017410703 -0.03324741 -0.019188382 -0.011410672 0.053549472 0.031493735
-0.022109555 -0.005118823 -0.037672363 0.057504535 -0.0071046753 0.008066346 0.00976453 -0.06532561
0.010797076 0.01351868 -0.025771575 0.04356769 0.05083458 0.021890711 -0.0075608823 0.057678696
-0.024671964 0.038830902 0.04311174 -0.019052636 0.01660892 0.047881335 -0.0026510868 9.109339e-05
-0.024725456 0.00934413 -0.034072727 -0.041404877 0.04956238 -0.001405627 0.012276769 0.021304885
-0.017606096 -0.020607203 -0.016129075 0.013781439 0.024084583 -0.013170786 -0.05203503 -0.037568934
-0.056557063 0.05934315 0.013962285 -0.0021725188 0.03758183 0.010833642 -0.060589228 -0.014760129
0.017541505 0.005529135 0.03674631 0.055237457 0.04302987 0.05864104 -0.021111228 -0.039355353
0.047084834 0.05416937 0.023753846 -0.033194624 -0.032036424 0.004575724 -0.036437478 0.023722108
-0.033266276 0.048645884 -0.01862879 -0.056045525 0.01915287 -0.041994695 -0.03907682 -0.008961685
0.024144627 0.03959083 -0.056112293 -0.062416796 0.027743515 -0.020201396 0.043067474 0.03692303
-0.03674098 0.059403867 0.035967402 -0.014242105 0.030161329 -0.0039190794 -0.0054017752 -0.0035031512
-0.06162482 -0.014795069 0.024111442 0.019368459 -0.054732878 -0.017149193 0.03776426 -0.008718573
-0.047931574 -0.045363884 0.027204167 -0.04720898 -0.029175393 -0.019883769 0.040932525 0.059428737
-0.05912013 -0.054562602 -0.063621596 0.02130159 -0.020290561 0.044779524 0.019756379 0.023995308
