models1/ppo_400.pth (torch, 275264 bytes, 6 tensors)

net.0.weight f4 [256, 6]
-0.38104662 -0.41399285 0.13760161 0.3649876 -0.05413809 -0.37832087 -0.050533902 -0.035279296
0.41869563 -0.3470557 -0.09688529 0.45293632 -0.13251787 0.4296056 0.016524727 -0.4788776
-0.12938444 -0.06779108 -0.2644108 0.29686466 0.20022416 0.015633134 -0.085512824 0.40331304
0.28034398 -0.087524906 -0.48941523 0.22171302 0.22210392 -0.20122309 0.15759669 0.009140104
0.345146 -0.007578885 -0.2997485 0.20535904 0.01577844 0.1505764 0.346201 0.21032992
0.1633666 -0.39733276 -0.3164849 -0.30326134 0.082604334 0.22087435 -0.11918312 0.29977465
-0.105924815 -0.17387834 0.34761328 0.011858255 0.23383385 -0.22874923 0.23435532 0.2327008
0.44847292 -0.47774333 -0.23488621 0.21584174 0.07264264 -0.19187012 -0.37865192 -0.34109995
-0.16548151 -0.15500715 0.039898075 -0.25291723 -0.21307318 0.2729287 -0.10520436 -0.12455343
-0.093952924 0.13751051 -0.08384476 0.27163175 -0.3090335 -0.05028933 -0.064321496 0.098624036
0.105710424 0.17904367 -0.055479713 -0.49727264 0.3631912 0.19366245 -0.26429173 0.00616807
-0.33472326 0.3479899 0.22716056 -0.20100279 -0.058507845 -0.35265487 -0.394769 0.13377842
0.17854415 0.2359827 0.37815878 -0.11332243 -0.055132654 -0.32514352 -0.37620518 -0.11035325
-0.058363978 -0.31047565 0.013409233 0.18262574 -0.37109888 0.29417285 -0.5008051 -0.34523466
-0.09483286 0.2611549 0.18420699 0.23406126 -0.16302806 0.39194435 -0.14367136 -0.21642436
-0.15292516 0.08877952 -0.040768363 0.28145683 0.1865298 0.35717034 0.31441784 0.19124947
-0.09228946 0.00057447265 0.049402196 -0.318441 -0.30739546 0.07335524 0.3203422 -0.4318774
-0.11721934 0.44100258 0.21781883 -0.08162845 -0.11943824 -0.04756418 0.1273928 0.06910522
-0.051972758 0.28232533 -0.01668799 0.0060539427 0.2710699 -0.40803283 -0.22920923 0.32107195
-0.388049 0.57232547 0.052664455 -0.2285845 0.23413724 0.11580596 -0.22890848 0.12788212
0.06976152 -0.18993284 0.10503627 -0.093044996 0.563576 -0.4960603 0.05493955 -0.34909418
0.35727614 -0.3591361 0.21835876 0.36007395 -0.14424326 -0.11877826 -0.17822962 0.13701028
0.16132103 -0.28457323 -0.30178273 0.049237635 -0.13079904 -0.2525304 -0.36267006 0.33071986
0.3566436 0.28161514 0.07711503 -0.11025099 -0.5126851 0.20705457 0.05187027 -0.10221061
-0.20511405 -0.06730957 -0.1657977 0.34592786 -0.15509409 0.079923265 -0.0729451 0.2565969
-0.08795201 -0.02170314 0.1572413 0.1048139 -0.30810946 0.2639192 -0.1834509 0.40553677
-0.33026776 0.09938826 -0.26522243 0.11971088 0.35860872 0.2658355 -0.105982035 -0.02565287
0.22692056 0.27374902 0.24333292 -0.32965258 -0.24462925 -0.2628722 -0.22182225 -0.20374553
0.4110814 -0.21307498 -0.19478387 -0.19692835 -0.04295638 0.19144745 -0.35249177 0.28633818
-0.23317002 -0.014815024 -0.16843252 -0.039192677 0.029431386 0.17213129 -0.18168727 0.4679776
0.23071969 -0.38478065 -0.05280208 -0.23633192 0.14480585 -0.39345124 -0.39476523 -0.43666828
0.13962975 0.29106292 0.011306007 0.02922454 0.28957704 -0.33401525 0.2117974 -0.48114142
00000000: 8b18 c3be dff6 d3be 70e7 0c3e a8df ba3e
00000010: e7bf 5dbd 46b3 c1be a3fc 4ebd 0681 10bd
00000020: 465f d63e 49b1 b1be cc6b c6bd 45e7 e73e
00000030: c4b2 07be 44f5 db3e dd5e 873c 722f f5be
00000040: 5b7d 04be 0dd6 8abd da60 87be a5fe 973e
00000050: 9007 4d3e 0f11 803c 5921 afbd 0c7f ce3e
00000060: 3f89 8f3e 4240 b3bd a294 fabe bd08 633e
00000070: 366f 633e 6d0d 4ebe 0761 213e 60c0 153c
00000080: fab6 b03e 4c58 f8bb a378 99be a449 523e
00000090: c941 813c b330 1a3e 4241 b13e ba60 573e
000000a0: 9349 273e 336f cbbe 4f0a a2be 1245 9bbe
000000b0: 762c a93d e32c 623e 4816 f4bd 107c 993e
000000c0: 1cef d8bd 2a0d 32be 5efa b13e 2049 423c
000000d0: 2472 6f3e 3d3d 6abe d7fa 6f3e 1e49 6e3e
000000e0: 3e9e e53e c69a f4be 0386 70be 9e05 5d3e
000000f0: aac5 943d 9a79 44be aade c1be a7a4 aebe
00000100: fc73 29be 32ba 1ebe 2a6c 233d 5e7e 81be
00000110: db2f 5abe 50bd 8b3e 6275 d7bd de15 ffbd
00000120: 646a c0bd 8ecf 0c3e cdb6 abbd 5113 8b3e
00000130: a439 9ebe 2ffc 4dbd fdba 83bd 66fb c93d
00000140: b57e d83d 3957 373e b23e 63bd 859a febe
00000150: 32f4 b93e 734f 463e 3f51 87be 851d ca3b
00000160: d960 abbe bb2b b23e c79c 683e add3 4dbe
00000170: eca5 6fbd 2e8f b4be 2a1f cabe 36fd 083e
00000180: 47d4 363e 73a5 713e 079e c13e 9715 e8bd
00000190: c7d2 61bd 3679 a6be f79d c0be e200 e2bd
000001a0: 110f 6fbd aaf6 9ebe 66b2 5b3c 3e02 3b3e
000001b0: ac00 bebe d39d 963e c334 00bf 99c2 b0be
000001c0: bb37 c2bd 18b6 853e c2a0 3c3e c1ad 6f3e
000001d0: d4f0 26be eeac c83e 961e 13be 599e 5dbe
000001e0: 6a98 1cbe 09d2 b53d bafc 26bd 1c1b 903e
000001f0: ab01 3f3e 08df b63e 60fb a03e e7d6 433e
00000200: 4202 bdbd 3598 163a f559 4a3d b30a a3be
00000210: f062 9dbe 463b 963d e503 a43e 091f ddbe
00000220: b110 f0bd 17cb e13e e60b 5f3e d12c a7bd
00000230: 099c f4bd a8d2 42bd 4273 023e 0a87 8d3d
00000240: 63e1 54bd f28c 903e 40b5 88bc 2760 c63b
00000250: adc9 8a3e aee9 d0be d3b5 6abe 8b63 a43e
00000260: 5cae c6be ec83 123f afb6 573d 0e12 6abe
00000270: acc1 6f3e ad2b ed3d fc66 6abe 88f3 023e
00000280: 21df 8e3d c17d 42be 421d d73d 608e bebd
00000290: 8446 103f 9efb fdbe 4b08 613d 79bc b2be
000002a0: e6ec b63e b0e0 b7be 7099 5f3e 9d5b b83e
000002b0: 81b4 13be 0442 f3bd d381 36be 6c4c 0c3e
000002c0: 5731 253e 95b3 91be 4483 9abe 67ad 493d
000002d0: 2ff0 05be aa4b 81be e4af b9be 1d54 a93e
000002e0: fd99 b63e dc2f 903e 7cee 9d3d 45cb e1bd
000002f0: 553f 03bf 1d06 543e ec75 543d cc53 d1bd
00000300: 6b09 52be 9ad9 89bd dfc6 29be 751d b13e
00000310: fcd0 1ebe cfae a33d 3e64 95bd ab60 833e
00000320: 2f20 b4bd c9ca b1bc dd03 213e aca8 d63d
00000330: 86c0 9dbe 6b20 873e 8dda 3bbe 84a2 cf3e
00000340: db18 a9be 128c cb3d 3ccb 87be fa2a f53d
00000350: 909b b73e 971b 883e 1c0d d9bd f825 d2bc
00000360: dd5d 683e d528 8c3e 442c 793e 39c8 a8be
00000370: 1780 7abe 2f97 86be 5f25 63be aba2 50be
00000380: 4379 d23e 5430 5abe 6c75 47be 96a7 49be
00000390: 07f3 2fbd cd0a 443e cd79 b4be eb9a 923e
000003a0: 1fc4 6ebe b7ba 72bc 9379 2cbe 8088 20bd
000003b0: 171a f13c 2f43 303e 3a0c 3abe c39a ef3e
000003c0: c841 6c3e f801 c5be fe46 58bd ff00 72be
000003d0: fc47 143e 7172 c9be ab1e cabe fc92 dfbe
000003e0: 1afb 0e3e 3306 953e d53c 393c 4d68 ef3c
000003f0: 7143 943e 0c04 abbe 6be1 583e 2b58 f6be

net.0.bias f4 [256]
-0.273701 0.011758219 -0.344919 -0.34213614 0.39688283 -0.3729024 -0.38201824 -0.29346028
0.16827162 0.04455582 0.12695843 -0.22446705 -0.047852118 -0.24719134 -0.3598393 0.311785
0.3656064 0.13201477 -0.080533475 0.35442284 -0.26276773 -0.33048248 0.083757505 0.36604002
0.35664827 0.16879629 0.2306446 0.21516939 0.09924269 -0.0125292605 0.3198087 0.2377132
0.14333418 -0.32661083 -0.14152192 0.06279971 -0.3712255 0.4067572 0.20910782 -0.2381325
-0.21352394 0.028778888 0.2366452 -0.21066852 -0.10069464 0.25996137 0.19849695 -0.4616034
0.121055305 0.24624635 -0.34169298 0.25705817 -0.06681273 -0.16531415 -0.27840737 0.21009383
-0.25647786 0.22631527 0.04961794 -0.11291798 -0.08164219 0.18303768 -0.0012390009 0.12770642
0.23451157 0.15500776 -0.1123772 0.219473 0.19411077 0.26573393 0.15083118 -0.15196083
0.2501917 -0.4103789 -0.36187154 -0.14759196 0.2662069 -0.34707084 0.21710269 -0.09229098
-0.07516024 -0.025609273 -0.03096683 0.001992822 -0.1390752 0.053940702 0.29146832 0.36266044
0.031328883 0.30829474 -0.023911264 0.16542634 0.25051057 0.017342668 0.23280269 0.29359207
-0.4099596 -0.22225025 -0.31729874 0.04479232 -0.09045364 -0.21769957 0.15247716 0.26445565
0.17183806 -0.25425962 0.061051246 0.18391559 -0.38441816 0.26452556 0.09425675 0.3927148
0.32386506 -0.1555949 -0.11859402 -0.28819725 -0.120947555 -0.29397282 0.3818526 -0.29499185
-0.3180125 -0.034798924 0.06844217 0.15358476 0.32517564 -0.23431657 0.355496 -0.40964475
0.37059468 -0.15075229 -0.05454386 0.1608773 0.25760004 -0.2723587 -0.11464601 0.16699907
0.077783965 0.06180311 -0.078910574 0.19316983 0.3310598 0.32551855 0.1836701 -0.04034886
0.391451 0.30410075 -0.34122452 -0.019365812 0.30847055 0.11178058 -0.0031214335 -0.31207654
-0.036993966 0.29765347 0.21927428 -0.25626868 -0.24932218 0.018713972 -0.24572173 0.15230727
-0.35746542 -0.14589939 -0.12889284 0.09993029 0.045342393 -0.38553578 0.32519978 0.32364246
0.3900338 -0.3552661 -0.29052967 -0.3598155 -0.20002832 -0.3111281 -0.061405975 0.37383777
0.21450499 -0.18130477 0.30867442 -0.058302417 -0.32900622 -0.20614184 -0.40346873 -0.18114352
-0.41993597 0.05387334 0.33870617 -0.104012854 -0.07963353 -0.31501654 0.16501501 -0.049196094
0.0022422783 0.39262727 -0.20623109 -0.17192462 -0.117327824 -0.026712796 -0.09723582 -0.31415808
0.050840102 0.19601138 0.32480362 0.014362519 0.18210019 -0.105514064 0.22645834 -0.010012633
0.34741348 0.19699696 -0.0446149 0.10052211 0.37497562 -0.375511 -0.028843552 -0.15090933
-0.20891804 -0.19410147 -0.42669982 0.3314774 0.10878312 -0.31277195 0.24189317 -0.27291593
-0.22947465 0.20468436 -0.010636248 0.25772086 0.2036707 -0.1972178 -0.07493732 0.09234221
-0.07074356 -0.01621047 -0.44738233 -0.017806545 0.31168658 -0.2393466 0.40126055 0.32547447
-0.024847366 0.15014136 0.1198276 -0.15384161 0.32255018 -0.17878948 -0.04732329 0.18616228
-0.13881896 0.33253726 -0.4057066 -0.035357725 0.116986714 -0.012017603 0.27074894 -0.069554515
00000000: 8a22 8cbe 8ca5 403c 3999 b0be 782c afbe
00000010: 3a34 cb3e 10ed bebe e597 c3be 6d40 96be
00000020: 654f 2c3e 2a80 363d 6401 023e b1da 65be
00000030: 9500 44bd ba1f 7dbe db3c b8be 49a2 9f3e
00000040: c330 bb3e e12e 073e bcee a4bd e976 b53e
00000050: 7e89 86be 0035 a9be 0e89 ab3d 9969 bb3e
00000060: 9a9a b63e efd8 2c3e 192e 6c3e 5d55 5c3e
00000070: c03f cb3d 8747 4dbc f7bd a33e 176b 733e
00000080: 32c6 123e 8939 a7be 1feb 10be 229d 803d
00000090: 4511 bebe 7b42 d03e 5c20 563e 02d9 73be
000000a0: 05a6 5abe b4c1 eb3c 1f53 723e 7db9 57be
000000b0: fe38 cebd a819 853e c942 4b3e 4857 ecbe
000000c0: d8eb f73d 0128 7c3e 62f2 aebe 219d 833e
000000d0: 1dd5 88bd 1d48 29be 698b 8ebe d622 573e
000000e0: 1151 83be 31bf 673e 2e3c 4b3d 8b41 e7bd
000000f0: 0534 a7bd 3b6e 3b3e f965 a2ba 79c5 023e
00000100: cd23 703e 5bba 1e3e 0426 e6bd 88bd 603e
00000110: f9c4 463e 470e 883e 7d73 1a3e 9f9b 1bbe
00000120: 2019 803e 2f1d d2be 3a47 b9be 5922 17be
00000130: 454c 883e 45b3 b1be 2b50 5e3e 0e03 bdbd
00000140: 9ded 99bd 8aca d1bc 26ae fdbc 019a 023b
00000150: bb69 0ebe edf0 5c3d 563b 953e a1ae b93e
00000160: b752 003d cfd8 9d3e 8ee1 c3bc 8665 293e
00000170: ec42 803e 3612 8e3c d463 6e3e b351 963e
00000180: 3ae6 d1be 9295 63be fb74 a2be 2778 373d
00000190: c23f b9bd a3ec 5ebe f922 1c3e bb66 873e
000001a0: 51f6 2f3e 512e 82be df10 7a3d 5e54 3c3e
000001b0: 75d2 c4be e56f 873e af09 c13d ea11 c93e
000001c0: a4d1 a53e 4554 1fbe 6ce1 f2bd 978e 93be
000001d0: 5ab3 f7bd 9b83 96be 2f82 c33e 2c09 97be
000001e0: 89d2 a2be 5189 0ebd 692b 8c3d 5345 1d3e
000001f0: 6c7d a63e aff0 6fbe 9203 b63e f5bc d1be
00000200: 96be bd3e cf5e 1abe 6269 5fbd 05bd 243e
00000210: 27e4 833e 9972 8bbe 87cb eabd ce01 2b3e
00000220: 334d 9f3d 4225 7d3d de9b a1bd 50ce 453e
00000230: ac80 a93e 5eaa a63e 0414 3c3e d944 25bd
00000240: 446c c83e 18b3 9b3e fbb4 aebe 0da5 9ebc
00000250: daef 9d3e 37ed e43d f790 4cbb 7fc8 9fbe
00000260: fc86 17bd 0966 983e 7089 603e a635 83be
00000270: 504e 7fbe 0b4e 993c 7a9e 7bbe 70f6 1b3e
00000280: b505 b7be a666 15be 7cfc 03be 40a8 cc3d
00000290: f2b8 393d f264 c5be 9680 a63e 77b4 a53e
000002a0: 83b2 c73e 70e5 b5be 4ec0 94be bd39 b8be
000002b0: 39d4 4cbe 2f4c 9fbe d584 7bbd aa67 bf3e
000002c0: 32a7 5b3e f5a7 39be 930a 9e3e 84ce 6ebd
000002d0: 8173 a8be d916 53be 7493 cebe b07d 39be
000002e0: d901 d7be 4baa 5c3d e56a ad3e b104 d5bd
000002f0: e716 a3bd d949 a1be b2f9 283e d881 49bd
00000300: 30f3 123b 7106 c93e 3e2e 53be 020d 30be
00000310: 9249 f0bd cbd4 dabc 9323 c7bd 54d9 a0be
00000320: b63d 503d 35b7 483e a94c a63e c550 6b3c
00000330: 7978 3a3e c217 d8bd b2e4 673e 070c 24bc
00000340: 2ee0 b13e 92b9 493e 1dbe 36bd 89de cd3d
00000350: cefc bf3e fa42 c0be 5049 ecbc fa87 1abe
00000360: 9cee 55be 89c2 46be 6678 dabe 68b7 a93e
00000370: afc9 de3d a523 a0be d8b2 773e a3bb 8bbe
00000380: 67fb 6abe c798 513e a843 2ebc fdf3 833e
00000390: 0d8f 503e 77f3 49be bd78 99bd ea1d bd3d
000003a0: 00e2 90bd d2cb 84bc 4c0f e5be 08df 91bc
000003b0: 6295 9f3e 4617 75be 0672 cd3e 97a4 a63e
000003c0: b48c cbbc a8be 193e 2c68 f53d a888 1dbe
000003d0: 4c25 a53e 9714 37be 11d6 41bd 53a1 3e3e
000003e0: 8f26 0ebe 5342 aa3e c7b8 cfbe 43d3 10bd
000003f0: bb96 ef3d 7be5 44bc 9b9f 8a3e 9972 8ebd

net.2.weight f4 [256, 256]
-0.054424964 -0.00012021703 -0.058927245 -0.031184427 0.03189987 -0.015315297 0.00842105 -0.007412952
-0.0008756854 0.017437564 -0.043156706 0.024053797 -0.0036621382 -0.05260013 0.051483274 0.03278175
0.048193775 -0.033413976 0.023961276 -0.04020561 -0.039744392 -0.025477022 0.024251161 -0.023931714
-0.020927828 -0.01249486 -0.050093282 0.034710187 -0.047866125 0.036976706 -0.032725655 -0.010328347
-0.04476503 -0.0010584369 0.04011433 -0.055766407 -0.051189173 0.04762725 -0.050051037 0.0011211135
-0.023808926 0.02603046 0.0037272177 0.0019015928 -0.040766183 0.04612163 0.04986443 0.014696136
-0.029588059 0.019944772 0.05469589 0.0332767 -0.028278427 0.05804164 0.049172647 0.015881982
0.005064975 0.009452446 0.002367705 0.021326467 0.059244797 0.0007333145 0.016944256 0.048942197
0.033629224 0.012116457 -0.023171037 -0.045251366 -0.034287117 -0.032198112 0.014514587 -0.015199922
-0.054323632 0.046267174 -0.004230976 0.044733897 -0.054978065 0.0004990183 0.01810757 0.04322976
0.018836508 0.015240046 -0.017789934 0.025605757 -0.011503243 -0.019788524 0.04400553 0.027106473
-0.011748777 -0.0474152 -0.042214803 0.044022515 -0.029805249 -0.054066695 -0.06588626 -0.023678517
-0.01465614 -0.050814793 -0.042616703 -0.046989005 -0.06894497 0.05545 0.055634085 -0.0028045967
0.048685413 0.024253383 -0.015216056 0.033020683 -0.023147456 -0.06394368 0.022991698 0.038317688
-0.011112204 -0.056590587 0.016015043 0.003483939 0.031284038 0.0035212636 0.04498108 0.031295314
-0.05238083 -0.01103957 0.04433683 0.042229317 0.03090351 -0.013757743 -0.020328198 -0.02778121
-0.00348425 -0.011983281 -0.04873818 -0.005194232 0.00655372 0.04192473 -0.032488227 0.029448468
0.04627963 -0.009182245 -0.0510998 -0.047078937 -0.026077468 -0.06147616 -0.0059727426 0.040044792
-0.032173768 -0.018622192 0.056769922 0.023797587 0.046814658 0.030941665 -0.0061600106 0.042143993
-0.017815623 -0.04705217 -0.06508362 -0.04900141 -0.041505247 0.04897669 -0.0395462 -0.066111505
0.02669169 -0.019728892 -0.021771288 -0.044095263 0.01659247 0.01692291 -0.045125656 0.053776033
-0.045134757 0.037930455 -0.058746792 0.043728054 -0.048682112 0.015990324 -0.03929711 -0.04927254
0.03858982 0.033241563 0.053999595 0.033882603 -0.023889966 -0.019637883 -0.02285494 -0.060613986
-0.009038918 0.028932147 0.05263379 -0.055393428 0.02125355 -0.06725238 0.013414696 0.0032155588
0.030237854 -0.0071835215 0.043244466 -0.033310752 0.011440804 0.02577276 0.026833937 0.024103351
-0.020516349 0.05120369 -0.054120537 -0.011339323 0.0202432 0.018234352 -0.026825001 -0.012264669
0.049209937 0.0050688996 -0.0008967858 0.036202356 -0.04636982 -0.023828737 -0.018477492 -0.007865615
-0.027003728 -0.0397755 0.04147401 -0.04474229 0.049490083 -0.01724202 0.015451026 0.041424476
0.031055704 0.04357485 -0.06731012 -0.059495293 -0.0685035 -0.043128114 0.006690145 0.0038558068
-0.021936705 -0.040677063 -0.030415857 0.06068993 -0.057848614 0.045444712 -0.054773975 -0.045061376
-0.053384162 0.055447325 -0.056735765 -0.043623343 -0.044632845 0.032288894 -0.04041883 -0.04991225
0.027431909 0.01874075 -0.020358376 0.0023637773 -0.009391624 0.021697052 -0.055293463 -0.059202626
00000000: b6ec 5ebd 071d fcb8 b25d 71bd 7c76 ffbc
00000010: 70a9 023d 03ed 7abc 72f8 093c 59e8 f2bb
00000020: 418e 65ba 39d9 8e3c 16c5 30bd 780c c53c
00000030: 7c00 70bb 3c73 57bd 20e0 523d 2846 063d
00000040: d666 453d 18dd 08bd 704a c43c a3ae 24bd
00000050: 04cb 22bd 30b5 d0bc 5faa c63c 710c c4bc
00000060: d670 abbc 3eb7 4cbc 9d2e 4dbd 452c 0e3d
00000070: 450f 44bd e374 173d 560b 06bd 3a38 29bc
00000080: 895b 37bd 40bb 8aba ec4e 243d 516b 64bd
00000090: bdab 51bd cb14 433d 5102 4dbd 54f2 923a
000000a0: f00a c3bc d53d d53c 5644 743b de3e f93a
000000b0: 71fa 26bd 09ea 3c3d a53e 4c3d 10c8 703c
000000c0: a862 f2bc 3863 a33c cc08 603d 264d 083d
000000d0: 29a8 e7bc 12bd 6d3d 4269 493d ee1a 823c
000000e0: 17f8 a53b 6fde 1a3c 802b 1b3b d8b4 ae3c
000000f0: acaa 723d e73b 403a aece 8a3c 9d77 483d
00000100: ccbe 093d 1b84 463c 30d1 bdbc 7f59 39bd
00000110: a670 0cbd 2be2 03bd 97ce 6d3c 1809 79bc
00000120: 7582 5ebd a682 3d3d 00a4 8abb e43a 373d
00000130: ae30 61bd 8dd0 023a 5456 943c b011 313d
00000140: 054f 9a3c 63b1 793c 32bc 91bc 2ac3 d13c
00000150: 1978 3cbc 8b1b a2bc 253f 343d 650e de3c
00000160: f17d 40bc 7136 42bd 6ee9 2cbd f450 343d
00000170: 232a f4bc 0a75 5dbd 60ef 86bd 73f9 c1bc
00000180: 4e20 70bc 2c23 50bd da8e 2ebd 8b77 40bd
00000190: 0533 8dbd 8a1f 633d 91e0 633d 53cd 37bb
000001a0: 5b6a 473d 08af c63c c44c 79bc b240 073d
000001b0: bc9f bdbc e7f4 82bd 1659 bc3c 02f3 1c3d
000001c0: f60f 36bc 88cb 67bd fb31 833c cc52 643b
000001d0: b123 003d 00c5 663b 153e 383d 842f 003d
000001e0: 488d 56bd 50df 34bc 899a 353d a6f8 2c3d
000001f0: 5c29 fd3c 2868 61bc 5287 a6bc 6c95 e3bc
00000200: 0458 64bb 8655 44bc b0a1 47bd 6034 aabb
00000210: 97c0 d63b 44b9 2b3d 6012 05bd ea3d f13c
00000220: b68f 3d3d 2071 16bc 064e 51bd d8d5 40bd
00000230: 6aa0 d5bc 6dce 7bbd ffb6 c3bb 0206 243d
00000240: a4c8 03bd 918d 98bc 9487 683d 28f3 c23c
00000250: bac0 3f3d 6079 fd3c ead9 c9bb 2e9f 2c3d
00000260: 12f2 91bc c7b9 40bd 904a 85bd b4b5 48bd
00000270: 6801 2abd c89b 483d 32fb 21bd 7865 87bd
00000280: 88a8 da3c 7c9e a1bc b359 b2bc 3c9d 34bd
00000290: efec 873c eaa1 8a3c aed5 38bd 4244 5c3d
000002a0: 39df 38bd f75c 1b3d 7aa0 70bd 301c 333d
000002b0: e566 47bd 24fe 823c 02f6 20bd 01d2 49bd
000002c0: 5c10 1e3d 4e28 083d ae2e 5d3d 7cc8 0a3d
000002d0: e4b4 c3bc a0df a0bc 483a bbbc 5f46 78bd
000002e0: f817 14bc 1c03 ed3c 8796 573d 38e4 62bd
000002f0: ed1b ae3c 9ebb 89bd 50c9 5b3c 20bc 523b
00000300: 60b5 f73c bf63 ebbb 1c21 313d db70 08bd
00000310: 3672 3b3c 6521 d33c d8d2 db3c 6474 c53c
00000320: e711 a8bc f6ba 513d 7fad 5dbd 91c8 39bc
00000330: 11d5 a53c 3560 953c 1bc0 dbbc c0f1 48bc
00000340: 5c90 493d 0319 a63b 4716 6bba ec48 143d
00000350: 48ee 3dbd 7c34 c3bc 1c5e 97bc c8de 00bc
00000360: ec36 ddbc a2eb 22bd a7e0 293d b143 37bd
00000370: 1db6 4a3d 233f 8dbc 4d26 7d3c b6ac 293d
00000380: 8868 fe3c 8b7b 323d e3d9 89bd 56b1 73bd
00000390: 904b 8cbd 1ba7 30bd 0139 db3b b4b1 7c3b
000003a0: 9bb4 b3bc fe9c 26bd ad2a f9bc 0196 783d
000003b0: abf2 6cbd 3c24 3a3d ad5a 60bd 4792 38bd
000003c0: 5aa9 5abd bc1c 633d c363 68bd 64ae 32bd
000003d0: eed0 36bd 5c41 043d 378e 25bd ca70 4cbd
000003e0: e2b8 e03c 3486 993c 9cc6 a6bc 9ae9 1a3b
000003f0: 53df 19bc 04be b13c 667b 62bd 747e 72bd

net.2.bias f4 [256]
0.011397199 -0.050539657 -0.029205333 0.038021386 0.003044059 -0.0012373977 0.031597033 -0.071174294
-0.020562574 0.10712885 0.041626487 -0.059953026 0.05985746 -0.034093153 0.06785646 -0.051973447
0.00074303336 0.050332896 0.056800496 -0.006288891 0.0177995 0.032127414 0.0857005 -0.02945859
-0.042650536 -0.060006253 -0.019815248 0.025343224 -0.05906703 -0.0055525936 0.031953342 0.11823099
-0.013384812 0.07567937 0.045581527 0.04691173 0.06494359 -0.084795 0.03343369 -0.03994236
0.04844108 0.03877682 -0.061274 0.0984751 -0.025479503 0.07926047 0.022880513 0.04573821
0.11506691 0.006725582 0.03942781 0.108086675 0.059751444 0.009683568 0.0326932 -0.0002933574
-0.039857924 -0.0012001735 0.09253049 0.026574157 0.09618575 -0.04836717 0.018727802 0.05622883
0.011442119 0.077543326 0.03932171 -0.05472218 -0.07226231 0.016383575 0.073129356 0.03526491
0.03504031 -0.026253195 -0.052784216 0.031090863 -0.06893493 -0.07898742 -0.047611855 -0.0045770938
-0.0226163 0.101572216 0.038529355 -0.0040208725 -0.047208343 -0.015356372 -0.03964127 0.044326328
0.029782703 0.076597765 0.04761897 0.12372858 0.02947581 -0.038120586 -0.058405332 -0.03219691
0.016117724 0.07968933 0.009805209 0.051786806 -0.019487683 0.02554254 -0.027010301 0.0153937815
0.07461656 0.09726077 -0.087228805 -0.0016276658 -0.018451078 -0.038005337 0.048828334 -0.05367081
-0.07406083 0.0053654485 -0.006259605 -0.0025184164 0.0072298073 -0.027639022 0.09148001 0.002936557
-0.053766854 0.0015004505 -0.02846529 0.06440487 0.06060281 0.11126892 0.016923718 0.042970046
0.032473303 0.01960507 0.031351782 0.03886289 0.032513477 -0.044608913 -0.05397373 0.064999275
0.07934994 -0.05237287 -0.013122641 -0.06511112 0.030381044 -0.051295314 0.08029659 -0.060619317
-0.024360077 -0.038231242 -0.05013843 -0.05685327 -0.027344272 0.022976803 0.04499237 -0.05185083
-0.032772765 -0.038177982 0.06710827 0.055010386 -0.06519643 0.07406471 -0.019815022 -0.019278325
0.05021996 0.13264844 0.07401915 -0.0033220986 0.113521874 -0.058999978 0.013374493 0.005679478
0.008750704 -0.022459572 0.03168645 0.017566849 0.054728113 0.038144115 0.014789827 0.04189782
-0.068338566 0.03732255 0.02234577 0.108568445 -0.056999654 0.021850966 0.013646939 0.058716428
0.03538054 0.026156636 0.12581947 0.016209474 -0.04006157 -0.0061323233 0.01658477 -0.040582124
0.004103957 -0.04223225 0.090634316 0.015910275 0.118180774 -0.040719606 -0.0139208315 -0.015168332
0.12049765 0.067009255 0.067089885 0.028042212 0.043901656 -0.022643901 0.02969348 0.08360573
-0.0042615086 0.03331697 -0.050815325 -0.0860397 0.108112656 0.055217363 -0.013647761 -0.05935443
-0.030575812 -0.032262642 -0.018613053 -0.060224768 0.11536662 0.037587687 0.039732486 0.03785734
-0.042755302 -0.037892178 0.025348386 0.019664176 -0.012965148 -0.012925813 0.033148274 -0.003235723
-0.075373515 0.0027256247 -0.023646953 0.12220538 0.031848643 0.08940121 0.05738897 -0.032326885
0.065954715 0.03320769 0.021325093 0.045165222 -0.0661908 -0.0185654 0.120739825 0.102262974
0.02337196 -0.010397093 0.011330505 0.07092591 -0.032334525 0.027664449 0.0065937364 0.10247975
00000000: 51bb 3a3c ac02 4fbd 0640 efbc 50bc 1b3d
00000010: d67e 473b 2d30 a2ba e46b 013d d4c3 91bd
00000020: d872 a8bc 5f66 db3d 8980 2a3d 4e91 75bd
00000030: 192d 753d 43a5 0bbd 54f8 8a3d 1ce2 54bd
00000040: 20c8 423a de29 4e3d a3a7 683d 0b13 cebb
00000050: 42d0 913c 0998 033d be83 af3d 2453 f1bc
00000060: 54b2 2ebd 1ec9 75bd 9653 a2bc 989c cf3c
00000070: 45f0 71bd 88f2 b5bb 82e1 023d 1723 f23d
00000080: f84b 5bbc c9fd 9a3d b2b3 3a3d 8426 403d
00000090: 2501 853d 00a9 adbd c4f1 083d 9a9a 23bd
000000a0: 276a 463d 71d4 1e3d 72fa 7abd 50ad c93d
000000b0: 64ba d0bc 5053 a23d ea6f bb3c fd57 3b3d
000000c0: 33a8 eb3d 4562 dc3b 0e7f 213d 8c5c dd3d
000000d0: eebd 743d d4a7 1e3c 4ee9 053d c4cd 99b9
000000e0: 1042 23bd 244f 9dba a080 bd3d 0cb2 d93c
000000f0: 09fd c43d a71c 46bd 0c6b 993c 3450 663d
00000100: ba77 3b3c 09cf 9e3d cd0f 213d 5d24 60bd
00000110: 43fe 93bd d936 863c d8c4 953d f071 103d
00000120: 6e86 0f3d f110 d7bc 4334 58bd 44b2 fe3c
00000130: c22d 8dbd 28c4 a1bd a604 43bd 72fb 95bb
00000140: d245 b9bc 1805 d03d f5d0 1d3d 86c1 83bb
00000150: 895d 41bd 4b99 7bbc e25e 22bd 868f 353d
00000160: dbfa f33c 4adf 9c3d 1c0c 433d 6965 fd3d
00000170: 4177 f13c 5524 1cbd 6e3a 6fbd e8e0 03bd
00000180: 5109 843c 2934 a33d 07a6 203c 671e 543d
00000190: a2a4 9fbc 973e d13c b544 ddbc 3336 7c3c
000001a0: 91d0 983d a830 c73d 04a5 b2bd 6757 d5ba
000001b0: b726 97bc 7cab 1bbd 3800 483d ecd5 5bbd
000001c0: 34ad 97bd a5d0 af3b 5f1d cdbb 040c 25bb
000001d0: 05e8 ec3b 3b6b e2bc df59 bb3d 4073 403b
000001e0: a23a 5cbd c4aa c43a 0a30 e9bc b3e6 833d
000001f0: a73a 783d f6e0 e33d 9ca3 8a3c 5c01 303d
00000200: ba02 053d d09a a03c ba6a 003d b22e 1f3d
00000210: da2c 053d d6b7 36bd 8f13 5dbd 571e 853d
00000220: 3982 a23d ef84 56bd 5800 57bc fb58 85bd
00000230: abe1 f83c 091b 52bd 8a72 a43d f64b 78bd
00000240: c98e c7bc 5d98 1cbd f45d 4dbd f9de 68bd
00000250: 1801 e0bc d939 bc3c eb49 383d 8961 54bd
00000260: bc3c 06bd 8460 1cbd 1070 893d 9252 613d
00000270: b585 85bd 3daf 973d 1d53 a2bc 94ed 9dbc
00000280: 72b3 4d3d fed4 073e 5a97 973d 91b7 59bb
00000290: 287e e83d f6a9 71bd b120 5b3c ea1a ba3b
000002a0: 1d5f 0f3c 23fd b7bc a7c9 013d 5ae8 8f3c
000002b0: 962a 603d 013d 1c3d 0851 723c 0c9d 2b3d
000002c0: 17f5 8bbd 88df 183d 7a0e b73c 2259 de3d
000002d0: 7878 69bd cc00 b33c 6997 5f3c a380 703d
000002e0: 2feb 103d 7146 d63c d2d6 003e bbc9 843c
000002f0: 9a17 24bd a8f1 c8bb c9dc 873c 7139 26bd
00000300: 7d7a 863b b9fb 2cbd 7c9e b93d 4456 823c
00000310: c308 f23d 9ac9 26bd 3314 64bc 9884 78bc
00000320: 79c7 f63d 263c 893d 6c66 893d c8b8 e53c
00000330: 39d2 333d b47f b9bc be3f f33c 7b39 ab3d
00000340: 20a4 8bbb 6077 083d bb23 50bd 9535 b0bd
00000350: 2b6a dd3d 9a2b 623d dc9a 5fbc a11d 73bd
00000360: 207a fabc d525 04bd 677a 98bc 3fae 76bd
00000370: 5645 ec3d 8cf5 193d 88be 223d 4c10 1b3d
00000380: 2f20 2fbd d434 1bbd 6ba7 cf3c c416 a13c
00000390: c66b 54bc cac6 53bc 7cc6 073d 6c0e 54bb
000003a0: 6e5d 9abd 65a0 323b 41b7 c1bc d046 fa3d
000003b0: b973 023d fb17 b73d b210 6b3d 3269 04bd
000003c0: 4413 873d c904 083d f6b1 ae3c 2bff 383d
000003d0: 0b8f 87bd 7716 98bc 7146 f73d 406f d13d
000003e0: 8d76 bf3c 9258 2abc 95a3 393c 9a41 913d
000003f0: 3571 04bd 8ea0 e23c 4510 d83b e7e0 d13d

actor.weight f4 [1, 256]
0.010974159 0.068542935 0.0844324 -0.043660313 0.39182773 0.012913487 0.046569493 -0.014622924
-0.0013920665 0.08317264 -0.014373004 -0.013445794 0.34822664 -0.004221883 0.24923001 0.024229102
0.32660046 -0.006882593 -0.107434124 0.050030734 -0.044937182 -0.28883207 0.25802755 -0.03504742
-0.23769325 -0.0036520795 0.052363925 -0.019917745 -0.27849892 -0.25764754 0.019554863 0.23825356
0.044684112 -0.03032998 -0.2684118 -0.21214509 0.3441664 0.22401698 -0.19249837 0.008015297
0.12946363 -0.24385615 0.053346403 0.030705433 -0.045536064 0.31851748 -0.0075861793 -0.2350457
0.14317143 0.064246505 -0.027615199 0.15888529 0.3188947 -0.18979204 0.27196154 -0.040921837
-0.26809603 -0.020017961 0.0029495114 -0.02999235 0.12543653 0.024079593 0.25309855 -0.227016
-0.795843 0.022530284 -0.24574669 -0.0516793 0.008269344 -0.28169394 0.1054688 0.15399708
0.051215064 -0.0069363476 0.025263244 0.033855196 0.0068838955 0.013527915 -0.061661296 -0.209094
0.39101854 -0.12169102 -0.33355442 -0.30350935 0.0041673463 -0.012676197 -0.04485239 0.04111539
-0.23615177 0.3175478 0.0047187107 0.003642142 0.045729414 -0.014482277 -0.0522423 0.35978174
0.053311262 0.19662313 -0.19218391 -0.04225002 0.06327938 0.016480707 -0.008455219 0.0057436414
0.012011683 -0.16273066 0.06810692 0.20131417 0.06003982 0.006998703 0.020127848 0.009826774
0.004741174 0.004775356 -0.0018006001 0.32820895 0.0016632981 -0.0037346943 0.059814226 -0.00082430115
0.04487724 0.038395304 0.07785796 -0.18305905 -0.011423071 0.017355343 0.05299781 -0.09394124
0.031819843 -0.009268492 -0.008033492 -0.03584505 0.047019333 -0.2431914 -0.008183334 0.116418704
-0.14784479 -0.024351643 -0.04132229 0.046194024 -0.0011977346 -0.32993174 0.16941349 -0.020720959
0.0072712433 -0.01642676 0.00026030093 0.059836138 -0.03427208 -0.21852897 0.023039214 0.11847254
-0.004773695 -0.041263048 0.3325049 -0.015960775 0.022663176 0.054530673 0.37329623 0.039636254
0.030951167 0.044821497 -0.07291579 0.24337122 0.19786762 0.026515372 -0.24657069 0.33975518
-0.046734493 0.32885823 0.021900805 0.28425008 0.039204545 0.31741017 0.050649457 0.0005053666
-0.046787854 -0.23639451 -0.25438547 0.12952602 0.047869258 0.043441422 -0.17023082 0.10372681
0.23396827 0.012254947 0.14214009 0.31669715 0.009072594 0.3719603 -0.039490316 -0.22626947
-0.05557418 -0.20683965 -0.06592925 -0.030838907 0.12969749 -0.026666373 0.020242136 0.008826621
0.0879424 -0.14085153 -0.06360917 0.009308668 -0.16225003 -0.0030545148 -0.062851064 -0.21521896
-0.025737643 0.012093295 -0.36548677 0.13233094 0.11548321 0.2695863 -0.19263427 0.010359507
0.005672764 0.04206727 0.013693228 -0.013715971 0.009957342 0.2284583 0.13381328 -0.021608606
-0.04353003 -0.012065455 0.15584481 -0.038899876 0.018400641 -0.24374966 -0.02951331 -0.046850167
-0.094983645 0.35539094 0.04842298 0.18401755 -0.060634725 0.34217793 0.019836344 0.36273405
0.3070059 -0.31170478 0.18476498 0.0353608 0.05344515 -0.048684824 -0.011763661 -0.115220554
-0.04524522 -0.1939078 -0.052791692 -0.17472862 -0.0067529446 -0.020554228 0.20444924 0.093301006
00000000: f6cc 333c 3d60 8c3d e5ea ac3d 28d5 32bd
00000010: a59d c83e 1793 533c a7bf 3e3d fd94 6fbc
00000020: 0076 b6ba 6b56 aa3d c07c 6bbc bf4b 5cbc
00000030: c34a b23e b957 8abb 2736 7f3e 1c7c c63c
00000040: 2d38 a73e 6087 e1bb 6c06 dcbd 07ed 4c3d
00000050: 0d10 38bd cce1 93be 301c 843e e28d 0fbd
00000060: dc65 73be ba57 6fbb 8e7b 563d 8a2a a3bc
00000070: 6997 8ebe 61ea 83be 8531 a03c bef8 733e
00000080: b006 373d 9476 f8bc 456d 89be 903c 59be
00000090: 9436 b03e b564 653e 4b1e 45be 9852 033c
000000a0: 1d92 043e 6db5 79be c281 5a3d f689 fb3c
000000b0: 0684 3abd b914 a33e 7c95 f8bb d2af 70be
000000c0: 889b 123e ac93 833d 4539 e2bc d3b2 223e
000000d0: 2b46 a33e d858 42be 8b3e 8b3e a89d 27bd
000000e0: e243 89be b5fc a3bc 974c 413b 84b2 f5bc
000000f0: 6f72 003e 9142 c53c 2296 813e e276 68be
00000100: 5ebc 4bbf 6e91 b83c 05a5 7bbe acad 53bd
00000110: 257c 073c 303a 90be 0700 d83d 69b1 1d3e
00000120: e3c6 513d 4d4a e3bb ddf4 ce3c bfab 0a3d
00000130: 4d92 e13b 30a4 5d3c 8e90 7cbd bd1c 56be
00000140: 9533 c83e 2439 f9bd a5c7 aabe 9465 9bbe
00000150: 3c8e 883b d3af 4fbc 24b7 37bd 9c68 283d
00000160: c5d1 71be a095 a23e 6a9f 9a3b 01b1 6e3b
00000170: c44e 3b3d 1347 6dbc 06fc 55bd 5035 b83e
00000180: e95c 5a3d 9357 493e dccb 44be 5b0e 2dbd
00000190: 9f98 813d 8c02 873c c287 0abc 2835 bc3b
000001a0: a6cc 443c dea2 26be a47b 8b3d 4d25 4e3e
000001b0: 50ec 753d 6055 e53b 28e3 a43c 7a00 213c
000001c0: da5b 9b3b 977a 9c3b 1d02 ecba 010b a83e
000001d0: 0603 da3a c6c1 74bb c3ff 743d ea15 58ba
000001e0: 32d1 373d 6544 1d3d fe73 9f3d d573 3bbe
000001f0: d527 3bbc cb2c 8e3c 3b14 593d 4464 c0bd
00000200: 8655 023d e0da 17bc e89e 03bc 42d2 12bd
00000210: 5897 403d 2b07 79be 6413 06bc ee6c ee3d
00000220: a064 17be 197d c7bc 9041 29bd f235 3d3d
00000230: 4efd 9cba d0ec a8be bb7a 2d3e 00bf a9bc
00000240: 9c43 ee3b 6a91 86bc 0079 8839 bd16 753d
00000250: e160 0cbd 0fc6 5fbe bcbc bc3c bba1 f23d
00000260: a86c 9cbb 7103 29bd 153e aa3e 2cc0 82bc
00000270: 20a8 b93c 8e5b 5f3d af20 bf3e a059 223d
00000280: 4d8d fd3c bf96 373d e054 95bd 4e36 793e
00000290: cf9d 4a3e c436 d93c 077d 7cbe 64f4 ad3e
000002a0: ab6c 3fbd 1b60 a83e 5169 b33c 3a89 913e
000002b0: f294 203d 9683 a23e ce75 4f3d 947a 043a
000002c0: 9fa4 3fbd 6711 72be d03e 82be 78a2 043e
000002d0: 8e12 443d a2ef 313d fd50 2ebe b96e d43d
000002e0: 6195 6f3e f9c8 483c 2c8d 113e 2126 a23e
000002f0: 38a5 143c 9571 be3e 99c0 21bd 2fb3 67be
00000300: c0a1 63bd c6cd 53be ea05 87bd e0a1 fcbc
00000310: 6bcf 043e 7073 dabc d6d2 a53c 889d 103c
00000320: 251b b43d 623b 10be 8645 82bd 6283 183c
00000330: df24 26be 412e 48bb 0fb8 80bd 5c62 5cbe
00000340: c0d7 d2bc f522 463c 1521 bbbe c381 073e
00000350: 7682 ec3d 3707 8a3e eb41 45be ecba 293c
00000360: 98e2 b93b bb4e 2c3d 9059 603c f4b8 60bc
00000370: 1f24 233c f9f0 693e 5906 093e 8804 b1bc
00000380: 8b4c 32bd 30ae 45bc c895 1f3e 7a55 1fbd
00000390: f1bc 963c 8399 79be e6c5 f1bc f6e5 3fbd
000003a0: c986 c2bd cdf5 b53e 2d57 463d 196f 3c3e
000003b0: 1e5c 78bd f231 af3e d47f a23c 47b8 b93e
000003c0: e12f 9d3e c597 9fbe 0833 3d3e 7cd6 103d
000003d0: 4de9 5a3d bd69 47bd 5fbc 40bc c1f8 ebbd
000003e0: 0d53 39bd c48f 46be 1a3c 58bd 0fec 32be
000003f0: ce47 ddbb 5761 a8bc 245b 513e 9914 bf3d

critic.weight f4 [1, 256]
-0.031594902 -0.055872876 -0.11187102 0.043308552 0.0077429805 0.011301598 -0.020529492 0.03345937
-0.024619162 0.06390057 -0.025783202 -0.024152245 0.00580908 -0.016671209 0.0027995345 -0.0018954352
0.006341877 -0.048946004 0.07336098 -0.0041104183 -0.22527793 0.03218448 0.0041976254 -0.03980106
0.006678538 -0.010666944 0.041031726 -0.033769105 1.9888497e-05 0.011893576 -0.015526671 0.028109413
0.01072754 0.086519465 -0.0061530806 0.008232803 0.008838615 -0.06801429 0.056105986 0.061740316
0.034999266 -0.005264117 0.006634891 0.048975326 0.015704837 0.0076635703 0.056755222 -2.8751434e-05
0.039634395 -0.07083467 0.023098938 0.0447073 0.0076553216 -0.0010210148 0.008791541 -0.012678637
-0.009291636 -0.001694983 0.042249642 -0.020955648 0.039049845 0.046136566 -0.0035203542 0.04913669
0.19732453 0.034151495 0.03842591 0.015625117 -0.032290556 0.006368981 0.036539696 0.032425713
0.008725022 -0.024083948 0.054056898 0.020577896 -0.036653597 -0.11120749 -0.04271812 0.040985398
0.008982024 0.06388786 0.11178931 0.0031237588 0.05383956 -0.052754495 0.0015290603 0.05047401
0.04553899 0.003946853 0.0395938 0.085458055 0.0424253 -0.062645756 -0.005122178 0.008799281
0.05429104 0.03075986 0.014849624 0.04846956 -0.0135256415 -0.030720126 -0.028706573 -0.03799587
0.020066833 0.06445973 -0.11093568 -0.027707202 0.045211088 -0.054935828 0.050003648 -9.0349684e-05
-0.019880401 -0.03866955 -0.021445364 0.00565166 0.020307336 -0.03719523 0.06807968 -0.031814486
-0.028768424 0.043537866 -0.015943887 0.047106948 -0.037685387 0.113505706 -0.014612804 0.06290078
0.016507894 0.041759692 0.017526673 0.009492844 0.052998476 0.0075836265 0.03206719 0.07119023
0.057824127 -0.05155352 -0.017410703 -0.023954287 -0.0019615255 0.0053199446 0.059457544 0.047502946
-0.023831535 0.006024772 -0.037672363 0.052677486 -0.007475656 0.03139634 0.0012424786 -0.03647128
0.004420833 0.005916165 0.0038092805 0.07934415 0.05083458 0.028732287 0.0044610607 0.049556915
-0.023647048 0.06507826 0.09513662 -0.0040424326 0.03005016 0.047881335 -0.0060965805 0.0073016463
-0.036301076 0.009219401 -0.02311164 0.00045948246 0.063328505 0.009880023 0.012276769 0.012948078
-0.00788824 0.010663834 -0.0076222867 0.028491693 0.024084583 -0.013170786 0.001658099 -0.07709435
-0.058485053 0.054180436 0.0467463 0.0093772765 0.029563561 0.013733838 -0.022820361 -0.0025328593
0.012454186 0.004229122 0.024662018 0.06652734 0.06318602 0.05864104 -0.033192504 -0.039355353
0.07174903 0.07579458 0.02551274 -0.014627943 0.005792051 -0.004332597 -0.16136399 0.0355324
-0.05669691 0.075185545 0.005094777 -0.18999496 0.037059505 0.008478588 0.0071552317 -0.001952905
0.018764671 0.03959083 -0.05389074 -0.053803436 0.055106647 -0.02312302 0.063202105 0.060737338
-0.016904257 0.059403867 0.052990653 -0.014242105 -0.0090887165 0.0029620642 -0.00353095 0.00030237008
-0.034094077 0.0034719268 0.015272862 0.044524834 -0.028404674 0.011459099 0.04312238 0.006670969
0.0046254145 -0.0053743375 0.04558446 -0.011122033 -0.05060012 -0.0139216455 0.049039155 0.07822108
-0.029206404 0.0045249984 -0.03434609 0.028628157 -0.010030836 0.03573642 0.028418908 0.041796647
00000000: a869 01bd f5da 64bd a21c e5bd 4f64 313d
00000010: d4b8 fd3b 562a 393c 772d a8bc b10c 093d
00000020: 20ae c9bc 4dde 823d 4b37 d3bc eeda c5bc
00000030: 185a be3b 0f92 88bc 6578 373b 4070 f8ba
00000040: 85cf cf3b 9b7b 48bd 483e 963d b0b0 86bb
00000050: 42af 66be e0d3 033d 3c8c 893b 7006 23bd
00000060: a3d7 da3b 68c4 2ebc e210 283d 7951 0abd
00000070: 39d6 a637 46dd 423c 9463 7ebc b645 e63c
00000080: 90c2 2f3c 1e31 b13d c89f c9bb e1e2 063c
00000090: d7cf 103c 134b 8bbd 64cf 653d 6ae3 7c3d
000000a0: 645b 0f3d 9d7e acbb 8069 d93b 5a9a 483d
000000b0: 6ea7 803c b01e fb3b 2a78 683d 3c2f f1b7
000000c0: ad57 223d c411 91bd fc39 bd3c 001f 373d
000000d0: 7ed9 fa3b 92d3 85ba 650a 103c 0fba 4fbc
000000e0: f23b 18bc 312a deba f60d 2d3d 2eab abbc
000000f0: bbf2 1f3d b2f9 3c3d beb5 66bb 8e43 493d
00000100: 710f 4a3e 70e2 0b3d 7d64 1d3d 3f00 803c
00000110: 1a43 04bd e3b2 d03b a6aa 153d d3d0 043d
00000120: 65f3 0e3c b34b c5bc c46a 5d3d fa92 a83c
00000130: 1522 16bd c1c0 e3bd 32f9 2ebd 4ee0 273d
00000140: 5729 133c a3d7 823d cbf1 e43d fab7 4c3b
00000150: df86 5c3d 1915 58bd c06a c83a d6bd 4e3d
00000160: 1887 3a3d 9a54 813b 1c2d 223d a204 af3d
00000170: 27c6 2d3d 6b4c 80bd f1d7 a7bb dc2a 103c
00000180: 4860 5e3d 1afc fb3c d64b 733c 0488 463d
00000190: a79a 5dbc c6a8 fbbc 0c2a ebbc 8fa1 1bbd
000001a0: 3363 a43c 7703 843d 3f32 e3bd 37fa e2bc
000001b0: 432f 393d 6404 61bd a0d0 4c3d 1e7a bdb8
000001c0: 39dc a2bc f663 1ebd 30ae afbc 8f31 b93b
000001d0: 925b a63c 075a 18bd 5c6d 8b3d e84f 02bd
000001e0: c2ab ebbc c354 323d c19c 82bc 37f3 403d
000001f0: fe5b 1abd ae75 e83d 8b6a 6fbc 20d2 803d
00000200: 903b 873c 360c 2b3d 1994 8f3c e087 1b3c
00000210: ee14 593d 1280 f83b e358 033d 2fcc 913d
00000220: fed8 6c3d c929 53bd e4a0 8ebc c83b c4bc
00000230: f08c 00bb ee52 ae3b c189 733d 7392 423d
00000240: 5a3a c3bc 736b c53b 564e 1abd 59c4 573d
00000250: 59f6 f4bb 7399 003d aada a23a e962 15bd
00000260: a3dc 903b 64dc c13b 1fa5 793b 307f a23d
00000270: ec37 503d f95f eb3c 172e 923b 31fc 4a3d
00000280: 74b7 c1bc c047 853d fdd6 c23d 6276 84bb
00000290: c12b f63c 381f 443d d3c5 c7bb a642 ef3b
000002a0: 70b0 14bd f80c 173c 9f54 bdbc b1e6 f039
000002b0: 60b2 813d d2df 213c 8024 493c 2d24 543c
000002c0: ad3d 01bc 5db7 2e3c 60c4 f9bb 6967 e93c
000002d0: 084d c53c 48ca 57bc 9254 d93a a4e3 9dbd
000002e0: 068e 6fbd 4eec 5d3d 0c79 3f3d 26a3 193c
000002f0: 482f f23c e403 613c c4f1 babc 54fe 25bb
00000300: a40c 4c3c 7294 8a3b 0008 ca3c 7c3f 883d
00000310: ac67 813d 9631 703d ddf4 07bd 1433 21bd
00000320: 28f1 923d 303a 9b3d 1800 d13c 0aaa 6fbc
00000330: 3fcb bd3b 75f8 8dbb 9a3c 25be 6c8a 113d
00000340: 053b 68bd e1fa 993d 16f2 a63b 0a8e 42be
00000350: b5cb 173d c7e9 0a3c 6f76 ea3b 9ef8 ffba
00000360: 5eb8 993c ff29 223d 89bc 5cbd fe60 5cbd
00000370: 82b7 613d 7d6c bdbc 1b70 813d b7c7 783d
00000380: cc7a 8abc 7851 733d ba0c 593d b857 69bc
00000390: d7e8 14bc 311f 423b 8367 67bb 6d87 9e39
000003a0: 3ba6 0bbd 4489 633b 073b 7a3c ac5f 363d
000003b0: ebb0 e8bc f2be 3b3c 18a1 303d 2598 da3b
000003c0: ca90 973b 361b b0bb c5b6 3a3d 3039 36bc
000003d0: 1242 4fbd 9d17 64bc 48dd 483d 6032 a03d
000003e0: 4542 efbc 7046 943b 7cae 0cbd 9985 ea3c
000003f0: 6058 24bc 5a60 123d c5ce e83c f632 2b3d
