models1/ppo_1450.pth (torch, 275660 bytes, 6 tensors)

net.0.weight f4 [256, 6]
0	0xbeb554d0	-0.3541627
1	0xbec1b25f	-0.378314
2	0x3e0b1548	0.13582337
3	0x3eb5852f	0.35453174
4	0xbce86d4d	-0.028372431
5	0xbec5505d	-0.38537875
6	0xbd59f69f	-0.05321371
7	0xbc9c6d67	-0.019095136
8	0x3ee68e3f	0.450304
9	0xbec6a659	-0.38798788
10	0xbdb63211	-0.08896268
11	0x3ee1950e	0.44059032
12	0xbd819d36	-0.06328814
13	0x3f000fb7	0.5002398
14	0x3caa695d	0.020802194
15	0xbecd315a	-0.40076715
16	0xbe5644d6	-0.20924696
17	0xbdad0d5a	-0.08449812
18	0xbea2bb6e	-0.31783623
19	0x3e7a5a5a	0.24448529
20	0x3e1c0cfa	0.15239325
21	0xbd5f7ea3	-0.05456413
22	0x3c8c1ffe	0.017105099
23	0x3ea38d13	0.3194357
24	0x3e715398	0.23567045
25	0xbe0cc0f5	-0.13745482
26	0xbefc5306	-0.49282092
27	0x3e8aaf53	0.27086887
28	0x3e48f06a	0.1962296
29	0xbe50ee8d	-0.204035
30	0x3dfc513e	0.12320183
31	0xbd84e8bf	-0.06489705
32	0x3ebd183f	0.3693256
33	0x3c2c2167	0.010506011
34	0xbe9c4490	-0.3052106
35	0x3e561730	0.20907283
36	0xbc8379e4	-0.016049333
37	0x3de66b7a	0.11250968
38	0x3ee654a0	0.4498644
39	0x3e6f1a39	0.23349847
40	0x3da37d96	0.07982938
41	0xbeb01c69	-0.34396675
42	0xbebb3125	-0.36560932
43	0xbec43afc	-0.38326252
44	0xbc6895c6	-0.014195865
45	0x3e186583	0.14882474
46	0xbd245278	-0.04011771
47	0x3e75acb9	0.2399167
48	0xbe720ba0	-0.23637247
49	0xbe8cd717	-0.2750785
50	0x3e95e61d	0.29277125
51	0xbdbdbb8c	-0.09264287
52	0x3e76411a	0.24048272
53	0xbe98b65c	-0.2982663
54	0x3e351312	0.17683056
55	0x3e4a54ea	0.19758955
56	0x3ee67007	0.45007345
57	0xbf0baa6f	-0.54556936
58	0xbe3c6501	-0.18397905
59	0x3e274fbd	0.16339011
60	0x3db9a04d	0.09063778
61	0xbe45abd1	-0.19303824
62	0xbcc0f102	-0.023552421
63	0xbd309ea6	-0.04312005
64	0xbe4d9ef1	-0.20080163
65	0xbe0ec24e	-0.13941309
66	0x3d236c2a	0.039898075
67	0xbe817e5e	-0.25291723
68	0xbe5a2fdb	-0.21307318
69	0x3e8bbd50	0.2729287
70	0xbdd77562	-0.10520436
71	0xbdff15de	-0.12455343
72	0xbe340622	-0.17580464
73	0x3d8eef66	0.069792554
74	0xbe2901eb	-0.16504638
75	0x3e23646a	0.15956274
76	0xbe93cce5	-0.2886726
77	0xbe98f6b1	-0.2987571
78	0xbdbc8aa2	-0.092061296
79	0x3cd648c1	0.026157739
80	0x3e08d294	0.13361579
81	0x3e56c2a3	0.20972686
82	0xbda639ff	-0.081165306
83	0xbf0488c5	-0.51771194
84	0x3eaae579	0.333782
85	0x3e29efcd	0.16595383
86	0xbe6a1b55	-0.22861989
87	0x3cfb9d52	0.030714665
88	0xbea12b57	-0.31478378
89	0x3eabab82	0.33529288
90	0x3d7446ff	0.05963802
91	0xbeb81f1d	-0.35961238
92	0xbd965245	-0.073399104
93	0xbebc81a4	-0.36817658
94	0xbe69fd9c	-0.2285065
95	0xbd9ad1ef	-0.07559573
96	0x3e058740	0.13039875
97	0x3e5ccfe4	0.21563679
98	0x3ebfe4ef	0.3747935
99	0xbe165f56	-0.14684805
100	0xbc8d29b7	-0.017231805
101	0xbeb741bf	-0.35792348
102	0xbf1572d9	-0.5837837
103	0xbe856a38	-0.260576
104	0xbd36be34	-0.044614986
105	0xbeaf325d	-0.34218112
106	0x3dad4794	0.08460918
107	0xbc5a7333	-0.01333313
108	0xbeed3647	-0.46330473
109	0x3e630a0a	0.22171798
110	0xbf047d6a	-0.51753867
111	0xbebcb8f2	-0.36859852
112	0xbdc324f4	-0.095285326
113	0x3e27883e	0.16360566
114	0x3e0fc344	0.14039332
115	0x3e541d72	0.20714357
116	0xbe435d45	-0.19078548
117	0x3ec8a054	0.3918482
118	0xbdd708d4	-0.10499731
119	0xbe800f4e	-0.25011677
120	0xbd28b33c	-0.041186556
121	0x3e2653d7	0.1624292
122	0xbcfe1fa3	-0.031020945
123	0x3ea2cb10	0.3179555
124	0x3e562ded	0.20915957
125	0x3ec78c13	0.38974056
126	0x3eb74974	0.35798228
127	0x3e6a4756	0.22878775
128	0x3c538a44	0.012911383
129	0x3dbb16dc	0.091352195
130	0x3ddd0395	0.10791699
131	0xbeb8605f	-0.36011025
132	0xbeb85cc8	-0.36008286
133	0x3d17eeb6	0.037092887
134	0x3e9f8bf9	0.31161478
135	0xbf0498e9	-0.5179582
136	0xbd4c2368	-0.049838454
137	0x3ec1aacd	0.37825623
138	0x3e069f07	0.13146602
139	0xbe17b515	-0.14815171
140	0xbe05456b	-0.13014762
141	0xbd3e9eca	-0.04653815
142	0x3e531fc3	0.20617585
143	0xbbb98541	-0.005661637
144	0xbe0d02f4	-0.13770658
145	0x3e65f2a1	0.22455837
146	0xbc9f1360	-0.019418418
147	0x3c4f7972	0.012663232
148	0x3e52e187	0.20593844
149	0xbee4649e	-0.44608015
150	0xbe68b242	-0.2272425
151	0x3ea4ccd7	0.3218753
152	0xbed45fee	-0.4147944
153	0x3f1d2a1b	0.6139237
154	0x3d86ae0f	0.06576168
155	0xbe6dc25e	-0.23218676
156	0x3e1d03d7	0.15333496
157	0x3d393498	0.045216173
158	0xbe6293f4	-0.22126752
159	0x3e304ef9	0.17217626
160	0x3dd02037	0.101623945
161	0xbe58a4ee	-0.21156666
162	0x3d9c5ddb	0.07635089
163	0xbdd84f21	-0.10561968
164	0x3f169b8e	0.5883111
165	0xbf0cc304	-0.5498507
166	0x3d702151	0.058625523
167	0xbeb1eca3	-0.34750852
168	0x3e9695f3	0.29411277
169	0xbecca86c	-0.39972246
170	0x3e052c44	0.13005167
171	0x3e947647	0.28996488
172	0xbd8974b1	-0.0671171
173	0xbe323931	-0.1740463
174	0xbe9c7889	-0.3056071
175	0x3cd0c311	0.02548364
176	0x3e4e22f3	0.2013052
177	0xbe9ee615	-0.31034914
178	0xbe5d948e	-0.216387
179	0x3c2f4372	0.010697233
180	0xbde70e16	-0.112819836
181	0xbe6c5703	-0.23080067
182	0xbebdf877	-0.37103626
183	0x3ec1a663	0.37822255
184	0x3eb4cd6a	0.35312968
185	0x3e8cf82e	0.27533096
186	0xbc8ba87b	-0.017048111
187	0xbe7b3d5d	-0.24535127
188	0xbf0e3080	-0.55542755
189	0x3e822d1a	0.25425035
190	0x3d7ab3d6	0.06120666
191	0xbe09a391	-0.13441302
192	0xbe3b853e	-0.18312547
193	0xbd3847ea	-0.044990458
194	0xbe590424	-0.21192986
195	0x3eb62f6b	0.35583052
196	0xbe0035fc	-0.12520593
197	0x3d641414	0.05568321
198	0xbd95643e	-0.0729451
199	0x3e8360ab	0.2565969
200	0xbdb4202f	-0.08795201
201	0xbcb1cac9	-0.02170314
202	0x3e2103dd	0.1572413
203	0x3dd6a8ac	0.1048139
204	0xbec6ed00	-0.38852692
205	0x3e365b22	0.17808202
206	0xbe8d7c19	-0.27633741
207	0x3eafb2c2	0.3431607
208	0xbeaba707	-0.3352587
209	0x3dbb534b	0.09146746
210	0xbec90ed1	-0.39269117
211	0x3d17d99a	0.037072755
212	0x3e811daa	0.25217944
213	0x3e16efb1	0.14739873
214	0x3c98d7c5	0.018657574
215	0xbe17abd5	-0.14811642
216	0x3e29928c	0.1655981
217	0x3e574d7f	0.21025656
218	0x3e6126ea	0.21987501
219	0xbefc678f	-0.4929776
220	0xbe32bceb	-0.17454879
221	0xbea2505a	-0.31701928
222	0xbe77082e	-0.24124214
223	0xbe481b0f	-0.19541572
224	0x3edd7461	0.43252853
225	0xbe6b8ffd	-0.23004146
226	0xbe2e82e7	-0.17042123
227	0xbe52e4e1	-0.20595123
228	0xbdadec8c	-0.08492383
229	0x3e21e4e3	0.1580997
230	0xbec0154a	-0.37516242
231	0x3e9ab496	0.302159
232	0xbe37294c	-0.17886847
233	0xbd62cdcd	-0.05537205
234	0xbd5b095d	-0.053475726
235	0x3d64fc9b	0.055904966
236	0xbd350607	-0.0441952
237	0x3dab3395	0.08359448
238	0xbe904f67	-0.2818558
239	0x3ef576d1	0.47942212
240	0x3e6c41c8	0.23071969
241	0xbec501f8	-0.38478065
242	0xbd5846fe	-0.05280208
243	0xbe7200ff	-0.23633192
244	0x3e1447fc	0.14480585
245	0xbec97271	-0.39345124
246	0xbf07be8a	-0.53025115
247	0xbf111f39	-0.56688267
248	0xbb6c086f	-0.003601577
249	0x3e1d4de0	0.15361738
250	0x3e0e6426	0.13905391
251	0xbda61708	-0.081098616
252	0x3e95072f	0.29107043
253	0xbea2e02b	-0.31811652
254	0x3e54c105	0.20776756
255	0xbf0ffc9e	-0.5624484

net.0.bias f4 [256]
0	0xbe9d40d6	-0.30713528
1	0x3c9c20ee	0.01905867
2	0xbe9f8920	-0.31159306
3	0xbed83bfa	-0.42233258
4	0x3ed1cad4	0.40975058
5	0xbedafbf1	-0.4277034
6	0xbec0da40	-0.37666512
7	0xbec35c43	-0.38156328
8	0x3d8f11bc	0.069858044
9	0x3bced53f	0.006312042
10	0x3e171c69	0.14756931
11	0xbe65dab1	-0.22446705
12	0xbe0faa49	-0.14029802
13	0xbe7fc45b	-0.24977247
14	0xbece6252	-0.40309387
15	0x3e06beae	0.13158676
16	0x3eb68ce3	0.35654363
17	0xba029a91	-0.00049821386
18	0xbdf76fee	-0.12081896
19	0x3ead3869	0.338321
20	0xbe7adef1	-0.24499108
21	0xbe863028	-0.26208615
22	0x3d090ba9	0.033458386
23	0x3e9fb9df	0.31196496
24	0x3ec08431	0.37600854
25	0x3e2b7bd9	0.16746463
26	0x3e5f580c	0.21810931
27	0x3e5fdf85	0.2186261
28	0x3d60a516	0.05484494
29	0xbd851f9f	-0.06500172
30	0x3ea6aa50	0.32551813
31	0x3e483f7f	0.19555472
32	0x3e077b6e	0.13230678
33	0xbea73989	-0.32661083
34	0xbe52c880	-0.20584297
35	0xbd2752bc	-0.040850386
36	0xbedbf201	-0.42958072
37	0x3ed3509d	0.4127244
38	0x3e36c00c	0.17846698
39	0xbea05a96	-0.31319112
40	0xbe5aa605	-0.21352394
41	0xbe06df57	-0.13171135
42	0x3e4556b4	0.19271356
43	0xbe9a48a1	-0.30133536
44	0xbe29a4e6	-0.1656681
45	0x3e81d1a3	0.25355253
46	0x3de7c9da	0.11317797
47	0xbf0534f1	-0.5203391
48	0x3d3d6c7b	0.046246033
49	0x3e7a4519	0.24440421
50	0xbeaef262	-0.34169298
51	0x3e36ed81	0.17864038
52	0xbdec6039	-0.115417905
53	0xbe1f6205	-0.15564735
54	0xbe8e8b69	-0.27840737
55	0x3e6792d5	0.22614606
56	0xbe90e361	-0.28298476
57	0x3e1b95df	0.1519389
58	0x3d5245b6	0.051336013
59	0xbdc4a9bf	-0.09602689
60	0xbda73405	-0.08164219
61	0x3e249f1c	0.1607632
62	0xbe112abd	-0.1417646
63	0x3c27dcb3	0.01024549
64	0x3e8431a5	0.25819126
65	0x3e0188bf	0.1264982
66	0xbe185733	-0.14877014
67	0x3e6dce76	0.2322329
68	0x3e559348	0.20856965
69	0x3e8eaa1e	0.27864164
70	0x3e2d351b	0.1691479
71	0xbdc346cf	-0.0953499
72	0x3e8b4eea	0.27208644
73	0xbed792f6	-0.4210431
74	0xbeb9473a	-0.36187154
75	0x3ba50c1a	0.005036843
76	0x3e7e9040	0.24859715
77	0xbecc0cda	-0.39853555
78	0x3e6625cf	0.2247536
79	0xbc40f39a	-0.011776829
80	0xbe19376f	-0.14962552
81	0xbd476702	-0.04868222
82	0xbd95ae94	-0.07308689
83	0x3b2fecb5	0.002684397
84	0xbe6c7089	-0.23089804
85	0x3d96dc73	0.07366266
86	0x3e82ebe1	0.25570586
87	0x3eb482bf	0.35256
88	0x3c491b12	0.0122745205
89	0x3e8d1828	0.27557492
90	0xbd815cc6	-0.06316523
91	0x3de2c468	0.11072618
92	0x3e5e0225	0.21680506
93	0x3c9a25b8	0.018816814
94	0x3e33360c	0.17501086
95	0x3e962a77	0.29329273
96	0xbeb9e4b8	-0.3630731
97	0xbe976c33	-0.29574737
98	0xbea274fb	-0.31729874
99	0x3d7d3be0	0.06182468
100	0xbdfcaafc	-0.123373
101	0xbe5eeca3	-0.21769957
102	0x3e312c5b	0.17302077
103	0x3e6302ea	0.2216908
104	0x3dc6f098	0.09713858
105	0xbe822e51	-0.25425962
106	0xbb59a348	-0.0033208895
107	0x3e1b9d93	0.15196829
108	0xbea15635	-0.31511083
109	0x3e0c1a4c	0.13681906
110	0x3e15acca	0.14616695
111	0x3eab7362	0.33486468
112	0x3ea30777	0.31841633
113	0xbe1ef698	-0.15523756
114	0xbe432d2d	-0.19060202
115	0xbeb6313c	-0.35584438
116	0xbe0fa735	-0.14028628
117	0xbeb52f80	-0.35387802
118	0x3ebfaf7d	0.37438574
119	0xbecd5817	-0.4010627
120	0xbea2d289	-0.3180125
121	0xbda542c9	-0.08069379
122	0xbc432e39	-0.011912876
123	0x3e19506e	0.14972088
124	0x3eaf2937	0.34211132
125	0xbe6ff0af	-0.23431657
126	0x3ea24fe1	0.31701568
127	0xbf155a2b	-0.5834071
128	0x3eaaac21	0.3333445
129	0xbe5aed88	-0.21379673
130	0xbe49a84e	-0.1969311
131	0x3d1c3951	0.0381406
132	0x3e6bfc16	0.23045382
133	0xbea58b1f	-0.32332703
134	0xbd822af8	-0.06355852
135	0x3e35efe2	0.1776729
136	0x3d842821	0.064529665
137	0x3df62696	0.120190784
138	0xbd8a9601	-0.06766892
139	0x3e609183	0.21930508
140	0x3ec545a0	0.38529682
141	0x3eb2a239	0.3488939
142	0x3dec7e6d	0.11547551
143	0xbd5c1d0d	-0.053738642
144	0x3ebbf15b	0.36707577
145	0x3ea7f5f6	0.3280484
146	0xbeaeb4fb	-0.34122452
147	0xbe02b61b	-0.1276478
148	0x3e946663	0.28984365
149	0x3e84e3f9	0.2595518
150	0xbe0445eb	-0.12917297
151	0xbe9fc87f	-0.31207654
152	0xbe3b851d	-0.18312497
153	0x3e918ad3	0.28426227
154	0x3e620b29	0.2207457
155	0xbe8335a6	-0.25626868
156	0xbe7769c3	-0.24161439
157	0x3d2ab701	0.041678432
158	0xbe8c2958	-0.27375293
159	0x3e1c2a41	0.15250494
160	0xbeb705b5	-0.35746542
161	0xbe4d5315	-0.20051225
162	0xbe078d7f	-0.1323757
163	0x3e57d8d4	0.21078807
164	0x3c0c82ca	0.008576104
165	0xbee7c409	-0.4526675
166	0x3eb82d6f	0.35972163
167	0x3eb26855	0.34845224
168	0x3ec55f27	0.38549158
169	0xbeaaf640	-0.33391
170	0xbeca7d50	-0.3954873
171	0xbeb839bd	-0.3598155
172	0xbe840a24	-0.25788987
173	0xbe9f4c2f	-0.3111281
174	0xbd9b3fd0	-0.07580531
175	0x3ec132c5	0.37734047
176	0x3e5016d8	0.20321214
177	0xbdebbbe9	-0.115104504
178	0x3ea24034	0.31689608
179	0xbbca8463	-0.0061803325
180	0xbea87381	-0.32900622
181	0xbe5316d9	-0.20614184
182	0xbece9374	-0.40346873
183	0xbe1ccea2	-0.15313199
184	0xbef5b3b3	-0.47988662
185	0x3dfe9a17	0.12431734
186	0x3ea96754	0.33086646
187	0xbde64cfa	-0.11245151
188	0xbd819543	-0.063272975
189	0xbea62725	-0.3245174
190	0x3eb2c571	0.3491626
191	0x3d3e5f4c	0.0464776
192	0x3cbd829f	0.023133574
193	0x3ec7d7e8	0.3903191
194	0xbe532e3e	-0.20623109
195	0xbe81a1d6	-0.25318784
196	0xbe1e47f2	-0.15457132
197	0xbc47b655	-0.012189467
198	0xbdc72393	-0.09723582
199	0xbea0d954	-0.31415808
200	0x3d5455d9	0.051839683
201	0x3e278bff	0.16361998
202	0x3eb3297a	0.34992582
203	0x3c6b66a2	0.014367731
204	0x3e714f7c	0.23565477
205	0xbda41494	-0.080117375
206	0x3e572779	0.21011151
207	0x3d4e78f3	0.050408315
208	0x3eb2f8eb	0.34955534
209	0x3e5e0d3c	0.21684736
210	0x3d0ba85d	0.03409611
211	0x3df423f7	0.11920922
212	0x3eb37590	0.3505063
213	0xbeef4bc6	-0.46737498
214	0xbce859b6	-0.02836309
215	0xbe1a87fa	-0.15090933
216	0xbe1d0296	-0.15333018
217	0xbda31c3f	-0.07964372
218	0xbedf44f3	-0.43607292
219	0x3eb25325	0.3482906
220	0x3d9bf770	0.07615554
221	0xbec42184	-0.3830682
222	0x3e202eaa	0.15642801
223	0xbe3aeac7	-0.18253623
224	0xbeadcb20	-0.33944035
225	0x3e437059	0.19085826
226	0xbd2d3bfe	-0.04229354
227	0x3e66ad72	0.22527102
228	0x3e5c35f2	0.21504954
229	0xbe458388	-0.19288456
230	0xbdcded55	-0.10055033
231	0x3dda4a6c	0.10658726
232	0xbdaf6126	-0.085634515
233	0xbd9137a2	-0.07090689
234	0xbee816b8	-0.45329833
235	0xbdeee41b	-0.116646014
236	0x3ea6c629	0.3257306
237	0xbe8462e9	-0.25856712
238	0x3ed022e8	0.4065163
239	0x3eb57e36	0.35447854
240	0xbd66e173	-0.05636735
241	0x3e6c9588	0.23103917
242	0x3db7b883	0.0897074
243	0xbe0d93aa	-0.1382586
244	0x3e430ef4	0.19048673
245	0xbe371497	-0.17878948
246	0xbe3fe520	-0.18739748
247	0x3e806e5f	0.25084206
248	0xbe050234	-0.12989122
249	0x3ea4f156	0.32215375
250	0xbecfb8c7	-0.4057066
251	0xbd0e67d9	-0.034767006
252	0x3cbea38a	0.02327134
253	0xbcfeb912	-0.031094108
254	0xbcca765e	-0.024714645
255	0xbd8ca171	-0.0686673

net.2.weight f4 [256, 256]
0	0xbd5eecb6	-0.054424964
1	0xb8fc1d07	-0.00012021703
2	0xbd715db2	-0.058927245
3	0xbcff767c	-0.031184427
4	0x3d02a970	0.03189987
5	0xbc7aed03	-0.015315297
6	0x3c09f872	0.00842105
7	0xbbf2e859	-0.007412952
8	0xba658e41	-0.0008756854
9	0x3c8ed939	0.017437564
10	0xbd30c516	-0.043156706
11	0x3cc50c78	0.024053797
12	0xbb70007c	-0.0036621382
13	0xbd57733c	-0.05260013
14	0x3d52e020	0.051483274
15	0x3d064628	0.03278175
16	0x3d4566d6	0.048193775
17	0xbd08dd18	-0.033413976
18	0x3cc44a70	0.023961276
19	0xbd24aea3	-0.04020561
20	0xbd22cb04	-0.039744392
21	0xbcd0b530	-0.025477022
22	0x3cc6aa5f	0.024251161
23	0xbcc40c71	-0.023931714
24	0xbcab70d6	-0.020927828
25	0xbc4cb73e	-0.01249486
26	0xbd4d2e9d	-0.050093282
27	0x3d0e2c45	0.034710187
28	0xbd440f45	-0.047866125
29	0x3d1774e3	0.036976706
30	0xbd060b56	-0.032725655
31	0xbc29383a	-0.010328347
32	0xbd375b89	-0.04476503
33	0xba8abb40	-0.0010584369
34	0x3d244eec	0.04011433
35	0xbd646b51	-0.055766407
36	0xbd51abbd	-0.051189173
37	0x3d4314cb	0.04762725
38	0xbd4d0251	-0.050051037
39	0x3a92f254	0.0011211135
40	0xbcc30af0	-0.023808926
41	0x3cd53dd5	0.02603046
42	0x3b744456	0.0037272177
43	0x3af93ede	0.0019015928
44	0xbd26fa71	-0.040766183
45	0x3d3cea09	0.04612163
46	0x3d4c3ea5	0.04986443
47	0x3c70c810	0.014696136
48	0xbcf262a8	-0.029588059
49	0x3ca36338	0.019944772
50	0x3d6008cc	0.05469589
51	0x3d084d26	0.0332767
52	0xbce7a829	-0.028278427
53	0x3d6dbd12	0.05804164
54	0x3d496942	0.049172647
55	0x3c821aee	0.015881982
56	0x3ba5f817	0.005064975
57	0x3c1ade6f	0.009452446
58	0x3b1b2b80	0.002367705
59	0x3caeb4d8	0.021326467
60	0x3d72aaac	0.059244797
61	0x3a403be7	0.0007333145
62	0x3c8aceae	0.016944256
63	0x3d48779d	0.048942197
64	0x3d09becc	0.033629224
65	0x3c46841b	0.012116457
66	0xbcbdd130	-0.023171037
67	0xbd39597f	-0.045251366
68	0xbd0c70a6	-0.034287117
69	0xbd03e22b	-0.032198112
70	0x3c6dce97	0.014514587
71	0xbc790918	-0.015199922
72	0xbd5e8275	-0.054323632
73	0x3d3d82a6	0.046267174
74	0xbb8aa400	-0.004230976
75	0x3d373ae4	0.044733897
76	0xbd6130ae	-0.054978065
77	0x3a02d08d	0.0004990183
78	0x3c945654	0.01810757
79	0x3d3111b0	0.04322976
80	0x3c9a4f05	0.018836508
81	0x3c79b163	0.015240046
82	0xbc91bc32	-0.017789934
83	0x3cd1c32a	0.025605757
84	0xbc3c7819	-0.011503243
85	0xbca21b8b	-0.019788524
86	0x3d343f25	0.04400553
87	0x3cde0e65	0.027106473
88	0xbc407df1	-0.011748777
89	0xbd423671	-0.0474152
90	0xbd2ce96e	-0.042214803
91	0x3d3450f4	0.044022515
92	0xbcf42a23	-0.029805249
93	0xbd5d750a	-0.054066695
94	0xbd86ef60	-0.06588626
95	0xbcc1f973	-0.023678517
96	0xbc70204e	-0.01465614
97	0xbd50232c	-0.050814793
98	0xbd2e8eda	-0.042616703
99	0xbd40778b	-0.046989005
100	0xbd8d3305	-0.06894497
101	0x3d631f8a	0.05545
102	0x3d63e091	0.055634085
103	0xbb37cd53	-0.0028045967
104	0x3d476a5b	0.048685413
105	0x3cc6af08	0.024253383
106	0xbc794cc4	-0.015216056
107	0x3d0740b2	0.033020683
108	0xbcbd9fbc	-0.023147456
109	0xbd82f4e7	-0.06394368
110	0x3cbc5916	0.022991698
111	0x3d1cf302	0.038317688
112	0xbc360ff6	-0.011112204
113	0xbd67cb88	-0.056590587
114	0x3c8331fb	0.016015043
115	0x3b6452cc	0.003483939
116	0x3d0023b1	0.031284038
117	0x3b66c500	0.0035212636
118	0x3d383e15	0.04498108
119	0x3d002f84	0.031295314
120	0xbd568d48	-0.05238083
121	0xbc34df50	-0.01103957
122	0x3d359a89	0.04433683
123	0x3d2cf8a6	0.042229317
124	0x3cfd295c	0.03090351
125	0xbc616828	-0.013757743
126	0xbca68752	-0.020328198
127	0xbce3956c	-0.02778121
128	0xbb645804	-0.00348425
129	0xbc445586	-0.011983281
130	0xbd47a1b0	-0.04873818
131	0xbbaa3460	-0.005194232
132	0x3bd6c097	0.00655372
133	0x3d2bb944	0.04192473
134	0xbd051260	-0.032488227
135	0x3cf13dea	0.029448468
136	0x3d3d8fb6	0.04627963
137	0xbc167120	-0.009182245
138	0xbd514e06	-0.0510998
139	0xbd40d5d8	-0.047078937
140	0xbcd5a06a	-0.026077468
141	0xbd7bce6d	-0.06147616
142	0xbbc3b6ff	-0.0059727426
143	0x3d240602	0.040044792
144	0xbd03c8a4	-0.032173768
145	0xbc988d91	-0.018622192
146	0x3d688794	0.056769922
147	0x3cc2f328	0.023797587
148	0x3d3fc0ba	0.046814658
149	0x3cfd7960	0.030941665
150	0xbbc9d9ea	-0.0061600106
151	0x3d2c9f2e	0.042143993
152	0xbc91f212	-0.017815623
153	0xbd40b9c7	-0.04705217
154	0xbd854a90	-0.06508362
155	0xbd48b5b4	-0.04900141
156	0xbd2a0168	-0.041505247
157	0x3d489bc8	0.04897669
158	0xbd21fb32	-0.0395462
159	0xbd876578	-0.066111505
160	0x3cdaa888	0.02669169
161	0xbca19e7c	-0.019728892
162	0xbcb259b3	-0.021771288
163	0xbd349d3c	-0.044095263
164	0x3c87ecef	0.01659247
165	0x3c8aa1ea	0.01692291
166	0xbd38d5ae	-0.045125656
167	0x3d5c4442	0.053776033
168	0xbd38df39	-0.045134757
169	0x3d1b5cf7	0.037930455
170	0xbd70a07a	-0.058746792
171	0x3d331c30	0.043728054
172	0xbd4766e5	-0.048682112
173	0x3c82fe24	0.015990324
174	0xbd20f602	-0.03929711
175	0xbd49d201	-0.04927254
176	0x3d1e105c	0.03858982
177	0x3d08284e	0.033241563
178	0x3d5d2eae	0.053999595
179	0x3d0ac87c	0.033882603
180	0xbcc3b4e4	-0.023889966
181	0xbca0dfa0	-0.019637883
182	0xbcbb3a48	-0.02285494
183	0xbd78465f	-0.060613986
184	0xbc1417f8	-0.009038918
185	0x3ced031c	0.028932147
186	0x3d579687	0.05263379
187	0xbd62e438	-0.055393428
188	0x3cae1bed	0.02125355
189	0xbd89bb9e	-0.06725238
190	0x3c5bc950	0.013414696
191	0x3b52bc20	0.0032155588
192	0x3cf7b560	0.030237854
193	0xbbeb63bf	-0.0071835215
194	0x3d31211c	0.043244466
195	0xbd0870db	-0.033310752
196	0x3c3b7236	0.011440804
197	0x3cd32165	0.02577276
198	0x3cdbd2d8	0.026833937
199	0x3cc57464	0.024103351
200	0xbca811e7	-0.020516349
201	0x3d51baf6	0.05120369
202	0xbd5dad7f	-0.054120537
203	0xbc39c891	-0.011339323
204	0x3ca5d511	0.0202432
205	0x3c956035	0.018234352
206	0xbcdbc01b	-0.026825001
207	0xbc48f1c0	-0.012264669
208	0x3d49905c	0.049209937
209	0x3ba61903	0.0050688996
210	0xba6b1647	-0.0008967858
211	0x3d1448ec	0.036202356
212	0xbd3dee48	-0.04636982
213	0xbcc3347c	-0.023828737
214	0xbc975e1c	-0.018477492
215	0xbc00dec8	-0.007865615
216	0xbcdd36ec	-0.027003728
217	0xbd22eba2	-0.0397755
218	0x3d29e0a7	0.04147401
219	0xbd3743b1	-0.04474229
220	0x3d4ab61d	0.049490083
221	0xbc8d3f23	-0.01724202
222	0x3c7d264d	0.015451026
223	0x3d29acb6	0.041424476
224	0x3cfe6888	0.031055704
225	0x3d327b8b	0.04357485
226	0xbd89d9e3	-0.06731012
227	0xbd73b156	-0.059495293
228	0xbd8c4b90	-0.0685035
229	0xbd30a71b	-0.043128114
230	0x3bdb3901	0.006690145
231	0x3b7cb1b4	0.0038558068
232	0xbcb3b49b	-0.021936705
233	0xbd269cfe	-0.040677063
234	0xbcf92aad	-0.030415857
235	0x3d789601	0.06068993
236	0xbd6cf2ab	-0.057848614
237	0x3d3a243c	0.045444712
238	0xbd605aad	-0.054773975
239	0xbd389247	-0.045061376
240	0xbd5aa95a	-0.053384162
241	0x3d631cbc	0.055447325
242	0xbd6863c3	-0.056735765
243	0xbd32ae64	-0.043623343
244	0xbd36d0ee	-0.044632845
245	0x3d04415c	0.032288894
246	0xbd258e37	-0.04041883
247	0xbd4c70ca	-0.04991225
248	0x3ce0b8e2	0.027431909
249	0x3c998634	0.01874075
250	0xbca6c69c	-0.020358376
251	0x3b1ae99a	0.0023637773
252	0xbc19df53	-0.009391624
253	0x3cb1be04	0.021697052
254	0xbd627b66	-0.055293463
255	0xbd727e74	-0.059202626

net.2.bias f4 [256]
0	0x3c3abb51	0.011397199
1	0xbdd31903	-0.10307505
2	0xbdaaec4e	-0.08345853
3	0x3d1bbc50	0.038021386
4	0x3ccfd58c	0.025370382
5	0xbc2d60a0	-0.010582119
6	0x3d016be4	0.031597033
7	0xbd91c3d4	-0.071174294
8	0xbcc8dc11	-0.024518998
9	0x3e43ed70	0.19133544
10	0x3d09ee9c	0.03367482
11	0xbd75914e	-0.059953026
12	0x3da5b4e8	0.08091146
13	0xbd0ba543	-0.034093153
14	0x3dad5f8f	0.08465492
15	0xbd5fcfb1	-0.05464143
16	0x3cdd427c	0.027009241
17	0x3d4e29de	0.050332896
18	0x3e10900f	0.14117454
19	0xbc51d01a	-0.012805963
20	0xbc1e4197	-0.0096591925
21	0x3d18fdbc	0.037351355
22	0x3c997c1b	0.018735936
23	0xbd1f9855	-0.038963635
24	0xbd2cf286	-0.042223476
25	0xbd75c91e	-0.060006253
26	0xbca25396	-0.019815248
27	0x3c8205d6	0.015871923
28	0xbe257984	-0.16159636
29	0xbc14c391	-0.00907983
30	0x3d02e182	0.031953342
31	0x3dea529d	0.114415385
32	0xbc5b4bf8	-0.013384812
33	0x3e3385c8	0.17531502
34	0x3d09d8a3	0.033653866
35	0x3d315bdc	0.043300495
36	0x3db69648	0.089153826
37	0xbe0aab2b	-0.13541858
38	0x3d9da0a7	0.07696658
39	0xbd239a9a	-0.03994236
40	0x3bd2f0bb	0.0064373887
41	0x3cfdc2eb	0.030976733
42	0xbd7afa72	-0.061274
43	0x3d844297	0.064580135
44	0xbcd0ba64	-0.025479503
45	0x3daea47a	0.08527465
46	0x3cbb6fea	0.022880513
47	0x3d175eb7	0.03695556
48	0x3e0c3e35	0.13695605
49	0x3cdf4a68	0.02725716
50	0x3d217f0e	0.03942781
51	0x3e277b23	0.16355567
52	0x3da53579	0.0806684
53	0x3bf40474	0.00744682
54	0x3d62cb27	0.055369522
55	0xb999cdc4	-0.0002933574
56	0xbd268e10	-0.040662825
57	0xbc28ef9e	-0.010311035
58	0x3d7fb140	0.0624249
59	0x3cd9b20c	0.026574157
60	0x3d52f108	0.051499397
61	0xbd461ca7	-0.04836717
62	0xbc96a2a9	-0.01838811
63	0x3d896a95	0.06709782
64	0x3cd19b85	0.025586853
65	0x3d9032ea	0.07040961
66	0x3ca7cd44	0.02048362
67	0xbd79aa3f	-0.060953375
68	0xbd93fe43	-0.07226231
69	0x3ca92eba	0.020652164
70	0x3d2ffa54	0.04296334
71	0x3cb4fdf3	0.022093749
72	0x3d0f866e	0.03504031
73	0xbcd710f1	-0.026253195
74	0xbd583443	-0.052784216
75	0x3d09ce2a	0.03364388
76	0xbd9bb1bc	-0.076022595
77	0xbda1c428	-0.07898742
78	0xbd62d730	-0.055381
79	0xbd24b66d	-0.040213037
80	0x3c147fef	0.009063705
81	0x3e26c48e	0.16285917
82	0x3daef9c0	0.0854373
83	0xbc358442	-0.011078896
84	0xbd415d89	-0.047208343
85	0xbc7b994b	-0.015356372
86	0xbd462272	-0.048372693
87	0x3d358f86	0.044326328
88	0x3d0a9430	0.03383273
89	0x3b15d2c2	0.0022861217
90	0x3d1b4396	0.03790625
91	0x3e63f04c	0.22259635
92	0x3cf17741	0.02947581
93	0xbdbaf446	-0.09128623
94	0xbd83d3f9	-0.06436915
95	0xbbb93005	-0.0056514763
96	0x3d5e3db0	0.05425805
97	0x3d98f946	0.0746942
98	0x3bc21d96	0.005923937
99	0x3d541e67	0.051786806
100	0xbc9fa4a2	-0.019487683
101	0x3c834540	0.016024232
102	0xbcdd44b5	-0.027010301
103	0x3c7c3633	0.0153937815
104	0x3cce9389	0.025216835
105	0x3e224189	0.15845312
106	0xbdbec6c2	-0.09315254
107	0xbd5d8056	-0.05407747
108	0xbc9726b7	-0.018451078
109	0xbd1bab7c	-0.038005337
110	0x3d1ce87d	0.038307656
111	0xbd5bd5ec	-0.05367081
112	0xbd97ad34	-0.07406083
113	0x3bafd0a5	0.0053654485
114	0xbbcd1d5f	-0.006259605
115	0x3c5c22f8	0.013436072
116	0x3bece805	0.0072298073
117	0xbce26b3b	-0.027639022
118	0x3e393e3a	0.18090144
119	0x3b407340	0.002936557
120	0xbd5c3aa2	-0.053766854
121	0x3ac4aac4	0.0015004505
122	0x3d593618	0.053030103
123	0x3d94f5e1	0.0727346
124	0x3dd5d8fe	0.104417786
125	0x3e1c0b0a	0.15238586
126	0x3c8aa39c	0.016923718
127	0x3dd9c94f	0.106341
128	0x3cbd0ef0	0.023078412
129	0x3ca09ad0	0.01960507
130	0x3d006aba	0.031351782
131	0x3d018226	0.03161826
132	0x3d052cda	0.032513477
133	0xbd78303a	-0.060592867
134	0xbd5d138f	-0.05397373
135	0x3e1e66a9	0.15468849
136	0x3de28868	0.11061174
137	0xbd8cc5be	-0.06873654
138	0xbc570058	-0.013122641
139	0xbd8558fb	-0.06511112
140	0x3cf8e1ab	0.030381044
141	0xbd41b971	-0.04729599
142	0x3e20e099	0.15710677
143	0xbd784bf6	-0.060619317
144	0xbcc78ec9	-0.024360077
145	0xbd1c985d	-0.038231242
146	0xbd4d5df4	-0.05013843
147	0xbd68def9	-0.05685327
148	0xbd1d8513	-0.038456988
149	0xbc77a3d9	-0.015114748
150	0x3d3849eb	0.04499237
151	0xbd6890f9	-0.05677888
152	0xbd063cbc	-0.032772765
153	0xbd1c6084	-0.038177982
154	0x3db688b2	0.08912791
155	0x3e19344a	0.14961353
156	0xbd974c2a	-0.07387574
157	0x3cdf8558	0.027285263
158	0x3b1435df	0.0022615117
159	0xbc9ded94	-0.019278325
160	0x3d4db372	0.05021996
161	0x3e55c7cb	0.20876996
162	0x3e34493d	0.17606063
163	0x3d946751	0.072462685
164	0x3dd53480	0.10410404
165	0xbd71a9f6	-0.058999978
166	0x3b9d6fbc	0.0048045795
167	0x3cde73be	0.0271548
168	0xbd55a72a	-0.052161373
169	0xbd5edc40	-0.054409266
170	0x3cca65c7	0.024706734
171	0xbc7bbc3f	-0.015364706
172	0x3e0905b9	0.1338109
173	0x3d0c79ec	0.03429596
174	0x3c725108	0.014789827
175	0x3d2b9d0c	0.04189782
176	0xbd8bf517	-0.068338566
177	0x3d0d2880	0.034462452
178	0xbc095e85	-0.008384352
179	0x3d9378b9	0.072007604
180	0xbd697878	-0.056999654
181	0x3c4e69dc	0.012598481
182	0xbd6e3a5a	-0.058161117
183	0x3cb68bf1	0.022283526
184	0xbc8eb818	-0.017421767
185	0x3c888a04	0.016667373
186	0x3e2bfa8f	0.167948
187	0x3cdbbe3f	0.026824115
188	0xbd24179a	-0.04006157
189	0x3c506fde	0.012721984
190	0x3bf88494	0.007584164
191	0xbd482f6a	-0.048873343
192	0xbd5063cd	-0.050876427
193	0xbd1d5b30	-0.03841704
194	0x3d011a62	0.0315193
195	0x3db21f6d	0.086974
196	0x3e4fa7f9	0.2027892
197	0xbd26c99a	-0.040719606
198	0xbc641433	-0.0139208315
199	0xbc788498	-0.015168332
200	0x3e59cc60	0.21269369
201	0x3e1ab141	0.1510668
202	0x3c03e651	0.008050517
203	0x3ce5b8c8	0.028042212
204	0x3bb8a2c7	0.005634639
205	0xbcb97fb4	-0.022643901
206	0xbb972ae1	-0.004613266
207	0x3d814a70	0.06313026
208	0xbd870bb8	-0.06594032
209	0x3e022e37	0.12712942
210	0xbd70fcc7	-0.058834817
211	0xbe02a20d	-0.1275713
212	0x3da6df4b	0.081480585
213	0xbc47dc40	-0.012198508
214	0xbd0b777a	-0.03404949
215	0xbd731da1	-0.05935443
216	0xbcfa7a20	-0.030575812
217	0xbd0425d5	-0.032262642
218	0xbce66b81	-0.028127434
219	0xbd76ae3f	-0.060224768
220	0x3e358d4e	0.17729685
221	0xbb61de27	-0.0034464689
222	0x3df86463	0.12128522
223	0x3dd308dc	0.10304424
224	0xbd2f202f	-0.042755302
225	0xbd437a51	-0.047724072
226	0x3da9e152	0.082949296
227	0x3c2d9e7a	0.010596866
228	0xbc546bc6	-0.012965148
229	0xbc8cf104	-0.017204769
230	0x3d07c67c	0.033148274
231	0xbb540e6c	-0.003235723
232	0xbdafeb18	-0.085897624
233	0x3ce36683	0.027758842
234	0xbcc1b741	-0.023646953
235	0x3e35a416	0.17738375
236	0x3cdc0c94	0.026861466
237	0x3d82a39f	0.063788645
238	0x3d44e79b	0.04807244
239	0xbc5dcbe7	-0.013537384
240	0x3dd2149d	0.10257838
241	0x3d16de30	0.03683299
242	0x3d9eab4f	0.07747518
243	0x3d38ff2b	0.045165222
244	0xbd878f0b	-0.0661908
245	0xbc981677	-0.0185654
246	0x3dd1c3dd	0.10242436
247	0x3e439d4a	0.1910297
248	0x3cbf768d	0.02337196
249	0xbc292f82	-0.010326268
250	0x3c39a395	0.011330505
251	0x3c91a6f1	0.0177798
252	0xbd047135	-0.032334525
253	0x3ce2a08e	0.027664449
254	0xbb457d1c	-0.0030134385
255	0x3d966a6f	0.07344519

actor.weight f4 [1, 256]
0	0x3c33ccf6	0.010974159
1	0x3d868111	0.06567586
2	0x3d702491	0.058628622
3	0xbd32d528	-0.043660313
4	0x3f118478	0.56842756
5	0x3c539317	0.012913487
6	0x3d3ebfa7	0.046569493
7	0xbc6f94fd	-0.014622924
8	0x3b8a5949	0.0042220694
9	0x3dcab46e	0.098976955
10	0xbcbb62d4	-0.022874273
11	0xbc5c4bbf	-0.013445794
12	0x3f0e52b1	0.5559493
13	0xbb8a57b9	-0.004221883
14	0x3ec4848a	0.3838237
15	0x3cc67c1c	0.024229102
16	0x3f01978f	0.50621885
17	0xbbe18760	-0.006882593
18	0xbddc1ba2	-0.10747458
19	0x3d4d372b	0.05010144
20	0x3da30c01	0.07961274
21	0xbea7525b	-0.3268002
22	0x3eb4e00e	0.3532719
23	0xbd0f8de2	-0.03504742
24	0xbef1a268	-0.4719422
25	0xbb6f57ba	-0.0036520795
26	0x3d567b8e	0.052363925
27	0xbca118eb	-0.019665202
28	0xbeaf77dc	-0.34271133
29	0xbea104a7	-0.31448862
30	0x3ca03185	0.019554863
31	0x3e97d4f9	0.29654673
32	0x3d3706b0	0.044684112
33	0xbcd71ee1	-0.026259841
34	0xbea9e341	-0.33181193
35	0xbe9701f9	-0.29493693
36	0x3f070b30	0.52751446
37	0x3e697110	0.22797036
38	0xbe4e8fa3	-0.2017198
39	0x3c035298	0.008015297
40	0x3d50c195	0.050965864
41	0xbeb3341a	-0.35000688
42	0x3d5a81c2	0.053346403
43	0x3b8ae987	0.0042392644
44	0xbd3a8406	-0.045536064
45	0x3f30b242	0.69022
46	0xbbf8957c	-0.0075861793
47	0xbe8e7195	-0.2782103
48	0x3e25c544	0.16188532
49	0x3da35222	0.0797465
50	0xbce23945	-0.027615199
51	0x3e3d8ed9	0.18511523
52	0x3ee2ccb6	0.44296807
53	0xbe9dc25f	-0.30812356
54	0x3ee33fb4	0.4438454
55	0xbd279da8	-0.040921837
56	0xbee3df5e	-0.44506353
57	0xbc9e7359	-0.019342111
58	0xbc093690	-0.008374825
59	0xbcf5b284	-0.02999235
60	0x3dd6aa4a	0.10481699
61	0x3cc54291	0.024079593
62	0x3e98304b	0.29724345
63	0xbe6d06ba	-0.23147097
64	0xbfac2958	-1.3450117
65	0xbaf46699	-0.0018646299
66	0xbe8c2f0f	-0.27379653
67	0xbd537d4c	-0.051633164
68	0x3c077c25	0.008269344
69	0xbed9a919	-0.42511824
70	0x3de26a41	0.110554226
71	0x3e298c1f	0.16557358
72	0x3d51c6e3	0.051215064
73	0xbbe34a4d	-0.0069363476
74	0x3ccef4dd	0.025263244
75	0x3cd24fda	0.025672842
76	0x3be82c76	0.0070853783
77	0x3c5da430	0.013527915
78	0xbd9b9286	-0.075963065
79	0xbe70286d	-0.23452921
80	0x3f1933a2	0.5984441
81	0xbdfc5ea2	-0.12322737
82	0xbeb57260	-0.35438824
83	0xbecd0fa3	-0.40050992
84	0x3b888e3c	0.0041673463
85	0xbc4fafd3	-0.012676197
86	0xbd37b724	-0.04485239
87	0x3d28689c	0.04111539
88	0xbe7fd327	-0.24982892
89	0x3ebbcdbe	0.36680406
90	0x3ce95dcc	0.028487109
91	0x3c21452b	0.009843151
92	0x3d3b4ec4	0.045729414
93	0x39a7b2d2	0.00031985954
94	0xbd5640d7	-0.05230793
95	0x3f08f149	0.5349317
96	0x3d6bf344	0.057605043
97	0x3e61de61	0.22057487
98	0xbe640a28	-0.222695
99	0xbd2d0e5b	-0.04225002
100	0x3d81989f	0.06327938
101	0x3be54505	0.006996753
102	0xbc0a87c2	-0.008455219
103	0x3bbc3528	0.0057436414
104	0x3b92bd7d	0.004478155
105	0xbe2ca1c7	-0.16858588
106	0x3d5590ba	0.052139975
107	0x3e1aefe3	0.15130572
108	0x3d75ec50	0.06003982
109	0x3be55560	0.006998703
110	0x3ce9eded	0.028555835
111	0x3c21007a	0.009826774
112	0x3b9b5bda	0.004741174
113	0x3b9c7a97	0.004775356
114	0xbaec021d	-0.0018006001
115	0x3f062566	0.52400815
116	0x3ada0306	0.0016632981
117	0xbb74c1c6	-0.0037346943
118	0x3d912124	0.07086399
119	0xba5815ea	-0.00082430115
120	0x3d37d132	0.04487724
121	0x3d1d4465	0.038395304
122	0x3d429b08	0.04751113
123	0xbe41b905	-0.18918236
124	0x3cc14a82	0.023595098
125	0x3c9ad295	0.018899241
126	0x3d59143b	0.05299781
127	0xbdc90bff	-0.09816741
128	0x3d03f5e3	0.032216918
129	0xbc17dae0	-0.009268492
130	0xbc039ee8	-0.008033492
131	0xbd09b753	-0.033622097
132	0x3d409758	0.047019333
133	0xbea575e1	-0.32316497
134	0xbc061364	-0.008183334
135	0x3e06140d	0.13093586
136	0xbe1a56fc	-0.15072244
137	0xbd067840	-0.032829523
138	0xbd294190	-0.04132229
139	0x3d3d35f2	0.046194024
140	0xba9cfd4e	-0.0011977346
141	0xbecc239e	-0.39870924
142	0x3e43089f	0.19046257
143	0xbca9bf00	-0.020720959
144	0x3bee439c	0.0072712433
145	0xbc86916a	-0.01642676
146	0x39887900	0.00026030093
147	0x3d7516bd	0.059836138
148	0xbd02a887	-0.031899
149	0xbe6d3060	-0.23162985
150	0x3cbcbcbc	0.023039214
151	0x3d8a19a6	0.06743173
152	0xbb9c6ca8	-0.004773695
153	0xbd290371	-0.041263048
154	0x3ef4e714	0.4783255
155	0xbc55bf00	-0.013046026
156	0x3c506fa4	0.01272193
157	0x3da38b4d	0.07985554
158	0x3f1f394e	0.62196815
159	0x3d2259a0	0.039636254
160	0x3cfd8d4d	0.030951167
161	0x3d4c1c7c	0.049831852
162	0xbd9429a5	-0.072345056
163	0x3e99fe09	0.30076626
164	0x3e67b73c	0.22628492
165	0x3cd936c4	0.026515372
166	0xbe989dce	-0.29807895
167	0x3f04fd21	0.51948744
168	0x3d25ca31	0.040476028
169	0x3eebcb11	0.46053365
170	0x3cb36951	0.021900805
171	0x3ebaa4c3	0.36453828
172	0x3d48d8f7	0.04903504
173	0x3f0232ae	0.5085858
174	0x3d4f75ce	0.050649457
175	0x3a047a94	0.0005053666
176	0xbd3fa49f	-0.046787854
177	0xbead34cc	-0.33829343
178	0xbec12a4e	-0.37727588
179	0x3e1d114e	0.15338632
180	0x3d44128e	0.047869258
181	0x3d31efa2	0.043441422
182	0xbe66ac55	-0.22526677
183	0x3da2251e	0.07917236
184	0x3e02e778	0.12783611
185	0x3c4cc08b	0.012497078
186	0x3e22ce86	0.15899095
187	0x3ef0a5f0	0.470016
188	0x3c14a538	0.009072594
189	0x3f09750b	0.5369422
190	0xbd21c099	-0.039490316
191	0xbea09b09	-0.31368282
192	0xbd0cb189	-0.034349
193	0xbeb7d336	-0.3590333
194	0xbca677ad	-0.020320738
195	0xbcd76aac	-0.026295982
196	0x3e174550	0.14772534
197	0xbcda7370	-0.026666373
198	0x3ca5d2d6	0.020242136
199	0x3c109d88	0.008826621
200	0x3dcf2a9b	0.10115548
201	0xbe1376b5	-0.14400752
202	0xbd846222	-0.0646403
203	0x3c188362	0.009308668
204	0xbe25e224	-0.16199547
205	0xbb482e41	-0.0030545148
206	0xbdef11fc	-0.11673352
207	0xbe63cd7a	-0.22246352
208	0xbd386b2b	-0.04502408
209	0x3c874cb5	0.016516069
210	0xbeffc637	-0.49955913
211	0x3dd31a2f	0.103077285
212	0x3dc66045	0.09686331
213	0x3e9aa1fc	0.3020171
214	0xbe9548e2	-0.29157168
215	0x3c29baec	0.010359507
216	0x3bb9e298	0.005672764
217	0x3d2c4ebb	0.04206727
218	0x3c613c5c	0.013747301
219	0xbc60b8f4	-0.013715971
220	0x3c61c582	0.01378
221	0x3e27d8ef	0.16391347
222	0x3e1aca0c	0.15116137
223	0xbc9ac151	-0.018891009
224	0xbd324c8b	-0.04353003
225	0xbc45ae30	-0.012065455
226	0x3e326340	0.17420673
227	0xbd1f557a	-0.038899876
228	0x3c96bcf1	0.018400641
229	0xbeb207a8	-0.34771466
230	0xbcf1c5e6	-0.02951331
231	0xbd3fe5f6	-0.046850167
232	0xbd923ee0	-0.07140899
233	0x3f0632c3	0.52421206
234	0x3d46572d	0.04842298
235	0x3e548d53	0.20757036
236	0xbd6b3d5a	-0.057431556
237	0x3ed7acdb	0.42124066
238	0x3d100852	0.035164185
239	0x3f0a4746	0.54015005
240	0x3edd71c7	0.43250868
241	0xbed19bd1	-0.4093919
242	0x3e52481b	0.20535319
243	0x3d10d67c	0.0353608
244	0x3d5ae94d	0.05344515
245	0xbd4769bd	-0.048684824
246	0xbc2d1df3	-0.0105662225
247	0xbdf2a990	-0.11848748
248	0xbd39530d	-0.04524522
249	0xbe9504f8	-0.29105353
250	0xbd583c1a	-0.052791692
251	0xbe48b19b	-0.19599001
252	0xbbdd47ce	-0.0067529446
253	0xbca86157	-0.020554228
254	0x3e836a1c	0.25666893
255	0x3e059f4d	0.1304905

critic.weight f4 [1, 256]
0	0xbd0169a8	-0.031594902
1	0xbd0d108f	-0.03443962
2	0xbe8dc34e	-0.27688068
3	0x3d31644f	0.043308552
4	0x3c4cf988	0.012510665
5	0x3b41481f	0.002949245
6	0xbca82d77	-0.020529492
7	0x3d090cb1	0.03345937
8	0xbc3f7a42	-0.011686863
9	0x3d901a3c	0.07036254
10	0xbc81af42	-0.01583064
11	0xbcc5daee	-0.024152245
12	0x3c40872c	0.0117509775
13	0xbc88920f	-0.016671209
14	0x3c794d20	0.015216142
15	0x3b82fc99	0.003997397
16	0x3b8ed9e4	0.0043594707
17	0xbd487b9b	-0.048946004
18	0x3d9d289c	0.07673761
19	0xbb0f22ef	-0.002184089
20	0x3d4888c0	0.04895854
21	0x3c6ef17f	0.014583944
22	0xbcca1f2d	-0.024673069
23	0xbd0eaa52	-0.0348304
24	0x3c676be5	0.014124845
25	0xbc2ec468	-0.010666944
26	0x3d2810e2	0.041031726
27	0xbce27817	-0.027645154
28	0xbdad3e2d	-0.08459125
29	0x3d53683e	0.051613085
30	0xbc7e6394	-0.015526671
31	0x3c312737	0.010812572
32	0x3c2fc290	0.01072754
33	0x3dd321f6	0.10309212
34	0xbc57c0f3	-0.013168561
35	0xbbf80d06	-0.007569912
36	0x3c410ecc	0.011783313
37	0xbe437d75	-0.19090827
38	0x3d05d750	0.03267604
39	0x3d7ce36a	0.061740316
40	0xbd02a7fb	-0.03189848
41	0xbc491a9e	-0.012274412
42	0x3bd96980	0.006634891
43	0x3c1d7fee	0.00961302
44	0x3c80a76e	0.015704837
45	0x3c3cbcb4	0.0115196
46	0x3d68782a	0.056755222
47	0xbca68539	-0.020327197
48	0x3c351cec	0.011054259
49	0xbe3aa5e5	-0.18227346
50	0x3cbd39fc	0.023098938
51	0x3d25a066	0.04043617
52	0x3c295881	0.010336042
53	0xbc43dd6b	-0.011954646
54	0x3b9d91ee	0.004808656
55	0xbc4fba0f	-0.012678637
56	0x3c03a55a	0.008035028
57	0x3c1ad4b6	0.009450128
58	0x3b3e7a8f	0.002906475
59	0xbcabab2e	-0.020955648
60	0x3c08c036	0.008346608
61	0x3d3cf9b2	0.046136566
62	0x3cefde01	0.029280664
63	0x3c63c0bb	0.013900931
64	0x3e0f5219	0.13996162
65	0x3de81ab8	0.11333221
66	0xba6645b1	-0.00087841885
67	0x3bf887df	0.0075845565
68	0xbd04431a	-0.032290556
69	0x3c85c6d0	0.016330153
70	0x3d74f917	0.059807863
71	0xb9f6f993	-0.00047106724
72	0x3c0ef365	0.008725022
73	0xbcc54bb3	-0.024083948
74	0x3d5d6ac4	0.054056898
75	0x3be41dc6	0.006961557
76	0xbcdf9c81	-0.027296307
77	0xbde3c0c1	-0.11120749
78	0xbccc21f4	-0.024918534
79	0x3c6c55d9	0.014424765
80	0x3bba60b7	0.005687799
81	0x3d3b948c	0.045795962
82	0x3dd4ff88	0.10400301
83	0xbc9bb743	-0.019008284
84	0x3d5c86df	0.05383956
85	0xbd581519	-0.052754495
86	0xbbde703a	-0.006788281
87	0x3d4ebdd6	0.05047401
88	0x3c63a216	0.013893625
89	0xbd8e7569	-0.06955988
90	0x38686290	5.5404904e-05
91	0x3dc8a002	0.09796144
92	0x3d2dc627	0.0424253
93	0xbd95ae45	-0.0730863
94	0xbaa2b5a5	-0.0012413753
95	0x3be0de0a	0.0068624066
96	0x3c93ddf3	0.01805017
97	0x3b9da01c	0.0048103463
98	0xbc343c3d	-0.01100069
99	0x3d468804	0.04846956
100	0xbc5d9aa7	-0.0135256415
101	0xbcadf7ee	-0.021236386
102	0xbceb2a0c	-0.028706573
103	0xbd1ba18f	-0.03799587
104	0x3d8b99b4	0.06816426
105	0x3d47cbe3	0.048778426
106	0xbe67f75f	-0.22652958
107	0xbd3c669e	-0.0459963
108	0x3d392f43	0.045211088
109	0xbd610464	-0.054935828
110	0x3d303fa9	0.04302946
111	0xb8bd7a1e	-9.0349684e-05
112	0xbca2dc39	-0.019880401
113	0xbd1e63f6	-0.03866955
114	0xbcafae30	-0.021445364
115	0x3c185706	0.009298092
116	0x3ca65b92	0.020307336
117	0xbd185a07	-0.03719523
118	0x3da0c176	0.078494
119	0xbd024fe8	-0.031814486
120	0xbcebabc2	-0.028768424
121	0x3d3254c3	0.043537866
122	0x3d4b96f7	0.04970452
123	0x3c25795b	0.010099734
124	0x3c637301	0.0138824
125	0x3c419b7e	0.011816857
126	0xbc6f6a8b	-0.014612804
127	0x3d300f60	0.042983413
128	0x3c0254e3	0.007954809
129	0x3d2b0c36	0.041759692
130	0x3c8f9419	0.017526673
131	0x3b34db13	0.0027596399
132	0x3d5914ee	0.052998476
133	0xbcb73a13	-0.02236656
134	0x3d0358e3	0.03206719
135	0x3d9e1801	0.07719422
136	0x3c979569	0.018503862
137	0xbe1892f8	-0.14899814
138	0xbc8ea0e4	-0.017410703
139	0xbcc43bc8	-0.023954287
140	0xbb008cf0	-0.0019615255
141	0x3c04e0f7	0.008110276
142	0x3d76dd19	0.06026945
143	0x3d429273	0.047502946
144	0xbcc33a5a	-0.023831535
145	0x3bc56b73	0.006024772
146	0xbd1a4e56	-0.037672363
147	0x3d57c459	0.052677486
148	0xbb674ddf	-0.0035294218
149	0xbc40cf4b	-0.0117681725
150	0x3aa2daaa	0.0012424786
151	0xbe23726a	-0.15961614
152	0x3b90dca3	0.004420833
153	0x3bc1dc64	0.005916165
154	0x3c000836	0.007814458
155	0x3db84d63	0.08999135
156	0x3d1d184c	0.03835325
157	0x3c2c1967	0.010504103
158	0xbba42c76	-0.005010183
159	0x3d4afc31	0.049556915
160	0xbcc1b774	-0.023647048
161	0x3d5dd4bb	0.054157954
162	0x3de8de0c	0.11370477
163	0x3c4b2868	0.01239977
164	0xbb9ba885	-0.0047503137
165	0x3d441f38	0.047881335
166	0xbc44551e	-0.011983184
167	0x3c0f0482	0.008729102
168	0xbe6261bc	-0.22107595
169	0x3b13497a	0.0022474215
170	0xbd0946a5	-0.033514638
171	0xba2d2950	-0.00066055823
172	0x3d75ba59	0.059992168
173	0x3ca31745	0.019908557
174	0x3c492480	0.012276769
175	0x3c54242d	0.012948078
176	0xbc013dad	-0.00788824
177	0xbc1611b0	-0.0091594905
178	0x3c72b33d	0.014813242
179	0xbc03942e	-0.008030934
180	0x3cc54d08	0.024084583
181	0xbbc99815	-0.006152163
182	0xbd4825dc	-0.04886423
183	0xbc25a10f	-0.0101092
184	0xbda6d0a8	-0.08145267
185	0x3d408449	0.047001157
186	0x3cc24944	0.023716576
187	0xbbc39cc0	-0.005969614
188	0x3cf22f48	0.029563561
189	0x3bfe2af9	0.0077565876
190	0xbc86309c	-0.0163806
191	0x3bd25572	0.0064188773
192	0xbc888f3a	-0.016669858
193	0x3b7fb305	0.0039016616
194	0xbd85fe39	-0.0654263
195	0x3d49dcf2	0.049282975
196	0x3d962d24	0.07332829
197	0x3d703196	0.05864104
198	0xbd07f4dd	-0.033192504
199	0xbd213314	-0.039355353
200	0x3daa24a6	0.083077714
201	0x3da3d1e1	0.079990156
202	0x3b6d2e22	0.0036190827
203	0xbc6faa0a	-0.014627943
204	0x3ea1d3dd	0.3160695
205	0xbb8df875	-0.004332597
206	0xbe29952c	-0.16560811
207	0xbb7fab95	-0.0039012183
208	0xbd3c241f	-0.045932885
209	0x3db29137	0.08719104
210	0x3c5c9348	0.013462849
211	0xbe848922	-0.25885874
212	0x3bf6afc3	0.0075282766
213	0xbdcdf2bd	-0.10056064
214	0xbbdd8764	-0.0067605246
215	0xbafff89e	-0.001952905
216	0x3c99b85e	0.018764671
217	0x3d2229ff	0.03959083
218	0xbd367a2c	-0.044550106
219	0xbd5c60fe	-0.053803436
220	0x3d2bfba8	0.041988045
221	0x3ce0dc06	0.027448665
222	0x3d862a29	0.0655101
223	0x3d34f4bb	0.044178706
224	0xbc8a7acc	-0.016904257
225	0x3d49a1ac	0.049226448
226	0x3d1bf634	0.038076594
227	0xbbcd1267	-0.0062582972
228	0xbc14e8d7	-0.0090887165
229	0xbc84721f	-0.016167698
230	0xbb676783	-0.00353095
231	0x399e876d	0.00030237008
232	0xbca4a325	-0.020097325
233	0x3c114b3a	0.008868033
234	0x3c7a3b07	0.015272862
235	0x3d1d1bf8	0.03835675
236	0xbca5b23a	-0.020226587
237	0x3d207e82	0.039183147
238	0xbd4a7e8f	-0.049437102
239	0x3c6d3467	0.014477826
240	0x3bc78522	0.0060888687
241	0xbbd2711c	-0.006422175
242	0x3d172f93	0.036910605
243	0xbc363930	-0.011122033
244	0xbd4f4212	-0.05060012
245	0xbc64179d	-0.0139216455
246	0x3c1222cf	0.008919432
247	0x3dae7a1b	0.085193835
248	0xbcef4245	-0.029206404
249	0xbd5a230f	-0.05325609
250	0xbd0cae7c	-0.03434609
251	0x3c0af08c	0.008480202
252	0xbc245860	-0.010030836
253	0x3d12605a	0.03573642
254	0xbb7359bd	-0.0037132346
255	0x3d2806e9	0.041022215
