models1/ppo_1050.pth (torch, 275660 bytes, 6 tensors)

net.0.weight f4 [256, 6]
000000 a9 c4 b7 be 68 75 b2 be a9 10 3e 3e c4 2c d1 3e
       -0.35892227 -0.348552 0.18561043 0.40854466
000010 c2 e7 e8 bd 63 96 a4 be 29 4f 6d bd 09 f3 b7 bc
       -0.11372329 -0.32145986 -0.05793682 -0.022454755
000020 8f 0c e2 3e 05 6c bd be f6 17 c8 bd 6b d6 e2 3e
       0.44150206 -0.36996475 -0.09770195 0.44304213
000030 4a 84 19 be 21 0d d3 3e 15 68 fa bc d6 28 f6 be
       -0.1499187 0.41220954 -0.030567208 -0.4807803
000040 07 26 15 be 1a b8 06 be 0b c2 a3 be b7 e5 76 3e
       -0.14565288 -0.13156167 -0.3198398 0.24111067
000050 43 8f 28 3e 5c 2f 1c bd 1a 1d 8e bb c2 53 a9 3e
       0.164609 -0.038131103 -0.0043369653 0.33071715
000060 71 0c 81 3e 18 b0 f7 bd c8 24 00 bf b2 39 7e 3e
       0.25204805 -0.12094134 -0.50056124 0.24826697
000070 6e fd 4c 3e 8f eb 58 be e7 4a d3 3d 8a e9 8d bd
       0.20018551 -0.21183608 0.10317021 -0.0692931
000080 8c b4 bd 3e d9 3f e6 3b 39 67 98 be 0c 92 68 3e
       0.3705181 0.007026654 -0.29766253 0.22711962
000090 6a df 65 3c 72 e1 0e 3e 91 9b e0 3e 49 71 80 3e
       0.014030317 0.13953188 0.43868688 0.2508643
0000a0 8b 0a a9 3d 68 8c a8 be 83 bf ad be 63 6e bd be
       0.08253964 -0.3291962 -0.33935174 -0.3699828
0000b0 95 f0 cb 3c f5 f3 3c 3e 21 c6 a0 bd 8c 2e 90 3e
       0.024894992 0.18452437 -0.0785029 0.28160512
0000c0 cf 3e 57 be 28 08 89 be 95 b7 9e 3e 99 fc 8c bd
       -0.21020053 -0.26764035 0.30999437 -0.06884117
0000d0 0f 54 59 3e 8d d4 8e be 53 1d 3d 3e e0 08 52 3e
       0.21223472 -0.27896538 0.18468218 0.20511198
0000e0 f6 21 e4 3e cd db 06 bf cd c2 4e be 2f a9 32 3e
       0.4455716 -0.5267914 -0.20191498 0.17447351
0000f0 a3 82 07 3e 98 5c 16 be 45 b8 3b bd 76 88 ae bd
       0.13233428 -0.14683759 -0.04583003 -0.085221216
000100 99 9a 6b be 10 21 d5 bd 2a 6c 23 3d 5e 7e 81 be
       -0.23008193 -0.10406697 0.039898075 -0.25291723
000110 db 2f 5a be 50 bd 8b 3e 62 75 d7 bd de 15 ff bd
       -0.21307318 0.2729287 -0.10520436 -0.12455343
000120 c9 a4 15 be 27 f2 cc 3d 9d 98 29 be e5 ed 3a 3e
       -0.14613642 0.100071244 -0.16562124 0.18254812
000130 15 36 a0 be 61 c0 8a be e6 75 88 bd 95 5d 8f 3d
       -0.3129126 -0.27099898 -0.06663112 0.07000271
000140 68 0b 1b 3e 06 71 6b 3e 68 3e a8 bd 99 e7 ec be
       0.1514107 0.22992334 -0.08215028 -0.46270445
000150 91 93 a9 3e ab 91 1d 3e 28 db 82 be 8b 30 92 bb
       0.33120397 0.15387599 -0.25557828 -0.004461353
000160 58 5d a1 be 8a 2c a6 3e 30 d6 0e 3e 7c 64 8e be
       -0.31516528 0.32455856 0.13948894 -0.27811038
000170 f6 c4 0a be 45 29 dd be b7 ed 9f be 88 8e bf 3c
       -0.13551697 -0.4319555 -0.3123605 0.023383394
000180 02 f3 13 3e 49 91 67 3e dc 2f c2 3e 94 4d 05 be
       0.14448169 0.22614016 0.3792714 -0.13017875
000190 49 53 04 bd 84 fe b2 be 28 46 dc be 7e 2b 12 be
       -0.03230599 -0.34959805 -0.43022275 -0.14274403
0001a0 ba 9c 34 bd 6c 73 9c be e1 c4 30 bc a2 95 be 3d
       -0.04409478 -0.3055681 -0.010789127 0.09305884
0001b0 29 dd ce be 2e 7b 8e 3e ed 7b f3 be b0 ab ab be
       -0.40403107 0.27828354 -0.47555485 -0.33529425
0001c0 5e a0 e9 bd 5d ec 5b 3e fe 6e 23 3e d6 e6 60 3e
       -0.11407541 0.21476884 0.15960309 0.21963057
0001d0 b3 fe 38 be ef 42 c9 3e 53 30 ee bd b4 52 77 be
       -0.1806591 0.3930888 -0.11630311 -0.24152642
0001e0 c9 cb 28 bd ab d5 2e 3e 7e 01 f0 bc 80 13 a1 3e
       -0.04120997 0.17073695 -0.029297587 0.3146019
0001f0 d6 eb 83 3e dc ca ca 3e b0 7d b8 3e f8 af 72 3e
       0.25765866 0.39607894 0.36033392 0.23699939
000200 25 a7 1e 3c 64 a5 ab 3d 59 97 9f 3d 9a a2 b7 be
       0.009683405 0.08381155 0.07792539 -0.35866243
000210 f9 9c a8 be 5d 62 8e 3d 91 70 a7 3e 3a 8a f3 be
       -0.3293226 0.06952355 0.3270307 -0.47566396
000220 12 51 c2 bd 7e 8f d2 3e 9b 7f 2f 3e dc 10 e5 bd
       -0.09488119 0.411251 0.17138521 -0.11184856
000230 5b ae 02 be 01 54 3b bd e1 bc 2a 3e c7 51 c2 3c
       -0.12761824 -0.04573441 0.16673614 0.023720635
000240 91 ea bf bd 8d 88 86 3e 28 88 03 bd 3a 80 f9 bb
       -0.09370912 0.26276055 -0.03211227 -0.0076141628
000250 e4 e3 92 3e 63 3d ed be 07 c4 5f be 6d 37 a7 3e
       0.28689492 -0.46335897 -0.21852122 0.32659474
000260 cf b0 cf be 1e 7c 19 3f 47 ab 6a 3d 17 e9 6a be
       -0.40564582 0.5995501 0.05729225 -0.22940479
000270 47 96 42 3e 11 be 9f 3d 09 ba 76 be 96 4d 10 3e
       0.19002639 0.07799924 -0.24094404 0.14092097
000280 41 53 cc 3d fe 6e 5d be bd 75 c7 3d 02 38 ab bd
       0.09976817 -0.21624371 0.09739254 -0.08360292
000290 56 cb 15 3f b8 70 06 bf 2f ff f6 3c c0 1d a8 be
       0.5851339 -0.52515745 0.030150978 -0.32835197
0002a0 af 3c 9f 3e 86 8b c9 be 62 82 2a 3e d2 32 a4 3e
       0.31100985 -0.3936426 0.166513 0.32070023
0002b0 50 db be bd 50 fc 26 be 29 85 45 be ed b4 07 3e
       -0.09319174 -0.16307187 -0.19289078 0.13252611
0002c0 23 f7 5a 3e 5b 1e 92 be 5b 5a 90 be bc 7f 71 3d
       0.21383338 -0.28538784 -0.28193936 0.058959708
0002d0 3c 79 0c be 8a 22 86 be b0 ce bc be b7 49 ba 3e
       -0.13718122 -0.26198226 -0.3687644 0.36384365
0002e0 c8 33 bd 3e d2 8b 86 3e f1 1b f9 3b da b0 53 be
       0.36953568 0.2627855 0.007602208 -0.20672932
0002f0 0b 75 07 bf d9 27 83 3e eb a8 e5 3d 57 e6 29 be
       -0.5291297 0.2561634 0.11213859 -0.16591774
000300 23 03 41 be 1f db 62 bd 88 fd 47 be 3d 6f b4 3e
       -0.18848853 -0.05538475 -0.19530308 0.35241118
000310 7e 9f 08 be 96 9b 71 3d 3e 64 95 bd ab 60 83 3e
       -0.13342091 0.05898627 -0.0729451 0.2565969
000320 2f 20 b4 bd c9 ca b1 bc dd 03 21 3e ac a8 d6 3d
       -0.08795201 -0.02170314 0.1572413 0.1048139
000330 50 18 d1 be 0e 8f 1a 3e 56 a4 83 be 28 74 b4 3e
       -0.4083886 0.15093634 -0.25711316 0.3524487
000340 c4 e9 95 be b6 20 91 3d 71 7e ad be c8 e1 8a 3d
       -0.29279912 0.07086317 -0.3388553 0.067813456
000350 ff 26 9c 3e 86 65 4c 3e b6 95 18 bd b5 fb d0 bd
       0.30498502 0.19960603 -0.03725215 -0.10204259
000360 31 8b 5f 3e 70 31 87 3e d0 84 39 3e 54 1a da be
       0.21830441 0.26404905 0.1811707 -0.42598212
000370 93 59 5d be b8 92 98 be f3 ac 67 be 94 61 3b be
       -0.21616201 -0.29799438 -0.22624569 -0.18298942
000380 69 72 db 3e 66 6c 5e be 88 4a 41 be d8 c8 4d be
       0.42860726 -0.21721038 -0.18876088 -0.20096147
000390 29 a9 86 bd ee e2 2f 3e da 15 bd be 83 68 97 3e
       -0.065752335 0.1717641 -0.36930734 0.29571924
0003a0 9f 18 48 be f0 70 3b bd 30 ff aa bd 2e 35 d2 3c
       -0.19540642 -0.045762002 -0.083494544 0.025660124
0003b0 b8 60 19 bc 6a 3f 05 3e b6 24 75 be 3a c2 eb 3e
       -0.009361438 0.13012472 -0.23939785 0.4604662
0003c0 c8 41 6c 3e f8 01 c5 be fe 46 58 bd ff 00 72 be
       0.23071969 -0.38478065 -0.05280208 -0.23633192
0003d0 fc 47 14 3e 71 72 c9 be 8a be 07 bf 39 1f 11 bf
       0.14480585 -0.39345124 -0.53025115 -0.56688267
0003e0 1c f5 3c 3b 97 fa 23 3e c5 f9 01 3e bf c1 9c bd
       0.002883262 0.16013561 0.12692936 -0.07654142
0003f0 50 7e 85 3e dc cb b0 be 2c 56 50 3e 02 aa 09 bf
       0.2607293 -0.34530532 0.20345372 -0.53775036

net.0.bias f4 [256]
000000 ae d1 7d be 1d 67 87 3c 59 bd b9 be 13 3f d2 be
       -0.24787018 0.01652866 -0.36277273 -0.41063747
000010 1e e7 ce 3e 6d 82 cd be 87 41 b4 be b3 f6 ae be
       0.40410703 -0.4013857 -0.35206243 -0.34172592
000020 5e 74 de 3d 85 0d 3e 3c 4c 6d 41 3e b1 da 65 be
       0.10862039 0.011599903 0.1888935 -0.22446705
000030 22 81 e6 bd 2b 38 6b be 5c 15 cf be 36 1f 61 3e
       -0.11255099 -0.22970645 -0.40445983 0.21984562
000040 79 c0 b6 3e ae df ae 3d eb 64 bf bd a5 48 af 3e
       0.3569372 0.08538757 -0.093454204 0.3423511
000050 34 ee 6c be d5 11 82 be fa 8b 78 3d 9c 81 ab 3e
       -0.23137742 -0.2540423 0.060680367 0.33497322
000060 9e 11 af 3e cb 7a 2f 3e 1f 41 5c 3e a6 4c 6f 3e
       0.34193128 0.17136686 0.21509217 0.23369083
000070 f4 50 8a 3d bd d9 74 bb 33 84 9f 3e 57 08 35 3e
       0.06753722 -0.0037361227 0.31155547 0.17678963
000080 e4 f9 07 3e 89 39 a7 be 75 c7 5c be de b6 95 3b
       0.1327892 -0.32661083 -0.21560462 0.0045689186
000090 a3 78 c8 be fe a7 d3 3e 33 5f 3e 3e 11 36 9a be
       -0.3915454 0.41339105 0.18591003 -0.30119374
0000a0 05 a6 5a be 0b 19 00 be 57 ed 51 3e bc eb 88 be
       -0.21352394 -0.12509553 0.20500694 -0.2674235
0000b0 42 c9 e4 bd ea 23 86 3e 52 77 3a 3e 6d 20 f7 be
       -0.111711994 0.26199275 0.1820958 -0.48266926
0000c0 8b a0 e3 3d f4 d2 7a 3e 62 f2 ae be 6c e0 31 3e
       0.111146055 0.24494535 -0.34169298 0.17370766
0000d0 d1 2e df bd c0 a0 12 be 69 8b 8e be 39 a6 66 3e
       -0.108976014 -0.14319134 -0.27840737 0.22524346
0000e0 c1 21 8a be f1 c3 38 3e 43 82 5c 3d 3e 52 e3 bd
       -0.26978877 0.18043496 0.053835165 -0.11099671
0000f0 05 34 a7 bd 05 ca 3f 3e 58 05 f0 bd 53 a7 f6 3c
       -0.08164219 0.18729408 -0.11719769 0.030109083
000100 e1 bc 91 3e 62 33 07 3e 7d e6 e9 bd a7 3d 65 3e
       0.28464416 0.13203195 -0.11420915 0.223868
000110 30 1f 4e 3e 4a b5 87 3e 82 86 27 3e 36 ad 55 3c
       0.20129085 0.265055 0.16359904 0.013041785
000120 b9 4e 85 3e 8d 94 dc be 3a 47 b9 be 6e 23 b9 3c
       0.26036623 -0.43082085 -0.36187154 0.022599902
000130 bd 74 80 3e 2f f2 c6 be 60 3a 66 3e 1d 4d a0 bd
       0.25089064 -0.38856646 0.22483206 -0.07827208
000140 d6 84 09 be 67 0c c3 bc 42 e9 c6 bd 45 69 9e bc
       -0.13429579 -0.023809625 -0.09712459 -0.019337306
000150 dd ca 69 be a7 50 86 3d 32 af 85 3e 0a 2a b9 3e
       -0.22831292 0.06558352 0.26110226 0.36164886
000160 f2 a0 f1 3b 4e ef 8f 3e 7f ac b8 3c 81 09 09 3e
       0.0073739225 0.28112262 0.02254319 0.13382532
000170 e7 41 66 3e 2e 2d 1e bd f8 e0 3b 3e 0b 7f 91 3e
       0.22486077 -0.038617305 0.18347538 0.2841724
000180 34 fe b5 be 88 3d 79 be fb 74 a2 be 70 34 86 3d
       -0.35545504 -0.24339879 -0.31729874 0.065529704
000190 14 8b 17 be a3 ec 5e be 2c 35 31 3e 33 b7 70 3e
       -0.14799148 -0.21769957 0.1730544 0.23507385
0001a0 d4 cf e7 3d 51 2e 82 be 10 bd ce bb d2 a1 52 3e
       0.11318937 -0.25425962 -0.006309159 0.20569542
0001b0 0f e4 a9 be ef 08 7a 3e 7d 6f 9d bc cb d5 ba 3e
       -0.33181807 0.2441747 -0.0192182 0.36491236
0001c0 b7 9f a1 3e 5b 86 34 be a4 42 33 be 2f d5 a7 be
       0.31567165 -0.17629378 -0.1750589 -0.32779834
0001d0 fa 0a 09 be cf 58 b8 be dd 3a bf 3e c3 a3 a5 be
       -0.13383093 -0.36005256 0.37349597 -0.32351503
0001e0 89 d2 a2 be b0 5a 9d bd 40 62 c4 3c a0 69 1b 3e
       -0.3180125 -0.07683313 0.02397263 0.15177011
0001f0 db 02 ac 3e af f0 6f be 51 9e a5 3e 01 2a 0b bf
       0.3359593 -0.23431657 0.32347348 -0.5436097
000200 7c bc af 3e 33 83 58 be 51 52 0a be 83 e9 ca bc
       0.3432349 -0.21143799 -0.13507964 -0.02476955
000210 96 f3 19 3e 13 af 8a be 71 43 a0 bd e5 6f 2c 3e
       0.15034327 -0.27086696 -0.078253634 0.1683956
000220 9c 5e fe 3c 01 31 34 3d 4f 38 7f bd c4 5a 4d 3e
       0.031050973 0.043992046 -0.06230956 0.20054156
000230 0f d3 ba 3e 46 1c b0 3e 31 aa 18 3e fa ab 68 3c
       0.3648915 0.3439657 0.14908673 0.014201159
000240 98 69 be 3e dc 40 ac 3e fb b4 ae be 96 77 ed bd
       0.37189937 0.33643234 -0.34122452 -0.11595075
000250 82 bb 9d 3e 0e 0c 87 3e b3 55 f3 bd 7f c8 9f be
       0.3080712 0.26376384 -0.1188158 -0.31207654
000260 d3 fb e9 bd 2b fa 91 3e 16 b2 5d 3e a6 35 83 be
       -0.11424985 0.28511176 0.21649966 -0.25626868
000270 85 36 79 be 34 7f ee 3c 58 29 8c be 03 4a 22 3e
       -0.24337204 0.02911339 -0.27375293 0.15848546
000280 b5 05 b7 be 93 28 1b be 7f 8d 07 be fd a6 68 3e
       -0.35746542 -0.15152197 -0.1323757 0.22719951
000290 f3 ea 93 3c 34 5d d0 be 38 47 b8 3e 70 dd af 3e
       0.018056368 -0.40696108 0.35991836 0.3434863
0002a0 e2 bf c7 3e 3e 99 b7 be 1f 73 bf be bd 39 b8 be
       0.39013582 -0.35859102 -0.37392518 -0.3598155
0002b0 2e f0 8c be 2f 4c 9f be d4 8f 4e bd c4 f3 bf 3e
       -0.27526993 -0.3111281 -0.050430134 0.37490666
0002c0 2e cd 4d 3e e2 2c 09 be 24 d6 a1 3e 3e b6 58 3d
       0.20097801 -0.13396028 0.3160869 0.052908175
0002d0 81 73 a8 be d9 16 53 be 74 93 ce be 86 be de bd
       -0.32900622 -0.20614184 -0.40346873 -0.10876183
0002e0 b6 8e e8 be a0 b8 20 3e 48 b7 a9 3e 00 b5 e4 bd
       -0.4542138 0.15695429 0.33147645 -0.111673355
0002f0 0a f2 a8 bd d9 49 a1 be e6 11 92 3e fe 21 e2 bc
       -0.0824929 -0.31501654 0.2852928 -0.0276041
000300 44 50 76 bc c2 e0 c9 3e 3e 2e 53 be 85 63 68 be
       -0.015033785 0.3942929 -0.20623109 -0.22694214
000310 d2 83 14 be c4 e0 89 bc 93 23 c7 bd 54 d9 a0 be
       -0.1450341 -0.01683081 -0.09723582 -0.31415808
000320 6f 55 55 3d ca 3a 2c 3e d6 bb b0 3e fb 28 31 3b
       0.05208343 0.16819301 0.34518307 0.0027032483
000330 9e 7b 52 3e a8 aa b3 bd 52 94 61 3e 81 15 d3 3d
       0.20554969 -0.087727845 0.22029236 0.10306836
000340 69 94 b1 3e db 8f 46 3e fe 68 95 3d 8c 00 e9 3d
       0.3468354 0.19390814 0.07295416 0.113770574
000350 6d 4e b6 3e 67 a1 db be 39 34 64 bd fa 87 1a be
       0.3560671 -0.42896578 -0.055713866 -0.15090933
000360 fb 8f 12 be 1e 07 4d bd f3 44 df be 14 43 af 3e
       -0.14312737 -0.050055616 -0.43607292 0.34230864
000370 d5 d1 aa 3d ac eb a6 be c8 c5 3f 3e 1c ed 34 be
       0.083408035 -0.32601678 0.18727791 -0.17668575
000380 a3 29 91 be 00 41 46 3e c7 41 32 bd a2 a7 66 3e
       -0.2835208 0.19360733 -0.04351976 0.22524884
000390 04 09 54 3e cc 87 47 be d2 f9 c5 bd 14 f6 da 3d
       0.20706564 -0.19485396 -0.0966679 0.10691467
0003a0 de fa be bd 41 d4 f2 bd eb c7 e7 be 90 7c c7 bd
       -0.09325193 -0.118568905 -0.45269713 -0.09740555
0003b0 4e d0 a5 3e 52 22 7f be 26 74 cf 3e 96 e2 be 3e
       0.32385486 -0.24915436 0.40518302 0.37282246
0003c0 e0 f2 9f bd 05 17 41 3e 94 89 ce 3d 44 d3 f2 bd
       -0.078099966 0.18856438 0.10084835 -0.11856702
0003d0 68 9d 8f 3e 97 14 37 be 6d 78 39 be c1 76 71 3e
       0.2804978 -0.17878948 -0.18112345 0.23580457
0003e0 7b 7f 19 be 07 e8 a3 3e c7 b8 cf be bd 74 a6 bc
       -0.14990036 0.3201296 -0.4057066 -0.020319337
0003f0 75 db 7e 3d 0f a5 e0 bc d1 45 2d 3e f5 b4 9b bd
       0.06222101 -0.027422456 0.16921164 -0.07602874

net.2.weight f4 [256, 256]
000000 b6 ec 5e bd 07 1d fc b8 b2 5d 71 bd 7c 76 ff bc
       -0.054424964 -0.00012021703 -0.058927245 -0.031184427
000010 70 a9 02 3d 03 ed 7a bc 72 f8 09 3c 59 e8 f2 bb
       0.03189987 -0.015315297 0.00842105 -0.007412952
000020 41 8e 65 ba 39 d9 8e 3c 16 c5 30 bd 78 0c c5 3c
       -0.0008756854 0.017437564 -0.043156706 0.024053797
000030 7c 00 70 bb 3c 73 57 bd 20 e0 52 3d 28 46 06 3d
       -0.0036621382 -0.05260013 0.051483274 0.03278175
000040 d6 66 45 3d 18 dd 08 bd 70 4a c4 3c a3 ae 24 bd
       0.048193775 -0.033413976 0.023961276 -0.04020561
000050 04 cb 22 bd 30 b5 d0 bc 5f aa c6 3c 71 0c c4 bc
       -0.039744392 -0.025477022 0.024251161 -0.023931714
000060 d6 70 ab bc 3e b7 4c bc 9d 2e 4d bd 45 2c 0e 3d
       -0.020927828 -0.01249486 -0.050093282 0.034710187
000070 45 0f 44 bd e3 74 17 3d 56 0b 06 bd 3a 38 29 bc
       -0.047866125 0.036976706 -0.032725655 -0.010328347
000080 89 5b 37 bd 40 bb 8a ba ec 4e 24 3d 51 6b 64 bd
       -0.04476503 -0.0010584369 0.04011433 -0.055766407
000090 bd ab 51 bd cb 14 43 3d 51 02 4d bd 54 f2 92 3a
       -0.051189173 0.04762725 -0.050051037 0.0011211135
0000a0 f0 0a c3 bc d5 3d d5 3c 56 44 74 3b de 3e f9 3a
       -0.023808926 0.02603046 0.0037272177 0.0019015928
0000b0 71 fa 26 bd 09 ea 3c 3d a5 3e 4c 3d 10 c8 70 3c
       -0.040766183 0.04612163 0.04986443 0.014696136
0000c0 a8 62 f2 bc 38 63 a3 3c cc 08 60 3d 26 4d 08 3d
       -0.029588059 0.019944772 0.05469589 0.0332767
0000d0 29 a8 e7 bc 12 bd 6d 3d 42 69 49 3d ee 1a 82 3c
       -0.028278427 0.05804164 0.049172647 0.015881982
0000e0 17 f8 a5 3b 6f de 1a 3c 80 2b 1b 3b d8 b4 ae 3c
       0.005064975 0.009452446 0.002367705 0.021326467
0000f0 ac aa 72 3d e7 3b 40 3a ae ce 8a 3c 9d 77 48 3d
       0.059244797 0.0007333145 0.016944256 0.048942197
000100 cc be 09 3d 1b 84 46 3c 30 d1 bd bc 7f 59 39 bd
       0.033629224 0.012116457 -0.023171037 -0.045251366
000110 a6 70 0c bd 2b e2 03 bd 97 ce 6d 3c 18 09 79 bc
       -0.034287117 -0.032198112 0.014514587 -0.015199922
000120 75 82 5e bd a6 82 3d 3d 00 a4 8a bb e4 3a 37 3d
       -0.054323632 0.046267174 -0.004230976 0.044733897
000130 ae 30 61 bd 8d d0 02 3a 54 56 94 3c b0 11 31 3d
       -0.054978065 0.0004990183 0.01810757 0.04322976
000140 05 4f 9a 3c 63 b1 79 3c 32 bc 91 bc 2a c3 d1 3c
       0.018836508 0.015240046 -0.017789934 0.025605757
000150 19 78 3c bc 8b 1b a2 bc 25 3f 34 3d 65 0e de 3c
       -0.011503243 -0.019788524 0.04400553 0.027106473
000160 f1 7d 40 bc 71 36 42 bd 6e e9 2c bd f4 50 34 3d
       -0.011748777 -0.0474152 -0.042214803 0.044022515
000170 23 2a f4 bc 0a 75 5d bd 60 ef 86 bd 73 f9 c1 bc
       -0.029805249 -0.054066695 -0.06588626 -0.023678517
000180 4e 20 70 bc 2c 23 50 bd da 8e 2e bd 8b 77 40 bd
       -0.01465614 -0.050814793 -0.042616703 -0.046989005
000190 05 33 8d bd 8a 1f 63 3d 91 e0 63 3d 53 cd 37 bb
       -0.06894497 0.05545 0.055634085 -0.0028045967
0001a0 5b 6a 47 3d 08 af c6 3c c4 4c 79 bc b2 40 07 3d
       0.048685413 0.024253383 -0.015216056 0.033020683
0001b0 bc 9f bd bc e7 f4 82 bd 16 59 bc 3c 02 f3 1c 3d
       -0.023147456 -0.06394368 0.022991698 0.038317688
0001c0 f6 0f 36 bc 88 cb 67 bd fb 31 83 3c cc 52 64 3b
       -0.011112204 -0.056590587 0.016015043 0.003483939
0001d0 b1 23 00 3d 00 c5 66 3b 15 3e 38 3d 84 2f 00 3d
       0.031284038 0.0035212636 0.04498108 0.031295314
0001e0 48 8d 56 bd 50 df 34 bc 89 9a 35 3d a6 f8 2c 3d
       -0.05238083 -0.01103957 0.04433683 0.042229317
0001f0 5c 29 fd 3c 28 68 61 bc 52 87 a6 bc 6c 95 e3 bc
       0.03090351 -0.013757743 -0.020328198 -0.02778121
000200 04 58 64 bb 86 55 44 bc b0 a1 47 bd 60 34 aa bb
       -0.00348425 -0.011983281 -0.04873818 -0.005194232
000210 97 c0 d6 3b 44 b9 2b 3d 60 12 05 bd ea 3d f1 3c
       0.00655372 0.04192473 -0.032488227 0.029448468
000220 b6 8f 3d 3d 20 71 16 bc 06 4e 51 bd d8 d5 40 bd
       0.04627963 -0.009182245 -0.0510998 -0.047078937
000230 6a a0 d5 bc 6d ce 7b bd ff b6 c3 bb 02 06 24 3d
       -0.026077468 -0.06147616 -0.0059727426 0.040044792
000240 a4 c8 03 bd 91 8d 98 bc 94 87 68 3d 28 f3 c2 3c
       -0.032173768 -0.018622192 0.056769922 0.023797587
000250 ba c0 3f 3d 60 79 fd 3c ea d9 c9 bb 2e 9f 2c 3d
       0.046814658 0.030941665 -0.0061600106 0.042143993
000260 12 f2 91 bc c7 b9 40 bd 90 4a 85 bd b4 b5 48 bd
       -0.017815623 -0.04705217 -0.06508362 -0.04900141
000270 68 01 2a bd c8 9b 48 3d 32 fb 21 bd 78 65 87 bd
       -0.041505247 0.04897669 -0.0395462 -0.066111505
000280 88 a8 da 3c 7c 9e a1 bc b3 59 b2 bc 3c 9d 34 bd
       0.02669169 -0.019728892 -0.021771288 -0.044095263
000290 ef ec 87 3c ea a1 8a 3c ae d5 38 bd 42 44 5c 3d
       0.01659247 0.01692291 -0.045125656 0.053776033
0002a0 39 df 38 bd f7 5c 1b 3d 7a a0 70 bd 30 1c 33 3d
       -0.045134757 0.037930455 -0.058746792 0.043728054
0002b0 e5 66 47 bd 24 fe 82 3c 02 f6 20 bd 01 d2 49 bd
       -0.048682112 0.015990324 -0.03929711 -0.04927254
0002c0 5c 10 1e 3d 4e 28 08 3d ae 2e 5d 3d 7c c8 0a 3d
       0.03858982 0.033241563 0.053999595 0.033882603
0002d0 e4 b4 c3 bc a0 df a0 bc 48 3a bb bc 5f 46 78 bd
       -0.023889966 -0.019637883 -0.02285494 -0.060613986
0002e0 f8 17 14 bc 1c 03 ed 3c 87 96 57 3d 38 e4 62 bd
       -0.009038918 0.028932147 0.05263379 -0.055393428
0002f0 ed 1b ae 3c 9e bb 89 bd 50 c9 5b 3c 20 bc 52 3b
       0.02125355 -0.06725238 0.013414696 0.0032155588
000300 60 b5 f7 3c bf 63 eb bb 1c 21 31 3d db 70 08 bd
       0.030237854 -0.0071835215 0.043244466 -0.033310752
000310 36 72 3b 3c 65 21 d3 3c d8 d2 db 3c 64 74 c5 3c
       0.011440804 0.02577276 0.026833937 0.024103351
000320 e7 11 a8 bc f6 ba 51 3d 7f ad 5d bd 91 c8 39 bc
       -0.020516349 0.05120369 -0.054120537 -0.011339323
000330 11 d5 a5 3c 35 60 95 3c 1b c0 db bc c0 f1 48 bc
       0.0202432 0.018234352 -0.026825001 -0.012264669
000340 5c 90 49 3d 03 19 a6 3b 47 16 6b ba ec 48 14 3d
       0.049209937 0.0050688996 -0.0008967858 0.036202356
000350 48 ee 3d bd 7c 34 c3 bc 1c 5e 97 bc c8 de 00 bc
       -0.04636982 -0.023828737 -0.018477492 -0.007865615
000360 ec 36 dd bc a2 eb 22 bd a7 e0 29 3d b1 43 37 bd
       -0.027003728 -0.0397755 0.04147401 -0.04474229
000370 1d b6 4a 3d 23 3f 8d bc 4d 26 7d 3c b6 ac 29 3d
       0.049490083 -0.01724202 0.015451026 0.041424476
000380 88 68 fe 3c 8b 7b 32 3d e3 d9 89 bd 56 b1 73 bd
       0.031055704 0.04357485 -0.06731012 -0.059495293
000390 90 4b 8c bd 1b a7 30 bd 01 39 db 3b b4 b1 7c 3b
       -0.0685035 -0.043128114 0.006690145 0.0038558068
0003a0 9b b4 b3 bc fe 9c 26 bd ad 2a f9 bc 01 96 78 3d
       -0.021936705 -0.040677063 -0.030415857 0.06068993
0003b0 ab f2 6c bd 3c 24 3a 3d ad 5a 60 bd 47 92 38 bd
       -0.057848614 0.045444712 -0.054773975 -0.045061376
0003c0 5a a9 5a bd bc 1c 63 3d c3 63 68 bd 64 ae 32 bd
       -0.053384162 0.055447325 -0.056735765 -0.043623343
0003d0 ee d0 36 bd 5c 41 04 3d 37 8e 25 bd ca 70 4c bd
       -0.044632845 0.032288894 -0.04041883 -0.04991225
0003e0 e2 b8 e0 3c 34 86 99 3c 9c c6 a6 bc 9a e9 1a 3b
       0.027431909 0.01874075 -0.020358376 0.0023637773
0003f0 53 df 19 bc 04 be b1 3c 66 7b 62 bd 74 7e 72 bd
       -0.009391624 0.021697052 -0.055293463 -0.059202626

net.2.bias f4 [256]
000000 51 bb 3a 3c 09 64 9b bd 38 24 ac bd 50 bc 1b 3d
       0.011397199 -0.075874396 -0.08405346 0.038021386
000010 42 cc bb 3c 2d 30 a2 ba e4 6b 01 3d d4 c3 91 bd
       0.022924546 -0.0012373977 0.031597033 -0.071174294
000020 11 dc c8 bc 3c 00 24 3e 9c ee 09 3d 4e 91 75 bd
       -0.024518998 0.16015714 0.03367482 -0.059953026
000030 76 f2 71 3d 43 a5 0b bd c0 84 97 3d b1 cf 5f bd
       0.05906912 -0.034093153 0.07398367 -0.05464143
000040 39 52 e4 3c de 29 4e 3d b7 32 de 3d 1a d0 51 bc
       0.027871238 0.050332896 0.10849517 -0.012805963
000050 c4 33 6a 3d 0e c8 08 3d 35 4a bb 3d 55 98 1f bd
       0.057178274 0.033393912 0.09145013 -0.038963635
000060 e2 0e 36 bd 1e c9 75 bd 96 53 a2 bc d6 05 82 3c
       -0.044447787 -0.060006253 -0.019815248 0.015871923
000070 84 79 25 be 15 96 2f bd 82 e1 02 3d 01 1e 06 3e
       -0.16159636 -0.04286774 0.031953342 0.13097383
000080 f8 4b 5b bc e5 49 0c 3e 7f 0c 0e 3d da a5 14 3d
       -0.013384812 0.13700064 0.034679886 0.03629098
000090 51 1a 9f 3d aa b2 05 be 06 df 82 3d 9a 9a 23 bd
       0.07768691 -0.13056436 0.063901946 -0.03994236
0000a0 1b b9 40 3d 91 1a 14 3d 72 fa 7a bd 6a 01 9d 3d
       0.04705153 0.03615815 -0.061274 0.07666285
0000b0 64 ba d0 bc 23 bb 94 3d ea 6f bb 3c c8 96 0d 3d
       -0.025479503 0.07262256 0.022880513 0.034567624
0000c0 ba 20 13 3e b9 07 78 bd 0e 7f 21 3d 9f 1c 16 3e
       0.14367953 -0.06055424 0.03942781 0.14659356
0000d0 b8 86 5a 3d bc 3a 8d 3c 62 d5 5f 3d c4 cd 99 b9
       0.053351134 0.01723992 0.054646857 -0.0002933574
0000e0 81 f6 30 bd 09 ef 28 bc 40 b1 7f 3d 0c b2 d9 3c
       -0.043203834 -0.010310897 0.0624249 0.026574157
0000f0 b9 e7 cc 3d a7 1c 46 bd e3 b6 7b 3c 51 f8 91 3d
       0.10005135 -0.04836717 0.015363428 0.07127441
000100 83 c3 be 3c d1 70 3f 3d 28 ac 68 3c 5d 24 60 bd
       0.023286587 0.04673845 0.0142012015 -0.05472218
000110 43 fe 93 bd 97 dc b2 3c 33 c1 1a 3d d3 c5 2d 3d
       -0.07226231 0.021833701 0.037781905 0.042424988
000120 6e 86 0f 3d f1 10 d7 bc 43 34 58 bd 44 b2 fe 3c
       0.03504031 -0.026253195 -0.052784216 0.031090863
000130 bc b1 9b bd 28 c4 a1 bd 30 d7 62 bd cb ce 03 bd
       -0.076022595 -0.07898742 -0.055381 -0.032179635
000140 13 5a 2c bc 8f cf 10 3e 48 a2 96 3d da 95 b0 bb
       -0.010519522 0.14141677 0.073551714 -0.0053889574
000150 89 5d 41 bd 4b 99 7b bc 72 22 46 bd 86 8f 35 3d
       -0.047208343 -0.015356372 -0.048372693 0.044326328
000160 96 18 29 3d db 1b 28 3d af 79 7f 3d f0 6c 3d 3e
       0.041283213 0.04104219 0.062371906 0.18498588
000170 41 77 f1 3c 04 92 36 bd 6e 3a 6f bd 29 df 80 bc
       0.02947581 -0.044572845 -0.058405332 -0.015731411
000180 7a df 5a 3d ed 67 be 3d 3d bd 81 3c 67 1e 54 3d
       0.05343578 0.09297166 0.015837306 0.051786806
000190 a2 a4 9f bc 40 45 83 3c b5 44 dd bc 33 36 7c 3c
       -0.019487683 0.016024232 -0.027010301 0.0153937815
0001a0 ef 81 fc 3c 91 be 0b 3e 1e 67 b3 bd 56 80 5d bd
       0.030823676 0.13646914 -0.087599024 -0.05407747
0001b0 b7 26 97 bc 7c ab 1b bd 7d e8 1c 3d ec d5 5b bd
       -0.018451078 -0.038005337 0.038307656 -0.05367081
0001c0 34 ad 97 bd a5 d0 af 3b 5f 1d cd bb c7 38 c1 3b
       -0.07406083 0.0053654485 -0.006259605 0.005896661
0001d0 05 e8 ec 3b 3b 6b e2 bc 94 b7 16 3e 40 73 40 3b
       0.0072298073 -0.027639022 0.14718467 0.002936557
0001e0 a2 3a 5c bd c4 aa c4 3a 48 13 d3 3c 58 82 a8 3d
       -0.053766854 0.0015004505 0.02576603 0.08227986
0001f0 83 f0 cd 3d e9 48 1e 3e 9c a3 8a 3c 4a 22 ae 3d
       0.100556396 0.154575 0.016923718 0.08502634
000200 f0 0e bd 3c d0 9a a0 3c ba 6a 00 3d 26 82 01 3d
       0.023078412 0.01960507 0.031351782 0.03161826
000210 da 2c 05 3d c7 35 80 bd 8f 13 5d bd 8e 40 f9 3d
       0.032513477 -0.06260257 -0.05397373 0.12170516
000220 df 35 df 3d 0e 5a 70 bd 58 00 57 bc fb 58 85 bd
       0.10898947 -0.058679633 -0.013122641 -0.06511112
000230 ab e1 f8 3c 93 83 43 bd fb 72 05 3e f6 4b 78 bd
       0.030381044 -0.0477329 0.13032143 -0.060619317
000240 c9 8e c7 bc 5d 98 1c bd f4 5d 4d bd f9 de 68 bd
       -0.024360077 -0.038231242 -0.05013843 -0.05685327
000250 18 01 e0 bc 0e eb 88 ba eb 49 38 3d 5e 6a 90 bd
       -0.027344272 -0.0010446028 0.04499237 -0.07051538
000260 bc 3c 06 bd 84 60 1c bd 5c 59 b4 3d 53 7f e8 3d
       -0.032772765 -0.038177982 0.088061064 0.1135241
000270 b5 85 85 bd 58 85 df 3c e0 2f b0 bc 94 ed 9d bc
       -0.06519643 0.027285263 -0.021507204 -0.019278325
000280 72 b3 4d 3d 4b d6 3a 3e 11 fa 0b 3e bf 2f 9c 3d
       0.05021996 0.18245809 0.13669612 0.07626294
000290 f5 9e f1 3d f6 a9 71 bd 5c c5 5f 3a 30 d1 15 3c
       0.11797897 -0.058999978 0.0008536184 0.0091441125
0002a0 70 b4 1f bd db a4 97 bb b0 86 ca 3c 25 3d 55 3c
       -0.038990438 -0.0046278066 0.024722427 0.013015066
0002b0 da 5c d7 3d 18 94 3c 3d 08 51 72 3c 0c 9d 2b 3d
       0.10515757 0.04603967 0.014789827 0.04189782
0002c0 17 f5 8b bd 35 02 31 3d 5e fe 68 3c 1b 03 48 3d
       -0.068338566 0.043214995 0.014220802 0.048831087
0002d0 78 78 69 bd dc 69 4e 3c 8f dd b4 3c f1 8b b6 3c
       -0.056999654 0.012598481 0.022078304 0.022283526
0002e0 07 32 86 bb 71 46 d6 3c c6 47 24 3e 36 e7 f0 3b
       -0.004095319 0.026156636 0.16043004 0.0073517812
0002f0 9a 17 24 bd 32 44 68 3c 94 84 f8 3b 35 99 1c bd
       -0.04006157 0.014176415 0.007584164 -0.038232047
000300 cd 63 50 bd 9c c8 1b bd 62 1a 01 3d 3a 40 80 3d
       -0.050876427 -0.038033113 0.0315193 0.0626225
000310 0f 94 2f 3e 9a c9 26 bd 33 14 64 bc 98 84 78 bc
       0.17146324 -0.040719606 -0.0139208315 -0.015168332
000320 ff 86 36 3e cf e7 f1 3d 51 e6 03 3c c8 b8 e5 3c
       0.17824934 0.11811792 0.008050517 0.028042212
000330 9f 5c c4 bc b4 7f b9 bc 7e 73 be bb d5 0d 68 3d
       -0.023969946 -0.022643901 -0.0058121076 0.056653816
000340 e7 19 67 bd f5 fb ba 3d e4 87 9f bd 0d a2 02 be
       -0.056421187 0.09130088 -0.07789591 -0.1275713
000350 83 a1 cc 3d f9 4b 2a 3c 8c 38 92 ba a1 1d 73 bd
       0.099917434 0.01039409 -0.0011155768 -0.05935443
000360 20 7a fa bc d5 25 04 bd 81 6b e6 bc 3f ae 76 bd
       -0.030575812 -0.032262642 -0.028127434 -0.060224768
000370 f4 b5 20 3e 27 de 61 bb eb 4a bc 3d b5 a0 a6 3d
       0.1569441 -0.0034464689 0.09193977 0.08136121
000380 2f 20 2f bd 51 7a 43 bd 3f ae 88 3d 7a 9e 2d 3c
       -0.042755302 -0.047724072 0.0667386 0.010596866
000390 c6 6b 54 bc e8 10 81 bc 7c c6 07 3d 6c 0e 54 bb
       -0.012965148 -0.015755132 0.033148274 -0.003235723
0003a0 18 eb af bd 01 62 65 3c 41 b7 c1 bc ad e4 24 3e
       -0.085897624 0.014000417 -0.023646953 0.16102858
0003b0 94 0c dc 3c 29 7b a3 3d 3c 2c 4b 3d 33 5a a5 bc
       0.026861466 0.07982475 0.049602732 -0.020184612
0003c0 33 5f b3 3d 4b 78 26 3d d7 f5 7b 3d 2b ff 38 3d
       0.08758392 0.040642064 0.061513748 0.045165222
0003d0 0b 8f 87 bd 77 16 98 bc 58 17 18 3e 3b 45 20 3e
       -0.0661908 -0.0185654 0.14852655 0.1565141
0003e0 8d 76 bf 3c ab 37 91 3b 95 a3 39 3c 62 64 14 3d
       0.02337196 0.004431685 0.011330505 0.036228545
0003f0 35 71 04 bd 8e a0 e2 3c 05 fa 3a bd e4 c2 e3 3d
       -0.032334525 0.027664449 -0.045648593 0.11121157

actor.weight f4 [1, 256]
000000 f6 cc 33 3c 13 a9 cb 3b 91 24 70 3d 28 d5 32 bd
       0.010974159 0.0062152236 0.058628622 -0.043660313
000010 8b 7e 02 3f 17 93 53 3c a7 bf 3e 3d fd 94 6f bc
       0.5097434 0.012913487 0.046569493 -0.014622924
000020 49 59 8a 3b 79 93 c6 3d d4 62 bb bc bf 4b 5c bc
       0.0042220694 0.09696097 -0.022874273 -0.013445794
000030 df c7 f3 3e b9 57 8a bb d9 9b a9 3e 1c 7c c6 3c
       0.47613427 -0.004221883 0.33126715 0.024229102
000040 e4 ec ec 3e 60 87 e1 bb 64 50 d5 bd 2b 37 4d 3d
       0.46274483 -0.006882593 -0.10415724 0.05010144
000050 c4 1b 57 3d 86 b2 9d be 00 79 ba 3e e2 8d 0f bd
       0.052516714 -0.30800265 0.3642044 -0.03504742
000060 55 15 b4 be ba 57 6f bb 8e 7b 56 3d eb 18 a1 bc
       -0.35172525 -0.0036520795 0.052363925 -0.019665202
000070 dc 77 af be 4f 50 7b be 85 31 a0 3c a7 0f 8a 3e
       -0.34271133 -0.24542354 0.019554863 0.26965067
000080 b0 06 37 3d c3 26 cb bc ab 89 9c be 9f 10 69 be
       0.044684112 -0.024798756 -0.30573782 -0.22760247
000090 60 58 f2 3e 10 71 69 3e 62 3b 48 be 98 52 03 3c
       0.4733305 0.22797036 -0.19553903 0.008015297
0000a0 65 cf fb 3d 42 8a a3 be c2 81 5a 3d fe 1d f0 3c
       0.12295417 -0.3194142 0.053346403 0.029311176
0000b0 06 84 3a bd ba 81 0a 3f 7c 95 f8 bb 57 14 87 be
       -0.045536064 0.541042 -0.0075861793 -0.26382706
0000c0 21 80 24 3e a8 42 95 3d 45 39 e2 bc 7c fe 38 3e
       0.16064502 0.07288104 -0.027615199 0.18065828
0000d0 03 84 e0 3e ee 18 96 be 4b 2a cb 3e a8 9d 27 bd
       0.43850717 -0.29315895 0.39680704 -0.040921837
0000e0 1e 99 b0 be 5b 73 9e bc 90 36 09 bc 84 b2 f5 bc
       -0.3449182 -0.019342115 -0.008374825 -0.02999235
0000f0 cf b3 01 3e 91 42 c5 3c 58 f3 99 3e 05 41 69 be
       0.12666248 0.024079593 0.3006847 -0.22778709
000100 e5 75 9b bf 42 14 e1 3c 57 cf 73 be ac ad 53 bd
       -1.2145354 0.02747548 -0.23809563 -0.0516793
000110 25 7c 07 3c 79 2e bb be 68 a7 ec 3d e8 de 23 3e
       0.008269344 -0.36558893 0.11555368 0.16003
000120 e3 c6 51 3d 4d 4a e3 bb dd f4 ce 3c bf ab 0a 3d
       0.051215064 -0.0069363476 0.025263244 0.033855196
000130 76 2c e8 3b 30 a4 5d 3c 86 92 9b bd 82 88 5f be
       0.0070853783 0.013527915 -0.075963065 -0.21829417
000140 c9 27 03 3f 52 07 f5 bd 1a ae b0 be ce 12 bd be
       0.5123258 -0.11964287 -0.3450783 -0.3692841
000150 3c 8e 88 3b d3 af 4f bc 24 b7 37 bd 9c 68 28 3d
       0.0041673463 -0.012676197 -0.04485239 0.04111539
000160 6e 55 76 be 57 ae c3 3e a1 22 11 3d 6f 79 2d 3c
       -0.24056026 0.38218948 0.035433415 0.010588034
000170 c4 4e 3b 3d ba 8f cd 3c 06 fc 55 bd cf 21 f4 3e
       0.045729414 0.025092948 -0.0522423 0.47682044
000180 06 1c 77 3d 40 03 5e 3e af e8 6b be 5b 0e 2d bd
       0.06032946 0.21680927 -0.2303798 -0.04225002
000190 9f 98 81 3d 05 45 e5 3b c2 87 0a bc 28 35 bc 3b
       0.06327938 0.006996753 -0.008455219 0.0057436414
0001a0 8d b4 92 3b 95 65 27 be c5 75 8b 3d e3 ef 1a 3e
       0.0044770897 -0.16347344 0.06809572 0.15130572
0001b0 50 ec 75 3d 60 55 e5 3b ed ed e9 3c 7a 00 21 3c
       0.06003982 0.006998703 0.028555835 0.009826774
0001c0 da 5b 9b 3b 97 7a 9c 3b 1d 02 ec ba c5 57 e4 3e
       0.004741174 0.004775356 -0.0018006001 0.44598213
0001d0 06 03 da 3a c6 c1 74 bb 7a 07 90 3d ea 15 58 ba
       0.0016632981 -0.0037346943 0.07032676 -0.00082430115
0001e0 32 d1 37 3d 65 44 1d 3d 45 f9 58 3d bf 53 3e be
       0.04487724 0.038395304 0.052972097 -0.18586634
0001f0 95 35 f0 3c 8d a2 b4 3c 3b 14 59 3d e2 1e c0 bd
       0.029322425 0.022050167 0.05299781 -0.093808904
000200 e3 f5 03 3d e0 da 17 bc e8 9e 03 bc 53 b7 09 bd
       0.032216918 -0.009268492 -0.008033492 -0.033622097
000210 58 97 40 3d 31 ce 97 be 64 13 06 bc 36 2a 04 3e
       0.047019333 -0.296495 -0.008183334 0.12906727
000220 eb 4b 17 be 11 04 0c bd 90 41 29 bd f2 35 3d 3d
       -0.14775054 -0.034183566 -0.04132229 0.046194024
000230 4e fd 9c ba b8 73 bf be db fb 3e 3e 00 bf a9 bc
       -0.0011977346 -0.37392974 0.18650763 -0.020720959
000240 9c 43 ee 3b 6a 91 86 bc 00 79 88 39 bd 16 75 3d
       0.0072712433 -0.01642676 0.00026030093 0.059836138
000250 e1 60 0c bd d1 a0 5c be bc bc bc 3c 4c 07 27 3e
       -0.03427208 -0.21545722 0.023039214 0.16311377
000260 a8 6c 9c bb 71 03 29 bd 98 d4 de 3e 1b 69 2f bc
       -0.004773695 -0.041263048 0.4352157 -0.010706211
000270 20 a8 b9 3c 4d 8b a3 3d bc cb 04 3f a0 59 22 3d
       0.022663176 0.07985554 0.51873374 0.039636254
000280 4d 8d fd 3c 76 7f 54 3d 9e 81 8d bd d4 c9 9d 3e
       0.030951167 0.05187937 -0.06909488 0.30818045
000290 92 9f 52 3e c4 36 d9 3c 6b f7 8d be 18 a2 e9 3e
       0.20568684 0.026515372 -0.27727827 0.4563148
0002a0 31 ca 25 3d d2 6c e4 3e 51 69 b3 3c 4b db b1 3e
       0.040476028 0.44614273 0.021900805 0.3473762
0002b0 2e d0 48 3d 66 bd fc 3e ce 75 4f 3d 94 7a 04 3a
       0.04902666 0.4936325 0.050649457 0.0005053666
0002c0 9f a4 3f bd d7 91 a3 be 41 47 a5 be 65 1f ec 3d
       -0.046787854 -0.31947204 -0.32280925 0.115294255
0002d0 8e 12 44 3d a2 ef 31 3d 44 d4 64 be 1e 25 a2 3d
       0.047869258 0.043441422 -0.22346598 0.07917236
0002e0 ed a5 02 3e f9 c8 48 3c 6d a8 21 3e 56 8e ec 3e
       0.12758608 0.012254947 0.15786906 0.46202344
0002f0 38 a5 14 3c 05 1f f9 3e 99 c0 21 bd 9f 5a 82 be
       0.009072594 0.4865648 -0.039490316 -0.25459763
000300 89 b1 0c bd 92 89 9e be ad 77 a6 bc 01 57 c6 bc
       -0.034349 -0.30964333 -0.020320738 -0.024211409
000310 9f e8 14 3e 70 73 da bc d6 d2 a5 3c 88 9d 10 3c
       0.14541863 -0.026666373 0.020242136 0.008826621
000320 b2 a3 cc 3d 4c ad 0e be 22 62 84 bd 62 83 18 3c
       0.0999216 -0.13933295 -0.0646403 0.009308668
000330 d8 61 54 be 41 2e 48 bb ed 1a bf bd f7 88 5b be
       -0.2074045 -0.0030545148 -0.093313076 -0.21438967
000340 21 6b 38 bd 28 0f 90 3c 9e 6b d8 be 2f 1a d3 3d
       -0.04502404 0.017585352 -0.42269605 0.103077285
000350 d1 d1 d5 3d 84 7b 96 3e 4b a3 8b be ec ba 29 3c
       0.1044041 0.2939111 -0.2727302 0.010359507
000360 98 e2 b9 3b bb 4e 2c 3d 5c 3c 61 3c f4 b8 60 bc
       0.005672764 0.04206727 0.013747301 -0.013715971
000370 6e 0e 82 3c ef d8 27 3e 17 d3 17 3e 63 76 86 bc
       0.015876021 0.16391347 0.14826618 -0.016413873
000380 8b 4c 32 bd 30 ae 45 bc 6f 46 2f 3e 7a 55 1f bd
       -0.04353003 -0.012065455 0.17116712 -0.038899876
000390 f1 bc 96 3c aa 5b a3 be e6 c5 f1 bc f6 e5 3f bd
       0.018400641 -0.31905872 -0.02951331 -0.046850167
0003a0 e0 3e 92 bd 40 d3 ea 3e 2d 57 46 3d 14 93 50 3e
       -0.07140899 0.45864296 0.04842298 0.20368606
0003b0 5a 3d 6b bd ec ce dc 3e 7b c7 9b 3c 1f 68 f1 3e
       -0.057431556 0.4312662 0.019016018 0.4714975
0003c0 56 93 c5 3e d5 7f ca be 2c 2e 4f 3e 7c d6 10 3d
       0.3858897 -0.39550653 0.20232457 0.0353608
0003d0 4d e9 5a 3d bd 69 47 bd 87 0b c1 bb 66 80 e9 bd
       0.05344515 -0.048684824 -0.0058912667 -0.11401443
0003e0 0d 53 39 bd 1a d2 90 be 1a 3c 58 bd c4 8c 1f be
       -0.04524522 -0.28285295 -0.052791692 -0.15581042
0003f0 ce 47 dd bb 57 61 a8 bc 17 fe 49 3e ff 40 d2 3d
       -0.0067529446 -0.020554228 0.19725834 0.10266303

critic.weight f4 [1, 256]
000000 a8 69 01 bd ee 82 8e bd 17 ab 69 be 4f 64 31 3d
       -0.031594902 -0.069585666 -0.22819172 0.043308552
000010 a0 25 a5 3b 56 2a 39 3c 77 2d a8 bc b1 0c 09 3d
       0.0050398856 0.011301598 -0.020529492 0.03345937
000020 42 7a 3f bc 98 e4 8c 3d 42 af 81 bc ee da c5 bc
       -0.011686863 0.06879538 -0.01583064 -0.024152245
000030 90 0b c0 3b 0f 92 88 bc 92 a8 fb ba 99 fc 82 3b
       0.0058607534 -0.016671209 -0.0019200018 0.003997397
000040 45 80 b7 3b 9b 7b 48 bd f9 6f 99 3d ef 22 0f bb
       0.0056000077 -0.048946004 0.0749206 -0.002184089
000050 de 9f de bd 28 69 8e 3c 5c 4d 33 3c 52 aa 0e bd
       -0.10870336 0.017384127 0.010943737 -0.0348304
000060 c2 15 b1 3a 68 c4 2e bc e2 10 28 3d 17 78 e2 bc
       0.0013510513 -0.010666944 0.041031726 -0.027645154
000070 2d 3e ad bd 91 f2 16 3d 94 63 7e bc 81 2e a2 3c
       -0.08459125 0.036852423 -0.015526671 0.019797565
000080 90 c2 2f 3c ca b1 c5 3d d9 79 f6 bb 73 53 0d bc
       0.01072754 0.09653051 -0.0075218496 -0.008625853
000090 74 06 0b 3c e7 37 2a be 2c 7d 32 3d 6a e3 7c 3d
       0.008485425 -0.16622888 0.043576404 0.061740316
0000a0 7c 30 02 3a 46 35 9b bb 80 69 d9 3b e6 1d 59 bc
       0.0004966331 -0.0047365753 0.006634891 -0.013251757
0000b0 6e a7 80 3c 20 da 8b 3a 2a 78 68 3d c8 8f 4c bc
       0.015704837 0.0010669865 0.056755222 -0.012485452
0000c0 d1 f2 fa 3c 12 31 f6 bd fc 39 bd 3c 33 fd 31 3d
       0.030633362 -0.12021078 0.023098938 0.04345436
0000d0 45 b8 e7 3b ee 22 98 bc 23 8c a5 3b 0f ba 4f bc
       0.007071527 -0.018571343 0.005052106 -0.012678637
0000e0 e4 98 31 3b 15 d4 1a 3c 8f 7a 3e 3b 2e ab ab bc
       0.0027099187 0.009449978 0.002906475 -0.020955648
0000f0 c7 0f 1f 3c b2 f9 3c 3d b6 9d 09 3b 7d 9e fe 3c
       0.009708351 0.046136566 0.0020998544 0.031081432
000100 2d e0 2f 3e 56 37 a9 3c cf e1 0f 3c 3f 00 80 3c
       0.1717536 0.020656269 0.008781864 0.015625117
000110 1a 43 04 bd e5 a7 31 3c 79 15 12 3c c3 83 49 3c
       -0.032290556 0.010843252 0.008916252 0.012299481
000120 65 f3 0e 3c b3 4b c5 bc c4 6a 5d 3d fa 92 a8 3c
       0.008725022 -0.024083948 0.054056898 0.020577896
000130 81 9c df bc c1 c0 e3 bd f4 21 cc bc 4d 34 99 3b
       -0.027296307 -0.11120749 -0.024918534 0.004675424
000140 fd c1 03 3c ef 36 5a 3d 9a 9a e0 3d f4 47 3d bc
       0.008041856 0.053275045 0.10966988 -0.0115527995
000150 df 86 5c 3d 19 15 58 bd 3a 70 de bb d6 bd 4e 3d
       0.05383956 -0.052754495 -0.006788281 0.05047401
000160 b0 fa e4 3c cf 84 1f 3c 73 88 e0 3b 9d 5f bf 3d
       0.027951568 0.009736254 0.0068522035 0.09344409
000170 27 c6 2d 3d b9 1c c6 bd f1 d7 a7 bb e6 07 17 3b
       0.0424253 -0.09673447 -0.005122178 0.002304548
000180 a7 41 20 3d da 22 b2 3c 06 63 3a bc 04 88 46 3d
       0.03912511 0.021745134 -0.011376148 0.04846956
000190 a7 9a 5d bc ee f7 ad bc 0c 2a eb bc 8f a1 1b bd
       -0.0135256415 -0.021236386 -0.028706573 -0.03799587
0001a0 64 90 8b 3d ad 57 64 3d d8 a6 f2 bd 9e 66 3c bd
       0.0681465 0.055747677 -0.11848229 -0.0459963
0001b0 43 2f 39 3d 64 04 61 bd a9 3f 30 3d 1e 7a bd b8
       0.045211088 -0.054935828 0.04302946 -9.0349684e-05
0001c0 39 dc a2 bc f6 63 1e bd 30 ae af bc 62 cc 99 3a
       -0.019880401 -0.03866955 -0.021445364 0.0011733884
0001d0 92 5b a6 3c 07 5a 18 bd 4e 0b 9a 3d e8 4f 02 bd
       0.020307336 -0.03719523 0.075216874 -0.031814486
0001e0 c2 ab eb bc c3 54 32 3d 1d e3 96 3d ad 26 f3 3c
       -0.028768424 0.043537866 0.07367537 0.029681528
0001f0 76 63 63 3d 2f 46 5e 3d 8b 6a 6f bc 63 4d 58 3d
       0.055514775 0.05426615 -0.014612804 0.052808177
000200 e3 54 02 3c 36 0c 2b 3d 19 94 8f 3c 13 db 34 3b
       0.007954809 0.041759692 0.017526673 0.0027596399
000210 ee 14 59 3d 78 97 51 bc e3 58 03 3d 75 e0 99 3d
       0.052998476 -0.012792461 0.03206719 0.07513515
000220 f1 9d 18 3d 2f 58 19 be e4 a0 8e bc c8 3b c4 bc
       0.03726 -0.14975046 -0.017410703 -0.023954287
000230 f0 8c 00 bb a9 86 2f 3c 1c e2 7a 3d 73 92 42 3d
       -0.0019615255 0.010713258 0.06125079 0.047502946
000240 5a 3a c3 bc 73 6b c5 3b 56 4e 1a bd 59 c4 57 3d
       -0.023831535 0.006024772 -0.037672363 0.052677486
000250 59 f6 f4 bb 74 d5 56 bb aa da a2 3a b6 99 39 be
       -0.007475656 -0.0032781037 0.0012424786 -0.18125042
000260 a3 dc 90 3b 64 dc c1 3b f3 32 d9 3b 48 ab af 3d
       0.004420833 0.005916165 0.006628388 0.08577591
000270 ec 37 50 3d 67 19 2c 3c 13 f5 e9 3a 31 fc 4a 3d
       0.05083458 0.010504103 0.0017849527 0.049556915
000280 74 b7 c1 bc f5 51 73 3d 17 06 d9 3d 97 b2 d6 3c
       -0.023647048 0.059404332 0.10596865 0.026208205
000290 9a fe 2e 3c 38 1f 44 3d 2e 56 88 bb 12 4f 95 3b
       0.010680819 0.047881335 -0.004160664 0.004556545
0002a0 42 5b 6c be e8 03 07 3b 3f 34 09 bd 4a ba 29 ba
       -0.23081687 0.0020601694 -0.03349709 -0.00064745976
0002b0 c0 68 80 3d ea bf 17 3c 80 24 49 3c 2d 24 54 3c
       0.062699795 0.0092620645 0.012276769 0.012948078
0002c0 ad 3d 01 bc fa 0f 68 bb b7 4e dd 38 20 40 d8 bc
       -0.00788824 -0.0035409913 0.00010552763 -0.026397765
0002d0 08 4d c5 3c 15 98 c9 bb 86 ea c8 bc 0f a1 25 bc
       0.024084583 -0.006152163 -0.024525892 -0.0101092
0002e0 4a 85 8d bd 4e ec 5d 3d c9 43 19 3d f0 39 bb ba
       -0.069101885 0.054180436 0.03741816 -0.0014284234
0002f0 48 2f f2 3c 15 21 2f 3c 9c 30 86 bc fe 29 cf bb
       0.029563561 0.01068904 -0.0163806 -0.0063221445
000300 3a 8f 88 bc c5 47 fd 3a 39 fe 85 bd bb 7b 6a 3d
       -0.016669858 0.0019323757 -0.0654263 0.057246905
000310 50 78 8d 3d 96 31 70 3d dd f4 07 bd 14 33 21 bd
       0.069077134 0.05864104 -0.033192504 -0.039355353
000320 1e 5f a3 3d 26 6e 9e 3d 22 2e 6d 3b 0a aa 6f bc
       0.079771265 0.07735853 0.0036190827 -0.014627943
000330 cb 5a 5a 3e 75 f8 8d bb 67 98 40 be b7 3e f1 3b
       0.21323697 -0.004332597 -0.18808137 0.0073622125
000340 10 4d 5a bd e1 fb a9 3d e5 20 7f 3b 22 89 84 be
       -0.05329615 0.08299995 0.0038929519 -0.25885874
000350 35 1e 36 b9 c2 bb 00 bd 77 fc f2 bb 9e f8 ff ba
       -0.00017368126 -0.03142906 -0.00741535 -0.001952905
000360 5e b8 99 3c ff 29 22 3d 2c 7a 36 bd fe 60 5c bd
       0.018764671 0.03959083 -0.044550106 -0.053803436
000370 b4 bd 4d 3d 06 dc e0 3c 34 94 86 3d 3e d6 55 3d
       0.050229743 0.027448665 0.06571236 0.05220627
000380 cc 7a 8a bc ac a1 49 3d 7d 1c 3c 3d 67 12 cd bb
       -0.016904257 0.049226448 0.045925606 -0.0062582972
000390 d7 e8 14 bc 0c b3 11 bc 83 67 67 bb 6d 87 9e 39
       -0.0090887165 -0.008892786 -0.00353095 0.00030237008
0003a0 25 a3 a4 bc 86 7f 16 3c 07 3b 7a 3c 29 a1 2f 3d
       -0.020097325 0.009185677 0.015272862 0.042878304
0003b0 3a b2 a5 bc 88 4a 0e 3c d4 32 cc bc c1 56 19 3c
       -0.020226587 0.008684762 -0.02492658 0.009359063
0003c0 91 1b a1 3c 19 c5 41 ba 24 2e 2e 3d 30 39 36 bc
       0.019666465 -0.00073917356 0.042524472 -0.011122033
0003d0 12 42 4f bd 9d 17 64 bc 38 f2 fe 3c c6 6f a8 3d
       -0.05060012 -0.0139216455 0.031121358 0.08224444
0003e0 45 42 ef bc de 5f 5a 3b 7c ae 0c bd 88 80 97 bb
       -0.029206404 0.0033321301 -0.03434609 -0.0046234764
0003f0 60 58 24 bc 5a 60 12 3d 2d 1f 66 3c 01 ad 48 3c
       -0.010030836 0.03573642 0.014045519 0.012248279
