models1/ppo_900.pth (torch, 275264 bytes, 6 tensors)

net.0.weight f4 [256, 6]
-0.4079667 -0.421355 0.15390918 0.37678915 -0.08617287 -0.34884888 -0.05348918 -0.023357475
0.43748558 -0.36612526 -0.0907303 0.44861096 -0.14680652 0.41214958 0.015891403 -0.47338662
-0.12439131 -0.13455744 -0.31948814 0.24166457 0.16578478 -0.0370733 -0.0045931037 0.33195078
0.24622728 -0.120343134 -0.5083544 0.23728181 0.22181304 -0.21831968 0.09391315 -0.06951137
0.3607043 0.0016414864 -0.287731 0.21798442 0.0023381552 0.13145226 0.42794204 0.24929771
0.07889434 -0.3546819 -0.3296844 -0.3383786 0.048243806 0.20578142 -0.10677602 0.29111674
-0.20077968 -0.26450944 0.305895 -0.06509728 0.23709074 -0.28422874 0.19917636 0.21392311
0.44482934 -0.5204309 -0.20335524 0.18700774 0.095408514 -0.1813523 -0.13362622 -0.18725389
-0.21591839 -0.15242778 0.039898075 -0.25291723 -0.21307318 0.2729287 -0.10520436 -0.12455343
-0.14471604 0.10878776 -0.13625297 0.22015546 -0.32902136 -0.19571957 -0.03952427 0.105719514
0.19717072 0.2812781 -0.13440943 -0.3979745 0.3244565 0.14486372 -0.26416618 -0.013033862
-0.33119613 0.32455066 0.17522714 -0.24041021 -0.096510306 -0.39537516 -0.3391793 0.073812865
0.14948508 0.22659782 0.3781845 -0.12843461 -0.030583942 -0.3429339 -0.44417712 -0.20120837
-0.044829965 -0.30539155 0.03310604 0.08089619 -0.40001035 0.27904618 -0.47709394 -0.35277617
-0.10132178 0.20213932 0.1607387 0.22002628 -0.17690273 0.39365214 -0.120279536 -0.23532347
-0.11952737 0.10963577 -0.05456298 0.29135156 0.21208882 0.3321257 0.35025585 0.22495618
-0.02106835 0.053154666 0.098138824 -0.35616332 -0.31858984 0.07462286 0.3301433 -0.46379808
-0.09821461 0.42385846 0.17721862 -0.1077966 -0.1235796 -0.04345997 0.15961763 0.037269365
-0.07976583 0.27254483 -0.012963268 0.0097842645 0.27695036 -0.42441565 -0.22829314 0.31978488
-0.4014146 0.59660274 0.055629622 -0.23155718 0.19771896 0.0862696 -0.22947659 0.14923188
0.08803733 -0.20524436 0.10003655 -0.08578304 0.5785407 -0.5238981 0.039023776 -0.3250715
0.31235015 -0.39548182 0.17674042 0.3305671 -0.093410835 -0.16372797 -0.18080331 0.14110868
0.205847 -0.28518745 -0.2843294 0.06314771 -0.15919386 -0.28173292 -0.37614334 0.35147297
0.3725488 0.26054034 0.04441786 -0.17026171 -0.5155198 0.2492066 0.08994114 -0.14782794
-0.19050393 -0.05533102 -0.18767753 0.35382485 -0.13944082 0.06862231 -0.0729451 0.2565969
-0.08795201 -0.02170314 0.1572413 0.1048139 -0.38812357 0.17465518 -0.23624374 0.36986086
-0.29227185 0.07446511 -0.30927986 0.091154315 0.32332468 0.2189097 -0.04781076 -0.08507097
0.22974952 0.27627012 0.20950711 -0.369358 -0.20339201 -0.2887779 -0.222601 -0.18450043
0.42496482 -0.21602352 -0.1868092 -0.19676206 -0.06970573 0.16849717 -0.36860204 0.29374662
-0.19969954 -0.040352922 -0.08750237 0.029521307 -0.0064582196 0.12680289 -0.24151376 0.44674897
0.23071969 -0.38478065 -0.05280208 -0.23633192 0.14480585 -0.39345124 -0.55248576 -0.5690843
0.007239316 0.16379604 0.1088701 -0.07187018 0.26410052 -0.35100716 0.19927076 -0.5316215
00000000: 03e1 d0be d8bb d7be 5e9a 1d3e 82ea c03e
00000010: 677b b0bd 529c b2be 7817 5bbd 2d58 bfbc
00000020: 1cfe df3e c574 bbbe cfd0 b9bd 56b0 e53e
00000030: 7354 16be 4505 d33e b02e 823c bb5f f2be
00000040: dfc0 febd 6dc9 09be f393 a3be eb76 773e
00000050: 7cc3 293e 2cda 17bd bf81 96bb 74f5 a93e
00000060: 0123 7c3e 7676 f6bd 8423 02bf 01fa 723e
00000070: f522 633e 328f 5fbe 8a55 c03d fa5b 8ebd
00000080: 3cae b83e 2527 d73a 7a51 93be 4f37 5f3e
00000090: bc3b 193b 6c9b 063e 381b db3e e647 7f3e
000000a0: 5b93 a13d de98 b5be 65cc a8be f63f adbe
000000b0: 4c9b 453d 5db8 523e 63ad dabd 410d 953e
000000c0: 3099 4dbe c86d 87be 459e 9c3e b951 85bd
000000d0: eac7 723e 6e86 91be e3f4 4b3e a90e 5b3e
000000e0: acc0 e33e f63a 05bf 5b3c 50be f57e 3f3e
000000f0: 8a65 c33d 6bb4 39be 50d5 08be 7cbf 3fbe
00000100: b619 5dbe 0716 1cbe 2a6c 233d 5e7e 81be
00000110: db2f 5abe 50bd 8b3e 6275 d7bd de15 ffbd
00000120: 7130 14be 1ecc de3d e685 0bbe 6f70 613e
00000130: 7d75 a8be b66a 48be 33e4 21bd 7983 d83d
00000140: 1fe7 493e af03 903e a0a2 09be 50c3 cbbe
00000150: 2a1f a63e 2857 143e ca40 87be fb8b 55bc
00000160: 8a92 a9be 812b a63e be6e 333e 182e 76be
00000170: 32a7 c5bd 9d6e cabe e9a8 adbe 332b 973d
00000180: 9e12 193e 4209 683e 66a1 c13e 5d84 03be
00000190: 2d8b fabc 0895 afbe 2f6b e3be 9109 4ebe
000001a0: a09f 37bd 485c 9cbe 339a 073d e7ac a53d
000001b0: 28ce ccbe 24df 8e3e a845 f4be 149f b4be
000001c0: cb81 cfbd 9cfd 4e3e b098 243e 924e 613e
000001d0: fd25 35be c68c c93e 1e55 f6bd a3f8 70be
000001e0: c4ca f4bd b888 e03d 6e7d 5fbd 082c 953e
000001f0: d02d 593e 610c aa3e bc54 b33e ea5a 663e
00000200: 8897 acbc b5b8 593d 02fd c83d 0a5b b6be
00000210: 351e a3be dfd3 983d 8b08 a93e f176 edbe
00000220: be24 c9bd fa03 d93e cc78 353e 77c4 dcbd
00000230: 4d17 fdbd 1503 32bd ce72 233e c3a7 183d
00000240: 445c a3bd ff8a 8b3e e363 54bc 2e4e 203c
00000250: 70cc 8d3e 024d d9be adc5 69be d8ba a33e
00000260: 3786 cdbe f5ba 183f e3db 633d 531d 6dbe
00000270: d776 4a3e 1eae b03d e9fb 6abe 3ed0 183e
00000280: ea4c b43d 942b 52be f6df cc3d 05af afbd
00000290: 3e1b 143f 301e 06bf 65d7 1f3d c66f a6be
000002a0: 5cec 9f3e 987c cabe 71fb 343e 1740 a93e
000002b0: 2e4e bfbd 4ea8 27be 8124 39be cb7e 103e
000002c0: 8ec9 523e 1704 92be a093 91be 9653 813d
000002d0: b703 23be 4c3f 90be dc95 c0be 44f4 b33e
000002e0: b7be be3e 8b65 853e 81ef 353d 1659 2ebe
000002f0: 1bf9 03bf 0430 7f3e 0f33 b83d 3560 17be
00000300: 7613 43be c8a2 62bd 8a2e 40be 8828 b53e
00000310: 93c9 0ebe db89 8c3d 3e64 95bd ab60 833e
00000320: 2f20 b4bd c9ca b1bc dd03 213e aca8 d63d
00000330: 22b8 c6be cfd8 323e e1e9 71be 675e bd3e
00000340: a8a4 95be 2a81 983d ee59 9ebe 1daf ba3d
00000350: d08a a53e dd29 603e 37d5 43bd b039 aebd
00000360: 7543 6b3e 4773 8d3e 0889 563e 7e1c bdbe
00000370: ff45 50be b2da 93be 84f1 63be aeed 3cbe
00000380: fd94 d93e 4535 5dbe e94a 3fbe fe7b 49be
00000390: e1c1 8ebd 868a 2c3e 68b9 bcbe f565 963e
000003a0: 097e 4cbe 1b49 25bd 7134 b3bd abd6 f13c
000003b0: 799f d3bb 9ed8 013e 624f 77be 48bc e43e
000003c0: c841 6c3e f801 c5be fe46 58bd ff00 72be
000003d0: fc47 143e 7172 c9be b56f 0dbf 82af 11bf
000003e0: c937 ed3b 26ba 273e 49f7 de3d ac30 93bd
000003f0: 2f38 873e 36b7 b3be a20d 4c3e 5918 08bf

net.0.bias f4 [256]
-0.27227673 0.013727016 -0.36718476 -0.4095478 0.38826552 -0.40064192 -0.3449624 -0.32266092
0.098022565 0.016351895 0.18046786 -0.22446705 -0.07678859 -0.18315932 -0.40609935 0.25461867
0.35215324 0.051999185 -0.09575715 0.34068295 -0.29502434 -0.26928702 0.06876593 0.3397474
0.3557542 0.16736567 0.21899109 0.2325249 0.062418643 0.0008580289 0.30305737 0.21581334
0.13793102 -0.32661083 -0.20389165 0.013832283 -0.38512048 0.40834686 0.1851446 -0.31338903
-0.21352394 -0.11342907 0.20226395 -0.26671743 -0.10180912 0.26215106 0.1989464 -0.48264897
0.14218569 0.24252126 -0.34169298 0.21518992 -0.10353185 -0.05555472 -0.27840737 0.2039915
-0.2546005 0.1826452 0.048978917 -0.07362215 -0.08164219 0.18483566 -0.078012295 0.07416917
0.18078603 0.13287228 -0.14391959 0.21739992 0.19682305 0.26340562 0.12167934 -0.14323872
0.25399435 -0.4228267 -0.36187154 0.017680587 0.24773195 -0.38988715 0.22362164 -0.029956652
-0.11714051 -0.03481354 -0.0504467 -0.00041414928 -0.19568704 0.06538869 0.2651128 0.3563163
0.0075112856 0.28105077 -0.016800815 0.13559383 0.22996697 -0.010953661 0.18789466 0.2746634
-0.37217224 -0.23278278 -0.31729874 0.062246293 -0.14220287 -0.21769957 0.163272 0.23668835
0.1340521 -0.25425962 0.047585327 0.16220891 -0.36805093 0.25892928 0.018824749 0.3621302
0.31841832 -0.17629266 -0.18832812 -0.3347336 -0.122626476 -0.3684088 0.3720739 -0.35345775
-0.3180125 -0.08180888 0.057225958 0.15122554 0.33236575 -0.23431657 0.3230604 -0.5010727
0.3443622 -0.2178529 -0.088230945 0.054806177 0.24915487 -0.2766264 -0.08794386 0.1617754
0.027981063 0.05591958 -0.035008054 0.19455706 0.35191014 0.334356 0.15163462 -0.020431623
0.37108317 0.30625486 -0.34122452 -0.09344046 0.2998277 0.22045569 -0.08349172 -0.31207654
-0.08629464 0.28203642 0.21442895 -0.25626868 -0.25850192 0.028368399 -0.27375293 0.13582258
-0.35746542 -0.12422984 -0.1323757 0.2020299 0.023335773 -0.4015584 0.3492986 0.338194
0.3874262 -0.33565065 -0.3551205 -0.3598155 -0.23621221 -0.3111281 -0.012501519 0.37045756
0.2005373 -0.1492094 0.31359157 0.037807375 -0.32900622 -0.20614184 -0.40346873 -0.112935714
-0.44316956 0.13802016 0.3289115 -0.10024649 -0.04832013 -0.31501654 0.33815208 0.0051034666
0.015312777 0.3914212 -0.20623109 -0.22514549 -0.1450341 -0.011215275 -0.09723582 -0.31415808
0.049856856 0.1702207 0.33542556 -0.010338078 0.20531778 -0.11730911 0.21841483 0.08551266
0.34102002 0.19070785 0.045492895 0.10956839 0.3576334 -0.39029038 -0.07061427 -0.15090933
-0.16815999 -0.18924427 -0.43607292 0.33404922 0.08775535 -0.3358958 0.2021349 -0.15765892
-0.24734947 0.19543098 -0.021404866 0.21826756 0.20378329 -0.20589554 -0.093896925 0.098974936
-0.08857523 -0.05848536 -0.43209073 -0.0038577148 0.31833676 -0.24915436 0.39796627 0.3660763
-0.06875671 0.15406635 0.10410116 -0.11551767 0.29148424 -0.17878948 -0.17949915 0.2381793
-0.1858935 0.31684208 -0.4057066 -0.041573144 0.06424065 -0.026503032 0.20637487 -0.0700199
00000000: db67 8bbe 47e7 603c a4ff bbbe 40b0 d1be
00000010: bdca c63e f020 cdbe e99e b0be d033 a5be
00000020: 0ec0 c83d 69f4 853c 91cc 383e b1da 65be
00000030: 5643 9dbd 1e8e 3bbe 41ec cfbe 615d 823e
00000040: 6e4d b43e 19fd 543d 531c c4bd ff6d ae3e
00000050: 6e0d 97be fddf 89be 27d5 8c3d 5ff3 ad3e
00000060: 6a25 b63e e861 2b3e 333f 603e 021b 6e3e
00000070: b1aa 7f3d 58ed 603a 562a 9b3e 2cfe 5c3e
00000080: ca3d 0d3e 8939 a7be f9c8 50be cda0 623c
00000090: 832e c5be d712 d13e 8c96 3d3e 8774 a0be
000000a0: 05a6 5abe 804d e8bd 481e 4f3e 308f 88be
000000b0: 4d81 d0bd aa38 863e 9bb8 4b3e c41d f7be
000000c0: 2099 113e 7e57 783e 62f2 aebe bf5a 5c3e
000000d0: 8208 d4bd 598d 63bd 698b 8ebe 26e3 503e
000000e0: ff5a 82be 5807 3b3e 1e9e 483d 36c7 96bd
000000f0: 0534 a7bd 8f45 3d3e e9c4 9fbd 01e6 973d
00000100: f91f 393e ac0f 083e a85f 13be 169e 5e3e
00000110: fb8b 493e 1add 863e 0533 f93d 2cad 12be
00000120: 8c0b 823e be7c d8be 3a47 b9be e1d6 903c
00000130: 72ad 7d3e 4a9f c7be 12fd 643e a767 f5bc
00000140: 5de7 efbd a498 0ebd 33a1 4ebd 2d22 d9b9
00000150: 2f62 48be 81ea 853d ddbc 873e 176f b63e
00000160: 3b21 f63b e3e5 8f3e dda1 89bc 1cd9 0a3e
00000170: 767c 6b3e fc76 33bc 7567 403e aea0 8c3e
00000180: 5c8d bebe 9c5e 6ebe fb74 a2be f8f5 7e3d
00000190: a19d 11be a3ec 5ebe c630 273e 6e5e 723e
000001a0: f444 093e 512e 82be d5e8 423d 181a 263e
000001b0: 2c71 bcbe 6192 843e 5c36 9a3c 2169 b93e
000001c0: ba07 a33e 1086 34be 16d9 40be 3462 abbe
000001d0: 9723 fbbd 14a0 bcbe 7880 be3e 6af8 b4be
000001e0: 89d2 a2be 6a8b a7bd c465 6a3d deda 1a3e
000001f0: d82b aa3e aff0 6fbe 2c68 a53e 4d46 00bf
00000200: 3e50 b03e d514 5fbe 6db2 b4bd 717c 603d
00000210: 7422 7f3e faa1 8dbe e91b b4bd 73a8 253e
00000220: 8b38 e53c ee0b 653d 9b64 0fbd f739 473e
00000230: 912d b43e b630 ab3e 1b46 1b3e 3860 a7bc
00000240: 9dfe bd3e 70cd 9c3e fbb4 aebe b65d bfbd
00000250: 0483 993e 23bf 613e b5fd aabd 7fc8 9fbe
00000260: 3fbb b0bd 1467 903e 4393 5b3e a635 83be
00000270: 5d5a 84be d864 e83c 5829 8cbe 1315 0b3e
00000280: b505 b7be 376c febd 7f8d 07be ede0 4e3e
00000290: aa2a bf3c 1099 cdbe 44d7 b23e c427 ad3e
000002a0: ba5c c63e 67da abbe 5bd2 b5be bd39 b8be
000002b0: 9de1 71be 2f4c 9fbe 2cd3 4cbc 9dac bd3e
000002c0: a659 4d3e 59ca 18be 138f a03e e8db 1a3d
000002d0: 8173 a8be d916 53be 7493 cebe d74a e7bd
000002e0: 1fe7 e2be 2855 0d3e 1767 a83e 084e cdbd
000002f0: 54eb 45bd d949 a1be 4522 ad3e fb3a a73b
00000300: 71e2 7a3c 5c68 c83e 3e2e 53be 8a8c 66be
00000310: d283 14be 46c0 37bc 9323 c7bd 54d9 a0be
00000320: b436 4c3d 564e 2e3e e6bc ab3e 0b61 29bc
00000330: d33e 523e c23f f0bd 23a8 5f3e 4321 af3d
00000340: 2d9a ae3e eb48 433e c256 3a3d 6465 e03d
00000350: ba1b b73e 24d4 c7be 379e 90bd fa87 1abe
00000360: 2232 2cbe 40c9 41be f344 dfbe 8008 ab3e
00000370: 14b9 b33d 89fa abbe 74fc 4e3e 5771 21be
00000380: 2e49 7dbe 0f1f 483e 4259 afbc 8881 5f3e
00000390: 91ac 503e 48d6 52be 084d c0bd 5fb3 ca3d
000003a0: ee66 b5bd 588e 6fbd ff3a ddbe b7d1 7cbb
000003b0: 09fd a23e 5222 7fbe 3cc2 cb3e 5a6e bb3e
000003c0: 51d0 8cbd 92c3 1d3e fd32 d53d 8794 ecbd
000003d0: 6c3d 953e 9714 37be a0ce 37be 46e5 733e
000003e0: de5a 3ebe 2039 a23e c7b8 cfbe 9a48 2abd
000003f0: 9a90 833d e31c d9bc ef53 533e 9866 8fbd

net.2.weight f4 [256, 256]
-0.054424964 -0.00012021703 -0.058927245 -0.031184427 0.03189987 -0.015315297 0.00842105 -0.007412952
-0.0008756854 0.017437564 -0.043156706 0.024053797 -0.0036621382 -0.05260013 0.051483274 0.03278175
0.048193775 -0.033413976 0.023961276 -0.04020561 -0.039744392 -0.025477022 0.024251161 -0.023931714
-0.020927828 -0.01249486 -0.050093282 0.034710187 -0.047866125 0.036976706 -0.032725655 -0.010328347
-0.04476503 -0.0010584369 0.04011433 -0.055766407 -0.051189173 0.04762725 -0.050051037 0.0011211135
-0.023808926 0.02603046 0.0037272177 0.0019015928 -0.040766183 0.04612163 0.04986443 0.014696136
-0.029588059 0.019944772 0.05469589 0.0332767 -0.028278427 0.05804164 0.049172647 0.015881982
0.005064975 0.009452446 0.002367705 0.021326467 0.059244797 0.0007333145 0.016944256 0.048942197
0.033629224 0.012116457 -0.023171037 -0.045251366 -0.034287117 -0.032198112 0.014514587 -0.015199922
-0.054323632 0.046267174 -0.004230976 0.044733897 -0.054978065 0.0004990183 0.01810757 0.04322976
0.018836508 0.015240046 -0.017789934 0.025605757 -0.011503243 -0.019788524 0.04400553 0.027106473
-0.011748777 -0.0474152 -0.042214803 0.044022515 -0.029805249 -0.054066695 -0.06588626 -0.023678517
-0.01465614 -0.050814793 -0.042616703 -0.046989005 -0.06894497 0.05545 0.055634085 -0.0028045967
0.048685413 0.024253383 -0.015216056 0.033020683 -0.023147456 -0.06394368 0.022991698 0.038317688
-0.011112204 -0.056590587 0.016015043 0.003483939 0.031284038 0.0035212636 0.04498108 0.031295314
-0.05238083 -0.01103957 0.04433683 0.042229317 0.03090351 -0.013757743 -0.020328198 -0.02778121
-0.00348425 -0.011983281 -0.04873818 -0.005194232 0.00655372 0.04192473 -0.032488227 0.029448468
0.04627963 -0.009182245 -0.0510998 -0.047078937 -0.026077468 -0.06147616 -0.0059727426 0.040044792
-0.032173768 -0.018622192 0.056769922 0.023797587 0.046814658 0.030941665 -0.0061600106 0.042143993
-0.017815623 -0.04705217 -0.06508362 -0.04900141 -0.041505247 0.04897669 -0.0395462 -0.066111505
0.02669169 -0.019728892 -0.021771288 -0.044095263 0.01659247 0.01692291 -0.045125656 0.053776033
-0.045134757 0.037930455 -0.058746792 0.043728054 -0.048682112 0.015990324 -0.03929711 -0.04927254
0.03858982 0.033241563 0.053999595 0.033882603 -0.023889966 -0.019637883 -0.02285494 -0.060613986
-0.009038918 0.028932147 0.05263379 -0.055393428 0.02125355 -0.06725238 0.013414696 0.0032155588
0.030237854 -0.0071835215 0.043244466 -0.033310752 0.011440804 0.02577276 0.026833937 0.024103351
-0.020516349 0.05120369 -0.054120537 -0.011339323 0.0202432 0.018234352 -0.026825001 -0.012264669
0.049209937 0.0050688996 -0.0008967858 0.036202356 -0.04636982 -0.023828737 -0.018477492 -0.007865615
-0.027003728 -0.0397755 0.04147401 -0.04474229 0.049490083 -0.01724202 0.015451026 0.041424476
0.031055704 0.04357485 -0.06731012 -0.059495293 -0.0685035 -0.043128114 0.006690145 0.0038558068
-0.021936705 -0.040677063 -0.030415857 0.06068993 -0.057848614 0.045444712 -0.054773975 -0.045061376
-0.053384162 0.055447325 -0.056735765 -0.043623343 -0.044632845 0.032288894 -0.04041883 -0.04991225
0.027431909 0.01874075 -0.020358376 0.0023637773 -0.009391624 0.021697052 -0.055293463 -0.059202626
00000000: b6ec 5ebd 071d fcb8 b25d 71bd 7c76 ffbc
00000010: 70a9 023d 03ed 7abc 72f8 093c 59e8 f2bb
00000020: 418e 65ba 39d9 8e3c 16c5 30bd 780c c53c
00000030: 7c00 70bb 3c73 57bd 20e0 523d 2846 063d
00000040: d666 453d 18dd 08bd 704a c43c a3ae 24bd
00000050: 04cb 22bd 30b5 d0bc 5faa c63c 710c c4bc
00000060: d670 abbc 3eb7 4cbc 9d2e 4dbd 452c 0e3d
00000070: 450f 44bd e374 173d 560b 06bd 3a38 29bc
00000080: 895b 37bd 40bb 8aba ec4e 243d 516b 64bd
00000090: bdab 51bd cb14 433d 5102 4dbd 54f2 923a
000000a0: f00a c3bc d53d d53c 5644 743b de3e f93a
000000b0: 71fa 26bd 09ea 3c3d a53e 4c3d 10c8 703c
000000c0: a862 f2bc 3863 a33c cc08 603d 264d 083d
000000d0: 29a8 e7bc 12bd 6d3d 4269 493d ee1a 823c
000000e0: 17f8 a53b 6fde 1a3c 802b 1b3b d8b4 ae3c
000000f0: acaa 723d e73b 403a aece 8a3c 9d77 483d
00000100: ccbe 093d 1b84 463c 30d1 bdbc 7f59 39bd
00000110: a670 0cbd 2be2 03bd 97ce 6d3c 1809 79bc
00000120: 7582 5ebd a682 3d3d 00a4 8abb e43a 373d
00000130: ae30 61bd 8dd0 023a 5456 943c b011 313d
00000140: 054f 9a3c 63b1 793c 32bc 91bc 2ac3 d13c
00000150: 1978 3cbc 8b1b a2bc 253f 343d 650e de3c
00000160: f17d 40bc 7136 42bd 6ee9 2cbd f450 343d
00000170: 232a f4bc 0a75 5dbd 60ef 86bd 73f9 c1bc
00000180: 4e20 70bc 2c23 50bd da8e 2ebd 8b77 40bd
00000190: 0533 8dbd 8a1f 633d 91e0 633d 53cd 37bb
000001a0: 5b6a 473d 08af c63c c44c 79bc b240 073d
000001b0: bc9f bdbc e7f4 82bd 1659 bc3c 02f3 1c3d
000001c0: f60f 36bc 88cb 67bd fb31 833c cc52 643b
000001d0: b123 003d 00c5 663b 153e 383d 842f 003d
000001e0: 488d 56bd 50df 34bc 899a 353d a6f8 2c3d
000001f0: 5c29 fd3c 2868 61bc 5287 a6bc 6c95 e3bc
00000200: 0458 64bb 8655 44bc b0a1 47bd 6034 aabb
00000210: 97c0 d63b 44b9 2b3d 6012 05bd ea3d f13c
00000220: b68f 3d3d 2071 16bc 064e 51bd d8d5 40bd
00000230: 6aa0 d5bc 6dce 7bbd ffb6 c3bb 0206 243d
00000240: a4c8 03bd 918d 98bc 9487 683d 28f3 c23c
00000250: bac0 3f3d 6079 fd3c ead9 c9bb 2e9f 2c3d
00000260: 12f2 91bc c7b9 40bd 904a 85bd b4b5 48bd
00000270: 6801 2abd c89b 483d 32fb 21bd 7865 87bd
00000280: 88a8 da3c 7c9e a1bc b359 b2bc 3c9d 34bd
00000290: efec 873c eaa1 8a3c aed5 38bd 4244 5c3d
000002a0: 39df 38bd f75c 1b3d 7aa0 70bd 301c 333d
000002b0: e566 47bd 24fe 823c 02f6 20bd 01d2 49bd
000002c0: 5c10 1e3d 4e28 083d ae2e 5d3d 7cc8 0a3d
000002d0: e4b4 c3bc a0df a0bc 483a bbbc 5f46 78bd
000002e0: f817 14bc 1c03 ed3c 8796 573d 38e4 62bd
000002f0: ed1b ae3c 9ebb 89bd 50c9 5b3c 20bc 523b
00000300: 60b5 f73c bf63 ebbb 1c21 313d db70 08bd
00000310: 3672 3b3c 6521 d33c d8d2 db3c 6474 c53c
00000320: e711 a8bc f6ba 513d 7fad 5dbd 91c8 39bc
00000330: 11d5 a53c 3560 953c 1bc0 dbbc c0f1 48bc
00000340: 5c90 493d 0319 a63b 4716 6bba ec48 143d
00000350: 48ee 3dbd 7c34 c3bc 1c5e 97bc c8de 00bc
00000360: ec36 ddbc a2eb 22bd a7e0 293d b143 37bd
00000370: 1db6 4a3d 233f 8dbc 4d26 7d3c b6ac 293d
00000380: 8868 fe3c 8b7b 323d e3d9 89bd 56b1 73bd
00000390: 904b 8cbd 1ba7 30bd 0139 db3b b4b1 7c3b
000003a0: 9bb4 b3bc fe9c 26bd ad2a f9bc 0196 783d
000003b0: abf2 6cbd 3c24 3a3d ad5a 60bd 4792 38bd
000003c0: 5aa9 5abd bc1c 633d c363 68bd 64ae 32bd
000003d0: eed0 36bd 5c41 043d 378e 25bd ca70 4cbd
000003e0: e2b8 e03c 3486 993c 9cc6 a6bc 9ae9 1a3b
000003f0: 53df 19bc 04be b13c 667b 62bd 747e 72bd

net.2.bias f4 [256]
0.011397199 -0.11688998 -0.08405296 0.038021386 0.0193165 -0.0012373977 0.031597033 -0.071174294
-0.024518998 0.14382127 0.03367482 -0.059953026 0.07162275 -0.034093153 0.08064849 -0.05464143
0.01732065 0.050332896 0.093404636 -0.012805963 -0.0010568654 0.039082184 0.082072675 -0.02945859
-0.038583346 -0.060006253 -0.019815248 0.025343224 -0.14726731 -0.0036426764 0.031953342 0.12253396
-0.013384812 0.11919903 0.040189534 0.03574138 0.079059556 -0.10248344 0.055583805 -0.03994236
0.051482297 0.036444426 -0.061274 0.10860134 -0.025479503 0.08256656 0.022880513 0.04804622
0.1354517 -0.05636606 0.03942781 0.13452731 0.072988346 0.01490141 0.032874294 -0.0002933574
-0.042967614 -0.0012001735 0.0661881 0.026574157 0.10457143 -0.04836717 0.019187659 0.0690657
0.01977642 0.08345888 0.032546375 -0.05472218 -0.07226231 0.022055594 0.06476908 0.042298928
0.03504031 -0.026253195 -0.052784216 0.031090863 -0.076022595 -0.07898742 -0.055381 -0.016030923
-0.007425888 0.12995236 0.06630309 -0.0030881672 -0.047208343 -0.015356372 -0.03964127 0.044326328
0.04122305 0.03170402 0.061183017 0.16714804 0.02947581 -0.059163958 -0.058405332 -0.016635947
0.042568907 0.08517817 0.019023666 0.051786806 -0.019487683 0.02554254 -0.027010301 0.0153937815
0.035169408 0.12530528 -0.087599024 -0.05407747 -0.018451078 -0.038005337 0.038307656 -0.05367081
-0.07406083 0.0053654485 -0.006259605 0.011834243 0.0072298073 -0.027639022 0.13031061 0.002936557
-0.053766854 0.0015004505 0.00073276117 0.08004326 0.09219367 0.14417286 0.016923718 0.07295574
0.023078412 0.01960507 0.031351782 0.03161826 0.032513477 -0.05595957 -0.05397373 0.10451376
0.10150531 -0.031579375 -0.013122641 -0.06511112 0.030381044 -0.04761737 0.114539675 -0.060619317
-0.024360077 -0.038231242 -0.05013843 -0.05685327 -0.027344272 0.0046711517 0.04499237 -0.0750534
-0.032772765 -0.038177982 0.07993175 0.09639338 -0.06519643 0.030150851 -0.0073521417 -0.019278325
0.05021996 0.16746837 0.11869754 0.066685855 0.11378854 -0.058999978 0.00447978 0.015837189
-0.012771793 -0.012669333 0.03168645 0.019935086 0.08984192 0.04090099 0.014789827 0.04189782
-0.068338566 0.03697221 0.018430455 0.07398096 -0.056999654 0.012598481 0.018347781 0.022283526
0.02033312 0.026156636 0.15063018 0.028447155 -0.04006157 0.005955047 0.007584164 -0.039641947
-0.050876427 -0.03844098 0.034048334 0.048998095 0.15485759 -0.040719606 -0.0139208315 -0.015168332
0.16083433 0.10325543 0.008050517 0.028042212 -0.020773076 -0.022643901 0.0133430725 0.07267001
-0.056421187 0.07412897 -0.046252117 -0.1275713 0.10820802 0.024427636 -0.00433383 -0.05935443
-0.030575812 -0.032262642 -0.028127434 -0.060224768 0.14415523 -0.0034464689 0.075726494 0.068398565
-0.042755302 -0.037892178 0.05375901 0.010596866 -0.012965148 -0.014072932 0.033148274 -0.003235723
-0.085897624 0.013983071 -0.023646953 0.14928912 0.026861466 0.09142268 0.048527084 -0.02414011
0.081137165 0.036146645 0.0497038 0.045165222 -0.0661908 -0.0185654 0.1410435 0.14080212
0.02337196 0.003339266 0.011330505 0.049778577 -0.032334525 0.027664449 -0.0115753 0.11159458
00000000: 51bb 3a3c 0464 efbd f523 acbd 50bc 1b3d
00000010: a33d 9e3c 2d30 a2ba e46b 013d d4c3 91bd
00000020: 11dc c8bc e245 133e 9cee 093d 4e91 75bd
00000030: f3ae 923d 43a5 0bbd 092b a53d b1cf 5fbd
00000040: 09e4 8d3c de29 4e3d ee4a bf3d 1ad0 51bc
00000050: 8586 8aba a414 203d b815 a83d 2453 f1bc
00000060: 9209 1ebd 1ec9 75bd 9653 a2bc 989c cf3c
00000070: 3ecd 16be f8b9 6ebb 82e1 023d 16f3 fa3d
00000080: f84b 5bbc 9f1e f43d c89d 243d 8e65 123d
00000090: fae9 a13d d6e2 d1bd d8ab 633d 9a9a 23bd
000000a0: 1adf 523d c046 153d 72fa 7abd 616a de3d
000000b0: 64ba d0bc a818 a93d ea6f bb3c 1dcc 443d
000000c0: dab3 0a3e 19e0 66bd 0e7f 213d 87c1 093e
000000d0: ea7a 953d 0b25 743c 32a7 063d c4cd 99b9
000000e0: cffe 2fbd 244f 9dba a08d 873d 0cb2 d93c
000000f0: 8c29 d63d a71c 46bd 702f 9d3c 5172 8d3d
00000100: 2902 a23c 7dec aa3d 594f 053d 5d24 60bd
00000110: 43fe 93bd efad b43c a7a5 843d a441 2d3d
00000120: 6e86 0f3d f110 d7bc 4334 58bd 44b2 fe3c
00000130: bcb1 9bbd 28c4 a1bd 30d7 62bd 4853 83bc
00000140: dd54 f3bb 3b12 053e eac9 873d d962 4abb
00000150: 895d 41bd 4b99 7bbc e25e 22bd 868f 353d
00000160: 80d9 283d 13dc 013d 0b9b 7a3d db28 2b3e
00000170: 4177 f13c e855 72bd 6e3a 6fbd 1c48 88bc
00000180: bc5c 2e3d e471 ae3d 85d7 9b3c 671e 543d
00000190: a2a4 9fbc 973e d13c b544 ddbc 3336 7c3c
000001a0: cc0d 103d 0750 003e 1e67 b3bd 5680 5dbd
000001b0: b726 97bc 7cab 1bbd 7de8 1c3d ecd5 5bbd
000001c0: 34ad 97bd a5d0 af3b 5f1d cdbb 6ae4 413c
000001d0: 05e8 ec3b 3b6b e2bc 2570 053e 4073 403b
000001e0: a23a 5cbd c4aa c43a c516 403a b8ed a33d
000001f0: 09d0 bc3d 0da2 133e 9ca3 8a3c d269 953d
00000200: f00e bd3c d09a a03c ba6a 003d 2682 013d
00000210: da2c 053d dd35 65bd 8f13 5dbd 4f0b d63d
00000220: 04e2 cf3d 6059 01bd 5800 57bc fb58 85bd
00000230: abe1 f83c 6e0a 43bd c793 ea3d f64b 78bd
00000240: c98e c7bc 5d98 1cbd f45d 4dbd f9de 68bd
00000250: 1801 e0bc 7610 993b eb49 383d 99b5 99bd
00000260: bc3c 06bd 8460 1cbd 42b3 a33d e469 c53d
00000270: b585 85bd ebfe f63c 3cea f0bb 94ed 9dbc
00000280: 72b3 4d3d d47c 2b3e b217 f33d 9892 883d
00000290: f709 e93d f6a9 71bd 1ecb 923b febc 813c
000002a0: c840 51bc 0993 4fbc a7c9 013d e84e a33c
000002b0: 0aff b73d cc87 273d 0851 723c 0c9d 2b3d
000002c0: 17f5 8bbd 2c70 173d 77fb 963c 5483 973d
000002d0: 7878 69bd dc69 4e3c 164e 963c f18b b63c
000002e0: a591 a63c 7146 d63c cc3e 1a3e 020a e93c
000002f0: 9a17 24bd 8e22 c33b 9484 f83b 985f 22bd
00000300: cd63 50bd 4a74 1dbd 4476 0b3d 3ab2 483d
00000310: fd92 1e3e 9ac9 26bd 3314 64bc 9884 78bc
00000320: c1b1 243e 9577 d33d 51e6 033c c8b8 e53c
00000330: 4c2c aabc b47f b9bc e79c 5a3c 04d4 943d
00000340: e719 67bd eed0 973d dc72 3dbd 0da2 02be
00000350: 2b9c dd3d 771c c83c cd02 8ebb a11d 73bd
00000360: 207a fabc d525 04bd 816b e6bc 3fae 76bd
00000370: 6e9d 133e 27de 61bb 7e16 9b3d 8c14 8c3d
00000380: 2f20 2fbd d434 1bbd 6832 5c3d 7a9e 2d3c
00000390: c66b 54bc 2892 66bc 7cc6 073d 6c0e 54bb
000003a0: 18eb afbd 4019 653c 41b7 c1bc 3fdf 183e
000003b0: 940c dc3c d03b bb3d 56c4 463d 7bc1 c5bc
000003c0: 3e2b a63d 810e 143d 3696 4b3d 2bff 383d
000003d0: 0b8f 87bd 7716 98bc b56d 103e 6e2e 103e
000003e0: 8d76 bf3c 96d7 5a3b 95a3 393c 9fe4 4b3d
000003f0: 3571 04bd 8ea0 e23c 54a6 3dbc b38b e43d

actor.weight f4 [1, 256]
0.010974159 0.024040373 0.058628622 -0.043660313 0.5034541 0.012913487 0.046569493 -0.014622924
0.0042220694 0.09023506 -0.022874273 -0.013445794 0.47001094 -0.004221883 0.3120487 0.024229102
0.44707003 -0.006882593 -0.11026253 0.05010144 0.02761713 -0.3266293 0.33452556 -0.03504742
-0.36480716 -0.0036520795 0.052363925 -0.019917745 -0.34271133 -0.25717962 0.019554863 0.26628518
0.044684112 -0.030250508 -0.32178766 -0.24867341 0.46902493 0.22802535 -0.20197792 0.008015297
0.13079217 -0.33149543 0.053346403 0.02536914 -0.045536064 0.48343664 -0.0075861793 -0.2902838
0.15539598 0.07296976 -0.027615199 0.173966 0.41941088 -0.28009298 0.36230522 -0.040921837
-0.36234757 -0.020017961 -0.006458601 -0.02999235 0.12770489 0.024079593 0.28462154 -0.23623851
-1.1784818 0.020855732 -0.25787246 -0.0516793 0.008269344 -0.38278508 0.10282737 0.16078179
0.051215064 -0.0069363476 0.025263244 0.033855196 0.0070853783 0.013527915 -0.075963065 -0.23143917
0.50837 -0.12641232 -0.3520237 -0.38331166 0.0041673463 -0.012676197 -0.04485239 0.04111539
-0.24899018 0.37745398 0.050606873 0.0049158474 0.045729414 0.014120061 -0.0522423 0.45983666
0.054369394 0.21309535 -0.25980824 -0.04225002 0.06327938 0.016480707 -0.008455219 0.0057436414
0.0050221086 -0.16971691 0.06809572 0.15130572 0.06003982 0.006998703 0.028555835 0.009826774
0.004741174 0.004775356 -0.0018006001 0.43915665 0.0016632981 -0.0037346943 0.06434603 -0.00082430115
0.04487724 0.038395304 0.04848728 -0.19338481 0.020609038 0.015634732 0.05299781 -0.10024343
0.032216918 -0.009268492 -0.008033492 -0.033622097 0.047019333 -0.3120207 -0.008183334 0.123338304
-0.15579537 -0.03352037 -0.04132229 0.046194024 -0.0011977346 -0.38690892 0.18082462 -0.020720959
0.0072712433 -0.01642676 0.00026030093 0.059836138 -0.03427208 -0.23803692 0.023039214 0.11931933
-0.004773695 -0.041263048 0.43791035 -0.016470838 0.022663176 0.0819375 0.49165463 0.039636254
0.030951167 0.04568234 -0.07453363 0.30481324 0.20894258 0.026515372 -0.29178765 0.4489609
0.0396653 0.42551276 0.021900805 0.36130086 0.043144528 0.45558727 0.050649457 0.0005053666
-0.046787854 -0.31841582 -0.33559117 0.1139685 0.047869258 0.043441422 -0.2254375 0.07917236
0.13127558 0.012254947 0.15274471 0.43171915 0.009072594 0.4828846 -0.039490316 -0.27634943
-0.034349 -0.32456863 -0.0665177 -0.030973922 0.13908923 -0.026666373 0.020242136 0.008826621
0.0937576 -0.14546324 -0.0646403 0.009308668 -0.24540463 -0.0030545148 -0.08345435 -0.24592596
-0.04502404 0.012115525 -0.42622516 0.103077285 0.117608555 0.2821289 -0.2669592 0.010359507
0.005672764 0.04206727 0.013747301 -0.013715971 0.009565258 0.16391347 0.14263013 -0.022590928
-0.04353003 -0.012065455 0.16573182 -0.038899876 0.018400641 -0.3324394 -0.02951331 -0.046850167
-0.07140899 0.46318892 0.04842298 0.19774315 -0.057431556 0.42471755 0.012189803 0.46517983
0.37416467 -0.40465823 0.19724914 0.0353608 0.05344515 -0.048684824 -0.013446675 -0.11953267
-0.04524522 -0.27996954 -0.052791692 -0.19399817 -0.0067529446 -0.020554228 0.20657858 0.09968486
00000000: f6cc 333c 51f0 c43c 9124 703d 28d5 32bd
00000010: 5ee2 003f 1793 533c a7bf 3e3d fd94 6fbc
00000020: 4959 8a3b 29cd b83d d462 bbbc bf4b 5cbc
00000030: 46a5 f03e b957 8abb d9c4 9f3e 1c7c c63c
00000040: 5de6 e43e 6087 e1bb 52d1 e1bd 2b37 4d3d
00000050: 523d e23c f53b a7be ef46 ab3e e28d 0fbd
00000060: 01c8 babe ba57 6fbb 8e7b 563d 8a2a a3bc
00000070: dc77 afbe 0cad 83be 8531 a03c 8856 883e
00000080: b006 373d eacf f7bc 5ac1 a4be 3ea4 7ebe
00000090: 0924 f03e 7a7f 693e 4dd3 4ebe 9852 033c
000000a0: 62ee 053e c5b9 a9be c281 5a3d f1d2 cf3c
000000b0: 0684 3abd 0285 f73e 7c95 f8bb 14a0 94be
000000c0: 2020 1f3e 2b71 953d 4539 e2bc 2524 323e
000000d0: 06bd d63e 5968 8fbe 1280 b93e a89d 27bd
000000e0: 9f85 b9be b5fc a3bc aca2 d3bb 84b2 f5bc
000000f0: 12c5 023e 9142 c53c eab9 913e 82e8 71be
00000100: 7ed8 96bf a4d9 aa3c dc07 84be acad 53bd
00000110: 257c 073c 68fc c3be 2897 d23d fba3 243e
00000120: e3c6 513d 4d4a e3bb ddf4 ce3c bfab 0a3d
00000130: 762c e83b 30a4 5d3c 8692 9bbd 64fe 6cbe
00000140: 8924 023f 3b72 01be 733c b4be 6d41 c4be
00000150: 3c8e 883b d3af 4fbc 24b7 37bd 9c68 283d
00000160: 48f7 7ebe a641 c13e 2749 4f3d 1e15 a13b
00000170: c44e 3b3d d457 673c 06fc 55bd b66f eb3e
00000180: 71b2 5e3d ab35 5a3e 9605 85be 5b0e 2dbd
00000190: 9f98 813d 8c02 873c c287 0abc 2835 bc3b
000001a0: 8090 a43b 45ca 2dbe c575 8b3d e3ef 1a3e
000001b0: 50ec 753d 6055 e53b eded e93c 7a00 213c
000001c0: da5b 9b3b 977a 9c3b 1d02 ecba 24d9 e03e
000001d0: 0603 da3a c6c1 74bb dac7 833d ea15 58ba
000001e0: 32d1 373d 6544 1d3d 999a 463d ab06 46be
000001f0: 49d4 a83c 6914 803c 3b14 593d 6d4c cdbd
00000200: e3f5 033d e0da 17bc e89e 03bc 53b7 09bd
00000210: 5897 403d 2dc1 9fbe 6413 06bc cb98 fc3d
00000220: d288 1fbe a84c 09bd 9041 29bd f235 3d3d
00000230: 4efd 9cba ed18 c6be 172a 393e 00bf a9bc
00000240: 9c43 ee3b 6a91 86bc 0079 8839 bd16 753d
00000250: e160 0cbd f3bf 73be bcbc bc3c b15d f43d
00000260: a86c 9cbb 7103 29bd c935 e03e daed 86bc
00000270: 20a8 b93c d9ce a73d 28ba fb3e a059 223d
00000280: 4d8d fd3c 681d 3b3d 16a5 98bd 7b10 9c3e
00000290: 0bf5 553e c436 d93c 3165 95be 34de e53e
000002a0: 1578 223d cfdc d93e 5169 b33c 6dfc b83e
000002b0: 51b8 303d bc42 e93e ce75 4f3d 947a 043a
000002c0: 9fa4 3fbd 6607 a3be 9bd2 abbe 5168 e93d
000002d0: 8e12 443d a2ef 313d 17d9 66be 1e25 a23d
000002e0: 1b6d 063e f9c8 483c 1c69 1c3e 4b0a dd3e
000002f0: 38a5 143c a63c f73e 99c0 21bd ac7d 8dbe
00000300: 89b1 0cbd dc2d a6be 6f3a 88bd 06bd fdbc
00000310: 686d 0e3e 7073 dabc d6d2 a53c 889d 103c
00000320: fc03 c03d 51f4 14be 2262 84bd 6283 183c
00000330: 5a4b 7bbe 412e 48bb 1dea aabd 04d4 7bbe
00000340: 216b 38bd 3280 463c 2f3a dabe 2f1a d33d
00000350: c1dc f03d 3373 903e e0ae 88be ecba 293c
00000360: 98e2 b93b bb4e 2c3d 5c3c 613c f4b8 60bc
00000370: 9ab7 1c3c efd8 273e a20d 123e 9c10 b9bc
00000380: 8b4c 32bd 30ae 45bc 9ab5 293e 7a55 1fbd
00000390: f1bc 963c 7f35 aabe e6c5 f1bc f6e5 3fbd
000003a0: e03e 92bd 1927 ed3e 2d57 463d 2e7d 4a3e
000003b0: 5a3d 6bbd 9474 d93e bdb7 473c 0d2c ee3e
000003c0: 8392 bf3e 5d2f cfbe aefb 493e 7cd6 103d
000003d0: 4de9 5a3d bd69 47bd 714f 5cbc 8bcd f4bd
000003e0: 0d53 39bd 2b58 8fbe 1a3c 58bd 75a7 46be
000003f0: ce47 ddbb 5761 a8bc 5689 533e 9327 cc3d

critic.weight f4 [1, 256]
-0.031594902 -0.13306327 -0.2281918 0.043308552 0.001759702 0.011301598 -0.020529492 0.03345937
-0.011686863 0.06554097 -0.01583064 -0.024152245 0.006319105 -0.016671209 0.0034689032 0.003997397
0.0065363823 -0.048946004 0.073030815 -0.002184089 -0.15931414 0.027474752 0.009069313 -0.03980106
0.0041481517 -0.010666944 0.041031726 -0.033769105 -0.06137387 0.029440552 -0.015526671 0.019511057
0.01072754 0.09165928 -0.005037959 -0.007334777 0.0057525365 -0.15466857 0.046906706 0.061740316
0.013048185 -0.004789455 0.006634891 0.019272584 0.015704837 0.0052443645 0.056755222 -0.008981623
0.032633964 -0.120382674 0.023098938 0.04101056 0.008524085 -0.013898407 0.006709179 -0.012678637
0.0029730313 -0.001694983 0.0030607358 -0.020955648 0.018263841 0.046136566 0.003969296 0.03694268
0.1714494 0.010953241 0.02156822 0.015625117 -0.032290556 0.0078038853 0.0063234004 0.015730483
0.008725022 -0.024083948 0.054056898 0.020577896 -0.027296307 -0.11120749 -0.024918534 0.016390342
0.0070547694 0.054057423 0.10831969 -0.00801599 0.05383956 -0.052754495 0.0015290603 0.05047401
0.03458136 0.0063105784 0.041380327 0.08887113 0.0424253 -0.009762109 -0.005122178 0.006131349
0.04173228 0.021572104 0.0010057467 0.04846956 -0.0135256415 -0.030720126 -0.028706573 -0.03799587
0.05997749 0.05684566 -0.11848229 -0.0459963 0.045211088 -0.054935828 0.04302946 -9.0349684e-05
-0.019880401 -0.03866955 -0.021445364 0.0049905335 0.020307336 -0.03719523 0.0714726 -0.031814486
-0.028768424 0.043537866 0.07444925 0.03575463 0.055025406 0.061454106 -0.014612804 0.05438044
0.007954809 0.041759692 0.017526673 0.0027596399 0.052998476 -0.010847055 0.03206719 0.07179186
0.042214375 -0.15706895 -0.017410703 -0.023954287 -0.0019615255 0.0123044895 0.05861506 0.047502946
-0.023831535 0.006024772 -0.037672363 0.052677486 -0.007475656 0.008313683 0.0012424786 -0.16523975
0.004420833 0.005916165 0.001672488 0.08244569 0.05083458 0.0141065605 0.0046166494 0.049556915
-0.023647048 0.05869033 0.10072541 0.02239157 0.013993191 0.047881335 -0.002292933 0.006190226
-0.23225054 0.0027314718 -0.02311164 0.0021156652 0.060935974 0.01186449 0.012276769 0.012948078
-0.00788824 0.0026480285 -0.0008078641 -0.0056509473 0.024084583 -0.006152163 -0.0071484903 -0.0101092
-0.06571463 0.054180436 0.03849775 0.0066869534 0.029563561 0.008130418 -0.0163806 -0.0050967736
-0.016669858 0.0036089865 -0.03478031 0.057182174 0.065062374 0.05864104 -0.033192504 -0.039355353
0.07548768 0.07444481 0.0036190827 -0.014627943 0.12752342 -0.004332597 -0.21552297 0.016389163
-0.05329615 0.0785952 0.011186313 -0.25885874 0.012308266 -0.023975352 -0.0001162921 -0.001952905
0.018764671 0.03959083 -0.044550106 -0.053803436 0.050618645 0.027448665 0.06272489 0.052669402
-0.016904257 0.059403867 0.045339864 -0.0062582972 -0.0090887165 -0.0039460785 -0.00353095 0.00030237008
-0.020097325 0.005295809 0.015272862 0.04030731 -0.020226587 0.012031121 0.0054087895 0.005490248
0.04039023 0.0013126788 0.041132394 -0.011122033 -0.05060012 -0.0139216455 0.037487093 0.07960982
-0.029206404 -0.0013256368 -0.03434609 -0.0059779724 -0.010030836 0.03573642 0.0036978715 0.0224682
00000000: a869 01bd bd41 08be 1cab 69be 4f64 313d
00000010: cda5 e63a 562a 393c 772d a8bc b10c 093d
00000020: 427a 3fbc 583a 863d 42af 81bc eeda c5bc
00000030: 7f10 cf3b 0f92 88bc 8a56 633b 99fc 823b
00000040: 262f d63b 9b7b 48bd 2e91 953d ef22 0fbb
00000050: 3f23 23be bb12 e13c 7597 143c 7006 23bd
00000060: 38ed 873b 68c4 2ebc e210 283d 7951 0abd
00000070: 2b63 7bbd 502d f13c 9463 7ebc a7d5 9f3c
00000080: 90c2 2f3c dcb7 bb3d 7715 a5bb 9258 f0bb
00000090: c67f bc3b 7061 1ebe 3f21 403d 6ae3 7c3d
000000a0: 0ec8 553c dcf0 9cbb 8069 d93b 8ae1 9d3c
000000b0: 6ea7 803c ebd8 ab3b 2a78 683d a827 13bc
000000c0: 31ab 053d 318b f6bd fc39 bd3c b0fa 273d
000000d0: 9ba8 0b3c 25b6 63bc acd8 db3b 0fba 4fbc
000000e0: 30d7 423b 312a deba a096 483b 2eab abbc
000000f0: 0d9e 953c b2f9 3c3d de10 823b 3551 173d
00000100: 6e90 2f3e 3975 333c d6af b03c 3f00 803c
00000110: 1a43 04bd bcb7 ff3b 8734 cf3b 37dd 803c
00000120: 65f3 0e3c b34b c5bc c46a 5d3d fa92 a83c
00000130: 819c dfbc c1c0 e3bd f421 ccbc 0a45 863c
00000140: b22b e73b 516b 5d3d b7d6 dd3d 8055 03bc
00000150: df86 5c3d 1915 58bd c06a c83a d6bd 4e3d
00000160: 2fa5 0d3d f8c8 ce3b 6b7e 293d 1102 b63d
00000170: 27c6 2d3d 41f1 1fbc f1d7 a7bb 7ce9 c83b
00000180: 78ef 2a3d fbb7 b03c 42d3 833a 0488 463d
00000190: a79a 5dbc c6a8 fbbc 0c2a ebbc 8fa1 1bbd
000001a0: f5aa 753d ffd6 683d d8a6 f2bd 9e66 3cbd
000001b0: 432f 393d 6404 61bd a93f 303d 1e7a bdb8
000001c0: 39dc a2bc f663 1ebd 30ae afbc a187 a33b
000001d0: 925b a63c 075a 18bd 3a60 923d e84f 02bd
000001e0: c2ab ebbc c354 323d d978 983d 7273 123d
000001f0: 5262 613d 4db7 7b3d 8b6a 6fbc 06be 5e3d
00000200: e354 023c 360c 2b3d 1994 8f3c 13db 343b
00000210: ee14 593d d9b7 31bc e358 033d 9c07 933d
00000220: fbe8 2c3d afd6 20be e4a0 8ebc c83b c4bc
00000230: f08c 00bb c598 493c 5816 703d 7392 423d
00000240: 5a3a c3bc 736b c53b 564e 1abd 59c4 573d
00000250: 59f6 f4bb 1d36 083c aada a23a 9c34 29be
00000260: a3dc 903b 64dc c13b 6337 db3a 49d9 a83d
00000270: ec37 503d 341f 673c 4347 973b 31fc 4a3d
00000280: 74b7 c1bc 4565 703d 2049 ce3d 876e b73c
00000290: b243 653c 381f 443d 0845 16bb 61d7 ca3b
000002a0: 16d3 6dbe 7e02 333b 9f54 bdbc f9a6 0a3b
000002b0: 0098 793d 4763 423c 8024 493c 2d24 543c
000002c0: ad3d 01bc 8c8a 2d3b d8c6 53ba 952b b9bb
000002d0: 084d c53c 1598 c9bb e23d eabb 0fa1 25bc
000002e0: 6495 86bd 4eec 5d3d d1af 1d3d 3b1e db3b
000002f0: 482f f23c 7235 053c 9c30 86bc d602 a7bb
00000300: 3a8f 88bc bf84 6c3b cc75 0ebd db37 6a3d
00000310: 6c3f 853d 9631 703d ddf4 07bd 1433 21bd
00000320: 4999 9a3d 8576 983d 222e 6d3b 0aaa 6fbc
00000330: 8095 023e 75f8 8dbb 0eb2 5cbe 9142 863c
00000340: 104d 5abd 85f6 a03d cc46 373c 2289 84be
00000350: 9ca8 493c f567 c4bc d9e1 f3b8 9ef8 ffba
00000360: 5eb8 993c ff29 223d 2c7a 36bd fe60 5cbd
00000370: 7f55 4f3d 06dc e03c e875 803d dfbb 573d
00000380: cc7a 8abc 7851 733d 4bb6 393d 6712 cdbb
00000390: d7e8 14bc 1b4e 81bb 8367 67bb 6d87 9e39
000003a0: 25a3 a4bc 7788 ad3b 073b 7a3c 4719 253d
000003b0: 3ab2 a5bc 2e1e 453c 373c b13b 8ae7 b33b
000003c0: 3a70 253d 310e ac3a 717a 283d 3039 36bc
000003d0: 1242 4fbd 9d17 64bc 118c 193d 790a a33d
000003e0: 4542 efbc fdc0 adba 7cae 0cbd dee2 c3bb
000003f0: 6058 24bc 5a60 123d fd57 723b 3b0f b83c
