models1/ppo_1150.pth (torch, 275660 bytes, 6 tensors)

net.0.weight f4 [256, 6]
0	0xbec4fc0c	-0.38473547
1	0xbecab453	-0.395907
2	0x3e33401b	0.17504923
3	0x3ec9f047	0.3944113
4	0xbdc27e2d	-0.09496722
5	0xbeaa9818	-0.33319163
6	0xbd63b491	-0.055592123
7	0xbca3a6f8	-0.019977078
8	0x3ee33411	0.4437566
9	0xbec0245a	-0.37527734
10	0xbdbc5a7f	-0.09196948
11	0x3ee1be53	0.44090518
12	0xbe1f9cd4	-0.15587169
13	0x3ed07817	0.4071662
14	0xbc34620b	-0.011009703
15	0xbef5b3ea	-0.47988826
16	0xbe0aa7af	-0.13540529
17	0xbe044864	-0.1291824
18	0xbea53b67	-0.32271883
19	0x3e745df8	0.23863971
20	0x3e1eec0c	0.15519732
21	0xbd449143	-0.047990095
22	0x3ba5bc61	0.005057857
23	0x3ea486e1	0.32134154
24	0x3e79d947	0.24399291
25	0xbe02bf50	-0.12768292
26	0xbefa6f7c	-0.4891318
27	0x3e87a778	0.26494956
28	0x3e3b7f65	0.18310316
29	0xbe48c3d2	-0.1960595
30	0x3dc7f46d	0.097634174
31	0xbda6d750	-0.08146536
32	0x3ebc339f	0.36758134
33	0x3b6ddf1d	0.0036296316
34	0xbe93333c	-0.28750026
35	0x3e574a56	0.2102445
36	0xbc1e5db0	-0.0096658915
37	0x3de8fb72	0.113760844
38	0x3ee28678	0.44243217
39	0x3e7d9d67	0.24767075
40	0x3daa5546	0.08317046
41	0xbea533bc	-0.32266033
42	0xbec26c1e	-0.37973112
43	0xbed35496	-0.4127547
44	0x3b94851a	0.0045324685
45	0x3e2bff30	0.16796565
46	0xbd674f4a	-0.0564721
47	0x3e8662e4	0.26247323
48	0xbe5ba235	-0.21448596
49	0xbe85c66c	-0.26127946
50	0x3ea5bd00	0.32370758
51	0xbd61904e	-0.05506926
52	0x3e514a6c	0.20438546
53	0xbe83e84b	-0.25763163
54	0x3e3c91bb	0.18414967
55	0x3e5219b8	0.20517623
56	0x3ee3ae34	0.44468844
57	0xbf0922f6	-0.5356897
58	0xbe462829	-0.19351257
59	0x3e2ea0e0	0.17053556
60	0x3dc2ee1c	0.09518072
61	0xbe3a7adb	-0.18210928
62	0xbd16d1a2	-0.036821015
63	0xbd9015e8	-0.07035428
64	0xbe5c1f4d	-0.21496315
65	0xbe06577e	-0.13119313
66	0x3d236c2a	0.039898075
67	0xbe817e5e	-0.25291723
68	0xbe5a2fdb	-0.21307318
69	0x3e8bbd50	0.2729287
70	0xbdd77562	-0.10520436
71	0xbdff15de	-0.12455343
72	0xbdbab541	-0.09116603
73	0x3e1cefff	0.15325926
74	0xbe340349	-0.17579378
75	0x3e2f1b83	0.17100339
76	0xbec47e80	-0.38377762
77	0xbe913e32	-0.28367764
78	0xbd91568a	-0.07096584
79	0x3d5eb251	0.054369275
80	0x3e160099	0.14648665
81	0x3e66fe1a	0.2255787
82	0xbdcd0afd	-0.100118615
83	0xbf0056d4	-0.5013249
84	0x3eab53f4	0.3346249
85	0x3e235385	0.15949829
86	0xbe6c2b0e	-0.23063299
87	0x3c985d16	0.018599074
88	0xbea60a47	-0.32429716
89	0x3eb263d5	0.3484179
90	0x3dfa88ab	0.122330986
91	0xbe99297c	-0.29914463
92	0xbe10715b	-0.14105742
93	0xbeded53b	-0.43522057
94	0xbe9aef7c	-0.30260837
95	0xbc498ec9	-0.012302109
96	0x3e0d7e62	0.13817742
97	0x3e64961b	0.22322886
98	0x3ec015de	0.37516683
99	0xbe0e0457	-0.13868843
100	0xbcefa31b	-0.02925258
101	0xbeb4a832	-0.35284573
102	0xbefad286	-0.48988742
103	0xbe435dcd	-0.19078751
104	0xbd291314	-0.04127796
105	0xbea36dd1	-0.3191972
106	0x3d609a51	0.054834668
107	0x3d0fd4cd	0.035115052
108	0xbef03e50	-0.4692254
109	0x3e56aaf5	0.20963652
110	0xbef05fdc	-0.46948135
111	0xbeae9bde	-0.34103292
112	0xbdb1bcc1	-0.0867858
113	0x3e2221eb	0.15833251
114	0x3e1976dd	0.14986749
115	0x3e5b4e54	0.21416599
116	0xbe40d708	-0.18832028
117	0x3ec5ec20	0.38656712
118	0xbdeb1272	-0.114781275
119	0xbe7ad778	-0.24496257
120	0xbd80c28f	-0.06287109
121	0x3e10128e	0.14069578
122	0xbd32905e	-0.04359471
123	0x3e9b5d65	0.30344692
124	0x3e83879f	0.25689408
125	0x3ec836e4	0.39104378
126	0x3eb17671	0.34660676
127	0x3e6182d7	0.22022568
128	0x3c2ce760	0.010553211
129	0x3dba5e8f	0.09100067
130	0x3ddfa395	0.10919873
131	0xbebedfa4	-0.3728
132	0xbeaa9c73	-0.33322486
133	0x3d846203	0.06464007
134	0x3ea50f55	0.3223826
135	0xbefa2c01	-0.48861697
136	0xbda7dc1b	-0.08196279
137	0x3ece07b5	0.40240255
138	0x3e22e6cb	0.15908353
139	0xbdf62765	-0.12019233
140	0xbe09e1b7	-0.1346501
141	0xbd5846e5	-0.052801985
142	0x3e30042d	0.17189093
143	0x3c869e3c	0.016432874
144	0xbdce885f	-0.100846045
145	0x3e839aeb	0.2570413
146	0x3aaa4413	0.0012990258
147	0x3cd488ed	0.025944198
148	0x3e7e9e8e	0.24865171
149	0xbedd2eb3	-0.4319969
150	0xbe6565b1	-0.22402073
151	0x3ea5d317	0.3238761
152	0xbed29e6c	-0.4113649
153	0x3f19680f	0.59924406
154	0x3d680e9a	0.05665455
155	0xbe6a9346	-0.22907743
156	0x3e362f93	0.17791586
157	0x3d8f9683	0.0701113
158	0xbe7292b2	-0.23688772
159	0x3e183679	0.1486453
160	0x3dbc71ba	0.09201379
161	0xbe5b30ae	-0.21405289
162	0x3dc00405	0.09375767
163	0xbdb36478	-0.08759397
164	0x3f159864	0.58435655
165	0xbf09017a	-0.5351788
166	0x3d0e7126	0.034775876
167	0xbea8f992	-0.33002907
168	0x3e9eefc7	0.3104231
169	0xbec6eda6	-0.38853186
170	0x3e1ea073	0.15490894
171	0x3e9d8ac8	0.30769944
172	0xbdc45a10	-0.095874906
173	0xbe260266	-0.16211852
174	0xbe43db6b	-0.1912667
175	0x3e0983be	0.13429162
176	0x3e47acc6	0.19499502
177	0xbe9ff4df	-0.3124151
178	0xbe88d9e7	-0.26728746
179	0x3d30afda	0.043136455
180	0xbe06dae6	-0.1316944
181	0xbe813d43	-0.2524205
182	0xbec29ee9	-0.38011864
183	0x3eb5f3ed	0.35537663
184	0x3eb7b50a	0.3588031
185	0x3e891868	0.26776433
186	0x3d21ea33	0.03952999
187	0xbe3ee5e5	-0.18642385
188	0xbf09f75e	-0.5389308
189	0x3e80035f	0.25002572
190	0x3da37c29	0.07982666
191	0xbdf00548	-0.11719757
192	0xbe41b732	-0.1891754
193	0xbd55fba8	-0.05224195
194	0xbe4fbbaf	-0.2028644
195	0x3eb294ca	0.34879142
196	0xbe085ad0	-0.13315892
197	0x3d7537de	0.059867732
198	0xbd95643e	-0.0729451
199	0x3e8360ab	0.2565969
200	0xbdb4202f	-0.08795201
201	0xbcb1cac9	-0.02170314
202	0x3e2103dd	0.1572413
203	0x3dd6a8ac	0.1048139
204	0xbec1de77	-0.3786504
205	0x3e3afb40	0.18259907
206	0xbe808d87	-0.25107977
207	0x3eb70a9b	0.3575028
208	0xbea41a32	-0.32051235
209	0x3da7f335	0.08200685
210	0xbeaaf011	-0.3338628
211	0x3da4429b	0.080205165
212	0x3e97faf5	0.29683653
213	0x3e40eccc	0.18840331
214	0xbcd24e62	-0.025672141
215	0xbdc74663	-0.09730222
216	0x3e28bf9f	0.16479348
217	0x3e55a20d	0.20862599
218	0x3e3b7967	0.1830803
219	0xbed3a5a4	-0.4133731
220	0xbe285eb4	-0.16442376
221	0xbea299eb	-0.31758055
222	0xbe7784e7	-0.24171792
223	0xbe48ed15	-0.1962169
224	0x3ed9e9dd	0.42561236
225	0xbe683fab	-0.22680537
226	0xbe36316f	-0.17792295
227	0xbe54c3c4	-0.20777804
228	0xbd9ecb11	-0.077535756
229	0x3e27e8c9	0.16397394
230	0xbec0eb18	-0.37679362
231	0x3e954efa	0.29161817
232	0xbe44b8f1	-0.19211175
233	0xbd4c4f51	-0.04988033
234	0xbda1d56f	-0.07902037
235	0x3cd7b5ae	0.026331749
236	0xbd3192cf	-0.0433529
237	0x3dc318f2	0.09526242
238	0xbe63f428	-0.22261107
239	0x3ee9a75d	0.456355
240	0x3e6c41c8	0.23071969
241	0xbec501f8	-0.38478065
242	0xbd5846fe	-0.05280208
243	0xbe7200ff	-0.23633192
244	0x3e1447fc	0.14480585
245	0xbec97271	-0.39345124
246	0xbf07be8a	-0.53025115
247	0xbf111f39	-0.56688267
248	0xbb6c086f	-0.003601577
249	0x3e1d4de0	0.15361738
250	0x3e0e6426	0.13905391
251	0xbda61708	-0.081098616
252	0x3e93f9fa	0.28901654
253	0xbea38e8c	-0.31944692
254	0x3e5bff29	0.21484055
255	0xbf08e8a1	-0.53479964

net.0.bias f4 [256]
0	0xbe85011c	-0.2597741
1	0x3c7dbd2f	0.015486999
2	0xbebcd6b1	-0.36882547
3	0xbed7145f	-0.4200773
4	0x3ed49c9d	0.41525736
5	0xbed44899	-0.41461638
6	0xbeb62224	-0.35572922
7	0xbeb8d02d	-0.36096326
8	0x3def57c9	0.116866656
9	0x3c02829d	0.007965711
10	0x3e2ec1fb	0.17066185
11	0xbe65dab1	-0.22446705
12	0xbd0872ac	-0.033312485
13	0xbe66af33	-0.2252777
14	0xbecd88d4	-0.40143454
15	0x3e482e99	0.19549026
16	0x3eb63044	0.355837
17	0x3ce3f1b0	0.027825207
18	0xbe0bb34f	-0.1364262
19	0x3eae1f49	0.34008244
20	0xbe7caf4a	-0.24676242
21	0xbe871f86	-0.26391238
22	0x3d5dbe23	0.054136407
23	0x3ea85074	0.3287388
24	0x3ebe8b9a	0.37215883
25	0x3e2f1069	0.17096104
26	0x3e5e8b60	0.21732855
27	0x3e6e661d	0.2328114
28	0x3d88d9f7	0.066821985
29	0xbc72bcb2	-0.014815496
30	0x3ea298c4	0.31757176
31	0x3e5ab9e5	0.21359976
32	0x3e0882ce	0.13331148
33	0xbea73989	-0.32661083
34	0xbe57d04e	-0.21075556
35	0x3b1d2c39	0.0023982658
36	0xbee3fef4	-0.4453045
37	0x3ed0704e	0.40710682
38	0x3e3a5d12	0.18199566
39	0xbeab7573	-0.33488044
40	0xbe5aa605	-0.21352394
41	0xbe06df57	-0.13171135
42	0x3e5199f4	0.20468885
43	0xbe996a1d	-0.2996377
44	0xbdff90f5	-0.1247882
45	0x3e7a5f8a	0.24450508
46	0x3e360680	0.17775917
47	0xbf007d8b	-0.50191563
48	0x3dcd558d	0.10026083
49	0x3e7adcde	0.24498317
50	0xbeaef262	-0.34169298
51	0x3e35f3d7	0.17768799
52	0xbde8c069	-0.11364824
53	0xbe0f6db3	-0.1400669
54	0xbe8e8b69	-0.27840737
55	0x3e6114e3	0.21980624
56	0xbe910428	-0.28323483
57	0x3e306e53	0.17229585
58	0x3d5f6f61	0.05454958
59	0xbdf9eb7f	-0.122031204
60	0xbda73405	-0.08164219
61	0x3e1ae885	0.15127762
62	0xbdb6bb32	-0.089224234
63	0x3d01ea5b	0.03171764
64	0x3e8e949f	0.27847764
65	0x3e03a6fb	0.12856667
66	0xbe0f603e	-0.14001557
67	0x3e6885be	0.22707269
68	0x3e501138	0.20319068
69	0x3e911a2f	0.2834029
70	0x3e207f76	0.15673622
71	0x3c8a0ef4	0.016852833
72	0x3e88b3ad	0.26699582
73	0xbecb83fc	-0.39749134
74	0xbeb9473a	-0.36187154
75	0x3c90813f	0.017639754
76	0x3e7ea9e6	0.24869499
77	0xbebb638e	-0.36599392
78	0x3e65d2d2	0.22443703
79	0xbd4020e3	-0.046906363
80	0xbe1648dc	-0.14676231
81	0xbd8bd5dd	-0.068279006
82	0xbd9b4d34	-0.07583085
83	0xbc5b9844	-0.013403002
84	0xbe7cc865	-0.2468582
85	0x3d92c78c	0.07166967
86	0x3e846c5c	0.25863922
87	0x3eb7e44c	0.35916364
88	0x3be0a740	0.0068558753
89	0x3e8e16c0	0.27751732
90	0xbc9fa8aa	-0.019489605
91	0x3e034747	0.12820159
92	0x3e63440f	0.22193931
93	0xbd7a55db	-0.061117034
94	0x3e374060	0.17895651
95	0x3e8d794a	0.276316
96	0xbebb1849	-0.36541966
97	0xbe892cf0	-0.26792097
98	0xbea274fb	-0.31729874
99	0x3d82149d	0.06351588
100	0xbe276a13	-0.16349058
101	0xbe5eeca3	-0.21769957
102	0x3e249cf9	0.16075505
103	0x3e6c82c7	0.23096763
104	0x3ddf69ce	0.109088525
105	0xbe822e51	-0.25425962
106	0xbb15a2d6	-0.0022832653
107	0x3e0859d3	0.13315515
108	0xbe9e083f	-0.30865666
109	0x3e40b9dd	0.18820901
110	0x3d988e0e	0.0744897
111	0x3eb59cc4	0.35471165
112	0x3ea2e399	0.31814268
113	0xbe34865b	-0.17629378
114	0xbe340b1d	-0.17582364
115	0xbeaba81c	-0.33526695
116	0xbe19cc05	-0.15019234
117	0xbeaa939c	-0.33315742
118	0x3ebe57da	0.371764
119	0xbec89b87	-0.39181158
120	0xbea2d289	-0.3180125
121	0xbdb63cd3	-0.0889832
122	0x3b65daf3	0.003507313
123	0x3e1772a5	0.14789827
124	0x3ead3df4	0.3383633
125	0xbe6ff0af	-0.23431657
126	0x3ea306c8	0.3184111
127	0xbf0e1824	-0.55505586
128	0x3eae60da	0.34058267
129	0xbe68b9d3	-0.22727136
130	0xbe1b9e78	-0.1519717
131	0x3cca02ef	0.024659602
132	0x3e60277d	0.21890064
133	0xbe9be575	-0.304485
134	0xbda38750	-0.07984793
135	0x3e276c27	0.1634985
136	0x3cc044e7	0.023470355
137	0x3d4c0178	0.04980609
138	0xbd9946ad	-0.074841835
139	0x3e4b26ba	0.19838992
140	0x3ebf7344	0.37392628
141	0x3eb09cbf	0.34494588
142	0x3e0a1db2	0.1348789
143	0x3cd0f421	0.025507035
144	0x3ebcc07f	0.36865613
145	0x3ea69ddb	0.3254231
146	0xbeaeb4fb	-0.34122452
147	0xbda51e22	-0.08062388
148	0x3e9e657a	0.30936795
149	0x3e7b5732	0.24544981
150	0xbdef0c0a	-0.11672218
151	0xbe9fc87f	-0.31207654
152	0xbe26864d	-0.16262169
153	0x3e90fed3	0.28319415
154	0x3e5dc921	0.21658756
155	0xbe8335a6	-0.25626868
156	0xbe6fbf62	-0.2341285
157	0x3d101977	0.035180535
158	0xbe8c2958	-0.27375293
159	0x3e1af5b4	0.15132791
160	0xbeb705b5	-0.35746542
161	0xbe21f71a	-0.15816918
162	0xbe078d7f	-0.1323757
163	0x3e2c9e04	0.16857153
164	0x3c6da871	0.014505492
165	0xbed3f8a3	-0.41400632
166	0x3eb8e17c	0.3610953
167	0x3eb0c731	0.3452697
168	0x3ec70327	0.38869593
169	0xbeb8cd18	-0.36093974
170	0xbecb01ce	-0.39649814
171	0xbeb839bd	-0.3598155
172	0xbe8054b3	-0.2506462
173	0xbe9f4c2f	-0.3111281
174	0xbd99db14	-0.07512489
175	0x3ebdbd0e	0.370583
176	0x3e4b89f2	0.1987684
177	0xbe580b8c	-0.21098155
178	0x3ea1407b	0.31494507
179	0x3d2785ad	0.040898968
180	0xbea87381	-0.32900622
181	0xbe5316d9	-0.20614184
182	0xbece9374	-0.40346873
183	0xbe17c35f	-0.14820622
184	0xbeec823d	-0.46193114
185	0x3e53ce60	0.20684195
186	0x3ea922de	0.33034414
187	0xbde5e9f0	-0.11226261
188	0xbdb26830	-0.087112784
189	0xbea149d9	-0.31501654
190	0x3eb2cf11	0.34923604
191	0x3cc3ff4b	0.023925444
192	0xb8d2c274	-0.000100498
193	0x3eca40f3	0.39502677
194	0xbe532e3e	-0.20623109
195	0xbe62f2d1	-0.2216294
196	0xbe1483d2	-0.1450341
197	0xbcc42345	-0.0239426
198	0xbdc72393	-0.09723582
199	0xbea0d954	-0.31415808
200	0x3d4bf256	0.049791656
201	0x3e2a2ad8	0.16617906
202	0x3eb32d7e	0.34995645
203	0xbabd1064	-0.001442444
204	0x3e677908	0.22604764
205	0xbd77392b	-0.060357254
206	0x3e5f6f75	0.21819861
207	0x3dc58ef4	0.09646407
208	0x3eb13ebc	0.34618175
209	0x3e5631ad	0.20917387
210	0x3d80b1f4	0.06283942
211	0x3deaf02e	0.11471592
212	0x3eb2d5d1	0.34928754
213	0xbed6635f	-0.4187269
214	0xbcb55db0	-0.0221394
215	0xbe1a87fa	-0.15090933
216	0xbe14b901	-0.14523698
217	0xbd99a669	-0.07502443
218	0xbedf44f3	-0.43607292
219	0x3eaf5324	0.3424312
220	0x3da43de0	0.08019614
221	0xbeade1ff	-0.33961484
222	0x3e3ab7f4	0.18234235
223	0xbe3c2576	-0.18373665
224	0xbea82810	-0.32843065
225	0x3e476fbc	0.19476217
226	0xbd5d0adf	-0.053965446
227	0x3e6237bd	0.22091575
228	0x3e51c347	0.20484649
229	0xbe4a4242	-0.19751838
230	0xbde3a362	-0.11115147
231	0x3db1d16f	0.086825244
232	0xbdb2d009	-0.08731086
233	0xbdaefc37	-0.085442
234	0xbef1dfda	-0.47241098
235	0xbddb8995	-0.10719601
236	0x3ea4ea4a	0.32209998
237	0xbe8462e9	-0.25856712
238	0x3ecf01c3	0.40431032
239	0x3e967389	0.2938502
240	0xbd793ba6	-0.0608479
241	0x3e390302	0.18067554
242	0x3dc839f1	0.097766764
243	0xbe33ac77	-0.17546259
244	0x3e8613e9	0.26187065
245	0xbe371497	-0.17878948
246	0xbe3fe520	-0.18739748
247	0x3e880a75	0.26570478
248	0xbe1b45bf	-0.15163325
249	0x3ea33bc3	0.31881532
250	0xbecfb8c7	-0.4057066
251	0xbc330f8f	-0.010929002
252	0x3d4143cb	0.047183793
253	0xbd138770	-0.036017835
254	0x3e02b231	0.12763287
255	0xbd9e74f0	-0.07737148

net.2.weight f4 [256, 256]
0	0xbd5eecb6	-0.054424964
1	0xb8fc1d07	-0.00012021703
2	0xbd715db2	-0.058927245
3	0xbcff767c	-0.031184427
4	0x3d02a970	0.03189987
5	0xbc7aed03	-0.015315297
6	0x3c09f872	0.00842105
7	0xbbf2e859	-0.007412952
8	0xba658e41	-0.0008756854
9	0x3c8ed939	0.017437564
10	0xbd30c516	-0.043156706
11	0x3cc50c78	0.024053797
12	0xbb70007c	-0.0036621382
13	0xbd57733c	-0.05260013
14	0x3d52e020	0.051483274
15	0x3d064628	0.03278175
16	0x3d4566d6	0.048193775
17	0xbd08dd18	-0.033413976
18	0x3cc44a70	0.023961276
19	0xbd24aea3	-0.04020561
20	0xbd22cb04	-0.039744392
21	0xbcd0b530	-0.025477022
22	0x3cc6aa5f	0.024251161
23	0xbcc40c71	-0.023931714
24	0xbcab70d6	-0.020927828
25	0xbc4cb73e	-0.01249486
26	0xbd4d2e9d	-0.050093282
27	0x3d0e2c45	0.034710187
28	0xbd440f45	-0.047866125
29	0x3d1774e3	0.036976706
30	0xbd060b56	-0.032725655
31	0xbc29383a	-0.010328347
32	0xbd375b89	-0.04476503
33	0xba8abb40	-0.0010584369
34	0x3d244eec	0.04011433
35	0xbd646b51	-0.055766407
36	0xbd51abbd	-0.051189173
37	0x3d4314cb	0.04762725
38	0xbd4d0251	-0.050051037
39	0x3a92f254	0.0011211135
40	0xbcc30af0	-0.023808926
41	0x3cd53dd5	0.02603046
42	0x3b744456	0.0037272177
43	0x3af93ede	0.0019015928
44	0xbd26fa71	-0.040766183
45	0x3d3cea09	0.04612163
46	0x3d4c3ea5	0.04986443
47	0x3c70c810	0.014696136
48	0xbcf262a8	-0.029588059
49	0x3ca36338	0.019944772
50	0x3d6008cc	0.05469589
51	0x3d084d26	0.0332767
52	0xbce7a829	-0.028278427
53	0x3d6dbd12	0.05804164
54	0x3d496942	0.049172647
55	0x3c821aee	0.015881982
56	0x3ba5f817	0.005064975
57	0x3c1ade6f	0.009452446
58	0x3b1b2b80	0.002367705
59	0x3caeb4d8	0.021326467
60	0x3d72aaac	0.059244797
61	0x3a403be7	0.0007333145
62	0x3c8aceae	0.016944256
63	0x3d48779d	0.048942197
64	0x3d09becc	0.033629224
65	0x3c46841b	0.012116457
66	0xbcbdd130	-0.023171037
67	0xbd39597f	-0.045251366
68	0xbd0c70a6	-0.034287117
69	0xbd03e22b	-0.032198112
70	0x3c6dce97	0.014514587
71	0xbc790918	-0.015199922
72	0xbd5e8275	-0.054323632
73	0x3d3d82a6	0.046267174
74	0xbb8aa400	-0.004230976
75	0x3d373ae4	0.044733897
76	0xbd6130ae	-0.054978065
77	0x3a02d08d	0.0004990183
78	0x3c945654	0.01810757
79	0x3d3111b0	0.04322976
80	0x3c9a4f05	0.018836508
81	0x3c79b163	0.015240046
82	0xbc91bc32	-0.017789934
83	0x3cd1c32a	0.025605757
84	0xbc3c7819	-0.011503243
85	0xbca21b8b	-0.019788524
86	0x3d343f25	0.04400553
87	0x3cde0e65	0.027106473
88	0xbc407df1	-0.011748777
89	0xbd423671	-0.0474152
90	0xbd2ce96e	-0.042214803
91	0x3d3450f4	0.044022515
92	0xbcf42a23	-0.029805249
93	0xbd5d750a	-0.054066695
94	0xbd86ef60	-0.06588626
95	0xbcc1f973	-0.023678517
96	0xbc70204e	-0.01465614
97	0xbd50232c	-0.050814793
98	0xbd2e8eda	-0.042616703
99	0xbd40778b	-0.046989005
100	0xbd8d3305	-0.06894497
101	0x3d631f8a	0.05545
102	0x3d63e091	0.055634085
103	0xbb37cd53	-0.0028045967
104	0x3d476a5b	0.048685413
105	0x3cc6af08	0.024253383
106	0xbc794cc4	-0.015216056
107	0x3d0740b2	0.033020683
108	0xbcbd9fbc	-0.023147456
109	0xbd82f4e7	-0.06394368
110	0x3cbc5916	0.022991698
111	0x3d1cf302	0.038317688
112	0xbc360ff6	-0.011112204
113	0xbd67cb88	-0.056590587
114	0x3c8331fb	0.016015043
115	0x3b6452cc	0.003483939
116	0x3d0023b1	0.031284038
117	0x3b66c500	0.0035212636
118	0x3d383e15	0.04498108
119	0x3d002f84	0.031295314
120	0xbd568d48	-0.05238083
121	0xbc34df50	-0.01103957
122	0x3d359a89	0.04433683
123	0x3d2cf8a6	0.042229317
124	0x3cfd295c	0.03090351
125	0xbc616828	-0.013757743
126	0xbca68752	-0.020328198
127	0xbce3956c	-0.02778121
128	0xbb645804	-0.00348425
129	0xbc445586	-0.011983281
130	0xbd47a1b0	-0.04873818
131	0xbbaa3460	-0.005194232
132	0x3bd6c097	0.00655372
133	0x3d2bb944	0.04192473
134	0xbd051260	-0.032488227
135	0x3cf13dea	0.029448468
136	0x3d3d8fb6	0.04627963
137	0xbc167120	-0.009182245
138	0xbd514e06	-0.0510998
139	0xbd40d5d8	-0.047078937
140	0xbcd5a06a	-0.026077468
141	0xbd7bce6d	-0.06147616
142	0xbbc3b6ff	-0.0059727426
143	0x3d240602	0.040044792
144	0xbd03c8a4	-0.032173768
145	0xbc988d91	-0.018622192
146	0x3d688794	0.056769922
147	0x3cc2f328	0.023797587
148	0x3d3fc0ba	0.046814658
149	0x3cfd7960	0.030941665
150	0xbbc9d9ea	-0.0061600106
151	0x3d2c9f2e	0.042143993
152	0xbc91f212	-0.017815623
153	0xbd40b9c7	-0.04705217
154	0xbd854a90	-0.06508362
155	0xbd48b5b4	-0.04900141
156	0xbd2a0168	-0.041505247
157	0x3d489bc8	0.04897669
158	0xbd21fb32	-0.0395462
159	0xbd876578	-0.066111505
160	0x3cdaa888	0.02669169
161	0xbca19e7c	-0.019728892
162	0xbcb259b3	-0.021771288
163	0xbd349d3c	-0.044095263
164	0x3c87ecef	0.01659247
165	0x3c8aa1ea	0.01692291
166	0xbd38d5ae	-0.045125656
167	0x3d5c4442	0.053776033
168	0xbd38df39	-0.045134757
169	0x3d1b5cf7	0.037930455
170	0xbd70a07a	-0.058746792
171	0x3d331c30	0.043728054
172	0xbd4766e5	-0.048682112
173	0x3c82fe24	0.015990324
174	0xbd20f602	-0.03929711
175	0xbd49d201	-0.04927254
176	0x3d1e105c	0.03858982
177	0x3d08284e	0.033241563
178	0x3d5d2eae	0.053999595
179	0x3d0ac87c	0.033882603
180	0xbcc3b4e4	-0.023889966
181	0xbca0dfa0	-0.019637883
182	0xbcbb3a48	-0.02285494
183	0xbd78465f	-0.060613986
184	0xbc1417f8	-0.009038918
185	0x3ced031c	0.028932147
186	0x3d579687	0.05263379
187	0xbd62e438	-0.055393428
188	0x3cae1bed	0.02125355
189	0xbd89bb9e	-0.06725238
190	0x3c5bc950	0.013414696
191	0x3b52bc20	0.0032155588
192	0x3cf7b560	0.030237854
193	0xbbeb63bf	-0.0071835215
194	0x3d31211c	0.043244466
195	0xbd0870db	-0.033310752
196	0x3c3b7236	0.011440804
197	0x3cd32165	0.02577276
198	0x3cdbd2d8	0.026833937
199	0x3cc57464	0.024103351
200	0xbca811e7	-0.020516349
201	0x3d51baf6	0.05120369
202	0xbd5dad7f	-0.054120537
203	0xbc39c891	-0.011339323
204	0x3ca5d511	0.0202432
205	0x3c956035	0.018234352
206	0xbcdbc01b	-0.026825001
207	0xbc48f1c0	-0.012264669
208	0x3d49905c	0.049209937
209	0x3ba61903	0.0050688996
210	0xba6b1647	-0.0008967858
211	0x3d1448ec	0.036202356
212	0xbd3dee48	-0.04636982
213	0xbcc3347c	-0.023828737
214	0xbc975e1c	-0.018477492
215	0xbc00dec8	-0.007865615
216	0xbcdd36ec	-0.027003728
217	0xbd22eba2	-0.0397755
218	0x3d29e0a7	0.04147401
219	0xbd3743b1	-0.04474229
220	0x3d4ab61d	0.049490083
221	0xbc8d3f23	-0.01724202
222	0x3c7d264d	0.015451026
223	0x3d29acb6	0.041424476
224	0x3cfe6888	0.031055704
225	0x3d327b8b	0.04357485
226	0xbd89d9e3	-0.06731012
227	0xbd73b156	-0.059495293
228	0xbd8c4b90	-0.0685035
229	0xbd30a71b	-0.043128114
230	0x3bdb3901	0.006690145
231	0x3b7cb1b4	0.0038558068
232	0xbcb3b49b	-0.021936705
233	0xbd269cfe	-0.040677063
234	0xbcf92aad	-0.030415857
235	0x3d789601	0.06068993
236	0xbd6cf2ab	-0.057848614
237	0x3d3a243c	0.045444712
238	0xbd605aad	-0.054773975
239	0xbd389247	-0.045061376
240	0xbd5aa95a	-0.053384162
241	0x3d631cbc	0.055447325
242	0xbd6863c3	-0.056735765
243	0xbd32ae64	-0.043623343
244	0xbd36d0ee	-0.044632845
245	0x3d04415c	0.032288894
246	0xbd258e37	-0.04041883
247	0xbd4c70ca	-0.04991225
248	0x3ce0b8e2	0.027431909
249	0x3c998634	0.01874075
250	0xbca6c69c	-0.020358376
251	0x3b1ae99a	0.0023637773
252	0xbc19df53	-0.009391624
253	0x3cb1be04	0.021697052
254	0xbd627b66	-0.055293463
255	0xbd727e74	-0.059202626

net.2.bias f4 [256]
0	0x3c3abb51	0.011397199
1	0xbd9cf8f7	-0.07664674
2	0xbdac2438	-0.08405346
3	0x3d1bbc50	0.038021386
4	0x3ce16092	0.027511869
5	0xbaa2302d	-0.0012373977
6	0x3d016be4	0.031597033
7	0xbd91c3d4	-0.071174294
8	0xbcc8dc11	-0.024518998
9	0x3e2aba0f	0.16672538
10	0x3d09ee9c	0.03367482
11	0xbd75914e	-0.059953026
12	0x3d9bf1e3	0.076144956
13	0xbd0ba543	-0.034093153
14	0x3db9a43c	0.09064528
15	0xbd5fcfb1	-0.05464143
16	0x3cfcd879	0.030864941
17	0x3d4e29de	0.050332896
18	0x3dee6189	0.11639697
19	0xbc51d01a	-0.012805963
20	0x3d1e7528	0.038685948
21	0x3d197b1c	0.037470922
22	0x3daef262	0.085423246
23	0xbd1f9855	-0.038963635
24	0xbd88e63d	-0.066845395
25	0xbd75c91e	-0.060006253
26	0xbca25396	-0.019815248
27	0x3c8205d6	0.015871923
28	0xbe257984	-0.16159636
29	0xbd0e52d1	-0.03474695
30	0x3d02e182	0.031953342
31	0x3dfdbd9a	0.12389679
32	0xbc5b4bf8	-0.013384812
33	0x3e1578ab	0.14596812
34	0x3d1541a6	0.03643956
35	0x3cb24081	0.021759273
36	0x3da1bf87	0.07897859
37	0xbe07a60b	-0.13246934
38	0x3d8ebb05	0.06969265
39	0xbd239a9a	-0.03994236
40	0x3cf01fe7	0.029312087
41	0x3d14f5fe	0.03636741
42	0xbd7afa72	-0.061274
43	0x3db6cee9	0.08926184
44	0xbcd0ba64	-0.025479503
45	0x3dab0f92	0.08352579
46	0x3cbb6fea	0.022880513
47	0x3d2d2e40	0.042280436
48	0x3e10b89e	0.14132926
49	0xbd7807b9	-0.06055424
50	0x3d217f0e	0.03942781
51	0x3e17b867	0.14816438
52	0x3d06f2b4	0.032946303
53	0x3cc3ed18	0.023916766
54	0x3d67ecb7	0.056622233
55	0xb999cdc4	-0.0002933574
56	0xbd5e53fb	-0.05427931
57	0xbc28ef9e	-0.010311035
58	0x3d7fb140	0.0624249
59	0x3cd9b20c	0.026574157
60	0x3db6bde8	0.089229405
61	0xbd461ca7	-0.04836717
62	0x3b18aa9e	0.0023295055
63	0x3d94bd3c	0.07262656
64	0x3cef5e95	0.029219905
65	0x3d3f70d1	0.04673845
66	0x3c3e4eb6	0.011615446
67	0xbd79aa3f	-0.060953375
68	0xbd93fe43	-0.07226231
69	0x3cc05440	0.023477674
70	0x3d727990	0.059197962
71	0x3cf40dd9	0.02979176
72	0x3d0f866e	0.03504031
73	0xbcd710f1	-0.026253195
74	0xbd583443	-0.052784216
75	0x3cfeb244	0.031090863
76	0xbd9bb1bc	-0.076022595
77	0xbda1c428	-0.07898742
78	0xbd62d730	-0.055381
79	0xbd15bfd7	-0.036559906
80	0xbc8af641	-0.016963126
81	0x3e16b310	0.14716744
82	0x3d9cf876	0.07664578
83	0xbbda8489	-0.0066686315
84	0xbd415d89	-0.047208343
85	0xbc7b994b	-0.015356372
86	0xbd462272	-0.048372693
87	0x3d358f86	0.044326328
88	0x3d3a53e5	0.045490164
89	0x3d9d495e	0.07680009
90	0x3d3be9bf	0.045877215
91	0x3e465969	0.19370045
92	0x3cf17741	0.02947581
93	0xbca9597d	-0.020672554
94	0xbd6f3a6e	-0.058405332
95	0xbbeb33dc	-0.007177813
96	0x3d617b24	0.055049077
97	0x3db8bdce	0.09020577
98	0x3c8ca108	0.01716663
99	0x3d541e67	0.051786806
100	0xbc9fa4a2	-0.019487683
101	0x3c834540	0.016024232
102	0xbcdd44b5	-0.027010301
103	0x3c7c3633	0.0153937815
104	0x3cce9389	0.025216835
105	0x3e12023d	0.14258666
106	0xbdb3671e	-0.087599024
107	0xbd5d8056	-0.05407747
108	0xbc9726b7	-0.018451078
109	0xbd1bab7c	-0.038005337
110	0x3d1ce87d	0.038307656
111	0xbd5bd5ec	-0.05367081
112	0xbd97ad34	-0.07406083
113	0x3bafd0a5	0.0053654485
114	0xbbcd1d5f	-0.006259605
115	0x3c8a25b4	0.016863681
116	0x3bece805	0.0072298073
117	0xbce26b3b	-0.027639022
118	0x3e1e3bb3	0.15452461
119	0x3b407340	0.002936557
120	0xbd5c3aa2	-0.053766854
121	0x3ac4aac4	0.0015004505
122	0x3d18378a	0.03716234
123	0x3dadb76a	0.08482249
124	0x3dd56516	0.10419671
125	0x3e2316ea	0.1592671
126	0x3c8aa39c	0.016923718
127	0x3db9b3da	0.09067507
128	0x3cbd0ef0	0.023078412
129	0x3ca09ad0	0.01960507
130	0x3d006aba	0.031351782
131	0x3d018226	0.03161826
132	0x3d052cda	0.032513477
133	0xbd7ab06e	-0.061203413
134	0xbd5d138f	-0.05397373
135	0x3e03c598	0.12868345
136	0x3de70d51	0.11281837
137	0xbd8cc5be	-0.06873654
138	0xbc570058	-0.013122641
139	0xbd8558fb	-0.06511112
140	0x3cf8e1ab	0.030381044
141	0xbd4bb6d6	-0.049734913
142	0x3e0a9fbb	0.13537495
143	0xbd784bf6	-0.060619317
144	0xbcc78ec9	-0.024360077
145	0xbd1c985d	-0.038231242
146	0xbd4d5df4	-0.05013843
147	0xbd68def9	-0.05685327
148	0xbce00118	-0.027344272
149	0xbb7080a2	-0.0036697765
150	0x3d3849eb	0.04499237
151	0xbd722ff8	-0.059127778
152	0xbd063cbc	-0.032772765
153	0xbd1c6084	-0.038177982
154	0x3dbb985f	0.09159922
155	0x3df9a981	0.121905334
156	0xbd8585b5	-0.06519643
157	0x3cdf8558	0.027285263
158	0xb96be808	-0.00022497785
159	0xbc9ded94	-0.019278325
160	0x3d4db372	0.05021996
161	0x3e40caa1	0.18827297
162	0x3e15a4c4	0.14613634
163	0x3d99da6a	0.07512362
164	0x3dd9ace3	0.10628679
165	0xbd71a9f6	-0.058999978
166	0x3bb0f59c	0.0054003727
167	0x3caf66b9	0.021411287
168	0xbd2ea898	-0.042641252
169	0xbb7ca674	-0.0038551362
170	0x3cca65c7	0.024706734
171	0x3ce668e1	0.028126182
172	0x3de41373	0.11136522
173	0x3d60fd24	0.054928914
174	0x3c725108	0.014789827
175	0x3d2b9d0c	0.04189782
176	0xbd8bf517	-0.068338566
177	0x3d3ef206	0.04661753
178	0x3c87667b	0.016528359
179	0x3d3339d7	0.043756332
180	0xbd697878	-0.056999654
181	0x3c4e69dc	0.012598481
182	0xbc0b2708	-0.0084931925
183	0x3cb68bf1	0.022283526
184	0x3c1b006b	0.009460549
185	0x3cd64671	0.026156636
186	0x3e2526d0	0.16128087
187	0xbc4a9fd5	-0.0123672085
188	0xbd24179a	-0.04006157
189	0x3c8af63c	0.016963117
190	0x3bf88494	0.007584164
191	0xbd125055	-0.03572114
192	0xbd5063cd	-0.050876427
193	0xbd1c0c33	-0.03809757
194	0x3d011a62	0.0315193
195	0x3d8c4866	0.068497464
196	0x3e360f1c	0.17779201
197	0xbd26c99a	-0.040719606
198	0xbc641433	-0.0139208315
199	0xbc788498	-0.015168332
200	0x3e3e33af	0.18574403
201	0x3e014197	0.12622677
202	0x3c03e651	0.008050517
203	0x3ce5b8c8	0.028042212
204	0xbc391375	-0.011296143
205	0xbcb97fb4	-0.022643901
206	0x3c6ee2c6	0.014580434
207	0x3d382c09	0.04496387
208	0xbd870bb8	-0.06594032
209	0x3dcba3ae	0.09943329
210	0xbd895c7e	-0.067070946
211	0xbe02a20d	-0.1275713
212	0x3d930541	0.071787365
213	0x3ce499d1	0.027905377
214	0x3bddba9e	0.0067666313
215	0xbd731da1	-0.05935443
216	0xbcfa7a20	-0.030575812
217	0xbd0425d5	-0.032262642
218	0xbce66b81	-0.028127434
219	0xbd76ae3f	-0.060224768
220	0x3e259124	0.16168648
221	0xbb61de27	-0.0034464689
222	0x3dc85da3	0.09783485
223	0x3db13fef	0.086547725
224	0xbd2f202f	-0.042755302
225	0xbd437a51	-0.047724072
226	0x3d8e101a	0.06936665
227	0x3c2d9e7a	0.010596866
228	0xbc546bc6	-0.012965148
229	0xbc5b251f	-0.01337555
230	0x3d07c67c	0.033148274
231	0xbb540e6c	-0.003235723
232	0xbdafeb18	-0.085897624
233	0x3ca95513	0.02067045
234	0xbcc1b741	-0.023646953
235	0x3e2695d0	0.16268086
236	0x3cdc0c94	0.026861466
237	0x3d6e328e	0.05815368
238	0x3cfb39d7	0.030667229
239	0xbcb92774	-0.02260182
240	0x3dae4da5	0.08510903
241	0x3d2f37f2	0.042777963
242	0x3d81df59	0.06341428
243	0x3d38ff2b	0.045165222
244	0xbd878f0b	-0.0661908
245	0xbc981677	-0.0185654
246	0x3e17da71	0.14829423
247	0x3e28e01b	0.1649174
248	0x3cbf768d	0.02337196
249	0xbc10d5e8	-0.008840062
250	0x3c39a395	0.011330505
251	0x3d2fb982	0.042901523
252	0xbd047135	-0.032334525
253	0x3ce2a08e	0.027664449
254	0xbcc9b391	-0.024621757
255	0x3dd5a05e	0.10430978

actor.weight f4 [1, 256]
0	0x3c33ccf6	0.010974159
1	0x3ccfd22c	0.025368772
2	0x3d702491	0.058628622
3	0xbd32d528	-0.043660313
4	0x3f033197	0.51247543
5	0x3c539317	0.012913487
6	0x3d3ebfa7	0.046569493
7	0xbc6f94fd	-0.014622924
8	0x3b8a5949	0.0042220694
9	0x3dc14e84	0.09438804
10	0xbcbb62d4	-0.022874273
11	0xbc5c4bbf	-0.013445794
12	0x3efcc43d	0.49368468
13	0xbb8a57b9	-0.004221883
14	0x3eb9d2ae	0.36293548
15	0x3cc67c1c	0.024229102
16	0x3eed3179	0.46326807
17	0xbbe18760	-0.006882593
18	0xbddd734a	-0.10813005
19	0x3d4d372b	0.05010144
20	0x3d4914c2	0.04909206
21	0xbea14fad	-0.315061
22	0x3eb489cb	0.35261378
23	0xbd0f8de2	-0.03504742
24	0xbebf32f6	-0.37343568
25	0xbb6f57ba	-0.0036520795
26	0x3d567b8e	0.052363925
27	0xbca118eb	-0.019665202
28	0xbeaf77dc	-0.34271133
29	0xbe7346cb	-0.23757474
30	0x3ca03185	0.019554863
31	0x3e8877d4	0.26653922
32	0x3d3706b0	0.044684112
33	0xbce6a7dd	-0.028156215
34	0xbe9edac6	-0.31026286
35	0xbe722886	-0.23648271
36	0x3ef0471d	0.46929255
37	0x3e697110	0.22797036
38	0xbe4d011e	-0.20019957
39	0x3c035298	0.008015297
40	0x3dd55aee	0.10417734
41	0xbea57b6c	-0.32320726
42	0x3d5a81c2	0.053346403
43	0xbbd12bc3	-0.0063833906
44	0xbd3a8406	-0.045536064
45	0x3f14d3e8	0.58135843
46	0xbbf8957c	-0.0075861793
47	0xbe8527a6	-0.26006812
48	0x3e215ddb	0.1575846
49	0x3d9542a8	0.07288104
50	0xbce23945	-0.027615199
51	0x3e36ce9f	0.17852257
52	0x3edea729	0.43486908
53	0xbe991eed	-0.29906407
54	0x3ecb0420	0.39651585
55	0xbd279da8	-0.040921837
56	0xbeb2dd7c	-0.34934604
57	0xbc9e7359	-0.019342111
58	0xbc093690	-0.008374825
59	0xbcf5b284	-0.02999235
60	0x3de6e7b7	0.11274665
61	0x3cc54291	0.024079593
62	0x3e9e7837	0.30951092
63	0xbe6c9bb6	-0.23106274
64	0xbfa0a40a	-1.2550061
65	0x3ce11442	0.02747548
66	0xbe853d86	-0.260235
67	0xbd537d4c	-0.051633164
68	0x3c077c25	0.008269344
69	0xbebb8d01	-0.36631015
70	0x3dbc9511	0.0920812
71	0x3e169fd2	0.14709404
72	0x3d51c6e3	0.051215064
73	0xbbe34a4d	-0.0069363476
74	0x3ccef4dd	0.025263244
75	0x3d0aabbf	0.033855196
76	0x3be82c76	0.0070853783
77	0x3c5da430	0.013527915
78	0xbd9b9286	-0.075963065
79	0xbe71f328	-0.23627913
80	0x3f02a2dd	0.5102976
81	0xbdfd10a9	-0.12356693
82	0xbeb3cad8	-0.35115695
83	0xbebf6c74	-0.3738743
84	0x3b888e3c	0.0041673463
85	0xbc4fafd3	-0.012676197
86	0xbd37b724	-0.04485239
87	0x3d28689c	0.04111539
88	0xbe7b7e20	-0.24559832
89	0x3ebb594b	0.36591563
90	0x3ce95dcc	0.028487109
91	0x3bfa9313	0.007646927
92	0x3d3b4ec4	0.045729414
93	0x3c99c605	0.01877118
94	0xbd55fc06	-0.0522423
95	0x3ef99ad8	0.4875095
96	0x3d68f38c	0.05687289
97	0x3e58ea4a	0.21183124
98	0xbe6307b7	-0.22170912
99	0xbd2d0e5b	-0.04225002
100	0x3d81989f	0.06327938
101	0x3be54505	0.006996753
102	0xbc0a87c2	-0.008455219
103	0x3bbc3528	0.0057436414
104	0x3b92bd7d	0.004478155
105	0xbe2bb71a	-0.16769066
106	0x3d8b75c5	0.06809572
107	0x3e1aefe3	0.15130572
108	0x3d75ec50	0.06003982
109	0x3be55560	0.006998703
110	0x3ce9eded	0.028555835
111	0x3c21007a	0.009826774
112	0x3b9b5bda	0.004741174
113	0x3b9c7a97	0.004775356
114	0xbaec021d	-0.0018006001
115	0x3ef689bd	0.4815196
116	0x3ada0306	0.0016632981
117	0xbb74c1c6	-0.0037346943
118	0x3d89dcac	0.06731543
119	0xba5815ea	-0.00082430115
120	0x3d37d132	0.04487724
121	0x3d1d4465	0.038395304
122	0x3d555ff3	0.052093457
123	0xbe427189	-0.18988623
124	0x3ce0c40d	0.027437234
125	0x3cc45bfa	0.02396964
126	0x3d59143b	0.05299781
127	0xbdc838ad	-0.09776435
128	0x3d03f5e3	0.032216918
129	0xbc17dae0	-0.009268492
130	0xbc039ee8	-0.008033492
131	0xbd09b753	-0.033622097
132	0x3d409758	0.047019333
133	0xbe9ba3b6	-0.3039834
134	0xbc061364	-0.008183334
135	0x3e01a2e4	0.12659794
136	0xbe1b0b10	-0.15140939
137	0xbd067840	-0.032829523
138	0xbd294190	-0.04132229
139	0x3d3d35f2	0.046194024
140	0xba9cfd4e	-0.0011977346
141	0xbec2581c	-0.37957847
142	0x3e3cb272	0.18427446
143	0xbca9bf00	-0.020720959
144	0x3bee439c	0.0072712433
145	0xbc86916a	-0.01642676
146	0x39887900	0.00026030093
147	0x3d7516bd	0.059836138
148	0xbd0c60e1	-0.03427208
149	0xbe5d19a3	-0.21591811
150	0x3cbcbcbc	0.023039214
151	0x3ddb5b9f	0.10710835
152	0xbb9c6ca8	-0.004773695
153	0xbd290371	-0.041263048
154	0x3eddb5cc	0.43302763
155	0xbc6ac1c3	-0.014328423
156	0x3cb9a820	0.022663176
157	0x3da38b4d	0.07985554
158	0x3f11479f	0.5674991
159	0x3d2259a0	0.039636254
160	0x3cfd8d4d	0.030951167
161	0x3d44bbaa	0.048030533
162	0xbd958084	-0.07299903
163	0x3e9a40bd	0.30127516
164	0x3e460447	0.19337569
165	0x3cd936c4	0.026515372
166	0xbe8f4b55	-0.2798716
167	0x3eeff655	0.46867624
168	0x3d25ca31	0.040476028
169	0x3ee31781	0.4435387
170	0x3cb36951	0.021900805
171	0x3ebd6a8c	0.3699535
172	0x3d3ae806	0.04563143
173	0x3ef7d6b6	0.48406
174	0x3d4f75ce	0.050649457
175	0x3a047a94	0.0005053666
176	0xbd3fa49f	-0.046787854
177	0xbea4c0cc	-0.32178342
178	0xbea541c3	-0.32276735
179	0x3dec1f65	0.115294255
180	0x3d44128e	0.047869258
181	0x3d31efa2	0.043441422
182	0xbe7308d8	-0.23733842
183	0x3da2251e	0.07917236
184	0x3dc7c802	0.09754945
185	0x3c48c8f9	0.012254947
186	0x3e1f1370	0.15534759
187	0x3eeab72c	0.45842874
188	0x3c14a538	0.009072594
189	0x3efb51e4	0.49085915
190	0xbd21c099	-0.039490316
191	0xbe816869	-0.2527497
192	0xbd0cb189	-0.034349
193	0xbe9e63b5	-0.30935445
194	0xbca677ad	-0.020320738
195	0xbce3738d	-0.02776506
196	0x3e122396	0.14271387
197	0xbcda7370	-0.026666373
198	0x3ca5d2d6	0.020242136
199	0x3c109d88	0.008826621
200	0x3dc7941d	0.09745047
201	0xbe137ba5	-0.14402635
202	0xbd846222	-0.0646403
203	0x3c188362	0.009308668
204	0xbe4cf0dc	-0.20013756
205	0xbb482e41	-0.0030545148
206	0xbd5a0dce	-0.05323582
207	0xbe5b263f	-0.21401308
208	0xbd386b2b	-0.04502408
209	0x3c6c0abb	0.014406855
210	0xbeeaf7cc	-0.4589218
211	0x3dd31a2f	0.103077285
212	0x3dbef77c	0.09324548
213	0x3e9aa7ac	0.30206048
214	0xbe92ba4c	-0.28657758
215	0x3c29baec	0.010359507
216	0x3bb9e298	0.005672764
217	0x3d2c4ebb	0.04206727
218	0x3c613c5c	0.013747301
219	0xbc60b8f4	-0.013715971
220	0x3c4c8648	0.012483187
221	0x3e27d8ef	0.16391347
222	0x3e156c45	0.14592083
223	0xbca633b7	-0.020288331
224	0xbd324c8b	-0.04353003
225	0xbc45ae30	-0.012065455
226	0x3e2c9d04	0.16856772
227	0xbd1f557a	-0.038899876
228	0x3c96bcf1	0.018400641
229	0xbea6a82e	-0.32550186
230	0xbcf1c5e6	-0.02951331
231	0xbd3fe5f6	-0.046850167
232	0xbd923ee0	-0.07140899
233	0x3eeb445f	0.459506
234	0x3d46572d	0.04842298
235	0x3e4dda0a	0.20102707
236	0xbd6b3d5a	-0.057431556
237	0x3edb3096	0.42810506
238	0x3ca1184a	0.019664902
239	0x3ef39ced	0.47580662
240	0x3ebda18b	0.3703731
241	0xbecd40c1	-0.40088466
242	0x3e4cb8c3	0.19992356
243	0x3d10d67c	0.0353608
244	0x3d5ae94d	0.05344515
245	0xbd4769bd	-0.048684824
246	0xbc2b28d1	-0.010446743
247	0xbdf2121f	-0.118198626
248	0xbd39530d	-0.04524522
249	0xbe96b01a	-0.2943123
250	0xbd583c1a	-0.052791692
251	0xbe22d88a	-0.15902916
252	0xbbdd47ce	-0.0067529446
253	0xbca86157	-0.020554228
254	0x3e5da2a8	0.2164408
255	0x3dbdac25	0.092613496

critic.weight f4 [1, 256]
0	0xbd0169a8	-0.031594902
1	0xbd9f1666	-0.07767944
2	0xbe69ab17	-0.22819172
3	0x3d31644f	0.043308552
4	0x3c1fea0b	0.00976039
5	0x3c392a56	0.011301598
6	0xbca82d77	-0.020529492
7	0x3d090cb1	0.03345937
8	0xbc3f7a42	-0.011686863
9	0x3d902929	0.07039101
10	0xbc81af42	-0.01583064
11	0xbcc5daee	-0.024152245
12	0x3c0e22a3	0.00867525
13	0xbc88920f	-0.016671209
14	0x3beb881a	0.0071878554
15	0x3b82fc99	0.003997397
16	0x3bb858cd	0.0056258203
17	0xbd487b9b	-0.048946004
18	0x3d9ebf7b	0.07751366
19	0xbb0f22ef	-0.002184089
20	0xbda5d443	-0.08097126
21	0x3cbecd64	0.023291297
22	0x3c380eb6	0.011233976
23	0xbd0eaa52	-0.0348304
24	0x3b56154b	0.00326665
25	0xbc2ec468	-0.010666944
26	0x3d2810e2	0.041031726
27	0xbce27817	-0.027645154
28	0xbdad3e2d	-0.08459125
29	0x3d0691b0	0.032853782
30	0xbc7e6394	-0.015526671
31	0x3c8ffa83	0.017575508
32	0x3c2fc290	0.01072754
33	0x3dcb559c	0.09928438
34	0xbc35f049	-0.011104652
35	0xbbac49a3	-0.0052578016
36	0x3c6d712d	0.014492315
37	0xbe344038	-0.17602623
38	0x3d380cc6	0.044934057
39	0x3d7ce36a	0.061740316
40	0x3b867437	0.0041032094
41	0xbc04ad01	-0.008097888
42	0x3bd96980	0.006634891
43	0x3c80e1ea	0.015732724
44	0x3c80a76e	0.015704837
45	0x3cf53307	0.029931558
46	0x3d68782a	0.056755222
47	0xbc86d543	-0.016459113
48	0x3cf7e60e	0.030261066
49	0xbdf63112	-0.12021078
50	0x3cbd39fc	0.023098938
51	0x3d3545f7	0.044256177
52	0x3c1e1582	0.009648683
53	0xbc2eeefe	-0.010677097
54	0x3bb8dfeb	0.0056419275
55	0xbc4fba0f	-0.012678637
56	0x3af0198b	0.0018318159
57	0x3c1ad4b6	0.009450128
58	0x3b3e7a8f	0.002906475
59	0xbcabab2e	-0.020955648
60	0x3bb59a0c	0.0055420455
61	0x3d3cf9b2	0.046136566
62	0x3c817a90	0.015805513
63	0x3d039335	0.03212281
64	0x3e26992e	0.16269371
65	0x3ca93756	0.020656269
66	0x3ca057c3	0.019573098
67	0x3bf887df	0.0075845565
68	0xbd04431a	-0.032290556
69	0x3b974a70	0.004617028
70	0x3c5b8e2b	0.013400595
71	0x3c1d441e	0.00959876
72	0x3c0ef365	0.008725022
73	0xbcc54bb3	-0.024083948
74	0x3d5d6ac4	0.054056898
75	0x3ca892fa	0.020577896
76	0xbcdf9c81	-0.027296307
77	0xbde3c0c1	-0.11120749
78	0xbccc21f4	-0.024918534
79	0x3c04931e	0.008091716
80	0x3c37329b	0.011181499
81	0x3d5f3ca5	0.054501195
82	0x3de556a9	0.1119817
83	0xbc8578dd	-0.016292984
84	0x3d5c86df	0.05383956
85	0xbd581519	-0.052754495
86	0xbbde703a	-0.006788281
87	0x3d4ebdd6	0.05047401
88	0x3cfe5e50	0.031050831
89	0xbcb038e6	-0.021511506
90	0x3b4ea347	0.0031530426
91	0x3dc459c7	0.09587436
92	0x3d2dc627	0.0424253
93	0xbe25813d	-0.16162582
94	0xbba7d7f1	-0.005122178
95	0x3b9fb6b2	0.004874074
96	0x3d1c6b29	0.038188133
97	0x3c9d5777	0.019206746
98	0xbc5725cc	-0.01313157
99	0x3d468804	0.04846956
100	0xbc5d9aa7	-0.0135256415
101	0xbcadf7ee	-0.021236386
102	0xbceb2a0c	-0.028706573
103	0xbd1ba18f	-0.03799587
104	0x3d8b99b4	0.06816426
105	0x3d6c4f8c	0.05769305
106	0xbdf2a6d8	-0.11848229
107	0xbd3c669e	-0.0459963
108	0x3d392f43	0.045211088
109	0xbd610464	-0.054935828
110	0x3d303fa9	0.04302946
111	0xb8bd7a1e	-9.0349684e-05
112	0xbca2dc39	-0.019880401
113	0xbd1e63f6	-0.03866955
114	0xbcafae30	-0.021445364
115	0x3bccb8e1	0.006247625
116	0x3ca65b92	0.020307336
117	0xbd185a07	-0.03719523
118	0x3d9d3353	0.07675805
119	0xbd024fe8	-0.031814486
120	0xbcebabc2	-0.028768424
121	0x3d3254c3	0.043537866
122	0x3d883a6c	0.06651768
123	0x3cfc69da	0.030812193
124	0x3d2a3dc9	0.04156283
125	0x3d510aa5	0.051035542
126	0xbc6f6a8b	-0.014612804
127	0x3d5a134a	0.05324105
128	0x3c0254e3	0.007954809
129	0x3d2b0c36	0.041759692
130	0x3c8f9419	0.017526673
131	0x3b34db13	0.0027596399
132	0x3d5914ee	0.052998476
133	0xbc73e73a	-0.014886672
134	0x3d0358e3	0.03206719
135	0x3d9ceec3	0.07662728
136	0x3d1b3143	0.037888777
137	0xbe1892f8	-0.14899814
138	0xbc8ea0e4	-0.017410703
139	0xbcc43bc8	-0.023954287
140	0xbb008cf0	-0.0019615255
141	0x3bd6ed8f	0.006559081
142	0x3d7edcae	0.062222175
143	0x3d429273	0.047502946
144	0xbcc33a5a	-0.023831535
145	0x3bc56b73	0.006024772
146	0xbd1a4e56	-0.037672363
147	0x3d57c459	0.052677486
148	0xbbf4f659	-0.007475656
149	0xbc1230c3	-0.0089227585
150	0x3aa2daaa	0.0012424786
151	0xbe3e3cf3	-0.18577938
152	0x3b90dca3	0.004420833
153	0x3bc1dc64	0.005916165
154	0x3c04da6a	0.008108715
155	0x3db4274e	0.08796559
156	0x3d5037ec	0.05083458
157	0x3c2c1967	0.010504103
158	0x3b62e34a	0.0034620338
159	0x3d4afc31	0.049556915
160	0xbcc1b774	-0.023647048
161	0x3d779499	0.06044445
162	0x3ddff92f	0.109362
163	0x3cd8f74a	0.026485104
164	0x3c1afa8a	0.009459147
165	0x3d441f38	0.047881335
166	0xbc02e570	-0.0079892725
167	0x3c005c0c	0.007834446
168	0xbe6bea59	-0.23038615
169	0x3b9bc9ca	0.0047542797
170	0xbd0946a5	-0.033514638
171	0x3af8304e	0.0018935294
172	0x3d8310b5	0.06399671
173	0x3c2a2f60	0.010387272
174	0x3c492480	0.012276769
175	0x3c54242d	0.012948078
176	0xbc013dad	-0.00788824
177	0xbc22913a	-0.00992232
178	0xbbb6476c	-0.0055627134
179	0xbca6bd51	-0.020353945
180	0x3cc54d08	0.024084583
181	0xbbc99815	-0.006152163
182	0xbd0858ad	-0.033287693
183	0xbc25a10f	-0.0101092
184	0xbd9a50d0	-0.07534945
185	0x3d5dec4e	0.054180436
186	0x3d1a765f	0.037710544
187	0x3bbf058d	0.005829519
188	0x3cf22f48	0.029563561
189	0x3c28d802	0.0103054065
190	0xbc86309c	-0.0163806
191	0xbc5c2c2b	-0.013438265
192	0xbc888f3a	-0.016669858
193	0xbb2b4263	-0.00261321
194	0xbd85fe39	-0.0654263
195	0x3d6e92e8	0.05824557
196	0x3d9123a0	0.07086873
197	0x3d703196	0.05864104
198	0xbd07f4dd	-0.033192504
199	0xbd213314	-0.039355353
200	0x3da69edb	0.08135768
201	0x3da3ee35	0.08004419
202	0x3b6d2e22	0.0036190827
203	0xbc6faa0a	-0.014627943
204	0x3e84cf24	0.25939286
205	0xbb8df875	-0.004332597
206	0xbe3da21f	-0.18518876
207	0x3c89a252	0.016801033
208	0xbd3c241f	-0.045932885
209	0x3dae003d	0.08496139
210	0x3c1ec2db	0.009690012
211	0xbe848922	-0.25885874
212	0x3c89d911	0.016827138
213	0xbd47a5d0	-0.048742115
214	0xbab5e37c	-0.0013877
215	0xbafff89e	-0.001952905
216	0x3c99b85e	0.018764671
217	0x3d2229ff	0.03959083
218	0xbd367a2c	-0.044550106
219	0xbd5c60fe	-0.053803436
220	0x3d55e8c8	0.05222395
221	0x3ce0dc06	0.027448665
222	0x3d8906b0	0.06690729
223	0x3d5ab2c8	0.053393155
224	0xbc8a7acc	-0.016904257
225	0x3d49a1ac	0.049226448
226	0x3d39f8fb	0.045403462
227	0xbbcd1267	-0.0062582972
228	0xbc14e8d7	-0.0090887165
229	0xbc5e5050	-0.013568953
230	0xbb676783	-0.00353095
231	0x399e876d	0.00030237008
232	0xbca4a325	-0.020097325
233	0x3c3f838c	0.011689078
234	0x3c7a3b07	0.015272862
235	0x3d321fb3	0.043487262
236	0xbca5b23a	-0.020226587
237	0x3c8ee6f2	0.017444108
238	0xbcb87b6f	-0.022519795
239	0x3c3e6afb	0.011622186
240	0x3cb2354f	0.021753935
241	0xbb969f7c	-0.0045966487
242	0x3d2e0438	0.042484492
243	0xbc363930	-0.011122033
244	0xbd4f4212	-0.05060012
245	0xbc64179d	-0.0139216455
246	0x3d024fc3	0.031814348
247	0x3dae71cc	0.08517799
248	0xbcef4245	-0.029206404
249	0x3af25b66	0.0018490374
250	0xbd0cae7c	-0.03434609
251	0xbc20facc	-0.00982542
252	0xbc245860	-0.010030836
253	0x3d12605a	0.03573642
254	0x3c833d44	0.016020425
255	0x3c0bcef8	0.008533232
