models1/ppo_600.pth (torch, 275264 bytes, 6 tensors)

net.0.weight f4 [256, 6]
00000000: c755 debe 85e9 e3be 67ad f93d cdfd b13e
00000010: d618 38bd 7c32 bdbe 1ac3 59bd 1e51 e8bc
00000020: 99a0 da3e bd0b b8be 67c4 cdbd 12bd e53e
00000030: f928 c3bd df4a ed3e a39c 253d 2d2f 01bf
00000040: f94b 15be 5e1b 6fbd f53a 9abe 3937 833e
00000050: 0cba 4d3e e3ff 553a 4945 90bd 8a58 ca3e
00000060: 6acd 883e d6a8 d1bd cb9d f7be 7f11 803e
00000070: 97a1 563e da17 4dbe cfff ee3d c772 18bd
00000080: 02ad ac3e e794 acbc dfa9 84be 5c5b 4d3e
00000090: 8de5 8d3c 55ec 1a3e 1dde cb3e ba9a 653e
000000a0: 3012 d53d 7437 bdbe 6f55 96be ccfa 91be
000000b0: cb08 aa3d 7eb4 673e 488c dfbd 46f7 9d3e
000000c0: ba57 20be d4f4 62be ba03 ab3e 6c86 bbbc
000000d0: 745e 643e 65d4 73be d61c 5a3e 999a 623e
000000e0: 25f6 e33e 066b 00bf ae03 66be a57b 4b3e
000000f0: 0951 793d 9900 53be d672 9fbe 849b 9fbe
00000100: f618 21be 4df7 5abe 2a6c 233d 5e7e 81be
00000110: db2f 5abe 50bd 8b3e 6275 d7bd de15 ffbd
00000120: e5d5 f6bd 53c1 df3d 3910 eebd 236d 7a3e
00000130: 8093 9abe 61eb babd a82a 82bc 270b 113e
00000140: 1633 503e a6aa 913e c3f4 fabd f664 cebe
00000150: 8f58 a93e 2d7f 203e 768c 8dbe 1df9 aebc
00000160: 7e71 9abe 8708 ad3e b3f0 553e c0cb 56be
00000170: d2eb 44bd d187 b2be 4c5f c5be e6a1 eb3d
00000180: 5461 243e 1943 693e fb2c c03e 473b febd
00000190: 3999 48bd 4f92 adbe 874b bfbe fccc f0bd
000001a0: b743 75bd 39d2 a1be ba9f d53c 2b13 143e
000001b0: ecb1 c9be 4a05 8e3e 7f18 ffbe 2e05 b1be
000001c0: ffac c8bd 5fe0 533e fa93 2f3e 975a 653e
000001d0: ea97 2ebe 2d17 c93e 88e5 0abe e9df 69be
000001e0: 22b2 1dbe bb29 b33d 75c0 85bd f7cd 873e
000001f0: 1628 303e 7856 a53e 6f5a 9c3e 1460 363e
00000200: cac2 92bd 3c32 1e3c 612e c03d e7bd c3be
00000210: 137e a0be b8b5 9a3d 642c a63e cf5f e6be
00000220: 364f e3bd b1fe dc3e d09e 4a3e 6c02 c5bd
00000230: 3842 f9bd 2f98 39bd b6c6 0b3e a63b 523d
00000240: 2dd5 82bd 574d 8e3e 2dbc 88bb 2619 953c
00000250: 13a4 833e 0842 d1be 9f54 68be a278 a33e
00000260: 8a4e c9be 5726 163f a393 503d c508 66be
00000270: 8de6 5f3e f5db cf3d 0dce 62be af6c 153e
00000280: eb49 8c3d 8a0a 44be 9b93 cb3d 4149 babd
00000290: 20a4 0f3f 70c2 05bf 6021 2e3d 54a5 b1be
000002a0: 5ece ae3e f61c bfbe dd49 4c3e 0197 b23e
000002b0: 8b77 09be a845 05be c274 40be e5c6 083e
000002c0: fe3b 3d3e ff94 91be e696 96be c12d 643d
000002d0: 82e4 e9bd 2ccc 74be 231f babe 7480 b13e
000002e0: a1f8 b53e 0eee 903e ada6 e53d ff26 b4bd
000002f0: 5a8c f9be b649 823e b4a0 2a3d b112 c2bd
00000300: 6101 47be 09bd 79bd a216 34be dc79 b43e
00000310: 84e5 17be 79c6 a03d 3e64 95bd ab60 833e
00000320: 2f20 b4bd c9ca b1bc dd03 213e aca8 d63d
00000330: 9c73 abbe 4568 6d3e ebe3 53be 0b1c cb3e
00000340: 77e4 94be 3788 8d3d fa55 91be b099 d93d
00000350: f5f7 b03e c3b6 7c3e ff75 babd 309d 38bd
00000360: ee02 803e b46a 973e a088 7c3e 33cb a8be
00000370: be28 62be 4a68 81be 3b74 65be 4416 48be
00000380: 96ca d43e 34ce 5dbe 95aa 4dbe 5e67 4bbe
00000390: 16fd 6dbd f792 333e bca8 b9be 8451 943e
000003a0: c816 5fbe 56dd f6bc e1e2 11be 15df 79bc
000003b0: 6103 843b 1b82 183e d174 38be 62a0 e93e
000003c0: c841 6c3e f801 c5be fe46 58bd ff00 72be
000003d0: fc47 143e 7172 c9be aaf3 fdbe 0c22 05bf
000003e0: 5603 2d3d 4622 4b3e a236 ff3d 9ff8 5bbd
000003f0: 4926 933e 1d1f a8be 6eb4 613e a407 fbbe
-0.43424818 -0.445141 0.12191277 0.34763947 -0.04494556 -0.3695258 -0.05316458 -0.028358992
0.4270065 -0.35946456 -0.100472264 0.44870812 -0.09529299 0.46346185 0.040432584 -0.5046261
-0.14579763 -0.05837571 -0.30123106 0.2562807 0.20090503 0.0008163435 -0.07044465 0.39520675
0.26719218 -0.10237281 -0.48362574 0.25013348 0.20960079 -0.2002863 0.11669885 -0.037218835
0.33725744 -0.021067096 -0.2591085 0.20054382 0.017321372 0.15129216 0.39817896 0.22422305
0.104038596 -0.3695637 -0.29362056 -0.28511655 0.083024584 0.22627446 -0.109154284 0.30852717
-0.15658465 -0.22163707 0.3340128 -0.022891246 0.22301656 -0.23811491 0.21300063 0.22129287
0.4452373 -0.50163305 -0.22462341 0.19871385 0.060868297 -0.20605697 -0.311423 -0.31173337
-0.15732178 -0.213834 0.039898075 -0.25291723 -0.21307318 0.2729287 -0.10520436 -0.12455343
-0.12052516 0.109255455 -0.11624188 0.24455695 -0.3019066 -0.09126926 -0.01588948 0.1416441
0.20331988 0.28450507 -0.12253716 -0.40311402 0.33075377 0.15673514 -0.27646226 -0.02135902
-0.30164713 0.33795568 0.208926 -0.20976162 -0.04807646 -0.34869245 -0.38549268 0.11505489
0.16052753 0.22779502 0.37534317 -0.1241365 -0.04897425 -0.33900687 -0.3736231 -0.11757848
-0.05987903 -0.316057 0.02607714 0.14460437 -0.39393556 0.2773841 -0.49823377 -0.34574264
-0.097986214 0.2069106 0.17146292 0.22397839 -0.17050138 0.39275494 -0.13564122 -0.22839321
-0.15399984 0.08748194 -0.06530849 0.26524326 0.17202792 0.32292533 0.30537745 0.17810088
-0.07166059 0.0096555315 0.09383846 -0.38230821 -0.31346187 0.07554191 0.32455742 -0.4499497
-0.11099093 0.43163064 0.19787145 -0.096196026 -0.12170833 -0.04531115 0.13650021 0.051326416
-0.06388316 0.2779338 -0.004172823 0.018200468 0.25711116 -0.4087069 -0.2268853 0.31927973
-0.39317733 0.5865225 0.050922047 -0.22464283 0.21865292 0.10149375 -0.22148915 0.14592241
0.06850036 -0.19144645 0.09940263 -0.09096003 0.5610981 -0.52249813 0.042512298 -0.34696448
0.3414182 -0.37326783 0.19950052 0.34880832 -0.13424508 -0.13014853 -0.1879454 0.13357122
0.18479916 -0.28433987 -0.29412 0.055707697 -0.114205375 -0.2390601 -0.3635188 0.34668314
0.3554125 0.2830662 0.112134315 -0.087965004 -0.48739892 0.25446862 0.041657165 -0.09476221
-0.1943412 -0.060971294 -0.17586759 0.3524922 -0.14833647 0.07850356 -0.0729451 0.2565969
-0.08795201 -0.02170314 0.1572413 0.1048139 -0.3348664 0.23184307 -0.20692413 0.39669833
-0.29080555 0.069107465 -0.28385907 0.10625017 0.34564176 0.24679093 -0.09104537 -0.04507178
0.25002235 0.29573596 0.24661493 -0.3296753 -0.22085854 -0.2527488 -0.2240762 -0.19539744
0.4156081 -0.21660691 -0.20084603 -0.1986365 -0.05810269 0.17536531 -0.36261547 0.2896844
-0.21786034 -0.030134838 -0.14246704 -0.015250941 0.004028723 0.14893381 -0.18013312 0.45630175
0.23071969 -0.38478065 -0.05280208 -0.23633192 0.14480585 -0.39345124 -0.49599963 -0.52005076
0.04223951 0.19837293 0.12461592 -0.0537039 0.28740147 -0.32836238 0.22041485 -0.49029267

net.0.bias f4 [256]
00000000: 292e 9bbe 0e0b 4a3c 6a2c a4be 32e4 b1be
00000010: e51c cd3e 78e9 cfbe f8d7 b5be 1452 99be
00000020: 8b2f 203e e15c e73c f610 d13d b1da 65be
00000030: d1cd b6bd 32b8 28be 3793 c9be 6f80 993e
00000040: 9295 b63e 39b2 c83d 00cf c9bd 9233 b13e
00000050: 2cd1 9dbe 4d37 a8be cbac 9e3d 3676 b53e
00000060: a03c bc3e 142b 2f3e e99d 6d3e d445 603e
00000070: 8cd3 b73d 7f21 ccbb f034 a53e cc55 823e
00000080: 976c 103e 8939 a7be bdcb 38be fdbe 323d
00000090: d2df babe 31c7 d03e cee2 463e f808 90be
000000a0: 05a6 5abe e45b a5bd 2aaf 6d3e a167 80be
000000b0: 824f edbd cd9b 853e 2653 2f3e a078 f4be
000000c0: 3bd4 223e 1633 7d3e 62f2 aebe c37d 7d3e
000000d0: a3a9 a7bd b96f a9bd 698b 8ebe b926 563e
000000e0: a3da 85be d230 523e a82e 4c3d 97e7 e2bd
000000f0: 0534 a7bd 101c 3f3e 4c1e 3abd fe44 e83d
00000100: f494 763e 66c2 0e3e d94d 0abe d573 623e
00000110: ceb4 4c3e 3b2a 8d3e 75eb 033e 9414 9ebd
00000120: 9cfd 793e cb09 d7be 3a47 b9be 260f 38bd
00000130: 8bb0 823e def2 b9be b868 633e 79b4 7ebd
00000140: 1fc1 fdbd bfa5 5ebd a38d 16bd a8a5 80bc
00000150: 6e2a 1dbe a5d3 8c3d d71f 8e3e 6b08 ba3e
00000160: 1efa 643c a881 943e 92e9 27bd cef6 1b3e
00000170: df95 733e bcf7 ccbc 6b9f 573e e48b 803e
00000180: f27d b1be 29f4 49be fb74 a2be 094e 343d
00000190: 6177 17be a3ec 5ebe 4bb6 533e a0d8 7f3e
000001a0: 06f1 2b3e 512e 82be 99f4 613d 42fe 133e
000001b0: e9d6 b5be 3526 7f3e 4603 d83d 3838 c13e
000001c0: 821e a63e ca15 17be da6d 3bbe 0611 abbe
000001d0: 119d 0fbe 8525 a2be 2728 c03e c4f3 bcbe
000001e0: 89d2 a2be e4aa 05bd f160 b53d 9768 173e
000001f0: 48f8 a83e aff0 6fbe 3572 ad3e 8855 f6be
00000200: 477f b63e 6b5e 2abe 81a9 2bbe 6c22 d83d
00000210: 7092 853e f4c4 91be 3c44 f3bd 0c77 273e
00000220: 10d0 693d f64c 0a3d 9d97 a4bd 0435 323e
00000230: 8840 a83e d42b aa3e 654f 223e 38b1 f8bb
00000240: 28c5 c23e 3b1d 973e fbb4 aebe 488f 81bd
00000250: 66dc 973e fb1a 013e 66d6 3abd 7fc8 9fbe
00000260: d233 8dbd df62 933e 649a 5b3e a635 83be
00000270: 062f 82be 5ccc 703c 5829 8cbe eb95 213e
00000280: b505 b7be de3f 1ebe 7cfc 03be 10bb 9f3d
00000290: a1d1 003d 52e2 cbbe 8171 b03e 0020 a93e
000002a0: fdd5 c53e 8bb3 b3be fb3e b8be bd39 b8be
000002b0: 9877 79be 2f4c 9fbe 79f7 f5bd c102 bf3e
000002c0: 7d3b 513e 5ffb 3abe dbd5 9f3e 416c e03c
000002d0: 8173 a8be d916 53be 7493 cebe b7d7 37be
000002e0: 8d8d d7be ecb1 f63d 03c9 aa3e 87a8 e3bd
000002f0: 16e3 2ebd d949 a1be deea 7e3e 6e03 84bc
00000300: 0e90 553c dc3b c83e 3e2e 53be e15c 3bbe
00000310: fcf1 12be 8fd4 efbc 9323 c7bd 54d9 a0be
00000320: 4b75 3d3d 96d1 393e b9f5 aa3e 305d 93bb
00000330: 5b13 653e f1ed 06be 7511 653e 48b5 febb
00000340: 0235 af3e 7ff1 603e 66a4 8abc 7405 d53d
00000350: 6f59 ba3e 1c23 d3be f0e1 83bc fa87 1abe
00000360: 1574 28be b70f fdbd f344 dfbe 65de aa3e
00000370: ed31 c13d ad41 b0be 060d 5f3e c1db 8dbe
00000380: 7f96 74be 06f4 493e fbcd 75bc 8aa4 7a3e
00000390: 18f1 523e 4b04 3ebe 7022 9cbd 862e 943d
000003a0: 530e a8bd f426 0ebd d349 e1be ce59 273d
000003b0: 66cf a03e 5222 7fbe 9a89 cc3e 40c0 c93e
000003c0: 26cc 15bd 6f81 633e 2398 dd3d 8f4c fdbd
000003d0: b36c 9a3e 9714 37be 9b2e f8bd cde0 893e
000003e0: 16db 31be 8ad9 a33e c7b8 cfbe 49ad 86bd
000003f0: bc03 cd3d 3484 a3bc 0951 863e a2af 92bd
-0.30308655 0.012331737 -0.32065135 -0.34744412 0.40061107 -0.4060781 -0.35516334 -0.29945433
0.15643136 0.02824253 0.10208313 -0.22446705 -0.08925975 -0.16476515 -0.3937013 0.299808
0.35660988 0.09799618 -0.09853935 0.34609658 -0.30823648 -0.3285469 0.077478014 0.3544175
0.36765003 0.17106277 0.23204769 0.21901637 0.08975896 -0.006229579 0.3226695 0.25456083
0.14103924 -0.32661083 -0.1804647 0.043639172 -0.36498886 0.4077697 0.19422457 -0.28131843
-0.21352394 -0.08074167 0.23211351 -0.25079063 -0.115874305 0.2609543 0.17121562 -0.4774828
0.15901272 0.24726519 -0.34169298 0.24755006 -0.081866525 -0.082732625 -0.27840737 0.20913209
-0.2614337 0.20526436 0.049849182 -0.110793285 -0.08164219 0.18663049 -0.04543905 0.11341284
0.24080259 0.13941345 -0.13506259 0.22114499 0.19990847 0.27571282 0.12882788 -0.07718769
0.2441315 -0.4199966 -0.36187154 -0.04493632 0.25525317 -0.36318105 0.22207916 -0.06218383
-0.123903506 -0.054357287 -0.03675617 -0.015703991 -0.15348217 0.068763055 0.27758667 0.36334547
0.013975648 0.2900517 -0.040994234 0.15230867 0.2378764 -0.025020473 0.21056907 0.25106728
-0.346664 -0.19722046 -0.31729874 0.044019733 -0.14791633 -0.21769957 0.20675008 0.2498498
0.16791162 -0.25425962 0.055164907 0.1445246 -0.35515526 0.24916919 0.10547499 0.37738204
0.3244515 -0.14754406 -0.18303624 -0.33411425 -0.1402476 -0.3166925 0.37530634 -0.36904728
-0.3180125 -0.032633677 0.08856381 0.14785992 0.33001924 -0.23431657 0.33876196 -0.4811213
0.3564398 -0.1663758 -0.1676388 0.105534405 0.26088285 -0.28470576 -0.11878249 0.16354007
0.05708319 0.033764802 -0.080367304 0.17403036 0.32861733 0.33236563 0.15850599 -0.0075894855
0.38041043 0.2951449 -0.34122452 -0.06326157 0.29660338 0.12607948 -0.045614623 -0.31207654
-0.068946496 0.2878637 0.21445614 -0.25626868 -0.254265 0.014697161 -0.27375293 0.15779845
-0.35746542 -0.15454051 -0.12889284 0.07799351 0.031449918 -0.39821106 0.34461597 0.33032227
0.38639823 -0.35097918 -0.3598555 -0.3598155 -0.24362028 -0.3111281 -0.12010092 0.3730679
0.20432849 -0.18259953 0.31217846 0.02739537 -0.32900622 -0.20614184 -0.40346873 -0.17953382
-0.42100182 0.12045655 0.33356485 -0.111161284 -0.042697035 -0.31501654 0.24894282 -0.016114917
0.013034834 0.3910817 -0.20623109 -0.18297149 -0.14350122 -0.02927616 -0.09723582 -0.31415808
0.046254437 0.18146357 0.33390597 -0.004497193 0.22370665 -0.13176705 0.2236994 -0.0077730753
0.3422013 0.21967123 -0.016924094 0.10401431 0.36396357 -0.41237724 -0.016098946 -0.15090933
-0.16450532 -0.12356513 -0.43607292 0.333728 0.09433351 -0.34425107 0.21782312 -0.2770672
-0.23885535 0.19721994 -0.015002723 0.24476829 0.20599782 -0.18556325 -0.07623756 0.07235436
-0.08205857 -0.034705117 -0.44001636 0.04085713 0.31408232 -0.24915436 0.39948732 0.39404488
-0.036571644 0.22217344 0.108200334 -0.12368118 0.30161056 -0.17878948 -0.12118264 0.26929322
-0.17368731 0.32001907 -0.4057066 -0.0657602 0.10010478 -0.0199605 0.262337 -0.071624056

net.2.weight f4 [256, 256]
00000000: b6ec 5ebd 071d fcb8 b25d 71bd 7c76 ffbc
00000010: 70a9 023d 03ed 7abc 72f8 093c 59e8 f2bb
00000020: 418e 65ba 39d9 8e3c 16c5 30bd 780c c53c
00000030: 7c00 70bb 3c73 57bd 20e0 523d 2846 063d
00000040: d666 453d 18dd 08bd 704a c43c a3ae 24bd
00000050: 04cb 22bd 30b5 d0bc 5faa c63c 710c c4bc
00000060: d670 abbc 3eb7 4cbc 9d2e 4dbd 452c 0e3d
00000070: 450f 44bd e374 173d 560b 06bd 3a38 29bc
00000080: 895b 37bd 40bb 8aba ec4e 243d 516b 64bd
00000090: bdab 51bd cb14 433d 5102 4dbd 54f2 923a
000000a0: f00a c3bc d53d d53c 5644 743b de3e f93a
000000b0: 71fa 26bd 09ea 3c3d a53e 4c3d 10c8 703c
000000c0: a862 f2bc 3863 a33c cc08 603d 264d 083d
000000d0: 29a8 e7bc 12bd 6d3d 4269 493d ee1a 823c
000000e0: 17f8 a53b 6fde 1a3c 802b 1b3b d8b4 ae3c
000000f0: acaa 723d e73b 403a aece 8a3c 9d77 483d
00000100: ccbe 093d 1b84 463c 30d1 bdbc 7f59 39bd
00000110: a670 0cbd 2be2 03bd 97ce 6d3c 1809 79bc
00000120: 7582 5ebd a682 3d3d 00a4 8abb e43a 373d
00000130: ae30 61bd 8dd0 023a 5456 943c b011 313d
00000140: 054f 9a3c 63b1 793c 32bc 91bc 2ac3 d13c
00000150: 1978 3cbc 8b1b a2bc 253f 343d 650e de3c
00000160: f17d 40bc 7136 42bd 6ee9 2cbd f450 343d
00000170: 232a f4bc 0a75 5dbd 60ef 86bd 73f9 c1bc
00000180: 4e20 70bc 2c23 50bd da8e 2ebd 8b77 40bd
00000190: 0533 8dbd 8a1f 633d 91e0 633d 53cd 37bb
000001a0: 5b6a 473d 08af c63c c44c 79bc b240 073d
000001b0: bc9f bdbc e7f4 82bd 1659 bc3c 02f3 1c3d
000001c0: f60f 36bc 88cb 67bd fb31 833c cc52 643b
000001d0: b123 003d 00c5 663b 153e 383d 842f 003d
000001e0: 488d 56bd 50df 34bc 899a 353d a6f8 2c3d
000001f0: 5c29 fd3c 2868 61bc 5287 a6bc 6c95 e3bc
00000200: 0458 64bb 8655 44bc b0a1 47bd 6034 aabb
00000210: 97c0 d63b 44b9 2b3d 6012 05bd ea3d f13c
00000220: b68f 3d3d 2071 16bc 064e 51bd d8d5 40bd
00000230: 6aa0 d5bc 6dce 7bbd ffb6 c3bb 0206 243d
00000240: a4c8 03bd 918d 98bc 9487 683d 28f3 c23c
00000250: bac0 3f3d 6079 fd3c ead9 c9bb 2e9f 2c3d
00000260: 12f2 91bc c7b9 40bd 904a 85bd b4b5 48bd
00000270: 6801 2abd c89b 483d 32fb 21bd 7865 87bd
00000280: 88a8 da3c 7c9e a1bc b359 b2bc 3c9d 34bd
00000290: efec 873c eaa1 8a3c aed5 38bd 4244 5c3d
000002a0: 39df 38bd f75c 1b3d 7aa0 70bd 301c 333d
000002b0: e566 47bd 24fe 823c 02f6 20bd 01d2 49bd
000002c0: 5c10 1e3d 4e28 083d ae2e 5d3d 7cc8 0a3d
000002d0: e4b4 c3bc a0df a0bc 483a bbbc 5f46 78bd
000002e0: f817 14bc 1c03 ed3c 8796 573d 38e4 62bd
000002f0: ed1b ae3c 9ebb 89bd 50c9 5b3c 20bc 523b
00000300: 60b5 f73c bf63 ebbb 1c21 313d db70 08bd
00000310: 3672 3b3c 6521 d33c d8d2 db3c 6474 c53c
00000320: e711 a8bc f6ba 513d 7fad 5dbd 91c8 39bc
00000330: 11d5 a53c 3560 953c 1bc0 dbbc c0f1 48bc
00000340: 5c90 493d 0319 a63b 4716 6bba ec48 143d
00000350: 48ee 3dbd 7c34 c3bc 1c5e 97bc c8de 00bc
00000360: ec36 ddbc a2eb 22bd a7e0 293d b143 37bd
00000370: 1db6 4a3d 233f 8dbc 4d26 7d3c b6ac 293d
00000380: 8868 fe3c 8b7b 323d e3d9 89bd 56b1 73bd
00000390: 904b 8cbd 1ba7 30bd 0139 db3b b4b1 7c3b
000003a0: 9bb4 b3bc fe9c 26bd ad2a f9bc 0196 783d
000003b0: abf2 6cbd 3c24 3a3d ad5a 60bd 4792 38bd
000003c0: 5aa9 5abd bc1c 633d c363 68bd 64ae 32bd
000003d0: eed0 36bd 5c41 043d 378e 25bd ca70 4cbd
000003e0: e2b8 e03c 3486 993c 9cc6 a6bc 9ae9 1a3b
000003f0: 53df 19bc 04be b13c 667b 62bd 747e 72bd
-0.054424964 -0.00012021703 -0.058927245 -0.031184427 0.03189987 -0.015315297 0.00842105 -0.007412952
-0.0008756854 0.017437564 -0.043156706 0.024053797 -0.0036621382 -0.05260013 0.051483274 0.03278175
0.048193775 -0.033413976 0.023961276 -0.04020561 -0.039744392 -0.025477022 0.024251161 -0.023931714
-0.020927828 -0.01249486 -0.050093282 0.034710187 -0.047866125 0.036976706 -0.032725655 -0.010328347
-0.04476503 -0.0010584369 0.04011433 -0.055766407 -0.051189173 0.04762725 -0.050051037 0.0011211135
-0.023808926 0.02603046 0.0037272177 0.0019015928 -0.040766183 0.04612163 0.04986443 0.014696136
-0.029588059 0.019944772 0.05469589 0.0332767 -0.028278427 0.05804164 0.049172647 0.015881982
0.005064975 0.009452446 0.002367705 0.021326467 0.059244797 0.0007333145 0.016944256 0.048942197
0.033629224 0.012116457 -0.023171037 -0.045251366 -0.034287117 -0.032198112 0.014514587 -0.015199922
-0.054323632 0.046267174 -0.004230976 0.044733897 -0.054978065 0.0004990183 0.01810757 0.04322976
0.018836508 0.015240046 -0.017789934 0.025605757 -0.011503243 -0.019788524 0.04400553 0.027106473
-0.011748777 -0.0474152 -0.042214803 0.044022515 -0.029805249 -0.054066695 -0.06588626 -0.023678517
-0.01465614 -0.050814793 -0.042616703 -0.046989005 -0.06894497 0.05545 0.055634085 -0.0028045967
0.048685413 0.024253383 -0.015216056 0.033020683 -0.023147456 -0.06394368 0.022991698 0.038317688
-0.011112204 -0.056590587 0.016015043 0.003483939 0.031284038 0.0035212636 0.04498108 0.031295314
-0.05238083 -0.01103957 0.04433683 0.042229317 0.03090351 -0.013757743 -0.020328198 -0.02778121
-0.00348425 -0.011983281 -0.04873818 -0.005194232 0.00655372 0.04192473 -0.032488227 0.029448468
0.04627963 -0.009182245 -0.0510998 -0.047078937 -0.026077468 -0.06147616 -0.0059727426 0.040044792
-0.032173768 -0.018622192 0.056769922 0.023797587 0.046814658 0.030941665 -0.0061600106 0.042143993
-0.017815623 -0.04705217 -0.06508362 -0.04900141 -0.041505247 0.04897669 -0.0395462 -0.066111505
0.02669169 -0.019728892 -0.021771288 -0.044095263 0.01659247 0.01692291 -0.045125656 0.053776033
-0.045134757 0.037930455 -0.058746792 0.043728054 -0.048682112 0.015990324 -0.03929711 -0.04927254
0.03858982 0.033241563 0.053999595 0.033882603 -0.023889966 -0.019637883 -0.02285494 -0.060613986
-0.009038918 0.028932147 0.05263379 -0.055393428 0.02125355 -0.06725238 0.013414696 0.0032155588
0.030237854 -0.0071835215 0.043244466 -0.033310752 0.011440804 0.02577276 0.026833937 0.024103351
-0.020516349 0.05120369 -0.054120537 -0.011339323 0.0202432 0.018234352 -0.026825001 -0.012264669
0.049209937 0.0050688996 -0.0008967858 0.036202356 -0.04636982 -0.023828737 -0.018477492 -0.007865615
-0.027003728 -0.0397755 0.04147401 -0.04474229 0.049490083 -0.01724202 0.015451026 0.041424476
0.031055704 0.04357485 -0.06731012 -0.059495293 -0.0685035 -0.043128114 0.006690145 0.0038558068
-0.021936705 -0.040677063 -0.030415857 0.06068993 -0.057848614 0.045444712 -0.054773975 -0.045061376
-0.053384162 0.055447325 -0.056735765 -0.043623343 -0.044632845 0.032288894 -0.04041883 -0.04991225
0.027431909 0.01874075 -0.020358376 0.0023637773 -0.009391624 0.021697052 -0.055293463 -0.059202626

net.2.bias f4 [256]
00000000: 51bb 3a3c b4b7 60bd cc11 4ebd 50bc 1b3d
00000010: 0a5d ec3b 2d30 a2ba e46b 013d d4c3 91bd
00000020: 11dc c8bc 1862 f43d 8980 2a3d 4e91 75bd
00000030: 10ab 843d 43a5 0bbd cf45 903d 1ce2 54bd
00000040: 1f52 c63b de29 4e3d 1c65 903d 1ad0 51bc
00000050: c507 5b3d c90e 0c3d 9282 a33d 2453 f1bc
00000060: 48e8 2dbd 1ec9 75bd 9653 a2bc 989c cf3c
00000070: f3a2 8abd d2b2 7fba 82e1 023d a332 e13d
00000080: f84b 5bbc 68da ba3d a86e 3b3d 29ab 333d
00000090: 5c11 903d 8480 f2bd 8aa3 323d 9a9a 23bd
000000a0: 65b5 5b3d 02ab 0d3d 72fa 7abd e526 d93d
000000b0: 64ba d0bc ac6d a43d ea6f bb3c 92eb 443d
000000c0: 2293 fd3d 63c2 0abd 0e7f 213d ba75 f03d
000000d0: 5137 843d e68e 2d3c 255a 213d c4cd 99b9
000000e0: bd8b 3bbd 244f 9dba 65f3 c53d 0cb2 d93c
000000f0: 4cf6 d13d a71c 46bd 2787 3c3c 2346 823d
00000100: 18eb 643c 6087 973d 7dce 2d3d 5d24 60bd
00000110: 43fe 93bd 7339 883c 7c93 9e3d 9743 2c3d
00000120: 6e86 0f3d f110 d7bc 4334 58bd 44b2 fe3c
00000130: bcb1 9bbd 28c4 a1bd 30d7 62bd b0ae 4cbc
00000140: 23ca a6bc bcaa e73d 5433 553d b845 1dbb
00000150: 895d 41bd 4b99 7bbc e25e 22bd 868f 353d
00000160: 020a 153d ec93 a53d 1c0c 433d 0a71 0e3e
00000170: 4177 f13c 62ad b439 6e3a 6fbd 6be9 cabc
00000180: 3401 d43c 25f9 a83d 4c56 d33c 671e 543d
00000190: a2a4 9fbc 973e d13c b544 ddbc 3336 7c3c
000001a0: a554 243d 47ed de3d 04a5 b2bd 0dba 23bd
000001b0: b726 97bc 7cab 1bbd 3800 483d ecd5 5bbd
000001c0: 34ad 97bd a5d0 af3b 5f1d cdbb 8863 8b3a
000001d0: 05e8 ec3b 3b6b e2bc 053d d63d 4073 403b
000001e0: a23a 5cbd c4aa c43a 48d3 49bd 545c 943d
000001f0: b1eb b63c f595 f23d 9ca3 8a3c 1d84 603d
00000200: ba02 053d d09a a03c ba6a 003d 2682 013d
00000210: da2c 053d 9a69 4abd 8f13 5dbd e929 a03d
00000220: 1460 b73d 35e6 66bd 5800 57bc fb58 85bd
00000230: abe1 f83c 0776 26bd d172 ba3d f64b 78bd
00000240: c98e c7bc 5d98 1cbd f45d 4dbd f9de 68bd
00000250: 1801 e0bc fe3e b73c eb49 383d 375f 7abd
00000260: bc3c 06bd 8460 1cbd 693b 9c3d a1e2 8e3d
00000270: b585 85bd 1ed2 703d 7e51 9abc 94ed 9dbc
00000280: 72b3 4d3d 3a6b 143e 0cc5 b83d 8a33 4d3d
00000290: c1cc ed3d f6a9 71bd 0499 473c cedc 043c
000002a0: 709d 343c db02 94bc a7c9 013d 7d7a 893c
000002b0: cd13 893d 5e8e 2c3d 0851 723c 0c9d 2b3d
000002c0: 17f5 8bbd d77b 243d 58e4 473c 198e e23d
000002d0: 7878 69bd dc69 4e3c 110c 763c 6f4c 6d3d
000002e0: d1c4 813c 7146 d63c 68b7 093e 0346 9a3c
000002f0: 9a17 24bd 4e7a 95ba 9484 f83b 69ad 19bd
00000300: 7c4c d6bc 953f 2ebd bf0a 6a3d 40d6 e73c
00000310: 7426 053e 9ac9 26bd 3314 64bc 9884 78bc
00000320: f045 093e 876f a53d 29bc 1b3d c8b8 e53c
00000330: 5b8b d03c b47f b9bc f56d 153c 1236 a13d
00000340: 1574 1fbd 2f2a 433d e211 1cbd 90ea f1bd
00000350: 303b e83d 1725 403d a10b d4bb a11d 73bd
00000360: 207a fabc d525 04bd 816b e6bc 3fae 76bd
00000370: db9a 003e cabf 003d b15f 523d 7f8a 493d
00000380: 2f20 2fbd d434 1bbd 79d0 0d3d 7a9e 2d3c
00000390: c66b 54bc c60c 43bc 7cc6 073d 6c0e 54bb
000003a0: 00d6 9dbd bb5d 1f3c 41b7 c1bc b334 073e
000003b0: 940c dc3c 5b0a b93d 241d 803d d211 f9bc
000003c0: 937d 8d3d 14ea 0c3d 66c5 023d 2bff 383d
000003d0: 0b8f 87bd 7716 98bc 6f11 043e 7dd1 ee3d
000003e0: 8d76 bf3c 51ca 1a3a 95a3 393c 374a 883d
000003f0: 3571 04bd 8ea0 e23c 8103 f9ba 88d8 dc3d
0.011397199 -0.054862693 -0.05030994 0.038021386 0.0072132396 -0.0012373977 0.031597033 -0.071174294
-0.024518998 0.119327724 0.041626487 -0.059953026 0.0647794 -0.034093153 0.07044565 -0.051973447
0.00605227 0.050332896 0.07050535 -0.012805963 0.053474206 0.034193788 0.07983889 -0.02945859
-0.04245785 -0.060006253 -0.019815248 0.025343224 -0.06769361 -0.00097541243 0.031953342 0.10995986
-0.013384812 0.09123689 0.045759827 0.043864403 0.07034561 -0.11840919 0.043612994 -0.03994236
0.05363979 0.034586914 -0.061274 0.10603122 -0.025479503 0.08028731 0.022880513 0.04807622
0.12381579 -0.033876788 0.03942781 0.117412046 0.06455863 0.010593152 0.03939261 -0.0002933574
-0.04578756 -0.0012001735 0.096655644 0.026574157 0.102520555 -0.04836717 0.011506832 0.06361034
0.013972066 0.073988676 0.04243325 -0.05472218 -0.07226231 0.016628956 0.07742974 0.042056646
0.03504031 -0.026253195 -0.052784216 0.031090863 -0.076022595 -0.07898742 -0.055381 -0.012492821
-0.020360058 0.11311862 0.052050903 -0.0023997854 -0.047208343 -0.015356372 -0.03964127 0.044326328
0.036386497 0.080848545 0.04761897 0.13910308 0.02947581 0.00034461456 -0.058405332 -0.024769505
0.02587948 0.082506455 0.025797985 0.051786806 -0.019487683 0.02554254 -0.027010301 0.0153937815
0.040119786 0.10885101 -0.087228805 -0.039972354 -0.018451078 -0.038005337 0.048828334 -0.05367081
-0.07406083 0.0053654485 -0.006259605 0.0010634521 0.0072298073 -0.027639022 0.10460857 0.002936557
-0.053766854 0.0015004505 -0.04927376 0.07244173 0.022329183 0.11845008 0.016923718 0.054813493
0.032473303 0.01960507 0.031351782 0.03161826 0.032513477 -0.049417116 -0.05397373 0.07820494
0.08953872 -0.056371886 -0.013122641 -0.06511112 0.030381044 -0.040639903 0.09103931 -0.060619317
-0.024360077 -0.038231242 -0.05013843 -0.05685327 -0.027344272 0.022368904 0.04499237 -0.06112596
-0.032772765 -0.038177982 0.07628519 0.0697682 -0.06519643 0.058794133 -0.018837687 -0.019278325
0.05021996 0.14494029 0.09021959 0.05009798 0.11611319 -0.058999978 0.012182478 0.008109285
0.011023864 -0.018067768 0.03168645 0.01678204 0.0669323 0.04212796 0.014789827 0.04189782
-0.068338566 0.040157165 0.0122004375 0.11062259 -0.056999654 0.012598481 0.015017525 0.05793422
0.01584092 0.026156636 0.1344887 0.018832212 -0.04006157 -0.0011404247 0.007584164 -0.037518892
-0.026159517 -0.042541105 0.057139155 0.028300405 0.1300295 -0.040719606 -0.0139208315 -0.015168332
0.13405585 0.08077913 0.03802124 0.028042212 0.025457075 -0.022643901 0.009120454 0.07871641
-0.038929064 0.04764765 -0.038102992 -0.11812317 0.11339414 0.04691037 -0.006471113 -0.05935443
-0.030575812 -0.032262642 -0.028127434 -0.060224768 0.12559073 0.031432904 0.05136079 0.049204346
-0.042755302 -0.037892178 0.034622643 0.010596866 -0.012965148 -0.011904901 0.033148274 -0.003235723
-0.07706833 0.009726937 -0.023646953 0.13203697 0.026861466 0.09035178 0.06255558 -0.030404005
0.06908717 0.03440292 0.031926535 0.045165222 -0.0661908 -0.0185654 0.12897275 0.116610505
0.02337196 0.0005904781 0.011330505 0.0665478 -0.032334525 0.027664449 -0.0018998237 0.107834876

actor.weight f4 [1, 256]
00000000: f6cc 333c 2679 3b3d 7d27 703d 28d5 32bd
00000010: 8695 e83e 1793 533c a7bf 3e3d fd94 6fbc
00000020: 4959 8a3b 9d78 ac3d c07c 6bbc bf4b 5cbc
00000030: 769e d13e b957 8abb babe 8d3e 1c7c c63c
00000040: 6cb1 c73e 6087 e1bb 53f4 e5bd 2b37 4d3d
00000050: 36e1 79bd 7574 9dbe 61a3 953e e28d 0fbd
00000060: 11ff 9dbe ba57 6fbb 8e7b 563d 8a2a a3bc
00000070: bedb afbe 633e 83be 8531 a03c 9532 803e
00000080: b006 373d c2d3 09bd 50d0 9bbe 5c33 6abe
00000090: e46e d23e 1782 693e c1b9 4dbe 9852 033c
000000a0: 82f8 073e 6980 99be c281 5a3d b9ec eb3c
000000b0: 0684 3abd 089a be3e 7c95 f8bb 9785 8bbe
000000c0: 8935 183e c01c ce3d 4539 e2bc 481e 293e
000000d0: f86b c03e 55cf 69be 7eb4 a43e a89d 27bd
000000e0: c508 a6be b5fc a3bc 31bf b439 84b2 f5bc
000000f0: a569 033e 9142 c53c df51 853e d8b7 71be
00000100: c26e 79bf 1f6b b83c 3f09 83be acad 53bd
00000110: 257c 073c 6faf aebe 5106 df3d 0699 223e
00000120: e3c6 513d 4d4a e3bb ddf4 ce3c bfab 0a3d
00000130: 762c e83b 30a4 5d3c 8692 9bbd f8a9 5dbe
00000140: e7e1 e73e c099 02be 46c3 afbe 90a7 b4be
00000150: 3c8e 883b d3af 4fbc 24b7 37bd 9c68 283d
00000160: 42b5 7cbe b0a7 bc3e 6a9f 9a3b ed8b 843a
00000170: c44e 3b3d 55dd 8a3b 06fc 55bd 6851 d73e
00000180: d49c 543d 8d18 503e 8d33 7bbe 5b0e 2dbd
00000190: 9f98 813d 8c02 873c c287 0abc 2835 bc3b
000001a0: d4fa 103c 1ad5 2ebe a47b 8b3d e3ef 1a3e
000001b0: 50ec 753d 6055 e53b 28e3 a43c 7a00 213c
000001c0: da5b 9b3b 977a 9c3b 1d02 ecba c329 c63e
000001d0: 0603 da3a c6c1 74bb 646f 733d ea15 58ba
000001e0: 32d1 373d 6544 1d3d 1568 1e3d e6a1 44be
000001f0: cd9c adbc b7b8 903c 3b14 593d 7973 cbbd
00000200: 8655 023d e0da 17bc e89e 03bc 53b7 09bd
00000210: 5897 403d 521e 8cbe 6413 06bc d8a8 f13d
00000220: dca7 1ebe e09e e9bc 9041 29bd f235 3d3d
00000230: 4efd 9cba 0bbd b9be 8b6e 313e 00bf a9bc
00000240: 9c43 ee3b 6a91 86bc 0079 8839 bd16 753d
00000250: e160 0cbd c5c2 6cbe bcbc bc3c c4b5 f93d
00000260: a86c 9cbb 7103 29bd a4f9 c23e 40d6 9dbc
00000270: 20a8 b93c a480 5f3d c7b8 dd3e a059 223d
00000280: 4d8d fd3c a581 2f3d 1e86 9ebd 4f8e 943e
00000290: a7f0 4f3e c436 d93c 468d 8dbe c8c9 cd3e
000002a0: fb18 d0bc 32e9 c23e 5169 b33c bf64 993e
000002b0: 5e35 1d3d d4ba c73e ce75 4f3d 947a 043a
000002c0: 9fa4 3fbd 05c6 90be 1530 9ebe 63fd 063e
000002d0: 8e12 443d a2ef 313d 8af1 41be bee8 d73d
000002e0: be9c 593e f9c8 483c d5f2 153e 4a70 c13e
000002f0: 38a5 143c 2a96 de3e 99c0 21bd 6dce 85be
00000300: d194 79bd a80d 8bbe b28d 94bd 011b 0bbd
00000310: 874f 073e 7073 dabc d6d2 a53c 889d 103c
00000320: 17ab b53d 4edb 16be a439 85bd 6283 183c
00000330: 9d38 5abe 412e 48bb 3570 98bd 52a6 68be
00000340: 52c6 46bd cf99 173c 8044 cdbe 2f1a d33d
00000350: 7a21 f43d 635b 9d3e ee5d 71be ecba 293c
00000360: 98e2 b93b bb4e 2c3d 5c3c 613c f4b8 60bc
00000370: babb f03b 9cd8 273e e175 0b3e 5073 ccbc
00000380: 8b4c 32bd 30ae 45bc 6545 233e 7a55 1fbd
00000390: f1bc 963c 526f 96be e6c5 f1bc f6e5 3fbd
000003a0: b421 83bd 25b3 d23e 2d57 463d 4e40 423e
000003b0: 5a3d 6bbd 9eef c33e 382f 973c 43ac d63e
000003c0: ef22 ae3e df05 b7be 06c4 423e 7cd6 103d
000003d0: 4de9 5a3d bd69 47bd 8653 64bc 050c f8bd
000003e0: 0d53 39bd a503 65be 1a3c 58bd 7d22 3bbe
000003f0: ce47 ddbb 5761 a8bc 7f82 573e d306 c73d
0.010974159 0.045769833 0.05863141 -0.043660313 0.45426577 0.012913487 0.046569493 -0.014622924
0.0042220694 0.08421443 -0.014373004 -0.013445794 0.4094121 -0.004221883 0.27684575 0.024229102
0.3900255 -0.006882593 -0.11228242 0.05010144 -0.061005794 -0.30752912 0.2922621 -0.03504742
-0.30858663 -0.0036520795 0.052363925 -0.019917745 -0.34347337 -0.25633535 0.019554863 0.2503859
0.044684112 -0.033649214 -0.30432367 -0.22871155 0.41100228 0.22803532 -0.2009039 0.008015297
0.13278392 -0.29980782 0.053346403 0.028799402 -0.045536064 0.37226892 -0.0075861793 -0.27250358
0.14864172 0.100640774 -0.027615199 0.16515458 0.37582374 -0.22832997 0.32168955 -0.040921837
-0.32428566 -0.020017961 0.00034474724 -0.02999235 0.12833269 0.024079593 0.26039025 -0.23605287
-0.9743463 0.022512017 -0.25592992 -0.0516793 0.008269344 -0.3411822 0.10889877 0.15878686
0.051215064 -0.0069363476 0.025263244 0.033855196 0.0070853783 0.013527915 -0.075963065 -0.21646869
0.45289537 -0.12753963 -0.3432867 -0.3528409 0.0041673463 -0.012676197 -0.04485239 0.04111539
-0.2467852 0.36846685 0.0047187107 0.0010112502 0.045729414 0.0042378106 -0.0522423 0.42054296
0.051907375 0.20321865 -0.24531384 -0.04225002 0.06327938 0.016480707 -0.008455219 0.0057436414
0.008848865 -0.1707348 0.06810692 0.15130572 0.06003982 0.006998703 0.020127848 0.009826774
0.004741174 0.004775356 -0.0018006001 0.38703737 0.0016632981 -0.0037346943 0.059432402 -0.00082430115
0.04487724 0.038395304 0.03867348 -0.19202384 -0.021192933 0.017666204 0.05299781 -0.09934134
0.031819843 -0.009268492 -0.008033492 -0.033622097 0.047019333 -0.27366883 -0.008183334 0.117997825
-0.15493721 -0.02851814 -0.04132229 0.046194024 -0.0011977346 -0.3627704 0.17327325 -0.020720959
0.0072712433 -0.01642676 0.00026030093 0.059836138 -0.03427208 -0.23121174 0.023039214 0.12192872
-0.004773695 -0.041263048 0.38081086 -0.019267201 0.022663176 0.05456604 0.43305036 0.039636254
0.030951167 0.042848248 -0.077404246 0.29014823 0.20306645 0.026515372 -0.27646846 0.4019301
-0.025402537 0.3806854 0.021900805 0.29959676 0.038380973 0.39009726 0.050649457 0.0005053666
-0.046787854 -0.28276077 -0.3089606 0.13182597 0.047869258 0.043441422 -0.18939796 0.10542439
0.21251199 0.012254947 0.14643414 0.37780982 0.009072594 0.4347394 -0.039490316 -0.26134053
-0.060932938 -0.27158856 -0.07253589 -0.0339613 0.13213931 -0.026666373 0.020242136 0.008826621
0.088705234 -0.14732096 -0.06505135 0.009308668 -0.21310659 -0.0030545148 -0.07443277 -0.22719696
-0.048528977 0.009252979 -0.40091324 0.103077285 0.11920448 0.30733785 -0.23570988 0.010359507
0.005672764 0.04206727 0.013747301 -0.013715971 0.0073465975 0.16391224 0.13619186 -0.024957329
-0.04353003 -0.012065455 0.1594444 -0.038899876 0.018400641 -0.29381806 -0.02951331 -0.046850167
-0.06402913 0.411523 0.04842298 0.18969843 -0.057431556 0.3826875 0.018455133 0.419283
0.34011027 -0.35746667 0.1902009 0.0353608 0.05344515 -0.048684824 -0.013935929 -0.121116675
-0.04524522 -0.22364672 -0.052791692 -0.18274875 -0.0067529446 -0.020554228 0.21045874 0.097180985

critic.weight f4 [1, 256]
00000000: a869 01bd 64bc b6bd bcba 1abe 4f64 313d
00000010: c55a 9a3b 562a 393c 772d a8bc b10c 093d
00000020: 427a 3fbc fa5f 823d 4b37 d3bc eeda c5bc
00000030: 0080 c93b 0f92 88bc a827 123b 4070 f8ba
00000040: 4183 ca3b 9b7b 48bd 7958 933d ef22 0fbb
00000050: e599 69be ad0b 013d 9e12 f13b 7006 23bd
00000060: 7a62 87ba 68c4 2ebc e210 283d 7951 0abd
00000070: fff1 e239 25d9 0abb 9463 7ebc 115d be3c
00000080: 90c2 2f3c 7621 b23d 8764 46bc 1363 8d3b
00000090: 18c7 e03b 282d 5fbd 196b 543d 6ae3 7c3d
000000a0: 086f d73c 9778 c7bb 8069 d93b 9793 213d
000000b0: 6ea7 803c 3a85 ee3b 2a78 683d 72ef bbbb
000000c0: 1754 113d 08d3 f2bd fc39 bd3c b938 2a3d
000000d0: ab28 b83b ec61 d0bb 26e2 003c 0fba 4fbc
000000e0: f49d 81bb 312a deba d287 fc3c 2eab abbc
000000f0: 08c3 f93c b2f9 3c3d af32 4f3b b59f 393d
00000100: b35f 403e 9575 543c 3a3b 053d 3f00 803c
00000110: 1a43 04bd 8500 103c c0d4 d63c 0ca0 cd3c
00000120: 65f3 0e3c b34b c5bc c46a 5d3d fa92 a83c
00000130: 819c dfbc c1c0 e3bd f421 ccbc 90e1 ff3c
00000140: 18c4 243c e63c 6f3d 47f3 de3d 04b8 f0bb
00000150: df86 5c3d 1915 58bd c06a c83a d6bd 4e3d
00000160: c6de 293d f56d 9b3b 1c2d 223d 53e3 ae3d
00000170: 27c6 2d3d 7ec0 b1bd f1d7 a7bb 0ee7 ac3b
00000180: 3c73 493d 09d9 d53c 66b9 323c 0488 463d
00000190: a79a 5dbc c6a8 fbbc 0c2a ebbc 8fa1 1bbd
000001a0: 2c76 9f3b cd1b 783d 3f32 e3bd 3a69 59bd
000001b0: 432f 393d 6404 61bd a0d0 4c3d 1e7a bdb8
000001c0: 39dc a2bc f663 1ebd 30ae afbc 045e b23b
000001d0: 925b a63c 075a 18bd b0ea 893d e84f 02bd
000001e0: c2ab ebbc c354 323d 06f9 233d f900 303d
000001f0: 77a6 143d 1e35 d13d 8b6a 6fbc 39d6 6e3d
00000200: 903b 873c 360c 2b3d 1994 8f3c 13db 343b
00000210: ee14 593d 22d5 79bb e358 033d 0d87 8e3d
00000220: 75a7 513d f342 18be e4a0 8ebc c83b c4bc
00000230: f08c 00bb 6308 2c3c d637 6b3d 7392 423d
00000240: 5a3a c3bc 736b c53b 564e 1abd 59c4 573d
00000250: 59f6 f4bb 2a13 bf3c aada a23a 8656 c8bd
00000260: a3dc 903b 64dc c13b 0be5 a53b d8f1 a13d
00000270: ec37 503d 5831 883a 51b2 9a3b 31fc 4a3d
00000280: 74b7 c1bc eea9 7b3d 64fa c33d 56c7 3d3d
00000290: a0fa bf3c 381f 443d 6f43 3cbc a260 ac3b
000002a0: e71d 0cbe e8db e33b 9f54 bdbc eeac fe3b
000002b0: 519e 7a3d 34af 313c 8024 493c 2d24 543c
000002c0: ad3d 01bc 3df0 023c a1e8 1abb 2194 693c
000002d0: 084d c53c 1598 c9bb 11d1 c3bb 93c8 13bd
000002e0: 91a3 d5bd 4eec 5d3d bdf7 2d3d a03c f13b
000002f0: 482f f23c 55d2 173c 9c30 86bc a07b c4bb
00000300: 7c6c 5f3b 6b42 31bb a81a a6b9 8c26 7f3d
00000310: aef7 7e3d 9631 703d ddf4 07bd 1433 21bd
00000320: 48f8 923d 5fe7 963d 9151 d83b 0aaa 6fbc
00000330: bea6 433d 75f8 8dbb cc2e 63be 730a f03c
00000340: 8bfa 89bd f27f 993d 368d 233c 3369 86be
00000350: 5fce ea3c 597d 1cbb 9446 4c3c 9ef8 ffba
00000360: 5eb8 993c ff29 223d 2c7a 36bd fe60 5cbd
00000370: 1dd8 573d 5ee0 3a3d 0ce3 7b3d 9d4d 673d
00000380: cc7a 8abc 7851 733d adad 453d 6712 cdbb
00000390: d7e8 14bc 18c6 2abb 8367 67bb 6d87 9e39
000003a0: 2d6d e6bc 6c0f 4e3b 073b 7a3c 4ec4 293d
000003b0: 3ab2 a5bc f8d7 203c a278 0a3d 58bb b63b
000003c0: ed5d d23b 9573 47bc 54ab 2b3d 3039 36bc
000003d0: 1242 4fbd 9d17 64bc bdc0 353d c5a4 9e3d
000003e0: 4542 efbc 9ad2 b03b 7cae 0cbd bb08 8a3c
000003f0: 6058 24bc 5a60 123d 5d90 873c 2e5e 0e3d
-0.031594902 -0.089226514 -0.15110296 0.043308552 0.0047105276 0.011301598 -0.020529492 0.03345937
-0.011686863 0.06365962 -0.025783202 -0.024152245 0.006149292 -0.016671209 0.002230147 -0.0018954352
0.0061801975 -0.048946004 0.07194609 -0.002184089 -0.22812612 0.031505276 0.0073569557 -0.03980106
-0.0010329031 -0.010666944 0.041031726 -0.033769105 0.0004328638 -0.0021186557 -0.015526671 0.023237737
0.01072754 0.086977884 -0.0121089285 0.004314789 0.0068596713 -0.054486424 0.05185995 0.061740316
0.026298061 -0.0060873735 0.006634891 0.039447393 0.015704837 0.0072790654 0.056755222 -0.005735331
0.035480585 -0.11856657 0.023098938 0.041558 0.0056200824 -0.0063593294 0.007866418 -0.012678637
-0.003955597 -0.001694983 0.030826483 -0.020955648 0.030488506 0.046136566 0.0031615903 0.045318324
0.18786506 0.012967487 0.032527186 0.015625117 -0.032290556 0.008789186 0.026224494 0.02510073
0.008725022 -0.024083948 0.054056898 0.020577896 -0.027296307 -0.11120749 -0.024918534 0.031235486
0.010056518 0.058407687 0.10886245 -0.007346155 0.05383956 -0.052754495 0.0015290603 0.05047401
0.04147222 0.0047433325 0.0395938 0.085394524 0.0424253 -0.08679293 -0.005122178 0.0052765673
0.04918216 0.026104467 0.01090846 0.04846956 -0.0135256415 -0.030720126 -0.028706573 -0.03799587
0.004866382 0.060573388 -0.11093568 -0.053078867 0.045211088 -0.054935828 0.050003648 -9.0349684e-05
-0.019880401 -0.03866955 -0.021445364 0.0054433364 0.020307336 -0.03719523 0.06734216 -0.031814486
-0.028768424 0.043537866 0.04003241 0.042969678 0.036291566 0.102152094 -0.014612804 0.058309767
0.016507894 0.041759692 0.017526673 0.0027596399 0.052998476 -0.0038121422 0.03206719 0.06959353
0.05118509 -0.14869289 -0.017410703 -0.023954287 -0.0019615255 0.010500046 0.057426296 0.047502946
-0.023831535 0.006024772 -0.037672363 0.052677486 -0.007475656 0.023324568 0.0012424786 -0.09782128
0.004420833 0.005916165 0.0050627044 0.07907456 0.05083458 0.0010390682 0.004720964 0.049556915
-0.023647048 0.061441354 0.095692426 0.04633268 0.023434937 0.047881335 -0.011490687 0.005260543
-0.13683282 0.006953705 -0.02311164 0.0077720797 0.06118614 0.010844994 0.012276769 0.012948078
-0.00788824 0.007991848 -0.0023637193 0.014256508 0.024084583 -0.006152163 -0.0059758504 -0.036079954
-0.104315884 0.054180436 0.04247259 0.0073619634 0.029563561 0.009266456 -0.0163806 -0.0059961826
0.0034091761 -0.0027047645 -0.00031681848 0.06229262 0.062247925 0.05864104 -0.033192504 -0.039355353
0.07176262 0.07368349 0.0066015203 -0.014627943 0.04776644 -0.004332597 -0.2218582 0.029301858
-0.067372404 0.07495107 0.009982398 -0.26252136 0.028662859 -0.0023878424 0.012467999 -0.001952905
0.018764671 0.03959083 -0.044550106 -0.053803436 0.052696336 0.04562413 0.061495826 0.056470502
-0.016904257 0.059403867 0.048261333 -0.0062582972 -0.0090887165 -0.0026058014 -0.00353095 0.00030237008
-0.028128231 0.0031442298 0.015272862 0.041446976 -0.020226587 0.009817116 0.03380645 0.0055765323
0.006419888 -0.012173553 0.041911438 -0.011122033 -0.05060012 -0.0139216455 0.044373263 0.07746271
-0.029206404 0.0053961994 -0.03434609 0.016849866 -0.010030836 0.03573642 0.01654833 0.034757785
