models1/ppo_1500.pth (torch, 275660 bytes, 6 tensors)

net.0.weight f4 [256, 6]
0	0xbec3e296	-0.3825881
1	0xbecc276f	-0.39873835
2	0x3e05264c	0.1300289
3	0x3eb2e8d9	0.34943274
4	0xbba2ef7e	-0.0049723973
5	0xbec2477b	-0.3794516
6	0xbd64c0cc	-0.055847928
7	0xbc99c4fd	-0.01877069
8	0x3ee62e25	0.4495708
9	0xbec750a2	-0.38928705
10	0xbdb1ee03	-0.08687975
11	0x3ee4bb7e	0.44674295
12	0xbdaaad9e	-0.08333896
13	0x3ef6118b	0.4806026
14	0x3cbdb1b1	0.023156019
15	0xbed028a5	-0.4065601
16	0xbe44988b	-0.19198816
17	0xbddf5912	-0.10905661
18	0xbea2bb6e	-0.31783623
19	0x3e7a5a5a	0.24448529
20	0x3e1c0cfa	0.15239325
21	0xbd5f7ea3	-0.05456413
22	0x3c8c1ffe	0.017105099
23	0x3ea38d13	0.3194357
24	0x3e7697a3	0.24081282
25	0xbe087987	-0.13327609
26	0xbefc0b95	-0.49227586
27	0x3e8c3a80	0.27388382
28	0x3e46c35a	0.19410458
29	0xbe4db44c	-0.20088309
30	0x3de96c9b	0.11397668
31	0xbd968e62	-0.07351376
32	0x3ebb1a7a	0.36543638
33	0x3baa92cb	0.0052054874
34	0xbe97d1da	-0.29652292
35	0x3e523be8	0.20530665
36	0xbb738914	-0.0037160562
37	0x3e002982	0.12515834
38	0x3eeb7216	0.45985478
39	0x3e76f1fd	0.24115749
40	0x3da41764	0.08012274
41	0xbea85c7f	-0.3288307
42	0xbebb3125	-0.36560932
43	0xbec43afc	-0.38326252
44	0xbc6895c6	-0.014195865
45	0x3e186583	0.14882474
46	0xbd245278	-0.04011771
47	0x3e75acb9	0.2399167
48	0xbe78d8de	-0.24301478
49	0xbe8eb554	-0.27872717
50	0x3e974de2	0.29551607
51	0xbdba535a	-0.09097929
52	0x3e73d6b7	0.23812376
53	0xbe97d169	-0.29651955
54	0x3e2f43f6	0.17115769
55	0x3e47ac77	0.19499384
56	0x3ee447ff	0.4458618
57	0xbf0cf672	-0.55063546
58	0xbe370d73	-0.17876224
59	0x3e2ca24b	0.16858785
60	0x3db27935	0.08714525
61	0xbe490a64	-0.1963287
62	0xbcff88c6	-0.031193148
63	0xbd56e719	-0.052466486
64	0xbe47847f	-0.19484137
65	0xbe1d8d58	-0.1538595
66	0x3d236c2a	0.039898075
67	0xbe817e5e	-0.25291723
68	0xbe5a2fdb	-0.21307318
69	0x3e8bbd50	0.2729287
70	0xbdd77562	-0.10520436
71	0xbdff15de	-0.12455343
72	0xbe3d3af4	-0.1847952
73	0x3d78afe8	0.060714632
74	0xbe1f8c59	-0.15580882
75	0x3e1b8cd1	0.15190436
76	0xbe8f1dbd	-0.27952376
77	0xbe94d431	-0.2906814
78	0xbd2197a6	-0.039451264
79	0x3d954f82	0.072905555
80	0x3e53556e	0.20638058
81	0x3e8da84b	0.2766746
82	0xbe2589d5	-0.1616586
83	0xbef8b8c8	-0.48578477
84	0x3ea8b583	0.32950982
85	0x3e261384	0.16218382
86	0xbe6f970b	-0.23397462
87	0x3caf9209	0.02143194
88	0xbe9d45b1	-0.30717233
89	0x3ea1f648	0.3163321
90	0x3d338183	0.043824684
91	0xbebdb790	-0.3705411
92	0xbdbf393f	-0.09337091
93	0xbec2527e	-0.37953562
94	0xbe49f625	-0.19722803
95	0xbdc2b69a	-0.09507485
96	0x3e063b7d	0.1310863
97	0x3e5f8f17	0.21831928
98	0x3ebea6b0	0.37236547
99	0xbe1821ee	-0.14856693
100	0xbc9339b0	-0.017971843
101	0xbeb2a400	-0.34890747
102	0xbf16ccd1	-0.58906275
103	0xbe8b1916	-0.27167577
104	0xbd064891	-0.03278405
105	0xbea7199d	-0.3263673
106	0x3dbe3c85	0.09288887
107	0xbcf42a48	-0.029805318
108	0xbed69762	-0.4191237
109	0x3e8cdd17	0.27512428
110	0xbf0a288a	-0.5396811
111	0xbec5f832	-0.3866592
112	0xbddca6cb	-0.10774001
113	0x3e3fdc71	0.18736435
114	0x3e126c69	0.14299168
115	0x3e56b355	0.20966847
116	0xbe477ac1	-0.1948042
117	0x3ec7ab9d	0.38998118
118	0xbdd72354	-0.10504785
119	0xbe7b4082	-0.24536327
120	0xbd530f86	-0.051528476
121	0x3e1cb59e	0.15303656
122	0xbd12bd80	-0.035825253
123	0x3e9f9e25	0.31175342
124	0x3e5100cd	0.20410462
125	0x3ec64eb1	0.38731912
126	0x3eb62da1	0.35581687
127	0x3e6951fa	0.22785178
128	0x3c1cbffd	0.009567258
129	0x3dbd5e66	0.09246521
130	0x3dbda868	0.092606366
131	0xbebc802c	-0.36816537
132	0xbeb72a99	-0.35774687
133	0x3d399ec7	0.045317437
134	0x3e9c1879	0.3048742
135	0xbf06df45	-0.5268443
136	0xbd4a94b9	-0.04945824
137	0x3ec13340	0.37734413
138	0x3e038b84	0.1284619
139	0xbe19e3b0	-0.15028262
140	0xbe0f2a4a	-0.13980976
141	0xbd602e57	-0.054731693
142	0x3e5d3e16	0.21605715
143	0xbbf6eed5	-0.007535795
144	0xbe0a842f	-0.13526987
145	0x3e694d48	0.22783387
146	0xbcb31e68	-0.021865085
147	0x3c4547e4	0.012041066
148	0x3e5053d8	0.20344484
149	0xbee1c88f	-0.44098327
150	0xbe646938	-0.22305763
151	0x3ea6206f	0.3244662
152	0xbed557ca	-0.4166854
153	0x3f1d641f	0.614809
154	0x3d87cd75	0.06630985
155	0xbe6def61	-0.23235847
156	0x3e203660	0.15645742
157	0x3d42472d	0.04743116
158	0xbe5f037d	-0.21778674
159	0x3e366446	0.17811689
160	0x3dc6a60f	0.09699642
161	0xbe5286b5	-0.20559199
162	0x3d9d9163	0.07693746
163	0xbdd301df	-0.10303091
164	0x3f178dfc	0.59201026
165	0xbf0c08d1	-0.5470095
166	0x3d5f51f2	0.05452151
167	0xbeaf498c	-0.342358
168	0x3e964439	0.29348925
169	0xbecce28f	-0.400166
170	0x3e03caa2	0.12870267
171	0x3e93a772	0.28838688
172	0xbd871c87	-0.06597238
173	0xbe305ea0	-0.17223597
174	0xbe92279c	-0.28545845
175	0x3d5699bc	0.052392706
176	0x3e38d753	0.1805089
177	0xbeac39a7	-0.33637735
178	0xbe599c4a	-0.21251026
179	0x392c491f	0.00016430438
180	0xbdf385c5	-0.11890749
181	0xbe73847a	-0.23781005
182	0xbec20206	-0.3789217
183	0x3ebefb4f	0.37301108
184	0x3eb93e00	0.36180115
185	0x3e894e45	0.26817527
186	0xbcc99056	-0.024604958
187	0xbe869965	-0.26288906
188	0xbf0e0f8e	-0.55492485
189	0x3e8439a7	0.25825235
190	0x3d8f3a26	0.06993513
191	0xbe1628c5	-0.1466399
192	0xbe43a8de	-0.19107386
193	0xbd5d314e	-0.0540021
194	0xbe61ad64	-0.220388
195	0x3eb38ecc	0.35069883
196	0xbdf47d19	-0.11937923
197	0x3d449161	0.047990207
198	0xbd95643e	-0.0729451
199	0x3e8360ab	0.2565969
200	0xbdb4202f	-0.08795201
201	0xbcb1cac9	-0.02170314
202	0x3e2103dd	0.1572413
203	0x3dd6a8ac	0.1048139
204	0xbeca4f46	-0.39513606
205	0x3e318dd4	0.1733926
206	0xbe8f4d93	-0.27988872
207	0x3eae85d0	0.34086466
208	0xbeabc572	-0.33549076
209	0x3da8bbc5	0.08238939
210	0xbeceb5f8	-0.40373206
211	0x3ce06987	0.02739407
212	0x3e73a5b5	0.23793681
213	0x3e0b94b4	0.13630944
214	0x3d0b2c5d	0.033977855
215	0xbe25c961	-0.16190101
216	0x3e2b525d	0.16730638
217	0x3e590906	0.21194848
218	0x3e5f143d	0.21785064
219	0xbef1ec02	-0.47250372
220	0xbe38f792	-0.1806319
221	0xbea808c1	-0.3281918
222	0xbe7c1967	-0.24619065
223	0xbe4a3428	-0.19746459
224	0x3edc6977	0.43049213
225	0xbe6ce6dc	-0.23134941
226	0xbe2d7f21	-0.16943027
227	0xbe4c8901	-0.19974138
228	0xbda92297	-0.082585506
229	0x3e23603e	0.15954682
230	0xbec1cf0b	-0.37853274
231	0x3e9a6cdb	0.30161175
232	0xbe373e62	-0.17894891
233	0xbd60662c	-0.05478494
234	0xbd8724c9	-0.06598813
235	0x3d32745e	0.043568008
236	0xbd4c147d	-0.049824227
237	0x3d99d308	0.07510954
238	0xbe8c8586	-0.2744562
239	0x3eefa24d	0.46803513
240	0x3e6c41c8	0.23071969
241	0xbec501f8	-0.38478065
242	0xbd5846fe	-0.05280208
243	0xbe7200ff	-0.23633192
244	0x3e1447fc	0.14480585
245	0xbec97271	-0.39345124
246	0xbf07be8a	-0.53025115
247	0xbf111f39	-0.56688267
248	0xbb6c086f	-0.003601577
249	0x3e1d4de0	0.15361738
250	0x3e0e6426	0.13905391
251	0xbda61708	-0.081098616
252	0x3e9066ab	0.2820333
253	0xbea56a75	-0.32307783
254	0x3e493d02	0.19652179
255	0xbf13b5bf	-0.576992

net.0.bias f4 [256]
0	0xbea02334	-0.31276858
1	0x3ca2a5b6	0.019854408
2	0xbea82afb	-0.32845291
3	0xbed83bfa	-0.42233258
4	0x3ed2e90b	0.41193423
5	0xbedcae23	-0.43101606
6	0xbebc863a	-0.36821157
7	0xbec35c43	-0.38156328
8	0x3d8adcfa	0.06780429
9	0x3ba15323	0.0049232407
10	0x3e0a0222	0.13477376
11	0xbe65dab1	-0.22446705
12	0xbe18f8de	-0.14938685
13	0xbe2f29c9	-0.17105784
14	0xbed50862	-0.41607958
15	0x3dd192fe	0.10233115
16	0x3eb7b8f9	0.3588331
17	0xbc622e02	-0.013804914
18	0xbdcd7191	-0.10031427
19	0x3ead8ffb	0.3389891
20	0xbe7ae357	-0.24500786
21	0xbe867ac4	-0.26265538
22	0x3d057020	0.032577634
23	0x3e9c3c2a	0.30514652
24	0x3ec176e5	0.37786022
25	0x3e2b9df2	0.1675947
26	0x3e63d42f	0.2224891
27	0x3e622183	0.22083096
28	0x3d54d3eb	0.051959913
29	0xbd8c2887	-0.068436675
30	0x3ea2e43a	0.31814748
31	0x3e3e3665	0.18575437
32	0x3dffa755	0.12483088
33	0xbea73989	-0.32661083
34	0xbe56fdf4	-0.20995313
35	0xbd70ee4d	-0.05882101
36	0xbedb61fc	-0.42848194
37	0x3ed30bf8	0.4122007
38	0x3e368084	0.17822462
39	0xbea4abf9	-0.32162455
40	0xbe5aa605	-0.21352394
41	0xbe06df57	-0.13171135
42	0x3e3bb068	0.18329012
43	0xbe9a48a1	-0.30133536
44	0xbe1741fe	-0.14771268
45	0x3e7c0858	0.24612558
46	0x3df1f484	0.11814216
47	0xbf02ba19	-0.5106521
48	0x3ce601eb	0.028077086
49	0x3e7933ec	0.24336213
50	0xbeaef262	-0.34169298
51	0x3e29fff1	0.1660154
52	0xbdeb7aa6	-0.11498003
53	0xbe1f6205	-0.15564735
54	0xbe8e8b69	-0.27840737
55	0x3e63fc01	0.222641
56	0xbe9cedc1	-0.30650142
57	0x3e13855f	0.14406346
58	0x3d4fa4eb	0.050694387
59	0xbdfdf65a	-0.124005035
60	0xbda73405	-0.08164219
61	0x3e2dbeec	0.16967362
62	0xbe18d7db	-0.14926092
63	0x3c94edae	0.01817974
64	0x3e8ea558	0.27860522
65	0x3e02ced1	0.12774207
66	0xbe1d42f3	-0.1535757
67	0x3e707db8	0.23485458
68	0x3e5986b0	0.21242785
69	0x3e8a3524	0.26993668
70	0x3e17af74	0.14813024
71	0xbd0ccd72	-0.034375615
72	0x3e8afc65	0.27145687
73	0xbedf721b	-0.43641743
74	0xbeb9473a	-0.36187154
75	0x3af626c4	0.0018779864
76	0x3e7e2054	0.2481702
77	0xbec0fd62	-0.37693316
78	0x3e672a07	0.22574626
79	0xbc5f1499	-0.013615751
80	0xbe23b428	-0.15986693
81	0xbd4ecab1	-0.05048627
82	0xbd6deea1	-0.058088902
83	0xba41fe7f	-0.00074002886
84	0xbe7e3123	-0.24823432
85	0x3d941e45	0.07232336
86	0x3e8357fb	0.2565306
87	0x3eb2e3bf	0.3493938
88	0x3ae400b1	0.0017395226
89	0x3e8b568c	0.27214468
90	0xbd5ce7ba	-0.05393193
91	0x3de1d5a0	0.11027074
92	0x3e5ae2c8	0.21375573
93	0x3d2318ff	0.03981876
94	0x3e2ea363	0.17054515
95	0x3e948928	0.29010892
96	0xbec68600	-0.3877411
97	0xbe976c33	-0.29574737
98	0xbea274fb	-0.31729874
99	0x3d68b72a	0.056815304
100	0xbe23cf41	-0.1599703
101	0xbe5eeca3	-0.21769957
102	0x3e24b8ea	0.16086164
103	0x3e609d9d	0.21935125
104	0x3dd43f8f	0.10363685
105	0xbe822e51	-0.25425962
106	0x3c18d5c2	0.009328308
107	0x3e2943bc	0.16529745
108	0xbe9f66d0	-0.31133127
109	0x3e11feb2	0.14257315
110	0x3e0267a8	0.12734854
111	0x3eab62e9	0.334739
112	0x3ea3dcb4	0.3200432
113	0xbe36fc43	-0.17869668
114	0xbe4c39e9	-0.19943966
115	0xbebcea8d	-0.36897698
116	0xbe0ee8a3	-0.13955931
117	0xbeacf96e	-0.3378405
118	0x3ebee553	0.37284335
119	0xbecfdb7e	-0.40597147
120	0xbea2d289	-0.3180125
121	0xbdbe69d7	-0.09297531
122	0xbc4f22e6	-0.012642598
123	0x3e1294e0	0.14314604
124	0x3eb0d0af	0.34534213
125	0xbe6ff0af	-0.23431657
126	0x3ea33403	0.3187562
127	0xbf16a461	-0.5884457
128	0x3ea93293	0.33046398
129	0xbe766826	-0.24063167
130	0xbe53c893	-0.20681982
131	0x3d34354a	0.043996133
132	0x3e4a0f56	0.19732413
133	0xbea4091b	-0.32038197
134	0xbd8dbf87	-0.069212966
135	0x3e351150	0.17682385
136	0x3d1af276	0.037828885
137	0x3e0aa239	0.13538446
138	0xbda0dbf3	-0.07854452
139	0x3e63d3ef	0.22248815
140	0x3ec5b757	0.3861644
141	0x3eb3fdae	0.3515448
142	0x3dad3255	0.08456866
143	0xbd623dfd	-0.055234898
144	0x3ebc273d	0.36748686
145	0x3e9704e2	0.29495913
146	0xbeaeb4fb	-0.34122452
147	0xbe02b61b	-0.1276478
148	0x3e908817	0.28228828
149	0x3e4f2806	0.20230111
150	0xbe0445eb	-0.12917297
151	0xbe9fc87f	-0.31207654
152	0xbe3c71c7	-0.18402778
153	0x3e921b7b	0.2853659
154	0x3e639126	0.22223338
155	0xbe8335a6	-0.25626868
156	0xbe72335e	-0.23652408
157	0x3d220c2d	0.039562393
158	0xbe8c2958	-0.27375293
159	0x3e15cae5	0.1462818
160	0xbeb705b5	-0.35746542
161	0xbe3b5eaa	-0.1829783
162	0xbe078d7f	-0.1323757
163	0x3e6194f4	0.22029477
164	0x3bcc5396	0.00623555
165	0xbee70a03	-0.45124826
166	0x3eb7f5e0	0.35929775
167	0x3eb32ed6	0.3499667
168	0x3ec51bf1	0.3849788
169	0xbea94740	-0.33062172
170	0xbecac49b	-0.39603123
171	0xbeb839bd	-0.3598155
172	0xbe7dbd4f	-0.24779247
173	0xbe9f4c2f	-0.3111281
174	0xbdc92961	-0.098223455
175	0x3ec353c2	0.3814984
176	0x3e4ab027	0.1979376
177	0xbe30cb4e	-0.17265055
178	0x3ea260f3	0.3171459
179	0xbcf54ce7	-0.029943896
180	0xbea87381	-0.32900622
181	0xbe5316d9	-0.20614184
182	0xbece9374	-0.40346873
183	0xbe19dad9	-0.1502489
184	0xbeeb99f8	-0.46015906
185	0x3e400d9c	0.18755192
186	0x3ea98a8f	0.33113524
187	0xbde88868	-0.113541424
188	0xbd76aeaa	-0.060225166
189	0xbea62725	-0.3245174
190	0x3ebb048e	0.36526912
191	0x3d574bc4	0.05256249
192	0x3c955432	0.018228624
193	0x3ec5d76a	0.3864091
194	0xbe532e3e	-0.20623109
195	0xbe8409dd	-0.25788775
196	0xbe1e47f2	-0.15457132
197	0xbc3f305f	-0.011669247
198	0xbdc72393	-0.09723582
199	0xbea0d954	-0.31415808
200	0x3d48fe98	0.049070925
201	0x3e25051a	0.16115227
202	0x3eb458e5	0.3522407
203	0x3bf1f4cb	0.007383918
204	0x3e76d701	0.24105455
205	0xbd4837dd	-0.0488814
206	0x3e5c4132	0.21509245
207	0x3bb283f2	0.005447858
208	0x3eb42d2f	0.35190722
209	0x3e5efb3f	0.2177553
210	0x3c788a8c	0.015169751
211	0x3df8669f	0.121289484
212	0x3eb16c97	0.3465316
213	0xbef04b97	-0.4693267
214	0xbcfb8194	-0.030701436
215	0xbe1a87fa	-0.15090933
216	0xbe27d1d3	-0.16388635
217	0xbd5e1fb6	-0.05422946
218	0xbedf44f3	-0.43607292
219	0x3eb2b99b	0.3490723
220	0x3d98b8d8	0.07457131
221	0xbeccf22b	-0.4002851
222	0x3e05aff3	0.130554
223	0xbe673e66	-0.22582397
224	0xbeab757d	-0.33488074
225	0x3e45b154	0.19305927
226	0xbd3a0d28	-0.045422703
227	0x3e63be62	0.22240594
228	0x3e5abad2	0.21360329
229	0xbe53eaf7	-0.206951
230	0xbdbbb65d	-0.091656424
231	0x3dcca96e	0.09993254
232	0xbda2f653	-0.07957139
233	0xbd9e93de	-0.07743047
234	0xbeea7ba3	-0.45797452
235	0xbdeee41b	-0.116646014
236	0x3ea63fe4	0.3247062
237	0xbe8462e9	-0.25856712
238	0x3ed1ee20	0.41001987
239	0x3eaa77f8	0.33294654
240	0xbd642525	-0.055699486
241	0x3e688e0c	0.22710437
242	0x3db5b1c4	0.08871797
243	0xbe0d69dd	-0.13809915
244	0x3e35c534	0.17751008
245	0xbe371497	-0.17878948
246	0xbe3fe520	-0.18739748
247	0x3e847619	0.2587135
248	0xbe0b34af	-0.13594316
249	0x3ea5fedd	0.32421008
250	0xbecfb8c7	-0.4057066
251	0xbd098523	-0.033574235
252	0x3af0806f	0.0018348823
253	0xbcf2093a	-0.029545415
254	0xbd40fceb	-0.0471162
255	0xbda293b2	-0.07938327

net.2.weight f4 [256, 256]
0	0xbd5eecb6	-0.054424964
1	0xb8fc1d07	-0.00012021703
2	0xbd715db2	-0.058927245
3	0xbcff767c	-0.031184427
4	0x3d02a970	0.03189987
5	0xbc7aed03	-0.015315297
6	0x3c09f872	0.00842105
7	0xbbf2e859	-0.007412952
8	0xba658e41	-0.0008756854
9	0x3c8ed939	0.017437564
10	0xbd30c516	-0.043156706
11	0x3cc50c78	0.024053797
12	0xbb70007c	-0.0036621382
13	0xbd57733c	-0.05260013
14	0x3d52e020	0.051483274
15	0x3d064628	0.03278175
16	0x3d4566d6	0.048193775
17	0xbd08dd18	-0.033413976
18	0x3cc44a70	0.023961276
19	0xbd24aea3	-0.04020561
20	0xbd22cb04	-0.039744392
21	0xbcd0b530	-0.025477022
22	0x3cc6aa5f	0.024251161
23	0xbcc40c71	-0.023931714
24	0xbcab70d6	-0.020927828
25	0xbc4cb73e	-0.01249486
26	0xbd4d2e9d	-0.050093282
27	0x3d0e2c45	0.034710187
28	0xbd440f45	-0.047866125
29	0x3d1774e3	0.036976706
30	0xbd060b56	-0.032725655
31	0xbc29383a	-0.010328347
32	0xbd375b89	-0.04476503
33	0xba8abb40	-0.0010584369
34	0x3d244eec	0.04011433
35	0xbd646b51	-0.055766407
36	0xbd51abbd	-0.051189173
37	0x3d4314cb	0.04762725
38	0xbd4d0251	-0.050051037
39	0x3a92f254	0.0011211135
40	0xbcc30af0	-0.023808926
41	0x3cd53dd5	0.02603046
42	0x3b744456	0.0037272177
43	0x3af93ede	0.0019015928
44	0xbd26fa71	-0.040766183
45	0x3d3cea09	0.04612163
46	0x3d4c3ea5	0.04986443
47	0x3c70c810	0.014696136
48	0xbcf262a8	-0.029588059
49	0x3ca36338	0.019944772
50	0x3d6008cc	0.05469589
51	0x3d084d26	0.0332767
52	0xbce7a829	-0.028278427
53	0x3d6dbd12	0.05804164
54	0x3d496942	0.049172647
55	0x3c821aee	0.015881982
56	0x3ba5f817	0.005064975
57	0x3c1ade6f	0.009452446
58	0x3b1b2b80	0.002367705
59	0x3caeb4d8	0.021326467
60	0x3d72aaac	0.059244797
61	0x3a403be7	0.0007333145
62	0x3c8aceae	0.016944256
63	0x3d48779d	0.048942197
64	0x3d09becc	0.033629224
65	0x3c46841b	0.012116457
66	0xbcbdd130	-0.023171037
67	0xbd39597f	-0.045251366
68	0xbd0c70a6	-0.034287117
69	0xbd03e22b	-0.032198112
70	0x3c6dce97	0.014514587
71	0xbc790918	-0.015199922
72	0xbd5e8275	-0.054323632
73	0x3d3d82a6	0.046267174
74	0xbb8aa400	-0.004230976
75	0x3d373ae4	0.044733897
76	0xbd6130ae	-0.054978065
77	0x3a02d08d	0.0004990183
78	0x3c945654	0.01810757
79	0x3d3111b0	0.04322976
80	0x3c9a4f05	0.018836508
81	0x3c79b163	0.015240046
82	0xbc91bc32	-0.017789934
83	0x3cd1c32a	0.025605757
84	0xbc3c7819	-0.011503243
85	0xbca21b8b	-0.019788524
86	0x3d343f25	0.04400553
87	0x3cde0e65	0.027106473
88	0xbc407df1	-0.011748777
89	0xbd423671	-0.0474152
90	0xbd2ce96e	-0.042214803
91	0x3d3450f4	0.044022515
92	0xbcf42a23	-0.029805249
93	0xbd5d750a	-0.054066695
94	0xbd86ef60	-0.06588626
95	0xbcc1f973	-0.023678517
96	0xbc70204e	-0.01465614
97	0xbd50232c	-0.050814793
98	0xbd2e8eda	-0.042616703
99	0xbd40778b	-0.046989005
100	0xbd8d3305	-0.06894497
101	0x3d631f8a	0.05545
102	0x3d63e091	0.055634085
103	0xbb37cd53	-0.0028045967
104	0x3d476a5b	0.048685413
105	0x3cc6af08	0.024253383
106	0xbc794cc4	-0.015216056
107	0x3d0740b2	0.033020683
108	0xbcbd9fbc	-0.023147456
109	0xbd82f4e7	-0.06394368
110	0x3cbc5916	0.022991698
111	0x3d1cf302	0.038317688
112	0xbc360ff6	-0.011112204
113	0xbd67cb88	-0.056590587
114	0x3c8331fb	0.016015043
115	0x3b6452cc	0.003483939
116	0x3d0023b1	0.031284038
117	0x3b66c500	0.0035212636
118	0x3d383e15	0.04498108
119	0x3d002f84	0.031295314
120	0xbd568d48	-0.05238083
121	0xbc34df50	-0.01103957
122	0x3d359a89	0.04433683
123	0x3d2cf8a6	0.042229317
124	0x3cfd295c	0.03090351
125	0xbc616828	-0.013757743
126	0xbca68752	-0.020328198
127	0xbce3956c	-0.02778121
128	0xbb645804	-0.00348425
129	0xbc445586	-0.011983281
130	0xbd47a1b0	-0.04873818
131	0xbbaa3460	-0.005194232
132	0x3bd6c097	0.00655372
133	0x3d2bb944	0.04192473
134	0xbd051260	-0.032488227
135	0x3cf13dea	0.029448468
136	0x3d3d8fb6	0.04627963
137	0xbc167120	-0.009182245
138	0xbd514e06	-0.0510998
139	0xbd40d5d8	-0.047078937
140	0xbcd5a06a	-0.026077468
141	0xbd7bce6d	-0.06147616
142	0xbbc3b6ff	-0.0059727426
143	0x3d240602	0.040044792
144	0xbd03c8a4	-0.032173768
145	0xbc988d91	-0.018622192
146	0x3d688794	0.056769922
147	0x3cc2f328	0.023797587
148	0x3d3fc0ba	0.046814658
149	0x3cfd7960	0.030941665
150	0xbbc9d9ea	-0.0061600106
151	0x3d2c9f2e	0.042143993
152	0xbc91f212	-0.017815623
153	0xbd40b9c7	-0.04705217
154	0xbd854a90	-0.06508362
155	0xbd48b5b4	-0.04900141
156	0xbd2a0168	-0.041505247
157	0x3d489bc8	0.04897669
158	0xbd21fb32	-0.0395462
159	0xbd876578	-0.066111505
160	0x3cdaa888	0.02669169
161	0xbca19e7c	-0.019728892
162	0xbcb259b3	-0.021771288
163	0xbd349d3c	-0.044095263
164	0x3c87ecef	0.01659247
165	0x3c8aa1ea	0.01692291
166	0xbd38d5ae	-0.045125656
167	0x3d5c4442	0.053776033
168	0xbd38df39	-0.045134757
169	0x3d1b5cf7	0.037930455
170	0xbd70a07a	-0.058746792
171	0x3d331c30	0.043728054
172	0xbd4766e5	-0.048682112
173	0x3c82fe24	0.015990324
174	0xbd20f602	-0.03929711
175	0xbd49d201	-0.04927254
176	0x3d1e105c	0.03858982
177	0x3d08284e	0.033241563
178	0x3d5d2eae	0.053999595
179	0x3d0ac87c	0.033882603
180	0xbcc3b4e4	-0.023889966
181	0xbca0dfa0	-0.019637883
182	0xbcbb3a48	-0.02285494
183	0xbd78465f	-0.060613986
184	0xbc1417f8	-0.009038918
185	0x3ced031c	0.028932147
186	0x3d579687	0.05263379
187	0xbd62e438	-0.055393428
188	0x3cae1bed	0.02125355
189	0xbd89bb9e	-0.06725238
190	0x3c5bc950	0.013414696
191	0x3b52bc20	0.0032155588
192	0x3cf7b560	0.030237854
193	0xbbeb63bf	-0.0071835215
194	0x3d31211c	0.043244466
195	0xbd0870db	-0.033310752
196	0x3c3b7236	0.011440804
197	0x3cd32165	0.02577276
198	0x3cdbd2d8	0.026833937
199	0x3cc57464	0.024103351
200	0xbca811e7	-0.020516349
201	0x3d51baf6	0.05120369
202	0xbd5dad7f	-0.054120537
203	0xbc39c891	-0.011339323
204	0x3ca5d511	0.0202432
205	0x3c956035	0.018234352
206	0xbcdbc01b	-0.026825001
207	0xbc48f1c0	-0.012264669
208	0x3d49905c	0.049209937
209	0x3ba61903	0.0050688996
210	0xba6b1647	-0.0008967858
211	0x3d1448ec	0.036202356
212	0xbd3dee48	-0.04636982
213	0xbcc3347c	-0.023828737
214	0xbc975e1c	-0.018477492
215	0xbc00dec8	-0.007865615
216	0xbcdd36ec	-0.027003728
217	0xbd22eba2	-0.0397755
218	0x3d29e0a7	0.04147401
219	0xbd3743b1	-0.04474229
220	0x3d4ab61d	0.049490083
221	0xbc8d3f23	-0.01724202
222	0x3c7d264d	0.015451026
223	0x3d29acb6	0.041424476
224	0x3cfe6888	0.031055704
225	0x3d327b8b	0.04357485
226	0xbd89d9e3	-0.06731012
227	0xbd73b156	-0.059495293
228	0xbd8c4b90	-0.0685035
229	0xbd30a71b	-0.043128114
230	0x3bdb3901	0.006690145
231	0x3b7cb1b4	0.0038558068
232	0xbcb3b49b	-0.021936705
233	0xbd269cfe	-0.040677063
234	0xbcf92aad	-0.030415857
235	0x3d789601	0.06068993
236	0xbd6cf2ab	-0.057848614
237	0x3d3a243c	0.045444712
238	0xbd605aad	-0.054773975
239	0xbd389247	-0.045061376
240	0xbd5aa95a	-0.053384162
241	0x3d631cbc	0.055447325
242	0xbd6863c3	-0.056735765
243	0xbd32ae64	-0.043623343
244	0xbd36d0ee	-0.044632845
245	0x3d04415c	0.032288894
246	0xbd258e37	-0.04041883
247	0xbd4c70ca	-0.04991225
248	0x3ce0b8e2	0.027431909
249	0x3c998634	0.01874075
250	0xbca6c69c	-0.020358376
251	0x3b1ae99a	0.0023637773
252	0xbc19df53	-0.009391624
253	0x3cb1be04	0.021697052
254	0xbd627b66	-0.055293463
255	0xbd727e74	-0.059202626

net.2.bias f4 [256]
0	0x3c3abb51	0.011397199
1	0xbddf01f5	-0.10889045
2	0xbdbd242f	-0.09235417
3	0x3d1bbc50	0.038021386
4	0x3cc7c646	0.024386536
5	0xbc2d60a0	-0.010582119
6	0x3d016be4	0.031597033
7	0xbd91c3d4	-0.071174294
8	0xbcc8dc11	-0.024518998
9	0x3e4b3f05	0.19848259
10	0x3d09ee9c	0.03367482
11	0xbd75914e	-0.059953026
12	0x3da2a52f	0.079416625
13	0xbd0ba543	-0.034093153
14	0x3d8f99fa	0.070117906
15	0xbd5fcfb1	-0.05464143
16	0x3cf2a995	0.029621879
17	0x3d54dce9	0.05196849
18	0x3e18a46b	0.1490647
19	0xbc51d01a	-0.012805963
20	0x3a34054c	0.00068672444
21	0x3d013355	0.031543095
22	0xbbd8e538	-0.006619122
23	0xbd1f9855	-0.038963635
24	0xbd45a182	-0.04824973
25	0xbd75c91e	-0.060006253
26	0xbca25396	-0.019815248
27	0x3c8205d6	0.015871923
28	0xbe257984	-0.16159636
29	0xbcbf5b4a	-0.02335896
30	0x3d02e182	0.031953342
31	0x3def4edc	0.11684963
32	0xbc5b4bf8	-0.013384812
33	0x3e3ce6df	0.18447445
34	0x3cfc1c98	0.030775353
35	0x3d39b6f6	0.0453405
36	0x3dc41da6	0.095759675
37	0xbe04f213	-0.12982969
38	0x3d9e9741	0.07743693
39	0xbd239a9a	-0.03994236
40	0x3bcc32de	0.00623165
41	0x3d013b70	0.031550825
42	0xbd7afa72	-0.061274
43	0x3d844297	0.064580135
44	0xbcd0ba64	-0.025479503
45	0x3d8dd713	0.06925788
46	0x3cbb6fea	0.022880513
47	0x3cd3a0a1	0.02583343
48	0x3e01cbc9	0.12675394
49	0xbbbcfa0b	-0.005767112
50	0x3d217f0e	0.03942781
51	0x3e2ae093	0.16687231
52	0x3d8f7fc0	0.07006788
53	0xbc672e0a	-0.014110098
54	0x3d32860f	0.04358488
55	0xb999cdc4	-0.0002933574
56	0xbd2e8266	-0.042604826
57	0xbc28ef9e	-0.010311035
58	0x3d7fb140	0.0624249
59	0x3cd9b20c	0.026574157
60	0x3d960680	0.073254585
61	0xbd461ca7	-0.04836717
62	0xba933715	-0.0011231626
63	0x3d7e7686	0.06212475
64	0x3ce5ebdd	0.02806657
65	0x3da65827	0.081222825
66	0x3cc7aa25	0.024373123
67	0xbd79aa3f	-0.060953375
68	0xbd93fe43	-0.07226231
69	0x3cb0a95d	0.021565134
70	0x3cacb9d2	0.0210847
71	0x3b8cf637	0.004301812
72	0x3d0f866e	0.03504031
73	0xbcd710f1	-0.026253195
74	0xbd583443	-0.052784216
75	0x3ce266cd	0.02763691
76	0xbd9bb1bc	-0.076022595
77	0xbda1c428	-0.07898742
78	0xbd62d730	-0.055381
79	0xbd5cee2f	-0.053938087
80	0x3c14b01e	0.009075193
81	0x3e2af782	0.16695979
82	0x3dbcc9e0	0.09218192
83	0xbc32f8c0	-0.010923564
84	0xbd415d89	-0.047208343
85	0xbc7b994b	-0.015356372
86	0xbd462272	-0.048372693
87	0x3d358f86	0.044326328
88	0x3ceab9ba	0.028653014
89	0xbca14b22	-0.019689146
90	0x3d1b4396	0.03790625
91	0x3e6d1116	0.23151049
92	0x3cf17741	0.02947581
93	0xbdb13624	-0.08652905
94	0xbd83d3f9	-0.06436915
95	0xbc46f9ee	-0.012144549
96	0x3d2ff041	0.042953733
97	0x3d841e20	0.064510584
98	0xbba6ba47	-0.005088124
99	0x3d541e67	0.051786806
100	0xbc9fa4a2	-0.019487683
101	0x3c834540	0.016024232
102	0xbcdd44b5	-0.027010301
103	0x3c7c3633	0.0153937815
104	0x3cce9389	0.025216835
105	0x3e26f20e	0.16303274
106	0xbdd15272	-0.10220803
107	0xbd5d8056	-0.05407747
108	0xbc9726b7	-0.018451078
109	0xbd1bab7c	-0.038005337
110	0x3d1ce87d	0.038307656
111	0xbd5bd5ec	-0.05367081
112	0xbd97ad34	-0.07406083
113	0x3bafd0a5	0.0053654485
114	0xbbcd1d5f	-0.006259605
115	0x3c29dfda	0.010368312
116	0x3bece805	0.0072298073
117	0xbce26b3b	-0.027639022
118	0x3e4151da	0.1887888
119	0x3b407340	0.002936557
120	0xbd5c3aa2	-0.053766854
121	0x3ac4aac4	0.0015004505
122	0x3d6cb302	0.057787903
123	0x3d831bb5	0.06401769
124	0x3d96f221	0.07370401
125	0x3dedb33e	0.11606453
126	0x3c8aa39c	0.016923718
127	0x3de15baa	0.11003812
128	0x3cbd0ef0	0.023078412
129	0x3ca09ad0	0.01960507
130	0x3d006aba	0.031351782
131	0x3d018226	0.03161826
132	0x3d052cda	0.032513477
133	0xbd89764f	-0.06712019
134	0xbd5d138f	-0.05397373
135	0x3e2616d6	0.16219649
136	0x3dd47704	0.10374263
137	0xbd8cc5be	-0.06873654
138	0xbc570058	-0.013122641
139	0xbd8558fb	-0.06511112
140	0x3cf8e1ab	0.030381044
141	0xbd4ce40b	-0.050022166
142	0x3e26b9fd	0.16281886
143	0xbd784bf6	-0.060619317
144	0xbcc78ec9	-0.024360077
145	0xbd1c985d	-0.038231242
146	0xbd4d5df4	-0.05013843
147	0xbd87db99	-0.06633682
148	0xbd291a83	-0.04128505
149	0xbd071e48	-0.032987863
150	0x3d3849eb	0.04499237
151	0xbd2a0d9b	-0.04151688
152	0xbd063cbc	-0.032772765
153	0xbd1c6084	-0.038177982
154	0x3da435e7	0.080180936
155	0x3e21ef93	0.15814047
156	0xbd974c2a	-0.07387574
157	0x3cdf8558	0.027285263
158	0xbc0a76dc	-0.00845119
159	0xbc9ded94	-0.019278325
160	0x3d4db372	0.05021996
161	0x3e5b50c9	0.21417536
162	0x3e3df91a	0.18552056
163	0x3d94440e	0.07239543
164	0x3db323b5	0.08747045
165	0xbd71a9f6	-0.058999978
166	0x3b4d14d8	0.0031292941
167	0x3cfcc64f	0.03085628
168	0xbd55a72a	-0.052161373
169	0xbd8265c4	-0.063670665
170	0x3cca65c7	0.024706734
171	0xbcf48ab9	-0.029851304
172	0x3e0f8908	0.14017117
173	0x3d48a384	0.048984066
174	0x3c725108	0.014789827
175	0x3d2b9d0c	0.04189782
176	0xbd8bf517	-0.068338566
177	0x3caddead	0.021224344
178	0x3ac50644	0.0015031775
179	0x3d7f9712	0.06239993
180	0xbd697878	-0.056999654
181	0x3c4e69dc	0.012598481
182	0xbd7f9f8c	-0.062408015
183	0x3cb68bf1	0.022283526
184	0xbd154980	-0.03644705
185	0x3c888a04	0.016667373
186	0x3e27d975	0.16391547
187	0x3cc61012	0.024177585
188	0xbd24179a	-0.04006157
189	0x3c96db49	0.01841511
190	0x3bf88494	0.007584164
191	0xbd412e31	-0.047163192
192	0xbd5063cd	-0.050876427
193	0xbd21756a	-0.039418615
194	0x3d011a62	0.0315193
195	0x3dbc0426	0.09180479
196	0x3e570c06	0.2100068
197	0xbd26c99a	-0.040719606
198	0xbc641433	-0.0139208315
199	0xbc788498	-0.015168332
200	0x3e61fb3d	0.22068496
201	0x3e22fb24	0.15916115
202	0x3c03e651	0.008050517
203	0x3ce5b8c8	0.028042212
204	0xbb06cc90	-0.0020568706
205	0xbcb97fb4	-0.022643901
206	0xbc78f166	-0.015194273
207	0x3d70ebd2	0.058818646
208	0xbd870bb8	-0.06594032
209	0x3e0ae048	0.13562119
210	0xbd970b0b	-0.07375153
211	0xbe02a20d	-0.1275713
212	0x3dadf6df	0.084943525
213	0xbd05d132	-0.032670207
214	0xbd59bdad	-0.053159405
215	0xbd731da1	-0.05935443
216	0xbcfa7a20	-0.030575812
217	0xbd0425d5	-0.032262642
218	0xbce66b81	-0.028127434
219	0xbd76ae3f	-0.060224768
220	0x3e391289	0.18073477
221	0xbb61de27	-0.0034464689
222	0x3e02d400	0.12776184
223	0x3dda7ff3	0.106689356
224	0xbd2f202f	-0.042755302
225	0xbd437a51	-0.047724072
226	0x3dae07ec	0.08497605
227	0x3c2d9e7a	0.010596866
228	0xbc546bc6	-0.012965148
229	0xbca1e562	-0.019762699
230	0x3d07c67c	0.033148274
231	0xbb540e6c	-0.003235723
232	0xbdafeb18	-0.085897624
233	0x3cd40c47	0.02588476
234	0xbcc1b741	-0.023646953
235	0x3e382c91	0.1798575
236	0x3cdc0c94	0.026861466
237	0x3d527239	0.051378462
238	0x3ceab65b	0.028651407
239	0xbc76b31c	-0.015057351
240	0x3dd08660	0.1018188
241	0x3d16989d	0.036766637
242	0x3da39619	0.07987613
243	0x3d38ff2b	0.045165222
244	0xbd878f0b	-0.0661908
245	0xbc981677	-0.0185654
246	0x3dd84844	0.105606586
247	0x3e4c2e7e	0.1993961
248	0x3cbf768d	0.02337196
249	0xbca24aaa	-0.019810993
250	0x3c39a395	0.011330505
251	0x3b831ed4	0.0040014777
252	0xbd047135	-0.032334525
253	0x3ce2a08e	0.027664449
254	0xbc974dcf	-0.01846972
255	0x3da7349c	0.08164331

actor.weight f4 [1, 256]
0	0x3c33ccf6	0.010974159
1	0x3d312fed	0.043258596
2	0x3d702491	0.058628622
3	0xbd32d528	-0.043660313
4	0x3f0d3467	0.55158085
5	0x3c539317	0.012913487
6	0x3d3ebfa7	0.046569493
7	0xbc6f94fd	-0.014622924
8	0x3b8a5949	0.0042220694
9	0x3dc8d463	0.098061346
10	0xbcbb62d4	-0.022874273
11	0xbc5c4bbf	-0.013445794
12	0x3f0ac558	0.5420737
13	0xbb8a57b9	-0.004221883
14	0x3ebe82fd	0.3720931
15	0x3cc67c1c	0.024229102
16	0x3efc4155	0.49268594
17	0x3c38c7d0	0.011278108
18	0xbddedd19	-0.10882015
19	0x3d4d372b	0.05010144
20	0x3d8d20be	0.06891011
21	0xbea518ef	-0.32245585
22	0x3eb4e00e	0.3532719
23	0xbd0f8de2	-0.03504742
24	0xbef81676	-0.48454636
25	0xbb6f57ba	-0.0036520795
26	0x3d567b8e	0.052363925
27	0xbca118eb	-0.019665202
28	0xbeaf77dc	-0.34271133
29	0xbe9eb657	-0.3099849
30	0x3ca03185	0.019554863
31	0x3e9375a5	0.28800693
32	0x3d3706b0	0.044684112
33	0xbce2d6a6	-0.027690243
34	0xbea82ec8	-0.3284819
35	0xbe934380	-0.28762436
36	0x3f049573	0.5179054
37	0x3e697173	0.22797184
38	0xbe4f2be0	-0.2023158
39	0x3c035298	0.008015297
40	0x3d858b9d	0.0652077
41	0xbeb15396	-0.34634084
42	0x3d5a81c2	0.053346403
43	0x3b8ae987	0.0042392644
44	0xbd3a8406	-0.045536064
45	0x3f2d05e1	0.67587095
46	0xbbf8957c	-0.0075861793
47	0xbe8591e3	-0.26087865
48	0x3e2127bb	0.15737812
49	0x3d912481	0.07087041
50	0xbce23945	-0.027615199
51	0x3e3c4a5c	0.18387741
52	0x3ee77997	0.45209953
53	0xbea098e7	-0.31366655
54	0x3edc5edb	0.4304112
55	0xbd279da8	-0.040921837
56	0xbee35a8a	-0.44405013
57	0xbc9e7359	-0.019342111
58	0xbc093690	-0.008374825
59	0xbcf5b284	-0.02999235
60	0x3e00287f	0.12515448
61	0x3cc54291	0.024079593
62	0x3e94977c	0.29021823
63	0xbe6ae955	-0.22940572
64	0xbfade311	-1.358492
65	0xbc2ae7f6	-0.01043128
66	0xbe8c3ce5	-0.2739021
67	0xbd537d4c	-0.051633164
68	0x3c077c25	0.008269344
69	0xbed4b930	-0.41547537
70	0x3dcb1e71	0.099179156
71	0x3e1fb797	0.15597378
72	0x3d51c6e3	0.051215064
73	0xbbe34a4d	-0.0069363476
74	0x3ccef4dd	0.025263244
75	0x3cd0108f	0.02539852
76	0x3be82c76	0.0070853783
77	0x3c5da430	0.013527915
78	0xbd9b9286	-0.075963065
79	0xbe67ee7a	-0.22649565
80	0x3f167f49	0.5878797
81	0xbdfe3a67	-0.12413483
82	0xbeb54df2	-0.3541103
83	0xbecaae73	-0.3958622
84	0x3b888e3c	0.0041673463
85	0xbc4fafd3	-0.012676197
86	0xbd37b724	-0.04485239
87	0x3d28689c	0.04111539
88	0xbe7e03a1	-0.24806072
89	0x3ebbcdbe	0.36680406
90	0x3ce95dcc	0.028487109
91	0x3c0bdc03	0.008536342
92	0x3d3b4ec4	0.045729414
93	0x3bb0e451	0.005398311
94	0xbd5640d7	-0.05230793
95	0x3f05ecb4	0.52314305
96	0x3d60b256	0.054857574
97	0x3e5a9806	0.21347055
98	0xbe5b08a6	-0.21390018
99	0xbd2d0e5b	-0.04225002
100	0x3d81989f	0.06327938
101	0x3be54505	0.006996753
102	0xbc0a87c2	-0.008455219
103	0x3bbc3528	0.0057436414
104	0x3b92bd7d	0.004478155
105	0xbe2dd3ad	-0.16975279
106	0x3d5590ba	0.052139975
107	0x3e1aefe3	0.15130572
108	0x3d75ec50	0.06003982
109	0x3be55560	0.006998703
110	0x3ce9eded	0.028555835
111	0x3c21007a	0.009826774
112	0x3b9b5bda	0.004741174
113	0x3b9c7a97	0.004775356
114	0xbaec021d	-0.0018006001
115	0x3f059e7a	0.5219494
116	0x3ada0306	0.0016632981
117	0xbb74c1c6	-0.0037346943
118	0x3d8ebe7f	0.06969928
119	0xba5815ea	-0.00082430115
120	0x3d37d132	0.04487724
121	0x3d1d4465	0.038395304
122	0x3d4a30e5	0.049363036
123	0xbe3e7077	-0.1859759
124	0x3c842de6	0.016135167
125	0x3c359e11	0.011085049
126	0x3d59143b	0.05299781
127	0xbdcb9122	-0.09939791
128	0x3d03f5e3	0.032216918
129	0xbc17dae0	-0.009268492
130	0xbc039ee8	-0.008033492
131	0xbd09b753	-0.033622097
132	0x3d409758	0.047019333
133	0xbea1f3dd	-0.31631365
134	0xbc061364	-0.008183334
135	0x3e04dd65	0.1297508
136	0xbe192061	-0.14953758
137	0xbd067840	-0.032829523
138	0xbd294190	-0.04132229
139	0x3d3d35f2	0.046194024
140	0xba9cfd4e	-0.0011977346
141	0xbec9b0e9	-0.39392784
142	0x3e41b681	0.18917276
143	0xbca9bf00	-0.020720959
144	0x3bee439c	0.0072712433
145	0xbc86916a	-0.01642676
146	0x39887900	0.00026030093
147	0x3d7516bd	0.059836138
148	0xbd039d74	-0.03213258
149	0xbe72548c	-0.23665065
150	0x3cbcbcbc	0.023039214
151	0x3d194b1a	0.037425138
152	0xbb9c6ca8	-0.004773695
153	0xbd290371	-0.041263048
154	0x3eee5545	0.4654943
155	0xbc6f78e9	-0.01461623
156	0x3c506fa4	0.01272193
157	0x3da38b4d	0.07985554
158	0x3f1cb213	0.6120922
159	0x3d2259a0	0.039636254
160	0x3cfd8d4d	0.030951167
161	0x3d485250	0.048906624
162	0xbd97084a	-0.07374628
163	0x3e9760be	0.29565996
164	0x3e5ff84f	0.21872066
165	0x3cd936c4	0.026515372
166	0xbe9722d2	-0.29518753
167	0x3f024f4a	0.50902236
168	0x3d25ca31	0.040476028
169	0x3eebade3	0.46031103
170	0x3cb36951	0.021900805
171	0x3eba934c	0.36440504
172	0x3d43b335	0.047778327
173	0x3f02de37	0.5112032
174	0x3d4f75ce	0.050649457
175	0x3a047a94	0.0005053666
176	0xbd3fa49f	-0.046787854
177	0xbeb1ac97	-0.34701988
178	0xbeca7f4e	-0.3955025
179	0x3e2211dc	0.15827125
180	0x3d44128e	0.047869258
181	0x3d31efa2	0.043441422
182	0xbe66ac55	-0.22526677
183	0x3da2251e	0.07917236
184	0x3dfd3d56	0.123652145
185	0x3c4cc08b	0.012497078
186	0x3e21480c	0.1575014
187	0x3eeba1a0	0.46021748
188	0x3c14a538	0.009072594
189	0x3f075b3c	0.5287359
190	0xbd21c099	-0.039490316
191	0xbe98e2be	-0.2986049
192	0xbd0cb189	-0.034349
193	0xbeb43a47	-0.35200712
194	0xbca677ad	-0.020320738
195	0xbce024e3	-0.027361339
196	0x3e16237c	0.14661974
197	0xbcda7370	-0.026666373
198	0x3ca5d2d6	0.020242136
199	0x3c109d88	0.008826621
200	0x3dcc8b70	0.09987533
201	0xbe14d753	-0.14535265
202	0xbd846222	-0.0646403
203	0x3c188362	0.009308668
204	0xbe24c15d	-0.16089387
205	0xbb482e41	-0.0030545148
206	0xbdef4e3e	-0.116848454
207	0xbe60b20c	-0.2194292
208	0xbd386b2b	-0.04502408
209	0x3c7b9c32	0.015357064
210	0xbf00e4d9	-0.50349194
211	0x3dd31a2f	0.103077285
212	0x3dc8dcdd	0.09807751
213	0x3e9aa1fc	0.3020171
214	0xbe94f34c	-0.2909187
215	0x3c29baec	0.010359507
216	0x3bb9e298	0.005672764
217	0x3d2c4ebb	0.04206727
218	0x3c613c5c	0.013747301
219	0xbc60b8f4	-0.013715971
220	0x3c515144	0.012775723
221	0x3e27d8ef	0.16391347
222	0x3e197144	0.14984614
223	0xbca67194	-0.02031783
224	0xbd324c8b	-0.04353003
225	0xbc45ae30	-0.012065455
226	0x3e30e5cd	0.17275162
227	0xbd1f557a	-0.038899876
228	0x3c96bcf1	0.018400641
229	0xbeb062bd	-0.3445033
230	0xbcf1c5e6	-0.02951331
231	0xbd3fe5f6	-0.046850167
232	0xbd923ee0	-0.07140899
233	0x3f049c48	0.51800966
234	0x3d46572d	0.04842298
235	0x3e53698d	0.20645733
236	0xbd6b3d5a	-0.057431556
237	0x3ee3302c	0.4437269
238	0x3cf5d10f	0.030006913
239	0x3f079360	0.5295925
240	0x3ed7dad6	0.42159146
241	0xbed0ef95	-0.40807787
242	0x3e50a7f8	0.20376575
243	0x3d10d67c	0.0353608
244	0x3d5ae94d	0.05344515
245	0xbd4769bd	-0.048684824
246	0xbc6ee4bf	-0.0145809045
247	0xbdf597f8	-0.11991876
248	0xbd39530d	-0.04524522
249	0xbe84ee85	-0.25963226
250	0xbd583c1a	-0.052791692
251	0xbe432273	-0.1905611
252	0xbbdd47ce	-0.0067529446
253	0xbca86157	-0.020554228
254	0x3e7a685b	0.24453871
255	0x3dfea33d	0.12433479

critic.weight f4 [1, 256]
0	0xbd0169a8	-0.031594902
1	0xbc4e930b	-0.0126083
2	0xbe8da7f4	-0.276672
3	0x3d31644f	0.043308552
4	0x3c4aeb18	0.012385152
5	0x3b41481f	0.002949245
6	0xbca82d77	-0.020529492
7	0x3d090cb1	0.03345937
8	0xbc3f7a42	-0.011686863
9	0x3d8ecf05	0.069730796
10	0xbc81af42	-0.01583064
11	0xbcc5daee	-0.024152245
12	0x3c52a471	0.012856589
13	0xbc88920f	-0.016671209
14	0x3c932b2e	0.017964926
15	0x3b82fc99	0.003997397
16	0x3bc0d465	0.0058846944
17	0xbd9c5b32	-0.076345816
18	0x3d9c447f	0.07630252
19	0xbb0f22ef	-0.002184089
20	0x3d2ffc5d	0.04296528
21	0x3c014a86	0.007891303
22	0xbc6ef64d	-0.01458509
23	0xbd0eaa52	-0.0348304
24	0x3c6c09fc	0.014406677
25	0xbc2ec468	-0.010666944
26	0x3d2810e2	0.041031726
27	0xbce27817	-0.027645154
28	0xbdad3e2d	-0.08459125
29	0x3ced3894	0.028957643
30	0xbc7e6394	-0.015526671
31	0x3bc093b6	0.0058769835
32	0x3c2fc290	0.01072754
33	0x3dd4ba43	0.10387089
34	0xbc479f50	-0.012183979
35	0xbbf0088f	-0.007325239
36	0x3c421b67	0.011847354
37	0xbe672fa6	-0.2257677
38	0x3ce44099	0.027862834
39	0x3d7ce36a	0.061740316
40	0xbd54482c	-0.05182664
41	0xbc4cf4d0	-0.01250954
42	0x3bd96980	0.006634891
43	0x3c1d7fee	0.00961302
44	0x3c80a76e	0.015704837
45	0xb9d09b5e	-0.0003978861
46	0x3d68782a	0.056755222
47	0xbc9487cc	-0.01813116
48	0x3af097fe	0.0018355844
49	0xbe17c687	-0.14821826
50	0x3cbd39fc	0.023098938
51	0x3d1839fb	0.03716467
52	0xbbee98d3	-0.0072814017
53	0xba330b64	-0.00068300054
54	0x3a392893	0.0007063236
55	0xbc4fba0f	-0.012678637
56	0x3c08709f	0.008327632
57	0x3c1ad4b6	0.009450128
58	0x3b3e7a8f	0.002906475
59	0xbcabab2e	-0.020955648
60	0xbbbb9657	-0.005724709
61	0x3d3cf9b2	0.046136566
62	0x3cd072cc	0.025445364
63	0x3bd5c415	0.006523619
64	0x3e13b500	0.14424515
65	0x3dda5745	0.106611766
66	0x3baa6a05	0.005200627
67	0x3bf887df	0.0075845565
68	0xbd04431a	-0.032290556
69	0x3c4e003b	0.012573297
70	0x3d94b66a	0.07261355
71	0xbc15ab68	-0.009135105
72	0x3c0ef365	0.008725022
73	0xbcc54bb3	-0.024083948
74	0x3d5d6ac4	0.054056898
75	0x3c1b59e3	0.00948188
76	0xbcdf9c81	-0.027296307
77	0xbde3c0c1	-0.11120749
78	0xbccc21f4	-0.024918534
79	0x3bca16c4	0.0061672647
80	0x3c141055	0.009037097
81	0x3d2acc2d	0.041698623
82	0x3dcaea58	0.09907979
83	0xbca008f5	-0.019535521
84	0x3d5c86df	0.05383956
85	0xbd581519	-0.052754495
86	0xbbde703a	-0.006788281
87	0x3d4ebdd6	0.05047401
88	0x3b8d2575	0.0043074437
89	0xbd609c35	-0.05483647
90	0x38686290	5.5404904e-05
91	0x3dc9aaaa	0.09847005
92	0x3d2dc627	0.0424253
93	0xbd9b6bae	-0.07588898
94	0xbaa2b5a5	-0.0012413753
95	0x3c0711df	0.008244007
96	0x3bb93df8	0.005653139
97	0xbbb8938a	-0.0056328224
98	0xbbb0fed9	-0.005401474
99	0x3d468804	0.04846956
100	0xbc5d9aa7	-0.0135256415
101	0xbcadf7ee	-0.021236386
102	0xbceb2a0c	-0.028706573
103	0xbd1ba18f	-0.03799587
104	0x3d8b99b4	0.06816426
105	0x3d3b4c9e	0.045727365
106	0xbe656ec8	-0.22405541
107	0xbd3c669e	-0.0459963
108	0x3d392f43	0.045211088
109	0xbd610464	-0.054935828
110	0x3d303fa9	0.04302946
111	0xb8bd7a1e	-9.0349684e-05
112	0xbca2dc39	-0.019880401
113	0xbd1e63f6	-0.03866955
114	0xbcafae30	-0.021445364
115	0x3b3253f1	0.0027210678
116	0x3ca65b92	0.020307336
117	0xbd185a07	-0.03719523
118	0x3da1e6e1	0.07905365
119	0xbd024fe8	-0.031814486
120	0xbcebabc2	-0.028768424
121	0x3d3254c3	0.043537866
122	0x3d12cf7e	0.03584241
123	0x3a0af152	0.0005300242
124	0xbb758524	-0.0037463391
125	0x3bad1094	0.0052815173
126	0xbc6f6a8b	-0.014612804
127	0x3d1ff09f	0.039047834
128	0x3c0254e3	0.007954809
129	0x3d2b0c36	0.041759692
130	0x3c8f9419	0.017526673
131	0x3b34db13	0.0027596399
132	0x3d5914ee	0.052998476
133	0xbcb19e16	-0.021681827
134	0x3d0358e3	0.03206719
135	0x3d9d9418	0.07694262
136	0x3c2948c7	0.010332293
137	0xbe1892f8	-0.14899814
138	0xbc8ea0e4	-0.017410703
139	0xbcc43bc8	-0.023954287
140	0xbb008cf0	-0.0019615255
141	0x3bfccadd	0.007714613
142	0x3d710e15	0.05885132
143	0x3d429273	0.047502946
144	0xbcc33a5a	-0.023831535
145	0x3bc56b73	0.006024772
146	0xbd1a4e56	-0.037672363
147	0x3d354d34	0.04426308
148	0xba8dfeb1	-0.001083335
149	0xbc03ac68	-0.00803671
150	0x3aa2daaa	0.0012424786
151	0xbdf6fbe6	-0.120597646
152	0x3b90dca3	0.004420833
153	0x3bc1dc64	0.005916165
154	0x3b57d10c	0.0032930998
155	0x3db8cc1d	0.090233065
156	0x3d1d184c	0.03835325
157	0x3c2c1967	0.010504103
158	0xb9921611	-0.0002786373
159	0x3d4afc31	0.049556915
160	0xbcc1b774	-0.023647048
161	0x3d4f6a79	0.05063865
162	0x3dea43a9	0.114386864
163	0x3b0e73ef	0.0021736582
164	0xbc67bb25	-0.01414374
165	0x3d441f38	0.047881335
166	0xbc26b3c2	-0.010174694
167	0x3c1f0c3c	0.009707507
168	0xbe6261bc	-0.22107595
169	0x3c7db575	0.015485157
170	0xbd0946a5	-0.033514638
171	0x3d1ccc81	0.038280968
172	0x3d701118	0.058610052
173	0x3afab57c	0.0019127573
174	0x3c492480	0.012276769
175	0x3c54242d	0.012948078
176	0xbc013dad	-0.00788824
177	0xbaa91176	-0.001289888
178	0x3c9ab53a	0.018885244
179	0x3a281bf7	0.00064128585
180	0x3cc54d08	0.024084583
181	0xbbc99815	-0.006152163
182	0xbd47cc94	-0.048779085
183	0xbc25a10f	-0.0101092
184	0xbd8fb4d2	-0.070169106
185	0x3d408449	0.047001157
186	0x3c7156fa	0.0147302095
187	0x3ae1afd9	0.0017218544
188	0x3cf22f48	0.029563561
189	0x3c0fdd40	0.008780777
190	0xbc86309c	-0.0163806
191	0x3acdbb8a	0.001569615
192	0xbc888f3a	-0.016669858
193	0x3acc36e5	0.0015580325
194	0xbd85fe39	-0.0654263
195	0x3d3b0b71	0.04566521
196	0x3d96118f	0.07327568
197	0x3d703196	0.05864104
198	0xbd07f4dd	-0.033192504
199	0xbd213314	-0.039355353
200	0x3dab70e3	0.08371141
201	0x3da30e0a	0.07961662
202	0x3b6d2e22	0.0036190827
203	0xbc6faa0a	-0.014627943
204	0x3ea3f99c	0.32026374
205	0xbb8df875	-0.004332597
206	0xbe26bcd4	-0.1628297
207	0xbaf6fffd	-0.0018844601
208	0xbd3c241f	-0.045932885
209	0x3db31d8c	0.0874587
210	0x3c9088ea	0.01764341
211	0xbe848922	-0.25885874
212	0xbb3d3341	-0.002886966
213	0xbdb89b2e	-0.09013973
214	0xbb782cd3	-0.0037868514
215	0xbafff89e	-0.001952905
216	0x3c99b85e	0.018764671
217	0x3d2229ff	0.03959083
218	0xbd367a2c	-0.044550106
219	0xbd5c60fe	-0.053803436
220	0x3d1d63bf	0.038425203
221	0x3ce0dc06	0.027448665
222	0x3d83ccc6	0.06435542
223	0x3d224402	0.03961564
224	0xbc8a7acc	-0.016904257
225	0x3d49a1ac	0.049226448
226	0x3d0960b2	0.03353948
227	0xbbcd1267	-0.0062582972
228	0xbc14e8d7	-0.0090887165
229	0xbc7b7b4d	-0.015349221
230	0xbb676783	-0.00353095
231	0x399e876d	0.00030237008
232	0xbca4a325	-0.020097325
233	0x3c065ab2	0.008200334
234	0x3c7a3b07	0.015272862
235	0x3d0d5acc	0.03451042
236	0xbca5b23a	-0.020226587
237	0x3d2d22ab	0.04226939
238	0xbd4c5f88	-0.049895793
239	0x3c419dc2	0.011817398
240	0x3be76f97	0.007062863
241	0xbbac81a8	-0.0052644797
242	0x3d060079	0.032715295
243	0xbc363930	-0.011122033
244	0xbd4f4212	-0.05060012
245	0xbc64179d	-0.0139216455
246	0x3c382b50	0.011240795
247	0x3dae71a4	0.08517769
248	0xbcef4245	-0.029206404
249	0xbd844659	-0.0645873
250	0xbd0cae7c	-0.03434609
251	0x3c8b9172	0.017037127
252	0xbc245860	-0.010030836
253	0x3d12605a	0.03573642
254	0xbc3039c1	-0.010755957
255	0x3ca43e5b	0.020049265
