models1/ppo_750.pth (torch, 275264 bytes, 6 tensors)

net.0.weight f4 [256, 6]
00000000: 2046 dbbe 9a5d e1be cb1a 1f3e 505b c13e
00000010: 2685 aabd c028 b1be f45e 50bd 8857 bcbc
00000020: ec11 dd3e 96cc b9be c5b0 c7bd 4b20 e73e
00000030: b171 04be 68a6 db3e 730b 81bc 7caa ebbe
00000040: 8cc2 f9bd 3d7d cdbd 4fed 94be 929a 8a3e
00000050: 7cb4 5b3e db2f 573c 6cd8 8abd 02a2 c33e
00000060: 7c4e 833e 8fb2 e5bd c8a8 f9be d8d0 803e
00000070: 1474 5b3e 118d 4cbe f38b d13d b53e 61bd
00000080: 3f2a af3e 5a7e a3bc d068 88be 8690 503e
00000090: 9e03 e23c caf3 203e 3194 dc3e 8481 823e
000000a0: 608d 983d f2d1 afbe 1ba0 98be cc1e 99be
000000b0: ce32 8a3d 72a3 5c3e 7cff cdbd 4c6f 983e
000000c0: 0bb0 17be fdbc 58be eb62 a93e a5be 0abd
000000d0: a77f 683e 841f 72be c1c0 543e 136a 613e
000000e0: 0785 e33e c9bb 02bf 82ac 5bbe efbf 483e
000000f0: 4e69 9b3c 9679 7bbe 4fc1 8cbe 961f 94be
00000100: ce75 05be 4d5f 69be 2a6c 233d 5e7e 81be
00000110: db2f 5abe 50bd 8b3e 6275 d7bd de15 ffbd
00000120: 67bc f8bd 38bb f43d db4e 0abe fc57 653e
00000130: 70cd a5be 6ff0 e1bd c40b 24bd a1d0 e03d
00000140: 4740 4e3e a80a 933e c38a ebbd 638d d1be
00000150: c0a6 ab3e 2e6f 223e 7f8a 87be 57b7 67bc
00000160: 24dd 99be d5c1 ad3e 7924 403e 9277 67be
00000170: ea2c 94bd 18d7 bfbe d5ea c0be 38d3 c53d
00000180: 38cd 203e 44f9 6b3e fbcf c03e 4160 01be
00000190: a0f7 2abd 6d56 acbe 8084 dcbe 6253 41be
000001a0: e206 66bb 7ef6 87be aca7 9d3c b975 f33d
000001b0: 5d41 cdbe 0959 8b3e 8816 eebe d287 aabe
000001c0: be3c e5bd c073 5e3e 3cab 293e 7cf5 633e
000001d0: 98c3 31be a53c c93e ce48 03be 8cb3 6abe
000001e0: bc6c 11be ad94 c03d b119 e1bd a450 683e
000001f0: 1240 2e3e 1c37 9c3e d28a b53e c0f0 683e
00000200: 824c 37bd 48c3 033d a644 c03d a43e b1be
00000210: 8fed a2be ec4b 953d fc19 a53e f3c5 ebbe
00000220: 82af d0bd 9fc7 db3e 2505 403e 3ad6 cebd
00000230: 7ebc febd 9c3e 3dbd d461 173e f320 403d
00000240: d113 89bd ba9a 8f3e 5d65 043b 08f5 c63c
00000250: 951a 853e 030d cebe 7040 6bbe 34ac a23e
00000260: 2c6d cbbe b772 173f cb88 603d d26a 69be
00000270: 05be 553e 0461 c33d a0e9 62be 26a9 1a3e
00000280: a057 983d 4c8d 44be ec25 d53d db07 adbd
00000290: d3af 123f c8ed 04bf 54bd 203d 51ef a8be
000002a0: 9436 a53e 2b6e c6be 11a6 403e 322f ae3e
000002b0: 9893 ebbd ce81 13be af7b 3ebe b827 0a3e
000002c0: d841 483e 462c 91be 7601 94be 2baa 813d
000002d0: 37f4 27be 908e 92be fbec c5be 9b7b aa3e
000002e0: 38f8 c43e 039a 843e d4a6 8e3d 5211 0dbe
000002f0: 8ae2 06bf 0f09 693e 62e1 923d ff11 06be
00000300: 3c56 49be 0a7a 7bbd 32f1 38be 97fe b43e
00000310: 8c87 0dbe f0df 923d 3e64 95bd ab60 833e
00000320: 2f20 b4bd c9ca b1bc dd03 213e aca8 d63d
00000330: e031 bebe 85de 4c3e e893 69be ed24 c03e
00000340: 17b5 8dbe d3a0 493d 9634 96be 7d00 d43d
00000350: ed55 ab3e c7fa 6e3e c4dd a2bd 45c3 64bd
00000360: 056b 5c3e 27b1 853e 263f 7e3e 3222 adbe
00000370: 0241 32be 9766 8ebe 97bb 63be 40d9 40be
00000380: b289 d63e 0937 5ebe f530 4abe 115f 46be
00000390: 5beb 7dbd 8b32 333e 4639 babe 96f0 943e
000003a0: 916d 57be eeab 02bd 21a6 07be 62dd 1dbc
000003b0: 6c41 44bc 9484 023e 4a89 3dbe cbf4 d93e
000003c0: c841 6c3e f801 c5be fe46 58bd ff00 72be
000003d0: fc47 143e 7172 c9be e43f 05bf 5175 0cbf
000003e0: 8369 0d3d bd1e 433e 1413 953d b1d7 44bd
000003f0: 582e 8f3e 16ea abbe f7f6 5b3e 8110 01bf
-0.4282694 -0.44016725 0.15537564 0.37764978 -0.08326177 -0.34601402 -0.050871804 -0.022990957
0.43177736 -0.362889 -0.09750513 0.45141825 -0.12933995 0.42900395 -0.01575253 -0.46028507
-0.1219531 -0.10033653 -0.29087302 0.27071053 0.21455568 0.013133968 -0.067795604 0.3820954
0.25645816 -0.11215698 -0.48761582 0.25159335 0.21430999 -0.19975688 0.10231771 -0.054991443
0.3421192 -0.01995771 -0.26642466 0.20367631 0.027589615 0.15717998 0.4308181 0.25489438
0.0744884 -0.34339863 -0.2980965 -0.2990631 0.067479715 0.21546724 -0.100584954 0.29772413
-0.14813249 -0.21165843 0.3308328 -0.03387322 0.22704946 -0.23644835 0.20776655 0.2201312
0.4443743 -0.5106779 -0.21452525 0.19604467 0.018971112 -0.245581 -0.27491233 -0.28930348
-0.1303322 -0.2279026 0.039898075 -0.25291723 -0.21307318 0.2729287 -0.10520436 -0.12455343
-0.1214531 0.11949772 -0.13506643 0.22396845 -0.323833 -0.11032187 -0.040050283 0.10977293
0.20141707 0.28719068 -0.11501076 -0.40928182 0.33525658 0.15862724 -0.26472852 -0.014142833
-0.3005153 0.33936945 0.18763913 -0.22604206 -0.07235129 -0.3746879 -0.37679163 0.096594274
0.15703285 0.23044306 0.37658677 -0.12634374 -0.04174006 -0.33659688 -0.4306984 -0.18879464
-0.0035099317 -0.26555246 0.019244991 0.11887688 -0.4008893 0.27216366 -0.46501565 -0.33306748
-0.11193226 0.21723843 0.16569227 0.22261614 -0.1735977 0.3930408 -0.12820742 -0.22920054
-0.14201635 0.09403358 -0.10991228 0.22687012 0.17016628 0.30510795 0.35457474 0.22748089
-0.044750698 0.032168657 0.09388094 -0.34618104 -0.31821868 0.072898716 0.32246387 -0.4604946
-0.101897255 0.42925736 0.18751962 -0.10099454 -0.12438296 -0.046202287 0.14783412 0.046906423
-0.06693233 0.28047734 0.0020202019 0.024286762 0.25996843 -0.40244302 -0.229738 0.31772006
-0.3973173 0.59159416 0.054817956 -0.22794655 0.20873268 0.09539989 -0.22159433 0.15103588
0.07438588 -0.19194525 0.10407624 -0.08448764 0.57299536 -0.51925325 0.039243057 -0.32995084
0.32268202 -0.38755926 0.1881335 0.34020382 -0.11502761 -0.14404985 -0.18601869 0.13491714
0.19556367 -0.2835409 -0.28907365 0.06331285 -0.16401754 -0.28624392 -0.38657364 0.33297428
0.38470626 0.25898752 0.06965414 -0.13776138 -0.5268942 0.22757362 0.071718946 -0.13092802
-0.19661802 -0.061395682 -0.18060759 0.35350487 -0.13821238 0.07171619 -0.0729451 0.2565969
-0.08795201 -0.02170314 0.1572413 0.1048139 -0.37147427 0.2000676 -0.22810328 0.37528172
-0.27677223 0.04922564 -0.29336995 0.10351656 0.33463994 0.23337851 -0.07952455 -0.055850286
0.215252 0.2611172 0.24828777 -0.3381515 -0.17407611 -0.27812645 -0.22239529 -0.18832874
0.41901928 -0.21700682 -0.19745238 -0.19372202 -0.06199203 0.1749975 -0.3637182 0.29089803
-0.2103789 -0.031902246 -0.13246967 -0.009635301 -0.011978488 0.12745887 -0.18509403 0.42569575
0.23071969 -0.38478065 -0.05280208 -0.23633192 0.14480585 -0.39345124 -0.52050614 -0.5486651
0.034524452 0.19054694 0.072790295 -0.04805726 0.27965045 -0.3357703 0.21480928 -0.5041581

net.0.bias f4 [256]
00000000: 70f1 88be b6fa 6a3c b807 b7be d23d b5be
00000010: 07b3 cd3e d07c d2be d532 aabe de37 a3be
00000020: 3b42 113e 751e bc3c 54cf 993d b1da 65be
00000030: b543 b4bd 6c48 32be 7baf cbbe 9ba1 8c3e
00000040: 5f46 b63e 3c8c 903d c1d7 b0bd 6545 b03e
00000050: 5974 afbe a68c 8bbe afba 913d c4f7 b13e
00000060: fcfe bd3e a01d 2d3e 61c6 6b3e b6af 6a3e
00000070: 2052 953d 224f a5bb 74ab 983e b481 5b3e
00000080: 8a09 0c3e 8939 a7be 888e 4ebe f677 f83c
00000090: b3f2 ccbe 4dc9 d13e c6b0 443e c45e a3be
000000a0: 05a6 5abe abe6 9bbd 7399 613e ef93 68be
000000b0: db5d ecbd ccd6 853e 0988 3a3e d7b8 efbe
000000c0: 1005 2a3e 9e06 7a3e 62f2 aebe b61e 733e
000000d0: e73f c9bd 0b08 fdbd 698b 8ebe b06a 533e
000000e0: 1f0b 86be 95ab 483e 1a2a 1d3d 9969 10be
000000f0: 0534 a7bd 3a02 463e f248 3fbd ab35 b13d
00000100: 1ac8 de3d 303b 0a3e 0fc6 40be 499c 653e
00000110: b663 4b3e f0e8 8c3e e48f e83d ec22 10be
00000120: 4395 773e 9d1e dbbe 3a47 b9be d4e7 71ba
00000130: cde4 803e 8e0f bcbe 59fe 623e 3fce c0bd
00000140: 0eae 07be 80b8 73bd 5cc8 02bd f165 3dbb
00000150: 4e42 31be 65a4 893d 3d91 8b3e 2bb4 b93e
00000160: ad1d 193c 4ea0 913e bc74 aebc 254c 113e
00000170: c901 6f3e cc9b 1bbb ec29 4d3e 81cd 923e
00000180: 20ab b2be 0db9 78be fb74 a2be 1f61 603d
00000190: 7521 1fbe a3ec 5ebe b2eb 323e f084 783e
000001a0: 3435 243e 512e 82be d2ec 7b3d ebe1 133e
000001b0: 38ca c1be f278 853e b691 743d 96a4 bc3e
000001c0: bf6f a53e a210 10be a598 4abe b7a2 aebe
000001d0: 088f 0bbe 3531 a0be dfc0 bf3e acd3 c4be
000001e0: 89d2 a2be 2520 8cbd 21bb af3d 57a8 1b3e
000001f0: bf7c a93e aff0 6fbe afa2 a93e ebdf f8be
00000200: bb1c b33e e5d0 43be 266e 00be 8007 923d
00000210: 17a8 9b3e 0a7c 97be aac2 c0bd ae53 2c3e
00000220: ac7e 453d d7d0 54bb 1f01 a6bd 930c 4c3e
00000230: 669d ae3e 7bef ac3e cc18 203e de37 03bd
00000240: 099a c03e 031f 8d3e fbb4 aebe 1f75 3cbd
00000250: 89a4 9f3e 622c 733e 2391 80bd 7fc8 9fbe
00000260: 37cf c7bd 8ac6 913e 194a 5c3e a635 83be
00000270: 9bb7 85be 8107 b03c 5829 8cbe 06ca 0a3e
00000280: b505 b7be 730a 0cbe 7cfc 03be d225 283d
00000290: dc2d d33c 7d60 c9be 1466 b23e ef98 aa3e
000002a0: 6a3e c63e 18bc c7be 84f5 a1be bd39 b8be
000002b0: a9ef 84be 2f4c 9fbe 4817 0cbe eb7c bf3e
000002c0: ec8e 433e 8b79 dfbd 07fe a03e c0d6 0a3d
000002d0: 8173 a8be d916 53be 7493 cebe d30a ffbd
000002e0: 81a7 e2be b044 283e 6b6f aa3e 90d0 d4bd
000002f0: 90c5 8abd d949 a1be 835e a73e b503 3bbc
00000300: d98d b03b 375f c73e 3e2e 53be d7e3 5fbe
00000310: d283 14be 0ba1 c9bc 9323 c7bd 54d9 a0be
00000320: e332 4f3d 3161 363e 1bf8 ac3e 5f12 93bc
00000330: cfa3 693e da26 f6bd 7f09 633e c607 303d
00000340: a299 b03e b3c3 4d3e 7ea7 a33c 65bc de3d
00000350: 7879 b83e 0fa9 d7be 7df1 62bd fa87 1abe
00000360: df49 37be 3d1a 2ebe f344 dfbe a7e7 ac3e
00000370: eb35 b83d c83b b8be 5ad2 543e ca12 42be
00000380: 73ee 7cbe 5662 463e 57d4 b3bc 22d8 753e
00000390: 4211 4e3e f83d 4abe deea c9bd 8804 7d3c
000003a0: f0d5 c1bd d7fa 35bd 4b60 e7be 2505 c93c
000003b0: 78c4 a33e 5222 7fbe 8446 cd3e f8d0 c03e
000003c0: 530e 37bd 0be8 5d3e 73e8 db3d 0b56 fcbd
000003d0: 717d 983e 9714 37be 2d50 2cbe be7b 683e
000003e0: 040d 44be f450 a33e c7b8 cfbe 6fb6 5ebd
000003f0: e462 9e3d 9017 cfbc 1260 743e bd21 95bd
-0.26746702 0.014342001 -0.35748076 -0.35398728 0.4017565 -0.4111085 -0.33241907 -0.3187856
0.14185421 0.022963742 0.07510248 -0.22446705 -0.088019766 -0.17410439 -0.39782318 0.27467045
0.35600564 0.070579976 -0.08634902 0.34427944 -0.34268454 -0.27255744 0.07115685 0.34759343
0.371086 0.16905832 0.23024894 0.22918591 0.07291055 -0.0050448338 0.29818308 0.21436197
0.13675514 -0.32661083 -0.20171559 0.03033064 -0.40028915 0.40973893 0.19208059 -0.31908238
-0.21352394 -0.07612356 0.22031192 -0.22712682 -0.11541339 0.2614044 0.18215956 -0.4682071
0.16603494 0.24416587 -0.34169298 0.23742184 -0.098266415 -0.1235505 -0.27840737 0.20646167
-0.2618036 0.19596703 0.03837023 -0.14102782 -0.08164219 0.19336787 -0.046700425 0.086528145
0.1087801 0.1349914 -0.18825553 0.224229 0.19862255 0.27521467 0.1135557 -0.14075822
0.24178033 -0.42796794 -0.36187154 -0.00092279655 0.2517456 -0.36730617 0.22167338 -0.09414338
-0.1324999 -0.059502125 -0.03192936 -0.0028899873 -0.1731045 0.06720809 0.27259246 0.3627027
0.009345454 0.28442615 -0.021295898 0.14189203 0.23340525 -0.0023743985 0.20035523 0.28672412
-0.34896183 -0.24289341 -0.31729874 0.054780122 -0.15540107 -0.21769957 0.17472723 0.24269462
0.1603592 -0.25425962 0.061505146 0.1444165 -0.37849593 0.26068836 0.059709273 0.3684432
0.32311818 -0.14068845 -0.19784792 -0.34108517 -0.13628781 -0.31287542 0.37451836 -0.38442743
-0.3180125 -0.068420686 0.08580614 0.15200935 0.33102986 -0.23431657 0.3313193 -0.48608336
0.34982857 -0.19122656 -0.12542018 0.07130337 0.3040168 -0.29586822 -0.09412129 0.16828796
0.048216507 -0.003247311 -0.081056826 0.19926672 0.3410446 0.3377646 0.1563446 -0.0320357
0.3761752 0.27562723 -0.34122452 -0.046010133 0.31180218 0.237474 -0.06277683 -0.31207654
-0.0975632 0.28471786 0.21512641 -0.25626868 -0.26116642 0.021487953 -0.27375293 0.13553628
-0.35746542 -0.13675861 -0.12889284 0.041051693 0.025778703 -0.39331427 0.34843504 0.33319804
0.38719493 -0.39010692 -0.31632626 -0.3598155 -0.25964096 -0.3111281 -0.13680756 0.37399992
0.19097489 -0.10911854 0.31443807 0.033896208 -0.32900622 -0.20614184 -0.40346873 -0.124532364
-0.4426842 0.16432452 0.3328813 -0.10391343 -0.06775963 -0.31501654 0.32689294 -0.011414458
0.0053880033 0.3893983 -0.20623109 -0.21864258 -0.1450341 -0.024612924 -0.09723582 -0.31415808
0.05058564 0.17810513 0.3378304 -0.017953096 0.22816394 -0.12019129 0.22171591 0.042976163
0.34492213 0.20094185 0.019977327 0.10875777 0.36030173 -0.4212117 -0.055406082 -0.15090933
-0.17899273 -0.17002197 -0.43607292 0.33770487 0.08994659 -0.3598311 0.20783368 -0.1895248
-0.24700336 0.1937345 -0.021951837 0.2400823 0.20123771 -0.19750202 -0.098592505 0.015442975
-0.094646335 -0.044428673 -0.45190653 0.024538586 0.3198583 -0.24915436 0.40092862 0.3765943
-0.044691395 0.21670549 0.107376955 -0.12321099 0.29783204 -0.17878948 -0.1682746 0.22703454
-0.1914559 0.318977 -0.4057066 -0.0543732 0.07733706 -0.02527979 0.23864773 -0.07281826

net.2.weight f4 [256, 256]
00000000: b6ec 5ebd 071d fcb8 b25d 71bd 7c76 ffbc
00000010: 70a9 023d 03ed 7abc 72f8 093c 59e8 f2bb
00000020: 418e 65ba 39d9 8e3c 16c5 30bd 780c c53c
00000030: 7c00 70bb 3c73 57bd 20e0 523d 2846 063d
00000040: d666 453d 18dd 08bd 704a c43c a3ae 24bd
00000050: 04cb 22bd 30b5 d0bc 5faa c63c 710c c4bc
00000060: d670 abbc 3eb7 4cbc 9d2e 4dbd 452c 0e3d
00000070: 450f 44bd e374 173d 560b 06bd 3a38 29bc
00000080: 895b 37bd 40bb 8aba ec4e 243d 516b 64bd
00000090: bdab 51bd cb14 433d 5102 4dbd 54f2 923a
000000a0: f00a c3bc d53d d53c 5644 743b de3e f93a
000000b0: 71fa 26bd 09ea 3c3d a53e 4c3d 10c8 703c
000000c0: a862 f2bc 3863 a33c cc08 603d 264d 083d
000000d0: 29a8 e7bc 12bd 6d3d 4269 493d ee1a 823c
000000e0: 17f8 a53b 6fde 1a3c 802b 1b3b d8b4 ae3c
000000f0: acaa 723d e73b 403a aece 8a3c 9d77 483d
00000100: ccbe 093d 1b84 463c 30d1 bdbc 7f59 39bd
00000110: a670 0cbd 2be2 03bd 97ce 6d3c 1809 79bc
00000120: 7582 5ebd a682 3d3d 00a4 8abb e43a 373d
00000130: ae30 61bd 8dd0 023a 5456 943c b011 313d
00000140: 054f 9a3c 63b1 793c 32bc 91bc 2ac3 d13c
00000150: 1978 3cbc 8b1b a2bc 253f 343d 650e de3c
00000160: f17d 40bc 7136 42bd 6ee9 2cbd f450 343d
00000170: 232a f4bc 0a75 5dbd 60ef 86bd 73f9 c1bc
00000180: 4e20 70bc 2c23 50bd da8e 2ebd 8b77 40bd
00000190: 0533 8dbd 8a1f 633d 91e0 633d 53cd 37bb
000001a0: 5b6a 473d 08af c63c c44c 79bc b240 073d
000001b0: bc9f bdbc e7f4 82bd 1659 bc3c 02f3 1c3d
000001c0: f60f 36bc 88cb 67bd fb31 833c cc52 643b
000001d0: b123 003d 00c5 663b 153e 383d 842f 003d
000001e0: 488d 56bd 50df 34bc 899a 353d a6f8 2c3d
000001f0: 5c29 fd3c 2868 61bc 5287 a6bc 6c95 e3bc
00000200: 0458 64bb 8655 44bc b0a1 47bd 6034 aabb
00000210: 97c0 d63b 44b9 2b3d 6012 05bd ea3d f13c
00000220: b68f 3d3d 2071 16bc 064e 51bd d8d5 40bd
00000230: 6aa0 d5bc 6dce 7bbd ffb6 c3bb 0206 243d
00000240: a4c8 03bd 918d 98bc 9487 683d 28f3 c23c
00000250: bac0 3f3d 6079 fd3c ead9 c9bb 2e9f 2c3d
00000260: 12f2 91bc c7b9 40bd 904a 85bd b4b5 48bd
00000270: 6801 2abd c89b 483d 32fb 21bd 7865 87bd
00000280: 88a8 da3c 7c9e a1bc b359 b2bc 3c9d 34bd
00000290: efec 873c eaa1 8a3c aed5 38bd 4244 5c3d
000002a0: 39df 38bd f75c 1b3d 7aa0 70bd 301c 333d
000002b0: e566 47bd 24fe 823c 02f6 20bd 01d2 49bd
000002c0: 5c10 1e3d 4e28 083d ae2e 5d3d 7cc8 0a3d
000002d0: e4b4 c3bc a0df a0bc 483a bbbc 5f46 78bd
000002e0: f817 14bc 1c03 ed3c 8796 573d 38e4 62bd
000002f0: ed1b ae3c 9ebb 89bd 50c9 5b3c 20bc 523b
00000300: 60b5 f73c bf63 ebbb 1c21 313d db70 08bd
00000310: 3672 3b3c 6521 d33c d8d2 db3c 6474 c53c
00000320: e711 a8bc f6ba 513d 7fad 5dbd 91c8 39bc
00000330: 11d5 a53c 3560 953c 1bc0 dbbc c0f1 48bc
00000340: 5c90 493d 0319 a63b 4716 6bba ec48 143d
00000350: 48ee 3dbd 7c34 c3bc 1c5e 97bc c8de 00bc
00000360: ec36 ddbc a2eb 22bd a7e0 293d b143 37bd
00000370: 1db6 4a3d 233f 8dbc 4d26 7d3c b6ac 293d
00000380: 8868 fe3c 8b7b 323d e3d9 89bd 56b1 73bd
00000390: 904b 8cbd 1ba7 30bd 0139 db3b b4b1 7c3b
000003a0: 9bb4 b3bc fe9c 26bd ad2a f9bc 0196 783d
000003b0: abf2 6cbd 3c24 3a3d ad5a 60bd 4792 38bd
000003c0: 5aa9 5abd bc1c 633d c363 68bd 64ae 32bd
000003d0: eed0 36bd 5c41 043d 378e 25bd ca70 4cbd
000003e0: e2b8 e03c 3486 993c 9cc6 a6bc 9ae9 1a3b
000003f0: 53df 19bc 04be b13c 667b 62bd 747e 72bd
-0.054424964 -0.00012021703 -0.058927245 -0.031184427 0.03189987 -0.015315297 0.00842105 -0.007412952
-0.0008756854 0.017437564 -0.043156706 0.024053797 -0.0036621382 -0.05260013 0.051483274 0.03278175
0.048193775 -0.033413976 0.023961276 -0.04020561 -0.039744392 -0.025477022 0.024251161 -0.023931714
-0.020927828 -0.01249486 -0.050093282 0.034710187 -0.047866125 0.036976706 -0.032725655 -0.010328347
-0.04476503 -0.0010584369 0.04011433 -0.055766407 -0.051189173 0.04762725 -0.050051037 0.0011211135
-0.023808926 0.02603046 0.0037272177 0.0019015928 -0.040766183 0.04612163 0.04986443 0.014696136
-0.029588059 0.019944772 0.05469589 0.0332767 -0.028278427 0.05804164 0.049172647 0.015881982
0.005064975 0.009452446 0.002367705 0.021326467 0.059244797 0.0007333145 0.016944256 0.048942197
0.033629224 0.012116457 -0.023171037 -0.045251366 -0.034287117 -0.032198112 0.014514587 -0.015199922
-0.054323632 0.046267174 -0.004230976 0.044733897 -0.054978065 0.0004990183 0.01810757 0.04322976
0.018836508 0.015240046 -0.017789934 0.025605757 -0.011503243 -0.019788524 0.04400553 0.027106473
-0.011748777 -0.0474152 -0.042214803 0.044022515 -0.029805249 -0.054066695 -0.06588626 -0.023678517
-0.01465614 -0.050814793 -0.042616703 -0.046989005 -0.06894497 0.05545 0.055634085 -0.0028045967
0.048685413 0.024253383 -0.015216056 0.033020683 -0.023147456 -0.06394368 0.022991698 0.038317688
-0.011112204 -0.056590587 0.016015043 0.003483939 0.031284038 0.0035212636 0.04498108 0.031295314
-0.05238083 -0.01103957 0.04433683 0.042229317 0.03090351 -0.013757743 -0.020328198 -0.02778121
-0.00348425 -0.011983281 -0.04873818 -0.005194232 0.00655372 0.04192473 -0.032488227 0.029448468
0.04627963 -0.009182245 -0.0510998 -0.047078937 -0.026077468 -0.06147616 -0.0059727426 0.040044792
-0.032173768 -0.018622192 0.056769922 0.023797587 0.046814658 0.030941665 -0.0061600106 0.042143993
-0.017815623 -0.04705217 -0.06508362 -0.04900141 -0.041505247 0.04897669 -0.0395462 -0.066111505
0.02669169 -0.019728892 -0.021771288 -0.044095263 0.01659247 0.01692291 -0.045125656 0.053776033
-0.045134757 0.037930455 -0.058746792 0.043728054 -0.048682112 0.015990324 -0.03929711 -0.04927254
0.03858982 0.033241563 0.053999595 0.033882603 -0.023889966 -0.019637883 -0.02285494 -0.060613986
-0.009038918 0.028932147 0.05263379 -0.055393428 0.02125355 -0.06725238 0.013414696 0.0032155588
0.030237854 -0.0071835215 0.043244466 -0.033310752 0.011440804 0.02577276 0.026833937 0.024103351
-0.020516349 0.05120369 -0.054120537 -0.011339323 0.0202432 0.018234352 -0.026825001 -0.012264669
0.049209937 0.0050688996 -0.0008967858 0.036202356 -0.04636982 -0.023828737 -0.018477492 -0.007865615
-0.027003728 -0.0397755 0.04147401 -0.04474229 0.049490083 -0.01724202 0.015451026 0.041424476
0.031055704 0.04357485 -0.06731012 -0.059495293 -0.0685035 -0.043128114 0.006690145 0.0038558068
-0.021936705 -0.040677063 -0.030415857 0.06068993 -0.057848614 0.045444712 -0.054773975 -0.045061376
-0.053384162 0.055447325 -0.056735765 -0.043623343 -0.044632845 0.032288894 -0.04041883 -0.04991225
0.027431909 0.01874075 -0.020358376 0.0023637773 -0.009391624 0.021697052 -0.055293463 -0.059202626

net.2.bias f4 [256]
00000000: 51bb 3a3c 5e6a c5bd 0487 97bd 50bc 1b3d
00000010: bed1 643c 2d30 a2ba e46b 013d d4c3 91bd
00000020: 11dc c8bc f45c 083e 8980 2a3d 4e91 75bd
00000030: bd56 883d 43a5 0bbd 8566 ab3d b1cf 5fbd
00000040: 548f 593c de29 4e3d c5a0 ac3d 1ad0 51bc
00000050: a3c3 563d 371d 243d 8c03 ab3d 2453 f1bc
00000060: 0507 21bd 1ec9 75bd 9653 a2bc 989c cf3c
00000070: b1fb 00be 8bd1 d6bc 82e1 023d 4395 e73d
00000080: f84b 5bbc 4fc3 db3d c01c 2e3d db67 133d
00000090: f49a 9b3d 3307 ffbd f73e 553d 9a9a 23bd
000000a0: 60f4 5d3d af30 143d 72fa 7abd 9cd8 e43d
000000b0: 64ba d0bc cb0e 8e3d ea6f bb3c c844 4a3d
000000c0: a310 063e 6106 77bd 0e7f 213d cfd0 013e
000000d0: 4631 793d 3fa9 d03b ee1d 2f3d c4cd 99b9
000000e0: 4c83 2cbd 244f 9dba de74 c33d 0cb2 d93c
000000f0: e016 d73d a71c 46bd 6ac4 033c b13b 923d
00000100: 8224 a73c 9b3f a03d 6cbc 2c3d 5d24 60bd
00000110: 43fe 93bd 4d07 873c 5d3b 9a3d 1390 2f3d
00000120: 6e86 0f3d f110 d7bc 4334 58bd 44b2 fe3c
00000130: bcb1 9bbd 28c4 a1bd 30d7 62bd f5a1 24bc
00000140: 1ff5 31bc 1252 fe3d 9301 833d 4742 64bb
00000150: 895d 41bd 4b99 7bbc e25e 22bd 868f 353d
00000160: da72 3c3d 9f9d 8b3d 1c0c 433d 41da 1e3e
00000170: 4177 f13c a02a 4ebd 6e3a 6fbd 29f0 97bc
00000180: f86e 143d dbc8 ad3d bd2a af3c 671e 543d
00000190: a2a4 9fbc 973e d13c b544 ddbc 3336 7c3c
000001a0: e921 0e3d fd6d f53d 04a5 b2bd ff1f 37bd
000001b0: b726 97bc 7cab 1bbd 7de8 1c3d ecd5 5bbd
000001c0: 34ad 97bd a5d0 af3b 5f1d cdbb ff98 ec3b
000001d0: 05e8 ec3b 3b6b e2bc 0bef f33d 4073 403b
000001e0: a23a 5cbd c4aa c43a bdca 2b3c ad66 a43d
000001f0: 6c37 ae3d abcd 0a3e 9ca3 8a3c 2ff7 873d
00000200: ba02 053d d09a a03c ba6a 003d 2682 013d
00000210: da2c 053d 769d 60bd 8f13 5dbd cb3c be3d
00000220: e48a c93d e8be 4abd 5800 57bc fb58 85bd
00000230: abe1 f83c 4a5d 35bd a405 d53d f64b 78bd
00000240: c98e c7bc 5d98 1cbd f45d 4dbd f9de 68bd
00000250: 1801 e0bc 409c 4e3c eb49 383d a47d 93bd
00000260: bc3c 06bd 8460 1cbd 2d1f 9a3d a447 ae3d
00000270: b585 85bd b168 5f3d 3553 42bc 94ed 9dbc
00000280: 72b3 4d3d a4df 213e 2b8a da3d 8962 733d
00000290: 769b ef3d f6a9 71bd 034f ea3b 75ef 5c3c
000002a0: a9b6 8fbc 550b 7ebc a7c9 013d 229a 763b
000002b0: 0837 a43d 3c30 393d 0851 723c 0c9d 2b3d
000002c0: 17f5 8bbd cef9 2a3d ad30 8e3c 9475 c93d
000002d0: 7878 69bd dc69 4e3c 2617 1a3c f2f1 e93c
000002e0: 3639 59b8 7146 d63c e219 133e 4bf7 c83c
000002f0: 9a17 24bd 47c7 5839 9484 f83b bd1f 08bd
00000300: 1011 31bd a28e 1fbd 4476 0b3d 53d7 273d
00000310: 4348 133e 9ac9 26bd 3314 64bc 9884 78bc
00000320: 3aa9 183e 7581 c13d f6a2 703c c8b8 e53c
00000330: 1b97 bebb b47f b9bc f715 353c 6913 9b3d
00000340: 1516 4bbd b989 803d a7e9 3abd 90ea f1bd
00000350: b3f0 e83d 4d69 253d 21dd 11bb a11d 73bd
00000360: 207a fabc d525 04bd 816b e6bc 3fae 76bd
00000370: a225 0c3e d686 de3b 8df9 843d 3808 7a3d
00000380: 2f20 2fbd d434 1bbd 691c 3a3d 7a9e 2d3c
00000390: c66b 54bc adbe 6fbc 7cc6 073d 6c0e 54bb
000003a0: e6bd a3bd 4913 543c 41b7 c1bc 05d2 103e
000003b0: 940c dc3c 8b1e c23d a33c 843d 6473 d1bc
000003c0: 1178 5b3d efe5 e63c 3efe 273d 2bff 383d
000003d0: 0b8f 87bd 7716 98bc 7fe7 0c3e 6935 063e
000003e0: 8d76 bf3c 4688 03bc 95a3 393c 49eb 5b3d
000003f0: 3571 04bd 8ea0 e23c 3c1f 9bbb 4649 e63d
0.011397199 -0.096394286 -0.07398799 0.038021386 0.013966022 -0.0012373977 0.031597033 -0.071174294
-0.024518998 0.13316709 0.041626487 -0.059953026 0.06657169 -0.034093153 0.083691634 -0.05464143
0.013278801 0.050332896 0.08429102 -0.012805963 0.052432667 0.040066924 0.08350286 -0.02945859
-0.039313335 -0.060006253 -0.019815248 0.025343224 -0.12596013 -0.026222965 0.031953342 0.11307766
-0.013384812 0.107306115 0.042507887 0.035987716 0.07597914 -0.12452545 0.052062 -0.03994236
0.054188132 0.03617924 -0.061274 0.111741275 -0.025479503 0.06936415 0.022880513 0.049382
0.13092284 -0.060308818 0.03942781 0.1267731 0.060838006 0.006367832 0.042753153 -0.0002933574
-0.042117402 -0.0012001735 0.09543775 0.026574157 0.1050241 -0.04836717 0.008042434 0.071402915
0.02040315 0.07824632 0.04217188 -0.05472218 -0.07226231 0.016482973 0.07530854 0.04286201
0.03504031 -0.026253195 -0.052784216 0.031090863 -0.076022595 -0.07898742 -0.055381 -0.010048379
-0.010861664 0.124179974 0.06396785 -0.0034829543 -0.047208343 -0.015356372 -0.03964127 0.044326328
0.04600797 0.06817173 0.04761897 0.15512945 0.02947581 -0.05033362 -0.058405332 -0.018547134
0.03623864 0.08485576 0.021382684 0.051786806 -0.019487683 0.02554254 -0.027010301 0.0153937815
0.034700308 0.11983869 -0.087228805 -0.04470825 -0.018451078 -0.038005337 0.038307656 -0.05367081
-0.07406083 0.0053654485 -0.006259605 0.007220387 0.0072298073 -0.027639022 0.11910828 0.002936557
-0.053766854 0.0015004505 0.010485348 0.08027396 0.08506665 0.13555019 0.016923718 0.066389434
0.032473303 0.01960507 0.031351782 0.03161826 0.032513477 -0.054837666 -0.05397373 0.09288939
0.098409444 -0.04949847 -0.013122641 -0.06511112 0.030381044 -0.04427842 0.104014665 -0.060619317
-0.024360077 -0.038231242 -0.05013843 -0.05685327 -0.027344272 0.012610495 0.04499237 -0.072016984
-0.032772765 -0.038177982 0.075254776 0.08509758 -0.06519643 0.0545432 -0.011860658 -0.019278325
0.05021996 0.15807968 0.10670885 0.059420142 0.11699574 -0.058999978 0.007150532 0.013484825
-0.017543154 -0.015505631 0.03168645 0.0037628491 0.08018309 0.045212016 0.014789827 0.04189782
-0.068338566 0.04174214 0.017357195 0.098368794 -0.056999654 0.012598481 0.009404933 0.028557751
-5.1790114e-05 0.026156636 0.14365342 0.024531981 -0.04006157 0.00020673602 0.007584164 -0.033233393
-0.043229163 -0.038954385 0.034048334 0.040976834 0.14383034 -0.040719606 -0.0139208315 -0.015168332
0.14908305 0.0944852 0.01468729 0.028042212 -0.005816353 -0.022643901 0.0110526 0.075720616
-0.049581606 0.062762685 -0.045632984 -0.11812317 0.11374035 0.040383626 -0.0022257047 -0.05935443
-0.030575812 -0.032262642 -0.028127434 -0.060224768 0.13686231 0.006790976 0.064929105 0.061042994
-0.042755302 -0.037892178 0.04543725 0.010596866 -0.012965148 -0.014632863 0.033148274 -0.003235723
-0.07995205 0.012944051 -0.023646953 0.14142616 0.026861466 0.09478482 0.06456878 -0.025567718
0.0535813 0.028185813 0.04101395 0.045165222 -0.0661908 -0.0185654 0.13760184 0.13106312
0.02337196 -0.008028096 0.011330505 0.053691182 -0.032334525 0.027664449 -0.004733948 0.112444445

actor.weight f4 [1, 256]
00000000: f6cc 333c 7312 253d 9124 703d 28d5 32bd
00000010: 4a85 f43e 1793 533c a7bf 3e3d fd94 6fbc
00000020: 4959 8a3b 8644 b13d c07c 6bbc bf4b 5cbc
00000030: 19e3 dc3e b957 8abb d052 993e 1c7c c63c
00000040: 8ab7 d13e 6087 e1bb 6df8 e4bd 2b37 4d3d
00000050: 8fb9 acbc d5cf a4be e238 993e e28d 0fbd
00000060: ea1e abbe ba57 6fbb 8e7b 563d 8a2a a3bc
00000070: dc77 afbe 9b0b 7fbe 8531 a03c c16a 833e
00000080: b006 373d 347d 06bd 9cf2 9cbe f144 68be
00000090: a80d df3e 1782 693e 7446 4ebe 9852 033c
000000a0: c9bf 073e 8b6a 9fbe c281 5a3d 9171 dc3c
000000b0: 0684 3abd 09dd c23e 7c95 f8bb 10a7 8fbe
000000c0: 2c64 1a3e d390 b43d 4539 e2bc c3ba 2c3e
000000d0: 98c5 c73e 8a34 73be 4a34 ae3e a89d 27bd
000000e0: 7eee abbe b5fc a3bc 035d 14b9 84b2 f5bc
000000f0: 2d03 033e 9142 c53c 2a91 7c3e ea06 72be
00000100: c3c9 8abf 7317 e53c f30a 83be acad 53bd
00000110: 257c 073c 9786 b5be acd5 de3d bf28 243e
00000120: e3c6 513d 4d4a e3bb ddf4 ce3c bfab 0a3d
00000130: 762c e83b 30a4 5d3c 8692 9bbd 24bc 65be
00000140: 15ad f43e 463c 02be fe96 b3be 6780 b9be
00000150: 3c8e 883b d3af 4fbc 24b7 37bd 9c68 283d
00000160: 953b 7ebe e9ea c13e 6a9f 9a3b 13e3 053b
00000170: c44e 3b3d 6e01 713c 06fc 55bd 1a54 de3e
00000180: 6f83 563d 5d62 543e 6284 80be 5b0e 2dbd
00000190: 9f98 813d 8c02 873c c287 0abc 2835 bc3b
000001a0: ac69 91bb 9794 2ebe a47b 8b3d e3ef 1a3e
000001b0: 50ec 753d 6055 e53b eded e93c 7a00 213c
000001c0: da5b 9b3b 977a 9c3b 1d02 ecba d76c ce3e
000001d0: 0603 da3a c6c1 74bb 577a 783d ea15 58ba
000001e0: 32d1 373d 6544 1d3d 0fe9 743d 444f 45be
000001f0: 509a 633c be00 793c 3b14 593d d275 cebd
00000200: 8655 023d e0da 17bc e89e 03bc 53b7 09bd
00000210: 5897 403d ff29 90be 6413 06bc ece7 f43d
00000220: 3cab 1fbe 25a8 86bc 9041 29bd f235 3d3d
00000230: 4efd 9cba 9af0 c0be 2754 343e 00bf a9bc
00000240: 9c43 ee3b 6a91 86bc 0079 8839 bd16 753d
00000250: e160 0cbd 2439 6dbe bcbc bc3c 99c6 ab3d
00000260: a86c 9cbb 7103 29bd 5555 cd3e bcac 99bc
00000270: 20a8 b93c eca0 953d 4eae e83e a059 223d
00000280: 4d8d fd3c 291f 313d 5ff7 9cbd 2d71 993e
00000290: 26c5 523e c436 d93c 665e 8ebe d212 d73e
000002a0: 359f 173d b438 cf3e 5169 b33c c31c 9b3e
000002b0: 66ae 243d c645 d33e ce75 4f3d 947a 043a
000002c0: 9fa4 3fbd 92e9 95be 5446 a2be a9e8 003e
000002d0: 8e12 443d a2ef 313d cb59 44be a60e a33d
000002e0: 2edb 343e f9c8 483c 910c 183e d857 cc3e
000002f0: 38a5 143c 1b57 e83e 99c0 21bd e918 87be
00000300: f4f9 29bd be53 99be 6f3a 88bd 850b 07bd
00000310: 52c7 093e 7073 dabc d6d2 a53c 889d 103c
00000320: 2a19 b83d 324c 16be 2262 84bd 6283 183c
00000330: 007e 82be 412e 48bb d654 fcbd 7b81 73be
00000340: 2a61 46bd 6f70 1b3c 9c01 d4be 2f1a d33d
00000350: b441 f33d ec3d 943e 0dc4 7ebe ecba 293c
00000360: 98e2 b93b bb4e 2c3d 5c3c 613c f4b8 60bc
00000370: 19fc f03b efd8 273e e3a5 0d3e e967 c4bc
00000380: 8b4c 32bd 30ae 45bc 0e41 253e 7a55 1fbd
00000390: f1bc 963c e958 9bbe e6c5 f1bc f6e5 3fbd
000003a0: 3c20 83bd 8fd8 db3e 2d57 463d ecaf 453e
000003b0: 5a3d 6bbd c80f cb3e d2b9 913c f155 e03e
000003c0: e52d bc3e 9779 c0be be53 453e 7cd6 103d
000003d0: 4de9 5a3d bd69 47bd 58d9 6abc 1aa4 f7bd
000003e0: 0d53 39bd bfa1 80be 1a3c 58bd aa44 39be
000003f0: ce47 ddbb 5761 a8bc 6b7a 553e cb41 c93d
0.010974159 0.040300798 0.058628622 -0.043660313 0.4775794 0.012913487 0.046569493 -0.014622924
0.0042220694 0.08655648 -0.014373004 -0.013445794 0.43142012 -0.004221883 0.29945993 0.024229102
0.40960342 -0.006882593 -0.11180196 0.05010144 -0.021084575 -0.32189813 0.2992621 -0.03504742
-0.33422023 -0.0036520795 0.052363925 -0.019917745 -0.34271133 -0.24906771 0.019554863 0.25667384
0.044684112 -0.032834247 -0.30653846 -0.22682549 0.43565106 0.22803532 -0.20144063 0.008015297
0.13256754 -0.31135973 0.053346403 0.026909621 -0.045536064 0.3805926 -0.0075861793 -0.28057146
0.15077275 0.088166855 -0.027615199 0.16868119 0.3901794 -0.23750511 0.34024268 -0.040921837
-0.33580393 -0.020017961 -0.0001414903 -0.02999235 0.1279418 0.024079593 0.2466475 -0.2363545
-1.0842823 0.027965283 -0.2559429 -0.0516793 0.008269344 -0.35454246 0.108805984 0.16031168
0.051215064 -0.0069363476 0.025263244 0.033855196 0.0070853783 0.013527915 -0.075963065 -0.22435051
0.477883 -0.12718305 -0.35076135 -0.36230776 0.0041673463 -0.012676197 -0.04485239 0.04111539
-0.24827416 0.37874535 0.0047187107 0.0020429536 0.045729414 0.0147098135 -0.0522423 0.4342354
0.05237144 0.20740648 -0.25101 -0.04225002 0.06327938 0.016480707 -0.008455219 0.0057436414
-0.004437646 -0.1704887 0.06810692 0.15130572 0.06003982 0.006998703 0.028555835 0.009826774
0.004741174 0.004775356 -0.0018006001 0.40317413 0.0016632981 -0.0037346943 0.060663547 -0.00082430115
0.04487724 0.038395304 0.059792574 -0.19268519 0.013891771 0.015197931 0.05299781 -0.10081066
0.031819843 -0.009268492 -0.008033492 -0.033622097 0.047019333 -0.2815704 -0.008183334 0.11958298
-0.15592664 -0.0164376 -0.04132229 0.046194024 -0.0011977346 -0.37683564 0.17610227 -0.020720959
0.0072712433 -0.01642676 0.00026030093 0.059836138 -0.03427208 -0.23166329 0.023039214 0.08387489
-0.004773695 -0.041263048 0.40104166 -0.018759124 0.022663176 0.07306084 0.45445484 0.039636254
0.030951167 0.043242607 -0.0766437 0.2996916 0.20583019 0.026515372 -0.27806395 0.42006546
0.037017066 0.4047295 0.021900805 0.3029538 0.04020538 0.4126417 0.050649457 0.0005053666
-0.046787854 -0.29279763 -0.3169428 0.12588753 0.047869258 0.043441422 -0.19174878 0.07961778
0.17661735 0.012254947 0.14848544 0.3991077 0.009072594 0.45378956 -0.039490316 -0.26386192
-0.04149814 -0.29946703 -0.0665177 -0.03296997 0.13454941 -0.026666373 0.020242136 0.008826621
0.08989175 -0.14677504 -0.0646403 0.009308668 -0.25486755 -0.0030545148 -0.12320869 -0.23779862
-0.048432507 0.0094872555 -0.41407478 0.103077285 0.11877766 0.28953493 -0.24879475 0.010359507
0.005672764 0.04206727 0.013747301 -0.013715971 0.007354271 0.16391347 0.13832812 -0.02397533
-0.04353003 -0.012065455 0.16138098 -0.038899876 0.018400641 -0.3034127 -0.02951331 -0.046850167
-0.064026326 0.4293866 0.04842298 0.1930539 -0.057431556 0.39660478 0.017788801 0.43815568
0.36753765 -0.37592766 0.19270226 0.0353608 0.05344515 -0.048684824 -0.014334045 -0.12091847
-0.04524522 -0.25123402 -0.052791692 -0.180926 -0.0067529446 -0.020554228 0.2084748 0.09827002

critic.weight f4 [1, 256]
00000000: a869 01bd bab6 b0bd 5a0a 4bbe 4f64 313d
00000010: 78be 553b 562a 393c 772d a8bc b10c 093d
00000020: 427a 3fbc 62bf 853d 4b37 d3bc eeda c5bc
00000030: da4a d43b 0f92 88bc c09e 6c3b 99fc 823b
00000040: 681c e83b 9b7b 48bd 5223 973d ef22 0fbb
00000050: a789 43be d812 c23c a96f ca3b 7006 23bd
00000060: e9ca ac3b 68c4 2ebc e210 283d 7951 0abd
00000070: 42ab 01bd a3ea ab3c 9463 7ebc 8c2a bd3c
00000080: 90c2 2f3c f6a6 b93d 27f8 17bc 136e 33bb
00000090: b76f d93b 3b6a 5fbd 9cfc 503d 6ae3 7c3d
000000a0: 7122 b03c 2782 b8bb 8069 d93b b541 003d
000000b0: 6ea7 803c e333 a13b 2a78 683d 66e0 33bc
000000c0: 97da 113d 728c e1bd fc39 bd3c 75e0 293d
000000d0: 1926 9a39 82c1 d13a ba4c 933b 0fba 4fbc
000000e0: bce0 873a 312a deba 7d97 a13c 2eab abbc
000000f0: 45c1 d03c b2f9 3c3d 61ce c43b f219 2b3d
00000100: 0f22 313e 29d4 0c3d b1a3 ca3c 3f00 803c
00000110: 1a43 04bd b925 223c cbfb 933c 9bc8 ab3c
00000120: 65f3 0e3c b34b c5bc c46a 5d3d fa92 a83c
00000130: 819c dfbc c1c0 e3bd f421 ccbc dd09 613c
00000140: 5d05 0e3c 6746 683d 743c dd3d d136 1bbc
00000150: df86 5c3d 1915 58bd c06a c83a d6bd 4e3d
00000160: dd9a 1e3d 2ba4 3cba 1c2d 223d 8956 b43d
00000170: 27c6 2d3d d272 9bbc f1d7 a7bb 3977 153c
00000180: 3f5d 403d 378c d03c e438 67bb 0488 463d
00000190: a79a 5dbc c6a8 fbbc 0c2a ebbc 8fa1 1bbd
000001a0: edaa 613d 5833 763d 3f32 e3bd d8dd 5ebd
000001b0: 432f 393d 6404 61bd a93f 303d 1e7a bdb8
000001c0: 39dc a2bc f663 1ebd 30ae afbc 5229 b63b
000001d0: 925b a63c 075a 18bd af25 913d e84f 02bd
000001e0: c2ab ebbc c354 323d 6c10 873d 69cf 263d
000001f0: a80b a03d fe48 8e3d 8b6a 6fbc 7d72 6e3d
00000200: 903b 873c 360c 2b3d 1994 8f3c 13db 343b
00000210: ee14 593d dc5f e6bb e358 033d c6f8 913d
00000220: d451 453d 71c5 53be e4a0 8ebc c83b c4bc
00000230: f08c 00bb 587b 1d3c aaa7 743d 7392 423d
00000240: 5a3a c3bc 736b c53b 564e 1abd 59c4 573d
00000250: 59f6 f4bb 207b 613c aada a23a f76d 0abe
00000260: a3dc 903b 64dc c13b 7648 913b 620f a73d
00000270: ec37 503d a819 2ebd 9f7f c43b 31fc 4a3d
00000280: 74b7 c1bc f2a4 7a3d 2525 cb3d aa76 063d
00000290: 029b a33c 381f 443d 40dc 26bc 56eb d73b
000002a0: 50f1 3bbe ef70 a93a 9f54 bdbc e151 5f3c
000002b0: d158 7e3d 2ddd 323c 8024 493c 2d24 543c
000002c0: ad3d 01bc e69d 153c 7ba6 ea39 3390 dc3b
000002d0: 084d c53c 1598 c9bb d448 f83a 71c4 3fbc
000002e0: a4e7 f0bd 4eec 5d3d a488 273d 9029 f63b
000002f0: 482f f23c 6b30 163c 9c30 86bc e0d3 e4ba
00000300: 1a5f 88bc 2a0c 6e3b cc75 0ebd 2555 783d
00000310: d71a 843d 9631 703d ddf4 07bd 1433 21bd
00000320: cf77 993d 5f52 993d c133 7e3b 0aaa 6fbc
00000330: 3e32 7f3d 75f8 8dbb 1b4d 60be 1cdc a13c
00000340: 98d6 81bd e152 9f3d 7866 213c 3369 86be
00000350: 07d5 b13c a931 5fbc 06bd adb8 9ef8 ffba
00000360: 5eb8 993c ff29 223d 2c7a 36bd fe60 5cbd
00000370: 319a 583d 6359 033d 6094 813d 05e2 643d
00000380: cc7a 8abc 7851 733d e7d2 453d 6712 cdbb
00000390: d7e8 14bc f437 19bb 8367 67bb 6d87 9e39
000003a0: 3186 e7bc bffe b83b 073b 7a3c 8622 283d
000003b0: 3ab2 a5bc a58c 373c 9a07 c03c 56e8 fe3b
000003c0: 4277 d53a da86 6bbb 7488 2d3d 3039 36bc
000003d0: 1242 4fbd 9d17 64bc b4e4 2d3d 6aa2 a33d
000003e0: 4542 efbc b081 b13b 7cae 0cbd 8b05 aa3b
000003f0: 6058 24bc 5a60 123d 6635 273c 7e9e f23c
-0.031594902 -0.08628602 -0.19828168 0.043308552 0.003261475 0.011301598 -0.020529492 0.03345937
-0.011686863 0.06530644 -0.025783202 -0.024152245 0.0064786496 -0.016671209 0.0036105365 0.003997397
0.0070834644 -0.048946004 0.07379784 -0.002184089 -0.19095479 0.023690626 0.0061778617 -0.03980106
0.005273212 -0.010666944 0.041031726 -0.033769105 -0.031657465 0.020985907 -0.015526671 0.023091577
0.01072754 0.090650484 -0.009275473 -0.0027378842 0.006635632 -0.05454467 0.051022157 0.061740316
0.021500798 -0.0056307497 0.006634891 0.031312663 0.015704837 0.0049195155 0.056755222 -0.010978794
0.035608854 -0.11013116 0.023098938 0.041473825 0.00029401554 0.0016003104 0.0044952305 -0.012678637
0.0010366659 -0.001694983 0.019725556 -0.020955648 0.025482783 0.046136566 0.0060060476 0.04177279
0.17298149 0.03438202 0.024736257 0.015625117 -0.032290556 0.009896689 0.0180644 0.02096968
0.008725022 -0.024083948 0.054056898 0.020577896 -0.027296307 -0.11120749 -0.024918534 0.013735262
0.008668271 0.056707766 0.10802546 -0.0094735185 0.05383956 -0.052754495 0.0015290603 0.05047401
0.038721908 -0.0007196094 0.0395938 0.08805568 0.0424253 -0.018975649 -0.005122178 0.009122663
0.046963926 0.025457485 -0.0035281712 0.04846956 -0.0135256415 -0.030720126 -0.028706573 -0.03799587
0.05509465 0.06010756 -0.11093568 -0.054410785 0.045211088 -0.054935828 0.04302946 -9.0349684e-05
-0.019880401 -0.03866955 -0.021445364 0.005559125 0.020307336 -0.03719523 0.07087266 -0.031814486
-0.028768424 0.043537866 0.06594929 0.040725145 0.07814723 0.06947516 -0.014612804 0.058214653
0.016507894 0.041759692 0.017526673 0.0027596399 0.052998476 -0.0070304703 0.03206719 0.07127528
0.04817374 -0.20680787 -0.017410703 -0.023954287 -0.0019615255 0.009611927 0.05973021 0.047502946
-0.023831535 0.006024772 -0.037672363 0.052677486 -0.007475656 0.013762265 0.0012424786 -0.13518511
0.004420833 0.005916165 0.004433687 0.08157231 0.05083458 -0.042504936 0.005996659 0.049556915
-0.023647048 0.06119246 0.09919194 0.03282801 0.019971374 0.047881335 -0.010184348 0.0065893335
-0.18353772 0.0012927334 -0.02311164 0.013630361 0.06209642 0.01091699 0.012276769 0.012948078
-0.00788824 0.009131884 0.00044755996 0.006731057 0.024084583 -0.006152163 0.0018942603 -0.01170455
-0.11762932 0.054180436 0.040901795 0.007512279 0.029563561 0.009166817 -0.0163806 -0.0017458163
-0.01664691 0.0036323168 -0.03478031 0.060628075 0.06450432 0.05864104 -0.033192504 -0.039355353
0.07493555 0.07486414 0.0038788172 -0.014627943 0.062303774 -0.004332597 -0.21904413 0.019758277
-0.06339759 0.0777948 0.009851091 -0.26252136 0.021708025 -0.01362268 -8.284491e-05 -0.001952905
0.018764671 0.03959083 -0.044550106 -0.053803436 0.052881423 0.032067668 0.063271284 0.05587961
-0.016904257 0.059403867 0.048296835 -0.0062582972 -0.0090887165 -0.0023379298 -0.00353095 0.00030237008
-0.02826223 0.0056456025 0.015272862 0.04104855 -0.020226587 0.011202966 0.023441125 0.0077791614
0.0016286152 -0.0035938532 0.04236646 -0.011122033 -0.05060012 -0.0139216455 0.042454436 0.079899624
-0.029206404 0.0054170713 -0.03434609 0.005188649 -0.010030836 0.03573642 0.010205602 0.02961659
